1-GNNs/result/6108_AR_NURA_GCN_0920/saved_model/GCN_bst_6.pth (torch, 283866 bytes, 16 tensors)

gnn.gnn_layers.0.graph_conv.weight f4 [74, 128]
000000 35 d5 78 3d 6d f9 62 bc af f7 49 3e 6e b8 26 be
       0.060750205 -0.013853413 0.1972339 -0.16281292
000010 18 c9 03 3e d9 35 fb bd a4 6e d4 bc da 63 97 3d
       0.1286968 -0.1226613 -0.025931664 0.07392092
000020 74 e1 c8 bd d9 f5 dc bd f3 16 73 3c 91 e8 f1 bd
       -0.09808627 -0.10789079 0.0148370145 -0.11811937
000030 dd 5a 79 3b 83 42 bb ba 94 8e d8 bd fa 47 8c 3d
       0.0038048544 -0.001428679 -0.105740696 0.06849666
000040 c0 e9 80 3d db 8e 10 3e a6 96 ca bd 95 5b ce 3d
       0.06294584 0.14116995 -0.09892015 0.10076062
000050 c3 99 c4 3c 95 74 ff 3d 80 52 10 3d 2c 84 98 3d
       0.0239991 0.12473408 0.035234928 0.07447085
000060 5f 39 53 3d 71 66 08 be ff cf f2 3d 90 ad e1 bd
       0.051568385 -0.13320328 0.11856078 -0.110194325
000070 2e a4 fe 3d f9 a8 c3 3d 4b 20 89 bc 38 f7 04 be
       0.124336585 0.09553713 -0.016739031 -0.12984931
000080 06 4f 3f 3e af ce 08 3e 40 2f 1f be 61 66 c3 bd
       0.18682489 0.13360094 -0.15545368 -0.095410116
000090 c0 1e 52 bd dc c8 1c bd cc ff 01 be d0 f0 87 3d
       -0.051298857 -0.038277492 -0.12695235 0.06637728
0000a0 b9 cb 2b be 8d 8c cb 3c e2 3f 97 bc 6a dd fb bd
       -0.16776933 0.024847293 -0.018463079 -0.12298091
0000b0 97 b8 16 be 0b bf 27 3e 12 4a 34 3e 9b 85 63 3d
       -0.14718853 0.16381471 0.1760638 0.055547338
0000c0 de 00 87 bd 1d 06 05 be 13 dc 35 be fc 4e 1d bd
       -0.06591962 -0.12990613 -0.17759733 -0.038405403
0000d0 c9 83 62 3d 7f f2 11 be 5f 90 62 3d ad ac ec bc
       0.05530146 -0.14252661 0.055313464 -0.028890932
0000e0 39 e9 aa bd a5 a0 e6 3d e6 92 1f bd aa af 18 bd
       -0.08345265 0.11261109 -0.038958453 -0.0372769
0000f0 e3 68 b3 3d 62 15 d4 bc 57 61 fb 3d fa af 06 3e
       0.0876024 -0.025889102 0.122744255 0.13153067
000100 3f 15 4c 3d 72 71 d2 bd 29 36 c9 bd 73 18 78 3d
       0.04982495 -0.10275544 -0.09824783 0.06057019
000110 45 00 e7 3d 00 c7 06 3e 8f 18 30 bd af 6f 1e 3d
       0.11279348 0.1316185 -0.04299217 0.03868073
000120 12 34 ac 3d 77 61 9d bc c1 31 ea 3d 95 3e 1f bd
       0.08408369 -0.019211514 0.11435271 -0.038878042
000130 3e 77 0d 3e 65 1c ee 3c b3 58 0a 3e 5a 27 0f be
       0.13815019 0.029066274 0.13510399 -0.13979855
000140 a0 6b b3 3d 0a c5 1f be d1 93 d5 bc b1 b5 66 3d
       0.08760762 -0.15602508 -0.02607146 0.05632562
000150 6a 72 35 3d aa 79 86 3c fa 23 d4 3c f6 0d e7 bd
       0.044298567 0.016415436 0.025896061 -0.1128196
000160 69 19 43 3d b1 db b5 bd d7 e3 bf bd 58 e6 3e bd
       0.047631655 -0.088797934 -0.09369629 -0.04660639
000170 9d cb cd 3d 4f f6 37 bd 49 ae 2a 3d fd 16 24 3c
       0.10048602 -0.044912633 0.041670118 0.010015246
000180 59 48 fb bc a4 f0 ea bd 2a 87 2b 3d 85 9b 21 be
       -0.030674146 -0.1147168 0.04187695 -0.15781982
000190 c6 b6 db 3c b5 e0 79 bd c7 c6 12 be 7b 39 10 3e
       0.026820552 -0.061005313 -0.1433364 0.14084427
0001a0 ed c6 90 3d 83 fa 4a 3d 84 79 42 3e 89 d5 25 bd
       0.07069192 0.049555313 0.18991667 -0.040486846
0001b0 ea 50 5b 3d 0a 60 c3 bb 92 f3 20 be 7b 55 27 3d
       0.053543963 -0.0059623765 -0.15717915 0.040853005
0001c0 f8 90 31 bc ba 16 13 3d f5 16 15 3e 6c f8 c4 3d
       -0.010837786 0.035910346 0.14559539 0.09617695
0001d0 0f 61 28 3e 7a a1 94 bd 79 7f c1 bc ad 78 83 b7
       0.16443275 -0.07257362 -0.023620354 -1.5672611e-05
0001e0 8f 6b 7b bd 5d 3c ba 3d 43 ed 26 be 68 aa f8 bd
       -0.061381873 0.09093545 -0.16301446 -0.121418774
0001f0 fc 76 65 bb 7d e3 29 bc 39 c7 0a 3d de 62 81 bd
       -0.0035013547 -0.010369179 0.0338814 -0.063176855
000200 e8 b5 9a bd f7 a4 a1 bd fd b4 da bd 5e 40 ee 3c
       -0.07554227 -0.07892793 -0.10679052 0.029083427
000210 b1 fb ec bd ec 46 2f bb 07 7b cc 3b bd c3 6b bd
       -0.11571444 -0.0026745154 0.006240252 -0.057559717
000220 e4 99 d2 3d f0 ce 94 3c ce 9c e2 3c 56 ad 82 be
       0.102832586 0.018165082 0.02766266 -0.2552287
000230 2d b1 b6 bd d6 2a 75 be d4 d8 dd bd 13 ab 70 3e
       -0.08920512 -0.23942122 -0.10832372 0.2350276
000240 18 51 42 bd 98 27 a8 be 1b 15 80 3c 1c 60 24 bd
       -0.04744062 -0.32842708 0.015635064 -0.04013072
000250 ad a2 6c be f8 3d 3f 3e 76 15 dc 3d 8c 58 23 3e
       -0.23108931 0.18675983 0.10746281 0.15951747
000260 d7 ed 91 3d 8f bb 37 3d 44 15 ae bd 54 8f 60 3e
       0.071254425 0.044856604 -0.0850015 0.21929675
000270 2e 3e 0c be 3f a1 36 3e d3 b4 83 bd e4 7f d2 3d
       -0.13695595 0.17834948 -0.06430974 0.102782995
000280 27 c0 02 3e 00 80 32 bb dc 30 58 3e 95 2b db bd
       0.12768613 -0.0027236938 0.21112388 -0.10701672
000290 53 f1 e9 bd e9 d4 25 3d 52 71 2d 3d 9c fd 80 bd
       -0.11422982 0.04048625 0.0423444 -0.06298372
0002a0 0d 5a 8a 3e 9c a0 26 be b7 4e 2f be 79 7e 76 3e
       0.27021828 -0.16272205 -0.17119871 0.24071683
0002b0 9e 13 9f bd 48 c8 3c be 70 ae 34 bc 7c 7e 81 3d
       -0.077674136 -0.18435776 -0.011027917 0.06322953
0002c0 c0 b6 0c be 02 50 05 3e e0 b2 7c bd 9b cc 6e 3c
       -0.13741589 0.13018802 -0.061694026 0.014575149
0002d0 3b 41 c0 bd ad 49 03 3e 64 15 7e 3d ce c5 ad 3c
       -0.09387442 0.12821074 0.06203212 0.021212485
0002e0 c1 75 ca bd f4 82 ef 3d 42 ef ca bc db cd b9 3d
       -0.09885741 0.11694899 -0.02477229 0.09072467
0002f0 07 e1 59 bc ab ec 0d 37 c8 88 f6 3d 78 74 af 3d
       -0.01329828 8.4593585e-06 0.12037808 0.085671365
000300 8f 79 b9 bd 0c a1 f9 bd 53 f7 87 bd 3d 48 50 3e
       -0.090563886 -0.121889204 -0.0663897 0.20340057
000310 6a 5b 59 be 00 0f ab 3d 3a c1 7b be 49 08 41 3d
       -0.21226278 0.083524704 -0.24585429 0.047127042
000320 ec 7d 45 be 8e a6 c0 3d 06 7a e8 bd 88 e6 b5 3b
       -0.19286317 0.09406768 -0.11351399 0.005551163
000330 bf 88 ec bd 52 7f 36 bd 89 97 40 3e 3b 5f 8b 3d
       -0.1154952 -0.044555016 0.18807806 0.06805273
000340 f2 ec 76 3c f9 b7 f0 bd 9a 53 e8 3b 3e 48 77 be
       0.015071141 -0.1175384 0.007090044 -0.24148652
000350 1c 3f 40 3d ab 73 5e be 8f 2c 13 be 8e 8b 50 bd
       0.046935186 -0.21723811 -0.14372467 -0.05091434
000360 c5 fd 10 3e 9f 76 17 3e 86 38 6d be 43 cf 88 3e
       0.14159305 0.14791344 -0.23166093 0.26720628
000370 fa 61 0e bc 04 ba 6a be 71 51 ad 3d f7 73 2f be
       -0.008690352 -0.22922522 0.08462799 -0.17134081
000380 58 63 01 be dd 82 9c bd 2e 3f d1 3c 1b a3 38 be
       -0.12635553 -0.07642148 0.025542822 -0.1803097
000390 55 af 28 3d a5 79 9c bb 6d 10 d0 3d 4a 1f 54 3e
       0.041182835 -0.0047752433 0.10159383 0.20715061
0003a0 0e 53 bf 3d c8 22 cc bd dd 54 07 3e ca 04 4f be
       0.09342013 -0.099675715 0.13215967 -0.2021667
0003b0 06 35 71 3e 9a 9a 1d 39 b7 d3 d9 bc f6 ac 74 bd
       0.23555383 0.0001503028 -0.026590211 -0.05973526
0003c0 7c 39 3f 3d 33 b0 53 be 11 d2 9c bd dd 6a 6c 3d
       0.04668568 -0.20672683 -0.076572545 0.0577191
0003d0 e0 64 ce bd 2e e4 ba 3d 2c 1c d2 bb f8 bd 94 37
       -0.10077834 0.09125553 -0.0064120498 1.7731436e-05
0003e0 7f ed 82 3c 2d 8f 1e 3e c8 f6 dc bd bc fe a1 ba
       0.015982388 0.15484305 -0.10789257 -0.0012359242
0003f0 4f 82 0b 3b b8 ca 3a 3e 05 c1 c0 3d eb 54 06 bd
       0.0021287387 0.18241394 0.094118156 -0.032795828

gnn.gnn_layers.0.graph_conv.bias f4 [128]
000000 83 2f fa bb 81 15 15 bd 9b d9 65 3c d1 8b 03 bd
       -0.0076350584 -0.03639746 0.014028932 -0.03211576
000010 80 3b 11 bd 91 1a 6f 3c 0d 26 91 bc 02 42 21 bd
       -0.035457134 0.014593736 -0.01771834 -0.03936959
000020 58 25 87 3d bc 0d d5 bc 33 b1 12 bd 4c 16 0d bc
       0.0659892 -0.026007526 -0.03581352 -0.008611273
000030 2e f5 ed bc b8 d8 28 3d 11 48 46 3d 15 09 0d bd
       -0.029047575 0.041222304 0.04840857 -0.03443249
000040 be 07 60 bb 29 1b 3b 3d 49 a0 3f bd 21 58 3f bd
       -0.0034184302 0.0456802 -0.04678372 -0.046714906
000050 48 35 49 bd 0a 3f c4 3c 03 44 1a 3c a2 2d 86 bd
       -0.04912308 0.02395584 0.009415629 -0.065516725
000060 e6 21 a1 3c c0 46 01 3d 85 01 07 bd 65 3b 1e 3c
       0.019669484 0.031561613 -0.032960434 0.009657715
000070 ae ba be bc d3 57 e7 bb 1c 28 81 bc 53 e7 27 3d
       -0.023282375 -0.00706003 -0.015766196 0.040992092
000080 b2 93 4f 3c 64 db 96 bc 00 de b3 bc cb be 2a bc
       0.012669491 -0.01841516 -0.021956444 -0.010421465
000090 2b 62 f6 bc d2 ad d5 3b 85 9a a7 3c db b3 84 bc
       -0.030076107 0.006520965 0.020459423 -0.016199043
0000a0 bd b7 07 bc a4 b7 8d ba 3e 60 c1 bc bd 52 90 b8
       -0.008283553 -0.0010812175 -0.023605462 -6.881866e-05
0000b0 db e9 bc 3c d1 d3 30 bd b0 e3 90 3c a5 ca d3 bc
       0.02306073 -0.043170754 0.017686695 -0.025853464
0000c0 80 12 1a bd 94 bc 50 3d 69 d8 d1 bc 1a 41 81 bc
       -0.0376153 0.050961092 -0.025615888 -0.015778113
0000d0 66 09 fe bc b8 79 8f 3c 92 49 f8 bc e0 12 d7 bc
       -0.03101034 0.017514095 -0.030308519 -0.026254117
0000e0 60 89 de b9 af 8b b7 bc 51 da f4 bc d6 9c d8 3b
       -0.00042445492 -0.022405474 -0.029889258 0.006610493
0000f0 99 98 5c bd e2 43 b8 bb 2e 86 f6 bc 8f 32 0c bd
       -0.053856466 -0.0056233266 -0.030093279 -0.034227904
000100 db 60 37 3c 03 1c f8 3c cc d1 15 bd 75 05 b0 bc
       0.011192526 0.030286795 -0.03657703 -0.021486977
000110 9e 09 be 3b 56 b2 d8 bc 7c a9 a2 3b c4 e6 a2 3c
       0.0057994863 -0.026452225 0.004964052 0.019885428
000120 9a 2e 3a bd aa 65 9b ba 1c 39 fe bc d2 6a 9a bc
       -0.0454546 -0.001185586 -0.031033091 -0.018849764
000130 31 a9 46 bd 79 3d f7 bc 7f 12 c0 bc c3 31 88 3d
       -0.048501197 -0.03018068 -0.02344632 0.06650116
000140 7e 83 b0 bb 38 ec 17 3c 07 00 02 bc 13 89 7b 3c
       -0.005386769 0.0092726275 -0.007934577 0.015352505
000150 27 8b 13 bd db fb 3e bd c9 49 17 bd a2 6f f6 3b
       -0.036021378 -0.046626907 -0.0369356 0.007520632
000160 d3 6a 6b bc 53 08 0d bd 80 f7 af bb 2e 7e b4 bc
       -0.014368731 -0.034431767 -0.0053700805 -0.022032823
000170 86 51 cf bc 8f 4d 52 3b b7 05 75 bc 46 4d 75 3c
       -0.025307428 0.0032089686 -0.014954976 0.014972037
000180 ff a2 e9 bc 80 70 a4 bc 37 ef 4e bb f1 d3 7f 3c
       -0.028520105 -0.020073175 -0.0031575689 0.015614496
000190 4c 8e 58 bd e6 40 50 bc bb 5a e2 3a 32 17 8d 3b
       -0.05287008 -0.0127107855 0.0017269471 0.0043057436
0001a0 fd 89 93 bd 41 ca 9a bd 63 75 b5 3c 15 21 93 bc
       -0.072040536 -0.07558108 0.0221507 -0.01796011
0001b0 e7 4f 10 bc 42 99 a4 ba b6 3c 0b bc 3b 6c 10 bb
       -0.008808113 -0.0012557881 -0.008498361 -0.0022037167
0001c0 24 36 1c 3c c7 f4 41 bd 41 19 bd bc dc 19 e6 bc
       0.0095343925 -0.04735258 -0.023083331 -0.028088503
0001d0 f3 74 28 3c 06 ac f1 3c 70 f4 81 b7 c4 d3 48 ba
       0.010281789 0.029500972 -1.5491823e-05 -0.000766095
0001e0 15 9d f2 bc 04 ac f6 bb 46 8b c1 ba 33 0f 9e bc
       -0.029615918 -0.00752783 -0.0014766238 -0.019294357
0001f0 42 15 2d bb 0b 10 e8 3b 84 4f 4a 3c ae 4f 85 bc
       -0.0026410376 0.0070819906 0.01234806 -0.016273346

gnn.gnn_layers.0.res_connection.weight f4 [128, 74]
000000 f8 e5 59 3d 06 8d 1e bc 7f af 00 bd e0 66 5c 3e
       0.05319783 -0.009677177 -0.031417366 0.21523619
000010 7a e2 bd bd fa d2 7e 37 84 5f b2 bc 09 64 0f bc
       -0.092717126 1.5188702e-05 -0.021774061 -0.008751878
000020 71 11 15 3c ed 33 ea b6 4e 34 52 37 3a 0e da 36
       0.009098397 -6.9797884e-06 1.25291535e-05 6.4985625e-06
000030 eb 58 d4 b6 82 d8 e8 b5 c4 94 b3 36 73 4d 7e bd
       -6.3284438e-06 -1.7348359e-06 5.3519343e-06 -0.06208558
000040 97 5e 00 37 28 58 b9 b6 da d1 30 38 51 2b 8d 36
       7.651418e-06 -5.5236924e-06 4.215711e-05 4.20717e-06
000050 66 71 ec b7 bf 32 45 b5 11 14 4e b7 cb c7 7c 37
       -2.8186198e-05 -7.3462064e-07 -1.2283229e-05 1.5066888e-05
000060 f2 b3 57 37 45 ff 81 b5 8f b9 c7 37 b3 4c ff 35
       1.2856895e-05 -9.685542e-07 2.3809056e-05 1.9021303e-06
000070 6b 21 f8 35 a7 6a 81 36 87 d4 a0 37 22 ae 85 b7
       1.8487166e-06 3.8569156e-06 1.9172452e-05 -1.5935922e-05
000080 18 57 b6 37 c7 82 1c 38 23 35 04 b7 73 53 16 b6
       2.1736647e-05 3.7315094e-05 -7.880185e-06 -2.2400316e-06
000090 a2 fa 33 b8 f9 38 03 38 65 65 80 b8 12 ff 4f b8
       -4.2910346e-05 3.1285894e-05 -6.122402e-05 -4.95902e-05
0000a0 c8 62 7a 38 2a 77 5e 36 45 11 47 b7 9f 78 8c b7
       5.9696642e-05 3.314994e-06 -1.1865345e-05 -1.674547e-05
0000b0 06 43 f7 bc 91 87 51 bc ad f7 23 3d 6b 1d ce 3d
       -0.030183326 -0.012788669 0.040031124 0.10064205
0000c0 6b ae 1c b8 56 49 79 38 85 ca fe 37 90 74 f1 b4
       -3.7355738e-05 5.9434526e-05 3.0373465e-05 -4.4974558e-07
0000d0 3e 4f 3b 33 a9 23 1e 38 20 d8 b0 bb ea 45 f9 3d
       4.36114e-08 3.7703347e-05 -0.005396858 0.12171538
0000e0 60 20 94 bd 22 65 ff bd 75 58 41 38 6c 6d 6b 37
       -0.072327375 -0.124704614 4.6097168e-05 1.4032568e-05
0000f0 fc cc 67 38 f4 89 87 bd 1e 73 ee b9 58 44 02 3e
       5.52656e-05 -0.06618109 -0.00045480666 0.12721384
000100 48 eb 56 3d 32 45 6c 3d 43 9e 0b b8 85 e7 09 b7
       0.052470475 0.057683177 -3.3287575e-05 -8.219741e-06
000110 62 df f9 bd 00 cc 04 bd 69 04 c1 bc bf 46 90 bc
       -0.1220081 -0.032421112 -0.023561673 -0.01761186
000120 1a 64 6e bd f1 76 8a 37 0a d2 e4 3c c3 91 a5 3c
       -0.058200933 1.6506268e-05 0.027932186 0.020211106
000130 82 bc 7b bd 68 f6 56 3d 7a 15 cd 3c f0 00 ee 37
       -0.061459072 0.052481085 0.025034655 2.8372247e-05
000140 3e d9 a8 b7 d4 02 31 3c a1 41 12 38 13 55 a6 b7
       -2.0128322e-05 0.010803897 3.4870234e-05 -1.9828358e-05
000150 18 df 40 b6 fe 38 7d b8 57 89 f7 37 0e 64 d3 35
       -2.8740087e-06 -6.037298e-05 2.9508648e-05 1.5749845e-06
000160 0d ea eb 36 0f dc 5e b7 05 0d 70 b8 0a 75 2b 37
       7.030793e-06 -1.32834675e-05 -5.7232584e-05 1.02196445e-05
000170 f8 15 e9 36 cb d0 f7 b7 01 06 83 36 18 c8 c7 36
       6.9464986e-06 -2.9541921e-05 3.904803e-06 5.953956e-06
000180 e6 ea 5d 36 d2 67 8d 35 5c e0 33 b8 15 a8 4d b5
       3.3068295e-06 1.0535534e-06 -4.2885877e-05 -7.661304e-07
000190 ef 98 f4 37 2f 9e a1 37 a7 d2 8e 37 86 dd ca b7
       2.9158282e-05 1.9266356e-05 1.7025812e-05 -2.4183431e-05
0001a0 87 06 34 38 f1 f8 76 37 92 ec da b4 ab f9 4a 35
       4.2921423e-05 1.4720704e-05 -4.0777792e-07 7.561418e-07
0001b0 f4 f4 22 38 24 4f d4 b5 6a a4 89 b6 a4 4d f4 37
       3.885194e-05 -1.5818264e-06 -4.1020585e-06 2.912322e-05
0001c0 27 ba 33 36 59 09 4d b7 50 f0 82 37 97 2f 3e 36
       2.6781433e-06 -1.2221129e-05 1.5609112e-05 2.8339907e-06
0001d0 00 a5 88 b5 f6 85 23 37 7b 02 9a 3d ca 91 f0 bd
       -1.0180811e-06 9.746747e-06 0.07520004 -0.11746557
0001e0 1e f8 f4 bc a9 ec 68 3d e3 e3 fb b3 03 4d ac 35
       -0.029903468 0.05686632 -1.1729551e-07 1.2837412e-06
0001f0 38 b3 62 37 cb 6e 6f b5 35 71 db 37 fd 5b 38 b6
       1.3512377e-05 -8.9195663e-07 2.615955e-05 -2.747168e-06
000200 34 44 dd bd 4b 74 55 bd 08 a4 66 3d d7 6d 31 bd
       -0.10804024 -0.05211286 0.056308776 -0.043317642
000210 ef bf c3 b7 03 d8 81 b8 24 5c 1f 38 68 26 cc 3a
       -2.3335188e-05 -6.191435e-05 3.7994367e-05 0.0015575411
000220 e3 6d 5f 35 0f 62 18 3b 70 ea aa 3d b9 bb 3e bc
       8.323388e-07 0.0023251807 0.08345497 -0.011641436
000230 6b 66 e0 36 4c 6b 8d 37 46 ef 93 bb 67 1d 4a bc
       6.6876432e-06 1.6858474e-05 -0.0045146076 -0.012336112
000240 f6 d2 0c bb 73 ce b0 3d 3a c8 d7 bc 28 f7 00 b6
       -0.0021488047 0.08633127 -0.026340593 -1.921735e-06
000250 46 e2 8e 3d 0d 6a a8 bb 9d 6c 43 3d 16 b5 10 bd
       0.06976752 -0.0051395954 0.047711004 -0.035328947
000260 8a e5 86 bc 84 9e 1a b6 79 89 56 3d c2 6d 14 3c
       -0.016466875 -2.3040056e-06 0.052377198 0.009059371
000270 06 82 d9 bb 31 fa 47 b7 4a 31 b7 37 a3 96 ea b5
       -0.0066378145 -1.19195765e-05 2.1838252e-05 -1.74782e-06
000280 a7 48 cd b7 2b 56 16 b7 bd 7c 02 33 97 71 64 3d
       -2.4471736e-05 -8.960759e-06 3.0381432e-08 0.05577239
000290 3f f0 d5 b6 b6 4e be b5 d9 27 fc b6 44 56 ec b7
       -6.375863e-06 -1.4179011e-06 -7.514824e-06 -2.8173563e-05
0002a0 ee 24 41 b7 3d 45 1c b7 6a 93 de b6 05 43 25 b8
       -1.1512295e-05 -9.314445e-06 -6.633277e-06 -3.9401482e-05
0002b0 ac 70 84 b7 6a cf 88 b6 76 0a 8b 35 52 68 62 37
       -1.5788093e-05 -4.077262e-06 1.0359352e-06 1.3494939e-05
0002c0 47 66 d4 b5 f8 be fc 35 c9 22 43 35 44 df 8b b5
       -1.5824997e-06 1.8831042e-06 7.269378e-07 -1.0421286e-06
0002d0 87 b8 09 37 17 c2 71 b6 22 38 b3 b7 6c aa 3a 37
       8.2088e-06 -3.6024774e-06 -2.1364602e-05 1.1126143e-05
0002e0 65 a7 b1 b7 b4 70 a1 b5 a4 91 c5 b7 71 2f 12 b8
       -2.1177993e-05 -1.2028236e-06 -2.355205e-05 -3.4853296e-05
0002f0 64 91 15 37 02 b1 3a b7 ec d1 51 36 ea c9 f8 36
       8.9149435e-06 -1.1127677e-05 3.1265618e-06 7.414482e-06
000300 ff bf e1 bc 1d 7b eb bd c7 c6 75 3d eb 32 f4 bb
       -0.027557371 -0.11498091 0.060004022 -0.007452359
000310 81 49 2c b8 17 b1 79 37 a6 84 e3 37 54 c0 87 37
       -4.107645e-05 1.48827885e-05 2.7122278e-05 1.6182814e-05
000320 8c 8e 2f 37 02 d8 7e 36 39 7c b9 3d a9 37 4f bd
       1.0464002e-05 3.7974683e-06 0.09056897 -0.05059019
000330 b4 96 76 bd fc b1 41 3d ed e6 58 37 a3 09 46 b6
       -0.060202315 0.04728888 1.292837e-05 -2.9509908e-06
000340 c5 34 ca b5 81 70 6a bd f8 7a 8e 3a 12 f0 4b bd
       -1.5065531e-06 -0.0572362 0.0010870388 -0.049789496
000350 ef 2b a1 3c d3 1c c2 bd 4b 34 a2 b6 9c 5e 0f 38
       0.01967427 -0.09478154 -4.834064e-06 3.418197e-05
000360 40 cd 96 bc 6f 1e 45 3b 2a 9f 5c 3c d4 58 2c 3d
       -0.018408418 0.0030077954 0.013465682 0.0420769
000370 2c 20 2d 3c 65 cc 87 36 3a 54 8c bd dd 9b 0d bc
       0.010566752 4.047108e-06 -0.068520024 -0.008643118
000380 15 e6 8c 3b a4 0f f8 36 0a 9e 0a b6 b1 d6 f3 b5
       0.004299889 7.3927968e-06 -2.0655593e-06 -1.8167394e-06
000390 81 be b6 b7 2a a9 8a b7 f4 4a 07 36 0a 9d c9 37
       -2.1784801e-05 -1.6529655e-05 2.0160196e-06 2.4034194e-05
0003a0 93 f1 9e 37 3f dc 0e 37 bc e8 ed b6 e0 bd 28 38
       1.894756e-05 8.51514e-06 -7.0902443e-06 4.0231156e-05
0003b0 b0 c9 e8 b7 f5 8f 2b 38 82 f2 f9 b7 97 b4 33 38
       -2.7750473e-05 4.0903647e-05 -2.979604e-05 4.2845113e-05
0003c0 26 43 61 37 f4 8e a8 36 1f 28 9f 37 2d 88 27 36
       1.3426679e-05 5.023432e-06 1.897296e-05 2.4964204e-06
0003d0 d4 51 4f b7 d5 8d fd 37 a4 aa 61 37 32 6f db b6
       -1.2357214e-05 3.0225996e-05 1.3450775e-05 -6.5396534e-06
0003e0 e4 1e 77 36 03 36 17 b7 20 5b 65 b6 dc 8d 09 37
       3.6823849e-06 -9.012877e-06 -3.41767e-06 8.1988655e-06
0003f0 5f 22 c8 37 14 d1 fe 36 12 bc b9 35 24 f2 b1 b6
       2.3857863e-05 7.59413e-06 1.383831e-06 -5.3032e-06

gnn.gnn_layers.0.res_connection.bias f4 [128]
000000 e7 47 59 3d f1 cc 2e bd 39 39 d5 3d de e3 ba bc
       0.053047087 -0.042675916 0.10411305 -0.022813734
000010 b9 87 8b bc 2d a4 17 3d 67 bf 35 bc 2b 81 42 bd
       -0.017032491 0.037021805 -0.011092997 -0.047486465
000020 05 bf 01 3e ab fe de ba 0b c3 a7 bc 92 34 43 3c
       0.12670524 -0.0017013153 -0.020478746 0.011914389
000030 11 a0 83 bd b2 a2 90 3d 24 33 b3 3c 36 68 e4 bd
       -0.064270146 0.07062282 0.021874972 -0.11152689
000040 31 3a 3a bd 06 d1 2a bd d5 63 2d 3d 8f 00 4c bd
       -0.045465652 -0.041703247 0.042331535 -0.04980522
000050 53 9e da bd d3 ea 0b 3d 09 48 7a bb e7 56 03 3c
       -0.10674729 0.034159493 -0.003818991 0.008016325
000060 54 67 a0 3d 30 7b 24 bc b7 66 9f 3d 5f 3a a5 bd
       0.07832208 -0.010039136 0.07783263 -0.08067774
000070 a9 7d 6c bd 95 51 70 3d 4a 50 5b bc 36 1f f4 3d
       -0.057737026 0.058671553 -0.013385842 0.119200155
000080 db 38 8b bd e9 88 01 bd 1c af 83 bc 87 6e f5 bc
       -0.06797954 -0.03162471 -0.01607471 -0.02995993
000090 9e c9 04 3d 81 22 dd 3d ec 99 38 3d 65 0f 24 bd
       0.03241884 0.10797597 0.045068666 -0.040053744
0000a0 1e 4f b7 bd b7 a8 d1 3d 51 2e 10 be c7 9e 70 3d
       -0.08950637 0.10237258 -0.14080168 0.058745172
0000b0 b4 c5 07 bc 64 9c 85 bd b3 f1 b1 bd 35 83 f5 3c
       -0.008286882 -0.0652397 -0.086886786 0.029969791
0000c0 8c 29 80 3d 69 23 66 3c cb 60 12 3d 32 1d 93 3d
       0.062579244 0.014046528 0.03573684 0.07183303
0000d0 cf fc 14 3c d5 ed b7 3d a1 46 ae bd 6f 5d 16 3c
       0.009093477 0.0898091 -0.08509565 0.00917755
0000e0 d2 8e 89 3d 5a 7e 8a 3d 03 14 1f 3c 3f d2 c0 3d
       0.06716694 0.06762381 0.009709361 0.09415101
0000f0 ed e1 55 3d 8f a3 47 3d b9 3a 23 bd 4b 9f 24 3d
       0.052217413 0.048739966 -0.039850924 0.040190976
000100 bd 2c 96 bd 78 0f 8a 3d fd bc c1 3d ee 00 d7 3d
       -0.07332752 0.06741232 0.09459875 0.10498224
000110 a7 3b 7f 3a 31 f5 fc 3b 7b 7c 04 be 8f 0e 75 bd
       0.0009736367 0.007719659 -0.1293811 -0.059828337
000120 41 e7 d3 3c e8 d4 8c 3c 52 97 12 3c f9 70 76 3b
       0.025867106 0.017191365 0.00894721 0.0037603958
000130 a3 f4 99 bd 31 b2 a3 bc cd 1e 92 bc 31 dc c4 bd
       -0.07517364 -0.01998243 -0.017836953 -0.09612311
000140 f9 bf a5 3d ed e1 bd 3d c0 b2 34 bd 35 bd cc 3d
       0.080932565 0.092716075 -0.04411578 0.09997026
000150 87 07 6e 3d cd e2 3c 3d 2a fb 88 3d eb 72 c7 bc
       0.058112647 0.04611473 0.06688531 -0.02434679
000160 ba 58 21 bd ff 36 3b bd 1b b5 99 3d d5 5c 95 bc
       -0.039391257 -0.045706745 0.07505246 -0.018232742
000170 ca ea 48 bb 5c e2 c5 bd ab 5e b3 bd 3a ae 97 3b
       -0.0030657523 -0.09662315 -0.08758291 0.0046289237
000180 ed 79 9c bd 3c f7 42 3d 59 35 57 3c 90 1c e4 3c
       -0.07640443 0.047599062 0.013135278 0.02784565
000190 94 ed f5 bc cc da d2 bd 81 3a 12 bc db 58 02 3c
       -0.030020513 -0.102956384 -0.008925081 0.007955755
0001a0 38 db a4 bc 30 50 ba bc 4f ad b1 3d a5 ee 99 bd
       -0.020124063 -0.022743315 0.08675634 -0.07516221
0001b0 c9 91 0f bd fb e4 5f 3d fe bd 95 bd 4a a6 e7 bd
       -0.03505114 0.054661732 -0.07311629 -0.11311014
0001c0 38 c3 85 3d 69 1d 00 3d 7a 7f 08 bd 29 45 ba bd
       0.06531376 0.031278048 -0.033324696 -0.090952225
0001d0 56 41 d1 3d 93 3c a5 bd a3 01 3d bc 2f 99 1a bd
       0.1021754 -0.08068194 -0.011536035 -0.037743744
0001e0 50 47 6a bd a7 38 5c 3c 50 07 4f 3d 6f 6b d0 bb
       -0.057196915 0.013441241 0.050544083 -0.0063604633
0001f0 22 5a 6b bd d2 30 7e bd f1 ad b6 bd d2 20 27 bd
       -0.057459004 -0.062058277 -0.089198954 -0.040802784

gnn.gnn_layers.1.graph_conv.weight f4 [128, 128]
000000 55 d7 b7 bd 7a 3a f2 bb f7 fe d4 bd 1e af 98 bd
       -0.08976618 -0.007392225 -0.10400193 -0.07455276
000010 b2 8d af 39 39 5a 4c bd 75 28 aa 3d d0 f3 44 3d
       0.00033484172 -0.04989073 0.08308498 0.04808408
000020 38 38 9c 3d f2 41 1c 3e 4c 2a 04 bd 79 81 cc 3d
       0.076279104 0.15259531 -0.0322669 0.099856324
000030 0c b5 26 3c 06 10 31 be fa e0 b5 ba a8 07 c7 bd
       0.010175001 -0.17291269 -0.0013876252 -0.09718257
000040 14 e7 eb bb 14 f3 3f 3d e5 e1 00 be 96 f8 0d be
       -0.0071991775 0.046862677 -0.12586172 -0.1386436
000050 39 3c d2 bc 50 89 8f bd e2 40 07 be 29 3a ac 3d
       -0.025663482 -0.07008612 -0.13208345 0.08409531
000060 cd 0d 9a bd a1 7e 76 bd 62 96 87 3c 3b c4 17 3d
       -0.075221635 -0.060179356 0.0165512 0.037052374
000070 5d 84 d6 bc 26 2b 3e 3c e7 8c 94 3d 63 48 4e 3c
       -0.026186163 0.011606967 0.072534375 0.0125905005
000080 4a 85 e7 bd 86 50 0a 3e 44 61 79 bd 8f 8a f3 3b
       -0.1130472 0.1350728 -0.060883775 0.007432289
000090 ea 38 d9 3d 78 50 20 3e 1d 76 d3 3d a5 16 4d 3d
       0.106065586 0.15655696 0.10325263 0.050070424
0000a0 9e 4d 92 3d aa 55 be 3c ea 17 5e bb fd 7d 50 bd
       0.071437106 0.023234207 -0.0033888766 -0.0509014
0000b0 e9 76 23 bd 29 42 d5 3d 30 e7 b2 3d be 7f 11 bc
       -0.039908323 0.1041301 0.08735502 -0.008880554
0000c0 cb 9d 46 b9 d9 0f de 3d 10 a1 4c bd 37 9f 4d bd
       -0.00018941534 0.108428665 -0.04995829 -0.050200667
0000d0 8c 9d 80 3d 1a 05 bb bc 84 b7 2e bb 65 b9 bc 3d
       0.0628005 -0.022829581 -0.0026659677 0.09215049
0000e0 9e 5e 9b b8 e8 4f 8b 3c 02 44 ab bd cc 02 ac bc
       -7.4086e-05 0.017005876 -0.08362581 -0.020997427
0000f0 89 26 af 3c e0 ed 6d 3c d5 33 10 bc ff 1a 05 3a
       0.02138068 0.014522046 -0.00880142 0.000507757
000100 3a 87 d7 3d f7 8e 66 bd 0e 2c 74 bb 74 67 6f 3b
       0.10523839 -0.056288686 -0.0037257704 0.0036530169
000110 51 ed 0e 3e d7 bb 21 3d 98 6a 9c 3d fb 80 cb 3d
       0.13957717 0.03948578 0.07637519 0.099367104
000120 90 a0 a6 bd f8 dd eb bc 10 b8 fc bd c5 ce a5 3d
       -0.081360936 -0.028792366 -0.12339795 0.08096079
000130 7f 66 86 bd 1d 0e e4 bb c3 48 92 3d b5 9b ed bb
       -0.06562518 -0.0069596902 0.071427844 -0.0072512277
000140 32 aa 72 3b ef de d0 3d 28 03 e6 bb ce ac 82 3c
       0.0037027714 0.10198771 -0.007019419 0.01595154
000150 33 83 06 bd bb e3 a3 3d 34 ad b7 3d 56 58 08 be
       -0.032839965 0.080024205 0.08968583 -0.13314947
000160 a9 b4 45 3d d9 2a a4 bd 51 f3 d6 bd fa 51 57 bc
       0.048267994 -0.08015985 -0.10495628 -0.013142103
000170 45 9a a3 3d 07 51 f5 3c 8d d3 e8 3b 3a be bd bb
       0.07988409 0.029945863 0.007105297 -0.005790499
000180 53 d8 e0 3d 2c d0 39 bd 27 c4 b4 3d 3e ea b1 bc
       0.109787606 -0.045364544 0.088264756 -0.02171814
000190 6b df f8 bd c4 aa 05 3e 07 05 6f bc 8b 33 cf 3d
       -0.121519886 0.13053423 -0.014588601 0.10117253
0001a0 dd 69 86 bb 6e 66 b1 3d b8 40 c4 3b 75 7d b0 bc
       -0.0041019754 0.08662115 0.0059891604 -0.021544198
0001b0 a1 bb 15 be 42 64 ae bd 83 ef 7c 3d 04 39 62 bd
       -0.14622356 -0.085152164 0.061751854 -0.055230156
0001c0 fb 70 b1 b9 d0 3b 21 3d 6f 9e 74 bd 93 c2 81 bd
       -0.00033844248 0.039363682 -0.059721407 -0.0633594
0001d0 25 5b 59 bd 72 bc 13 be fd 1d 11 be 65 69 62 3d
       -0.053065438 -0.14427355 -0.14171596 0.055276293
0001e0 42 5d 0a 3e 0a fc a6 bc df 85 88 bd 97 42 8a 3d
       0.13512138 -0.020383853 -0.06666159 0.06750982
0001f0 d2 55 96 3d dd 2f 0d bd 65 f7 5e 3d 2a b6 bd bd
       0.07340588 -0.034469474 0.054435153 -0.09263261
000200 b8 ed 54 bd 37 01 13 bc 25 da b1 bd ba 79 5c b9
       -0.05198452 -0.008972458 -0.08684186 -0.00021026182
000210 94 b4 6a b8 de 7b 92 bd e7 ae fe bc 01 5b f1 bd
       -5.5958124e-05 -0.07152532 -0.03108926 -0.11784936
000220 1e 97 1b bd 3a a9 c2 bd 0f 07 1b bd dd 02 5b bc
       -0.037985913 -0.09504934 -0.03784853 -0.013367382
000230 f5 1b 9a 3d ea c8 d8 bd 9e 51 84 bd e4 e3 9a bd
       0.07524864 -0.10585196 -0.0646088 -0.07562998
000240 9f 21 4e 3c 76 00 52 bd bf b4 9f 39 1b 90 84 3c
       0.012581258 -0.05126997 0.0003046151 0.016181996
000250 ab 2d 8d bc 02 4c 19 be 66 5c 7f bd 20 fb f9 3b
       -0.01723369 -0.14970401 -0.062343977 0.0076288134
000260 5d 41 fa 3c 11 3e b0 3b bb 50 8b 3d 11 ee 5b bb
       0.030548746 0.0053784926 0.068025075 -0.0033558647
000270 23 8e e2 3d f4 43 57 3c e4 fc f4 3d 31 de 2c bc
       0.11062267 0.01313876 0.119622976 -0.010551021
000280 65 d0 a5 3c b5 b7 4f bd 2d 0b e7 3d d6 c8 ae bd
       0.020240972 -0.050712306 0.112814285 -0.085344
000290 5b f4 1e bd 70 d8 7c 3d 75 58 4a 3d b3 23 13 bd
       -0.038807254 0.06172985 0.049400765 -0.035922717
0002a0 05 02 8f 3d a6 24 63 3b 62 a3 09 bc 4d 58 49 3c
       0.06982807 0.0034659295 -0.00840077 0.012289119
0002b0 f6 04 87 3d cc fa c4 bd 45 3f b6 3d 2b 3f 6b 37
       0.06592743 -0.09618148 0.088987865 1.4021799e-05
0002c0 6e f7 ab bb a0 ff 6c bd 20 de 3d bc d0 61 14 3c
       -0.005248002 -0.05786097 -0.011588603 0.009056523
0002d0 a5 81 0e 3e 60 58 d2 bd 89 ff 7c 3d 79 2d 1a 3c
       0.13916643 -0.102707624 0.061767135 0.009410256
0002e0 fd a3 86 38 2a 0a 4d bd fa 96 9a 3c 40 c1 03 b9
       6.420163e-05 -0.05005852 0.01887082 -0.00012565125
0002f0 3e ba 06 3e 1e 1e 8c b7 21 7a 1c bd bd 11 06 3c
       0.13156983 -1.6703325e-05 -0.03820241 0.00818294
000300 62 29 87 bd f3 51 80 bd 94 69 ba 3c cb 8b 4a 3b
       -0.0659969 -0.062656306 0.022755422 0.0030906077
000310 16 ab e4 bd bf 4e f0 3b 0d b6 db bc 46 29 06 3e
       -0.111654446 0.007333606 -0.026820207 0.13101682
000320 0d 25 86 3c f2 59 e0 bb 31 f9 05 3d 70 5f 55 3a
       0.016375089 -0.00684666 0.03270835 0.00081395265
000330 88 f8 9c 3c ed 43 03 bd 1f 32 f2 3d c1 a2 d5 3c
       0.019161478 -0.0320472 0.11825966 0.026078584
000340 5d 75 41 bd 7d d9 07 be d3 60 ef b9 7f 72 44 3d
       -0.047231067 -0.13266559 -0.00045657772 0.047960754
000350 7f 85 0d 3d 4f ee b3 bd 69 04 a5 3d 75 16 e1 bc
       0.03455114 -0.08785688 0.08057482 -0.027476529
000360 8f 7d 47 bd a6 fe ea 3b 1b 2a 46 3d ff f1 21 3c
       -0.048703726 0.0071714697 0.04838 0.0098843565
000370 b9 ba 32 3d df f0 df bd 6b d8 0e ba 50 23 0c 3d
       0.043635104 -0.109346144 -0.0005449119 0.034213364
000380 52 0b 02 be d3 81 b8 bd 9c a0 4c bd 03 26 2a 3d
       -0.12699631 -0.09009137 -0.049957857 0.041540157
000390 16 49 ea bd 8d b0 81 bc 23 3f 9f b8 5a c7 98 3d
       -0.11439721 -0.015831256 -7.593471e-05 0.07459898
0003a0 15 e7 47 bc d5 43 e1 3d 15 16 54 3d b9 31 82 3b
       -0.01220109 0.10999266 0.05177887 0.0039732126
0003b0 9d 03 d8 bb 7b 23 27 bc 48 81 be bd 05 07 1c 3e
       -0.0065922276 -0.01020133 -0.09302002 0.15237053
0003c0 e7 ef e5 b9 3d 4c 36 3d 6c 86 f0 3b 23 97 c4 bb
       -0.00043857025 0.0445063 0.007340243 -0.005999462
0003d0 f5 48 23 ba ba 7a 55 bd fd a3 a9 bd 32 22 e1 bd
       -0.0006228828 -0.052118994 -0.082832314 -0.1099285
0003e0 df ac 0b bd 23 6c b5 b8 84 04 18 bd 6b 69 dd 3d
       -0.03410041 -8.6508946e-05 -0.03711368 0.108111225
0003f0 6f 5b 46 3d d5 7f 3b 3b c5 cd d2 3d 24 54 50 bd
       0.04842704 0.002861013 0.10293154 -0.050861493

gnn.gnn_layers.1.graph_conv.bias f4 [128]
000000 c4 76 b7 3b 67 93 e3 bb b0 86 bf bc a9 d5 7d bb
       0.0055988748 -0.006945062 -0.023379654 -0.0038732088
000010 91 90 18 b9 27 49 fe 3c d2 1d fe bc fd 61 89 bc
       -0.00014549705 0.031040741 -0.031020079 -0.016770357
000020 a8 c4 0b 3c 9d ec 19 bd 73 f1 9d bc 60 6f 87 3b
       0.008530773 -0.037579168 -0.019280171 0.00413315
000030 e6 3e 30 bc 89 16 ed bc c5 a7 73 bd 2e 31 a1 3c
       -0.010757184 -0.02894141 -0.05948617 0.019676771
000040 06 e8 f9 3a f6 20 a8 bc f9 69 49 bc 76 eb a8 3b
       0.0019066341 -0.02052353 -0.012293332 0.0051550223
000050 4c ab 18 bd 7c ef d1 bc dd d8 ed bb 74 2e b0 bc
       -0.037272736 -0.02562689 -0.007258518 -0.021506526
000060 7b 13 85 bc ff de d9 3b 37 2e e6 bc 8c 5e 9e bc
       -0.01624464 0.0066488977 -0.028098209 -0.019332193
000070 57 07 01 3d a5 8e 88 bc ed fd 16 bb 66 6b 8b bc
       0.03150114 -0.01666958 -0.0023039535 -0.017018985
000080 be 15 bd bc 90 cb a0 bb f8 d8 6e bb 54 2e f6 bb
       -0.023081657 -0.004907079 -0.0036445241 -0.007512847
000090 26 33 fa 3c 5d 2c 2b 3d 06 e6 f5 3c 13 6e 0a bc
       0.030541968 0.041790355 0.03001691 -0.008449095
0000a0 95 6f 42 3b b9 29 63 3c f8 89 46 bc 02 cf 0c bd
       0.002966856 0.013864928 -0.012117855 -0.034377106
0000b0 59 8c 6c 3c 69 25 aa bc ac c7 23 3d 35 e3 2d bc
       0.014437758 -0.020769792 0.039985344 -0.010613252
0000c0 9a 71 88 ba 43 82 d5 3c 70 60 71 3c ca ec 0e 3b
       -0.0010409832 0.02606309 0.014732465 0.0021808618
0000d0 d8 e1 5b bc 99 38 20 3c b0 ef f8 3c 53 72 94 bc
       -0.013420545 0.009779119 0.03038773 -0.01812092
0000e0 a3 e8 8c b9 b7 c5 45 3a 92 5e 2f 3b 9e e1 4e bc
       -0.0002687621 0.00075444154 0.002675925 -0.0126270335
0000f0 19 3e 72 bd 5a 76 b2 ba 63 b3 43 3d cd 3b 88 3b
       -0.059141252 -0.0013615594 0.0477785 0.0041575194
000100 6b 4b a7 bc 7a 22 c0 bc e7 0b 5d 39 dc c7 77 3b
       -0.020421704 -0.02345394 0.00021080636 0.0037808334
000110 84 40 fe bc 3d 35 8f 3c e9 78 b1 bd a6 89 10 3c
       -0.031036623 0.01748144 -0.0866564 0.00882188
000120 33 da e0 bc 8d 35 52 bb 75 63 92 3c 69 a4 f7 bc
       -0.027447795 -0.0032075376 0.01786969 -0.030229764
000130 7a 89 f0 bb 88 0a da 3c 16 ef 3b 3a da e3 95 bc
       -0.0073406072 0.02661635 0.00071691105 -0.018297125
000140 09 f0 41 bc 72 15 fa bc fb b9 97 b7 43 5a 15 bd
       -0.011837014 -0.030527804 -1.8087207e-05 -0.036463033
000150 63 c2 48 bc e3 6e de 3b 2d 4b 69 bc 3b 0a 8b bc
       -0.012253377 0.006788121 -0.014239115 -0.016972652
000160 1c c9 36 bd ea 32 d1 bc da 6b 3b bc f6 f0 ab bb
       -0.044625387 -0.025536973 -0.011439288 -0.0052472306
000170 3b cd 29 bc 72 b5 bd bc 2d 15 cd ba 70 63 b9 3c
       -0.010363872 -0.023157809 -0.001564657 0.022630423
000180 0a d4 6b bb e0 17 a2 bc 4c bd 8b ba b0 73 ab 3c
       -0.003598454 -0.019786775 -0.0010661273 0.020929188
000190 90 ff de 3c dc a7 75 bc e7 10 cf bb 94 37 35 bd
       0.027221471 -0.014993634 -0.0063191536 -0.044242457
0001a0 10 35 17 bb 94 16 fa bb 4b 5c cb bb 00 ea c8 bc
       -0.00230724 -0.007632086 -0.0062060705 -0.024525642
0001b0 65 e4 5d bc 14 73 de bc b8 fb 11 3d 99 01 ce bb
       -0.013543223 -0.027154483 0.03564045 -0.0062868115
0001c0 a7 a7 1a bb 55 62 c8 bb 58 84 78 bc 2c 1a 22 bc
       -0.0023598464 -0.0061152377 -0.015168272 -0.009893935
0001d0 78 2e 62 bc 02 28 32 3b a7 9e 12 3c e8 5f 57 bd
       -0.013805024 0.002718449 0.0089489585 -0.052581698
0001e0 ba d4 1e 3d 4c b3 01 bc f8 e5 5f bc a3 86 2e 3c
       0.03877709 -0.007916283 -0.013665669 0.010652217
0001f0 bc 67 10 bc 62 de 16 bd 9c 0b 8b bc 5b 68 f5 3c
       -0.008813795 -0.036833175 -0.01697331 0.029956987

gnn.gnn_layers.1.res_connection.weight f4 [128, 128]
000000 e4 54 1a bc a2 07 5e 38 52 7e f7 3a 71 32 e5 3a
       -0.009419654 5.2936033e-05 0.0018882251 0.0017486346
000010 c9 cd 5d 3c 43 34 8b bc 78 d2 62 b6 2a 3c ab bb
       0.013537833 -0.016992694 -3.3799133e-06 -0.005225678
000020 0d 5d 89 3a 0d e3 8b 37 4e 23 a5 3b 73 ac 1e b7
       0.0010480002 1.667582e-05 0.005039609 -9.457685e-06
000030 db a4 9b 3a d1 21 4e bc f2 2f c0 ba 1a 89 5f 3c
       0.0011874692 -0.012581305 -0.0014662726 0.013643527
000040 4e 25 73 b7 c0 8e 8f b7 0b 71 95 37 d3 e9 71 3d
       -1.4492614e-05 -1.7113402e-05 1.7814824e-05 0.059060883
000050 42 67 da bb 14 c7 54 bd a6 1b b9 ba bb 81 74 bc
       -0.0066651413 -0.05194767 -0.001412262 -0.014923508
000060 7f 54 8b bb ad 8d b1 bc 02 4a f9 bb a4 4e 25 b7
       -0.004252016 -0.021674002 -0.0076076994 -9.853076e-06
000070 dd bf fc 38 1e fb 03 ba d3 da 70 36 dd 53 29 bd
       0.00012052034 -0.0005034673 3.589016e-06 -0.041339744
000080 36 01 db 37 89 84 7e bc de 25 74 3a 0b 1e 5a b7
       2.6107398e-05 -0.0155345285 0.0009313504 -1.30008075e-05
000090 58 39 39 b7 03 8b a0 3b ba aa 89 3c fb 0b a1 ba
       -1.1040211e-05 0.004899384 0.016805042 -0.0012286896
0000a0 75 ed b2 3a 93 70 ed 3b f3 18 f6 3b 1d 20 65 ba
       0.001365109 0.007246086 0.0075102984 -0.0008740442
0000b0 de a7 9d 3b 19 88 4b bb 9b da cf 3b 8f 06 1e bd
       0.004811271 -0.0031056462 0.0063431985 -0.038580474
0000c0 22 be 80 bc 72 37 e6 35 a3 5e de bb 3c 57 24 bd
       -0.015715662 1.7152472e-06 -0.006786184 -0.040122256
0000d0 33 52 b2 3b b8 3f 98 3c e6 5a c9 bc be 69 ed 37
       0.005441928 0.018585071 -0.024579477 2.8301842e-05
0000e0 91 ec 9d b6 56 9b 93 bb 49 ef 2b ba 5a 86 98 3c
       -4.7065046e-06 -0.0045046015 -0.00065587886 0.018618751
0000f0 6e 6a 1c bb 7b 8d d5 b7 e1 88 fb 3c 9f aa 82 3c
       -0.0023867148 -2.545746e-05 0.030704917 0.0159505
000100 fc 03 b2 37 7d 3f f4 b7 5a 5a 79 ba 5a 8b 45 bc
       2.1221109e-05 -2.911663e-05 -0.00095120596 -0.01205715
000110 5f 24 61 bb 81 73 51 bb a9 42 ea 3a c9 31 e9 b9
       -0.0034353954 -0.0031959715 0.001787265 -0.00044478316
000120 11 01 5f 39 dd c8 99 b8 5d 5b d6 b7 81 bf ff bb
       0.00021267335 -7.333022e-05 -2.5553332e-05 -0.0078048115
000130 ea ca db bc c0 86 8b 37 e3 36 af 3b d6 c9 c5 38
       -0.026830155 1.663284e-05 0.005347119 9.431287e-05
000140 8d 4b 1a 39 9c 59 c5 3c 0a a6 89 37 e7 d3 89 bc
       0.0001471473 0.02409058 1.640899e-05 -0.016824676
000150 ac 74 48 bc 11 0f 18 3d d7 c6 04 39 23 22 95 39
       -0.012234848 0.037123743 0.00012662575 0.00028444928
000160 78 db 15 bb 2d bd b7 36 02 3a 2b bb 69 a9 8e 37
       -0.002286641 5.475848e-06 -0.0026127105 1.7006607e-05
000170 89 96 0b bd 4a 54 9b 37 54 6f 01 38 bd 71 22 bc
       -0.03407911 1.851669e-05 3.085968e-05 -0.009914813
000180 3b 9a 3d bd f6 0a ae 3c d1 ce 41 38 a8 36 50 3b
       -0.046289664 0.021245461 4.62074e-05 0.003177086
000190 d6 9f 58 b7 2f 00 27 b8 a3 c7 5f ba 9b d8 1b 39
       -1.2911818e-05 -3.9816074e-05 -0.0008536523 0.00014862644
0001a0 11 40 4e bd 36 1c 0f ba c6 64 96 bb 2c 46 92 b8
       -0.050354067 -0.0005459221 -0.00458965 -6.974893e-05
0001b0 5a 04 05 b8 29 32 98 3a a7 6f 28 3c 14 2d 55 bc
       -3.1713724e-05 0.0011611629 0.010280526 -0.013011236
0001c0 5e d2 1f bc 2e d8 14 bb f0 2d 9a 38 ae 2f e4 bc
       -0.009754745 -0.002271186 7.351849e-05 -0.027854767
0001d0 88 9e 51 bd 60 17 91 3c ea 22 0c 38 aa 02 8f 37
       -0.051176578 0.017711341 3.3411117e-05 1.7048169e-05
0001e0 af b7 f1 bb 17 c7 8a 3c 49 fd 4a b9 63 6a 01 3c
       -0.007376633 0.016940637 -0.00019358577 0.0078989
0001f0 1f 40 16 3b 15 c2 df 3b f5 2f 44 3a 3e eb ba 37
       0.0022926403 0.0068285563 0.0007483953 2.2282471e-05
000200 81 e2 74 bb ea 90 eb 39 2d 76 4a bc 60 a7 db 38
       -0.0037366452 0.00044930662 -0.012357277 0.0001047391
000210 5b 18 cd bb e5 14 6f bc 3e 8e 5a ba 1e c6 29 bb
       -0.006259007 -0.014592384 -0.0008337236 -0.002590544
000220 4d 24 2b bc a0 ac d3 3a 8d 90 2c 3a 4c d4 ad bb
       -0.0104456665 0.0016149469 0.0006582819 -0.005304849
000230 29 4d 4d bb f7 3c 81 bc 57 7e 83 bc 60 74 1d bb
       -0.0031326509 -0.01577614 -0.016051454 -0.0024025664
000240 a5 3f 90 bb f5 48 d2 39 57 49 01 38 89 bf 68 bb
       -0.0044021183 0.00040108679 3.08243e-05 -0.0035514554
000250 0a 28 85 39 1f 1b f1 bb a8 50 ac 38 db 64 ce ba
       0.00025397568 -0.0073579694 8.2166225e-05 -0.001574661
000260 c3 66 91 3a 03 01 95 bb 61 44 2f bc bb e2 f7 b9
       0.0011093247 -0.0045472397 -0.010697455 -0.0004728044
000270 e2 73 86 bb 36 e9 0e 3a 7e b3 65 ba 6d 45 44 bc
       -0.00410317 0.0005451621 -0.0008762403 -0.011979443
000280 65 3c 3c bc d7 e1 be b8 31 05 91 bb 45 cd 7f 3a
       -0.011489009 -9.101972e-05 -0.0044256677 0.00097580656
000290 01 8f ef b6 3b 2f 15 bc e3 be 87 bb de 88 e1 bb
       -7.139403e-06 -0.009105499 -0.0041426285 -0.006882771
0002a0 b7 bb 95 bb 0f c1 84 bc c3 89 68 bb 21 75 bd bb
       -0.0045694965 -0.016205339 -0.0035482503 -0.005781785
0002b0 f1 4f 35 3a 4f 1b c7 bb 22 33 87 bb 1e a5 b9 bb
       0.0006916514 -0.0060762535 -0.0041259686 -0.0056654355
0002c0 02 66 db b8 23 50 ad 3a 03 a1 36 b8 a3 be 6b ba
       -0.00010461734 0.0013222735 -4.3542135e-05 -0.00089929457
0002d0 68 53 dd 39 a9 c5 ce 39 81 cf 83 bb 10 93 82 b9
       0.00042214547 0.0003943865 -0.004022539 -0.00024905102
0002e0 41 5d f6 ba 7f 94 52 bb 88 c5 80 ba d4 a7 d2 bb
       -0.0018796102 -0.0032131968 -0.0009824494 -0.006428698
0002f0 8f aa 7f b9 c4 04 5d ba e6 5a a0 38 86 13 46 bb
       -0.00024382233 -0.0008431191 7.646326e-05 -0.003022404
000300 49 f9 03 3a d8 be 23 b9 9f 40 f0 ba 64 c0 8d bb
       0.00050344 -0.00015615986 -0.0018329805 -0.0043259133
000310 51 f1 b9 bb fa 94 8c bb fa 14 bf bb 3d 49 84 bc
       -0.005674519 -0.0042902203 -0.005831358 -0.016148204
000320 5d 9f 97 bb 7b b8 90 bb 8a b0 2e bc 2d 67 0e bb
       -0.004627152 -0.004416523 -0.010662207 -0.0021728978
000330 8a 24 10 bb d5 3c 1f bc f9 5f 13 bc ef a7 02 3b
       -0.0021994435 -0.009719093 -0.00899505 0.0019936522
000340 7f 84 1d ba 9f 48 a3 bb 34 e1 11 b7 8a 3d d8 39
       -0.0006008818 -0.0049830223 -8.695108e-06 0.0004124458
000350 5a 6b ed bb 48 ea d4 bb d7 cf 07 b8 b1 c5 94 bb
       -0.0072454633 -0.006497655 -3.2380074e-05 -0.004540168
000360 34 a9 26 ba 45 6b a7 38 a1 48 ee bb 98 f2 dc bb
       -0.00063576107 7.983161e-05 -0.0072718416 -0.0067427866
000370 75 45 a5 b9 ac 3e 24 bb 1f 3b c1 b9 59 10 6a b9
       -0.00031523002 -0.002506177 -0.00036855877 -0.00022322069
000380 a3 7a c5 ba be e0 3e bb a4 1f 85 bb 3d ac 2d b7
       -0.0015066456 -0.0029125656 -0.0040626097 -1.0351706e-05
000390 d8 38 51 bb 6f fd ef bb 7a c1 6c bc ab bf 9b b8
       -0.003192475 -0.007323913 -0.014450425 -7.426677e-05
0003a0 8b 40 d5 bb c2 e9 28 bb e5 2f 3c bb 25 e8 05 3a
       -0.0065079383 -0.0025774096 -0.002871507 0.00051081396
0003b0 39 e7 d7 bb 55 3f 9b b8 ac 7a f1 ba cb c8 f6 39
       -0.006588843 -7.4027725e-05 -0.00184234 0.0004707038
0003c0 e3 e1 c6 bb f3 1b bb 37 37 60 b0 3a ff c8 32 bc
       -0.0060694083 2.2305152e-05 0.0013456409 -0.010912179
0003d0 11 ce 23 bc 43 7a c8 ba 55 c8 b1 3a e7 8c 18 b8
       -0.0099978605 -0.0015295226 0.0013563732 -3.637085e-05
0003e0 4b be 4e ba 5b d8 c2 bb 7b aa b3 bb 5c 77 13 b9
       -0.0007886632 -0.0059462017 -0.0054829693 -0.00014063477
0003f0 46 27 f3 ba 6d a2 c0 bb f8 2a 40 bc 44 bc 1f b9
       -0.0018551133 -0.0058787377 -0.011728995 -0.00015233556

gnn.gnn_layers.1.res_connection.bias f4 [128]
000000 3e 5d f0 bc 2f 7e 05 bc cf d9 a4 3b c4 42 8f 3c
       -0.029341336 -0.00814776 0.0050308476 0.017487891
000010 12 57 5c bc 0c c9 b3 3b 07 0c 35 bd 5b ed 94 bd
       -0.013448494 0.005486613 -0.044200923 -0.072718345
000020 4d 01 67 bd 36 3f e1 ba 69 39 c6 bb da 02 ac bb
       -0.056397725 -0.0017184976 -0.0060493243 -0.0052493634
000030 d4 ff fb 3b 76 3d a4 bc e5 9f 5b bc 26 21 c7 b9
       0.007690409 -0.020048838 -0.013404821 -0.00037980935
000040 df be 51 3b dd 82 4a 3d 76 f9 c8 bc 66 1d 07 3d
       0.0032004637 0.049441207 -0.024533015 0.03298702
000050 2d 63 45 bd 60 92 fb ba b5 84 0c 3d fc 4c 2b bd
       -0.048190285 -0.0019193403 0.034306247 -0.041821465
000060 6f f3 1c bd d4 b4 98 bc a4 43 a6 bd 53 1c f0 bc
       -0.038318094 -0.018640913 -0.0811837 -0.029310381
000070 c5 7f 37 3d 1e 22 82 bc c7 26 31 3d 05 a4 7e bc
       0.044799585 -0.015885409 0.04324987 -0.015542035
000080 b4 c8 d0 3c 50 6b 89 3c 23 ea 06 3a 8f 4c 0b 3d
       0.025486328 0.016774803 0.00051465834 0.03400856
000090 70 df ba 3c 16 93 1d 3d f5 a4 ae 3c 48 66 4b bd
       0.022811621 0.03847035 0.021318892 -0.04965809
0000a0 5b 61 55 3d c8 16 83 bc 95 e8 19 bd 53 6f 74 3c
       0.0520948 -0.016002074 -0.037575323 0.01491912
0000b0 65 2e 6e bc 86 f1 1b 3c 69 d6 ea bc 6f 25 08 bd
       -0.0145374285 0.009518033 -0.028666692 -0.033238824
0000c0 fb 18 9b bb 90 cc f1 bc 8d 5b 8d 3d 15 58 14 bd
       -0.0047332025 -0.029516488 0.069022276 -0.036216814
0000d0 f7 2e 23 3c 78 78 84 bc cb 48 a4 3d 3f fa b3 3d
       0.009959928 -0.016170725 0.08021697 0.08787965
0000e0 a5 04 85 bc 00 c1 f0 3c 36 d4 6b bc 1f 67 9d 3d
       -0.016237566 0.029388905 -0.014393857 0.076856844
0000f0 46 74 a8 bc 2f 2c 1b bb 35 76 dc 3c f5 72 e9 3d
       -0.020563256 -0.0023677459 0.026911834 0.113988794
000100 43 8b 24 bd 4b 83 59 3c 7e ad 02 bc b2 44 2e bc
       -0.040171873 0.013275932 -0.007975934 -0.010636495
000110 65 68 1b bd 5a fd 42 bd c6 6c 69 bb 07 9c 42 3b
       -0.037941355 -0.047604896 -0.0035617813 0.002969505
000120 76 61 98 bc 4e 01 2f bd 48 16 d9 bb 7b 4a 93 bd
       -0.01860116 -0.042725854 -0.0066249706 -0.071919404
000130 95 f4 f1 3c 0a 42 2d 3d 9d 78 9d bc bf 0a b5 3c
       0.029535571 0.042299308 -0.019222552 0.02209985
000140 6a 23 4f bd 05 96 a4 bb 31 ce 18 3e a8 7f d8 bc
       -0.050570883 -0.0050227665 0.14922406 -0.026428059
000150 0c c8 9e bd 22 39 57 3d b8 ec ef 3b 79 e8 e6 3c
       -0.07753 0.05254472 0.0073219202 0.028187023
000160 85 a0 5a 3c 82 c0 8c bd a4 df 42 3c 9e 57 1a 3d
       0.013343935 -0.068726555 0.01189414 0.037681215
000170 86 2c e8 bb a7 8b eb bc 93 a8 ed bb 70 8f 60 bc
       -0.0070853857 -0.028753115 -0.0072527616 -0.013706073
000180 36 d2 6c bc 25 d0 19 3d 10 92 2f bd 88 29 c1 3c
       -0.014454415 0.037552018 -0.042863905 0.023579374
000190 3e 93 f1 3c 13 23 6f bc 7c 90 4e bd 03 64 1e 3d
       0.029489156 -0.014595765 -0.05043076 0.038669597
0001a0 74 f8 89 bd 10 0e 85 bd df 0e 07 3d d8 82 36 bc
       -0.06736842 -0.06496823 0.032973167 -0.011139594
0001b0 e8 88 84 bd 65 d4 43 3d 37 d3 bc bb 4a 68 92 3d
       -0.06471425 0.047809977 -0.0057624835 0.07148798
0001c0 1f c0 85 3d f6 e0 69 bd 77 73 43 ba a9 31 cc 3c
       0.06530785 -0.057099305 -0.0007455865 0.024926024
0001d0 14 63 aa 3c 57 b4 0d bd 0c 6d 9b bc ad c9 be 3c
       0.020799197 -0.034595814 -0.018972896 0.023289526
0001e0 b0 c4 68 bc 53 c5 ba bc e3 03 a0 bd 32 9a 80 bd
       -0.01420705 -0.02279917 -0.07813241 -0.062794104
0001f0 e2 cb 1b 3b 9e 37 aa bd cd f9 bd bc 8b c5 ca 3d
       0.0023772647 -0.083113894 -0.023190403 0.099009596

readout.weight_and_sum.atom_weighting.0.weight f4 [1, 128]
000000 40 10 2e bb cd c6 d8 bb 2b 5a 1e bd 35 b0 4c b8
       -0.0026559979 -0.006615496 -0.03866021 -4.8801496e-05
000010 0c 88 9c 3c ac fa d9 bd f3 23 99 bd 43 e2 21 be
       0.019107841 -0.10643515 -0.0747756 -0.15808968
000020 09 92 c6 bc af 4e c4 bc c8 99 09 bd 68 ff 92 3b
       -0.024239557 -0.0239633 -0.033593923 0.004486013
000030 01 af 5b 3c 66 31 83 bd 6b 6b 1b be ce 6b 80 3c
       0.013408423 -0.064059064 -0.15177695 0.015676405
000040 f4 e4 3e 3b fb 54 f0 bd 09 63 c4 bd 53 b6 d3 bc
       0.0029128166 -0.11734959 -0.09589202 -0.025843775
000050 b6 76 5f 3b 1c bb c7 bc 0f 98 85 3c 13 40 72 bd
       0.0034097857 -0.024381213 0.016307859 -0.059143137
000060 05 1b ce b4 c7 66 3c 3d 8d 27 63 3c 44 a8 30 3a
       -3.839015e-07 0.045996454 0.01386441 0.0006738941
000070 4c 1c 01 be 88 42 9b 3c b8 04 38 bc b2 ea 1d ba
       -0.1260845 0.018952623 -0.011231594 -0.0006024047
000080 14 ec e9 3d 87 33 f3 3d 75 a9 10 3d 29 a2 03 bd
       0.114219815 0.118750624 0.035317857 -0.03213707
000090 43 a8 b7 bd cd 3e 6e bd 7a b3 7b bd 1e aa 3d 3d
       -0.0896764 -0.05816536 -0.06145046 0.046304815
0000a0 fc 12 aa 3c 58 9c 19 bd 59 1c 94 3a e2 73 f0 3c
       0.020761006 -0.037502617 0.0011299952 0.029352132
0000b0 9c 48 7c 3d 3d 77 9c 3d 99 3c a2 bd 13 52 02 3d
       0.061592683 0.076399304 -0.07921714 0.031816553
0000c0 e2 64 eb bb 8a bc 12 be d8 be 6f bd 7e 6f 36 bd
       -0.007183657 -0.14329734 -0.058531612 -0.04453992
0000d0 2f 32 b6 3d 0c 08 3a 3c 00 cc 8e bd dc 10 76 bd
       0.088962905 0.011354458 -0.06972504 -0.060074672
0000e0 a4 1a b7 bb 9e d2 95 bd b2 a2 66 bb 59 2c 00 be
       -0.0055878926 -0.07315563 -0.0035192189 -0.12516917
0000f0 c7 02 f5 3c 86 15 be ba cb e2 95 bd 18 c3 9e 3c
       0.02990855 -0.0014502264 -0.07318648 0.019380137
000100 78 c4 c4 bc 86 9c e5 bd 76 84 50 3d cc 5b 82 bc
       -0.024019465 -0.11211495 0.050907575 -0.015912913
000110 57 63 f0 bb 6d c2 8b bd 4f 37 b3 3a 26 47 b6 bd
       -0.007336061 -0.06824193 0.00136731 -0.08900289
000120 df 0d 05 3d 79 12 52 bd 4c 55 d2 bd 3f 16 d0 bd
       0.03248393 -0.05128715 -0.10270175 -0.10160493
000130 36 48 44 3d 6d b2 b0 bd 1d 04 8a bc 04 c8 6b 3d
       0.04792043 -0.08627782 -0.016847664 0.057563797
000140 d5 ee ae 3c f3 31 42 3c 63 bd 8d bd b4 a7 ce bc
       0.021354118 0.011852729 -0.06920888 -0.025226451
000150 90 7c ae bc 39 8e 8b ba cd d0 64 3c 85 7b 63 bc
       -0.02129963 -0.0010647244 0.013965798 -0.01388443
000160 f5 0a 73 bd 84 80 b1 3d af f7 67 3c 45 97 de 3b
       -0.05933662 0.086670905 0.014158173 0.006792935
000170 09 49 0e 3d 44 03 7c bc c8 1c aa bd 68 0a a6 3c
       0.03473762 -0.015381638 -0.08306271 0.020268634
000180 92 89 5e bc 76 e0 91 bd 5a 8b 8f bd f2 b7 7d 3d
       -0.013582604 -0.07122891 -0.07009001 0.061943002
000190 5d cb 6e bd aa cf e7 3c a8 14 0e be ce c3 07 3d
       -0.05829941 0.028297264 -0.13875067 0.03314572
0001a0 4d 13 a3 bd 23 4b ee 3b 15 6e 15 3d a1 98 06 be
       -0.07962666 0.0072721406 0.036481936 -0.13144161
0001b0 76 c0 28 3d 94 c6 3a bd a5 d5 02 be a5 60 c9 bd
       0.04119917 -0.045599535 -0.12776811 -0.098328866
0001c0 07 58 0b be a6 54 87 bd 68 83 dc 3c d5 b0 17 bb
       -0.13607799 -0.06607942 0.026918128 -0.0023146172
0001d0 2b b0 8f bd fd a7 aa 3c 94 af 2e be ba b8 6c 3d
       -0.07016023 0.020832056 -0.17059165 0.057793356
0001e0 73 46 f0 bd bd c8 8e bc c5 17 ea 3c 03 04 8a bd
       -0.11732187 -0.017429704 0.028575787 -0.067390464
0001f0 eb fb b0 bc 26 b0 a1 3d 91 41 6a 3c fe f4 af bd
       -0.021604499 0.07894926 0.014297859 -0.085916504
