1-GNNs/result/6108_AR_NURA_GAT_0920/3/model.pth (torch, 200830 bytes, 20 tensors)

gnn.gnn_layers.0.gat_conv.attn_l f4 [1, 4, 32]
000000 00 67 90 3d ba af d1 bd 21 45 92 bb c7 b0 ab 3c
       0.07050896 -0.10238595 -0.004463807 0.020958317
000010 c0 f1 8a ba 8f 74 a5 3c 1c 7f 1b 3e b8 30 d3 3e
       -0.0010600612 0.020197181 0.15185207 0.41248107
000020 bd 4d 64 3c 7c 03 51 3e d9 78 be 3a 99 76 a9 bd
       0.01393455 0.20411485 0.0014531865 -0.08274574
000030 8b b0 e9 3b 97 04 b0 3e 51 87 5c 3a 76 96 09 3b
       0.0071316413 0.34378502 0.00084124977 0.0020994223
000040 96 6f d1 bd 5c 5d 72 3c c7 dd 6d 3d 2a 01 03 3d
       -0.102263615 0.014792766 0.05807283 0.031983532
000050 6d a4 f7 3d 5d 5e 95 bd 2b c3 dc 3c 35 6e fd bc
       0.120919086 -0.07293389 0.026948532 -0.03093634
000060 09 37 27 3e ad 10 1a 3e e2 83 4b 3c 1c 20 aa 3b
       0.16329588 0.15045424 0.01242158 0.005191816
000070 93 65 47 bd d6 d8 8c bd b0 d0 b7 3c f4 b8 7b 3e
       -0.048680853 -0.06877296 0.022438377 0.24582273
000080 5c 9c cc 35 2d 7f 03 be e3 8f 05 3e 26 34 ca bb
       1.5244691e-06 -0.12841482 0.1304317 -0.0061707674
000090 6d 47 5d 3c 22 32 31 bd dc e8 e2 bc c4 2e cc 3d
       0.013505799 -0.0432607 -0.027698927 0.09969857
0000a0 9a f3 46 b9 4e da dd bc 4e b3 57 bc 2b fc 57 3c
       -0.000189735 -0.027081635 -0.013165308 0.01318268
0000b0 ce 5e 1a 3d 16 d2 3f b6 77 1d 48 3b 23 42 b0 bc
       0.03768807 -2.8583504e-06 0.003053514 -0.021515911
0000c0 2b 72 1a bd 39 8b 86 be 37 e6 9a bc 12 56 00 3c
       -0.037706535 -0.26278093 -0.018908603 0.007833021
0000d0 9a 40 32 b9 70 34 98 bf 5a 68 9d 3d de 12 be 3b
       -0.00016999469 -1.1891003 0.07685919 0.005800589
0000e0 bf 8f 36 3d 1f a3 4c 39 03 60 62 3d d3 0a 88 38
       0.04457068 0.00019515723 0.055267345 6.4870015e-05
0000f0 23 78 cf ba 2c 85 fd bc 7f 39 68 3e ef a7 09 3d
       -0.001582865 -0.03094729 0.22678183 0.03360742
000100 03 56 f0 bd 5a 69 f0 bd 1e 6f 39 bf 99 10 3c bd
       -0.117351554 -0.11738844 -0.72435176 -0.045914266
000110 35 d3 b6 3d 29 f0 6a bc c4 b6 88 3d 30 4e 64 bc
       0.08927003 -0.014339485 0.06675485 -0.013934657
000120 c2 60 ad bc 93 41 bc be e0 b8 89 be 2b e2 a6 3c
       -0.021164302 -0.3676878 -0.2689886 0.020371517
000130 43 df 04 bf 25 fb 42 bd 88 e2 16 bf 9e c4 08 bf
       -0.5190317 -0.04760279 -0.5893941 -0.53425014
000140 e3 8b f6 3d 84 b3 67 3d b1 f6 ab be fb 29 5f 3b
       0.120384 0.056567684 -0.33586648 0.0034052122
000150 37 1c c9 be 09 e9 7c be 4b 33 03 3d 70 9d 85 b3
       -0.3927934 -0.24698271 0.03203134 -6.221933e-08
000160 3b 54 d7 bd d4 0a 5d 3d fe c6 77 3e 4a 78 39 be
       -0.105141126 0.053965405 0.24197003 -0.18112293
000170 dd 50 3b 3e ec 97 5a 3e ac 94 55 3d ad fe 38 bd
       0.18292566 0.21347016 0.052143738 -0.045164753
000180 68 b3 c8 bd 81 02 2f 3c ef 43 a1 bd 70 5e 9c be
       -0.09799844 0.010681749 -0.078742854 -0.305408
000190 ab c4 33 3e b2 6c b8 3e 4c c3 0c 3e 6e 38 c9 3e
       0.17555492 0.36020428 0.13746375 0.39300865
0001a0 29 a1 37 3d d1 e2 f7 3d c9 c1 c2 3d 6f 18 c3 bb
       0.04483143 0.12103809 0.09509618 -0.0059538404
0001b0 b6 4a 7d 3d 2b 20 8e be 49 b2 bd be 0c c0 80 3c
       0.061838828 -0.27758917 -0.37050083 0.015716575
0001c0 a1 b4 d1 3d 2f 1b f7 bb 4d 35 8b be bb 35 bb bc
       0.1023953 -0.0075410823 -0.27189103 -0.02285277
0001d0 ff 79 f7 3d 68 c3 bb 3e cd b7 92 3e 40 34 14 be
       0.12083816 0.3667252 0.28655854 -0.14473057
0001e0 6a 2c ad 3e 9e f3 9b bf ab 31 41 3e 6e 4d 27 bd
       0.33822948 -1.2183721 0.18866603 -0.040845327
0001f0 2d af 8f bb 75 24 4c ba 36 45 5d 3c 5a 64 fc 3d
       -0.0043848963 -0.0007787415 0.013505271 0.12323828

gnn.gnn_layers.0.gat_conv.attn_r f4 [1, 4, 32]
000000 89 b0 01 3c fc ab f5 3a e4 a4 0f bb 22 1c c2 bc
       0.007915624 0.0018743272 -0.002191835 -0.023695055
000010 d4 ee db 3a 85 68 f3 bb 73 49 b1 b9 cc 79 c4 3c
       0.001677955 -0.007428231 -0.00033814795 0.023983859
000020 4d eb f2 3a 30 40 13 bd 65 ca e6 bb 1d 94 1b bd
       0.001853326 -0.035949886 -0.0070431703 -0.03798305
000030 02 6e 95 ba a9 d0 49 3c 27 af 0c 3c e2 c5 1f b9
       -0.0011400583 0.012317815 0.008586681 -0.00015237139
000040 d1 46 03 3a 43 1f 1d b8 93 38 8b bc 1e c8 3f 3b
       0.0005007806 -3.746083e-05 -0.01699475 0.0029263566
000050 19 9f 88 ba 80 95 96 bc fe 08 dc b8 e9 40 f7 39
       -0.0010423391 -0.018381834 -0.000104920924 0.00047159873
000060 b3 6a 66 ba 91 2c 6d ba 17 ed 80 3c 6d 14 2e bc
       -0.0008789703 -0.00090474734 0.015738053 -0.010624987
000070 94 2b 33 3b cf 11 29 3c 47 25 58 3a 5b a8 44 3c
       0.0027339207 0.010319187 0.0008245301 0.01200303
000080 c2 03 96 b4 3c 07 1a bc 6c 33 1c bd 94 61 56 bc
       -2.794241e-07 -0.009401139 -0.038134977 -0.013084788
000090 cd 4b 93 3b b9 37 69 3b 8d 82 78 bc be 61 3a bc
       0.00449512 0.0035586192 -0.0151678445 -0.011375843
0000a0 22 6a 21 b9 b8 a8 12 3d ac 0a ab bb 32 95 cc bc
       -0.00015393694 0.035805434 -0.005219778 -0.024973486
0000b0 68 e3 56 3a e7 ad b6 b7 7a ac 65 3b e8 eb e9 bc
       0.00081973383 -2.177707e-05 0.003504543 -0.028554872
0000c0 3d 5d d1 bc 29 38 70 3c 79 7d 9f bd 0c 6c 12 39
       -0.025557155 0.014661827 -0.07787604 0.00013963896
0000d0 b6 31 ab 3b dd 28 3f 3e bc 8e aa bd 60 2f a4 3b
       0.005224432 0.18667932 -0.08328006 0.0050105304
0000e0 1d 7e 14 3d 55 71 af 38 e2 9c 49 3a 1a 0a 05 39
       0.036253083 8.36576e-05 0.0007690919 0.00012687632
0000f0 61 24 5f 3c 62 b5 17 3d d5 7a 4e bc 19 b5 f4 3b
       0.013619513 0.037038215 -0.012602528 0.0074678776
000100 51 f0 ab bd 4f 0f a3 bc ea 6f e3 bd 97 ad e6 b9
       -0.08395446 -0.01990476 -0.1110533 -0.00043998353
000110 fd 4a 63 bd 30 41 07 be 5f 2b 89 3c 43 60 0e 3d
       -0.055491436 -0.13208461 0.016744314 0.03475977
000120 f2 7f 6c 3d c8 f7 68 3e 37 bb dc 3b 20 5c fd 3c
       0.057739206 0.22750771 0.006736185 0.030927718
000130 26 8c 7c bd 08 a7 86 bd 3a b4 23 3e fd f2 d6 bd
       -0.061657093 -0.065748274 0.1598672 -0.10495565
000140 84 7d 6f bc e4 69 7c bd 6d 42 92 bd 7b 48 9e 3b
       -0.014617328 -0.061624423 -0.07141576 0.0048304177
000150 25 d0 1a 3d 4b 94 2d 3d d3 1a 55 bc 1c 42 17 b3
       0.03779616 0.04237775 -0.013006884 -3.5217553e-08
000160 02 d4 2a 3a fe ad 41 3c b1 ba c7 3d ca 8b c4 bd
       0.0006516577 0.011821268 0.097524054 -0.09596975
000170 47 1b 3b bb 08 b4 f9 3d 9a 50 dc 3b 69 23 06 bc
       -0.0028550194 0.12192541 0.0067234756 -0.008187153
000180 be 84 f9 3c 66 6c fb bc 7b ee 88 ba 80 b5 93 bd
       0.030458804 -0.030691337 -0.0010447049 -0.07212353
000190 52 0b d4 bc 64 b4 13 bd ff dd 12 3b be 4f 13 3d
       -0.025884304 -0.036060706 0.0022410152 0.03596472
0001a0 38 78 96 bb 6a 45 97 3b e8 f6 1d be 1f f5 00 3d
       -0.004591968 0.004616429 -0.15426219 0.031483766
0001b0 40 bb 2f 3d 4d 8d a2 3b 3f f5 8e 3c 2e 4e da 3b
       0.042903185 0.004960692 0.017450927 0.006662152
0001c0 b9 ce d9 bc cc bb 2b bb f9 36 13 3d 25 3e b5 3b
       -0.02658783 -0.0026204465 0.035941098 0.00553109
0001d0 2b 3f b6 bc 33 d5 48 bc 26 32 c5 bc a8 c6 1c bc
       -0.022246918 -0.012257862 -0.024071764 -0.009568848
0001e0 45 de 8c 3b 85 de c6 3c a2 15 90 3c bb 2f 29 3d
       0.0042989575 0.024276027 0.01758844 0.041305285
0001f0 ce 08 d3 3a 58 bf a2 3c 6a 4b 91 bc 02 f3 2a 3c
       0.0016100646 0.01986663 -0.017736156 0.010433914

gnn.gnn_layers.0.gat_conv.bias f4 [128]
000000 64 88 45 be b0 01 f7 bb 7c c4 6a 3d eb b9 77 be
       -0.1929031 -0.007538043 0.05731629 -0.24192016
000010 ed 6b 5a 3c 25 6e 6c 3d 8c e9 bc bb 46 09 ec bd
       0.013331396 0.05772223 -0.0057651456 -0.11525206
000020 dc 18 3c bc 17 d7 0d 3c 82 e1 f4 38 c6 21 05 3e
       -0.011480536 0.008657238 0.00011676831 0.13001165
000030 1e ec 13 3c 2f 47 8a bd 28 c4 f4 bd 50 94 80 3a
       0.009028463 -0.067518584 -0.11951476 0.0009809826
000040 02 be d1 3c 32 2c 36 bc 77 b7 20 3c c5 09 0e be
       0.025603298 -0.011118935 0.009809366 -0.13870914
000050 a0 66 08 bc 1a 20 c1 3d 3e 64 8c 3c 6c bf 9b 3c
       -0.008325249 0.09429951 0.017137643 0.019012176
000060 7c fc a5 3d 28 d3 c9 bc f2 a0 96 bd a1 80 02 bb
       0.08104798 -0.02463682 -0.07354917 -0.0019913095
000070 db bb 9b 3c a3 6c 1e be b0 da 21 3b 63 dd 6a 3c
       0.019010475 -0.15471129 0.0024696998 0.014335009
000080 0b 12 09 36 48 a8 2d bc de fc 31 3c 7c 5b 06 3c
       2.0425093e-06 -0.010599203 0.010863511 0.0082005225
000090 e3 04 cb bd 30 ba 6b 3b 20 c1 89 3c 4d e4 0d 3d
       -0.099130414 0.003596913 0.016815722 0.034641553
0000a0 c8 e6 d9 ba 74 fd 74 3b 4c c0 2c 3d 6a 9e 35 3b
       -0.0016624564 0.0037382515 0.042175576 0.002771283
0000b0 a8 eb 65 bd e4 21 00 b7 60 b9 5d bc f3 0d 04 3e
       -0.056132942 -7.637285e-06 -0.013532966 0.12895946
0000c0 e7 03 44 3e 13 99 57 3d 2e 8b 7b bd 26 45 de bc
       0.19142114 0.052636217 -0.06141203 -0.027132582
0000d0 48 05 77 3c db a8 91 3e a7 f7 c2 bd bd 31 43 3d
       0.015076943 0.2844914 -0.09519892 0.047654856
0000e0 00 f6 54 bd 55 de 85 3a df 7a b8 3c fd 8e 13 38
       -0.051992416 0.0010213355 0.022519527 3.51807e-05
0000f0 ad 82 11 bd f5 03 0e be 32 bd 0b 3e 21 03 8a bd
       -0.035525013 -0.13868697 0.13646391 -0.06738878
000100 55 de 7e 3c e7 cc 41 bd 18 38 60 be d1 1f b8 3b
       0.015555938 -0.04731455 -0.21896398 0.005619027
000110 32 27 5e 3e 20 db b2 3e 93 8e c8 bd 4b 4b 03 be
       0.2169464 0.34932804 -0.09792819 -0.1282169
000120 53 c6 31 be 86 ad 0c bf 3e aa 4d bc 32 9b bb bc
       -0.17360811 -0.54952276 -0.012552796 -0.022901151
000130 49 7c 48 be eb 20 b2 3e f9 e0 0d bf 73 e1 e4 3e
       -0.19578661 0.3479074 -0.55421406 0.44703254
000140 e0 53 f5 3d e9 66 a4 bc fe 33 9c bd 81 48 f2 bc
       0.119788885 -0.020068603 -0.07627104 -0.029575588
000150 76 ad 08 be f2 5b 18 be 6c 47 af 3d 2f 35 b7 34
       -0.1334742 -0.14878824 0.085585445 3.4125102e-07
000160 d6 55 b4 3d 41 08 8c bd 8c f3 bc bc 88 15 1d 3d
       0.088054344 -0.06837512 -0.023065351 0.038350612
000170 59 fe 2a 3d ca a1 f7 bc 94 cb f8 3d 23 af d3 3d
       0.04174647 -0.030228514 0.121482044 0.10336139
000180 ee 15 33 bd 2f b7 d4 bd 56 13 0a 3c 78 c0 3a 3e
       -0.043722086 -0.10386502 0.008427462 0.18237484
000190 0d 0f 23 bd 33 04 1e 3d 47 bf f2 3d 2f b1 c9 be
       -0.039809275 0.038578223 0.118528895 -0.39392993
0001a0 32 cd 8b bc 01 b3 11 bc a0 5c 0a 3e 97 22 6a 3d
       -0.017065618 -0.0088927755 0.13511896 0.057161894
0001b0 c6 ec 1d be a4 4d 92 3e dd e0 02 bf cf 98 b0 3b
       -0.15422353 0.2857486 -0.51124364 0.00538931
0001c0 a3 d2 2d 3e f9 c0 16 3d 8c b6 0b be 65 c2 e0 3d
       0.16974883 0.036805127 -0.13643855 0.10974578
0001d0 da a2 95 3d 20 f3 fb 3d 2c 77 c9 bb 24 95 e3 3c
       0.07306452 0.12302232 -0.0061482396 0.027781077
0001e0 2b d1 90 3d e6 84 bc 3e e1 6c 1f be fa 5c db 3d
       0.070711456 0.36820143 -0.15568878 0.10711093
0001f0 61 19 11 3b f7 6d e6 bd ea ff cf 3c 22 03 8f 3c
       0.002214037 -0.11251443 0.025390584 0.017457549

gnn.gnn_layers.0.gat_conv.fc.weight f4 [128, 74]
000000 2c 48 0d 3d 65 af 68 bc 66 d0 7c bb 93 19 c9 3c
       0.034492657 -0.014201974 -0.0038576364 0.024548328
000010 ba f4 90 bd 22 cd 09 b0 2e 27 9f 3b 77 67 ea 3b
       -0.07077928 -5.013182e-10 0.0048569655 0.0071534473
000020 b6 8a 8c 3c f8 8c 9d af d6 3a 92 ba 4e 0b cf 32
       0.017155986 -2.8658298e-10 -0.001115645 2.4103112e-08
000030 15 7a 2a b0 df cf 0a 34 5f 73 26 ae 90 14 96 3b
       -6.201913e-10 1.2927875e-07 -3.78465e-11 0.004580088
000040 05 4a b4 33 a3 6d 2b bd 53 4f 20 b4 c1 cf 13 3b
       8.395367e-08 -0.041852605 -1.4930019e-07 0.002255425
000050 85 5c 0a b4 ad 23 f9 b6 e2 50 59 b4 be fd a2 35
       -1.288591e-07 -7.4249315e-06 -2.0239125e-07 1.2143789e-06
000060 be 8d da 30 6d 82 bc 3c 58 a2 63 b9 e8 5f 91 37
       1.5901873e-09 0.02301141 -0.00021708885 1.7330007e-05
000070 fb 07 fa b9 54 9f b7 39 4f fe bf b6 85 f1 2f 31
       -0.00047689662 0.0003502319 -5.721849e-06 2.560314e-09
000080 99 94 b2 37 a7 10 7f b7 07 ea 11 af 2d 07 ae b8
       2.128845e-05 -1.5203062e-05 -1.3270816e-10 -8.298303e-05
000090 7d 41 ed 31 b7 9d 22 b9 56 3d 96 b9 0a 35 1c b0
       6.905053e-09 -0.00015508277 -0.00028655928 -5.682784e-10
0000a0 f4 09 4d b6 93 15 b0 3b f3 57 92 35 31 d7 f2 38
       -3.0553174e-06 0.0053736656 1.0903444e-06 0.00011579542
0000b0 b9 86 11 3d ce 9c 9d 3b e7 10 44 3b 72 2d 43 bd
       0.035528872 0.0048099523 0.00299173 -0.047650762
0000c0 35 af 0c 32 ea dc 21 b2 dd 82 0c 30 3e 54 f6 2e
       8.18891e-09 -9.4216634e-09 5.111767e-10 1.1201749e-10
0000d0 a8 56 82 33 6c b6 a2 35 bf 51 90 3c d9 e7 b2 3d
       6.0693594e-08 1.2123032e-06 0.017617105 0.08735628
0000e0 f7 db 28 be f5 10 8f bc 8d cf 83 b4 e7 93 17 35
       -0.1649016 -0.01746414 -2.4551665e-07 5.646711e-07
0000f0 6f b2 66 b3 1a b1 24 3c cb 82 f3 b5 25 78 9a bd
       -5.3713332e-08 0.01005199 -1.8142977e-06 -0.07542447
000100 fa ca 4f be d1 43 a7 3a fd 06 a1 b5 ee bd 44 b3
       -0.20292273 0.00127613 -1.1997469e-06 -4.5807546e-08
000110 2d 7a cb be 30 b3 b8 3c 21 bd bc bc 0f 18 25 be
       -0.3974165 0.02254638 -0.023039402 -0.16122459
000120 89 51 d0 bc cd 31 aa 2e 23 09 67 bd 90 33 e4 38
       -0.025429504 7.7395514e-11 -0.056405198 0.000108814915
000130 6f bc ab 3c f2 1d ff 3b e1 63 93 3c 4f be 11 35
       0.020963876 0.007785552 0.017991962 5.4293645e-07
000140 fb 9c 8b 3a d8 fe 9a bc 01 53 12 bc ca 41 78 38
       0.0010651642 -0.018920347 -0.0089309225 5.918908e-05
000150 00 3b 99 2b 87 a3 66 bb 6a e7 1b 3a e3 5f 97 2d
       1.088768e-12 -0.0035192685 0.0005947264 1.7209295e-11
000160 37 d9 df ae f8 b6 38 bc c2 f1 14 30 4f e5 67 39
       -1.0179451e-10 -0.011274092 5.4185645e-10 0.00022115301
000170 48 b5 b4 b6 5b 0f 8a 35 7f dd af 33 a2 db 05 bc
       -5.385522e-06 1.028627e-06 8.1893624e-08 -0.00817004
000180 9a de 2c b8 2e d6 a6 b8 ce ac d2 2f 94 a6 6f ad
       -4.121531e-05 -7.955391e-05 3.8321563e-10 -1.3622565e-11
000190 d5 84 e3 36 f5 55 f2 b0 d6 69 4c bb 9d e7 d7 af
       6.780591e-06 -1.7632248e-09 -0.0031191013 -3.9272843e-10
0001a0 ff 17 33 ba 31 a4 b1 af 9c f5 61 b1 99 3b 84 38
       -0.0006831884 -3.2312777e-10 -3.2881422e-09 6.3053514e-05
0001b0 d6 28 59 35 2c 2c dd bc 7b 60 d1 30 8c f3 b9 b6
       8.0898224e-07 -0.026998602 1.5234173e-09 -5.5417822e-06
0001c0 98 4f 91 30 cf ec a6 37 b6 dd 83 32 90 ca 8a b2
       1.057276e-09 1.9899015e-05 1.535123e-08 -1.615743e-08
0001d0 0e 8c 1b b5 33 30 77 b5 65 f9 34 3d 25 73 5c 3c
       -5.7945806e-07 -9.208481e-07 0.044183154 0.013455187
0001e0 14 54 e3 bd 5a 6d 5d 3d c4 80 46 2e 2e 30 1e 37
       -0.11100021 0.054059364 4.5134355e-11 9.428752e-06
0001f0 c2 12 1d 36 e4 aa 9e 2b 62 48 ad 36 74 ab 16 35
       2.3405742e-06 1.1274007e-12 5.1642282e-06 5.612885e-07
000200 c4 9a 5c bd e9 4a ab 3c 9f e7 70 bd 5f e3 2f 3d
       -0.053858534 0.020909743 -0.05881464 0.042941447
000210 df 15 79 ba 6c f3 c7 b1 31 dd 13 32 1a 97 d7 3a
       -0.0009501855 -5.819336e-09 8.606819e-09 0.001644823
000220 30 bd 41 3b f4 8c a3 bb 78 b6 8f bd 26 f2 ee bc
       0.0029562227 -0.004991168 -0.07017225 -0.0291682
000230 81 97 76 b3 c8 22 3d 30 9c cb 57 bd 2d ec 2a bd
       -5.741413e-08 6.8807227e-10 -0.05268441 -0.04172914
000240 6f fc 05 3c be 1f 84 bd 32 2a 2c 3d 39 20 47 b1
       0.008177861 -0.06451367 0.042032428 -2.8976628e-09
000250 c6 10 49 bd cf 10 3f 3d eb 2e 0d 3d a8 69 5d 3d
       -0.049088262 0.04664689 0.034468573 0.05405584
000260 5c 17 bb bc f2 6e e2 b7 f9 a7 37 bb 69 9d 86 3c
       -0.022838287 -2.6992962e-05 -0.0028023703 0.01643248
000270 b8 02 8a 3c 85 c3 98 b4 c1 20 cd 3b 49 7f f8 ba
       0.016847 -2.8454465e-07 0.006260008 -0.0018958832
000280 0f ae 29 ba 6a c2 fa 30 45 07 c7 b4 c4 9c f0 3a
       -0.0006472775 1.824515e-09 -3.7071928e-07 0.0018357267
000290 c7 23 3e bb a4 05 a9 3c b6 00 0b b3 f2 73 5e 3c
       -0.0029013024 0.020632572 -3.2364106e-08 0.013577448
0002a0 e7 f9 ad 3c c0 bf 55 31 02 c8 10 36 a8 73 09 31
       0.021237327 3.1104577e-09 2.1574092e-06 2.0001867e-09
0002b0 4f 94 3f b8 c4 49 42 b1 49 9a b1 36 15 0d b0 b0
       -4.567607e-05 -2.8272646e-09 5.292972e-06 -1.2809404e-09
0002c0 c8 87 45 2e f4 7c 83 3c 95 69 29 3a 05 08 f4 b9
       4.4913212e-11 0.016050793 0.00064625713 -0.00046545282
0002d0 92 f3 c1 af 84 f7 83 33 24 29 04 3a fb ef 5e 39
       -3.5279563e-10 6.145186e-08 0.0005041531 0.0002126097
0002e0 9c 62 22 b1 12 4b fb 30 ff 66 d6 b8 48 47 33 39
       -2.3630156e-09 1.828399e-09 -0.000102235 0.00017097325
0002f0 e0 ef d5 38 61 e9 d4 b0 a3 3e 0f 3b fe 8a 1b 30
       0.00010201312 -1.549136e-09 0.0021857403 5.658619e-10
000300 d5 29 cd 3c 56 a1 59 3d a3 f2 03 3d c1 64 8f bb
       0.025044361 0.053132378 0.03221382 -0.0043760245
000310 cd 72 df 32 e8 e7 07 b7 b3 a0 e7 30 0c 10 f5 3b
       2.6012822e-08 -8.100622e-06 1.6853136e-09 0.0074787196
000320 cf 55 10 3b 9a 70 c5 b6 f9 de 64 bd 46 64 aa 3d
       0.0022023802 -5.884166e-06 -0.055876706 0.08319907
000330 3e 29 a1 3b e9 51 b6 bd 8f c6 55 32 e9 53 21 b7
       0.0049182465 -0.08902342 1.2443379e-08 -9.615885e-06
000340 08 34 23 b7 ba 62 a3 3c 79 56 a7 35 f3 23 77 3c
       -9.727672e-06 0.019944537 1.2467636e-06 0.015084255
000350 40 39 c4 3d c7 67 be bc 76 8a 30 bb 56 f0 e6 35
       0.09581232 -0.023242844 -0.0026937998 1.7206282e-06
000360 3f 74 89 3c 8b 90 82 bd d4 a4 41 3d 81 56 a4 3b
       0.016779063 -0.06375226 0.047276333 0.005015195
000370 fa 9d bf bd 51 4e c2 bb 6b 30 78 be b0 bc 6f 3b
       -0.093563035 -0.005929746 -0.2423722 0.0036580972
000380 2d 25 db 3c 0a ec bb bd 9d a0 42 bd 59 95 86 35
       0.026751125 -0.0917588 -0.047516454 1.0027244e-06
000390 2d 9f 14 bd 67 02 9a 3d 87 f6 4f bc 36 0b a4 b1
       -0.036284614 0.075199895 -0.012693054 -4.7743027e-09
0003a0 d5 2d 05 af a5 a8 0f b3 79 b6 79 ae 89 26 46 b2
       -1.2112562e-10 -3.3448163e-08 -5.6778113e-11 -1.1533879e-08
0003b0 88 76 5d af dd 2e cd bc 5d 33 13 b0 3c 34 30 ba
       -2.0141944e-10 -0.02504676 -5.355128e-10 -0.0006721651
0003c0 18 3d 67 38 70 cd a1 32 44 c0 e3 2f 8a a0 c0 b9
       5.513159e-05 1.8836289e-08 4.1427672e-10 -0.00036740705
0003d0 b8 26 5a ae d4 10 7e 38 b5 04 d3 b1 f4 d1 f2 33
       -4.960185e-11 6.057399e-05 -6.1414434e-09 1.13071934e-07
0003e0 a1 d5 f3 ba f4 2b 40 36 21 1a ff af 35 29 56 b9
       -0.0018603095 2.8635814e-06 -4.6402795e-10 -0.00020423981
0003f0 75 08 53 b2 c4 02 ec b3 0d 3b d9 b6 ea c1 82 b6
       -1.2283739e-08 -1.09901094e-07 -6.4739784e-06 -3.8968765e-06

gnn.gnn_layers.1.gat_conv.attn_l f4 [1, 4, 32]
000000 84 89 0c bf e5 6e 41 bd 1d 12 b7 bc a4 74 b8 bc
       -0.5489733 -0.047224898 -0.022347504 -0.022516556
000010 c3 c8 a6 3c 6c 81 63 3e 98 5f 3f bc 97 5d 8c bc
       0.020359403 0.2221734 -0.011680506 -0.01713447
000020 2d b8 dc 3c b3 d0 c3 3e ca ce 68 be 91 f2 e1 bc
       0.02694329 0.38245162 -0.22735134 -0.027581485
000030 a6 67 ef bd 4a a8 37 bd 38 bc 45 3a 58 fe a9 bc
       -0.11689691 -0.044838227 0.00075430004 -0.020751163
000040 86 0b 8c 3d 8e cd 81 3c 06 77 d0 3b 3d 60 ef 3c
       0.068381354 0.015845086 0.006361845 0.029220695
000050 fb e8 6a bd 74 73 40 be 57 fe 22 bc be a9 28 bb
       -0.057351094 -0.18794042 -0.009948335 -0.002573594
000060 7e 0d 15 bf cb ce 84 3d 6e d6 6e 3d bb 25 58 3d
       -0.5822371 0.06484755 0.058309965 0.052770358
000070 80 18 a5 be 99 8e 2e 3e 94 7e 88 3e a9 fa 90 be
       -0.32245255 0.17046584 0.2665907 -0.2831624
000080 6b 53 06 bd 75 9c 6f bf 45 e2 70 3c 21 f6 db b1
       -0.032794397 -0.9359811 0.014702384 -6.4017205e-09
000090 bd 5f bc 3f 5a 7a 62 40 0e fa b0 3c 88 e2 ee bb
       1.4716717 3.5387177 0.02160361 -0.007290188
0000a0 92 b2 10 bb 07 4f 15 bd b6 95 5a bf 17 85 84 be
       -0.0022079092 -0.03645232 -0.8538469 -0.2588279
0000b0 d5 46 af bb ef 38 5e bd bc 4e 81 bd 12 a3 69 3b
       -0.00534902 -0.054253515 -0.063138455 0.0035650176
0000c0 7e dd 24 bc ab 1a 41 40 bf 89 2f bd 5b 5c c4 bb
       -0.0100625735 3.0172527 -0.042855974 -0.005992455
0000d0 ed 9e 2f bd 96 fb 52 3d f6 41 07 be 3c 32 19 be
       -0.042876173 0.051509462 -0.13208756 -0.14960569
0000e0 1d 25 06 c0 3e ff 99 bd de 0c 27 bd 4d 74 6e 40
       -2.0960152 -0.07519387 -0.040783755 3.7258484
0000f0 37 3f 77 3c 2d 69 06 3b 09 eb 54 be da e1 a5 b5
       0.015090755 0.0020509467 -0.20792784 -1.235919e-06
000100 b4 9c 51 be 3f 92 b2 bd 5b 3d 52 3d d5 11 68 3e
       -0.20469934 -0.087193005 0.051328044 0.22663052
000110 bd 8f 18 be 46 27 28 be 59 8b 1e be f1 e7 84 be
       -0.14898582 -0.16421232 -0.15482844 -0.25958207
000120 ac 96 1a 3c 2b 78 13 3d 37 74 06 bd a0 ee 32 bc
       0.009435337 0.036003273 -0.032825675 -0.01092115
000130 3d 4d 07 3e 68 f5 37 b9 2e 2b bd bc e2 e8 ea bd
       0.13213058 -0.00017543661 -0.023091879 -0.114702
000140 e4 05 99 3d 64 b6 59 3d 1a 42 d0 bd 12 a7 4e bd
       0.07471827 0.053152457 -0.10168858 -0.0504523
000150 be 32 8c b9 e0 ec 01 bd 20 06 2d bc 5a 13 ab be
       -0.00026740687 -0.031720042 -0.010560542 -0.33413202
000160 e5 c5 8c 3d 0b bc 11 3c 63 0a 18 bd 9d c5 a2 bd
       0.06873683 0.008894931 -0.03711928 -0.07947848
000170 20 ca 3c bd cf 5b 14 bd bc 7c ab be e3 e9 d0 3e
       -0.0460912 -0.036220368 -0.33493602 0.4080344
000180 58 1e a0 bf b3 7d 32 bf cf 55 0f 3e d4 85 12 3d
       -1.250926 -0.6972305 0.13997577 0.03577216
000190 c7 ee f3 bf d1 ec e3 bb 21 2f fc 3a 88 c8 4d bc
       -1.9057244 -0.006955721 0.001924012 -0.012560017
0001a0 1a 66 3a bd c8 4c 47 3c b9 71 03 bc 38 4b 4a bc
       -0.045507528 0.012164302 -0.008022719 -0.012347035
0001b0 4e c0 d5 3b 03 dd ec bc 19 72 80 3d 85 f6 a7 bd
       0.0065231686 -0.02891398 0.062717624 -0.08201317
0001c0 89 95 af bd 23 dc 13 3d 63 bb 92 be c6 a0 2f be
       -0.085734434 0.03609861 -0.2865859 -0.17151174
0001d0 93 97 6b bd 39 45 9a bc 17 9d 21 be 6b cf a6 3e
       -0.0575176 -0.018831836 -0.15782581 0.32580122
0001e0 5d ff 4a bd e4 cb 29 3e 72 25 25 be 78 4f 10 3e
       -0.04955994 0.16581684 -0.16127566 0.14092815
0001f0 74 31 a5 bd 56 2d 93 3c b3 c1 e4 3d 01 37 c6 bd
       -0.08066073 0.017965954 0.11169758 -0.0967846

gnn.gnn_layers.1.gat_conv.attn_r f4 [1, 4, 32]
000000 a2 75 53 3c a3 00 b9 3c f7 a9 99 3c fe 72 13 bb
       0.012906464 0.022583311 0.018757803 -0.002249896
000010 b0 41 f2 3c 17 32 e8 3c f2 35 56 bc 7e d2 95 3c
       0.029572338 0.028344197 -0.013074385 0.018288847
000020 41 e8 12 3b 12 ab 25 3c d2 28 01 3e f0 89 27 3c
       0.0022416266 0.010111587 0.12613228 0.010225758
000030 03 61 df bd 89 fd 67 ba b9 48 75 bb 59 71 1d bd
       -0.109071754 -0.00088497304 -0.003742738 -0.038438175
000040 57 f7 15 3c dc 5f 58 3c 9f 28 15 bc 04 34 4f bb
       0.009153209 0.013206448 -0.009103923 -0.0031616697
000050 e9 98 14 bd b6 38 09 3d 51 c8 80 bb 80 3a ff bb
       -0.03627864 0.03350135 -0.0039301296 -0.007788956
000060 d7 06 6f bd cc 40 14 bc aa ee 13 bb 88 0e 7b bd
       -0.058356132 -0.009048652 -0.0022572675 -0.061293155
000070 5a fd 93 bd 8e 49 06 bd 11 71 ca bc 71 50 4c 3a
       -0.07226057 -0.03278499 -0.024712117 0.0007793969
000080 49 ba 72 3a 11 63 32 3a 4c c3 93 ba 88 55 a2 af
       0.0009259326 0.0006804923 -0.0011273413 -2.9528402e-10
000090 d4 a1 33 b7 c3 94 68 3a 34 04 1e 3b cd 40 19 3a
       -1.070691e-05 0.0008872265 0.0024111392 0.0005846143
0000a0 66 b9 c1 3a 17 da 11 3c 3e a4 f0 3b 41 6a 04 3d
       0.0014779984 0.008902094 0.007343798 0.032327894
0000b0 90 21 c6 36 63 a3 d3 b9 10 bf 24 ba fa aa 1d 39
       5.904767e-06 -0.0004036679 -0.0006284574 0.0001503638
0000c0 5b 12 03 bb 79 6e 12 ba ea f3 2e 3a 67 d9 30 3b
       -0.0019999954 -0.000558592 0.0006673919 0.002698505
0000d0 77 42 b2 bb 49 0e d9 3b 0b c2 7d 3a 59 16 10 b9
       -0.005440052 0.0066240174 0.0009680099 -0.00013741235
0000e0 a6 1c 3d 3a 78 d8 00 bc 23 43 22 b9 85 a2 68 3a
       0.0007214047 -0.00786411 -0.00015474534 0.0008874315
0000f0 f0 c7 da b9 04 ee 49 ba 71 db 2e bc 83 10 1c 36
       -0.00041729165 -0.00077030086 -0.010672436 2.3255423e-06
000100 cb 8f de 3b 92 cb 03 3a 7b d0 0d bb e2 1d a1 ba
       0.006792044 0.0005027588 -0.0021639157 -0.0012292231
000110 54 8e f8 b9 23 5f b3 3a 91 18 9a 3a cf 4e 02 bc
       -0.0004740829 0.0013684969 0.0011756589 -0.00795336
000120 47 9d 09 3a 1d 6c 1b bb e5 01 53 bb 1c 70 54 3b
       0.00052495714 -0.0023715564 -0.0032197174 0.0032415455
000130 19 d7 e4 3a 61 6a 88 b9 c1 e2 39 3b 87 a7 8a b9
       0.0017459124 -0.000260192 0.0028363916 -0.0002644623
000140 9c 1c be ba 0f fc 6f bb 07 19 5c 3a 5f bd 07 3b
       -0.0014504376 -0.0036618744 0.00083960633 0.002071224
000150 03 b1 3d bb 43 e3 0e 39 55 50 66 ba df 98 ee 39
       -0.0028944619 0.00013626837 -0.0008785774 0.00045508795
000160 13 d6 0d 3b d4 f1 aa b9 29 73 85 ba 91 b0 17 3c
       0.002164249 -0.00032605103 -0.0010181415 0.009258405
000170 bf 64 2a 3a 1d 24 40 3b 70 16 1e 3b 0d 6d 3e bb
       0.00064999977 0.00293184 0.002412226 -0.0029056699
000180 28 e1 33 bd ab 03 6a 3d 4a db 37 bb d9 0c d9 3b
       -0.043915898 0.057132404 -0.002805429 0.006623846
000190 9d 15 4a 3d 1f 3c df 3b 28 6c 32 bc 0d c6 ed 3c
       0.04933702 0.006812587 -0.010890044 0.029025102
0001a0 93 c0 8b bb 65 e2 7b ba 4a 98 89 3b d2 29 1b bb
       -0.0042649 -0.00096086256 0.0041990625 -0.002367605
0001b0 8f a7 4f 3b a7 fd 37 bb d6 9c c5 3b 9d 6b 24 bc
       0.0031685566 -0.0028074773 0.006030659 -0.010035423
0001c0 c9 20 80 3b bf 6f c5 ba c7 f2 4d 3c d6 6a 84 3b
       0.0039101583 -0.001506321 0.01257009 0.004041056
0001d0 4d d1 87 b9 2d 87 23 bb c3 f2 09 bd 67 4f e3 39
       -0.00025905148 -0.0024952397 -0.03367878 0.00043355973
0001e0 01 e2 c5 3b e2 8d 8e bd 21 fe 0f 3c 7a 6c 38 3c
       0.0060389047 -0.06960656 0.008788616 0.011256332
0001f0 4f 3a 43 3d 01 bc 00 bb e5 9f 80 bb 43 f4 09 bd
       0.04766303 -0.001964331 -0.003925311 -0.03368021

gnn.gnn_layers.1.gat_conv.bias f4 [128]
000000 55 2b 64 3c 25 f4 fe 3d b8 7b 85 3c d2 1a e3 bd
       0.013926347 0.124489106 0.016294345 -0.110891
000010 3a d3 28 3c ff 93 0b 3d 0e be af bd 0c ef c7 3d
       0.010304267 0.034076687 -0.08581172 0.097623914
000020 c9 f5 b1 3c 6e e9 47 bc 22 20 56 3d 89 ac 1d bc
       0.021723645 -0.01220165 0.052276738 -0.009623655
000030 ef e6 ba bd 5c 69 12 3c e7 1d 17 3c d0 24 96 bd
       -0.09126078 0.008936252 0.009223438 -0.0733124
000040 22 a6 11 3d 06 3c df ba 61 8d 92 bd d4 3e 89 39
       0.035558827 -0.0017031438 -0.07155872 0.00026177487
000050 88 42 27 be 74 cd 13 3d fe f0 d2 3c be 48 10 3c
       -0.16333973 0.036084607 0.02574968 0.008806406
000060 b6 9f 5a be cf 3a b9 bd 54 8b cc bc 1f 07 a8 bd
       -0.21349987 -0.0904442 -0.02496878 -0.08204483
000070 1e dc 95 3d 1e d0 e8 3b c0 f7 93 3c 1a 69 67 3c
       0.07317375 0.0071048876 0.018062472 0.014124179
000080 1f 8c 5c bc 53 09 92 3b e2 ec b1 bb a6 6d 0a 32
       -0.013461142 0.004456678 -0.00542985 8.057588e-09
000090 da cf 52 3b eb fb ed bb 73 31 94 3b fb a4 2e 3d
       0.0032167346 -0.007262697 0.0045224964 0.042637806
0000a0 1f 1e 05 bd aa 01 a2 3c d0 fa 88 3c 4d c9 da 3d
       -0.03249943 0.019776184 0.01672116 0.10682926
0000b0 5c 9f 27 3a 42 49 51 bc 91 cf b6 bc a9 23 f7 ba
       0.0006394291 -0.012773814 -0.022315772 -0.0018855232
0000c0 f7 dd da 3b 0c f8 d6 3a 66 77 a0 bd 6f b3 22 3c
       0.0066792923 0.0016400828 -0.078352734 0.009930476
0000d0 8a a8 88 3b b5 c6 e7 3d 7b b3 63 bc 62 95 1f bc
       0.004170482 0.11317197 -0.013897772 -0.0097402055
0000e0 47 aa 49 bd 16 c7 64 bc 52 96 d1 bc e7 8e 5f 3b
       -0.049234655 -0.013963481 -0.025584374 0.0034112276
0000f0 92 7e 9f bc 8c 06 29 3d d2 c6 49 3c f1 ff dd 35
       -0.019469533 0.04126601 0.012315469 1.6540272e-06
000100 1e f7 99 3d ac 0b 06 3c 59 5b 2e 3d 6c 13 8c bd
       0.07517837 0.008181494 0.042567585 -0.06839642
000110 7a 02 8a 3d 33 bf 9e 3c d5 7f 30 bc 6c 8b 1e be
       0.067387536 0.01937828 -0.010772665 -0.15482873
000120 da 8a 6d 3b 72 c4 f0 bb 7a 18 70 bd 0e ca 9b 3a
       0.0036246092 -0.007347637 -0.058617093 0.0011885779
000130 a4 2f 4c bd ff 1c 3c 3c 70 94 e3 3c 8a cb 1c 3d
       -0.04985012 0.011481523 0.027780741 0.038280047
000140 06 69 9e 3d b3 16 0b 3b 8c 75 95 3c 1a 8e b5 3d
       0.077348754 0.0021223247 0.018244527 0.08864994
000150 db 04 7b 3c d3 18 74 39 87 b6 3f 3c 5f 7a 0e 3d
       0.015320982 0.00023278901 0.011701233 0.03478467
000160 08 30 70 bd d3 dc 08 ba e9 5d 0c 3d bc 62 7d bc
       -0.058639556 -0.00052208937 0.034269247 -0.015465435
000170 9e a3 25 bc fb a5 99 b9 cd 92 3b bd 62 00 dc bb
       -0.01010981 -0.000293061 -0.045794297 -0.006713913
000180 38 90 80 3d 46 9c b0 3d c9 7d 42 bd b2 24 0a bd
       0.062775075 0.08623557 -0.04748324 -0.0337264
000190 fd f6 e1 bd 22 47 09 bc 99 ae 9f bd f6 7c 52 be
       -0.110334374 -0.008378776 -0.07796974 -0.20555481
0001a0 fb 23 d8 3c 6e 81 46 bb ba f2 92 3b 8e 23 2f 3c
       0.026384344 -0.0030289548 0.0044845017 0.010689629
0001b0 d4 6a bd bc 4c a1 6a bc 28 0a 1b bd d5 61 ea bd
       -0.023122229 -0.014320683 -0.037851483 -0.11444441
0001c0 dd 1a a9 bc 6b 92 9a 3c 96 2e 8e bd b3 11 5a 3c
       -0.020642692 0.018868646 -0.06942479 0.013309884
0001d0 88 f9 f7 be 11 eb 93 bd d3 8a a1 bd c1 05 f9 bd
       -0.48432565 -0.0722257 -0.07887807 -0.121593006
0001e0 4b 79 48 bd 72 2e 0c 3d 2b 3e 68 be fc ff 0a bd
       -0.0489438 0.03422398 -0.22679965 -0.033935532
0001f0 3e 68 51 be 56 4d 87 bb 55 08 c3 3c 6d 3a 80 bd
       -0.20449921 -0.004129092 0.023807684 -0.06261144

gnn.gnn_layers.1.gat_conv.fc.weight f4 [128, 128]
000000 51 26 c7 bd 95 30 ba bd 8f 1f 17 bd 30 e5 a6 bd
       -0.09724105 -0.090912975 -0.03689533 -0.08149183
000010 bb 37 0b bb cb 13 10 3e b4 c4 15 bb a0 52 f0 bd
       -0.0021242935 0.1407005 -0.002285284 -0.117345095
000020 20 f6 2a bd 41 e0 df bd ee 2d 84 bc 2c fd e0 bd
       -0.04173863 -0.10931445 -0.016135182 -0.10985789
000030 84 a9 8c 3a 63 be 64 bb e1 24 39 3d 02 b2 2b 3a
       0.0010731672 -0.0034903518 0.045201186 0.00065496576
000040 e8 b2 ef 3c 6f d9 12 3c 83 bf e1 bc bb 1c 96 bd
       0.029260114 0.008962973 -0.02755714 -0.07329699
000050 c2 ea 89 3c b9 15 c7 3d ba 55 03 3c 48 d1 9b 3a
       0.016835574 0.0972094 0.008016044 0.0011887932
000060 7f 84 ae 3e 94 e3 46 3c 68 96 1f be d2 7d 63 3c
       0.34085461 0.01213922 -0.15584719 0.013884978
000070 5e f0 d5 bb 09 02 43 be 86 4f 56 bc 0b 74 12 be
       -0.006528898 -0.19043745 -0.013080483 -0.1430208
000080 d7 35 80 35 bb fc b4 bd b9 8c 30 3d 21 f1 17 3c
       9.552413e-07 -0.08837267 0.043102954 0.009273798
000090 9f 14 4b bb 8a ab 9b bb eb d6 9b 3b a9 b7 18 3d
       -0.0030987633 -0.0047506737 0.004755845 0.037284527
0000a0 b2 93 53 39 70 62 91 bb e0 d0 d2 3c a6 8e ad 3c
       0.00020177549 -0.0044367835 0.025734365 0.021186184
0000b0 c7 98 0c 3c 50 43 ec b7 d5 ac 7e 3c b5 0d 9a 3d
       0.008581347 -2.8164737e-05 0.015544136 0.07522146
0000c0 a1 35 a6 3d 62 2f bc 39 9a e1 aa bd 20 5c a6 3b
       0.08115698 0.00035893457 -0.08343811 0.0050769
0000d0 e4 9f d8 bc 2d b7 1b be 2b f2 4f bc 10 fd 32 3d
       -0.02644343 -0.15206595 -0.012692015 0.04369837
0000e0 bd 85 5f bd fa be 64 3a 2f b8 04 3d 07 f8 42 b9
       -0.054570902 0.00087259675 0.032402214 -0.00018593679
0000f0 4a 64 49 bb 33 30 ef bd d0 3f ea 3d 87 1d 8c bc
       -0.0030729943 -0.11679115 0.114379525 -0.017103923
000100 34 14 08 3e aa 5e 21 bd 76 d1 65 3e 29 60 76 ba
       0.13288957 -0.03939692 0.22443184 -0.0009398484
000110 fb 0d 52 3c 7f 94 c9 3d 63 1f 53 bd 72 ab a4 bd
       0.012820716 0.098427765 -0.051543605 -0.08040513
000120 13 f3 da bd 6a 35 87 be 15 89 a0 bd e7 6a 5f 3b
       -0.10690894 -0.2640794 -0.07838646 0.0034090818
000130 89 b3 d2 3d e9 80 a3 3e c4 0e 96 bd 10 4f 1e 3f
       0.1028815 0.31934288 -0.07327035 0.6183939
000140 7f 90 df 3d 81 3a 08 be f7 e8 9d 3e 5a b2 39 bc
       0.10916232 -0.13303567 0.308418 -0.011334026
000150 05 cf d5 3b c8 f8 d2 bd 8c e0 0e 3e dd 83 11 34
       0.006524923 -0.103013575 0.13952845 1.3552149e-07
000160 c4 38 06 3e a3 c9 3f bd 25 45 7c bd 95 21 15 3e
       0.13107592 -0.046823155 -0.06158938 0.14563592
000170 3a 08 b0 3d 24 9b 5a bd c4 37 8f 3d 61 3c 7f 3d
       0.08595319 -0.05337061 0.06993058 0.06231344
000180 54 19 7a 3c a8 b9 09 3d 7d 66 28 3d e6 7d b7 3e
       0.015264828 0.03362432 0.041113365 0.3583824
000190 8a 4b c9 bd 9c fd 25 3e 0a c7 5a 3e ae cc 84 3e
       -0.09828861 0.16210026 0.2136499 0.25937408
0001a0 ed b2 e3 3c f9 1d 1b ba 03 64 ee 3e 56 a5 99 bc
       0.02779528 -0.0005917247 0.46560678 -0.018755596
0001b0 86 c0 63 be dd 10 9a 3d 6d 7b 84 be 6e 65 01 be
       -0.2224141 0.07522748 -0.25875416 -0.12636349
0001c0 15 36 d1 3d 61 69 00 3d d0 ac d8 3c 69 d9 07 3d
       0.102153935 0.031350497 0.02644959 0.033166323
0001d0 58 aa 80 bc 29 1a 53 3e 78 85 2f 3e 22 82 ad bc
       -0.015706226 0.20615448 0.17140758 -0.021180216
0001e0 28 f7 73 3c fa be ab 3e 41 ec 3c be 1f 6f 81 be
       0.01489047 0.3354414 -0.18449499 -0.2528009
0001f0 b2 94 eb 39 e6 47 0a bc 1e 66 e1 3d 2f 8d b4 3c
       0.0004493348 -0.0084399935 0.110058054 0.022039978
000200 c1 5b 36 bd 0c 94 83 bc 91 b0 14 3c 07 1f f0 bd
       -0.044521097 -0.016061805 0.0090753 -0.11724668
000210 d2 f1 75 3c ff 0b 05 3c 28 d9 ca bb 7a 3b 86 3b
       0.015011268 0.008120536 -0.006190438 0.0040964456
000220 42 80 e7 bc 31 88 31 bc ee cf 00 bc 57 3c 83 3c
       -0.0282594 -0.010835693 -0.007862074 0.016019983
000230 30 78 c2 3b a2 2c 31 3d 01 d0 ac bb 30 c5 09 3a
       0.0059347376 0.043255456 -0.0052738194 0.00052555185
000240 77 b2 24 3a 0f db 97 3b 4d d6 1c 39 26 28 cd bc
       0.0006282697 0.004634268 0.00014957153 -0.025043558
000250 8b 9e 09 bd 11 ac 05 3d 12 18 70 3b a2 3b c1 3b
       -0.033598464 0.0326348 0.003663544 0.0058970014
000260 df db fd 3d 87 ba 2f 3c 46 59 82 bb af 68 98 ba
       0.12395453 0.010725624 -0.0039779274 -0.0011627878
000270 36 d2 06 3d 7c 4e 9b bd af 48 fd 3b 22 0e 3c bb
       0.032915317 -0.07583329 0.007729612 -0.0028694947
000280 79 63 8b 35 ea 76 dc 3c 41 28 f8 3d 11 d6 93 3c
       1.0385257e-06 0.026912171 0.12117053 0.01804641
000290 95 ed 0d 3e d3 24 bb bc ce fd 14 3c 25 9d b4 3c
       0.13860162 -0.022844708 0.009093715 0.022047589
0002a0 b8 9d 01 ba 05 e6 85 3d 6b a8 d6 3c 7b 3f 04 3d
       -0.00049444614 0.06538013 0.026203355 0.032287102
0002b0 3c 13 3d bd 02 8f af b7 85 1d c4 bc 92 da 10 3d
       -0.04616092 -2.0928219e-05 -0.023939857 0.035364695
0002c0 40 4d 8b 3e 06 23 22 3e 33 49 15 be 6c e8 10 3d
       0.27207375 0.15833673 -0.14578705 0.035377905
0002d0 32 d8 a3 bb 8b 57 dd bd 40 ea b8 bd a1 de 85 3d
       -0.0050001377 -0.10807713 -0.09029055 0.06536604
0002e0 dc 6d c7 bd f9 0c 99 3a c9 fe b7 3c 16 76 65 b8
       -0.09737751 0.001167684 0.022460358 -5.470783e-05
0002f0 f1 83 2f bc be 38 fe bc d2 b6 09 3d 3f 23 3a bc
       -0.01071261 -0.031032916 0.033621617 -0.011360942
000300 ab 2f e8 3c ff 03 aa 3d af 7c 2a 3d 1e cf a6 3b
       0.028343042 0.083015434 0.041622814 0.0050906083
000310 73 02 37 bc 1a d1 15 3e 24 e5 8e bc e9 46 17 bc
       -0.0111700175 0.14630547 -0.017443247 -0.009233215
000320 d6 2b 87 bb d7 0d d5 bc f8 3f b5 bc f0 ec ff bc
       -0.0041250987 -0.026007576 -0.02212523 -0.03124091
000330 1e 06 03 be 70 47 d3 bb 0a 6b 1d 3d 99 40 47 bd
       -0.12795302 -0.006447725 0.03843216 -0.04864559
000340 d1 74 ae 3d 4c 1e c3 bd f5 27 92 bc 7e 71 0f bb
       0.08518375 -0.09527263 -0.017841319 -0.0021887715
000350 31 14 97 bb cc 2c 29 bd b8 b7 cf 3d 9c 60 4d 34
       -0.0046105613 -0.041302487 0.101424634 1.9127259e-07
000360 4b 18 f7 3c f8 1a fb bc f2 9c ce 3c cc d4 39 3d
       0.030162951 -0.030652508 0.025221322 0.045368955
000370 b0 cc 10 3d 71 51 46 bc 58 07 be bc 08 8a ee 3c
       0.035351455 -0.012104378 -0.023196861 0.029118553
000380 18 3b 99 bd 47 d7 0c bd d7 dc 0f 3a c4 29 9b 3d
       -0.07481974 -0.034384992 0.0005487925 0.075763255
000390 16 48 8b 3d 52 3d 27 3d dc d3 4a 3d 37 bb 19 bd
       0.06800859 0.040829964 0.04951845 -0.037532058
0003a0 5f c7 e5 3b d6 42 ea bc 4c 91 8a 3e 61 21 10 3c
       0.0070122923 -0.028596323 0.27063978 0.008797021
0003b0 ad c3 db bc e3 af b3 3d b8 27 f8 bd 67 90 f3 bc
       -0.026826704 0.08773782 -0.12116951 -0.029731942
0003c0 92 1b 9e 3d 3d 14 7d 3c 1b 33 86 bc 75 fe e0 3c
       0.07720102 0.01544672 -0.01638179 0.027465085
0003d0 32 31 b8 3d 92 b9 13 3d e7 f6 a6 3d ea 08 43 bb
       0.08993758 0.036065646 0.08152562 -0.0029759952
0003e0 e4 7e b0 3d ab 8a a2 3d f8 a2 18 bd bb ad 81 3d
       0.086179525 0.07936605 -0.037264794 0.063319646
0003f0 3d 90 fe ba b4 54 9e bc 11 22 bb bc 82 53 d8 3b
       -0.0019421648 -0.019327499 -0.022843393 0.006601752

gnn.gnn_layers.2.gat_conv.attn_l f4 [1, 4, 32]
000000 f7 4b b6 3e 7d 09 fe bc 68 7d 9f 3e ea 48 3a be
       0.35604832 -0.031010384 0.31150365 -0.18191877
000010 ed 4c c5 3e c1 33 a8 bd 64 20 16 3e a4 4c 85 bd
       0.38535252 -0.08212996 0.14660794 -0.06508759
000020 33 e8 31 be e9 f0 d5 bd 0b 47 37 3e 90 66 e9 bd
       -0.17373733 -0.104463406 0.17898194 -0.11396515
000030 21 ba a5 be b9 c6 9d bc 6c b4 9c bd b7 12 b4 be
       -0.32368568 -0.019259797 -0.076516 -0.35170528
000040 fe 03 fc 3d b9 e2 f5 be 6f 55 08 3e df 35 a4 3c
       0.12305449 -0.48024538 0.1331384 0.020045219
000050 a9 9a 2c 3e 88 64 d3 3a 4a ac bf bd e3 6a 00 3e
       0.16855873 0.0016127983 -0.093590334 0.12540774
000060 ec 13 2d be 9c f1 c9 bb 2b 7b 44 3d bb cd 3c be
       -0.16902131 -0.0061628353 0.047969025 -0.18437855
000070 f7 d0 81 3d cc 5a 5d 3d 70 1a 99 be 1b 00 6d bf
       0.06338685 0.05404167 -0.29902983 -0.92578286
000080 82 c4 b2 bd d4 27 70 bf e5 6f 2f 3f ba 21 0b bf
       -0.08728887 -0.9381077 0.6853011 -0.5434834
000090 e8 48 b5 be 29 9a 13 3d f3 e8 fd 3e 11 39 bb 3e
       -0.35407186 0.03603569 0.4959179 0.36566976
0000a0 37 ad b5 ba 50 86 5c be a5 eb 40 3f b3 56 01 be
       -0.0013860826 -0.21535611 0.75359565 -0.1263073
0000b0 61 ff 86 3e 60 f9 1d be 2c 2b 75 bf 12 6a 5d 3e
       0.26366714 -0.1542716 -0.95769 0.21622494
0000c0 24 39 87 bf 67 7e 77 be b7 50 e7 3b b7 03 40 bd
       -1.0564313 -0.24169312 0.0070591825 -0.046878543
0000d0 01 a6 98 3e 09 a4 c1 3c 84 84 9b bd 28 c9 5e bf
       0.2981415 0.023637788 -0.07593635 -0.8702569
0000e0 84 e7 ed bd 2c 3c f7 bd f1 b7 66 bf 9a a6 ca be
       -0.11616424 -0.12072024 -0.9012442 -0.39580232
0000f0 12 6b 21 3d 25 54 42 3e e6 fd ac be 50 a1 51 3e
       0.03940875 0.18977411 -0.3378746 0.20471692
000100 26 64 a7 3d 0a f5 8f bc c7 a6 37 3e 83 85 36 bd
       0.08173399 -0.017572898 0.17934714 -0.04456092
000110 92 57 76 bd a8 20 8b bc 27 64 e7 3c ae 56 d1 3c
       -0.060142107 -0.016983345 0.028245999 0.025554027
000120 80 1b e1 3d 9c ac b5 3c 92 40 35 be e7 db 8f 3d
       0.10991573 0.022177033 -0.17700413 0.07024365
000130 e2 c9 c1 be 71 de 4f bd 8e bb 3e be ef d3 8c bd
       -0.37849337 -0.050749246 -0.18626234 -0.068763606
000140 41 58 40 be 39 05 60 bb ba a9 09 be be e0 46 bd
       -0.18783666 -0.00341828 -0.13443652 -0.048554175
000150 11 2e a0 3d 89 50 02 3c f5 cf 8a bd f8 03 d9 3e
       0.078212865 0.007953771 -0.06777946 0.4238584
000160 4e 00 0a 3e cf d2 cb 3d 93 f8 9a be 5e 2d b9 bd
       0.13476679 0.09952318 -0.30267772 -0.09041856
000170 aa 18 e3 bc 34 57 0f 3e 7d 18 9f 3d ea 40 55 be
       -0.027721722 0.13998109 0.07768343 -0.20825544
000180 c7 a4 97 3d 0d 32 07 be 77 98 59 3e e2 0f ef bd
       0.07404476 -0.13202687 0.21249567 -0.11672951
000190 1f 2a 8c bd ec b3 39 be c9 f9 69 3e ab e8 bf bc
       -0.068439715 -0.18135041 0.22849192 -0.023426374
0001a0 1a d1 cb 3d ad 8e 81 bc cf 15 04 bf 44 e1 c4 bc
       0.09951992 -0.015815103 -0.5159578 -0.024033196
0001b0 b6 9d 5a be 20 d9 8e 3c 29 03 10 bd d1 31 d6 3d
       -0.21349224 0.017437518 -0.035159264 0.104587205
0001c0 a0 c0 7d 3c 6c 84 aa 3c ce 08 d4 bc 4b 47 6b 3d
       0.01548782 0.020815097 -0.025883105 0.057441037
0001d0 9a e2 6c be 17 1e 29 bc 64 6a 25 3c b5 21 b5 3e
       -0.23133317 -0.010322115 0.010096166 0.3537728
0001e0 90 85 ef bc bb 75 ac 3d 19 bc de 3e cb 25 c1 bc
       -0.029238492 0.08420893 0.43502882 -0.023577591
0001f0 f1 a5 b7 3d a5 e4 6b 3e 97 c0 10 be 60 9f 18 bf
       0.08967198 0.2303644 -0.14135967 -0.59618187

gnn.gnn_layers.2.gat_conv.attn_r f4 [1, 4, 32]
000000 0c 4a 5c 3b 22 51 58 3d ed 90 8d bc 99 5b c3 3c
       0.0033613471 0.05281175 -0.01728102 0.023847388
000010 0d e4 ad 3c 03 a8 1a 3c 12 8e e1 bc 95 34 37 3c
       0.021226907 0.009439471 -0.027533565 0.01118197
000020 c3 35 15 bd f1 48 ba 3a fa 38 a1 bc 4d 0f 9c 3c
       -0.036428224 0.0014212412 -0.019680489 0.019050265
000030 6a 83 b6 bc c7 a9 e7 ba 8a e1 a3 bc 3e 2d e6 3b
       -0.02227946 -0.0017674499 -0.020005006 0.0070244363
000040 69 dc 93 3c e5 86 45 bd 71 a4 1f bc da 4e 25 3b
       0.018049436 -0.04822435 -0.009743796 0.0025224
000050 65 74 a6 3b 86 99 95 39 52 d4 cb ba 1f 67 01 bc
       0.0050797933 0.00028533879 -0.0015550947 -0.007898121
000060 00 4c 37 3c 65 ae 4e bb 4f 19 9a 3c 8e 11 be 3b
       0.011187553 -0.0031537053 0.018810896 0.0058004325
000070 99 e8 4a bc 01 73 6f bc f7 77 05 3d 54 1b 27 3d
       -0.012384557 -0.014614821 0.03258511 0.040797547
000080 b4 c3 37 bb 4b c9 05 be 5d e6 ab 3d 93 62 94 3c
       -0.0028040232 -0.13065068 0.08393548 0.01811341
000090 32 77 f9 bc b0 ec 5f bb 4c c4 d7 3d ca 33 cc bb
       -0.030452345 -0.0034168176 0.105354875 -0.0062317597
0000a0 80 b1 00 bd cc 5a 51 bd 9a de ad 3d 7d 26 d6 3a
       -0.031419277 -0.05111198 0.084897235 0.0016338375
0000b0 fc 85 e5 ba ad 5d bd b9 a7 ec 7c ba 4c c5 fa bb
       -0.0017511244 -0.00036118683 -0.0009648301 -0.007652914
0000c0 87 1c 1e bc 57 97 01 be 35 36 07 bc a0 1c ff 3a
       -0.009650356 -0.12655388 -0.00825267 0.0019463487
0000d0 69 26 28 3c 30 27 51 39 92 c2 eb bc 29 d1 a5 3c
       0.010263064 0.00019946392 -0.028779302 0.020241337
0000e0 f1 3b 4b bd 94 42 e7 bc d1 53 c6 3c ba 49 a1 bc
       -0.04961771 -0.02822999 0.024209889 -0.019688476
0000f0 67 f0 b5 bb c3 95 be 3c 77 20 40 bd e0 73 8b bd
       -0.00555234 0.023264771 -0.04690596 -0.06809211
000100 3f b5 89 3c 6d 1f bf bc 0b 47 1b 3c 7e d6 ee 3a
       0.016810058 -0.023330415 0.009477387 0.0018221883
000110 a4 3d 78 bc 88 fc b1 bc f7 db 63 3c f9 6e 66 3a
       -0.015151415 -0.021726862 0.013907424 0.000879034
000120 06 a8 53 3d f2 67 46 bb 31 f6 5a 3d ab b3 36 bd
       0.05167391 -0.0030274359 0.053457443 -0.04460494
000130 c4 30 1c bd bf 57 f9 ba f5 a9 f5 bc e5 ac a4 3c
       -0.038132444 -0.0019023343 -0.029988268 0.020101974
000140 16 14 75 bd 23 b1 00 3e fa 5f 22 3c 84 6e 81 bb
       -0.05983361 0.12567572 0.009910578 -0.003949942
000150 eb c8 d1 3c 0e 32 54 3a 24 fc 19 3c 78 cf 49 bd
       0.0256085 0.0008094617 0.009398494 -0.049270123
000160 26 64 16 bd fe 1a 79 3c 83 61 1c bb dc 92 a7 bb
       -0.036716603 0.015204189 -0.0023861832 -0.0051139425
000170 17 78 9e 3c e4 55 13 3c 9a d4 6a bd a8 3e 16 bd
       0.019344373 0.008992646 -0.05733166 -0.036680847
000180 2f 23 b5 bb 6a ca 65 3c 0a c0 5f bc 42 f6 27 bb
       -0.005527876 0.01402531 -0.0136566255 -0.0025628959
000190 1f 55 89 bc 62 ee 81 3c cc d9 6f 3c 35 b2 82 bc
       -0.016764222 0.01586074 0.014639329 -0.015954116
0001a0 0c 4a 65 3c 78 b5 1b ba 5f 49 9a bc 3b 91 5e 3c
       0.013994705 -0.0005939822 -0.018833814 0.01358443
0001b0 91 5e 86 3c 95 83 21 3c 29 7a c7 bc 41 01 a8 3c
       0.016402515 0.009858032 -0.024350243 0.02050841
0001c0 c5 37 cc bc fa 7c 52 3d cc 81 c5 3b 2c 83 91 bc
       -0.024928937 0.05138872 0.006027436 -0.017762743
0001d0 45 74 f5 3c 44 37 2b ba 75 85 00 bc 59 45 fc 3d
       0.029962668 -0.00065313675 -0.007844319 0.123179145
0001e0 f0 7b 8c 3b 5c 82 d3 bc 56 2d c6 3c d7 8a 0b 3b
       0.0042872354 -0.025818996 0.02419154 0.0021292472
0001f0 54 1e 68 bc 7e 64 17 bc f2 5b 3c 3c 01 1e a6 3c
       -0.014167387 -0.009240268 0.011496531 0.020277979

gnn.gnn_layers.2.gat_conv.bias f4 [128]
000000 bd 0b d8 bc 09 68 b3 3c 3e a2 2b bd 3a 51 6d 39
       -0.026372785 0.021900194 -0.041902773 0.0002263234
000010 84 67 f4 bc 13 45 14 ba 7c a5 7d bc a0 c1 3e bd
       -0.029834516 -0.0005656045 -0.015481349 -0.046571374
000020 a1 02 bb bc 9c 29 b2 bc c6 b3 9f be 9d d4 4c 3d
       -0.022828402 -0.021748357 -0.31191844 0.05000745
000030 da 4a e9 3d 78 9f ec 3b ed fc 0b 3e 1c a3 8f 3c
       0.1139123 0.0072211586 0.13670702 0.017533831
000040 53 23 ac 3d 06 20 a7 3d a2 16 26 3d 01 60 45 bc
       0.08405175 0.08160405 0.040548928 -0.012046815
000050 33 22 10 be 50 45 f7 bb ca a5 d7 3a 94 bc 92 bd
       -0.14075546 -0.0075461045 0.0016452607 -0.07164875
000060 d0 a0 10 3c 2e ad 29 bd 8d 2c 4c 3e e6 2f 02 3c
       0.008827403 -0.041424923 0.1993887 0.00794599
000070 22 13 83 38 d2 f1 fb 3c 12 fa 08 bd e5 34 98 bd
       6.2501305e-05 0.030754957 -0.03344161 -0.07431964
000080 bd 0b d8 bc 09 68 b3 3c 3e a2 2b bd 3a 51 6d 39
       -0.026372785 0.021900194 -0.041902773 0.0002263234
000090 84 67 f4 bc 13 45 14 ba 7c a5 7d bc a0 c1 3e bd
       -0.029834516 -0.0005656045 -0.015481349 -0.046571374
0000a0 a1 02 bb bc 9c 29 b2 bc c6 b3 9f be 9d d4 4c 3d
       -0.022828402 -0.021748357 -0.31191844 0.05000745
0000b0 da 4a e9 3d 78 9f ec 3b ed fc 0b 3e 1c a3 8f 3c
       0.1139123 0.0072211586 0.13670702 0.017533831
0000c0 53 23 ac 3d 06 20 a7 3d a2 16 26 3d 01 60 45 bc
       0.08405175 0.08160405 0.040548928 -0.012046815
0000d0 33 22 10 be 50 45 f7 bb ca a5 d7 3a 94 bc 92 bd
       -0.14075546 -0.0075461045 0.0016452607 -0.07164875
0000e0 d0 a0 10 3c 2e ad 29 bd 8d 2c 4c 3e e6 2f 02 3c
       0.008827403 -0.041424923 0.1993887 0.00794599
0000f0 22 13 83 38 d2 f1 fb 3c 12 fa 08 bd e5 34 98 bd
       6.2501305e-05 0.030754957 -0.03344161 -0.07431964
000100 bd 0b d8 bc 09 68 b3 3c 3e a2 2b bd 3a 51 6d 39
       -0.026372785 0.021900194 -0.041902773 0.0002263234
000110 84 67 f4 bc 13 45 14 ba 7c a5 7d bc a0 c1 3e bd
       -0.029834516 -0.0005656045 -0.015481349 -0.046571374
000120 a1 02 bb bc 9c 29 b2 bc c6 b3 9f be 9d d4 4c 3d
       -0.022828402 -0.021748357 -0.31191844 0.05000745
000130 da 4a e9 3d 78 9f ec 3b ed fc 0b 3e 1c a3 8f 3c
       0.1139123 0.0072211586 0.13670702 0.017533831
000140 53 23 ac 3d 06 20 a7 3d a2 16 26 3d 01 60 45 bc
       0.08405175 0.08160405 0.040548928 -0.012046815
000150 33 22 10 be 50 45 f7 bb ca a5 d7 3a 94 bc 92 bd
       -0.14075546 -0.0075461045 0.0016452607 -0.07164875
000160 d0 a0 10 3c 2e ad 29 bd 8d 2c 4c 3e e6 2f 02 3c
       0.008827403 -0.041424923 0.1993887 0.00794599
000170 22 13 83 38 d2 f1 fb 3c 12 fa 08 bd e5 34 98 bd
       6.2501305e-05 0.030754957 -0.03344161 -0.07431964
000180 bd 0b d8 bc 09 68 b3 3c 3e a2 2b bd 3a 51 6d 39
       -0.026372785 0.021900194 -0.041902773 0.0002263234
000190 84 67 f4 bc 13 45 14 ba 7c a5 7d bc a0 c1 3e bd
       -0.029834516 -0.0005656045 -0.015481349 -0.046571374
0001a0 a1 02 bb bc 9c 29 b2 bc c6 b3 9f be 9d d4 4c 3d
       -0.022828402 -0.021748357 -0.31191844 0.05000745
0001b0 da 4a e9 3d 78 9f ec 3b ed fc 0b 3e 1c a3 8f 3c
       0.1139123 0.0072211586 0.13670702 0.017533831
0001c0 53 23 ac 3d 06 20 a7 3d a2 16 26 3d 01 60 45 bc
       0.08405175 0.08160405 0.040548928 -0.012046815
0001d0 33 22 10 be 50 45 f7 bb ca a5 d7 3a 94 bc 92 bd
       -0.14075546 -0.0075461045 0.0016452607 -0.07164875
0001e0 d0 a0 10 3c 2e ad 29 bd 8d 2c 4c 3e e6 2f 02 3c
       0.008827403 -0.041424923 0.1993887 0.00794599
0001f0 22 13 83 38 d2 f1 fb 3c 12 fa 08 bd e5 34 98 bd
       6.2501305e-05 0.030754957 -0.03344161 -0.07431964
