1-GNNs/result/6108_AR_NURA_MPNN_0920/46/model.pth (torch, 437616 bytes, 26 tensors)

gnn.project_node_feats.0.weight f4 [32, 74]
000000 0f 02 8c bd 9e fd af 3b 15 9c b0 b9 d4 c8 34 3a
       -0.0683633 0.0053708097 -0.00033685626 0.0006896381
000010 41 d0 08 3d 76 5b 5a a9 ce 41 8d 3a 8f 12 36 3c
       0.03340173 -4.8485054e-14 0.0010777058 0.011112823
000020 bf 24 99 bc 0c 1f 5e 29 52 9e 6f 29 0c 09 32 a9
       -0.01869428 4.932083e-14 5.320598e-14 -3.9531787e-14
000030 0f 24 53 29 51 63 12 29 8d a9 f7 a8 2c c3 2c b9
       4.6882687e-14 3.2504656e-14 -2.749604e-14 -0.00016475905
000040 e7 86 03 28 a6 0e 10 29 49 01 12 29 80 0b 42 a9
       7.301213e-15 3.198713e-14 3.2419627e-14 -4.3086628e-14
000050 de 51 29 a9 58 a4 91 29 2f 79 33 a9 cb 83 85 a9
       -3.7596547e-14 6.4678026e-14 -3.9851094e-14 -5.929249e-14
000060 f3 65 04 a9 d0 c9 39 29 8f 17 48 a9 62 56 1f a9
       -2.9398315e-14 4.1253296e-14 -4.4429355e-14 -3.5380017e-14
000070 d0 b6 e9 a7 f2 e3 10 29 f1 1b 95 28 23 fb e0 a8
       -6.4868697e-15 3.2172134e-14 1.655444e-14 -2.4977909e-14
000080 0a 3e df a8 15 88 37 29 52 d4 c6 a7 e9 4b 2b a9
       -2.4784879e-14 4.0752195e-14 -5.5186238e-15 -3.803547e-14
000090 b4 34 62 29 58 4d 28 29 4c 91 d8 28 4c f6 16 29
       5.0227793e-14 3.737058e-14 2.404383e-14 3.352032e-14
0000a0 6e 09 97 28 3e 5d 46 27 ce 22 1b 29 82 77 74 a9
       1.6768457e-14 2.7528567e-15 3.4447102e-14 -5.428254e-14
0000b0 d2 7e 0a bc 55 96 42 3b a4 1e 67 bd 00 c1 ad bc
       -0.008453088 0.0029691656 -0.056425706 -0.021210194
0000c0 39 e2 3c a9 e6 4a e2 a8 05 37 df 28 92 6f 57 29
       -4.1940603e-14 -2.5123522e-14 2.4781834e-14 4.7836362e-14
0000d0 58 62 cf 28 2c 87 89 29 18 b3 8f bd 34 02 1d 3c
       2.3024266e-14 6.107471e-14 -0.07016581 0.009583045
0000e0 70 b2 33 3a 4f 1e dc ba 95 0a 48 29 7b 42 8b 28
       0.00068548974 -0.0016793701 4.44181e-14 1.5460931e-14
0000f0 3f 40 f9 a8 a2 c6 ad b8 ac 3d 18 b9 d9 4b d3 3b
       -2.7672416e-14 -8.286281e-05 -0.00014518824 0.0064482507
000100 7e 9d 27 bd b5 36 45 bd 57 a6 26 a9 23 99 4c a9
       -0.04092168 -0.048147876 -3.700368e-14 -4.5429924e-14
000110 5a c7 8d bc b0 d7 8f bd 2a 1f 15 3c af 03 34 3a
       -0.017306972 -0.07023561 0.009101668 0.0006867004
000120 f1 77 db ba cd ff ff 28 be fa 73 bd 17 3c 19 bd
       -0.0016744119 2.8421623e-14 -0.0595653 -0.03741082
000130 bf 7a f4 3a c9 ab a6 3b c1 bf a7 be bf 88 0f a9
       0.0018652304 0.0050863964 -0.32763484 -3.1870987e-14
000140 76 fe ca 3b bb 94 a4 bc 56 69 51 3c 78 c2 55 a6
       0.006194885 -0.020090451 0.012781462 -7.4162774e-16
000150 5e 48 64 28 1b 25 31 29 9f 7f 14 27 48 52 68 a8
       1.2672235e-14 3.933408e-14 2.060831e-15 -1.2896429e-14
000160 7b c9 84 a8 18 55 af ba 46 96 52 29 76 cd 0c 29
       -1.4742322e-14 -0.00133768 4.675971e-14 3.1264454e-14
000170 75 82 89 29 91 4d a1 28 8e 1c d7 27 9c 4b 73 a9
       6.106653e-14 1.790823e-14 5.9705447e-15 -5.402242e-14
000180 a0 11 dd a8 fb a2 6b a7 a8 82 4d 29 32 2d ef a8
       -2.4543572e-14 -3.2701153e-15 4.563247e-14 -2.655393e-14
000190 c0 b3 14 a9 de 2d 6e a9 64 5d 1c a9 c1 19 98 28
       -3.301851e-14 -5.28864e-14 -3.4719962e-14 1.6886559e-14
0001a0 6b f9 83 a9 c2 00 3d 29 b4 51 9c 28 5c 53 a8 a5
       -5.860836e-14 4.1967088e-14 1.7354912e-14 -2.919984e-16
0001b0 39 fa 2f a9 9e 15 24 a9 ff 16 f9 28 6f 1e 68 29
       -3.907484e-14 -3.6434065e-14 2.7654526e-14 5.1540745e-14
0001c0 58 8d 36 29 d1 e2 19 a9 70 6a 61 a9 21 8f 21 29
       4.0534714e-14 -3.4169556e-14 -5.0052356e-14 3.5873326e-14
0001d0 0d 15 92 25 74 36 26 a8 d1 96 b5 bd d4 9f de bc
       2.5341227e-16 -9.226659e-15 -0.088666566 -0.027175821
0001e0 5c 7d 97 bb 5d bf 94 be b8 58 55 29 37 4d a3 a7
       -0.0046230983 -0.2905225 4.7372452e-14 -4.5325305e-15
0001f0 a8 a5 3f a9 ca 28 0b a9 98 bc 18 a8 46 43 1c a8
       -4.2554203e-14 -3.089958e-14 -8.47859e-15 -8.674327e-15
000200 3a c0 2c be b3 42 5f bc 56 92 b0 b9 bc d3 15 3c
       -0.16870204 -0.013626742 -0.00033678365 0.00914472
000210 9a e3 ea a8 36 fa c4 28 4a e1 5e 29 16 b1 58 3b
       -2.6077925e-14 2.1868883e-14 4.948931e-14 0.0033064536
000220 0d a1 b3 36 2e 35 62 bd bc 6f 58 bb a2 85 41 be
       5.3533645e-06 -0.055226497 -0.0033025583 -0.18898633
000230 ea 83 64 29 9a f0 68 a8 a5 87 cc bc 9e 0d 2d be
       5.0740587e-14 -1.2930759e-14 -0.024967024 -0.16899726
000240 9e dc 5c bc f7 45 ae b9 9e a5 15 3c 6b a0 81 28
       -0.013480334 -0.00033239994 0.0091337245 1.4391447e-14
000250 d5 e1 0a ba ed 14 ca b8 f9 5d fc 39 eb 96 e6 36
       -0.0005297934 -9.636008e-05 0.000481352 6.8721033e-06
000260 d7 8c d4 38 0c af 33 29 28 4e 91 b2 e3 6d d8 34
       0.00010135181 3.9897813e-14 -1.6915763e-08 4.0313088e-07
000270 f8 b6 b5 b7 cb 2b e7 a8 cf b7 85 27 57 01 42 29
       -2.1662083e-05 -2.5665144e-14 3.71142e-15 4.3077815e-14
000280 61 a5 7f 29 aa 89 58 a9 3b 1c 23 a9 f7 89 22 b5
       5.6764818e-14 -4.808104e-14 -3.6217757e-14 -6.055047e-07
000290 9c e2 d5 a8 fe 2c 62 a9 08 52 54 a9 59 ef e1 a8
       -2.3746027e-14 -5.0221105e-14 -4.7144607e-14 -2.5083819e-14
0002a0 4a db 7d a8 3d 64 5e 29 b2 ae 4b 28 e2 db 52 a9
       -1.4091872e-14 4.9380845e-14 1.1306645e-14 -4.6820085e-14
0002b0 07 75 3a a9 0c 93 74 29 f4 7b 12 27 0a 77 1e 29
       -4.14018e-14 5.4306426e-14 2.0328765e-15 3.5186298e-14
0002c0 9d a4 90 a8 4e 38 85 27 7c fe 3b a9 6b a6 17 a8
       -1.6058601e-14 3.697596e-15 -4.174307e-14 -8.41827e-15
0002d0 c2 31 26 29 c7 d4 36 a9 02 72 46 29 10 8e 29 28
       3.6902562e-14 -4.0596673e-14 4.4063718e-14 9.4121895e-15
0002e0 bf 1d c4 28 64 0e b3 28 86 f9 75 29 d8 d9 1c 27
       2.1773272e-14 1.9879233e-14 5.4617355e-14 2.1767442e-15
0002f0 5b 53 b4 28 e2 0b 47 a7 d7 b2 62 a9 48 34 5c 29
       2.0020164e-14 -2.762324e-15 -5.03372e-14 4.889516e-14
000300 1b d4 cb ba 81 bf d3 b7 48 8a 48 36 d8 8b a3 33
       -0.0015550883 -2.5242336e-05 2.9882813e-06 7.6157164e-08
000310 f7 01 49 29 8b b8 5d a9 37 5c 6c a9 53 44 22 29
       4.463267e-14 -4.9231923e-14 -5.248251e-14 3.6030488e-14
000320 3e 5f 07 a9 5b c9 cb 28 7e ae 8f b8 84 69 ef b9
       -3.005863e-14 2.2624851e-14 -6.851273e-05 -0.00045664248
000330 e8 89 1f 38 d2 01 8c bc 87 4c 21 29 f5 69 62 29
       3.803699e-05 -0.017090712 3.5815558e-14 5.0273984e-14
000340 0e 8f 27 a9 ea 89 d8 32 d6 7d 53 34 93 68 45 b4
       -3.720553e-14 2.5208426e-08 1.9696685e-07 -1.8385099e-07
000350 56 8b a2 b8 8b f8 ba ba 46 3f 39 29 70 b8 96 29
       -7.750715e-05 -0.0014264745 4.1133133e-14 6.693333e-14
000360 66 32 dc b3 8d 5e 8f b8 2d 98 ef b9 45 17 16 38
       -1.0253716e-07 -6.836383e-05 -0.00045699012 3.578446e-05
000370 61 d3 af bc cc 23 e6 28 a8 e1 b6 3c 66 71 78 3b
       -0.021463098 2.5550654e-14 0.022324398 0.0037909388
000380 0a 95 87 3c 78 c5 40 3d c4 00 01 39 78 ac 4e 28
       0.01655056 0.04706332 0.00012302684 1.1472695e-14
000390 4c a2 01 3e d5 92 00 b7 2b 79 a9 b8 f1 f0 f5 a7
       0.12659568 -7.6635815e-06 -8.081117e-05 -6.826239e-15
0003a0 1e 3d 8e a9 c0 ed 0d 29 ac e8 ee 27 04 c4 87 a9
       -6.316669e-14 3.1514505e-14 6.6310533e-15 -6.0292076e-14
0003b0 b0 b7 3b 29 5c 20 44 b7 6b c5 10 a9 f7 f0 59 a9
       4.1681665e-14 -1.1690045e-05 -3.2145656e-14 -4.8392683e-14
0003c0 91 ca 26 a9 f5 e7 6a a9 26 b8 90 a9 18 ec 86 a9
       -3.7035103e-14 -5.2159628e-14 -6.426829e-14 -5.991751e-14
0003d0 40 86 51 29 d6 72 0e 28 ee dc 92 a3 0c 3f 2f a9
       4.6523766e-14 7.9074845e-15 -1.5922919e-17 -3.891249e-14
0003e0 bf 51 3b 29 a3 f6 22 a7 d4 02 6f 29 a5 01 a0 a8
       4.1593245e-14 -2.2615718e-15 5.3071114e-14 -1.7764282e-14
0003f0 98 c3 8e 29 56 4a 36 a9 45 04 65 29 a6 ed 01 29
       6.339997e-14 -4.0476594e-14 5.0851918e-14 2.884988e-14

gnn.project_node_feats.0.bias f4 [32]
000000 a1 11 ac bd a6 5a 85 bd 47 02 3b ba 9b 2d eb 3d
       -0.084018 -0.065114304 -0.0007133823 0.11483308
000010 22 b5 09 bb 12 5f 9c bd ea 16 4e 3f 1f 54 18 bc
       -0.0021012505 -0.07635321 0.80503714 -0.0092974
000020 02 1b 2c bd 23 b5 06 b9 18 42 49 bb 5a f8 fc bd
       -0.042017944 -0.00012846715 -0.003070956 -0.12352057
000030 3b 1d 2f bd ec 13 a3 bc b7 03 e8 be 18 93 37 3f
       -0.042752486 -0.01990696 -0.45315334 0.7170882
000040 85 6b 11 bd 84 5e 81 bd 6b 39 b3 bd 8f 38 1d bd
       -0.03550293 -0.063168555 -0.08751186 -0.038384017
000050 b6 af 8c bc f0 b3 cf bd 3e 32 c4 bd e1 26 8e be
       -0.01717363 -0.10141742 -0.095798954 -0.27764037
000060 90 e8 b9 bc 9e 12 a9 bd 0f fc b4 bd e4 8e ca bc
       -0.022693902 -0.08255504 -0.08837139 -0.024726339
000070 14 48 63 bd d8 00 e3 b6 52 c5 d4 bd 2d cf 04 bf
       -0.05548866 -6.7652254e-06 -0.10389198 -0.51878625

gnn.gnn_layer.bias f4 [32]
000000 00 a8 90 b7 7e e2 14 bc b5 67 67 be 09 0d d8 b9
       -1.7244369e-05 -0.009087203 -0.22598155 -0.00041208442
000010 01 67 ac 3b 7e 62 35 bc 5a 45 90 bc dc 1a cd bd
       0.0052613025 -0.011070846 -0.017611194 -0.10014889
000020 c5 ca 3d bd 0f 51 70 bd 6d b6 9c bb a6 f7 39 bb
       -0.046335954 -0.058671053 -0.004782489 -0.002837637
000030 f7 91 14 bb 9d d1 dc 3c f8 60 19 bc 08 b8 92 ba
       -0.002267001 0.02695542 -0.009361498 -0.0011193762
000040 f4 99 1f 3e cb 75 ab bc 0a 5d 4c bd f3 df 9b 38
       0.15586072 -0.020930192 -0.049893416 7.43269e-05
000050 c5 1d 5c 39 d9 d1 0d bc 87 bf 36 37 98 08 ae 3a
       0.00020991925 -0.008655989 1.0892639e-05 0.0013277708
000060 0a 89 23 bc 85 31 e5 bd b3 8d 3f bb 5a f4 5b bc
       -0.009981403 -0.11191086 -0.0029228746 -0.013424957
000070 7c db 94 bd 90 c3 af 3c 68 73 e3 3a 0f 99 88 bd
       -0.07268426 0.021455556 0.0017353119 -0.066698186

gnn.gnn_layer.edge_func.0.weight f4 [64, 13]
000000 eb 2f 2b b9 64 a4 e2 b7 6e 74 21 37 cb 69 44 be
       -0.00016325682 -2.701785e-05 9.623456e-06 -0.19180982
000010 3c 22 79 be 43 10 5e be 46 c6 90 be ca ba a3 a8
       -0.24329466 -0.21685891 -0.2827627 -1.8177642e-14
000020 bb a4 75 a8 c0 70 81 29 28 39 72 a9 6d fb d8 a8
       -1.3635952e-14 5.74831e-14 -5.378437e-14 -2.4089856e-14
000030 aa 9c 74 bb 5e a2 6c bc 80 21 84 ba be 87 0f b6
       -0.0037324824 -0.014443008 -0.0010080785 -2.1387673e-06
000040 b6 21 81 ba e7 86 fc 3a cd 18 de 3a 97 6f 70 bd
       -0.0009851966 0.0019266278 0.0016944647 -0.05870017
000050 b8 89 44 a9 26 61 8f 28 bc 66 6c 29 b9 19 e4 a9
       -4.3640195e-14 1.591832e-14 5.2491635e-14 -1.0129696e-13
000060 b1 16 d1 a9 21 f3 cb ba 5d 43 65 36 6f 6f 3e b4
       -9.285401e-14 -0.0015560129 3.416287e-06 -1.7735668e-07
000070 b8 a2 22 b7 69 8a 4f 34 25 67 37 b6 59 5a c6 b3
       -9.693838e-06 1.932873e-07 -2.7329163e-06 -9.2365276e-08
000080 ec 6a fb 35 6c 33 3d a9 60 4b 43 29 17 43 a2 a9
       1.8732076e-06 -4.2011032e-14 4.3364075e-14 -7.2058834e-14
000090 4e e8 f8 a8 c0 43 0e a9 05 5f 25 b7 76 d0 86 3c
       -2.7634277e-14 -3.1589098e-14 -9.85689e-06 0.016456824
0000a0 f3 57 1b bc 0f 46 66 3b bb f4 0c bb 68 00 c8 bc
       -0.009481418 0.0035136973 -0.0021508175 -0.024414256
0000b0 b3 34 a4 3b ee 35 de bc 1a 92 08 28 6c f8 03 a9
       0.005011165 -0.027125325 7.581197e-15 -2.9303315e-14
0000c0 ec 3c 1a a9 86 6e 88 a9 5f ac 6a 29 52 c1 70 bc
       -3.424771e-14 -6.058786e-14 5.2107946e-14 -0.014694529
0000d0 7b 5f d6 b9 ed 32 e3 38 56 ca b9 39 d5 0d 60 b8
       -0.000408884 0.00010833689 0.00035436702 -5.3418644e-05
0000e0 06 f2 16 b8 4f 9f b0 b6 02 b0 91 b9 f3 2c f4 29
       -3.598819e-05 -5.2637547e-06 -0.0002778769 1.0843574e-13
0000f0 f9 3b 4e a7 15 02 d1 a9 cc d9 59 29 ee 9e 00 2a
       -2.8620754e-15 -9.2818257e-14 4.8372588e-14 1.1423824e-13
000100 e4 c0 8e b8 46 9d 2c 3a 2a 97 b0 b9 18 e8 88 39
       -6.807016e-05 0.0006584715 -0.00033681962 0.00026112865
000110 00 26 80 b9 33 df 1e ba e8 0a 1c ba ef c5 36 bb
       -0.00024442375 -0.0006060481 -0.0005952553 -0.0027888974
000120 be 89 6e a9 f5 dd 0d a9 c6 ec 50 28 8e 20 04 aa
       -5.2966088e-14 -3.1500806e-14 1.15976615e-14 -1.173525e-13
000130 ec 4c b3 a9 54 d5 71 bb 50 68 97 3c 60 35 f0 3b
       -7.962541e-14 -0.0036900835 0.018482357 0.0073305815
000140 a0 1a 43 bb 19 85 8c 3b 64 b8 39 39 6f d8 33 3c
       -0.0029770508 0.0042883274 0.00017711666 0.010976895
000150 9b 1c 59 bc 79 4a 60 29 90 a6 59 a9 4b 8e 25 a9
       -0.013251449 4.9802586e-14 -4.832815e-14 -3.676078e-14
000160 7c 82 23 29 b2 07 53 29 f3 d9 67 bd 3e d3 e4 39
       3.6306448e-14 4.6858086e-14 -0.056604337 0.00043644937
000170 22 89 37 b7 4f ae dd b8 1c b6 59 39 b4 8c 8d b9
       -1.0939579e-05 -0.00010570569 0.00020762574 -0.00026998448
000180 01 48 a6 37 2c 1c 45 3a a9 74 6e a9 72 ba 87 a9
       1.9822271e-05 0.00075191515 -5.2947803e-14 -6.0275474e-14
000190 1d 52 eb 29 cd e2 d7 a9 be b9 92 27 55 15 38 3a
       1.0450341e-13 -9.587262e-14 4.0724522e-15 0.00070222217
0001a0 97 9e 10 3b ee c0 05 ba c7 f4 95 b9 d5 31 01 3a
       0.0022067183 -0.0005102296 -0.00028601868 0.0004928385
0001b0 db e0 65 3a 93 d6 65 3a be 2c b2 3a cc df f0 a9
       0.0008769163 0.0008767631 0.0013593656 -1.06969636e-13
0001c0 0f 30 a1 a9 0b b6 b8 28 3a ed 67 29 47 27 22 29
       -7.158173e-14 2.0507052e-14 5.1498065e-14 3.6005294e-14
0001d0 a5 0f d3 bb 60 12 a3 bd 7a 61 a6 3a 85 72 a8 38
       -0.006441074 -0.07962489 0.0012693845 8.032195e-05
0001e0 b6 88 5b 3a 90 05 d1 ba 24 1d 39 b9 2c 4c 21 be
       0.00083745585 -0.0015947092 -0.0001765383 -0.15751714
0001f0 b6 34 16 a9 7f 8b ea 29 98 c9 99 29 a9 0d 61 29
       -3.335241e-14 1.0415886e-13 6.829536e-14 4.9971884e-14
000200 cd 3f 60 a6 20 d6 bc 3b 1b 4c 7f 31 27 e4 1c af
       -7.780208e-16 0.0057628304 3.7150645e-09 -1.4269173e-10
000210 69 8e 0a af dd b2 b9 2d 19 7d 78 b0 fc 09 6a 2f
       -1.2601621e-10 2.1111496e-11 -9.039965e-10 2.1285723e-10
000220 f5 e4 b8 32 27 18 b8 29 fa cb 83 a9 0f b2 c6 a9
       2.1524537e-08 8.175431e-14 -5.852953e-14 -8.8238546e-14
000230 dc 67 b2 29 03 58 ec a8 e6 36 0b bc 81 e3 8c 3a
       7.922805e-14 -2.6239432e-14 -0.0084969755 0.0010748954
000240 b9 ed 97 3a b9 b3 ce b8 e4 4e da ba 3e 8d 52 ba
       0.0011591233 -9.8563214e-05 -0.0016655591 -0.0008031911
000250 60 25 21 3a b2 de 99 3a ee 42 0b a9 09 50 00 27
       0.0006147232 0.0011739342 -3.0922252e-14 1.7806956e-15
000260 44 a4 22 a9 5b 7f 21 a9 bd 71 8c 28 ea f1 39 bb
       -3.6113704e-14 -3.5859645e-14 1.5592448e-14 -0.0028372952
000270 b3 3e bb 38 14 aa c3 37 4e 48 97 b5 59 1b c0 bd
       8.9285335e-05 2.332501e-05 -1.127142e-06 -0.09380216
000280 f3 2d d9 bd 01 71 e2 bd 63 ca e6 bd f9 59 a2 29
       -0.10604467 -0.1105671 -0.11269071 7.209853e-14
000290 3b 46 6f 29 59 5c 9e 29 73 e2 60 29 b7 3c ef a8
       5.3129576e-14 7.032629e-14 4.9934405e-14 -2.6560661e-14
0002a0 c5 42 f1 39 0d 24 89 be b9 87 76 3d 27 5d 8b bd
       0.0004601685 -0.26785317 0.06018803 -0.06804877
0002b0 76 ea 2c 3c a3 3d 26 bd 9e 95 f0 3b 8c d0 5f be
       0.010553947 -0.040586125 0.0073420545 -0.21856898
0002c0 6d 4b a3 29 32 f3 47 a9 aa e7 09 29 ca aa 9a 29
       7.2517384e-14 -4.4397815e-14 3.0621047e-14 6.868601e-14
0002d0 1d 5d b7 28 1a 58 e3 3d d5 de b0 bb 4a fe c9 3b
       2.0357463e-14 0.111007884 -0.0053976574 0.006164347
0002e0 62 77 b7 bb 9c f2 56 3c 55 a3 62 3c 56 ce 85 3c
       -0.0055989483 0.013119366 0.013832887 0.01633374
0002f0 25 77 eb 3b 52 28 5f 29 a7 6e 3b 29 3a 93 8e a9
       0.007185834 4.955092e-14 4.1618317e-14 -6.3316065e-14
000300 52 a8 96 a9 77 45 2a 29 76 18 31 bc 32 19 13 b9
       -6.690537e-14 3.7807834e-14 -0.010809055 -0.00014028398
000310 ec c6 13 39 df 85 9f 37 88 da 90 39 a0 85 10 3a
       0.00014093117 1.9016616e-05 0.0002762864 0.0005513076
000320 ba 24 c9 b9 da 6e 78 b8 89 03 ff a9 73 a5 e9 a7
       -0.0003836507 -5.9231046e-05 -1.1324888e-13 -6.484987e-15
000330 1a fe 8d 29 70 5e 1c a9 f8 7b 48 a9 af ae c6 39
       6.3057375e-14 -3.472087e-14 -4.4516447e-14 0.00037895652
000340 8d b0 b3 bc d5 35 8e 3b 8d 8c ef 3a 85 7d 81 38
       -0.021934772 0.0043399134 0.001827614 6.174579e-05
000350 a8 62 56 bb 30 de b5 b8 ea af 04 bc f2 7b df 29
       -0.0032712612 -8.672138e-05 -0.008098582 9.9246905e-14
000360 4a 61 5f a8 60 98 61 a8 39 e4 59 a9 d4 00 21 29
       -1.2400083e-14 -1.252305e-14 -4.838163e-14 3.57499e-14
000370 2f f9 6f 3b ef e3 c0 ba 76 40 09 b9 c4 5c d7 39
       0.003661703 -0.0014716367 -0.00013089352 0.0004107711
000380 58 65 f0 39 67 63 88 39 d8 fa 3a b9 f6 43 23 3a
       0.00045851874 0.00026014002 -0.00017831789 0.00062280835
000390 fd 91 6e 29 d9 34 ff 28 1b a9 d0 a8 e8 75 44 29
       5.297324e-14 2.8333606e-14 -2.3165977e-14 4.362301e-14
0003a0 4c 85 05 2a 64 a8 94 ba cb ee ac bd e8 64 17 3c
       1.185902e-13 -0.0011341688 -0.08443984 0.0092403665
0003b0 52 55 9d 37 dd a5 ac bc d7 e9 b4 3b e0 89 4a bc
       1.8755589e-05 -0.021075184 0.00552104 -0.0123619735
0003c0 b9 2f b2 3b 54 c5 3e 29 bb 83 95 a7 85 45 8e a8
       0.005437818 4.235963e-14 -4.149863e-15 -1.5795316e-14
0003d0 b8 a9 18 a9 16 aa 64 28 a1 bb 1a bd e6 37 16 bc
       -3.3897987e-14 1.2693424e-14 -0.037776593 -0.009168601
0003e0 25 3b d6 bb b9 8e 82 ba 8e c6 88 bd 47 4b 4c be
       -0.0065378123 -0.0009960748 -0.06678496 -0.19950591
0003f0 57 84 08 be 38 fe 9f be 03 ce dc a9 b6 0e c7 a8
       -0.13331734 -0.3124864 -9.8057e-14 -2.2099818e-14

gnn.gnn_layer.edge_func.0.bias f4 [64]
000000 43 ed fe be a6 f2 57 be ee 89 1e 34 a2 d7 9e bc
       -0.4979039 -0.21088657 1.4765075e-07 -0.019389931
000010 e4 bd 8e ba 66 62 91 b8 ae 87 3b bc ba 4f 56 3a
       -0.0010890332 -6.932467e-05 -0.011445923 0.00081753323
000020 66 98 a1 39 c0 35 c6 be 6f 83 1b bc 0f 26 57 ba
       0.0003082186 -0.38712883 -0.009491785 -0.00082072703
000030 99 52 92 be 36 45 9c 3d b1 c0 99 3b e4 f8 83 39
       -0.28578642 0.076303884 0.00469216 0.00025171705
000040 a2 17 dc 3a 9a 02 b2 ba 12 70 46 bc 23 22 ad be
       0.0016791711 -0.0013581098 -0.012111681 -0.33815107
000050 69 d2 dc be 1c 16 73 bc 0b 9b 36 b8 14 cb 42 b9
       -0.4312928 -0.014836814 -4.3536576e-05 -0.00018576934
000060 03 70 90 bc e4 c8 2b bd e3 bc 80 be 73 0c b8 ba
       -0.017631536 -0.04193963 -0.2514411 -0.0014041796
000070 6f 51 d3 b8 96 78 92 31 f6 59 c7 be 35 61 81 bb
       -0.00010076432 4.2628683e-09 -0.38935822 -0.0039483556
000080 88 fa 61 ba dd a5 16 b3 de 2f 6f bb 6b 84 08 b4
       -0.0008620401 -3.507545e-08 -0.0036497037 -1.271416e-07
000090 c1 ef 3c b6 31 cb a2 38 3f e9 ab ba cf 1f 90 3a
       -2.8153738e-06 7.762609e-05 -0.0013115777 0.0010995808
0000a0 5f 0a ab b6 bf c9 f7 b6 a9 af 46 bb 8e 26 31 ba
       -5.0974045e-06 -7.38466e-06 -0.0030317104 -0.0006757759
0000b0 54 dd 77 ba ab 3f 2c b7 34 f9 da bb 7f c2 95 b7
       -0.00094552827 -1.0266823e-05 -0.0066825394 -1.7852753e-05
0000c0 4e 74 ff be 47 72 3e b1 30 e0 19 3b 53 5f 51 3b
       -0.4989342 -2.7713598e-09 0.0023479573 0.0031947687
0000d0 b7 4f 00 38 07 e4 97 3a e0 93 d6 b5 f0 ec de bb
       3.059182e-05 0.0011588343 -1.598728e-06 -0.0068031475
0000e0 fa 6d bb b8 67 60 d1 be 30 c5 ac be 26 b7 84 3b
       -8.9373396e-05 -0.40893862 -0.33744192 0.0040501533
0000f0 29 9b fb be 2f 5d e5 b9 d0 14 5c bc 2c c0 72 bb
       -0.49141815 -0.0004374771 -0.013432696 -0.0037040813

gnn.gnn_layer.edge_func.2.weight f4 [1024, 64]
000000 e1 a7 24 2e 7c 02 15 30 15 48 83 af bb c1 31 39
       3.743839e-11 5.4209415e-10 -2.3879979e-10 0.00016952206
000010 58 5d 5c 34 f4 d9 7a 36 90 98 f1 b6 be 78 c2 33
       2.0523055e-07 3.7379768e-06 -7.2001203e-06 9.055792e-08
000020 a4 5b b1 b6 12 ae 9f b5 30 c2 4c b0 44 a0 82 35
       -5.2856794e-06 -1.1897084e-06 -7.4490725e-10 9.732398e-07
000030 30 8c 85 30 87 9f 83 b9 fd a3 00 b7 c5 6f a3 b0
       9.716867e-10 -0.00025105124 -7.667576e-06 -1.1891578e-09
000040 d9 99 57 b6 47 40 0a b6 90 a2 09 b9 fb f8 bb 34
       -3.2127048e-06 -2.0601017e-06 -0.00013125897 3.5012621e-07
000050 e7 40 1c b1 f4 cf 3f 37 08 63 89 31 14 3d 48 b3
       -2.273788e-09 1.1432905e-05 3.9984833e-09 -4.662168e-08
000060 e4 a2 0d b9 4e de 28 38 a5 cb d2 35 25 4a da b6
       -0.0001350749 4.026136e-05 1.5705488e-06 -6.505538e-06
000070 c0 d2 71 33 e7 ab 90 2c 5a d1 4f b3 b5 f6 af b5
       5.630386e-08 4.111811e-12 -4.8386347e-08 -1.3110317e-06
000080 8b 7f 6d 2f ab 62 a9 af 92 94 08 b5 7c d2 db 2d
       2.1600337e-10 -3.081103e-10 -5.0880146e-07 2.4990891e-11
000090 a8 bd 98 b1 e7 24 df 33 60 6c 95 b7 98 43 05 35
       -4.4453436e-09 1.0390959e-07 -1.781265e-05 4.964472e-07
0000a0 e0 f2 87 b2 31 41 e2 30 cb a3 9c b3 04 e7 1e b6
       -1.5826515e-08 1.6462193e-09 -7.29411e-08 -2.3678303e-06
0000b0 24 2c 9e 32 a8 b1 a2 31 7f ef 30 b8 56 3a 88 2f
       1.8413694e-08 4.7350177e-09 -4.2184718e-05 2.4779706e-10
0000c0 bd 88 13 36 58 7e 28 2f 39 58 af 35 f1 79 ae b5
       2.19843e-06 1.5324397e-10 1.3064192e-06 -1.29995e-06
0000d0 d3 aa 77 b3 5d f1 e3 b5 a9 cc 39 b1 cf 44 8b 35
       -5.7664533e-08 -1.6983064e-06 -2.703738e-09 1.0376333e-06
0000e0 75 ff b4 33 98 c6 10 b5 1c 54 0a b4 3b 0b 5e 36
       8.4283705e-08 -5.393317e-07 -1.288285e-07 3.3087115e-06
0000f0 64 e9 19 36 23 24 31 34 a3 34 bc b7 05 b5 28 af
       2.2934628e-06 1.6497556e-07 -2.2435857e-05 -1.5343822e-10
000100 24 7a 65 32 17 f2 87 b3 5a c7 17 34 45 21 c4 39
       1.3357326e-08 -6.330463e-08 1.4135495e-07 0.0003740882
000110 2c 07 34 37 df 0a 23 b8 28 e9 a6 ba 46 71 e2 b5
       1.0730506e-05 -3.8872353e-05 -0.0012734281 -1.6871279e-06
000120 b1 b4 fa b8 bc fc c2 33 c7 9f bf 2d 9b 4f 1c 38
       -0.00011954585 9.079801e-08 2.1785141e-11 3.7267437e-05
000130 92 7a 54 af 7e f9 60 bc d8 b5 6a 35 c2 ad 25 38
       -1.9324833e-10 -0.013731359 8.743641e-07 3.950089e-05
000140 39 19 f6 38 56 1b d2 38 89 04 45 3b 25 37 b8 39
       0.00011734892 0.00010018672 0.0030062518 0.000351363
000150 f7 05 99 ae d5 48 86 b9 6d 1e b7 b5 19 b9 54 36
       -6.958694e-11 -0.00025612736 -1.3643418e-06 3.1698203e-06
000160 cd 81 2e bb eb 60 dd ba 07 99 82 39 31 a8 9a 39
       -0.002662766 -0.0016889846 0.00024909546 0.0002949848
000170 0c 22 c0 34 e9 60 bc b0 8c 96 71 32 40 f4 20 b9
       3.578756e-07 -1.3706344e-09 1.4062277e-08 -0.0001534978
000180 7e 1b c3 30 8b f0 11 b4 f0 bb 09 b9 aa 95 0b 31
       1.4195931e-09 -1.3591686e-07 -0.0001313535 2.0312236e-09
000190 60 54 d8 b3 fa fc 96 35 50 5d be b8 a3 ed 62 38
       -1.00736315e-07 1.1249497e-06 -9.077287e-05 5.4103915e-05
0001a0 d3 90 0d 34 a4 f6 cc b3 48 e3 8b 37 65 fe 31 ba
       1.3184335e-07 -9.544354e-08 1.6675927e-05 -0.0006789922
0001b0 7f 83 1b 36 62 43 a3 35 34 ca aa ba 34 d0 f5 2d
       2.317334e-06 1.2164057e-06 -0.0013030232 2.7945736e-11
0001c0 57 61 83 36 fa 79 62 30 6f 71 94 37 31 af fc b9
       3.915436e-06 8.239166e-10 1.7695796e-05 -0.00048195713
0001d0 08 cf 73 b6 e6 0d 0f 38 d1 4f 00 b4 31 1a f6 b8
       -3.633033e-06 3.41068e-05 -1.1949966e-07 -0.000117350726
0001e0 30 a5 07 36 f1 5a 24 3a da 56 71 b9 d4 5e 57 b8
       2.021272e-06 0.0006269655 -0.00023015906 -5.134831e-05
0001f0 9b d2 4e b5 8a 31 f1 37 b5 b6 2a 3b 18 f5 14 2f
       -7.704745e-07 2.8752507e-05 0.0026048843 1.3547596e-10
000200 0f ce 6e b5 69 b7 27 b2 a9 dc b9 36 d4 bb 4f 39
       -8.8961764e-07 -9.762382e-09 5.539118e-06 0.0001981103
000210 6e 78 37 39 05 34 61 ba a9 81 97 3a 8a e1 20 b7
       0.00017497104 -0.00085908204 0.0011559027 -9.589256e-06
000220 22 29 b4 38 a9 b0 4d 35 24 51 34 2e 65 0f 8c b9
       8.5907304e-05 7.6625525e-07 4.099933e-11 -0.0002671435
000230 c0 14 37 34 a1 49 93 3d 66 35 e0 39 e2 75 7e b8
       1.7050752e-07 0.07191778 0.00042764394 -6.0668106e-05
000240 bb 93 78 3c 77 71 63 b6 eb 2d 5b bd c1 d7 e3 37
       0.01517194 -3.3891681e-06 -0.053510588 2.7160977e-05
000250 49 5e 50 af 23 33 96 bb bf e1 3a b7 e0 d8 0d b8
       -1.8950987e-10 -0.0045837327 -1.11390245e-05 -3.3819e-05
000260 b4 57 41 3b 07 d6 82 3c c1 29 ba b8 71 57 30 3a
       0.0029501738 0.015971197 -8.8769484e-05 0.0006726897
000270 7c aa 0a b8 e0 88 5b b1 ba 44 0d b6 80 0e 0f 39
       -3.306054e-05 -3.1946499e-09 -2.1050641e-06 0.00013642944
000280 96 d2 72 b3 cc 23 9e 35 ca 96 58 38 d4 fd c2 32
       -5.6536543e-08 1.1782336e-06 5.1638846e-05 2.27e-08
000290 72 f1 84 b5 80 cc 0b b8 26 73 35 38 fd 82 22 ba
       -9.905036e-07 -3.3330638e-05 4.3261003e-05 -0.00061993283
0002a0 c8 86 59 b6 9e 21 1a 36 5f c5 1f 3b db 5d 41 bb
       -3.2413973e-06 2.2967356e-06 0.0024379117 -0.0029505405
0002b0 4b b3 4b 3a cd b3 40 b7 88 09 d5 b9 a1 a4 96 af
       0.0007770552 -1.1485955e-05 -0.00040633627 -2.7401817e-10
0002c0 7a ab a3 32 47 fe 33 b3 06 0b 17 3a 02 cc b5 bb
       1.9053676e-08 -4.190795e-08 0.00057618355 -0.0055480013
0002d0 6a 52 41 b8 ff a9 7e 3a 53 4e da 35 57 70 1a bb
       -4.609154e-05 0.00097146624 1.6265061e-06 -0.0023565495
0002e0 73 b5 eb b6 c8 85 4b 39 ab 9f 74 39 9d 6c f5 39
       -7.0246692e-06 0.00019409426 0.00023329134 0.00046810965
0002f0 f4 d0 17 36 fb fe d0 39 4a 30 14 bd c7 0f 93 b3
       2.262238e-06 0.00039862827 -0.036178865 -6.848091e-08
000300 69 be 2f 34 6a 6a 9c 32 4e 74 5c b2 95 28 10 b9
       1.6367416e-07 1.8209182e-08 -1.283213e-08 -0.00013748028
000310 3d 6f 3a 35 55 08 e0 37 3d f8 4e 39 b5 fe 12 35
       6.945227e-07 2.670676e-05 0.00019738167 5.4759886e-07
000320 49 21 3d 36 b5 28 90 34 e1 3e 70 30 c7 03 ad 37
       2.818257e-06 2.6851708e-07 8.740085e-10 2.0624966e-05
000330 9d de ef ae 79 cc 91 3a b8 15 ab 37 e7 92 7c 34
       -1.0908006e-10 0.001112356 2.0394902e-05 2.3522772e-07
000340 99 5e be 38 a7 49 0e 37 6f 6a 35 ba 35 46 02 37
       9.077526e-05 8.481008e-06 -0.0006920462 7.76495e-06
000350 ec 7e 33 31 98 45 10 b7 a2 ff 7c b4 26 a8 ee 34
       2.6120075e-09 -8.599272e-06 -2.3562328e-07 4.44533e-07
000360 8d c4 28 b7 70 be 84 b8 aa 81 5b b5 27 33 c2 36
       -1.0059343e-05 -6.329722e-05 -8.1772544e-07 5.7876055e-06
000370 dc 9f 99 b3 7e 30 03 ae 05 be 9e b3 8a 0c 1d b6
       -7.153696e-08 -2.982902e-11 -7.392013e-08 -2.3402122e-06
000380 25 e2 9f b0 9a 44 2b b1 b3 16 0f b6 bc 7e 78 2f
       -1.1633047e-09 -2.492277e-09 -2.1321873e-06 2.2600494e-10
000390 f3 6c 2d b3 9d c4 8f 34 b7 50 2b b7 65 34 ba b6
       -4.037879e-08 2.677888e-07 -1.0211187e-05 -5.5493315e-06
0003a0 cc 3e e9 b2 cb 99 24 32 d8 0c 87 b6 62 34 a8 38
       -2.7153327e-08 9.581025e-09 -4.0248087e-06 8.020621e-05
0003b0 a5 d5 bd 36 46 63 6b 33 1f 59 8e 39 ac 7d 70 af
       5.6575104e-06 5.480549e-08 0.0002715075 -2.187252e-10
0003c0 41 62 d9 36 0a a3 18 31 c6 fe e0 36 91 a5 83 37
       6.478542e-06 2.2211588e-09 6.7053797e-06 1.5693515e-05
0003d0 b1 7a b3 34 9e ee 75 37 02 58 8d 31 02 68 90 b6
       3.3430618e-07 1.4658695e-05 4.1136454e-09 -4.3036425e-06
0003e0 92 18 24 34 17 0b 45 b6 94 6c cd b6 ea 57 8b 35
       1.5282629e-07 -2.9361743e-06 -6.1221162e-06 1.0381893e-06
0003f0 4d de 01 b7 f0 c0 88 35 da c3 2c 39 4d 8e ea b0
       -7.740758e-06 1.0188942e-06 0.00016476159 -1.7066185e-09

gnn.gnn_layer.edge_func.2.bias f4 [1024]
000000 80 1c 56 39 fe ab 1b 3c 12 fc 49 3e f2 cd ef ba
       0.00020419247 0.009501455 0.19725063 -0.0018295629
000010 73 16 20 bb b0 6f b0 3b 1f c1 94 3c de 49 dc bb
       -0.0024427443 0.005384408 0.018158494 -0.006722673
000020 b0 fa 2a 3c fa 03 a6 bc 2e 43 15 ba b5 29 a7 ba
       0.010435745 -0.020265568 -0.00056939095 -0.0012753519
000030 7a f4 17 3b 0d 73 b2 3a e3 55 70 3b fd c9 1a 3a
       0.002318649 0.001361461 0.0036672286 0.00059047324
000040 e9 1f 52 be 12 e8 d2 3b 52 7c 06 3b 3c 35 76 39
       -0.20519985 0.0064363563 0.0020520878 0.0002348022
000050 e7 cb 8e bc 0e b7 f4 b7 c6 da 3c ba d4 6e 3a bb
       -0.017431213 -2.9172308e-05 -0.00072042306 -0.0028447406
000060 3b db 1d 3c f6 5b 7c 3d 30 17 bd 3b 13 2b 1c 3c
       0.009634788 0.06161114 0.0057705864 0.009531754
000070 14 05 a6 3c 7e 98 90 bd 24 20 c9 bb e8 bf 5c bc
       0.020266093 -0.070603356 -0.0061378647 -0.013473488
000080 dd 15 79 ba 17 6d 91 3c 3f 70 dd be b7 31 5f 3a
       -0.0009501854 0.017752213 -0.432497 0.0008514183
000090 75 dc 90 3b f0 9f 0d bc 85 70 9a bb 5a 89 1e bd
       0.004420812 -0.008644089 -0.0047131204 -0.038705207
0000a0 0d 04 4e ba c1 6f da bc 6b 32 12 bc 81 fe f3 ba
       -0.000785888 -0.026664617 -0.008923153 -0.0018615277
0000b0 f4 b5 b9 ba 0a e6 a3 3c 21 4c 19 3c 8d 37 93 39
       -0.0014168606 0.020007152 0.009356529 0.00028079413
0000c0 5a 49 67 3e a1 06 b4 bc c4 3b 4c bd 47 10 93 b7
       0.22586575 -0.021975817 -0.049861684 -1.7531345e-05
0000d0 7a 22 ad 3c 05 14 40 bc d0 cc 5a 37 13 95 57 bb
       0.021134604 -0.011723523 1.3041499e-05 -0.0032895252
0000e0 b6 76 9c bc 3a 2f 34 bd ee ca 4c bb dd e9 fc bc
       -0.019099575 -0.04399035 -0.0031248885 -0.030873233
0000f0 72 51 b8 bd ef a2 9f 3d 9a 71 80 3b c5 30 23 bd
       -0.089999095 0.07794749 0.0039197924 -0.039841432
000100 34 7f 0d b9 f8 6c 4c bb 3e 23 86 be 3a 61 d3 ba
       -0.00013494195 -0.003119288 -0.26198763 -0.0016126998
000110 76 b6 70 3b 12 e0 f6 bb ab f2 60 bc 06 2f f8 bb
       0.003672985 -0.0075340355 -0.013729732 -0.007573965
000120 48 57 91 bc a6 1d 74 3c e4 dc fa b9 ff 11 c8 b9
       -0.017741814 0.014899647 -0.00047848292 -0.0003816038
000130 a6 2b 3e bb 72 53 d6 3a 99 48 7b bb 44 b9 8f 3a
       -0.0029017716 0.0016351773 -0.0038342832 0.0010965248
000140 68 e9 71 3e 5a 3b 12 bc c6 9d 5b 3b 0f 8b c7 3a
       0.23624194 -0.008925283 0.0033510788 0.0015223938
000150 c6 b1 bd 3c 73 d5 45 ba 81 be 1c bb 87 c4 0c bb
       0.023156058 -0.000754676 -0.002391726 -0.0021479444
000160 45 9f 1d bc 3a c5 78 bd 23 ef df bb 4a 2c f5 bb
       -0.009620492 -0.060734965 -0.0068339272 -0.0074820863
000170 87 02 91 bc 2a c0 82 bd f8 da 61 3b bd a6 2e 3d
       -0.0177014 -0.06384309 0.003446279 0.042639483
000180 fb 6f 99 38 0f ad 4d 3a 88 02 99 3d b3 a1 f1 39
       7.3164665e-05 0.0007845917 0.07471186 0.00046087577
000190 3d 14 b6 b9 83 2f d5 3a 0e d8 1c 3c e3 83 19 b9
       -0.00034728824 0.001626477 0.009572996 -0.00014640349
0001a0 98 52 73 bc c8 d3 c5 3b e2 3e d8 38 5a a3 0b 3a
       -0.014851235 0.006037209 0.000103113955 0.00053267705
0001b0 77 d9 2a 3b 97 e5 ff bb 34 0a a3 3b 89 40 cb 3a
       0.002606956 -0.0078093517 0.0049755815 0.0015506904
0001c0 55 27 2c 3b 6e 1e 1a 3a 2d 7a 2f ba 5a 04 23 3b
       0.002626856 0.0005879168 -0.0006693926 0.002487442
0001d0 f4 23 08 3b 64 01 ba 39 d1 6f d5 b9 e0 db 93 ba
       0.0020773383 0.0003547772 -0.00040709836 -0.0011280738
0001e0 1a 44 dc ba c4 e2 74 3c 71 b8 b6 3a bd 67 88 3a
       -0.0016804964 0.014946643 0.0013940466 0.0010406893
0001f0 e4 4d 3b bb 1a 46 b5 bd 06 48 f7 b9 10 21 d7 3c
       -0.0028580362 -0.088512614 -0.00047165173 0.026260883
000200 7a ac 2e 38 d6 1b 8d 3a e3 63 ba 3b f7 4c 47 b8
       4.1645464e-05 0.0010765742 0.005688177 -4.7516976e-05
000210 32 48 16 3b 5b b0 8f 3a 51 ac 4b 3b 91 bd b7 bb
       0.0022931215 0.0010962592 0.003107805 -0.005607315
000220 4e b3 1f bc ae 67 81 3b 6a 74 94 b9 e7 c4 89 b9
       -0.009747339 0.003949127 -0.00028315495 -0.0002627738
000230 a6 5a a1 3a 25 ed d9 3b 8d 89 80 3a 52 cc 99 39
       0.001231034 0.0066505843 0.0009806618 0.00029334665
000240 dd 01 72 3d a6 31 c0 3a 3f dc d6 3b 7f 93 ce 39
       0.05908381 0.0014663234 0.006557017 0.00039401275
000250 fe c6 68 3a 31 42 86 ba c6 c3 86 ba c3 dd eb ba
       0.000887975 -0.0010243115 -0.0010281734 -0.0017995167
000260 ba cb 0a bc c8 3d e9 bb 61 48 18 3a d2 c8 2c b9
       -0.008471424 -0.0071179606 0.0005809125 -0.0001647801
000270 14 71 96 39 7c 1b 45 bc 5b 2a 3a 39 fb b1 61 3c
       0.0002869448 -0.012030479 0.00017754121 0.013775344
000280 ac 12 17 38 b2 75 94 3b 93 2a 05 3e c3 0b 95 3a
       3.6018595e-05 0.004530632 0.13004522 0.0011371303
000290 f2 63 91 39 47 6d 64 3b 3d 22 ec 3b 12 5c f3 3c
       0.0002773102 0.0034855173 0.00720623 0.029706988
0002a0 0e 1c be 3b cd dc 09 bc 96 9a 22 b9 62 b5 b2 39
       0.005801684 -0.008414459 -0.00015507112 0.00034085946
0002b0 c0 af 01 3b d9 35 4c bb cf 7e a9 3a a4 d2 a6 3a
       0.0019788593 -0.0031160025 0.0012931469 0.0012727571
0002c0 db de ff bd 92 51 9f 3b 2f 7e 44 3c 1c b6 80 ba
       -0.12493678 0.004862019 0.011992975 -0.0009819898
0002d0 e6 65 d9 3a 6c e8 a3 39 c8 91 4b 38 ad ef 3e ba
       0.0016586154 0.0003126295 4.853474e-05 -0.0007283639
0002e0 1a c7 bd 3b 30 b4 72 3d a6 cc f7 3a 83 c3 9c 3b
       0.005791557 0.05925387 0.0018905594 0.004784049
0002f0 db 3a 10 bc bf 33 5d 3d 6b 87 04 bb be 0e df bb
       -0.008803095 0.054004427 -0.0020222317 -0.0068071773
000300 df 95 15 b8 4e 23 65 ba 90 04 ef bd 08 8f f7 ba
       -3.5663947e-05 -0.00087409175 -0.11670792 -0.0018887231
000310 f4 59 ac ba 13 30 53 bc a3 13 0b bf 72 45 6c bc
       -0.0013149367 -0.01288988 -0.5432684 -0.014420854
000320 39 9e 31 3e 27 b8 07 3d 28 ba 64 ba 2f d9 41 bb
       0.17345513 0.033134606 -0.0008725249 -0.0029578914
000330 13 7f 71 bb b6 37 9a ba 6d fc 46 bb 15 74 07 bb
       -0.0036849424 -0.0011765871 -0.003036286 -0.0020668556
000340 92 ab b7 3f e6 2d 89 bb 3a 12 09 3c 36 06 9e 3a
       1.4349234 -0.0041863797 0.008366162 0.0012056294
000350 e9 0c 04 bb 4f 91 09 bb de 84 40 3b 28 e4 b6 ba
       -0.0020149297 -0.0020991152 0.002937607 -0.0013953494
000360 50 a6 36 3c 6a 9a d0 3c 30 2a dc bd 69 b9 f2 b9
       0.01114805 0.025464255 -0.10750234 -0.00046295978
000370 66 83 1c 3f c3 5a d3 3c a6 d2 a5 ba e4 1e 3b 3f
       0.61138 0.025800114 -0.0012651279 0.7309401
000380 fe 2a 09 b7 ac 92 26 3b 0a a2 ca bc 47 4a 82 39
       -8.175846e-06 0.0025417013 -0.02473547 0.00024850873
000390 5a 1a 6f ba df b6 d8 3a 8e 2f c9 3c 96 af b8 3a
       -0.0009121053 0.0016533992 0.024558809 0.0014090415
0003a0 57 5c 78 bb aa a6 63 3b 98 70 38 3a a9 65 33 3a
       -0.0037896836 0.003473679 0.0007035821 0.00068434566
0003b0 3a 9a a2 39 b9 12 a7 bb 43 f7 57 3b 77 3f 60 3b
       0.00031013956 -0.0050986675 0.0032953776 0.0034217515
0003c0 ba 8e 44 bd 22 90 ba bb 85 08 da 3b 5f 8a 97 b9
       -0.047987677 -0.0056934515 0.0066538476 -0.0002890406
0003d0 51 7a c9 ba e6 86 5e 3a 7f 63 99 3a d4 a0 87 ba
       -0.0015371536 0.00084887294 0.0011702626 -0.0010347613
0003e0 2e 3d b1 ba 02 78 3d 3c 02 6c 9e 3b 43 e4 0a 3b
       -0.0013522261 0.011564257 0.004834653 0.0021193183
0003f0 45 3b 80 bc 06 7d 98 bc ef c0 6e ba d7 40 a2 bd
       -0.015653262 -0.018614303 -0.0009107729 -0.079225235

gnn.gru.weight_ih_l0 f4 [96, 32]
000000 cb cf cb b6 7f 55 00 3c f4 1c 20 bd 9a de ef 38
       -6.0740617e-06 0.007832884 -0.03909011 0.00011437871
000010 6a 5b cc 39 f8 73 15 bb b3 c6 bc b9 df 5f 8a 3a
       0.0003897802 -0.0022804718 -0.00036006197 0.0010557136
000020 06 2d 4f b9 69 62 f1 3a 15 37 37 37 94 b6 96 b9
       -0.00019757831 0.0018416169 1.0920475e-05 -0.0002874626
000030 83 08 e0 3a 86 4f b0 3b 2d 82 ca ba 4d 9b e8 b9
       0.001709238 0.0053805737 -0.0015450172 -0.00044366196
000040 e6 1d 57 bc 4e c5 3e 3b b6 58 fd 38 86 84 1e 39
       -0.013129687 0.0029109302 0.00012080504 0.00015117423
000050 6b 74 9e 3a b1 36 f8 b6 e5 9e 7c 3a 51 89 57 3a
       0.0012089139 -7.397343e-06 0.0009636714 0.0008222061
000060 e7 b0 04 39 cd 9e 1e b8 54 c5 25 b7 c3 63 10 b8
       0.00012654402 -3.781803e-05 -9.88071e-06 -3.4425186e-05
000070 d5 36 71 bc bc ac 3e 3a 41 aa 56 3a 9f 01 05 bc
       -0.014722546 0.0007273664 0.0008188822 -0.008118062
000080 65 c2 66 b7 ce 48 ad 38 5c f2 ff 3c c8 46 77 39
       -1.3754329e-05 8.262844e-05 0.031243496 0.00023582124
000090 5d 0d ca 38 ce bf b7 39 b2 16 d2 3a b5 3f 34 3a
       9.6346e-05 0.00035047386 0.0016028492 0.0006875948
0000a0 10 0d ef 3a 26 ac 28 39 5c 4a 4d 37 f0 92 16 b8
       0.0018238146 0.00016085859 1.2236265e-05 -3.5899633e-05
0000b0 2d 08 80 b8 cb b9 e6 ba 70 c9 98 3a 3a bf ac 37
       -6.1050385e-05 -0.0017602978 0.0011656713 2.0593045e-05
0000c0 e9 67 84 bc 52 b2 d6 ba 03 ee a8 39 ab 85 e3 b8
       -0.01616283 -0.0016380048 0.0003222079 -0.00010849101
0000d0 a0 03 8f 3a a7 6d 43 37 40 03 12 b9 48 a5 14 39
       0.0010911115 1.1648436e-05 -0.00013924856 0.00014175952
0000e0 b3 3e 58 3a 9e 27 0f ba 51 24 d9 b7 68 ee 33 b8
       0.0008249089 -0.00054609205 -2.5885327e-05 -4.289896e-05
0000f0 b9 16 d8 3a de 53 51 bc bf 22 87 38 0b 80 f0 bb
       0.0016486264 -0.012776343 6.4437736e-05 -0.0073394827
000100 a9 bd 5a b7 ba 5c 3b 3a 3e 07 94 3c 12 06 91 b9
       -1.3037971e-05 0.0007147301 0.01806986 -0.00027661078
000110 cf 0b 87 b8 18 24 60 b7 ff 4b 0c b9 f6 f0 11 3b
       -6.439501e-05 -1.3359844e-05 -0.00013379751 0.0022268868
000120 89 e9 9e 3b 16 9c 22 3b 58 ac d1 37 f4 b6 59 38
       0.004849617 0.0024812273 2.4994995e-05 5.190722e-05
000130 c5 1f 90 b5 c7 5b 75 bb 9e 9f ee ba c5 64 4d b9
       -1.0738082e-06 -0.0037438737 -0.0018205529 -0.00019587863
000140 16 a6 4e bc 23 ec cc 39 79 ca 33 ba 8c 8a c6 b9
       -0.01261284 0.00039085848 -0.0006858479 -0.00037868728
000150 87 6a 1d bb b7 ef 91 b9 91 67 95 38 0b f5 e6 ba
       -0.0024019794 -0.00027835157 7.1241644e-05 -0.0017620636
000160 cc 9c f0 37 7a 3d ec 38 7a 10 50 38 42 c3 91 37
       2.8683244e-05 0.00011264808 4.960641e-05 1.7376271e-05
000170 2e d0 6b 3c be 9e dc 3b 74 27 c6 38 de 48 f1 bb
       0.014392896 0.0067327907 9.4487244e-05 -0.007363423
000180 d6 03 5f 38 06 50 35 ba a2 2b 2d bd cf e2 88 38
       5.3170916e-05 -0.00069165265 -0.04227794 6.527232e-05
000190 b4 47 47 ba 95 03 c9 3a 8a d4 f3 b9 1e c4 eb 39
       -0.0007601932 0.001533615 -0.00046506926 0.00044968812
0001a0 4f dd 26 3a 61 fa 95 bc ce 06 7c 37 54 f9 a7 b9
       0.0006365375 -0.018307867 1.5021955e-05 -0.00032038486
0001b0 b8 e7 9e b7 ff c5 91 ba 57 b2 73 39 2f 52 c2 39
       -1.894297e-05 -0.001112163 0.00023240723 0.00037063795
0001c0 81 85 b6 3d 19 15 64 3a 9e a0 ab b9 2f 30 3d b9
       0.089121826 0.00087006536 -0.0003273533 -0.00018042394
0001d0 e7 f5 d5 b8 48 0e 6c b8 1c c9 43 b9 bc e3 38 3a
       -0.00010202434 -5.6280085e-05 -0.00018671568 0.0007052978
0001e0 40 c4 db b8 b7 4f 97 ba eb 7c 9c b8 d2 73 68 38
       -0.00010479288 -0.0011544143 -7.4619275e-05 5.5420976e-05
0001f0 f8 19 94 3b 7a d6 97 bc 3a 4a 1f ba ae 30 b7 3b
       0.0045196973 -0.018534888 -0.0006076429 0.00559052
000200 1a 31 b2 36 9e ce 86 b8 76 17 96 3c 2a d4 63 b8
       5.3105296e-06 -6.4281034e-05 0.018321734 -5.431861e-05
000210 56 1c 65 b8 39 70 eb 38 a1 6d 8d 39 0d f7 b7 39
       -5.4624245e-05 0.00011226576 0.00026975296 0.00035088547
000220 b9 6d ac 3a ce a2 7b 39 dc ca f5 36 e8 b6 b8 36
       0.0013155258 0.00023997875 7.325185e-06 5.5049204e-06
000230 78 cd 33 39 30 d7 fe b8 9c f5 c6 3a 77 b9 a7 38
       0.00017147313 -0.000121517456 0.0015179398 7.997726e-05
000240 89 b8 01 bc 56 f7 21 bb fc 80 7a 39 ca d1 19 39
       -0.007917532 -0.0024714074 0.00023889908 0.0001466937
000250 48 2d 40 3a e8 d8 f3 36 f0 73 97 37 a9 47 d8 b8
       0.0007330966 7.2672156e-06 1.805459e-05 -0.0001031303
000260 61 e9 8d 39 f6 b5 cc 37 d3 b3 90 b6 d6 f7 35 37
       0.00027067497 2.4403427e-05 -4.3124687e-06 1.08461445e-05
000270 10 ec a0 bb 9b 14 08 bb f2 78 a4 39 7e 77 b4 3b
       -0.0049109533 -0.0020764235 0.0003137063 0.0055074086
000280 08 39 b2 b8 e6 05 59 bc 3c 65 ea bd 48 cb bf 39
       -8.498324e-05 -0.013246035 -0.1144509 0.00036581815
000290 5e 13 ec 39 31 94 2e bc 62 a6 cf b6 9c 79 ac bb
       0.00045027857 -0.010655449 -6.1884502e-06 -0.0052635204
0002a0 6a d3 48 3a 66 1a 46 bb f6 77 44 37 78 d6 3f 3a
       0.00076608977 -0.0030228137 1.1710441e-05 0.000731803
0002b0 7b 03 ef 39 89 eb 1a 3c dc 0f 16 3b de 18 e6 b9
       0.00045588225 0.00945557 0.0022897637 -0.00043887546
0002c0 1b dc 8e bd fc 73 c4 bc 0b 6c 47 39 43 3c 20 3b
       -0.069755755 -0.023981087 0.00019018368 0.0024449981
0002d0 8f 57 1a 3c de 9a 61 39 cb 28 af 3a ab 92 3b bb
       0.00942029 0.00021515365 0.0013363598 -0.0028621356
0002e0 4c ef d7 ba 4a 9b 13 3a 7f 82 3a b7 c9 4d ee b7
       -0.0016474514 0.0005630745 -1.1116847e-05 -2.8408032e-05
0002f0 85 a4 50 3d 9a c9 e4 3b 74 82 77 ba 47 4e 47 bd
       0.050938148 0.0069820406 -0.0009441741 -0.048658635
000300 94 9f 75 b8 e4 7e 1b 39 a1 2c 99 bd d1 b2 57 38
       -5.856117e-05 0.00014829222 -0.074792154 5.142653e-05
000310 50 8a 00 ba fe 03 31 ba c5 56 83 3a 87 1a 06 b6
       -0.00049034227 -0.0006752609 0.0010020366 -1.9982997e-06
000320 f0 81 24 37 ed de 4c bc eb 6d 38 b7 92 1e 31 ba
       9.805415e-06 -0.0125043215 -1.0992847e-05 -0.00067565695
000330 ee 73 48 39 2c d1 3b 3b 08 64 30 3a 52 ba 3e b9
       0.00019116674 0.0028658612 0.0006728773 -0.00018189222
000340 6d 42 08 3d 4d 8a da 3a b8 cc bd 36 48 ba d7 36
       0.033266474 0.0016673297 5.6564713e-06 6.4291853e-06
000350 d1 72 ee 39 ef 84 1d b9 26 10 e1 38 7c a5 2a b9
       0.00045480442 -0.00015022208 0.00010731844 -0.00016274111
000360 85 1e 34 38 58 bb 31 3a b9 9e 56 38 6b 72 92 b9
       4.2943768e-05 0.00067799306 5.1169398e-05 -0.00027932538
000370 86 38 3e 3b 48 71 c5 bb 32 ec c5 b9 05 d5 1b 3b
       0.002902539 -0.006025467 -0.00037750747 0.0023778093
000380 17 e0 28 b7 35 73 5b 39 01 c5 f2 bc 8a 53 41 b8
       -1.0065755e-05 0.00020928385 -0.029634954 -4.6092588e-05
000390 e0 ee 1c 3b 73 0d 08 bc ca 80 8d ba 9d e0 64 ba
       0.0023946092 -0.008303988 -0.0010795828 -0.000873098
0003a0 9b 1e 90 bc a2 f5 0c bc 13 fd 2f b8 b4 5b 11 3a
       -0.017592719 -0.008603485 -4.1958945e-05 0.0005544976
0003b0 60 ac d1 b9 6a d8 69 3c 00 44 9d 3b 44 60 68 39
       -0.00039992016 0.014272789 0.004799366 0.00022161106
0003c0 4c 33 e6 3d c4 00 09 3c ef d9 20 ba 8d 72 76 b9
       0.11240253 0.008361999 -0.000613599 -0.00023503062
0003d0 a7 e9 e8 3a 33 38 45 38 ae 78 b7 b9 8e 33 3e 3b
       0.0017769829 4.70208e-05 -0.00034994393 0.0029022428
0003e0 b6 19 d2 39 bf 36 7e 3a 97 22 41 b8 a2 c8 b4 38
       0.00040073477 0.0009697489 -4.6047e-05 8.6204396e-05
0003f0 d6 d0 d9 bc 53 a9 b5 3c 69 5e 05 3b e6 78 09 3c
       -0.026588839 0.022175467 0.0020350462 0.008390641

gnn.gru.weight_hh_l0 f4 [96, 32]
000000 de ae 06 3b 03 c7 43 ba 23 e7 fb ba 20 23 29 3b
       0.0020551006 -0.0007468315 -0.0019218664 0.002580829
000010 66 3f fb ba 02 ab ea b9 2d 82 fb 3b 50 2f 69 39
       -0.0019168674 -0.0004475937 0.0076754303 0.00022238237
000020 31 ed 92 39 4b 7d 2d 3b 35 37 6b 3a e8 83 83 3b
       0.0002802401 0.0026472386 0.0008972765 0.004013527
000030 5f be 30 3a 05 49 9b 3b 13 39 e1 39 3e f5 84 b8
       0.00067422347 0.004738929 0.00042957868 -6.3399304e-05
000040 46 5d c2 bb 3e 80 0e 3a 0f 63 32 bb 33 8d 8a b9
       -0.005931529 0.00054359797 -0.0027219688 -0.00026426613
000050 f1 7c 89 3a cb be bf 39 0b 95 41 3b 73 70 37 bb
       0.0010489506 0.0003657251 0.00295383 -0.002799061
000060 6f a4 93 3a 89 74 a0 3b 25 1d 9b 3a 15 24 d1 b9
       0.0011264215 0.0048967046 0.0011834247 -0.0003989047
000070 25 f7 b4 b9 f0 d0 fe b9 9b de 8b 39 a0 30 61 3b
       -0.00034516412 -0.00048602326 0.00026678 0.0034361258
000080 c2 9f f7 ba 0a 71 71 3a fe f1 47 3b ad be 6e 3b
       -0.0018892216 0.00092102645 0.0030509229 0.003642957
000090 fc db 82 3b fe ce 3f bb e5 8c c0 3a 8d 8e f7 3a
       0.0039935093 -0.0029267664 0.0014690427 0.0018887088
0000a0 97 b4 98 39 c7 f0 3c b9 01 22 3b 38 47 1a df b9
       0.0002912625 -0.00018018774 4.4615943e-05 -0.00042553453
0000b0 aa 2a cd 39 bc 89 9e 39 11 2f a1 3a 53 05 f3 3b
       0.00039132434 0.00030238729 0.0012297352 0.007416406
0000c0 49 d1 15 3b d6 0b 96 39 37 09 b0 3a b2 2a 40 3b
       0.002286034 0.00028619048 0.0013430481 0.0029322323
0000d0 16 bd 7d 3a 7b fc 9e ba b2 a8 76 38 b9 db 0b 3b
       0.000967936 -0.0012129688 5.880808e-05 0.0021340682
0000e0 b7 97 c6 b9 1c c6 81 3b cd 42 a3 ba ce 1f 2d 3a
       -0.0003787854 0.003960384 -0.0012455821 0.00066041655
0000f0 5d df 85 b6 39 18 17 3a 2c 28 92 ba de 85 c0 39
       -3.989712e-06 0.00057638023 -0.0011150888 0.00036720833
000100 77 66 6d bb 86 ce 8d b9 3f bd b5 3a 3c 53 74 bb
       -0.0036224404 -0.00027047488 0.0013865604 -0.0037281057
000110 6a 34 21 bc ce 62 20 3b ec 56 bd ba fe 35 2b bb
       -0.009839157 0.0024472955 -0.001444546 -0.002612471
000120 da 41 58 ba d5 6a de bb f5 a7 bc 37 56 ff 80 bb
       -0.0008249559 -0.0067876377 2.2489558e-05 -0.0039366884
000130 85 cb 77 b9 a5 31 19 bc dd c5 8c bb ca a1 c9 3b
       -0.00023631573 -0.009350215 -0.004296048 0.00615332
000140 d0 78 28 3b a6 1d 76 ba 16 77 a9 ba 7c 1c 43 3a
       0.0025706775 -0.0009388573 -0.0012929167 0.0007442904
000150 d9 31 47 bb 78 b3 43 3b ab 4f e7 ba 9e 89 16 ba
       -0.0030394702 0.002986161 -0.0017647644 -0.00057425525
000160 73 0a be bb 44 7f ad ba aa 4a ff 3a 0d 14 65 37
       -0.0057995855 -0.0013236781 0.0019477208 1.3654132e-05
000170 f0 aa 01 3b 6b 15 8d 3a 41 6d 59 b9 d2 9c 16 bb
       0.0019785725 0.0010763829 -0.00020735433 -0.0022981656
000180 6f 5d 30 bc 6b 13 77 3c ad 7a 8d 3c 0a 43 3a bc
       -0.010764464 0.015080313 0.01727041 -0.011368522
000190 85 54 be b9 1f 60 c9 bb d9 53 29 bc a3 4c 76 bb
       -0.00036302596 -0.0061454917 -0.010334932 -0.00375823
0001a0 f0 7c d5 38 82 9d 25 bc 74 0c 31 ba 04 fa 46 bc
       0.00010179903 -0.010108354 -0.000675387 -0.012144569
0001b0 91 8d aa 39 4a e0 a2 bc d6 0d c9 bb 74 96 38 bb
       0.00032530402 -0.01988234 -0.0061356826 -0.002816585
0001c0 ea 11 0c bc 56 7b 57 bb 77 fa 6d bb 44 ca b4 3b
       -0.008549193 -0.003287991 -0.0036312619 0.005517276
0001d0 3d f4 a5 bb 9f b5 a5 3a e1 f5 bf 38 e5 44 39 bb
       -0.005064516 0.0012642628 9.153388e-05 -0.0028269824
0001e0 00 02 b2 ba 00 99 c1 3b 04 c3 fe bb 6c 2a 47 ba
       -0.0013580918 0.0059081316 -0.0077747125 -0.0007597569
0001f0 44 16 3b 3a dd 85 fb 39 3f bd 97 b9 39 de 39 bc
       0.0007136802 0.00047974187 -0.00028941964 -0.011344486
000200 5a 21 3b 3a 06 4f e7 38 ae 93 58 bb cd 80 9c 38
       0.00071384537 0.000110296576 -0.0033047008 7.462651e-05
000210 6d 0d be 3a b5 9e 3f 3a 2d 33 7c ba 0d 27 29 bb
       0.0014499851 0.0007309721 -0.0009620663 -0.002581063
000220 01 cc c6 3a a6 33 40 3a 8a 72 43 39 40 55 9c 38
       0.0015166999 0.0007331915 0.00018639318 7.454539e-05
000230 aa 13 8f b9 77 7f b8 3a b7 ee 20 3b 36 74 d0 ba
       -0.00027289736 0.0014076073 0.0024556348 -0.0015903774
000240 33 cd 5b ba 20 46 f0 3a 83 e3 11 3a 3c 9d a3 3a
       -0.0008384764 0.0018331446 0.0005565213 0.0012482773
000250 cb 25 46 3b 8b c6 f3 ba d5 2f e4 b8 6e 6e 30 3b
       0.0030234929 -0.0018598599 -0.000108807966 0.002692129
000260 1c 1b fb b6 9b 04 07 bb fe b5 a1 3a a7 fe 58 3a
       -7.483539e-06 -0.002060211 0.0012337563 0.0008277692
000270 2e de 58 39 ca 61 9a 39 42 2f b5 ba d0 20 ba b9
       0.00020682134 0.00029446027 -0.0013823288 -0.00035501132
000280 25 64 0f 3d 0b 8f 57 3c 35 64 5e bd eb d0 e7 3b
       0.035007615 0.013156663 -0.054294784 0.0070744655
000290 8b 36 89 bb 9f 9e 81 bb 04 28 c8 3c ae 5f b6 3c
       -0.00418741 -0.0039556767 0.024433143 0.02226242
0002a0 85 cc c4 ba 8c 43 36 3d 37 0d 32 ba 11 bc ea bc
       -0.0015014565 0.04449801 -0.00067921303 -0.02865413
0002b0 22 7d 80 bb 76 9c 68 3d 27 e0 23 bb 66 0c d8 3d
       -0.003921167 0.056789838 -0.0025005431 0.1054924
0002c0 c6 52 7e bc 7b b3 86 bb 01 88 94 3b 8e 67 7e 3c
       -0.015522664 -0.004110751 0.0045328145 0.015527619
0002d0 89 40 6c bc 1f 55 be 3a 7a 62 9d b9 f1 64 49 bc
       -0.014419683 0.0014521218 -0.00030018744 -0.012292133
0002e0 1c 46 e0 3b 46 18 5e 3d cd 54 dd 3b 56 72 3a bb
       0.006844295 0.054222368 0.006754494 -0.0028449497
0002f0 27 43 94 3a 15 ad 12 3b 34 f4 2a 3a 70 08 43 bd
       0.0011311517 0.0022380997 0.00065213745 -0.04761547
000300 bd 4a d3 ba b3 e4 0c bb b8 00 b1 b9 c3 bf 76 3a
       -0.0016120296 -0.002149862 -0.00033760606 0.000941273
000310 1d f4 8a 39 2c ec 8e ba f1 c1 7c b9 f0 46 85 ba
       0.0002650329 -0.0010904125 -0.00024104842 -0.0010168236
000320 4d 3f 37 39 55 4c 80 b9 a4 91 bb 38 c2 6e 52 3c
       0.00017475821 -0.00024470934 8.9439825e-05 0.0128437895
000330 44 3a 21 b9 33 dc b9 ba 99 0d 07 3a 24 92 9a 3c
       -0.00015375862 -0.0014180004 0.00051518675 0.018868513
000340 78 82 ae 3a 7f ea da b9 30 82 23 3a 10 8f 88 ba
       0.0013314029 -0.00041754913 0.0006237356 -0.0010418613
000350 01 24 f8 39 14 e2 17 3b 5f 4d c1 b9 fa 76 42 b9
       0.0004732907 0.0023175525 -0.00036869475 -0.00018545604
000360 86 d2 f8 39 2e f6 81 bb c5 a2 81 3a 68 7e 64 3a
       0.00047459098 -0.0039661145 0.0009890428 0.0008716346
000370 df b3 d8 36 e6 44 cd b9 66 ca a8 ba 69 84 45 3c
       6.4582414e-06 -0.0003915198 -0.0012877702 0.012055495
000380 04 94 24 bd ee 38 15 3d 65 b4 4e 3d 6e aa 27 bb
       -0.04018022 0.036431246 0.050465006 -0.0025583762
000390 5d bc 02 bb a6 08 32 bc f0 80 c7 3c d0 4b a1 bb
       -0.00199487 -0.01086632 0.024353474 -0.0049223676
0003a0 aa 1d a6 ba 06 f7 3d bd f9 14 f1 ba c3 3c c7 bc
       -0.0012673636 -0.046378158 -0.0018393091 -0.024320966
0003b0 0c 63 19 3c 92 50 35 bd 5c 02 06 bb aa 5a 2e 3d
       0.0093619935 -0.04426629 -0.0020448184 0.042566933
0003c0 0e e4 02 bc e9 8a 7a bb 9f 6f 6e bb b5 af a9 3b
       -0.007988943 -0.003822977 -0.003638245 0.0051784166
0003d0 b2 02 ec bb c8 64 da 3a 4c 1e 10 3a 40 8f 88 bb
       -0.0072024697 0.0016662115 0.00054976786 -0.0041674674
0003e0 06 39 98 3b 62 40 38 3c 1f 5c 07 bc 75 1c 0d b7
       0.0046454696 0.011245819 -0.0082617095 -8.410881e-06
0003f0 34 08 86 3a 19 b8 40 bb 6f b0 3c 3a 4f c2 04 bd
       0.0010225833 -0.0029406606 0.00071979215 -0.03241187
