1-GNNs/result/6108_AR_NURA_GAT_0920/15/model.pth (torch, 770486 bytes, 12 tensors)

gnn.gnn_layers.0.gat_conv.attn_l f4 [1, 8, 256]
00000000: a671 10bd 43e6 cfba c33f 85b7 2ed0 b8bc
00000010: eb86 d33b 500c 80bc b1bf 143f eb3e b43b
00000020: 0820 453a 879c 9c3d 8e43 5b3d fd69 983a
00000030: 469e 193c 69a1 8e3e dead 653e 4e16 6fbe
00000040: 3088 3fbd fb46 4ebe 3058 5dbe 989d 70be
00000050: 37d0 cd3c 5d8c 2fbc c0cc 87bd 0872 e6ba
00000060: 2fbe d9bd 1167 e1bd dc09 c5b9 869e cb3d
00000070: 55d4 eabe 3b76 10be d348 063d 0e38 b2be
00000080: 7fd3 66be 9021 32bd 6670 2f3e 2969 3a3d
00000090: f0d8 9a3e 4e81 af3d ebb6 e13d d892 fdbd
000000a0: 7b02 d33d 19a5 8abb 73a7 3b3d f06d 27bc
000000b0: 0259 febe b636 5dbd 0571 cf3e e51c 1e3e
000000c0: 172a 91ba 28e5 043b 8a23 b93d b285 a03a
000000d0: 6157 49bd a471 923c 6cd1 c5bd b9e2 3fbe
000000e0: 4bcb 403c ee5f 70bd 92bf 5d3c a229 d8bd
000000f0: ec83 8e3e 0bd4 52bb aad7 37bb 379f 6a3e
00000100: 3a52 0a3b 668f 54bc 10b5 0bbc f089 483e
00000110: f081 0bbc a712 c33c 1dbf 28bd 1c5b bcbd
00000120: 7193 d13b 0bc9 0fbd 70b5 5dbe 7d7f 23be
00000130: be67 533c 5074 a2bc 5428 993d 337c f13d
00000140: c702 86be d224 02be f764 8fbb 13e9 34be
00000150: 06ed 39bd 4745 643e 729c 7f3e e057 81be
00000160: bccc 06bc f6ee 5abe acad 033e 0b1b 6dbc
00000170: dcd5 893b a854 8e3c e300 ac3d 28aa 3c38
00000180: 1f5d 74bc d3de 7a3e a0dd b3bd 025d 26be
00000190: 0222 15be ec83 f53b dce1 32be 2a15 063b
000001a0: 872d 8bbd 8373 a43d 941a 3c3c fb9d b63b
000001b0: 7dc8 91bc a22d f4bd 8a38 b5bd dffa 313f
000001c0: f8d5 453c 05d0 23bd 7691 603e 5f63 ca3c
000001d0: 9ce1 053f fbcb 6bbd df43 4cbc 4eae 80bd
000001e0: e073 703e 93d5 0b3c ed8b a9bc c80d fcbc
000001f0: 0c55 273e e7a4 4cbe 4e1b e53d 32c3 bb3e
00000200: b642 cb3d 6c8f 1eba 0c38 f53d 1e58 84bc
00000210: a050 51bc a70c b13e 8e8f b43e ecc9 043e
00000220: 1596 833b 852e 31bb 6438 833e 4670 a139
00000230: f21e f63d b0c8 a53e 5822 003b ae01 61bc
00000240: 778c 9c3e c8ea 103c ce4a 9abd 9ad0 8c3c
00000250: 89c8 16bd b1db 8d3d b9e6 f4be b550 9c3d
00000260: cbb4 9dbd 7c09 e7bd dd4c 8f3c 36de b0bd
00000270: 960e 61bc 4b74 683d 70e2 47ba aa22 ca3e
00000280: 3b40 c73e 271e 3abe 1399 333e 6b02 cbbb
00000290: 7f88 91bc c7f7 cdbd eb1b 3ebd d70d e83b
000002a0: d0e1 313d 5ea1 b23c 4f1b 86bd 585c d5bc
000002b0: 9c58 663e 5843 42bd 9441 443c a5be 54be
000002c0: 4256 82bd ae80 ce3b 0b62 8ebc bdb8 5f3e
000002d0: acda e73b c64c 9dbd 4faa 9d39 eeaf 3c3b
000002e0: f2ac 2bbd dd84 2bbc 6fd6 15bd 61a4 673d
000002f0: e465 d13e 854a 7dbd 51e4 dd39 4c59 6e3e
00000300: f3bb 6c3d 6412 223c d6cd 823b 704a ca3a
00000310: 694d 3fbd 5fed cbbd 9f1d 8dbd 157a 863d
00000320: f160 2c3e df8b 0fbe c003 cabd a193 973d
00000330: 4430 0fbc 29d4 50bc e11f 8cbd 34af bebd
00000340: 40b4 d83c 4cb2 a2bd cd35 9fbe 8098 103d
00000350: 4d36 2f3d bde5 51be f533 a83d 067f b4bd
00000360: 9ba6 8fbc a6a3 20bc 15b1 83bc 426e bc3d
00000370: 6992 813b 1647 403d fd7c be3c d901 833e
00000380: 158e 933a 46b8 8e3e 202f 3dbe e632 433d
00000390: c86e d9be 6027 2f3d d430 b3bc e3d7 593d
000003a0: 045e a0be b362 ae3e 8ad9 01bb afea b5bc
000003b0: 1a8a 40bb e600 03be a08b b239 cc05 04bb
000003c0: 74ec 09be abad 1fbe 8381 d7bb 4d2d 31bc
000003d0: 9b0f 8d3b 8d61 92bd f205 5a3d 6f62 afbd
000003e0: 3897 88bc 2969 e439 336e 423d 77b3 903d
000003f0: 0705 ffbd f465 80bc 83dd b43b c414 363b
-0.035264634 -0.001586147 -1.5884527e-05 -0.022560205 0.0064552925 -0.015630871 0.58105 0.0055006645
0.00075197266 0.07647043 0.053531222 0.0011628267 0.009376114 0.2785752 0.22429606 -0.23348352
-0.046760738 -0.20144264 -0.21615672 -0.23497617 0.025123699 -0.010714618 -0.0663085 -0.0017581591
-0.10631978 -0.110059865 -0.00037582114 0.09942345 -0.4586512 -0.14107601 0.032784294 -0.3480839
-0.22541617 -0.04348904 0.1713272 0.045510445 0.30243635 0.08569585 0.11021217 -0.12381524
0.103032075 -0.004231107 0.04581399 -0.010219082 -0.49677283 -0.054007255 0.40515915 0.1544071
-0.0011075166 0.002027819 0.09039982 0.0012246876 -0.049155597 0.017876454 -0.09659085 -0.18738832
0.011767219 -0.058685236 0.013534443 -0.10554816 0.27835023 -0.0032169844 -0.002805213 0.22912298
0.002110614 -0.012973642 -0.008527055 0.19583869 -0.008514866 0.023812605 -0.041197885 -0.09197065
0.00639575 -0.03510384 -0.21651244 -0.15966602 0.012903152 -0.019830853 0.07478395 0.11791267
-0.26173994 -0.12709358 -0.0043760496 -0.17667036 -0.04539206 0.22292052 0.24962023 -0.25262356
-0.008227523 -0.21380219 0.1285922 -0.01447178 0.004206402 0.017374352 0.08398607 4.4981163e-05
-0.01491478 0.24499063 -0.08782506 -0.16246417 -0.14563754 0.007492533 -0.17468971 0.0020459392
-0.06795793 0.080298446 0.011480946 0.005573032 -0.017795796 -0.11922766 -0.088486746 0.69523424
0.01207494 -0.039993305 0.21930489 0.024705587 0.5229738 -0.057567578 -0.012467354 -0.06283246
0.23481703 0.008534807 -0.020696605 -0.03076829 0.16341037 -0.1998478 0.111868486 0.3667236
0.099248335 -0.0006048593 0.11973581 -0.016155299 -0.01277557 0.34579965 0.35265774 0.12967652
0.004015694 -0.0027035784 0.2562896 0.00030791963 0.12017621 0.32379675 0.001955172 -0.013733311
0.30575916 0.008845039 -0.07533799 0.017189313 -0.03681234 0.069266684 -0.47832277 0.07632581
-0.07700499 -0.11281106 0.017492706 -0.086361334 -0.013736388 0.05675153 -0.00076249894 0.39479572
0.3891619 -0.18175565 0.17538862 -0.0061953566 -0.017765282 -0.100570254 -0.046413343 0.007081728
0.043428242 0.021805461 -0.065481775 -0.02604501 0.2249474 -0.047427505 0.011978526 -0.2077585
-0.063641086 0.006301961 -0.017380735 0.21847816 0.0070756283 -0.07680659 0.00030072263 0.0028791386
-0.04191298 -0.010468689 -0.036581453 0.05655325 0.4089805 -0.061838645 0.00042322514 0.23276252
0.05779643 0.00989208 0.0039918227 0.0015433561 -0.046704683 -0.09957384 -0.068904154 0.06566254
0.16833855 -0.140182 -0.098639965 0.07401205 -0.008739535 -0.012745895 -0.06842018 -0.09310761
0.026453137 -0.07944164 -0.31095734 0.035301685 0.042776395 -0.20497794 0.08213035 -0.0881329
-0.017535498 -0.009804642 -0.01607565 0.092007175 0.003954221 0.046942793 0.023252958 0.25587347
0.0011257554 0.27874964 -0.18475008 0.047655962 -0.42467332 0.04276216 -0.021873869 0.0531844
-0.31321728 0.34059677 -0.0019813501 -0.022206632 -0.002937919 -0.12793311 0.00034054834 -0.0020145057
-0.13469106 -0.15593593 -0.0065767183 -0.010814023 0.004304839 -0.071475126 0.053228326 -0.085636966
-0.01667367 0.000435659 0.047468375 0.0706548 -0.12452131 -0.015673615 0.0055195703 0.0027783373

gnn.gnn_layers.0.gat_conv.attn_r f4 [1, 8, 256]
00000000: 5f08 053e da2e af3a 8dbf 7db8 6832 503c
00000010: bbb5 323a 9aa9 263c eb54 00be 6122 57bd
00000020: fb0c 4739 420e b3bc 3759 13bc 9f9b f5bb
00000030: 05b1 273d 158e e43d 7453 b1bd 62da 97bc
00000040: dfbe 5a3b 3ef8 8b3d 4a81 183e 07ce ee3d
00000050: 4251 2cbd 5913 893c 929d bc3c 162e 16bc
00000060: ee57 8438 a5ad 223d 47ed b13b e999 093d
00000070: e3fa ac3d b811 f33b bf4a 5cbc faad 4e3d
00000080: 1303 823d 7b9f a1bb 3cc5 163d 613a 2f3b
00000090: 14ff 8b3d 5a6b 41bc e967 b7bd 0f8c 683d
000000a0: 61f7 9b3c c0ba fb3a d939 85bd 5f51 9b3d
000000b0: eb0e ca3d 5fa9 8d3d 4161 7e3c 53f2 1cbd
000000c0: 8c84 4eba 0dfe 72b9 a7c4 813d ac7c 8039
000000d0: 87cb 1a3d 8719 72bc f30a 853d dcad c43b
000000e0: 52a4 c2bd 3d0c f43c 9f9c 9abb 49df d2bd
000000f0: 141a 3fbd c72d 5dbc c4c3 80bb 7737 a3bd
00000100: 08d3 8dbc 2150 07bd 21ae fb3b ec96 d93c
00000110: d6dd c83a 200f 213a a114 8b3c 4581 7c3c
00000120: 8f0e bbbd 11f5 e43c de0f 60bc 1779 243d
00000130: cbcd 0bbd 5990 803c e970 033d 6566 b3bb
00000140: b1b1 0b3e 42ce 99bb a342 c9bc f1c0 2d3d
00000150: 6ce2 49bb 291a ff3c 263e f53d fbad 4e3d
00000160: aa1a 21b8 cedf d13d 93ca eabd 2671 143a
00000170: 68b5 b2ba aafe f43b a19b 23bb f1a6 1a39
00000180: 76eb 93bb 928f a53c 1f87 9fbc 96bb 403d
00000190: 9a71 043e 036d 6fbb fa9d 8e3d 7be3 dd3b
000001a0: 18fc 393c 2792 13bd 4bf5 81bc dd8d e9bc
000001b0: 3c3c 0aba 665e d4bb 5431 ccbc 8a5c 9f3c
000001c0: 53f6 4ebc 449b a83c c2a6 26bd 6cb6 483b
000001d0: fdcd 30bd cbed 203d dc6c fdbc 5606 fc3c
000001e0: 4401 cf3d da41 2cba 2261 063d db8f cfbc
000001f0: 4bb0 ae3c 1d51 93bd 597c 003d a60f 15bd
00000200: 9c88 9f3d 4c44 8f39 03b4 8139 c349 f7bb
00000210: 8da8 943a e8d0 c5bd cf27 eb3d fbf6 4cbd
00000220: abf6 4cbc 35d2 a9bc 5cb5 083d d846 acbd
00000230: b8d4 92ba 8104 02be 6559 e4b7 c364 f93a
00000240: c74d dcbc bf6c fa3c fd1a 35bb 1695 803e
00000250: 4be7 803c 186b 093d eaf3 343d c376 1fbd
00000260: 34af 073c 4b4a 2d3d dec6 18bc 5b1d 513d
00000270: b1fc 70bd 9c48 b5bc 825d b138 3114 65bd
00000280: 18f4 053d 30c3 28bc 93e7 893d 1da2 68bd
00000290: 2ec9 3c3b 8ef3 163d 394c 3e3d 69d9 6c3a
000002a0: f77e 2dbd 52f6 c23a 69c5 283d f02b a3bb
000002b0: db3a 84bc 5911 603c 7279 053d a692 9e3d
000002c0: d3a9 623e cf2f efba 3825 85b9 fc29 503d
000002d0: 48a1 0dbc 0adf b33c 9dd0 cebd 008c 5e3c
000002e0: faf0 283e 35ee 533b 03d2 b4bd f53b 1f3d
000002f0: 555a e5bb 73bb 96bc b74b acb9 377a f43d
00000300: e91f 0e3b d8c6 1dbc 408b a83c 0d09 223c
00000310: dfa1 1f3d 2928 eebd ba51 923b c153 65bc
00000320: ca65 c3bd 8f54 ba3d 3951 913c bceb 46bd
00000330: 0691 d43a 98d7 193b 7afe 523b 37de 1c3c
00000340: 3a62 35bc d6bd 473d aaba a8bc f85c 8f3a
00000350: ae57 6ebc fa79 273d ca3a 7b3d 1421 ef3b
00000360: dc66 833c efdc cfba 787c 9ebc 4a5a 97bb
00000370: 1a9c 2037 2ade b4bd 7bb6 47bc 8b0f 8f3d
00000380: 40af 33bb f068 45bd 980f 7c3d 58a4 2dbc
00000390: 01ca 8cbd 280b 5d3c b210 b8ba 7b41 433c
000003a0: 490f 9f3d a3d6 78bc f35b b93a b029 94bc
000003b0: 11c5 a53c 9aac 36bd 93f4 13b9 22e9 ba3a
000003c0: 4d49 903c ae76 36be a90e 9d3b 616e 1abd
000003d0: e840 a13b 7168 fc3c 81f4 48bc 784f 2d3d
000003e0: 3bd0 533c 6b17 0ab9 c69c 983c 77ff 05bd
000003f0: 5829 1d3d 89cb 55bc 7872 8abb bd59 ae3b
0.12991475 0.0013365403 -6.0498296e-05 0.01270733 0.0006817241 0.010172272 -0.12532394 -0.05252302
0.00018982954 -0.021857385 -0.008993438 -0.007495358 0.040940303 0.111599125 -0.086584955 -0.01853675
0.0033377928 0.06834458 0.1489307 0.1166039 -0.04206968 0.016732858 0.023024354 -0.009166261
6.310629e-05 0.03971638 0.005429897 0.033594046 0.0844629 0.0074178837 -0.013445555 0.050458886
0.063482426 -0.0049323416 0.03680919 0.0026737677 0.06835762 -0.01180538 -0.08955366 0.056774195
0.019038858 0.0019205436 -0.06505174 0.0758388 0.098661266 0.069170706 0.015526117 -0.038317036
-0.00078780274 -0.0002317356 0.063363366 0.0002450695 0.037791755 -0.014776594 0.06496229 0.006002171
-0.09503998 0.029790992 -0.0047183777 -0.102964945 -0.04665573 -0.013499684 -0.003929587 -0.079695635
-0.017312542 -0.0330354 0.00768067 0.026561223 0.0015324901 0.00061439164 0.01697761 0.01541168
-0.09133636 0.027948888 -0.013675658 0.040154543 -0.034131806 0.01569383 0.0320901 -0.005474853
0.13642003 -0.0046937773 -0.024567908 0.04242033 -0.0030805124 0.031140404 0.119747445 0.05045889
-3.8410224e-05 0.102477655 -0.11464419 0.00056626124 -0.0013634386 0.0074766474 -0.0024964588 0.00014748775
-0.004514153 0.020210061 -0.01947361 0.047053896 0.1293396 -0.0036533482 0.069637254 0.0067715026
0.011351608 -0.036028054 -0.015864035 -0.028510028 -0.0005273258 -0.0064809797 -0.024925865 0.019453306
-0.01263197 0.020581849 -0.040686376 0.003062631 -0.043165196 0.039289277 -0.030935697 0.03076474
0.10107663 -0.0006571092 0.032807477 -0.02533715 0.021324297 -0.071932055 0.031368587 -0.036391877
0.07789728 0.0002732597 0.00024738917 -0.007546635 0.0011341736 -0.09658986 0.11482202 -0.050040226
-0.012509982 -0.020730117 0.033376083 -0.0841195 -0.0011202311 -0.1269703 -2.7221346e-05 0.0019027222
-0.026892556 0.030569432 -0.0027634494 0.25113744 0.01573529 0.0335494 0.044177927 -0.03893162
0.008281518 0.04230718 -0.009324757 0.051053386 -0.058834735 -0.02212935 8.457435e-05 -0.05592746
0.03270349 -0.010300443 0.067336224 -0.05679523 0.0028806436 0.036853366 0.04645941 0.0009035082
-0.04235741 0.0014874435 0.04120389 -0.004979603 -0.016141346 0.013676011 0.032586522 0.07742815
0.22135095 -0.0018248501 -0.00025395467 0.05082129 -0.0086444095 0.02195694 -0.100983836 0.013583183
0.16498175 0.0032338027 -0.08829119 0.03887554 -0.006999294 -0.01839993 -0.00032862808 0.11937373
0.00216865 -0.009629928 0.020574212 0.009889853 0.03897273 -0.11628754 0.004465309 -0.013997019
-0.09540899 0.090981595 0.017738925 -0.048564658 0.0016217537 0.002347445 0.0032195137 0.0095744645
-0.011070782 0.048765026 -0.02059682 0.0010937741 -0.014547272 0.04088781 0.061335362 0.0072976444
0.016040258 -0.001585869 -0.01934646 -0.0046189176 9.573088e-06 -0.08831437 -0.012189503 0.069853865
-0.002741769 -0.04819578 0.06153831 -0.010598265 -0.06874467 0.013491429 -0.0014043062 0.011917467
0.07766587 -0.015187892 0.0014141783 -0.018086284 0.02023557 -0.0445982 -0.00014110123 0.0014260153
0.017613078 -0.1781871 0.0047930074 -0.03770292 0.0049210675 0.03081152 -0.0122653255 0.042312115
0.012928064 -0.0001316943 0.018629443 -0.032714333 0.038369507 -0.013049015 -0.0042250715 0.005320756

gnn.gnn_layers.0.gat_conv.bias f4 [2048]
00000000: 1640 833e 8c08 ff3a c77e 1439 1151 1b3c
00000010: a336 d7bb 58d2 893d cfdb c03e ef95 6fbe
00000020: 701d 7e3a f784 d5bd 324e 2b3c 35c7 523d
00000030: 9c7e 663e bc75 e53e b445 bdbe 42e7 3dbf
00000040: dc7a 823d a994 b83d eeaa 853e 9831 003f
00000050: 3292 8eb9 1e3b 853d 0abc c63d 47b3 73bc
00000060: 917d 8b3d ab20 283c 5406 e73b c5ec cd3e
00000070: 218f 03bd 18e8 56be 765a b3bc 6e51 8b3d
00000080: 1c78 e43e 726e 143c 484c 093e 2359 e13b
00000090: 323c 3e3d 5c59 573e 4e10 05be f6f9 aa3e
000000a0: e682 843e 9706 18bc 7ccc 7abe 5bd5 843e
000000b0: 095a 023f e303 213f 15b5 7f3e 6a60 b7be
000000c0: 3cbe 44bb 6bbe d93b 3eef 2f3c db59 1d3b
000000d0: a4b3 d7bd 35d1 de3c 5a58 253e d871 8dbe
000000e0: 7e80 a13c c57f 40bc 7747 02be 7ed2 2bbf
000000f0: 500b 823d 7a2e a23e 8754 2b3c fc49 1d3e
00000100: cc66 cb3d 1581 1c3c 3c89 db3d 6bee 703c
00000110: 940d d03b 7105 f23b 503a 463d f395 783e
00000120: 6d10 0cbe 26f3 b43d 9a85 413f 1ff0 32bf
00000130: 8c5e 86bd eb73 ddbd 294c 543e 8849 383e
00000140: 8a42 ed3e eb3f 1b3f d865 673e 628f cfbd
00000150: 40be a03e 387c e13e ed98 1d3f d65b 9e3e
00000160: 6371 c83a 2627 0e3e 2472 adbe d72b 31bc
00000170: 34af cf38 03bf 553c 587d d6be 4a3e 4a39
00000180: 947f 37bd f8db 39be 403d ca3d 70c1 283e
00000190: b895 353f 47ed e8bc a191 a73e c0d2 233d
000001a0: 9eb8 1a3c aec0 ee3b d08d 43be bfb8 373a
000001b0: ba5f 9a3c c384 a2bd 050f 3abd f268 0c3f
000001c0: a244 abbd 1b47 12be bb03 123e 3e15 63be
000001d0: 04ec 0cbe f418 87bd 7a4c 6ebd 2ddb 033e
000001e0: cc24 a03e 0881 1cbb b8f3 e43d eda2 05be
000001f0: d37b 0cbe 3ea9 8e3c 33ac c13e ea15 953e
00000200: bf74 cc3e 1118 54bb cf0f 4e3e f61e 26bd
00000210: 02fa 5abd afbd 9bbd 5eed b63f ce80 4bbe
00000220: 3ac2 3bbc 9e32 5e3c 466e 0c3f cad2 cbbe
00000230: f9c9 03bc 3608 913d c5c6 35ba 5807 fc39
00000240: ee20 ae3e 0bdb 6c3e f046 0e3d 141c 653d
00000250: f387 1b3c 89c1 bcbe 0404 bbbe df0b 253c
00000260: edd0 aa3e c90e b43d 63f1 88bd c180 d23c
00000270: 3102 83be 364f 863d 3342 603b 13e3 883e
00000280: ff23 c43e 0110 b03e 9c61 d23e 6910 26bd
00000290: e147 db3d 9ade afbb 901b b2be 7598 513b
000002a0: 29dc 0bbe 1ec8 7f3c d9c0 d33e fb3c 093d
000002b0: 1da1 9c3e e0a6 b03e 3e3e 243e 05bb bc3d
000002c0: 8e76 11be 81f2 9b3b fdd6 a73c 11d5 1d3e
000002d0: a98d 1a3d 48d1 0abe e2fd d1be 2fc6 a33d
000002e0: 9a0d a93e ec51 403b e0cf a0be 1756 513f
000002f0: 37aa e13e 0dc0 26be fc9f 8638 dba8 e13e
00000300: 306c aa3d 6b4c 61bd cbd6 f43e 9a95 0a3e
00000310: 8a0f 583e 0a19 c4be 00e2 fd3c 4722 6c3f
00000320: 13d9 9dbe 5948 f53e d005 773d c6db c1be
00000330: 42ba ea3b 8b21 da3c 8169 86ba a238 81be
00000340: 4b7f 80bd 4d9f e1bc e754 e33c 7d83 9dbc
00000350: 76ab 2ebd 1f08 603f 9da5 6cbe f932 61bb
00000360: fb69 f23d 2993 b1bc 3d07 d1bd 62d1 82bd
00000370: 212d 773c 8740 90be 15eb fc3d ccea 2a3e
00000380: 7ca1 203b b690 90be 76dd ef3e c784 293d
00000390: cc4a 01bf 80a7 eb3d 64d2 9cbd ce76 663e
000003a0: cae4 453e 9f58 a93e ee96 1cbb 822e 33be
000003b0: 672f 5dbc 4adb 73be d29e b9ba 4b65 77bc
000003c0: 0213 1abd eb4a 4a3e 19e9 b2bd 546a 38bb
000003d0: e40e 8e3a 5e17 7c3d b4e7 a0bd 7cb5 163e
000003e0: 9190 033d 4bf7 6f3b 77ca 0d3e 4573 bfbd
000003f0: e01e e33c 9b3b 4dbe aefd 3f3c 5981 64bd
0.2563483 0.0019457503 0.00014161608 0.009479777 -0.0065677925 0.06729573 0.376677 -0.23397039
0.00096937176 -0.10425752 0.010455655 0.05145951 0.22509235 0.44816387 -0.36967242 -0.74180996
0.0637109 0.0901273 0.26106972 0.50075674 -0.00027193275 0.06505416 0.09703834 -0.014874286
0.06811059 0.010261695 0.007050315 0.40219703 -0.03211892 -0.20986974 -0.021893721 0.06802641
0.44622886 0.009059535 0.13408005 0.006877081 0.046444125 0.21030182 -0.12994501 0.3339383
0.25881118 -0.009278915 -0.24492067 0.25944027 0.5091863 0.62896556 0.24971421 -0.35815746
-0.0030020615 0.006645014 0.010738192 0.0024009857 -0.105323106 0.027199367 0.16146985 -0.27625918
0.01971459 -0.011749213 -0.12722574 -0.6711806 0.06349814 0.31676084 0.010457165 0.15360254
0.09931716 0.00955226 0.10719535 0.014705281 0.006349275 0.0073859026 0.048395455 0.24275951
-0.13678141 0.088354394 0.75594485 -0.69897646 -0.06561002 -0.10813125 0.20732178 0.179968
0.46339828 0.60644406 0.22597444 -0.1013477 0.3139515 0.44040084 0.6156147 0.3092944
0.0015292581 0.13882121 -0.33876145 -0.010813675 9.903163e-05 0.013046029 -0.41892505 0.00019287426
-0.044799402 -0.18150318 0.09874964 0.1648004 0.7093158 -0.028433455 0.32728294 0.03999591
0.00944343 0.007286153 -0.19097066 0.00070084253 0.018844474 -0.079354785 -0.04542448 0.54847634
-0.083627 -0.14284937 0.14259236 -0.22176072 -0.13761908 -0.06596556 -0.058178402 0.12876578
0.31278074 -0.002388062 0.11179298 -0.13050433 -0.1371911 0.017414685 0.3782669 0.29118282
0.3993282 -0.0032362978 0.20123218 -0.04055687 -0.053461082 -0.07604539 1.4291189 -0.19873354
-0.011459881 0.013561873 0.54855764 -0.39809257 -0.0080437595 0.07081644 -0.0006934221 0.00048070657
0.34009498 0.23130433 0.03473562 0.05593498 0.009492862 -0.36866406 -0.365265 0.010073631
0.33362523 0.087918825 -0.06686666 0.02569616 -0.2558761 0.06558077 0.0034219145 0.26735744
0.38308713 0.3438721 0.41090095 -0.040542994 0.10707069 -0.0053671123 -0.34786654 0.003198174
-0.13658203 0.0156116765 0.4135807 0.03350542 0.3059167 0.34502316 0.16039369 0.09215359
-0.14205381 0.0047591333 0.020488257 0.1541331 0.037732754 -0.13556397 -0.4101401 0.07996785
0.3301819 0.0029345704 -0.31408596 0.8177199 0.44075176 -0.16284199 6.419417e-05 0.4407414
0.083214164 -0.05500452 0.47820124 0.13533631 0.21099678 -0.38300353 0.030991554 0.92239803
-0.30829677 0.4790676 0.060308278 -0.37862986 0.007163317 0.026627323 -0.0010254831 -0.2523852
-0.06274279 -0.02754178 0.027750446 -0.019227738 -0.042643987 0.8751239 -0.23110051 -0.0034362657
0.118366204 -0.021676617 -0.10206459 -0.06387593 0.015086443 -0.2817423 0.12349526 0.1669113
0.0024510315 -0.28235406 0.4684865 0.041386392 -0.50504756 0.115065575 -0.07657316 0.22506258
0.19325557 0.33075425 -0.0023893672 -0.1749821 -0.013500071 -0.23814121 -0.0014161712 -0.015099834
-0.037615784 0.19755141 -0.08735866 -0.0028139548 0.0010838178 0.061545722 -0.07856694 0.14717668
0.03212029 0.0036615904 0.13846765 -0.09348158 0.027724683 -0.20042269 0.011718197 -0.055787418

gnn.gnn_layers.0.gat_conv.fc.weight f4 [2048, 74]
00000000: 7890 793e 44f4 51be a923 edbd f7b8 d1bc
00000010: 3ad8 ffbd fe8b 5c91 ebda 1abc d438 d5bb
00000020: 45ce 78bc 6196 0000 e32c 0180 5b8b bc34
00000030: 6e75 0a80 f01e 0080 d187 9ebd da20 34bc
00000040: e62a 0100 3365 732f 7c7c 0200 64f6 1700
00000050: 21e7 e02f 044b 0200 9b19 0280 195a 0280
00000060: 0b7f 2135 8028 6d3b 8d57 8981 3d55 af85
00000070: b360 413d 5e59 a501 d644 b302 3798 2735
00000080: afd5 0c9a 1955 850a 6be8 0180 498c 1280
00000090: 7876 0db7 422d 1938 58e6 a0ac 2020 6637
000000a0: 8851 b201 8fca 0180 af23 9990 39be 3eba
000000b0: 7766 35bc eebe 0cbd e9fa 2dbe 6434 993e
000000c0: 566d 2702 f114 0180 6315 8639 f7f3 183d
000000d0: 1fe5 29a5 22c4 b01b 50fe 373e 7b0d 5fbe
000000e0: f643 f7bc 42ab ff3c 33dd 1080 82f1 0000
000000f0: ff17 d003 b31f 233d 3239 0dba d242 733d
00000100: c7c6 4b3e 40f0 c1bd b93b 93b5 8313 6539
00000110: ff70 933d 49a3 2a3e 29df 4fbe a3df a4bc
00000120: bb6f eb3c 11ff 0000 e56b 833b 23c7 fdbb
00000130: 62fd 33bc 6ff9 c237 0367 bbbb 37a5 3c09
00000140: e833 dfb9 a168 1bba 99d4 09b8 126c 9ca5
00000150: 040f 3938 a11e 0180 cdea 8aba 4821 1083
00000160: bdfd 7e90 9bf8 b3b7 4160 3315 6f77 0180
00000170: 7775 0a80 9c1e 0580 23a5 241a b24d 0100
00000180: 5e84 24ba 8ed3 7b17 a118 a32c e6d4 c535
00000190: 5a47 4480 613a 0180 b374 4d80 b92a 0100
000001a0: c471 d58e d1c4 188d 8986 4995 8af5 0200
000001b0: 3a2d b588 f20e 12ad 5d56 1f8f 9f8d 0080
000001c0: 266e 0ba1 719f 083d f0e9 0100 3ccf 018f
000001d0: acb7 0100 b400 1300 58eb 15bb 3e03 373a
000001e0: ed9f a5bb 474f ae3c 00b7 0180 9dc3 0180
000001f0: 263f 2d35 e9cd e583 d3cf 2886 d015 b692
00000200: e0e6 223c 4e63 1dbb 3398 a43a 419a e2ba
00000210: 638b e3b4 8927 1fad 9acd 0900 09b6 f439
00000220: db30 01b6 817e 873a 1269 ff3a 677d 0c3b
00000230: cf4a 0200 ae08 0000 4863 303b 97ba 243c
00000240: a36c 14bb 972e 8a3a fe4d dfba bfb4 79b6
00000250: d0c8 b339 07d3 d8ba 9d2f 21ba 95b2 e7b9
00000260: 5c58 5e39 aabe 2cb5 9439 2538 7104 2b39
00000270: a92a b838 9000 0180 9358 ba2e 1d7f 9e36
00000280: 1cd4 5286 7ca6 0000 2cbd 0180 fa26 0bb8
00000290: ac38 0280 184d 0200 8f5c f09b e9f7 84bd
000002a0: 06fe 0000 9adf 0100 b602 0180 5ea2 fd35
000002b0: f57e 0000 8e30 9913 bee6 0280 6544 0180
000002c0: 9302 ddb5 004e 0100 e6f8 ec1d 31a5 0200
000002d0: e634 0180 1d4e 24bb 0468 0000 a3da 4b3d
000002e0: b54b c324 82da 0080 b059 0180 9c3f 0587
000002f0: 5b1d 8e0b ec21 0000 67bd 0ab5 d606 3831
00000300: 2bb3 0fba fae6 1c3a f5df adb9 b4db 313b
00000310: 208d 0000 7ef7 1b80 a040 04a7 fc65 0080
00000320: 2f1d 220e df16 0100 d066 cdb8 3071 18ba
00000330: 7f9e 8a3a 238a 40b8 2a37 bbac b8f7 0100
00000340: 6fa4 0180 0277 8db8 2239 8db4 0424 7fb8
00000350: 7665 cab8 39c3 643a ae12 45b3 100a 9939
00000360: 7ca8 6439 4fc3 a8b8 80a5 0bb9 10d7 883a
00000370: f01c b0b7 4096 0500 bfb6 dfbc c000 803b
00000380: 8a17 1b3d ffc2 1dbc 56a0 b7bc 6e54 eb00
00000390: 42ea 843b a76a cf3a 88e1 143b c20a e4b2
000003a0: 18d5 1700 a155 0680 4bad 18bb fc9c 4d02
000003b0: dc35 b180 e36d 06b8 2aa6 0000 0301 0100
000003c0: b43a 0180 a4f9 7a84 2ca0 0380 c298 7c3c
000003d0: 419a b8b8 41d5 0000 a2ad 8caa 344a 0280
000003e0: 0bd9 2f80 97f1 0100 cf0e 0180 bc1d 0180
000003f0: 1beb 0200 67ec 0183 ac8d 14b6 db83 0000
0.24371517 -0.20503336 -0.11579067 -0.025600893 -0.12492414 -1.7398078e-28 -0.009451608 -0.0065070186
-0.015185897 5.3946e-41 -1.07938e-40 3.5119123e-07 -9.60481e-40 -1.1098e-41 -0.07740749 -0.010994161
1.07225e-40 2.2136674e-10 2.28328e-40 2.200605e-39 4.090959e-10 2.10582e-40 -1.92857e-40 -2.15992e-40
6.0162046e-07 0.003618747 -5.045148e-38 -1.6488233e-35 0.04721136 6.0739663e-38 2.6341196e-37 6.243385e-07
-2.9123934e-23 1.2839444e-32 -1.75211e-40 -1.703364e-39 -8.431838e-06 3.6520192e-05 -4.573047e-12 1.3716548e-05
6.5503865e-38 -1.645e-40 -6.040284e-29 -0.000727627 -0.011071793 -0.034361772 -0.16990246 0.29922783
1.23006e-37 -9.9348e-41 0.00025574406 0.037342038 -1.4736043e-16 2.9243505e-22 0.17968106 -0.21782486
-0.030183773 0.031209592 -1.548719e-39 8.6637e-41 1.22306505e-36 0.039825153 -0.0005387246 0.059389897
0.19900046 -0.09469652 -1.0969735e-06 0.0002184641 0.07199287 0.16663851 -0.20299973 -0.02012617
0.0287398 9.15e-41 0.0040106648 -0.007744686 -0.010985704 2.3242754e-05 -0.005719067 2.270736e-33
-0.00042572548 -0.00059283717 -3.2861342e-05 -2.7134918e-16 4.412142e-05 -1.02823e-40 -0.001059854 -4.2356e-37
-5.028814e-29 -2.1454229e-05 3.6224693e-26 -1.3468e-40 -9.60493e-40 -4.70158e-40 3.40478e-23 1.19707e-40
-0.0006275828 8.1369494e-25 4.635473e-12 1.4739605e-06 -6.27041e-39 -1.12778e-40 -7.113197e-39 1.07161e-40
-5.2618106e-30 -4.7075525e-31 -4.0697756e-26 2.71754e-40 -1.0904174e-33 -8.302458e-12 -7.855938e-30 -5.0804e-41
-4.724081e-19 0.03335518 1.75756e-40 -6.400103e-30 1.57725e-40 1.745127e-39 -0.0022875872 0.0006981379
-0.005054465 0.021278037 -1.57484e-40 -1.62008e-40 6.4539415e-07 -1.3506685e-36 -3.1749973e-35 -1.1491192e-27
0.00994274 -0.002401549 0.0012557566 -0.0017288403 -4.2383462e-07 -9.046882e-12 9.00275e-40 0.00046674933
-1.9250936e-06 0.0010337384 0.001948627 0.002143705 2.10507e-40 3.114e-42 0.0026914645 0.010054252
-0.002264776 0.0010542449 -0.0017036793 -3.72091e-06 0.00034291157 -0.0016542383 -0.00061487575 -0.00044192807
0.00021204486 -6.4352446e-07 3.939269e-05 0.00016309485 8.78175e-05 -9.2037e-41 8.474035e-11 4.723565e-06
-3.9652444e-35 5.9723e-41 -1.59698e-40 -3.3176482e-05 -2.04001e-40 2.11327e-40 -3.9764484e-22 -0.064925976
9.1126e-41 1.72049e-40 -9.2808e-41 1.8897224e-06 4.5544e-41 3.867051e-27 -2.66446e-40 -1.16371e-40
-1.6466532e-06 1.19817e-40 6.2726035e-21 2.4293e-40 -1.10812e-40 -0.0025070973 3.7314e-41 0.049769055
8.469602e-17 -7.8386e-41 -1.2401e-40 -1.0024501e-34 5.474058e-32 1.2169e-41 -5.168462e-07 2.677941e-09
-0.0005481715 0.0005985346 -0.00033163992 0.002713901 5.0626e-41 -2.568342e-39 -1.8353713e-15 -3.6585e-41
1.9982093e-30 1.0004e-40 -9.794312e-05 -0.0005815206 0.00105758 -4.5905017e-05 -5.320984e-12 1.807e-40
-1.50823e-40 -6.745571e-05 -2.6304866e-07 -6.083028e-05 -9.651009e-05 0.00087266 -4.5884626e-08 0.0002918993
0.0002180654 -8.047243e-05 -0.00013317727 0.001044007 -2.099431e-05 5.13077e-40 -0.02730882 0.0039063394
0.037864245 -0.00962901 -0.022415321 2.1611629e-38 0.004056246 0.0015824632 0.0022717435 -2.6547585e-08
2.18866e-39 -5.81731e-40 -0.002329665 1.5106074e-37 -1.6274204e-38 -3.205043e-05 5.9608e-41 9.2198e-41
-1.12894e-40 -2.9501988e-36 -3.32965e-40 0.01541728 -8.802536e-05 7.6501e-41 -2.4989478e-13 -2.1029e-40
-4.394129e-39 1.78502e-40 -9.7148e-41 -1.02502e-40 2.68011e-40 -3.818107e-37 -2.2136182e-06 4.7301e-41

readout.weight_and_sum.atom_weighting.0.weight f4 [1, 256]
00000000: e099 eabe a409 babb dbd6 8b3a 7cbd 293e
00000010: 9ef6 e9bb c61e 443e 1c3e ab3f 2ff3 c03e
00000020: 45a7 deb9 edee afbe 0415 4e3e 4dcf 4abd
00000030: ce4b 34bf f0b6 36bf 6efd 963e 6c37 3cc0
00000040: d898 acbc 1649 c53d 3d7e b0be 1cd0 8ebe
00000050: 6d56 b23c fc93 83bd d8bc 233e e4a3 b7bd
00000060: 4c93 84bf b567 b13e 0e61 2abc 0935 803f
00000070: 90c5 0ebf 9ed7 e23e 6b33 ddbd 5f28 11be
00000080: d079 13be f25a de3b e230 553f 891a e63b
00000090: d672 ce3f a5b0 4e3e 92ea 23bc c4f7 4ebe
000000a0: 87e4 543e 7d75 80bb feaa 953e 1230 12be
000000b0: 5070 94bf d52a 08bf 4638 e53f 622e ed3d
000000c0: 3b2a 6fba 152e b93b bc7f 00be 3cf2 353c
000000d0: b395 4dbe edc9 863d 41bc 8bbe c197 e03e
000000e0: 5e5d 343e c2bd 98be a26c 0c3f 4ee0 75c0
000000f0: 2f31 973d 1f10 85bf ceb7 cf3c 59f2 193e
00000100: 9895 26be 4c16 0ebe 1adb 263f 0a84 b5be
00000110: 8a81 853c cc45 a0bd e134 233e e619 eebe
00000120: a009 653e 36f4 7cbf 27f8 adbf c09e 76bf
00000130: 9ac0 07bd 07db 783e f673 d63b a769 dc3f
00000140: 3cd3 2dbe 260a 95bf dfb8 a93f bfaa 653c
00000150: 967c 4fbe 4bc6 1740 5a8a 9540 a938 00bf
00000160: f96f 5a3d f996 4abe 02c3 283e 84a2 00bd
00000170: aff3 6d3b 7574 82be 3d13 b1be cda6 1bba
00000180: 45e8 633c 3a29 22be 87ac 4ebf 66e6 a9be
00000190: e416 d6be 7dd8 4abd daf2 513d 5d6b e43c
000001a0: 1722 a83d 01b0 1ebf f2ed bcbd db03 4dbe
000001b0: c719 0cbd 0547 23bd bf1f 09bf 6b1e 8140
000001c0: eec2 8d3d 2e65 abbe a75e 7d3f bb88 293e
000001d0: 1054 c83f 8141 0dc0 3085 fb3d de3c af3d
000001e0: 42ab e43f 2269 0f3c e7c1 153e 3e8c 5b3d
000001f0: 0cfc 1c40 bac6 e33e 936f 6940 b976 2140
00000200: 429f 0a40 6e37 14bc 46d4 eebe 359c d33e
00000210: 6734 013d 4091 ee3e 734d 603e 3c30 703e
00000220: 97ad 8b3b 7ad0 09be 0d2f 4940 6088 85c0
00000230: 2be2 91be 623f 2ebe f515 0dbb af53 4dbc
00000240: fd22 2b40 eb6c 893f a613 b43d 81b9 d840
00000250: a949 bd3c d69f 2e3f 0603 3ac0 0620 173d
00000260: c49b 7c3e 6fc3 503e 68d8 2dbe b861 eabd
00000270: d86f 8b3d b43d 873d 4152 963c 9755 5c3f
00000280: fd7e 053f 2ddf 7b3e 802a abbd 910c f4bf
00000290: 1f8b 023e 51ad babf ce74 2bbf 0b6e 37bc
000002a0: 52cc 47bd 1cce 293d aa87 433e 8461 f8bd
000002b0: 039e 033e 9c71 d03f a853 42bd b9f1 293d
000002c0: 4a4d c73d 3ae2 063d 4a3e 053d bacc 96bd
000002d0: 391a dc3c 45e3 623e 4465 39c0 82cb 733e
000002e0: 7c6f e8bf 2c39 e23c 3612 72c0 ace7 09c0
000002f0: e127 5b40 f119 15bf 8460 b8b8 847e 983e
00000300: d59f 2c3e 3155 7ebe 7f0e acbe b061 b33a
00000310: ef0b d73d 9575 a5c0 6128 c93e 3a83 bf3f
00000320: 9914 ac3e ffea c63f 8773 19bc 6dac 53be
00000330: fef4 35b9 f68f 3a3c f466 29be 9572 31c0
00000340: 2f77 ffbd 0237 d2bf 6818 a5bf 0d0f 283d
00000350: 59a8 3ebe 73c1 fb3c 8c5d a740 f119 34bd
00000360: 6e1f 833d 56dd 8cbc 2654 3f3e a0e1 df3b
00000370: ad53 02bd e782 943e 94e3 0d3f f841 9a40
00000380: 318b 14bc 32ec 9b3f 6027 cbbe 5f88 67bd
00000390: d7a5 c1bf 7840 b73e cb8c 073e ada3 de3e
000003a0: 646a 90be e4a4 4b40 0162 563a 68c2 60be
000003b0: 6fef 4bbe 1aba d7bc dcbd 7cba 69b2 80ba
000003c0: cb00 263e c3ab fbc0 0e90 4dbe 9790 c63e
000003d0: 4656 273c e9f7 fdbd aaf1 c93c 5140 e5bd
000003e0: 4f12 153d f734 d73b 32b0 32bc 116a 1d3e
000003f0: 9268 463d 38f3 cc3e 1941 24bd 5cf9 5fbd
-0.45820522 -0.005677419 0.001066889 0.16576189 -0.0071399948 0.19152364 1.3378329 0.37685534
-0.00042467765 -0.34361973 0.20125204 -0.049514104 -0.7042817 -0.7137289 0.29490227 -2.9408827
-0.021068975 0.09633081 -0.34471312 -0.2789315 0.021769727 -0.0642471 0.15990007 -0.089668065
-1.0357451 0.34649435 -0.010399116 1.0016185 -0.55770206 0.44305128 -0.10800823 -0.14175557
-0.14401937 0.006785744 0.83277714 0.007022206 1.6128795 0.20184572 -0.010004656 -0.20211703
0.20790301 -0.0039202557 0.2923202 -0.1427615 -1.1596775 -0.53190356 1.7907798 0.115811124
-0.00091234193 0.0056512454 -0.12548727 0.011105116 -0.20076637 0.06581483 -0.27292064 0.4386578
0.17613742 -0.29832274 0.5485326 -3.8418155 0.07382428 -1.0395545 0.0253562 0.15033855
-0.16268003 -0.13875693 0.6517807 -0.354523 0.01629712 -0.07825813 0.1593814 -0.46504134
0.22366953 -0.98810136 -1.3591355 -0.96335983 -0.033142664 0.24302302 0.0065445853 1.7219743
-0.16975111 -1.1643722 1.3259543 0.01401776 -0.2026237 2.3714778 4.6731386 -0.50086457
0.05332944 -0.19784154 0.1648064 -0.031404987 0.0036308577 -0.25479475 -0.3458499 -0.0005937636
0.013910358 -0.15836039 -0.80732006 -0.33183593 -0.4181434 -0.049522866 0.051256992 0.027883226
0.08209627 -0.6198731 -0.09225072 -0.20021002 -0.03420427 -0.03986265 -0.53564066 4.034963
0.069219455 -0.3347563 0.98972553 0.16556065 1.5650654 -2.207123 0.12281263 0.08556531
1.7864764 0.008753093 0.14624749 0.053600542 2.4528837 0.44487554 3.647435 2.5228713
2.1659703 -0.009046419 -0.46646327 0.41330114 0.031544115 0.46595192 0.21904545 0.234559
0.004262637 -0.13458434 3.1434968 -4.1728973 -0.28492865 -0.17016366 -0.002152798 -0.012532159
2.6740105 1.0736364 0.0879281 6.7726445 0.023106413 0.6821264 -2.9064345 0.036895774
0.24668795 0.20387052 -0.16977084 -0.114444196 0.06808442 0.06603566 0.018349769 0.860681
0.52146894 0.24596854 -0.083577156 -1.9066335 0.12748383 -1.4584142 -0.66975105 -0.01119567
-0.04877884 0.041456327 0.1909472 -0.12127975 0.12853245 1.6284671 -0.047443062 0.04149029
0.097315386 0.03293059 0.032530107 -0.07363267 0.026867973 0.22157009 -2.8968058 0.23808101
-1.8159022 0.027615152 -3.7823615 -2.1547651 3.424309 -0.5824271 -8.791781e-05 0.29784024
0.16857846 -0.24837185 -0.3360481 0.0013685729 0.10500323 -5.1706033 0.3928862 1.4961922
0.33609465 1.5540465 -0.009365923 -0.20671244 -0.00017352772 0.011386862 -0.1654318 -2.7726185
-0.12473904 -1.6423037 -1.2898073 0.04102998 -0.18618907 0.030731892 5.2301693 -0.043970052
0.06402479 -0.017195385 0.18684444 0.0068323165 -0.03181808 0.2900612 0.5542538 4.820553
-0.009066389 1.2181456 -0.39678478 -0.056526538 -1.5128735 0.35791373 0.13237302 0.4348425
-0.2820617 3.1819391 0.0008178056 -0.2194916 -0.19915555 -0.026333857 -0.00096413284 -0.0009818795
0.1621124 -7.864717 -0.20074484 0.38782188 0.01021344 -0.12400801 0.024651367 -0.11193908
0.036394414 0.006567593 -0.010906266 0.15372492 0.04843957 0.4002931 -0.040101144 -0.054681167

predict.predict.1.weight f4 [64, 512]
00000000: df1d cb3e 9d6b 123b 8fe3 63b9 e583 17be
00000010: 68cd 98bc 2968 dcbc ba21 033f ac30 0abe
00000020: 226f 75ba 0e28 cd3e 0c76 2a3e ed37 2a3e
00000030: 9b70 903e df61 f93e 59e0 98bd a505 30be
00000040: be32 80bd e991 00bd 506b 4f3e 1a9a 933e
00000050: 849c dabc c0ee c43c 2111 f2bd ff37 293c
00000060: 10bc 5dbe d447 d2be e70b 82bc 9e31 89be
00000070: 15c7 313e e62d 05bf f10e af3d 97ce 03bf
00000080: 202e d4be 7ce6 79bd 4351 54be bd2d 103d
00000090: 4308 7a3e e914 90bc c30b b6bd 04bf e23e
000000a0: 5cbc 313f d108 2e3c 091b 47bf a74b a53d
000000b0: 7f8a f73e 0718 913e 8e9f bdbd a1ab 38be
000000c0: 4981 11bb 6e19 4ebb 62b6 163e 8e17 1bbc
000000d0: 76ad f5bd a177 ef3c 88f8 dabd 9e3e 21bf
000000e0: 74b4 143f 65eb dbbd 143d 913d 07fc b5bd
000000f0: ac7f ef3d b8c1 623f b163 b53c 168e 82bc
00000100: 775a d8bd 10a8 023e 0577 1cbf a6b6 173f
00000110: 34a9 76bc cfca 9fbc a692 26be dbfe a93e
00000120: a93d d53c 76b0 4f3e 8db8 84bf 8428 383c
00000130: 4bca b4bc 40c6 93be e0eb 2a3c d89d 113d
00000140: f503 d9bd f1fb a1bd dd5b 70be 2367 c43d
00000150: d31d 233e f634 f83e 8c60 ff3d 4554 4fbf
00000160: 609b 9ebb ba4e b4be 2066 703e a4e7 023c
00000170: 64aa 1a3c 79fd 413e 3d94 77be ccea ebba
00000180: 0e65 1bbd 5864 1bbe 438d 6d3e 886e abbc
00000190: 54ba f73a 0196 3c3d cc87 853e 7316 383b
000001a0: d20d 7c3d 0761 4f3f 1881 0a3e 221c 923d
000001b0: 98fd de3d ff9d 0ebe 6a58 10bf 30fa 5abe
000001c0: 49c5 5dbd 6455 b43d 60ac 89be 9e5e bdbd
000001d0: eb76 88be 9525 3abf 661d ba3d 726f 883e
000001e0: 0bcf fa3e 3ab2 c33c f654 383d 3565 a53d
000001f0: 9edd 6abd 550d 273e fddd 11bd 558b 66bd
00000200: ed2a 753e f328 a9bb 69cd 263f 98a3 37be
00000210: 5565 09be 8781 87be be3c 3ebf 7da5 65bd
00000220: 444a 36bc 8d48 bc3b ae1c 82be 1082 053f
00000230: e62a 153e d17c 583f 2ddc 2e3b d803 cdbb
00000240: d27a c73d 678b 893e ff58 6dbd ee0e 87bf
00000250: 56a0 0dbd 83d0 c5be 899a 0e3b d56b d6bc
00000260: 1ee6 ba3d a4b4 f4bd cbd9 a23e fee6 eabd
00000270: 7a2b f43c e37c 35bd ff71 99bb f63d 0c3f
00000280: 49be 6cbe a69c 8e3d 88d0 e83e 66db 0ebd
00000290: c28e efbd 5cc2 ecbe b539 f93e d79a bdba
000002a0: d8d3 6dbd 6f97 77bd 6be1 433e 5c9f e0bd
000002b0: 904d 223e 4319 68be d14f cc3a a636 11bd
000002c0: 032a c23e 681f 453c 9d47 80bc 974f b0bd
000002d0: 5eb9 1abc 334a 87bd b062 6c3e 7319 0abe
000002e0: 9f8f c33e 9216 95bd fe5f 453e f897 3a3e
000002f0: f2da bf3e f57b fbbd 394a 3d3a ae71 8abe
00000300: 6053 ba3e 797f 43bd 53a6 753d 9736 97be
00000310: d18b 0a3e 9dc3 063f 855c 36bc da73 6ebf
00000320: 033a fbbd 1ca2 4ebc 1ff7 46bd 1d75 0abf
00000330: 366b 133d 01e8 68bd bc56 cebc dbf4 983d
00000340: 5c6a 323e effe 96bd fe7c c63e b701 383e
00000350: 1dc0 a7bd 6cfe cfbd 375d 40bf 8fed dc3b
00000360: eec3 9ebc 0fa3 433c 6199 a73d 2219 efbd
00000370: 694b 5f3b 212f 073e dc32 cd3d 48b4 13be
00000380: 846b 713c 792f 22bf 3ec2 f9bd 545f 2bbc
00000390: e7e9 39bd 9120 4d3e d977 efbd 37bd ea3e
000003a0: d8fa fe3c 1a25 903e 33ac edbb 65cc e8bd
000003b0: 3ff9 8c3e 23b8 f33c 69ed 02bb de0a 09bd
000003c0: 3627 aebc 32ee e6be 2428 103d 17e9 9fbe
000003d0: 170a d83c 3e44 3a3c cb29 43bd e5e2 023e
000003e0: 9f20 87bd a85d 70bb ced3 7a3e cf1e 173e
000003f0: 4492 5e3d 4af0 44be e498 69bc 1b1d 063e
0.39671227 0.0022341975 -0.00021733179 -0.14796408 -0.018652633 -0.026905136 0.5122334 -0.1349513
-0.00093625684 0.40069622 0.16646594 0.16622896 0.2821091 0.48707482 -0.07464666 -0.17189653
-0.06259678 -0.03138915 0.2025578 0.28828508 -0.02668596 0.024039626 -0.11819673 0.010328292
-0.21653771 -0.41070426 -0.015874816 -0.26795667 0.173611 -0.5202316 0.08547772 -0.51487106
-0.4144144 -0.061010823 -0.20734124 0.03519987 0.24417214 -0.017588096 -0.08888962 0.44286358
0.6942804 0.010622219 -0.7777563 0.0807107 0.48347852 0.28338644 -0.09258948 -0.18034221
-0.0022202304 -0.0031448263 0.14718011 -0.009466065 -0.11995976 0.029231848 -0.10691935 -0.6298617
0.5808785 -0.10738257 0.07091728 -0.08885961 0.11694273 0.8857684 0.022142263 -0.015936892
-0.1056413 0.12759423 -0.6111911 0.59263074 -0.01505499 -0.019505886 -0.1626688 0.33202252
0.026030378 0.20282158 -1.036882 0.011240128 -0.022069117 -0.2886219 0.010432214 0.035550922
-0.10596458 -0.07909382 -0.23472543 0.09589984 0.15929346 0.48477906 0.12469587 -0.8098796
-0.0048402995 -0.35216314 0.23476458 0.007989798 0.009440038 0.18944348 -0.24177642 -0.0017999052
-0.03793817 -0.15174997 0.23198418 -0.020926729 0.0018900135 0.046041492 0.26080167 0.0028089553
0.061536618 0.81007427 0.13525808 0.07134272 0.10888213 -0.13927458 -0.5638491 -0.21384501
-0.054143224 0.088053495 -0.26889324 -0.092465624 -0.26653227 -0.72713596 0.090876386 0.26647526
0.48986086 0.023888696 0.0450029 0.08075944 -0.057340257 0.1631368 -0.035612095 -0.05628522
0.23942156 -0.005162352 0.6515718 -0.179335 -0.13417561 -0.2646601 -0.74311435 -0.056066025
-0.011126105 0.0057459534 -0.25412506 0.52151585 0.14567146 0.84565455 0.0026681528 -0.0062565617
0.09740223 0.26864168 -0.0579462 -1.0551431 -0.034576736 -0.38635644 0.002175959 -0.026174465
0.091259226 -0.11948517 0.31806788 -0.114698395 0.029805887 -0.044308554 -0.004682779 0.54782045
-0.23119463 0.06963472 0.45471597 -0.034877203 -0.11697151 -0.46242034 0.4867684 -0.0014465702
-0.058063358 -0.060447153 0.19128959 -0.109678954 0.158499 -0.22665887 0.0015587752 -0.035452507
0.37922677 0.012031414 -0.015659148 -0.086089306 -0.009443609 -0.06605949 0.23084521 -0.1348627
0.38195512 -0.072796956 0.192749 0.18222034 0.3747173 -0.12279502 0.0007220838 -0.27039856
0.36391735 -0.04772899 0.059973072 -0.29533836 0.13529898 0.5264223 -0.011130457 -0.93145525
-0.12266924 -0.012611892 -0.048575517 -0.5408495 0.035990916 -0.05686188 -0.025187843 0.074685775
0.17423385 -0.073728435 0.38767236 0.17969404 -0.081909396 -0.10155949 -0.75142235 0.0067421864
-0.019380536 0.011940732 0.081835516 -0.116747156 0.0034072048 0.13201572 0.10019466 -0.1442424
0.014735106 -0.6335369 -0.12195252 -0.01045974 -0.045389082 0.20031954 -0.11692781 0.45847484
0.031125471 0.28153306 -0.0072531938 -0.1136711 0.2753391 0.02975089 -0.0019977933 -0.03345763
-0.021258932 -0.45103604 0.03519453 -0.3123252 0.026371999 0.011368809 -0.04764728 0.12781866
-0.06598019 -0.0036676917 0.2449486 0.14757846 0.05433871 -0.19232288 -0.014257643 0.1309704

predict.predict.1.bias f4 [64]
00000000: d30d 48b8 efdb d9bd a55c fea1 35a7 f3bd
00000010: cff7 1cba a50a be3e 51d0 b0bf 5ec1 0b3b
00000020: 824d 883a 51cc 2d9c 4a4a 09bf ee6b b69b
00000030: fb9f e63b 5962 5b40 71c2 b2bb fa35 1680
00000040: 44b9 e83b 8a6f 2f3e 0e0d 04be 92c1 bd99
00000050: 5727 ed0f 0ade 733d 7053 a734 1611 0abb
00000060: a016 12bf c019 772c b7bc 62bd d821 182c
00000070: d7d7 a539 fe4b 01bd d8f5 04bf 96ed b794
00000080: 4a3f 0895 32d9 21bd 92c9 05bd a5da 83bc
00000090: af33 b89c 5e76 82ba 01b7 841e dc83 7917
000000a0: 687e 0e3f e046 7f0f a2fa 8b3b b93e 1aba
000000b0: 8ea8 163f 95e1 d8b7 1885 aabb 756d d2b5
000000c0: 2678 d721 1cb3 f8bc fe09 6c13 ea0d 2316
000000d0: dc4c 15bd a60c 99bf de6b 453c 7975 a517
000000e0: f9dd 20ba d318 283e 1557 92be 169e 3fba
000000f0: cd52 0d3b e3c7 80bd 75dd 3a1f 5caf 743a
-4.769659e-05 -0.10637652 -1.7236232e-18 -0.118971266 -0.0005987854 0.37117496 -1.3813573 0.0021324973
0.0010399076 -5.750497e-22 -0.5362898 -3.0179122e-22 0.007038114 3.4278777 -0.005455308 -2.039744e-39
0.0071021635 0.17132393 -0.12895605 -1.9620324e-23 2.3385157e-29 0.059537925 3.1166883e-07 -0.0021067313
-0.57065773 3.5115105e-12 -0.055355754 2.1619286e-12 0.00031632066 -0.031566612 -0.5193763 -1.8571989e-26
-2.7514908e-26 -0.039513774 -0.032662936 -0.016095469 -1.2189459e-21 -0.0009953489 1.4051732e-20 8.062267e-25
0.5566163 1.2586121e-29 0.004271821 -0.000588398 0.58850944 -2.5854251e-05 -0.0052038543 -1.5678075e-06
1.460077e-18 -0.030358844 2.9792314e-27 1.3171426e-25 -0.036450252 -1.1956985 0.012049643 1.0692529e-24
-0.0006136592 0.1641572 -0.28582063 -0.00073096284 0.0021564246 -0.06288125 3.9570217e-20 0.0009333992

predict.predict.3.weight f4 [64]
00000000: 612a b23e e2ee 17be 3fe9 1223 2e1b 4c3f
00000010: cdcd 293c a967 31bf 8ed3 c73d 9cbf 133e
00000020: fc35 293c 5754 c5a0 f868 26bc 75b3 c91d
00000030: 8509 22bf 7b3b f03c 75d7 223c eaf5 b28d
00000040: d881 773d ebe3 633f 2dcc 54be dfbe 841c
00000050: 8cbd e515 10a0 b33b 42b1 49b7 be69 df3e
00000060: 359e 893d 7d45 e231 19c1 933f 8c4e 5133
00000070: 7e28 5fbd 3cd8 7dbe 6322 6d3f 5778 5ca4
00000080: 0487 f82c bfc6 013d 6b62 833f 839a aa3c
00000090: 5582 ab19 dc08 8b3b 23f9 5122 2dad 371c
000000a0: fbc7 76be 9254 0412 8349 01be 7900 55bb
000000b0: c0a0 663f b8dc a4bb 706c 2b3f 5627 8b36
000000c0: bf25 7a2d 5059 70be a32f 9215 3845 9f17
000000d0: c4ad 3a3e 2aaf 243f a24f 2e3b 9fcb a31a
000000e0: f985 ce3d a046 b93e 2d53 46bc d81f 5abb
000000f0: ad3a 12bc 69dd 38be 9fd8 a425 c625 b13d
0.34797958 -0.1483722 7.964068e-18 0.7972897 0.010364008 -0.692988 0.09757148 0.14428562
0.010327812 -3.342891e-19 -0.010156862 5.338981e-21 -0.63295776 0.029325237 0.009939064 -1.1029299e-30
0.060426563 0.8901965 -0.20781012 8.784366e-22 9.2791416e-26 0.0054817274 -1.2021805e-05 0.43635362
0.06719629 6.5853656e-09 1.1543304 4.8733042e-08 -0.054481976 -0.24789518 0.92630595 -4.7806827e-17
7.0635737e-12 0.03168368 1.026441 0.02082563 1.7733626e-23 0.0042429995 2.8456674e-18 6.0773445e-22
-0.24099724 4.1756097e-28 -0.12625699 -0.0032501502 0.90089035 -0.0050311945 0.6696234 4.147102e-06
1.4219236e-11 -0.2347157 5.904409e-26 1.0292607e-24 0.18230349 0.6432978 0.0026597758 6.774419e-23
0.10084147 0.36186695 -0.012104792 -0.003328314 -0.008925122 -0.18053211 2.8596253e-16 0.08649783

predict.predict.3.bias f4 [64]
00000000: e88e c53e 39b8 933b dcd9 52b4 4984 e73e
00000010: 14bf 2ebd d3f7 cebd dc4a 413d 3dde 5a3d
00000020: 8537 033d 4bf0 f929 4c47 963d 23d6 4831
00000030: 7e67 803f c0e2 abbd 93ec 993b 8255 57aa
00000040: ed22 183b 2d88 8e3e 8733 73be 7754 d13b
00000050: 07ab 7922 45fb 953c 7a55 06b8 4df1 43bd
00000060: 3bdd 3bbe 9603 5230 2e31 00bf 46e7 e332
00000070: 606d ff3d 907a 6fbc 8da3 5e3d 431d ca9f
00000080: 656a 831e 97c4 bcbd 896c 8abe 739b 21bc
00000090: a6a7 b236 3b89 79bb f586 50b9 ee0f 26a8
000000a0: 9b19 e0bd eaa0 07b2 f7e8 093f ce1f 73bb
000000b0: 1cb2 d83e b76d 81bc 8a7c a2be df60 22b8
000000c0: afc8 57a8 df9b c7be 519e 67b0 2a6e 6028
000000d0: 7675 e2be ba28 89be 4d09 6e3d 11db f8a6
000000e0: e731 c23e 0b74 743e 1905 8336 f49d b13a
000000f0: 62c9 013c 3fd6 8b3d f1d8 482b 911b e03d
0.3858559 0.004508045 -1.9637031e-07 0.45218113 -0.042662695 -0.101058625 0.047190532 0.0534346
0.03203537 1.10995055e-13 0.073378175 2.9225553e-09 1.0031583 -0.083928585 0.0046973913 -1.9125503e-13
0.0023214177 0.2783827 -0.23750125 0.006388243 3.3836334e-18 0.018308291 -3.2027696e-05 -0.047837544
-0.18346111 7.640265e-10 -0.5007504 2.6531449e-08 0.124720335 -0.0146166235 0.054355193 -8.559874e-20
1.3914168e-20 -0.09217184 -0.2703593 -0.009863722 5.3243302e-06 -0.003807618 -0.00019886701 -9.218305e-15
-0.10942384 -7.894622e-09 0.538711 -0.0037097814 0.42323387 -0.015799386 -0.3173564 -3.8714028e-05
-1.1978414e-14 -0.38986108 -8.426229e-10 1.2458386e-14 -0.4423024 -0.26788884 0.05811434 -1.7267835e-15
0.37928697 0.23872392 3.9046977e-06 0.0013551102 0.007921549 0.068279736 7.135534e-13 0.10942758

predict.predict.3.running_mean f4 [64]
00000000: a868 9242 3b88 0641 5943 6028 52e6 3543
00000010: c7a6 0640 82e8 2442 5920 8840 0bfe 9f42
00000020: 2ee4 e640 3d7e 0731 a58d 2642 fe6d 3e20
00000030: 1f82 ce44 d2c0 5143 3aa2 1d42 76ab 0607
00000040: db82 c741 c58a 7a43 6d94 0140 a39d 921a
00000050: 54b3 cf15 f208 1440 d470 0f3c ef10 4844
00000060: 2b54 1644 62fc 7b36 3026 ea42 65f4 153a
00000070: c40a 8f41 ee92 e241 f305 d143 a972 d619
00000080: ba14 691a ecbb 1042 c10d c743 30d0 5241
00000090: 7e39 0320 ca82 3a3f 6cf8 5623 b515 a11a
000000a0: 734d ec42 67a5 5f14 ff23 7943 c181 d93e
000000b0: e236 bc40 9b14 3042 ef6c 6544 0f1a 073d
000000c0: 3bbe 2528 9fd6 2841 1865 1317 2c10 ff19
000000d0: d258 d143 7453 9042 16d6 4142 d1ea 241c
000000e0: 0d5e 7741 bd02 c844 b730 653c aada 303f
000000f0: ee49 8640 14b7 1f3f 220b 762e a39c a143
73.20441 8.408259 1.24491016e-14 181.89969 2.1039293 41.22706 4.2539487 79.99618
7.215354 1.9716844e-09 41.638325 1.613002e-19 1652.0663 209.7532 39.408424 1.0131427e-34
24.938894 250.54207 2.0246842 6.063886e-23 8.3889564e-26 2.313046 0.008754928 800.2646
601.3151 3.754882e-06 117.074585 0.00057203165 17.880257 28.321743 418.04648 2.2173392e-23
4.8200013e-23 36.183517 398.10745 13.175827 1.1115154e-19 0.7285582 1.1653569e-17 6.662311e-23
118.15127 1.1291243e-26 249.14061 0.42481807 5.8816996 44.020123 917.7021 0.032983836
9.20059e-15 10.552398 4.762586e-25 2.6372914e-23 418.6939 72.162994 48.45907 5.456654e-22
15.460462 1600.0856 0.013988665 0.69083655 4.1965246 0.6238873 5.5943812e-11 323.22372

predict.predict.3.running_var f4 [64]
00000000: f4b1 b546 1c6d 5e44 6205 f212 494f 0748
00000010: a602 bd42 b226 0347 6c11 8c44 7ead 9945
00000020: d84a 2743 adbc ef21 66cd 3346 d113 0c03
00000030: 98e2 e449 4cc6 ac47 b5d1 3645 0400 0000
00000040: 509f 1f44 b28c 8e48 cff3 2143 2800 0000
00000050: 0400 0000 899c 9b42 e43d a13a cd73 694a
00000060: ee73 5749 f24f cf2d bdb4 9047 a69a 8434
00000070: cbcc 7c43 d9ce c646 fcc7 ba48 0d00 0000
00000080: b600 0000 8c28 8145 9905 9c48 5bdb 2845
00000090: ad02 ac01 d303 223f 354f fd07 1d08 0000
000000a0: bafa 9446 0400 0000 2643 0c48 307b 0340
000000b0: e2eb a744 e46c 7b45 3537 9749 7dfc a83b
000000c0: a57e 1f13 f848 3f44 0400 0000 0900 0000
000000d0: e519 b548 4de0 0d48 1517 e944 ef08 0000
000000e0: 460c 8a45 9ce9 d44b d47c a73d a04b ba3f
000000f0: b15b 1e41 55d3 5a41 0f49 0f20 5076 0948
23256.977 889.70483 1.5273674e-27 138557.14 94.50517 33574.695 1120.5444 4917.6865
167.29236 1.6245212e-18 11507.35 4.116505e-37 1.875027e+06 88460.59 2925.1067 6e-45
638.48926 291941.56 161.95238 5.6e-44 6e-45 77.80573 0.001230177 3.8248832e+06
882494.9 2.3568678e-11 74089.48 2.4699438e-07 252.79997 25447.424 382527.88 1.8e-44
2.55e-43 4133.0684 319532.78 2701.7097 6.318666e-38 0.63287085 3.8113763e-34 2.91e-42
19069.363 6e-45 143628.6 2.0543938 1343.3713 4022.8057 1.2387586e+06 0.005157052
2.0131062e-27 765.14014 6e-45 1.3e-44 370895.16 145281.2 1864.7213 3.205e-42
4417.534 2.7906872e+07 0.08178106 1.4554329 9.897386 13.676595 1.2136744e-19 140761.25

predict.predict.4.weight f4 [1, 64]
00000000: c848 0dbf 7e1a 48bd 5dbc e0b3 b964 31bf
00000010: 59fd 093d dda2 a13e cea0 a03c 1a6c 26bd
00000020: f906 743c e77a 0f25 4074 543d c142 ed30
00000030: 5b00 bbbe 8220 613e 5923 9aba 2292 192a
00000040: 3719 4e3d ff81 13bf a686 873d fa25 013c
00000050: a29d 1ea1 a3c2 38bd 67b4 bf37 4552 f43d
00000060: ce06 9c3d 34bc 0631 8ed7 643f a446 76b2
00000070: abc0 95bd e09f 493e d9f0 ac3e 80db b71f
00000080: f9b3 819e 5ce4 6c3d c08c 7d3f c17e a139
00000090: 881d a136 6b29 a33b 3dbf 22b9 569e 3a25
000000a0: 5bbc 86be cd31 f5b1 1c9d 2cbf d159 de3b
000000b0: 65c7 52be ceed 7f3e 059f b6bc 1b51 a138
000000c0: 5b3a a928 5d03 21bd 2650 a3b0 db49 1028
000000d0: a462 37bf 0204 253f 594d 963c e574 1ca7
000000e0: 43bf f8bb 0929 963d 6313 883c 984c eaba
000000f0: 9785 02bc 586d 87ba 5e78 67ab 0dee 9fbd
-0.5518918 -0.04885339 -1.0465076e-07 -0.69294316 0.033688877 0.31569567 0.019607928 -0.040630437
0.014894241 1.2444914e-16 0.051868677 1.7262992e-09 -0.3652371 0.21985057 -0.0011759802 1.363983e-13
0.050317015 -0.57620233 0.06617479 0.0078825895 -5.374111e-19 -0.045107495 2.285298e-05 0.11929754
0.076184854 1.9606547e-09 0.8939141 -1.4335146e-08 -0.07312139 0.19689894 0.33777502 7.786665e-20
-1.3732841e-20 0.057834968 0.9904289 0.00030802752 4.801612e-06 0.0049793026 -0.00015520766 1.6186575e-16
-0.2631558 -7.1361e-09 -0.6742723 0.0067856093 -0.20583875 0.24993059 -0.022292623 7.692185e-05
1.8788077e-14 -0.039309848 -1.188259e-09 8.009621e-15 -0.7163489 0.6445924 0.01834743 -2.1712718e-15
-0.0075911595 0.073320456 0.016610807 -0.001787561 -0.007966421 -0.001033227 -8.223473e-13 -0.078090765
