1-GNNs/result/6108_AR_NURA_AFP_0920/40/model.pth (torch, 79032 bytes, 47 tensors)

gnn.init_context.project_node.0.weight f4 [16, 74]
-0.00095930445 -0.00018828445 -0.00033444696 5.4800483e-05 -8.765449e-05 1.8734e-41 -8.575395e-05 -6.957832e-05
8.802917e-07 1.1171e-41 1.4973674e-06 1.7705001e-15 2.23e-42 -3.0646e-41 1.09816966e-07 -5.6159948e-08
-0.00027791745 -3.7602e-41 -7.8770723e-10 -7.5325e-40 2.7576e-41 -1.4737988e-05 -1.5541734e-24 3.809e-41
0.007295518 9.984e-42 -2.8120201e-19 -8.707308e-22 -4.571e-42 -9.848046e-08 4.2314214e-09 1.0162e-41
6.0073585e-06 5.24e-43 9.706451e-07 6.6656e-41 -2.6099e-41 -2.7932e-41 1.5455e-41 -0.00011570524
-2.4343355e-12 8.0287255e-10 -1.5007205e-06 0.0051195235 0.0002876709 -0.0007463123 4.887692e-05 0.00015821718
1.5423559e-15 -7.706547e-07 2.5260674e-23 1.973316e-09 1.7402675e-13 5.4806706e-12 -8.052293e-05 -0.0001762672
-0.00030993516 4.663438e-05 6.39e-43 3.8764e-41 -9.002251e-14 0.00015421062 3.0581706e-24 8.4155704e-07
0.0016335407 -0.0003869905 -4.212078e-18 -3.2130363e-26 -0.0012287371 -0.00016095243 -0.0001560628 -0.00030993612
4.6629008e-05 -2.0249e-41 -1.8647903e-08 4.1801647e-09 9.884577e-09 -2.7652193e-11 -1.4601368e-08 4.4679388e-07
5.0864615e-11 -4.6775557e-09 6.743733e-08 3.138214e-13 1.0090266e-11 -2.5668e-41 -2.053e-42 -3.3431e-41
4.7594545e-05 -2.8076994e-12 7.596322e-16 2.07467e-06 -1.45356635e-11 1.0234e-41 9.425039e-18 -4.7029366e-18
-2.8249e-41 -0.00014582346 -3.477941e-11 -3.3037e-41 -7.456678e-08 -8.459834e-09 6.7939785e-05 3.7196e-41
-3.8164755e-10 -5.680333e-23 -6.2316e-41 2.1543314e-29 2.1336489e-24 -0.005072952 -2.8801871e-06 -1.7281e-41
-3.769414e-06 1.9681374e-15 2.0125977e-13 -3.713e-41 7.8935386e-08 3.028e-42 -3.3286746e-08 -9.868425e-09
-5.1823417e-09 6.732823e-10 2.716e-41 3.9255e-41 2.4719e-41 -4.6819e-41 9.861208e-25 -3.7227e-41
-3.4933425e-09 -1.0361801e-08 2.0685215e-08 8.372729e-09 -2.2133423e-24 -3.2377508e-12 9.4124065e-05 -8.99832e-08
-6.5377513e-26 3.969146e-09 -2.2229765e-08 -1.8001822e-08 -4.1572e-41 0.00037616387 1.14266e-09 -2.978603e-09
-1.0478084e-08 2.0685242e-08 8.396128e-09 -1.11794e-40 -0.25861302 0.0142198745 -0.03326941 1.756995e-05
-0.003290403 1.492211e-22 0.00023781524 0.00070462876 -8.66492e-07 -0.00024534625 6.8090285e-15 1.6149415e-06
-1.1258059e-11 3.4137895e-09 -0.0005296678 -3.5924452e-10 -2.5387917e-17 -3.6721e-41 -5.9838563e-16 -3.2195937e-17
2.6661867e-10 5.280278e-16 2.296749e-17 0.0027621032 -0.00041064902 9.92423e-19 3.471e-42 0.00067107845
-1.0309951e-18 -7.6034e-41 -4.3323288e-23 -2.977014e-32 -0.0011452017 -9.794178e-18 -0.0008396835 3.4409266e-05
7.99265e-15 -2.0969e-41 -2.2846623e-13 4.48e-42 -0.0004816933 6.7163423e-16 -2.913959e-35 -4.153762e-09
-0.029591473 -0.03710655 0.053248767 -0.0016673337 3.0906e-41 -4.345618e-15 -2.1600201e-19 1.3537309e-25
6.194928e-05 1.259287e-33 0.051893443 0.058117777 0.055573553 -0.010862504 9.337413e-15 -2.3836965e-12
6.8853165e-12 -1.5239799e-06 6.104747e-13 -0.0015506783 -0.10605492 0.032187875 2.3082e-41 0.0007258047
0.02658743 0.05188281 0.058123134 0.05557353 -0.010862393 1.7385386e-15 -3.6347514e-10 1.2436058e-10
2.1180654e-13 -1.8678167e-12 6.088597e-12 6.918938e-23 -2.3231423e-12 -5.061577e-12 5.0954263e-12 1.7250954e-13
7.845678e-13 1.6460639e-06 -5.5475736e-21 -1.772727e-10 -1.7098546e-37 1.3494235e-09 -3.249298e-18 2.3637134e-11
6.199957e-07 2.3726253e-17 -6.2119548e-18 -5.493133e-10 1.5644e-41 -9.345424e-13 -3.8359e-41 -3.1090548e-16
-1.9285e-41 1.8121751e-05 2.2276346e-14 1.9134786e-06 -1.9301e-41 1.4227e-41 -1.6896877e-23 7.759941e-06
00000000: d579 7bba 396e 45b9 b658 afb9 92d9 6538
00000010: 25d3 b7b8 3934 0000 cdd6 b3b8 93ea 91b8
00000020: 2f4d 6c35 241f 0000 27f9 c835 ed27 ff26
00000030: 3706 0000 6e55 0080 84d4 eb33 8434 71b3
00000040: 73b5 91b9 d268 0080 f885 58b0 c133 0880
00000050: df4c 0000 2d43 77b7 277f f097 2e6a 0000
00000060: 3e0f ef3b d51b 0000 0cfe a5a0 c494 839c
00000070: be0c 0080 357c d3b3 fa63 9131 541c 0000
00000080: d192 c936 7601 0000 1d47 8235 cfb9 0000
00000090: c148 0080 dd4d 0080 152b 0000 c7a6 f2b8
000000a0: 174d 2bac 22b1 5c30 5d6c c9b5 adc1 a73b
000000b0: 89d2 9639 2ca4 43ba 3101 4d38 1ae7 2539
000000c0: e446 de26 fdde 4eb5 664e f419 f19a 0731
000000d0: ccef 432a 7ed5 c02c 6bde a8b8 5ed4 38b9
000000e0: cb7e a2b9 4999 4338 c801 0000 0f6c 0000
000000f0: 72b6 caa9 99b3 2139 4f9d 6c18 5ce7 6135
00000100: 881c d63a fce4 cab9 f465 9ba2 131a 1f95
00000110: 930d a1ba 57c5 28b9 caa4 23b9 ec7e a2b9
00000120: 8493 4338 7238 0080 2c2f a0b2 1ea1 8f31
00000130: d4d0 2932 343b f3ad 7fd9 7ab2 e2de ef34
00000140: 77b4 5f2e 37b8 a0b1 10d2 9033 6eaa b02a
00000150: 8582 312d 8d47 0080 b905 0080 315d 0080
00000160: 41a0 4738 0493 45ac f7f2 5a26 8f3a 0b36
00000170: cfb6 7fad 871c 0000 7ddc 2d23 fb81 ada2
00000180: bf4e 0080 30e8 18b9 22f6 18ae 185c 0080
00000190: 8521 a0b3 be56 11b2 e57a 8e38 b067 0000
000001a0: 1ed0 d1af 8f57 899a b6ad 0080 a479 da0f
000001b0: 4515 2518 013b a6bb 3d49 41b6 2c30 0080
000001c0: 0af6 7cb6 bad1 0d27 2e99 622a 8167 0080
000001d0: 3083 a933 7108 0000 2af7 0eb3 cb89 29b2
000001e0: 5c10 b2b1 0812 3930 b64b 0000 6d6d 0000
000001f0: e844 0000 8382 0080 4598 9817 c667 0080
00000200: 880f 70b1 af03 32b2 45af b132 a7d7 0f32
00000210: c33f 2b98 22d6 63ac 7964 c538 ca3c c1b3
00000220: ecdd a195 fa60 8831 c5f3 beb2 6da2 9ab2
00000230: e373 0080 dc37 c539 c60b 9d30 23b0 4cb1
00000240: 1a03 34b2 54af b132 903e 1032 a337 0180
00000250: ed68 84be 7afa 683c 8145 08bd 2e63 9337
00000260: cda3 57bb b265 341b 0b5e 7939 d6b6 383a
00000270: e098 68b5 d1a1 80b9 3452 f527 f8c0 d835
00000280: ca0d 46ad 0598 6a31 68d9 0aba 2c7f c5af
00000290: 8629 eaa3 5d66 0080 1179 2ca6 417a 14a4
000002a0: 3e93 922f 9331 1826 74d6 d323 6704 353b
000002b0: 614c d7b9 ae74 9221 ad09 0000 50eb 2f3a
000002c0: e525 98a1 f4d3 0080 a27f 519a 4e93 1a8b
000002d0: 981a 96ba b3ab 34a3 351e 5cba ab52 1038
000002e0: 98fb 0f28 743a 0080 749d 80aa 7d0c 0000
000002f0: c88b fcb9 dc95 4126 c1ee 1a86 e0b8 8eb1
00000300: d169 f2bc 0afd 17bd 611b 5a3d 6f8a daba
00000310: 2756 0000 4091 9ca7 9a02 7fa0 7295 2716
00000320: c4ea 8138 253c d108 388e 543d e80c 6e3d
00000330: 18a1 633d a5f8 31bc 3835 2828 dcbc 27ac
00000340: 6b41 f22c 8d8b ccb5 57d5 2b2b 2140 cbba
00000350: 5233 d9bd 6fd7 033d 5840 0000 ee43 3e3a
00000360: e2cd d93c 1283 543d 8612 6e3d 12a1 633d
00000370: 2ef8 31bc c18c fa26 94d2 c7af 64bc 082f
00000380: 1479 6e2a 986f 03ac 3539 d62c 274a a71a
00000390: 037a 23ac a216 b2ac 8547 b32c 7d3a 422a
000003a0: 11d6 5c2b 53ee dc35 d794 d19d d4e9 42af
000003b0: bdbb 6882 9e76 b930 81c1 6fa2 18ea cf2d
000003c0: c86d 2635 08d6 da23 412e e5a2 7dfe 16b0
000003d0: 9c2b 0000 7086 83ab ee6a 0080 8d39 b3a5
000003e0: c235 0080 2a04 9837 c2a5 c828 5069 0036
000003f0: ce35 0080 a927 0000 a46a a399 b130 0237

gnn.init_context.project_node.0.bias f4 [16]
-0.00037552754 -3.5021397e-08 -0.35392538 -4.7583865e-10 -9.406405e-08 -0.0010677397 -3.8763127e-07 -3.473981e-07
-0.11836058 -0.7002423 -2.6839454e-05 0.033854958 0.051107645 -9.264812e-12 5.602186e-08 -0.008399882
00000000: 74e2 c4b9 6f6a 16b3 b535 b5be 2bcc 02b0
00000010: 4200 cab3 66f3 8bba a31b d0b4 0882 bab4
00000020: 0867 f2bd 1443 33bf 4a25 e1b7 7fab 0a3d
00000030: 4056 513d 01fd 22ad b09c 7033 a99f 09bc

gnn.init_context.project_edge1.0.weight f4 [16, 87]
-2.100693e-09 -2.3894083e-08 -6.348166e-07 -3.4276745e-05 4.1158155e-10 -2.9357e-41 1.4492227e-12 2.4675468e-05
-1.0038402e-12 3.1927e-41 -1.2728658e-10 -2.9130486e-11 -4.0468e-41 9.668e-42 -2.9979577e-16 3.190272e-09
-5.097725e-22 -3.91e-41 3.2219345e-05 1.1511798e-09 -1.1552103e-23 2.1583e-41 1.5859795e-10 -2.9289e-41
2.115e-42 3.7646e-41 -0.00012086807 -3.1181128e-12 3.5187e-41 2.6657e-41 4.9913274e-23 -1.1093406e-07
-0.0029947027 2.368e-41 -0.0022791903 0.009320491 -0.003285789 5.0607932e-06 -4.1593e-41 2.1179975e-16
1.1321e-41 4.861029e-25 -1.273203e-16 3.2076e-41 0.0027585723 9.0870256e-10 -2.8939642e-10 9.276441e-12
-0.0026461764 -1.8550223e-20 1.6545433e-23 4.1188e-41 2.932538e-11 3.609331e-15 3.3760703e-10 -4.1491052e-10
-1.3596382e-07 8.965853e-13 -0.002710098 -1.2321394e-17 -1.2741739e-06 -1.7099993e-11 -6.532967e-07 -0.00021702872
7.7358414e-10 -4.0464536e-07 1.15289e-40 -5.988842e-06 1.9167241e-09 2.477298e-07 9.558754e-11 -1.822807e-10
1.0258683e-08 2.3233082e-11 -6.6173124e-07 6.743941e-05 5.2751005e-11 -6.0867626e-12 1.9853966e-10 -8.961995e-11
-4.160975e-05 1.457e-42 -7.3991135e-19 -1.1143609e-14 -3.549357e-08 -4.8576938e-23 7.553029e-11 1.2434551e-12
4.636683e-11 6.7571786e-12 0.00011778454 2.3475657e-11 -3.9067092e-17 -6.717235e-15 0.00040823407 3.3981962e-13
-1.9346674e-13 0.014364392 -1.9558945e-14 2.9475628e-05 1.1122976e-08 4.325923e-09 -1.662892e-14 -1.8953648e-15
1.8139624e-14 1.3939486e-17 3.613627e-05 2.1677769e-32 -9.73617e-16 8.9904894e-08 -4.2012028e-14 1.8828282e-32
3.1501955e-16 -1.0602e-41 -4.337e-42 -8.488e-41 -0.0009549921 -3.2666e-41 6.1663e-41 -1.7912139e-12
-1.03025034e-16 9.071522e-08 -7.743775e-13 -2.0427012e-17 -2.8981292e-08 -1.7565865e-06 -8.6091655e-05 1.9304e-41
-2.0675e-41 3.3829993e-16 -5.7413337e-14 7.7137263e-10 -1.0670498e-11 -5.3602993e-13 -1.0878261e-10 -5.568176e-08
1.8375115e-12 -8.904595e-05 -3.0835206e-12 1.9268e-41 -1.7104397e-15 2.515975e-12 -1.863337e-12 -2.410704e-12
9.556913e-11 2.4530471e-18 1.8153821e-07 -3.7780538e-07 8.3022666e-14 2.3505877e-20 3.8631094e-07 -2.764001e-12
1.0904363e-11 -8.9926433e-10 1.5651e-41 -1.8763085e-13 -7.218676e-12 -5.908632e-13 -1.9198137e-06 5.782952e-12
-4.4972e-41 -1.4077603e-12 -5.451362e-08 3.6572016e-16 2.2733626e-13 -4.529496e-12 5.1651e-12 9.100235e-12
-2.6898e-41 -4.927344e-08 4.3317203e-10 1.10890626e-13 -0.0016221267 -8.928325e-13 2.2268257e-11 -6.883905e-13
3.3374065e-12 2.6537367e-07 -6.376159e-08 0.011848576 -6.4744665e-07 -0.0020064584 2.181248e-09 -1.778e-41
-3.5984445e-13 1.6151564e-07 -4.6368007e-14 1.892795e-05 1.24962895e-17 -6.21548e-06 2.9428408e-08 -1.9303524e-08
-0.00083904713 -2.1437742e-17 -4.8794227e-15 2.422039e-16 3.0739e-41 -8.211429e-06 1.1659e-41 -8.940376e-16
-1.4668892e-15 3.5994e-41 2.9265e-41 -1.0264203e-05 9.454535e-24 -7.64396e-18 -1.2030145e-08 -1.1690675e-16
-5.0912e-41 3.045409e-21 -0.0027342828 0.0036259196 0.004777096 1.2754591e-08 -4.9214734e-12 2.7292e-41
2.252622e-22 -3.9223105e-06 -3.0642506e-11 -1.8882586e-11 -4.5283378e-11 -3.1270868e-06 -5.667213e-18 -2.3878e-41
2.031e-41 5.599115e-24 1.495e-42 -6.203547e-19 2.2199591e-11 6.8237703e-12 -6.82159e-11 1.330453e-10
-1.4866427e-09 3.5507343e-17 -4.4229634e-10 -2.1408537e-13 8.153982e-13 -2.4993427e-12 9.5193966e-12 -5.778024e-11
3.1664e-41 -2.1172e-41 -1.839715e-11 2.2804468e-11 4.4122112e-11 5.2761056e-11 -4.0275966e-10 -3.7891687e-10
-1.599767e-11 9.304276e-07 0.00408025 2.607448e-11 -2.161311e-11 3.0761636e-11 1.9349604e-11 -1.3794215e-34
00000000: c85b 10b1 a53f cdb2 4468 2ab5 60c4 0fb8
00000010: f444 e22f d651 0080 c0f5 cb2b 2afe ce37
00000020: 2847 8dab 0059 0000 fdf3 0baf 031e 00ae
00000030: cf70 0080 f31a 0000 0cd2 aca5 dc3b 5b31
00000040: bd11 1a9c ff6c 0080 4223 0738 8a37 9e30
00000050: 3e73 5f99 2a3c 0000 5b61 2e2f a551 0080
00000060: e505 0000 f168 0000 8d7a fdb8 ed6a 5bac
00000070: 1662 0000 4f4a 0000 a45d 711a a53a eeb3
00000080: c642 44bb 0342 0000 785e 15bb f9b4 183c
00000090: 6456 57bb e2cf a936 f273 0080 4130 7425
000000a0: 8f1f 0000 0a71 1617 52ca 12a5 6a59 0000
000000b0: 2ac9 343b 42c8 7930 ed18 9faf 6031 232d
000000c0: 796b 2dbb b033 af9e 8204 a019 d172 0000
000000d0: 71f9 002e 340a 8227 f799 b92f 7719 e4af
000000e0: 73fd 11b4 c85d 7c2b e69b 31bb 234a 63a3
000000f0: 4804 abb5 c369 96ad 355e 2fb5 3492 63b9
00000100: 25a4 5430 093e d9b4 6141 0100 c3f3 c8b6
00000110: 5eb7 0331 b9ff 8434 0033 d22e 756b 48af
00000120: 2a3e 3032 405c cc2d d3a1 31b5 426e 8d38
00000130: 5a00 682e af28 d6ac f24b 5a2f 8c13 c5ae
00000140: 2186 2eb8 1004 0000 1f62 5aa1 d3be 48a8
00000150: 9871 18b3 56e7 6a9a c617 a62e 3100 af2b
00000160: 69ec 4b2e 41bf ed2c 1803 f738 7b7e ce2d
00000170: 482a 34a4 8f03 f2a7 4008 d639 2b4d bf2a
00000180: fed2 59aa a058 6b3c db2b b0a8 6e42 f737
00000190: 5e17 3f32 39a3 9431 aec7 95a8 4f93 08a7
000001a0: 2063 a328 ae91 8023 0691 1738 651d e10a
000001b0: 2150 8ca6 bd11 c133 9234 3da9 2986 c30a
000001c0: ae98 b525 8e1d 0080 170c 0080 9cec 0080
000001d0: 6f58 7aba 0f5b 0080 e4ab 0000 4817 fcab
000001e0: 3f8f eda4 38cf c233 c8f7 59ab eb67 bca3
000001f0: 89f2 f8b2 dac3 ebb5 1b8c b4b8 d035 0000
00000200: a239 0080 4204 c325 8948 81a9 8608 5430
00000210: a7b7 3bad 07e1 16ab 2a37 efae be26 6fb3
00000220: aa4d 012c 2ebe bab8 c5fb 58ac b635 0000
00000230: 1680 f6a6 c70b 312c e51e 03ac 62a3 29ac
00000240: a328 d22e c000 3522 d8ec 4234 2dd5 cab4
00000250: 4ff3 ba29 b901 de1e 2c66 cf34 d17f 42ac
00000260: e3d4 3f2d 1a30 77b0 a12b 0000 e940 53aa
00000270: 0efc fdac 2e50 26ab 26d6 00b6 3378 cb2c
00000280: 5d7d 0080 e91f c6ab 5c22 6ab3 c5d2 d225
00000290: 37f5 7f2a 135e 9fac 16bb b52c d117 202d
000002a0: fb4a 0080 b8a0 53b3 8b23 ee2f 18b4 f929
000002b0: 8a9d d4ba 5d4f 7bab a8df c32d c3c3 41ab
000002c0: 5fd9 6a2c ae78 8e34 4eed 88b3 8820 423c
000002d0: 32cc 2db5 c97e 03bb ece4 1531 9031 0080
000002e0: 0d93 caaa 156d 2d34 acd2 50a9 77c7 9e37
000002f0: 0f84 6623 918e d0b6 c1c9 fc32 e6d0 a5b2
00000300: 80f3 5bba 70ba c5a3 bbcc afa7 fd9e 8b25
00000310: b055 0000 d2c3 09b7 8020 0000 2ad8 80a6
00000320: a966 d3a6 5664 0000 9451 0000 6b34 2cb7
00000330: 97e0 3619 9501 0da3 23ad 4eb2 c8c8 06a5
00000340: ec8d 0080 c71a 661d a731 33bb d6a0 6d3b
00000350: 3089 9c3b 491f 5b32 b128 adac 144c 0000
00000360: a329 881b 649c 83b6 65c4 06ae ce17 a6ad
00000370: 8d28 47ae f1da 51b6 5015 d1a2 9042 0080
00000380: 9e38 0000 f39a d818 2b04 0000 ad18 37a1
00000390: 0945 c32d 0f17 f02c 2302 96ae ec48 122f
000003a0: 9752 ccb0 acbf 2324 ad27 f3af e809 71aa
000003b0: a283 652b 28e0 2fac 8d77 272d c41e 7eae
000003c0: 4458 0000 053b 0080 b3d2 a1ad 1997 c82d
000003d0: 150d 422e ab0b 682e 626b ddaf cf4f d0af
000003e0: 8db7 8cad 7fc2 7935 9eb3 853b 825a e52d
000003f0: 661c bead 864a 072e 6f33 aa2d 485b 3787

gnn.init_context.project_edge1.0.bias f4 [16]
1.2137521e-09 2.6767523e-12 7.055794e-11 2.1600529e-13 1.14488375e-11 5.344831e-13 3.0403621e-21 -1.5274564e-08
-2.4564805e-15 -4.24246e-08 -8.034068e-09 4.4550607e-08 1.1798625e-10 -4.901679e-11 4.499937e-12 8.711804e-12
00000000: 1bd1 a630 155c 3c2c 9728 9b2e 4933 732a
00000010: fb68 492d 9171 162b 28b9 651d 1f35 83b2
00000020: 1102 31a7 5736 36b3 3406 0ab2 e957 3f33
00000030: 2dba 012f 0094 57ae d453 9e2c 7a42 192d

gnn.init_context.project_edge2.1.weight f4 [1, 32]
2.2807326e-15 6.9213984e-22 -8.785177e-14 -4.8030957e-17 -1.3832514e-21 -3.8035848e-16 4.6936635e-20 5.023331e-19
-0.000109317596 -4.102292e-11 -0.00024498088 -2.958126e-05 7.37427e-15 7.527646e-11 1.6125211e-19 -1.0532627e-07
-5.103105e-15 5.0029547e-07 9.6331025e-12 -2.5896591e-17 2.0662571e-16 2.131494e-08 -7.0068185e-26 -4.6407026e-17
-1.819531e-10 -9.365743e-06 8.098898e-13 -2.4376263e-12 1.0136252e-14 1.2366968e-16 4.9409573e-17 -7.352245e-18
00000000: 1758 2427 ba2f 511c 19d3 c5a9 f280 5da4
00000010: f207 d19c 0143 dba5 e9a6 5d1f 3743 1421
00000020: 7041 e5b8 b46b 34ae c770 80b9 4625 f8b7
00000030: d1d7 0428 e188 a52e 765f 3e20 bb2f e2b3
00000040: d6db b7a7 0b4c 0635 a377 292d 99da eea3
00000050: 2539 6e25 0c18 b732 fd7a ad95 bf03 56a4
00000060: 3f0f 48af 8f21 1db7 b6f6 632b 5f88 2bac
00000070: 3699 3628 d994 0e25 87dc 6324 ff9f 07a3

gnn.init_context.attentive_gru.edge_transform.1.weight f4 [16, 16]
1.4177013e-07 6.386133e-09 -1.1905374e-10 1.2387605e-10 -2.0720453e-10 -4.993785e-10 1.2611665e-17 -9.1424674e-08
-1.1581237e-12 -1.4508515e-08 1.955366e-09 1.9695341e-07 2.3933664e-08 1.9290118e-08 2.0279253e-10 -3.292725e-10
-5.6568006e-06 -2.2345353e-10 -6.1497714e-13 -5.4719063e-12 1.0720274e-11 -2.7463932e-11 -5.87928e-19 5.7912914e-11
-5.1006427e-14 -6.815809e-10 1.5450541e-09 6.6010686e-09 2.7749605e-10 -8.6348295e-10 -1.7030141e-10 4.451356e-12
1.351595e-22 2.8103902e-23 -2.5166517e-24 8.660857e-25 3.6509985e-24 1.3655544e-23 1.11593704e-26 -5.2320145e-16
1.4627882e-25 2.3510655e-23 -4.797638e-20 -8.774669e-22 -1.8127467e-21 -9.108833e-24 -4.759804e-22 -3.968317e-25
-5.963233e-09 3.0759537e-10 7.555084e-13 -6.656107e-12 -2.1356044e-12 5.123341e-11 -1.0560183e-18 -1.4439692e-10
-1.4501627e-15 -4.731349e-10 9.0558415e-06 -9.697821e-09 1.2220389e-09 -5.7265787e-10 -1.7106252e-07 -2.8628773e-13
2.632583e-07 1.7299492e-11 2.0207043e-13 -3.4013196e-12 -3.3217342e-11 -3.4187481e-12 -3.5266166e-19 -7.169828e-10
-1.1938088e-13 1.9425541e-09 -4.5208455e-09 -2.1178541e-09 1.6159423e-09 -2.7575223e-10 -1.39647295e-11 3.1594974e-12
-3.2718547e-10 7.1695436e-12 -4.790493e-14 2.5777565e-13 -4.1458322e-13 9.667045e-12 3.738371e-20 -1.9290335e-10
-9.021877e-14 1.5996152e-10 4.6017603e-09 3.2234433e-09 -0.0037332238 -9.149766e-11 1.697757e-11 9.691946e-13
-2.7386082e-10 -5.00546e-11 -2.1873834e-11 -1.8259302e-12 -5.056368e-11 -6.8987433e-12 -4.144662e-19 2.8791307e-09
-4.4596044e-14 1.375231e-07 -6.3568772e-09 -1.879928e-09 -3.986743e-06 -1.1472093e-10 1.6886418e-11 4.2214784e-11
5.95041e-10 -3.112671e-11 -3.670816e-12 -1.7361932e-12 -1.9065258e-11 3.711814e-12 -9.678441e-20 1.2810186e-10
2.8888779e-15 -9.270032e-06 -1.2941813e-10 -2.8531295e-09 -1.4104111e-10 1.3425552e-10 2.555773e-10 1.152353e-11
8.230479e-07 3.899817e-09 -9.0165697e-10 1.9933877e-09 -3.0206664e-09 7.877866e-09 -1.9056055e-16 -3.5479826e-07
-3.753942e-12 1.5861262e-06 -1.2004914e-06 1.2583223e-06 -4.7278945e-08 1.9554273e-07 -4.116578e-08 2.7052385e-09
6.5111664e-13 5.126882e-13 -8.964146e-15 2.63021e-13 -2.3126683e-13 -2.5493835e-14 1.1284303e-22 1.0807052e-11
9.1834233e-17 6.6734313e-12 -1.1406239e-11 -7.594545e-12 1.5097286e-11 8.119133e-14 8.7451695e-12 -2.6793312e-15
7.970896e-13 5.8396857e-15 5.63926e-16 2.0552778e-15 1.790683e-14 -1.3694064e-14 -2.7492898e-22 -1.5839356e-13
6.808545e-17 5.9963915e-13 3.926581e-12 1.5668174e-12 8.001227e-13 -1.2276839e-14 2.8736667e-13 -1.8789554e-15
-3.195455e-13 2.990339e-15 -1.6831499e-15 -2.0232201e-16 7.2678984e-15 1.4594151e-15 -2.2741393e-23 -7.8353177e-13
-2.5031792e-18 2.6510146e-14 -7.75279e-14 2.4194305e-12 -1.9840127e-09 -2.950115e-14 1.3639286e-14 5.211179e-15
1.5250653e-09 2.6033854e-12 -1.0646614e-12 1.437245e-13 9.777562e-13 -0.0007742715 4.199638e-20 -1.0486906e-11
8.5516285e-15 3.0473737e-09 -5.165915e-10 4.5278944e-11 -1.1022154e-10 1.174859e-11 3.0012475e-12 4.1950686e-14
-8.8124075e-18 5.340984e-19 -1.7970969e-20 -1.2517926e-19 -2.3403274e-18 1.0862754e-19 3.3587346e-26 1.4906164e-17
1.2267499e-20 2.4249778e-16 -1.7141018e-16 2.5020111e-17 1.9423015e-17 -6.202436e-19 0.00043015403 1.1753541e-19
-7.158149e-15 -1.1834886e-15 -2.4812771e-15 3.2654844e-17 1.0853712e-15 -1.9249328e-16 3.2216193e-23 8.0886545e-13
2.9252444e-18 -1.4828292e-13 2.5323725e-14 -3.301005e-12 -3.8901252e-14 -1.8767986e-15 -2.592365e-16 -4.104134e-15
3.8067867e-13 1.2618926e-13 3.461959e-15 1.417687e-13 1.4982442e-13 -1.9583658e-14 -6.004752e-22 1.440288e-12
1.1024509e-15 -3.920928e-12 3.6751093e-13 -4.1194006e-12 3.600011e-12 -2.0290171e-13 -8.484486e-12 -5.4806494e-16
00000000: 7a39 1834 056d db31 a6e6 02af 0234 082f
00000010: e4d2 63af a344 09b0 e7a4 6823 3f55 c4b3
00000020: cefd a2ab 2041 79b2 2a5f 0631 247a 5334
00000030: af96 cd32 6bb3 a532 06f9 5e2f fc04 b5af
00000040: 8ccf bdb6 94b0 75af c619 2dab 8d86 c0ac
00000050: d297 3c2d 4793 f1ad 9586 2da1 25b4 7e2e
00000060: 68b6 65a9 fe59 3bb0 c259 d430 9dcf e231
00000070: 198e 982f 365a 6db0 963f 3baf 409e 9c2c
00000080: d765 231b f2e6 071a 6cb7 4298 3005 8617
00000090: bd3d 8d18 7d11 8419 bb08 5d14 74cd 16a6
000000a0: 9c15 3516 9061 e319 e28f 629f 5b99 849c
000000b0: 9ff7 089d c230 3099 33db 0f9c 7ea0 f596
000000c0: 27e5 ccb1 331a a92f 1ea8 542b e230 eaac
000000d0: a147 16ac b153 612e 3ed7 9ba1 1fc4 1eaf
000000e0: 8ffd d0a6 e90d 02b0 8bee 1737 789b 26b2
000000f0: acf4 a730 3769 1db0 4fad 37b4 692a a1aa
00000100: f255 8d34 fe2a 982d d682 632a ba58 6fac
00000110: 6717 12ae b192 70ac b92c d0a0 2e15 45b0
00000120: 3269 06aa c67d 0531 c755 9bb1 af89 11b1
00000130: ea17 de30 ad98 97af 8dab 75ad 7254 5e2c
00000140: 43df b3af 8241 fc2c a0be 57a9 631d 912a
00000150: bd63 e9aa 8010 2a2d 228a 301f 7719 54af
00000160: 9427 cba9 2ae1 2f2f 831d 9e31 6a83 5d31
00000170: 1aa9 74bb 9a34 c9ae 1756 952d ea66 882b
00000180: 7c8e 96af 7824 5cae 7f67 c0ad 097d 00ac
00000190: a561 5eae 5bba f2ac 5ca8 f4a0 34da 4531
000001a0: bdd7 48a9 10aa 1334 af6b dab1 0b30 01b1
000001b0: ddc5 85b6 2446 fcae d588 942d 9fa9 392e
000001c0: 4a90 2330 8fe5 08ae c527 81ac f458 f4ab
000001d0: 25b3 a7ad 0c99 822c 9686 e49f 78d9 0c2f
000001e0: 642a 5027 7c86 1bb7 f74b 0eaf c910 44b1
000001f0: 8b13 1baf 929d 132f 4f81 8c2f 5eb9 4a2d
00000200: 6cef 5c35 27ff 8531 78d8 77b0 0cfc 0831
00000210: 2094 4fb1 3957 0732 8cb3 5ba5 1a7b beb4
00000220: 8114 84ac e2e2 d435 9220 a1b5 a0e3 a835
00000230: c00f 4bb3 60f6 5134 41ce 30b3 0fe7 3931
00000240: e645 372b 144f 102b d47b 21a8 5211 942a
00000250: 1031 82aa c8a0 e5a8 3a6b 081b a31e 3e2d
00000260: 5dc1 d324 edcc ea2c 22a9 48ad ca9a 05ad
00000270: 11cc 842d 9dd3 b629 bed8 192d f010 41a7
00000280: 5c5c 602b 9865 d227 658a 2226 2f19 1427
00000290: 574a a128 b9b0 76a8 332f a69b d655 32aa
000002a0: 8efe 9c24 8ec8 282b 7f27 8a2c 8c82 dc2b
000002b0: eb36 612b ed28 5da8 e7c5 a12a 9c64 07a7
000002c0: 5ce3 b3aa 057a 5727 4591 f2a6 eb42 69a5
000002d0: 44ed 0228 ea52 d226 f6f0 db99 6a8b 5cab
000002e0: b8b3 38a2 3cc8 ee28 cb93 aea9 9640 2a2c
000002f0: 1f57 08b1 83dc 04a9 1bb4 7528 a5c0 bb27
00000300: 779a d130 6c32 372c 78d6 95ab c4d1 212a
00000310: 619b 892b 7bf8 4aba 8252 461f d37c 38ad
00000320: 6d0d 1a28 f769 5131 e5ff 0db0 8f23 472e
00000330: 3661 f2ae f2ae 4e2d ab31 532c d9ed 3c29
00000340: 6b8f 22a3 56a3 1d21 23bb a99e 1cc9 13a0
00000350: 89af 2ca2 a93e 0020 0551 2615 2f7c 8923
00000360: fcb9 671e 5bca 8b25 5b9f 45a5 11c5 e623
00000370: 4c25 b323 4810 37a1 4c86 e139 e6c2 0a20
00000380: 23f3 00a8 068f aaa6 7ccb 32a7 0998 1624
00000390: 216b 9c26 fded 5da5 b7c9 1b1a e6ac 632b
000003a0: 4ed8 5722 a4f3 26aa 8918 e428 9f49 68ac
000003b0: 1732 2fa9 d33c 07a7 8e70 95a5 f4dd 93a7
000003c0: 944d d62a 9413 0e2a df75 7927 0c9e 1f2a
000003d0: f3af 282a d764 b0a8 857b 359c d8b3 ca2b
000003e0: 42e1 9e26 94f4 89ac e8e3 ce2a 43f0 90ac
000003f0: 0854 7d2c 7072 64aa ba42 15ad 0ef8 1da6

gnn.init_context.attentive_gru.edge_transform.1.bias f4 [16]
1.0514346e-05 1.055764e-06 -2.0164671e-20 -3.4125034e-07 1.7257946e-07 1.642723e-08 1.514916e-06 -6.47643e-08
0.00013893486 1.7453113e-10 4.3805282e-11 1.2815347e-10 -1.3190976e-08 3.8650634e-15 -1.1714887e-10 -1.7671026e-10
00000000: c666 3037 c6b3 8d35 2f73 be9e 1735 b7b4
00000010: 484e 3934 dc1b 8d32 1e54 cb35 8d14 8bb3
00000020: 0baf 1139 25e6 3f2f 5da8 402e ffe7 0c2f
00000030: 879e 62b2 eb40 8b27 7ace 00af 844b 42af

gnn.init_context.attentive_gru.gru.weight_ih f4 [48, 16]
-1.4865877e-10 5.569744e-11 -4.4278956e-24 0.0021597773 -7.970497e-12 1.239544e-12 -1.2897334e-06 -1.7933465e-11
1.0248249e-09 9.7909715e-06 -5.916512e-17 -3.5897313e-17 9.698571e-12 2.6409057e-19 -1.235227e-15 1.0136846e-15
1.1996762e-19 -1.6511604e-19 -1.9797248e-17 -4.2379234e-21 7.75125e-20 -1.6857872e-16 4.5581783e-05 1.4752134e-11
1.0180049e-09 -1.3291544e-29 9.630976e-26 1.2206539e-25 -1.08886234e-13 -4.781817e-27 -7.138443e-25 6.9936593e-16
-1.1804742e-10 -4.8094337e-12 -2.482497e-36 1.1994805e-11 -1.8668452e-13 1.6841998e-13 -4.4681357e-13 6.495763e-12
-4.395305e-10 -7.151086e-18 -8.572068e-17 -1.2618152e-18 -1.5597503e-18 3.3184568e-25 -1.4609282e-31 -2.690137e-16
1.7106085e-26 -1.1502457e-27 1.354981e-08 -8.0545514e-29 -7.5379757e-28 -2.0329546e-27 -1.4607947e-27 1.9731407e-28
4.128661e-17 -1.591109e-32 -1.23384525e-33 -1.1392819e-32 5.4630905e-29 1.2898203e-28 -4.1360165e-32 9.4501276e-32
5.551443e-25 4.7797122e-26 1.860568e-39 -4.2855544e-26 -3.98281e-27 3.1935762e-25 8.340992e-26 -8.369404e-27
7.426611e-24 3.371506e-32 -6.0030025e-30 -1.3122898e-30 6.7064497e-28 -1.2740546e-31 -8.2988615e-30 -8.59717e-30
4.024382e-11 -3.2974024e-14 -1.2048633e-25 9.8515305e-14 0.0043271002 -0.0014956556 3.1258726e-12 0.00014919588
-3.1729848e-11 -7.6671995e-24 1.1025742e-22 -5.664132e-13 3.997906e-18 -8.117605e-26 -2.406623e-23 -3.7167977e-12
-5.8981446e-09 -6.0742226e-05 2.1823841e-28 0.0010213193 -1.4115e-07 3.1373766e-06 6.717877e-14 -3.568949e-15
3.6270698e-12 2.7039862e-18 3.5449664e-06 0.00013707923 -1.4928959e-17 -3.1816995e-15 3.1777312e-22 -2.7222813e-16
1.0437046e-17 -2.298519e-19 -3.96326e-32 1.9042104e-19 2.7264128e-20 5.7393286e-18 -4.4241406e-09 8.905563e-18
-2.769029e-06 -4.1140415e-25 9.427118e-14 -1.5938881e-24 4.53269e-20 9.2568056e-23 -7.9556986e-11 -0.00036254353
-3.2311334e-13 -2.3815166e-14 -3.1150155e-11 4.7829715e-08 2.5274679e-14 8.550915e-14 -4.4291197e-14 1.6374067e-14
7.8172364e-12 -1.10653575e-29 2.4632233e-18 7.935784e-19 2.3667808e-09 2.7037731e-21 -3.765409e-09 2.6503787e-18
-1.9572549e-07 -4.0913786e-08 4.709011e-35 -1.1839236e-07 1.277978e-08 3.3191327e-08 -3.205944e-05 2.5758673e-08
-5.2253214e-05 1.9997883e-13 5.019094e-13 4.186228e-13 -3.0978732e-14 -1.219606e-21 -3.8216485e-17 1.1486044e-12
-2.8269439e-21 -8.3992997e-22 -2.3494205e-28 1.1999915e-21 1.4190527e-22 8.865208e-23 -1.8564998e-22 2.5168495e-07
-1.2611417e-15 -1.5350757e-25 3.7798708e-28 5.290992e-29 1.01013726e-23 -1.1630129e-23 -2.0819274e-27 3.8830684e-23
-2.8401046e-09 -6.85108e-11 -6.2199063e-24 9.589001e-12 3.3503034e-11 7.5925677e-10 8.0526495e-11 -9.5848685e-12
1.5452635e-08 5.4502667e-19 -3.541307e-16 -1.9071791e-16 -9.969475e-13 -8.990878e-16 -3.2399948e-15 2.5124935e-13
-7.6916484e-10 -5.1407555e-11 2.4012423e-24 -1.3941525e-12 8.696201e-11 1.3803492e-10 -8.860694e-11 1.6371128e-11
5.23374e-09 -2.1282872e-23 -4.6789335e-18 1.0473998e-20 -2.1191686e-12 2.9431282e-16 3.90661e-15 1.125701e-15
2.7159524e-28 -6.0347047e-29 1.55593e-40 -2.658558e-29 -5.1302655e-30 1.5595566e-28 -2.3463868e-30 4.490691e-30
-2.292072e-27 -1.2435833e-33 -3.882393e-33 5.5568704e-34 -7.0459155e-31 -1.2999764e-33 2.8908112e-33 -3.270164e-33
8.0518246e-20 2.7620817e-22 2.559196e-28 8.546579e-24 3.327406e-23 -1.0817587e-06 5.833355e-22 -1.2455681e-22
8.279179e-20 -1.4406822e-10 -1.5283713e-27 0.0019003325 1.9304583e-23 5.690988e-20 -1.7529663e-26 -3.6221818e-26
-3.393369e-08 -8.275223e-09 -2.769744e-23 -1.2945754e-09 -3.932155e-09 4.704341e-09 -1.3716442e-09 7.498096e-09
-0.00095064845 -8.854749e-18 6.998938e-08 -3.4508635e-13 6.8805747e-12 -5.160227e-17 -1.1105718e-13 -1.3692598e-13
00000000: b973 23af bef5 742e c14b ab98 0d8b 0d3b
00000010: ed37 0cad 4773 ae2b e71a adb5 93be 9dad
00000020: d2d9 8c30 e743 2437 ec6c 88a4 118c 25a4
00000030: 7b9e 2a2d 3de4 9b20 d503 b2a6 5c16 9226
00000040: fda1 0d20 43ef 42a0 ee98 b6a3 ae1a a09d
00000050: 6e05 b71f a85b 42a5 112f 3f38 dac2 812d
00000060: dde9 8b30 d2ca 868f 9073 ee15 111c 1716
00000070: a430 f5a9 636d bd93 92ec 5c97 1994 4926
00000080: 65cb 01af 8737 a9ac ff2f 5384 cd03 532d
00000090: 2630 52aa c19f 3d2a 9f88 fbaa a28c e42c
000000a0: 6ba2 f1af 0dea 03a3 8fa8 c5a4 0836 baa1
000000b0: b32d e6a1 0c67 cd16 aba3 3d8c 6a13 9ba5
000000c0: 1469 a914 8243 b692 b2c8 6832 0735 cc90
000000d0: 53e3 6e92 3811 2193 df78 e792 1420 7a11
000000e0: a066 3e24 ef3a a58a f901 cd88 9e9e 6c8a
000000f0: 7c81 8a10 1081 2311 17c1 568b df56 f50b
00000100: 10cf 2b17 0dae 6c15 8242 1400 db35 5495
00000110: 7ec6 9d93 3cac c516 5183 ce15 ecc5 2594
00000120: cca6 0f19 000f 2f0b be82 f38e 63ee d48d
00000130: 2f89 5412 ba61 258c 2752 288f 0f5f 2e8f
00000140: 83fe 302e 7680 14a9 a427 1596 35d6 dd29
00000150: 59ca 8d3b e009 c4ba b7f6 5b2c 7771 1c39
00000160: a28c 0bae 224e 1499 054b 051b 5f6e 1fab
00000170: 287f 9322 6ffb c895 19c1 e899 f0c5 82ac
00000180: a1a8 cab1 78c5 7eb8 3553 8a11 cadd 853a
00000190: 048f 17b4 b88b 5236 ed45 9729 bf95 80a7
000001a0: 7b3b 7f2c db84 4722 0fe6 6d36 edbc 0f39
000001b0: 02b2 89a3 ff43 65a7 0215 c01b c8ed 9ca5
000001c0: 8e87 4023 3dae 87a0 c3c8 4d8b 3acf 6020
000001d0: 4fc0 001f 6dbe d322 2703 98b1 5547 2423
000001e0: 8ed3 39b6 97a5 fe96 a347 d429 6aa4 f697
000001f0: dc0c 561f dad0 df1a 9af2 aeae c513 beb9
00000200: 8ae5 b5aa 0982 d6a8 f5ff 08ae 546d 4d33
00000210: 71a7 e328 ab8c c029 4678 47a9 077c 9328
00000220: b485 092d 9f6e 608f f9c0 3522 1739 6a21
00000230: d9a4 2231 944a 4c1d e360 81b1 3d90 4322
00000240: 9d28 52b4 2fb9 2fb3 bd5f 7a06 e33e feb3
00000250: 118e 5b32 408e 0e33 9077 06b8 ec43 dd32
00000260: 762a 5bb8 f927 612a 6246 0d2b e7a9 eb2a
00000270: 0c84 0ba9 394d b89c 103e 30a4 d6a6 a12b
00000280: 0c99 559d 6fda 7d9c 87e9 9491 6c56 b51c
00000290: 8e8d 2b1b fb58 d61a e36f 609b 511f 8734
000002a0: ebbf b5a6 7e08 3e96 e993 ef11 8024 8610
000002b0: 9363 4319 9cf5 6099 81f2 2493 0fc6 3b1a
000002c0: a62b 43b1 27a8 96ae f89e f098 05b1 282d
000002d0: 1059 132e f2b3 5030 6314 b12e 699e 28ad
000002e0: b4bc 8432 0ddd 2021 7824 cca5 fee1 5ba5
000002f0: d24e 8cab 7c92 81a6 5b77 69a7 d970 8d2a
00000300: 2a6d 53b0 c317 62ae 81c9 3918 a335 c4ab
00000310: 423b bf2e 60c5 172f 46d9 c2ae 8100 902d
00000320: 77d4 b331 d7d5 cd99 479f aca2 25d9 451e
00000330: 8c1f 15ac e8a8 a925 1ec0 8c27 093b a226
00000340: d924 ac11 79ff 9890 bbb1 0100 0ece 0690
00000350: b91b d08e 81b2 4511 8c5c 3e8e 002a b60e
00000360: be98 3593 2fa0 ce88 af44 a189 a0a8 3808
00000370: 2da7 648d e1fe d788 c128 7009 59d6 8789
00000380: 4b1e be1f 25f5 a61b 5435 a211 9c50 2519
00000390: 4be7 201a f230 91b5 664d 301c 7794 169b
000003a0: 917c c31f 9967 1eaf 1b2e f292 9414 f93a
000003b0: d5b3 ba19 e95f 861f fa9a ad94 9c5c 3395
000003c0: 7dbe 11b3 d12a 0eb2 c5ef 059a d3ec b1b0
000003d0: 9a1b 87b1 d2a3 a131 7184 bcb0 fad0 0032
000003e0: f034 79ba 5f57 23a3 124d 9633 2f44 c2aa
000003f0: b516 f22c 35f9 6da4 1b14 faa9 3a2a 1aaa

gnn.init_context.attentive_gru.gru.weight_hh f4 [48, 16]
-5.003587e-08 -2.8848946e-12 2.3499976e-07 -5.8201767e-16 2.4597792e-15 -8.961363e-10 -1.15246075e-14 -1.1830768e-10
1.4693094e-10 -8.427233e-07 -1.5462918e-09 6.616974e-08 -7.3551504e-08 1.6622974e-16 2.5261189e-15 0.00020726922
-4.2109274e-17 4.3138205e-23 -5.677129e-18 -4.2952367e-25 -9.997737e-08 -8.3042045e-20 -3.795586e-22 5.5104664e-11
-2.431364e-17 -8.8775485e-16 -2.986163e-19 1.1494254e-15 -1.9656911e-15 -2.2645631e-27 -1.9384363e-07 -3.5448058e-17
8.1585516e-10 -6.673579e-05 -1.2584325e-08 8.0522056e-17 4.8406557e-14 -0.0016494091 4.859739e-20 1.9280931e-07
-3.7309945e-13 -0.0006803939 2.1226884e-10 6.431647e-10 -1.3171291e-15 -2.0672853e-17 5.304335e-13 -0.00071145204
-2.9362537e-24 -0.00077657937 2.163163e-23 -1.6478488e-32 2.675005e-09 -1.15440364e-26 2.0306057e-08 4.0301586e-28
6.4321805e-25 1.7958359e-23 3.1852635e-26 1.0322616e-22 1.7615013e-23 1.6023323e-33 1.3639524e-28 5.27738e-11
2.9197705e-23 -2.4747676e-27 2.8828524e-22 8.491988e-31 1.2012155e-28 1.2520251e-24 -1.15472735e-26 1.4912253e-25
2.0661059e-23 -2.6371823e-19 4.057325e-24 1.393123e-20 0.00011817687 4.312193e-31 -1.1505388e-25 -7.178798e-23
-0.0028310877 1.6186501e-18 2.8549768e-10 -7.6503613e-16 -3.575994e-16 2.8072275e-10 1.3387558e-21 -0.010851754
1.2254836e-16 -1.7706284e-08 -1.3817793e-12 0.00033274756 -3.8234302e-05 -3.3985346e-20 -4.6767525e-07 2.188747e-10
-1.6114312e-07 5.608755e-14 -1.8448477e-10 5.2847182e-14 -9.831903e-17 -1.5128361e-13 -3.3899143e-16 3.1776475e-14
-0.0004290032 -9.363629e-10 -7.240747e-15 8.9234203e-10 2.0592201e-09 9.4204005e-21 2.1374656e-15 -5.4439748e-11
9.247697e-09 0.00451241 7.4589396e-10 -5.318723e-06 -1.5309271e-22 -3.9790175e-18 3.4763744e-19 -5.058636e-18
6.701446e-09 8.704718e-15 6.3675756e-18 -1.4460771e-13 -5.4951012e-14 3.2631417e-12 -4.4536627e-08 3.4243385e-08
6.423452e-11 1.5862847e-16 -5.14029e-11 3.3600123e-19 -1.222654e-06 5.051514e-13 3.1173436e-19 2.6084282e-07
-1.9565409e-19 -4.1476932e-07 3.923685e-09 4.485796e-09 1.3970007e-09 3.2876015e-21 -8.535615e-09 -3.1859107e-10
-0.00011757333 -5.581782e-11 0.0001038053 -1.2984029e-12 -1.1647531e-09 -2.7142224e-07 -1.3745509e-15 1.2083661e-08
1.6946705e-09 -0.014666974 -4.8821207e-06 3.9785904e-05 -1.0269193e-07 -9.583304e-13 -4.0187615e-07 -0.0006000036
1.04736436e-07 2.131024e-05 -2.8991922e-18 -3.6441645e-26 1.6413805e-24 6.790954e-21 1.2850625e-23 2.3470555e-19
3.009308e-19 0.00012899321 2.4347628e-20 1.4997785e-17 5.334512e-18 1.7653971e-27 -9.404431e-24 -5.9964593e-18
-2.6533233e-08 -3.950526e-13 4.6076343e-07 -1.7927386e-16 -3.3428395e-15 -8.729437e-06 -2.650503e-11 -5.008888e-11
1.5040501e-07 -2.4814406e-06 9.2380844e-08 1.0132345e-05 0.010426284 1.6157042e-16 -1.6924487e-08 -1.2531342e-05
-1.4264637e-07 -2.4509005e-13 1.7893584e-07 4.792376e-11 7.451849e-15 -1.6262691e-09 -5.7328886e-12 -3.1545485e-11
5.4285334e-07 4.5128754e-06 6.6262934e-10 7.732744e-06 -2.333498e-06 3.5463754e-10 -1.6596794e-09 -0.0007559684
8.337023e-09 -2.140416e-25 -3.3207753e-26 2.2094717e-33 -1.7166987e-30 1.5337696e-27 1.5707991e-29 2.7776681e-28
-6.0800844e-26 -2.1791536e-25 -0.00022079976 -3.5163704e-24 1.896956e-26 9.94073e-34 3.9274025e-16 -4.944084e-25
1.5103853e-10 2.1024892e-24 2.1499032e-18 -1.2962859e-27 2.858682e-24 -1.4281503e-13 2.787868e-22 -4.3265402e-07
1.0060625e-18 -2.2495557e-16 2.104472e-19 -3.359662e-17 -6.573828e-15 4.147442e-29 -3.9681643e-15 2.3074625e-17
-4.503605e-06 -1.6628386e-11 2.2122662e-05 1.1499616e-05 8.436938e-12 4.1772445e-12 -1.6244343e-11 6.990815e-08
3.3942993e-06 6.2339e-08 -9.080272e-07 -3.6090554e-05 -8.176779e-05 8.401611e-17 3.5253472e-10 1.1042403e-06
00000000: 05e7 56b3 a401 4bac 3e54 7c34 53c1 27a6
00000010: eb3e 3127 fc53 76b0 df9b 4fa8 a714 02af
00000020: 628d 212f 8137 62b5 4e85 d4b0 3319 8e33
00000030: 5ef3 9db3 5ca6 3f25 ab06 3627 6856 5939
00000040: db31 42a4 839a 501a f872 d1a2 5fee 0497
00000050: 24b3 d6b3 d613 c49f d96d e59b 565a 722e
00000060: f640 e0a3 bfe0 7fa6 9f45 b0a0 50a6 a526
00000070: 9aa4 0da7 cc6a 3393 5523 50b4 ae79 23a4
00000080: b442 6030 81f4 8bb8 7232 58b2 d5ab b924
00000090: f600 5a29 fc30 d8ba a47e 651f 0507 4f34
000000a0: 4c09 d2aa 765c 32ba 5e64 692f b1ca 3030
000000b0: 7dd1 bda6 65ac bea3 c34d 152b bd80 3aba
000000c0: 7f2e 6398 5c93 4bba 5235 d119 561f ab8a
000000d0: 30d3 3731 38a7 6494 7e6d ae32 1071 ff11
000000e0: fc10 4717 beae ad19 03ba 1d15 e695 f91a
000000f0: a95c aa19 d71d 0509 c9e6 2c11 041a 682e
00000100: 0231 0d1a 4012 4493 fb41 ae1b 57ca 890d
00000110: ac45 1811 d3bd c117 a2b7 6494 d19a 3816
00000120: 4ed2 c719 f9ab 9ba0 cdf5 9c18 a693 831e
00000130: b9d5 f738 4cf0 0b0d 086e 0e96 9b92 ad9a
00000140: c589 39bb dfde ee21 3af4 9c2f b481 5ca6
00000150: 5b24 cea5 3754 9a2f 9b4e ca1c 8ecb 31bc
00000160: e449 0d25 8818 98b2 d977 c2ab 9f74 ae39
00000170: c55d 20b8 c37d 209f cc14 fbb4 c0a7 702f
00000180: af06 2db4 8b98 7c29 d9d7 4aaf a700 6e29
00000190: 50b5 e2a4 8854 2aaa 4e6a c3a5 c81b 0f29
000001a0: d6eb e0b9 57b1 80b0 0d70 02a8 fd48 7530
000001b0: 2f82 0d31 43f2 311e 4805 1a27 b56d 6fae
000001c0: cddf 1e32 d7dc 933b 9f07 4d30 7c77 b2b6
000001d0: e613 399b c2cc 92a2 7c35 cd20 77a1 baa2
000001e0: 8b42 e631 6dcf 1c28 0dec ea22 56d0 22aa
000001f0: 347a 77a9 899f 652c 8a48 3fb3 0013 1333
00000200: d240 8d2e dce2 3625 8512 62ae 1257 c620
00000210: 121a a4b5 ff2f 0e2b f703 b820 f709 8c34
00000220: d2fc 66a0 76ad deb4 19d1 8631 7b21 9a31
00000230: 9800 c030 7667 781d 08a4 12b2 b525 afaf
00000240: b391 f6b8 477d 75ae 0cb2 d938 e5bb b6ab
00000250: 1b15 a0b0 fdb7 91b4 fa17 c6a6 8198 4f32
00000260: ebe9 e830 bf4d 70bc 19d1 a3b6 cadf 2638
00000270: 7c87 dcb3 7edf 86ab 70c1 d7b4 8f49 1dba
00000280: 77eb e033 64c3 b237 31ec 55a2 4673 3495
00000290: c8fd fd17 0a47 001e 3691 7819 b38b 8a20
000002a0: 60a3 b120 5a42 0739 f4f4 e51e 8554 8a23
000002b0: 0bcf c422 82de 0b13 7de8 3599 f53a dda2
000002c0: 32eb e3b2 1465 deaa d85e f734 4eb0 4ea5
000002d0: 81e0 70a7 a574 12b7 0624 e9ad 114b 5cae
000002e0: 047f 2134 d386 26b6 e862 c633 17fe 2937
000002f0: 01d3 2a3c 2c47 3a25 5761 91b2 b43d 52b7
00000300: 562a 19b4 33f9 89aa 8221 4034 5bc5 522e
00000310: 963d 0628 4283 dfb0 45b5 c9ac 0fbd 0aae
00000320: 99b8 1135 4e6d 9736 6524 3630 e2bb 0137
00000330: 3199 1cb6 ccf6 c22f c71a e4b0 2e2c 46ba
00000340: 9d3a 0f32 3f7c 8496 d46f 2495 448e 3709
00000350: 7046 0b8e 1609 f312 474c 9f0f 3e0e b011
00000360: 1d89 9695 11e2 8696 7c86 67b9 7208 8898
00000370: 8cdd bb14 302b a508 3b66 e225 1203 1997
00000380: 9111 262f 17ac 2218 86a2 1e22 9a67 cd92
00000390: 082e 5d18 a1cb 20aa 2b84 a81b 8447 e8b4
000003a0: f777 9421 95ad 81a5 c373 7820 e3ef 1aa4
000003b0: ddd8 eca7 e04c 5210 dbf7 8ea7 6bd3 d423
000003c0: ac1d 97b6 cc43 92ad 0e94 b937 7aee 4037
000003d0: 976c 142d 46f9 922c 02e3 8ead 6920 9633
000003e0: 9ec9 6336 3adf 8533 27bf 73b5 f05f 17b8
000003f0: bf7a abb8 5cba c124 dace c12f 6835 9435

gnn.init_context.attentive_gru.gru.bias_ih f4 [48]
-3.0716526e-06 2.6431657e-15 -4.3378826e-05 3.8294057e-22 2.5974012e-20 2.1495563e-08 6.9797648e-09 8.286666e-14
4.464487e-09 0.0060334546 -6.648684e-17 -3.7399488e-05 -1.2379054e-05 1.775633e-23 -1.2528607e-14 0.00059776066
-5.115067e-07 1.80967e-15 -7.5857038e-06 -1.4004645e-21 2.7415778e-17 3.1177779e-06 -9.501211e-10 6.944409e-13
-1.3588725e-09 -0.38371298 -8.043978e-14 1.37861125e-05 1.9553549e-05 2.467199e-22 2.3520748e-14 -0.00010772456
-0.00025359803 -1.0339999e-07 -0.35382977 3.254934e-11 -1.2511641e-08 -0.0004678411 9.335923e-08 -3.33205e-07
-0.2544604 -0.5058815 -1.1297184e-08 0.03226026 0.054259486 -5.6766007e-12 4.9600708e-08 -0.012097352
00000000: 9722 4eb6 cd75 3e27 a9f1 35b8 2f79 e71b
00000010: 4f51 f51e 3ea5 b832 a9d2 ef31 6199 ba29
00000020: 0b66 9931 49b4 c53b e74e 99a4 65dd 1cb8
00000030: a2af 4fb7 8bba ab19 00b2 61a8 0ab3 1c3a
00000040: 794e 09b5 8566 0227 b388 feb6 d9a1 d39c
00000050: addd fc23 043b 5136 6a95 82b0 be77 432b
00000060: 13c3 bab0 0776 c4be 6022 b5a9 e74a 6737
00000070: ed06 a437 0e22 951b 27db d328 2fea e1b8
00000080: 5af5 84b9 bf0c deb3 2d29 b5be 4d27 0f2e
00000090: c7f2 56b2 9248 f5b9 c87c c833 59e3 b2b4
000000a0: a248 82be 7381 01bf 8a15 42b2 5623 043d
000000b0: 323f 5e3d 46ba c7ac 8e08 5533 f933 46bc

gnn.init_context.attentive_gru.gru.bias_hh f4 [48]
-3.0725746e-06 2.7617033e-15 -5.949649e-05 3.901728e-22 2.61296e-20 2.1533767e-08 6.777515e-09 8.286164e-14
4.4586486e-09 0.005785946 -5.470515e-17 -3.132483e-05 -1.3677032e-05 1.0885947e-23 -5.8849325e-15 0.0005899242
-5.053469e-07 1.8097287e-15 4.0609448e-05 -1.4008522e-21 2.7404108e-17 3.1176273e-06 -9.501009e-10 6.944404e-13
-1.3582613e-09 -0.38347962 -8.054338e-14 1.0120984e-05 1.9553381e-05 2.3871544e-22 2.3541819e-14 -0.000105624946
0.000874762 -5.5482094e-08 -0.026272487 2.9356857e-11 6.674672e-09 0.00027968764 1.5839845e-07 1.3838883e-07
-0.1077868 -0.40563557 -4.428247e-09 0.009268181 -0.0265466 -4.4751264e-12 1.823431e-08 0.0009058231
00000000: 6e32 4eb6 6f00 4727 df8b 79b8 51d8 eb1b
00000010: 7fc9 f61e 41f9 b832 a7df e831 7c96 ba29
00000020: b032 9931 0898 bd3b 7148 7ca4 c862 03b8
00000030: 6876 65b7 9990 5219 ec06 d4a7 25a5 1a3a
00000040: 2da7 07b5 9a67 0227 1054 2a38 d8b0 d39c
00000050: 1fc2 fc23 6e38 5136 b494 82b0 b477 432b
00000060: 92ad bab0 7157 c4be 195e b5a9 4ccd 2937
00000070: 9106 a437 6d4b 901b bd0b d428 f682 ddb8
00000080: 4950 653a 354b 6eb3 6639 d7bc e21c 012e
00000090: 0957 e531 0aa3 9239 3c14 2a34 0898 1434
000000a0: 53bf dcbd 77af cfbe 4627 98b1 92d9 173c
000000b0: 4178 d9bc 5b74 9dac aca1 9c32 c274 6d3a

gnn.gnn_layers.0.project_edge.1.weight f4 [1, 32]
7.807159e-12 6.794413e-16 6.217779e-16 -3.543558e-06 -4.883377e-19 -1.2518183e-12 1.4452358e-16 1.0653548e-12
-1.8547904e-19 0.0011326564 6.615127e-09 1.1855441e-09 1.0694472e-10 2.1493858e-21 -2.136783e-06 6.365099e-11
6.2725047e-12 5.300124e-16 1.7733568e-17 2.085271e-07 -2.4208582e-18 -5.0001355e-13 -3.021402e-16 -0.0016337134
3.6446519e-13 5.055347e-09 9.257014e-14 -2.5237248e-09 3.918397e-11 2.2135599e-22 -6.8141985e-16 1.442766e-10
00000000: 5258 092d ebd5 4326 1c37 3326 ddcd 6db6
00000010: c121 10a1 822d b0ab d59f 2625 74ef 952b
00000020: 9af9 5aa0 a475 943a 464b e331 a0f0 a230
00000030: 862c eb2e 2b67 221d a765 0fb6 52f8 8b2e
00000040: b3b1 dc2c 03c4 1826 3490 a323 7ee7 5f34
00000050: b8a0 32a2 c6bd 0cab 062c aea5 5322 d6ba
00000060: f82c cd2a 4db3 ad31 0d73 d029 d66d 2db1
00000070: 3a55 2c2e 2ecd 851b e967 44a6 41a2 1e2f

gnn.gnn_layers.0.attentive_gru.project_node.1.weight f4 [16, 16]
1.0362926e-30 -1.2683881e-36 5.633e-42 1.0852426e-38 -5.858238e-39 1.1368545e-34 6.2212745e-32 -5.287096e-34
1.4595e-41 6.2299e-41 -2.7029594e-35 -1.0805377e-28 1.3754875e-28 4.958031e-39 8.721113e-35 -1.5566702e-30
1.8057345e-16 -7.556503e-21 2.9803236e-27 -2.1457594e-24 -2.127764e-22 2.6062553e-28 1.7460357e-19 3.909858e-18
1.1656211e-21 -3.7343282e-20 -1.6644797e-18 -6.2103532e-15 -3.1772643e-14 -1.4377075e-25 7.704954e-21 -1.0533095e-15
1.3343358e-08 -5.779044e-14 8.642985e-11 1.9784865e-17 2.0381924e-16 -1.0893735e-15 2.190257e-12 1.2734495e-10
-4.3034365e-18 6.9866455e-06 -6.173543e-11 9.995205e-07 4.9571844e-07 1.3214873e-18 7.9912536e-13 -1.5079144e-07
-1.1351917e-14 3.3120347e-20 -3.3543241e-19 3.946971e-23 5.4196375e-22 4.7363857e-18 -3.2263169e-18 5.4507683e-18
2.345802e-20 1.1523427e-14 2.0928219e-17 -9.520262e-13 -5.85641e-13 6.3208777e-25 -5.5829894e-19 8.212291e-15
-1.6963721e-06 -7.668719e-12 2.8505168e-08 1.2954542e-13 4.8019047e-14 1.0813348e-13 -1.7158784e-10 -1.0119606e-07
4.8423955e-13 0.0015301632 1.7524457e-08 -7.965962e-05 -6.74249e-05 -4.8963143e-17 -1.3639679e-11 -2.8707273e-05
2.7502632e-11 -7.1263645e-18 7.236534e-21 6.917909e-20 -1.1333609e-18 4.2314407e-27 6.7560246e-15 -1.223947e-14
6.205383e-17 1.9072188e-17 -8.2895245e-14 -4.77126e-11 1.2687307e-09 -5.9785977e-21 -1.4536424e-15 2.7400221e-11
-2.996016e-11 -2.290954e-16 -1.2148512e-11 1.3914808e-20 -7.944902e-17 3.7467275e-17 3.6233075e-15 1.2471632e-14
-1.4448834e-17 -1.1766206e-07 -2.9228106e-13 6.401393e-10 -1.1744491e-09 -4.205861e-21 -1.7323873e-15 -4.444785e-10
9.077855e-12 -6.193939e-17 -6.726081e-16 -3.1818327e-19 -2.1955377e-20 7.924892e-16 -5.2038853e-21 -7.504363e-15
2.2339118e-16 2.2892412e-11 2.9694698e-13 -5.0105157e-14 -3.7967188e-14 -2.0557332e-21 9.6264436e-20 1.07111514e-10
2.347895e-12 7.5505046e-17 6.013536e-14 -1.4850582e-20 1.808953e-19 -1.3953884e-13 9.205138e-16 2.8204762e-14
6.587829e-19 1.0235687e-10 -9.563943e-14 7.58468e-11 1.0476608e-10 2.117906e-21 -1.6389161e-16 -1.6992822e-11
3.4047468e-15 3.7849242e-20 -1.3820944e-21 4.9149108e-23 -4.467527e-23 -1.3059158e-21 1.6886678e-19 1.3617799e-17
-3.641416e-22 -2.1049085e-17 4.2929706e-18 -1.4621853e-13 2.4447696e-13 -9.9237065e-25 -5.03899e-18 -3.1840192e-14
-2.181342e-18 -1.8176221e-23 -3.1297007e-18 1.9076116e-26 2.3440028e-24 -5.727739e-31 -1.0989979e-23 9.621039e-21
-1.4432779e-24 3.7792116e-15 -8.583368e-20 4.2497888e-16 3.3301286e-16 1.441227e-28 8.091954e-23 -1.1945204e-16
9.855437e-13 -7.8263094e-19 -1.6886245e-16 7.55161e-20 -2.90937e-22 1.5568646e-16 3.9244263e-20 -2.7808994e-16
-2.2496001e-19 -2.2410019e-12 -4.6813614e-14 2.8289633e-14 -1.612491e-14 -7.248415e-22 1.30072835e-20 -8.935136e-12
5.734162e-11 1.6746596e-15 -5.555152e-19 4.4494695e-20 1.1510187e-18 -3.7289584e-26 -9.323771e-15 1.6862056e-12
-6.7329962e-18 1.23797025e-14 7.41387e-13 6.4812378e-09 -3.798086e-09 -5.5390772e-21 5.79372e-15 9.735321e-10
6.2246377e-09 2.7858578e-14 -1.8403987e-09 1.1222468e-16 7.157289e-15 -1.4383765e-15 1.5170776e-12 1.384978e-09
3.4738637e-14 3.0876497e-05 -3.8402455e-11 9.2611987e-07 2.4726688e-07 4.0355875e-19 4.964962e-13 1.6000588e-07
-1.2839176e-11 2.3921097e-17 -2.0113441e-14 -2.065276e-20 3.1151534e-19 7.042016e-22 -2.8572912e-15 4.3185077e-15
2.4297216e-17 1.6510194e-11 2.9656504e-14 8.9048e-08 -5.1307697e-10 2.12667e-21 -6.004674e-17 -1.9243223e-11
-9.413486e-19 5.1991176e-24 -5.057999e-19 3.3992163e-27 2.6203029e-24 6.636644e-22 1.6760951e-23 -7.3034525e-22
2.9337232e-25 -6.640139e-15 -6.98125e-21 -8.1215484e-17 4.108384e-17 -7.691027e-27 -4.6599196e-21 3.6764298e-19
00000000: e925 a80d 18ce d783 b40f 0000 262c 7600
00000010: 62ca 3f80 271d 1707 7683 a10b a3b1 2f88
00000020: af28 0000 aaad 0000 c7b6 0f86 74f9 0891
00000030: 1f5d 2e11 f9fc 3500 d2d8 e706 8d95 fc8d
00000040: e02f 5025 02bd 0e9e 2520 6c13 2505 2698
00000050: 8e9d 809b e930 a511 b122 4e20 913f 9022
00000060: c824 b01c 4259 309f 44a2 f5a1 66c0 dfa7
00000070: 5d17 0fa9 c5fa 3196 df8a 111e 43cc 97a6
00000080: b63c 6532 ec21 82a9 ae0f be2e b17b b623
00000090: d2fc 6a25 cafe 9ca6 2a20 1a2c 6b04 0c2f
000000a0: cfc4 9ea2 d46e ea36 f5c1 87ae 4327 8635
000000b0: 8311 0535 6104 c321 0def 602b 3ce9 21b4
000000c0: 7a7f 4ca8 0b68 1c1f 1d01 c6a0 22dd 3e1a
000000d0: 6acc 231c e6bd ae22 670f 6ea2 0d19 c922
000000e0: 038e dd1e 6d96 4f28 5c07 c123 5cfc 85ab
000000f0: e2d7 24ab 279f 4317 e0c7 24a1 82f0 1328
00000100: e7ae e3b5 d7e8 06ad 87db f432 edda 112a
00000110: 3142 5829 b57e f329 afa9 3caf 1f51 d9b3
00000120: 234d 082b c28f c83a b088 9632 ef0e a7b8
00000130: 7866 8db8 7acd 61a4 a7f3 6fad 66d0 f0b7
00000140: 6cea f12d 4e75 03a3 bbb1 081e 3258 a31f
00000150: 2a41 a7a1 e89f a713 5469 f327 987c 5ca8
00000160: 1e16 8f24 eee8 af23 dba9 baa9 9dd7 51ae
00000170: 7e5f ae30 73dd e19d f07d d1a6 d003 f12d
00000180: 24c4 03ae 8410 84a5 09b8 55ad f16b 831e
00000190: 6c32 b7a4 8dc9 2c24 1d8b 8227 40ab 6028
000001a0: 5844 85a3 67ad fcb3 248a a4aa ccf5 2f30
000001b0: 416a a1b0 97e4 9e9d cfa9 f9a6 ca5a f4af
000001c0: 06b3 1f2d 90d2 8ea4 b8dd 41a6 7fd2 bba0
000001d0: d85c cf9e 626b 6426 e498 c49d c42f 07a8
000001e0: b8c6 8025 215d c92d 922a a72a 50a7 61a9
000001f0: 30fd 2aa9 aa53 1b9d 484c e31f 6c8a eb2e
00000200: eb37 252c 501a ae24 ad69 8729 8142 8c9e
00000210: 4090 5520 551b 1daa f7a8 8426 c10b fe28
00000220: 3b70 4221 cc15 e12e 615c d7a9 f4c9 a62e
00000230: 0f62 e62e 4306 201d 44f4 3ca5 6f78 95ad
00000240: 7e56 7527 edbc 321f 30db d09c a6ab 6d1a
00000250: 4e09 589a 2c58 c59c da5c 4720 3d34 7b23
00000260: 2f1c dc9b bf24 c2a3 f661 9e22 9fa0 24aa
00000270: d8a0 892a da8f 9997 eae7 b9a2 3e65 0fa9
00000280: 63f4 20a2 25ca af99 60ee 66a2 b3eb bc14
00000290: c25b 3518 32e0 398d bd93 5499 7dbc 351e
000002a0: 2156 df97 1329 8827 47ab ca9f d0fb f425
000002b0: 06f8 bf25 7db2 3611 c5a6 c31a 05b8 09a5
000002c0: f4b3 8a2b ecfd 66a1 66af 42a5 ae4e b21f
000002d0: 52dc af9b 887e 3325 6753 391f d54e a0a5
000002e0: ffca 84a0 4db2 1dac 6cd4 52a9 74cf fe28
000002f0: 833d 91a8 e511 5b9c 5db3 751e 4630 1dad
00000300: ed30 7c2e 0958 f126 8bf5 23a1 c91e 521f
00000310: 42dc a921 2aa6 3895 4ef6 27a8 f64f ed2b
00000320: 5a67 f8a2 4d03 5f28 90ae 502b 92b1 de31
00000330: 5180 82b1 ab42 d19d a3bd d027 1ecd 8530
00000340: 7ee0 d531 82ed fa28 46f1 fcb0 e162 0125
00000350: 2bef 0028 ba4a cfa6 7b82 d52b 9559 be30
00000360: ec72 1c29 6381 0138 52e5 28ae 799a 7835
00000370: 1ac0 8434 1338 ee20 52c0 0b2b 15ce 2b34
00000380: 82de 61ad 18a2 dc23 702a b5a8 4f0f c39e
00000390: dee2 b720 f6d4 541c b8e3 4da7 3497 9b27
000003a0: 2e1a e023 a739 912d 9f8f 0529 a83a bf33
000003b0: 9508 0db0 c8af 201d 5775 8aa4 e343 a9ad
000003c0: 25eb 8aa1 9121 c918 2949 15a1 26a8 8613
000003d0: 72bc 4a18 8c94 481c 1b1a a219 babb 5c9c
000003e0: b396 b516 793c efa7 41df 039e 2945 bba4
000003f0: 3d77 3d24 2456 1894 fa0b b09d a304 d920

gnn.gnn_layers.0.attentive_gru.project_node.1.bias f4 [16]
7.892195e-29 -1.9073632e-14 1.7007349e-05 4.783462e-13 -0.0022767729 -1.0763315e-09 -3.2983472e-08 1.9820054e-10
1.1015203e-09 -4.6261714e-13 -9.828855e-15 -5.349455e-12 -1.705513e-08 -2.2102868e-05 6.2490674e-10 -2.393964e-15
00000000: 4617 c810 cdcc aba8 01ab 8e37 7aa4 062b
00000010: e935 15bb 0cee 93b0 b6a9 0db3 7eec 592f
00000020: 4d64 9730 1437 02ab 980f 31a8 9b37 bcac
00000030: a180 92b2 8c69 b9b7 e7c5 2b30 d780 2ca7
