1-GNNs/result/6108_AR_NURA_MPNN_0920/29/model.pth (torch, 437614 bytes, 26 tensors)

gnn.project_node_feats.0.weight f4 [32, 74]
-0.035011128 0.0024633913 -0.029692598 0.008029728 -0.0039945384 2.616e-42 9.114687e-18 7.2009316e-20
-3.1881744e-20 -3.7942e-41 9.303665e-20 -8.81e-43 3.3009e-41 8.1316e-41 6.395e-41 2.7087524e-21
-4.9281324e-18 4.2283e-41 -1.12175e-40 -4.7454e-41 4.7661e-41 -1.60052e-40 -2.21297e-40 -1.60639e-40
-3.71e-41 4.2381e-41 4.3813e-41 4.1878e-41 4.0513e-41 -1.76625e-40 4.3062e-41 -6.6585e-41
-1.4411784e-14 -2.9776e-41 -6.1353e-41 -5.4921e-41 -1.202e-41 7.1574e-41 1.5336e-41 6.3917e-41
4.8984e-41 4.9099e-41 1.7950391e-10 -1.5776e-41 -0.067104965 -0.04264574 0.028846413 -0.035374854
-6.0102e-41 -9.932e-41 -1.7118e-41 2.5414e-41 -6.4596e-41 -4.597e-41 -0.026718255 -0.043073524
-0.0004749826 -9.811763e-20 -3.9606e-41 -4.3486e-41 -6.753e-41 -0.0044346885 6.6658e-41 -0.023565684
0.01879536 -0.06333984 -1.9444e-41 -2.552e-42 0.0075608906 -0.028765097 -0.034305725 -0.00047498613
-9.970715e-20 6.8463e-41 -0.02461797 -0.006082678 0.3874711 0.06274017 -0.27141607 -2.9154e-41
-0.012594397 0.100053 0.08718158 -6.3763655e-05 -1.773e-42 7.912613e-11 -2.1059e-41 9.967e-41
-1.4407e-41 0.04225237 -1.942e-42 3.4514e-41 -1.5983e-41 -1.1521e-40 -1.07212e-40 3.9613e-41
-4.191e-41 3.0533e-41 -1.909e-41 -3.6502e-41 2.13706e-40 -8.6389e-41 2.0474e-40 -1.41744e-40
7.33e-42 2.874e-41 -5.5123e-41 -1.4948e-41 -1.54e-42 8.422e-41 -4.389e-42 1.26205e-40
6.3026e-41 9.0632e-41 2.7912e-41 7.7269e-41 -4.735e-42 7.7646e-41 0.29771757 0.021348776
-0.18156281 0.0009097469 6.5763e-41 2.715e-41 -8.2434e-41 2.774e-41 2.8176e-41 -3.5778e-41
-0.1161203 0.24749814 -0.050325543 0.0037486455 -8.2007e-41 -3.796e-42 1.9168e-41 0.107133076
0.00025247174 -0.094993696 0.19998491 -0.009557264 -1.47111e-40 -8.0114e-41 0.101539515 -0.061970085
0.23841055 -0.038009327 0.01001436 -7.6179e-41 -0.16934961 0.55595976 -0.05334821 0.079579644
-0.08329336 7.714e-42 -0.09307394 0.05624696 -0.02635105 7.657e-42 -8.087e-42 -9.2996e-41
-1.37899e-40 1.68231e-40 4.3163e-41 -0.008850564 1.1168e-41 -9.5257e-41 2.427e-41 7.7493e-41
2.968e-42 -3.561e-41 -8.159e-41 -3.8082e-41 -6.2746e-41 -3.416e-41 -5.954e-42 -1.8682e-41
7.497e-41 1.463e-41 5.7746e-41 -4.111e-42 6.0746e-41 -7.894e-42 7.4629e-41 -5.8395e-41
-5.0162e-41 -8.28e-42 -3.219e-41 -4.1201e-41 -3.5203e-41 1.29549e-40 -1.75918e-40 3.1902e-41
-0.14897794 0.19471651 0.022888847 -0.070675954 1.80836e-40 -3.4354e-41 4.9145e-41 -3.3218e-41
1.90532e-40 -4.9251e-41 0.04728385 -0.100040376 0.14927858 -3.0264528e-25 5.6317e-41 -6.254e-42
-4.7564e-41 0.25900927 4.691143e-36 -0.08167234 0.075759366 0.11565866 -2.476e-41 -3.2831e-41
-0.1331208 -0.05826593 0.024046557 0.12247879 -3.0250915e-25 6.6294e-41 -0.08723398 0.036858622
0.55980766 0.026298646 -0.2596863 5.799e-42 -0.0027465925 0.029320704 0.12504904 1.16362e-40
4.7101946e-31 -4.2336e-41 -3.408e-42 -1.90462e-40 -1.1463e-41 0.067413405 -7.133375e-16 5.6792e-41
3.8463e-41 9.2088e-41 5.7247e-41 -3.987e-41 4.5605e-41 5.027e-41 3.9272943e-14 7.24e-43
1.11236e-40 7.842e-41 -4.8034e-41 -2.0564e-41 4.2633e-41 2.4449998e-11 -2.7704e-41 3.517e-42
00000000: d467 0fbd d970 213b e43d f3bc 1f8f 033c
00000010: 9ee4 82bb 4b07 0000 e422 2823 f606 aa1f
00000020: aa8e 169f c469 0080 34ad db1f 7502 0080
00000030: 045c 0000 ade2 0000 44b2 0000 e4aa 4c1d
00000040: e5d0 b5a2 de75 0000 b338 0180 4884 0080
00000050: dc84 0000 29be 0180 e368 0280 ccbf 0180
00000060: 6b67 0080 2476 0000 227a 0000 bd74 0000
00000070: ef70 0000 5cec 0180 0a78 0000 9db9 0080
00000080: 50cf 81a8 0153 0080 07ab 0080 1999 0080
00000090: 8221 0080 85c7 0000 c02a 0000 2db2 0000
000000a0: 8c88 0000 de88 0000 dc5d 452f fa2b 0080
000000b0: 546e 89bd 4dad 2ebd 504f ec3c 39e5 10bd
000000c0: 8aa7 0080 dd14 0180 b82f 0080 d846 0000
000000d0: 11b4 0080 2580 0080 3ee0 dabc dd6d 30bd
000000e0: 1607 f9b9 78ac e79f 686e 0080 3979 0080
000000f0: 3fbc 0080 dd50 91bb d1b9 0000 d20c c1bc
00000100: baf8 993c 51b8 81bd 3436 0080 1d07 0080
00000110: 59c1 f73b c8a4 ebbc 2984 0cbd 8f07 f9b9
00000120: 466d eb9f d9be 0000 a0ab c9bc 3451 c7bb
00000130: 9d62 c63e eb7d 803d 0cf7 8abe 4551 0080
00000140: bb58 4ebc 96e8 cc3d 428c b23d dab8 85b8
00000150: f104 0080 0d00 ae2e b43a 0080 d715 0100
00000160: 2928 0080 d210 2d3d 6a05 0080 3660 0000
00000170: 8e2c 0080 2941 0180 dd2a 0180 6d6e 0000
00000180: d474 0080 1d55 0000 3735 0080 c165 0080
00000190: ba53 0200 d1f0 0080 bb3a 0200 208b 0180
000001a0: 6f14 0000 1e50 0000 a999 0080 ab29 0080
000001b0: 4b04 0080 c5ea 0000 3c0c 0080 cf5f 0100
000001c0: b1af 0000 a5fc 0000 cf4d 0000 65d7 0000
000001d0: 330d 0080 72d8 0000 706e 983e a1e3 ae3c
000001e0: 9aeb 39be 157c 6e3a 52b7 0000 af4b 0000
000001f0: cbe5 0080 544d 0000 8b4e 0000 bc63 0080
00000200: 7bd0 edbd 2770 7d3e 2822 4ebd d6ab 753b
00000210: 9ae4 0080 950a 0080 6f35 0000 9668 db3d
00000220: 2f5e 8439 0e8c c2bd d8c8 4c3e 1296 1cbc
00000230: 169a 0180 53df 0080 f3f3 cf3d 58d4 7dbd
00000240: e521 743e abaf 1bbd 4513 243c 5bd4 0080
00000250: fc69 2dbe 6153 0e3f a783 5abd a7fa a23d
00000260: b695 aabd 8115 0000 8d9d bebd 3663 663d
00000270: 28de d7bc 5815 0000 8b16 0080 3c03 0180
00000280: 6880 0180 f6d4 0100 5278 0000 f501 11bc
00000290: 221f 0000 8a09 0180 a843 0000 05d8 0000
000002a0: 4608 0000 4463 0080 71e3 0080 286a 0080
000002b0: e9ae 0080 395f 0080 9910 0080 1434 0080
000002c0: fcd0 0000 c828 0000 f9a0 0000 760b 0080
000002d0: 56a9 0000 0116 0080 09d0 0000 c8a2 0080
000002e0: d58b 0080 1517 0080 bc59 0080 da72 0080
000002f0: 2262 0080 2169 0100 63ea 0180 ee58 0000
00000300: ac8d 18be c463 473e 6481 bb3c 8ebe 90bd
00000310: 19f8 0100 c45f 0080 ff88 0000 995c 0080
00000320: 2013 0200 4b89 0080 b6ac 413d f8e1 ccbd
00000330: 7cdc 183e 0f54 bb96 fd9c 0000 6f11 0080
00000340: 9784 0080 dd9c 843e 068a c704 d443 a7bd
00000350: ba27 9b3d 73de ec3d 0545 0080 855b 0080
00000360: d250 08be 41a8 6ebd 49fd c43c 29d6 fa3d
00000370: 7d3e bb96 cdb8 0000 bba7 b2bd 11f9 163d
00000380: 8e4f 0f3f 4270 d73c 9af5 84be 2a10 0000
00000390: 2d00 34bb f931 f03c db0c 003e 5f44 0100
000003a0: c4da 180d 0476 0080 8009 0080 ee12 0280
000003b0: f41f 0080 0a10 8a3d 049b 4da6 509e 0000
000003c0: 386b 0000 b400 0100 959f 0000 246f 0080
000003d0: 217f 0000 228c 0000 9fde 3029 0502 0000
000003e0: 1536 0100 9ada 0000 e685 0080 5339 0080
000003f0: d876 0000 8010 d72d 3a4d 0080 ce09 0000

gnn.project_node_feats.0.bias f4 [32]
-0.04240739 0.11182412 0.030723318 -0.05261325 0.13891564 -0.011718915 0.015614811 0.07414178
-0.03952105 -0.033280835 0.05455113 0.07878031 -0.03357684 0.08635859 0.106605336 -0.038163725
-0.0044661677 0.013759606 -7.039796e-26 0.032252837 0.005055106 0.030015603 -0.008268454 -0.0003333587
0.064448826 0.007203394 0.057788815 0.08624477 0.10057105 0.06406595 -0.07420554 0.041763794
00000000: 5fb3 2dbd 0b04 e53d 78af fb3c fe80 57bd
00000010: e73f 0e3e b100 40bc 44d5 7f3c a5d7 973d
00000020: d3e0 21bd 7c51 08bd 0171 5f3d 9257 a13d
00000030: de87 09bd c6dc b03d e653 da3d 9151 1cbd
00000040: ee58 92bb f86f 613c 024c ae95 8d1b 043d
00000050: 4da5 a53b 48e3 f53c 6978 07bc a6c6 aeb9
00000060: bffd 833d 730a ec3b f7b3 6c3d 19a1 b03d
00000070: 32f8 cd3d 0235 833d 13f9 97bd 8310 2b3d

gnn.gnn_layer.bias f4 [32]
-0.08245675 0.13520782 -0.072284065 -0.08308922 -0.0033327942 0.018946411 0.048443127 -0.07301365
-0.0867371 0.019002445 -0.07293658 -0.123247184 -0.019560615 0.09505563 -0.09277279 -0.10838313
0.025496172 -0.018238837 -0.069072366 -0.123467356 -0.06935359 0.07080219 -0.0607764 -0.06740743
-0.031094795 -0.11484242 -0.10124249 -0.17180932 -0.12501402 -0.13885546 -0.17045738 -0.10641295
00000000: 16df a8bd eb73 0a3e ab09 94bd ae2a aabd
00000010: 026b 5abb 8135 9b3c 4d6c 463d 2e88 95bd
00000020: 38a3 b1bd 04ab 9b3c c65f 95bd 0569 fcbd
00000030: 953d a0bc 87ac c23d a9ff bdbd f9f7 ddbd
00000040: 59dd d03c 9d69 95bc d075 8dbd 74dc fcbd
00000050: 4109 8ebd bd00 913d adf0 78bd e80c 8abd
00000060: 83ba febc 8132 ebbd 3958 cfbd c8ee 2fbe
00000070: ad03 00be 2030 0ebe 618c 2ebe 08ef d9bd

gnn.gnn_layer.edge_func.0.weight f4 [64, 13]
0.043997597 -0.18937574 0.20788458 -0.064957716 -0.070438914 0.43695566 0.21313709 1.868e-41
-1.6091e-40 -3.4878e-41 1.88606e-40 2.4315e-41 -0.100026496 -1.743077e-07 1.0976e-41 -5.8591704e-16
-4.9106013e-22 -6.231085e-08 -1.5420115e-11 -8.454858e-06 1.466e-41 4.609e-42 -3.503e-41 -2.7138e-41
2.5089e-41 -4.4272455e-10 -0.030354792 0.08026337 0.016968977 -5.6892003e-07 -0.06753703 0.03623497
0.005694275 1.6231e-41 -7.602e-42 -1.169e-41 -3.9557e-41 4.1575e-41 -0.004471216 0.2609345
0.11534878 -0.0975174 -1.1557e-41 0.1590484 -0.44478226 0.031082647 -3.33e-42 2.1021e-41
8.103e-41 -2.4296e-41 -7.2984e-41 -0.11911981 -0.24277052 -0.18990108 0.061460238 0.3671342
0.1199639 0.13946095 -0.008913334 -4.01e-41 -2.9105e-41 -8.453e-42 3.973e-42 -1.3658e-41
-0.0008303156 -4.473e-41 -3.3973e-41 1.9697e-41 -4.3634e-41 3.2975e-41 1.23086e-40 3.4152e-41
-2.7485e-41 5.5393e-41 3.058e-41 -6.2237e-41 6.192e-42 1.8492628e-10 -0.15783098 0.34980765
-0.08164434 -0.028756712 -0.010145323 -0.115799546 -0.054289885 1.6388e-41 1.4173e-41 -5.77e-43
2.6468e-41 -2.0997e-41 0.16594774 -0.052153822 0.07147261 0.08796624 0.06872076 -0.15945399
0.54704344 0.20030132 1.4307e-41 6.416e-41 3.5847e-41 2.2753e-41 3.7619e-41 -3.3141e-41
-0.022015007 -0.010157496 0.020737901 -0.003451741 -0.05026784 -0.01903575 -0.035811838 -3.523e-42
5.3706e-41 -2.7926e-41 9.614e-42 -1.017e-41 0.007753649 -0.00013887382 -1.3517e-41 1.613e-42
1.4868e-41 -8.998736e-07 0.0005483992 -0.0012582575 1.704e-42 3.3295e-41 3.3675e-41 -4.072e-41
-7.535e-42 -4.338123e-18 0.036636584 0.01895574 -9.167115e-25 -0.031310923 -0.25999424 0.26630655
-0.038624007 3.2315e-41 1.1628e-41 -1.6682e-41 -2.4283e-41 -5.2207e-41 -7.802703e-24 0.015627638
-5.7703736e-10 -4.00805e-09 7.2e-42 0.02532281 -5.419592e-05 -0.030948922 6.251e-41 1.0956507e-20
-3.0347e-41 6.943e-42 2.9433e-41 -1.1e-44 -0.19217406 0.2974079 0.035567727 -0.07810663
-0.104063906 0.041016385 0.10475066 8.156e-42 -8.72e-42 -7.13e-43 -1.3429e-41 8.488e-42
-0.03748951 -0.056442473 0.1525806 0.08900723 -0.097258896 0.042104732 -0.22582321 0.07772888
-5.8468e-41 9.483e-42 -4.1935e-41 -8.453801e-26 2.5986e-41 0.15122397 -4.978754e-18 -1.9796e-41
3.229e-42 2.647e-42 -1.3969352e-23 -2.62e-43 -2.5781579e-16 -2.2445e-41 -6.49e-42 1.04764e-40
-1.3736e-41 -7.271e-42 8.4e-42 6.2631516e-28 -1.7436634e-27 6.7111365e-32 -5.7132394e-28 -5.080328e-28
6.0587063e-30 5.478389e-28 -1.9767e-41 2.6377e-41 -7.05e-42 2.5952e-41 -5.744e-42 1.0764458e-27
-0.009505552 0.19472069 0.15787704 -0.22817232 -0.21340425 0.42737332 -0.08050342 2.5725e-41
-1.4332e-41 -1.4791e-41 6.807e-41 -3.3387e-41 -0.10019439 0.122691475 0.13793194 -0.06684725
-0.044006743 0.27412876 -0.23749536 -0.11684607 -3.0519e-41 1.265e-42 5.7324e-41 -7.1263e-41
-7.5844e-41 -0.094107874 -3.9963166e-10 1.2282e-41 -1.0588e-41 3.25534e-40 -3.2741775e-18 8.93401e-22
-1.3475109e-08 -2.1125e-41 3.8726e-41 1.44955e-40 1.98637e-40 -2.4401e-41 -4.6820484e-32 -6.745259e-06
-7.903709e-12 -1.3158542e-18 -7.9461497e-13 8.388679e-07 -6.211098e-08 -0.00015802859 -3.1688e-41 4.525e-41
00000000: d336 343d b7eb 41be b2df 543e 8d08 85bd
00000010: 4742 90bd a7b8 df3e 9c40 5a3e 1234 0000
00000020: 8dc0 0180 3a61 0080 c20d 0200 c843 0000
00000030: b1da ccbd 5629 3bb4 991e 0000 0ce1 28a6
00000040: f069 149c c1cf 85b3 03a3 87ad 57d9 0db7
00000050: de28 0000 d90c 0000 a661 0080 a64b 0080
00000060: f045 0000 f163 f3af 9daa f8bc 1f61 a43d
00000070: 8602 8b3c e3b7 18b5 db50 8abd 1f6b 143d
00000080: 0a97 ba3b 3f2d 0000 3115 0080 9620 0080
00000090: 456e 0080 e573 0000 4783 92bb 3599 853e
000000a0: fb3b ec3d 34b7 c7bd 3720 0080 95dd 223e
000000b0: 80ba e3be 09a1 fe3c 4809 0080 993a 0000
000000c0: e1e1 0000 ba43 0080 73cb 0080 16f5 f3bd
000000d0: d698 78be 6e75 42be bbbd 7b3d 04f9 bb3e
000000e0: a2af f53d dace 0e3e 3c09 12bc c86f 0080
000000f0: 2251 0080 9017 0080 130b 0000 1326 0080
00000100: 89a9 59ba b07c 0080 b45e 0080 e836 0000
00000110: a279 0080 ec5b 0000 1d57 0100 345f 0000
00000120: 9e4c 0080 6a9a 0000 3f55 0000 7ead 0080
00000130: 4311 0000 1f54 4b2f 729e 21be fd19 b33e
00000140: 2635 a7bd 3293 ebbc 9238 26bc 5028 edbd
00000150: 125f 5ebd af2d 0000 8227 0000 9c01 0080
00000160: c849 0000 883a 0080 34ee 293e 3f9f 55bd
00000170: 3b60 923d a527 b43d 78bd 8c3d e847 23be
00000180: 0a0b 0c3f ca1b 4d3e e227 0000 dab2 0000
00000190: ed63 0000 6d3f 0000 de68 0000 625c 0080
000001a0: d158 b4bc a06b 26bc 88e2 a93c 9b36 62bb
000001b0: a7e5 4dbd dcf0 9bbc 6faf 12bd d209 0080
000001c0: b695 0000 d94d 0080 cd1a 0000 5a1c 0080
000001d0: 5212 fe3b a89e 11b9 ae25 0080 7f04 0000
000001e0: 7229 0000 d88e 71b5 73c2 0f3a 1eec a4ba
000001f0: c004 0000 d05c 0000 df5d 0000 8371 0080
00000200: 0115 0080 6a0c a0a2 3e10 163d 1149 9b3c
00000210: afda 8d97 e23f 00bd f71d 85be 5559 883e
00000220: 3534 1ebd 155a 0000 6a20 0000 812e 0080
00000230: b143 0080 8891 0080 1ded 1699 8805 803c
00000240: 659d 1eb0 2eb7 89b1 1214 0000 c871 cf3c
00000250: 6d50 63b8 9888 fdbc 41ae 0000 6bf6 4e1e
00000260: 9854 0080 5b13 0000 0c52 0000 0800 0080
00000270: 47c9 44be d945 983e 77af 113d 5ef6 9fbd
00000280: 751f d5bd cc00 283d 8487 d63d bc16 0000
00000290: 4f18 0080 fd01 0080 6f25 0080 a917 0000
000002a0: 9a8e 19bd 3930 67bd 173e 1c3e 6c49 b63d
000002b0: ac2f c7bd 0376 2c3d 333e 67be 5230 9f3d
000002c0: fca2 0080 6f1a 0000 e674 0080 544e d195
000002d0: 7048 0000 75da 1a3e 01af b7a2 2f37 0080
000002e0: 0009 0000 6107 0000 711a 8799 bb00 0080
000002f0: e59e 94a5 913e 0080 1712 0080 0a24 0100
00000300: 4a26 0080 4514 0080 6a17 0000 b97c 4612
00000310: b225 0a93 273b ae0b 4e0f 3592 8400 2192
00000320: 34c5 f50e f99d 2d12 1a37 0080 8749 0000
00000330: a713 0080 5848 0000 0310 0080 d491 aa12
00000340: 2dbd 1bbc dc64 473e 85aa 213e 01a6 69be
00000350: a586 5abe add0 da3e fade a4bd b647 0000
00000360: f427 0080 3b29 0080 c0bd 0000 125d 0080
00000370: b732 cdbd ab45 fb3d 083e 0d3e 36e7 88bd
00000380: 6a40 34bd 9b5a 8c3e fc31 73be fe4c efbd
00000390: 1355 0080 8703 0000 cc9f 0000 a7c6 0080
000003a0: 6cd3 0080 a1bb c0bd 28b3 dbaf 3d22 0000
000003b0: 841d 0080 758b 0300 7797 71a2 c701 871c
000003c0: 2880 67b2 e33a 0080 f46b 0000 1394 0100
000003d0: b829 0200 0544 0080 191b 738b 5555 e2b6
000003e0: 240b 0bad 912f c2a1 0baa 5fab 902e 6135
000003f0: df61 85b3 7ab4 25b9 5558 0080 237e 0000

gnn.gnn_layer.edge_func.0.bias f4 [64]
0.09458892 -0.0001339927 -0.020514436 0.10910447 -0.018135045 -2.7397612e-10 0.1632665 -0.13331208
-0.01546973 -0.0016188739 -0.028476628 -0.01309357 0.011016673 0.1713747 -2.1645669e-15 9.040117e-28
0.09547676 0.089868896 -2.8520137e-07 -0.00073645206 -0.006629958 0.12983444 -0.07956375 0.016150182
0.16430108 -4.548959e-05 -0.04539242 -8.10976e-23 -0.0005986904 -5.7772877e-06 -2.0114182e-06 0.002478648
-0.007775816 -0.004079468 -0.0015664803 -0.0048078117 -4.8548435e-07 0.27989498 -0.039928187 0.066750266
-0.003184933 -0.00011846395 0.016006527 -0.030682255 0.0013988332 0.009234522 0.12531486 -0.19033578
-0.11245782 -0.10013081 -9.432448e-05 0.008223517 0.05878748 -0.032819506 -0.062650464 -0.031652447
0.07817559 0.04658547 -0.013025531 -0.07435515 -0.026540566 0.10369913 -0.021133823 -0.026097668
00000000: d6b7 c13d 6480 0cb9 e40d a8bc 2a72 df3d
00000010: f28f 94bc b69e 96af 552f 273e f682 08be
00000020: c074 7dbc 6530 d4ba d147 e9bc 6a86 56bc
00000030: 477f 343c d97c 2f3e 36f9 1ba7 123f 8f12
00000040: 5289 c33d 2f0d b83d c71d 99b4 760e 41ba
00000050: 1e40 d9bb 52f3 043e 52f2 a2bd 634d 843c
00000060: 8b3e 283e 13cc 3eb8 67ed 39bd fc14 c49a
00000070: 6ff1 1cba 86da c1b6 e7fb 06b6 d070 223b
00000080: 46cc febb 0fad 85bb 5b52 cdba d98a 9dbb
00000090: 3b52 02b5 654e 8f3e bd8b 23bd 5db4 883d
000000a0: 4fba 50bb d96f f8b8 1f20 833c 5a59 fbbc
000000b0: 0e59 b73a 644c 173c 8a52 003e 62e7 42be
000000c0: 4950 e6bd 6211 cdbd 12d0 c5b8 eebb 063c
000000d0: 24cb 703d bf6d 06bd e34e 80bd ffa5 01bd
000000e0: 861a a03d 68d0 3e3d 0969 55bc 8347 98bd
000000f0: 9a6b d9bc 3660 d43d d720 adbc c7ca d5bc

gnn.gnn_layer.edge_func.2.weight f4 [1024, 64]
-0.005226089 3.022e-41 0.00020416561 0.0025486562 -0.0045940853 -5.682193e-26 0.002399167 -0.00837225
5.0860927e-17 -7.9077e-41 -0.0026482306 2.9398e-41 0.0025331639 0.006922383 -6.147386e-16 -2.9014923e-30
-0.0031868264 0.0014681709 2.788e-41 6.767e-42 -7.24761e-31 -0.00080762734 -0.0010882921 0.0020832717
0.0034922883 -3.3833e-41 -0.00060729467 4.2539e-41 -1.9243e-41 -8.460197e-25 1.2010573e-08 7.3077125e-08
6.0994e-41 0.0014418483 -3.1626e-41 -1.1574615e-10 -7.4098e-41 0.004280109 -0.0024401592 0.0033112757
-3.3729e-41 3.6041e-41 0.00068884954 0.0013359574 -0.0011692694 -0.0009544971 -0.007469609 5.4273062e-11
0.0005907229 -0.008592508 -8.304e-42 0.005817212 -0.0038524044 -0.0017439867 -0.0017404137 -0.009160729
-0.009610148 -0.0030212668 -6.304597e-07 -0.00021766577 -0.001589954 0.0006597181 -0.008353356 0.004741332
0.061253622 1.57e-41 0.0017706489 0.0016366956 0.0061784703 6.203348e-24 -0.025885465 0.042754304
3.1416819e-06 2.0812e-41 0.000113303744 -7.527188e-36 -0.019244108 -0.013685581 3.1973e-41 -9.456359e-30
0.018290957 0.0033749482 1.09e-42 -1.764e-41 1.1690986e-13 0.027695261 0.018369861 -0.011304164
-0.0027792638 -2.1489e-41 0.014764003 1.7665e-41 -1.7818e-41 3.2974518e-23 3.7575865e-07 1.2956157e-05
1.4307e-41 -0.0010768438 1.658e-42 -6.293947e-05 5.1359e-41 -0.026569506 0.011102146 0.026661593
-1.7006e-41 -7.05e-42 -0.0008231072 0.018566467 0.012872634 -0.0023006483 0.06459907 5.3667386e-06
0.009276481 0.045274626 5.636e-42 -0.01974384 0.011078908 0.0096869515 0.01844427 0.05194497
0.053797033 0.0033475307 -3.598095e-05 -0.0016969166 0.003706848 -0.013880791 0.05421225 -0.025080856
-0.0029165675 -2.5e-43 -0.0002015368 0.0005222365 -0.0026682238 -1.2936472e-25 0.0053153187 -0.002946781
-1.3707639e-17 1.15e-42 7.22839e-05 -1.1063e-41 0.0016400823 0.004693875 5.5964e-41 -2.587942e-29
0.001290624 0.00092573505 6.3426e-41 -5.3332e-41 2.3426702e-31 -0.000546595 2.1227548e-05 0.0017187899
0.0015935134 -2.2005e-41 -0.0014801342 -2.2352e-41 -1.319e-41 1.0984065e-24 -2.2869626e-10 5.482199e-07
-4.12e-43 1.4943456e-05 2.219e-41 -6.754748e-11 5.9334e-41 0.0069704796 -0.0013164321 -3.1683492e-05
1.8979e-41 -2.0309e-41 0.00039305267 -0.0009078751 0.00010965526 -4.4811677e-05 -0.0026679237 2.2814375e-10
0.0003778777 -0.0028209924 -2.0394e-41 0.0007307156 0.00012230745 0.00031952385 0.00013036175 -0.006079829
-0.007007074 0.00012660697 -3.2577032e-07 0.0003196766 0.00026553276 0.0007746663 -0.006968146 0.0053635957
0.07562419 -2.3704e-41 6.423601e-05 -0.07170572 0.1052118 2.9386108e-24 -0.04982354 0.10694721
5.7756126e-11 -1.2557e-41 0.03700788 2.1510016e-25 -0.03540235 -0.05911755 4.5237e-41 7.871087e-29
0.034895748 -0.03371634 4.355e-42 -8.224e-42 4.9920785e-14 -0.017169954 0.0072137294 -0.02474555
-0.07415198 -2.5439e-41 0.067409255 -1.31e-41 1.669e-41 1.6407717e-23 -9.3503184e-07 1.3850193e-05
-1.7567e-41 -0.00018886066 -1.3581e-41 -0.00012174395 -3.45e-41 -0.042744383 0.023732575 -0.023974529
-2.0572e-41 1.047e-42 -0.012276967 -0.041665662 0.007880556 0.0123401955 0.04771364 3.4023124e-05
0.0033453344 0.101360865 -9.597e-42 -0.017499821 0.05162257 0.00132963 0.010212186 0.13573098
0.11830637 0.035375286 5.9263562e-05 -0.005771189 0.0023764083 -0.09952137 0.10106354 -0.06911182
00000000: 9d3f abbb 3e54 0000 4a15 5639 5b07 273b
00000010: fb89 96bb 2daf 8c95 583b 1d3b c32b 09bc
00000020: fc8d 6a24 6fdc 0080 f08d 2dbb f351 0000
00000030: 7003 263b 28d5 e23b b42f 31a6 a365 6b8e
00000040: 13da 50bb a46f c03a b84d 0000 dd12 0000
00000050: ca32 6b8d f4b6 53ba 06a5 8eba 8087 083b
00000060: e0de 643b 505e 0080 db32 1fba 9576 0000
00000070: a435 0080 4bea 8297 0f57 4e32 93ee 9c33
00000080: 07aa 0000 67fc bc3a 2958 0080 4a87 feae
00000090: 8ece 0080 2840 8c3b 14eb 1fbb fd01 593b
000000a0: 065e 0080 7864 0000 e993 343a 4b1b af3a
000000b0: 2c42 99ba 3737 7aba 9fc3 f4bb 09b2 6e2e
000000c0: beda 1a3a 97c7 0cbc 2617 0080 509e be3b
000000d0: 9f78 7cbb 7c96 e4ba 981e e4ba e216 16bc
000000e0: e273 1dbc 7200 46bb dc3c 29b5 363d 64b9
000000f0: 0166 d0ba eff0 2c3a 84dc 08bc 2d5d 9b3b
00000100: 14e5 7a3d c42b 0000 1e15 e83a 6486 d63a
00000110: c474 ca3b fcfa ef18 c10d d4bc 231f 2f3d
00000120: afd5 5236 043a 0000 7c9d ed38 e915 2085
00000130: d2a5 9dbc 7d39 60bc 2159 0000 39cc 3f8f
00000140: ebd6 953c 3c2e 5d3b 0a03 0000 2c31 0080
00000150: f9a0 032a 2ce1 e23c 647c 963c 1a35 39bc
00000160: 4f24 36bb e73b 0080 b8e4 713c 3e31 0000
00000170: ab31 0080 7a74 1f1a e0bb c934 455e 5937
00000180: e227 0000 e224 8dba 9f04 0000 5ffe 83b8
00000190: 2b8f 0000 4ba8 d9bc c6e5 353c 6a69 da3c
000001a0: 682f 0080 a713 0080 cac5 57ba b418 983c
000001b0: bee7 523c 79c6 16bb 844c 843d ef13 b436
000001c0: 62fc 173c e371 393d b60f 0000 d5bd a1bc
000001d0: 4f84 353c 05b6 1e3c 7018 973c 40c4 543d
000001e0: 475a 5c3d 3f62 5b3b 40ea 16b8 136b deba
000001f0: 97ee 723b 426c 63bc aa0d 5e3d 5e76 cdbc
00000200: e223 3fbb b200 0080 9f53 53b9 b3e6 083a
00000210: 5edd 2ebb 5125 2096 202c ae3b c81e 41bb
00000220: 7fdc 7ca3 3503 0000 2097 9738 d71e 0080
00000230: 08f8 d63a 14cf 993b 019c 0000 6839 0390
00000240: 282a a93a 07ad 723a ceb0 0000 ab94 0080
00000250: 490c 980c 5f49 0fba d011 b237 0549 e13a
00000260: 70dd d03a 573d 0080 1001 c2ba 4f3e 0080
00000270: c524 0080 5df8 a917 4674 7baf 6229 1335
00000280: 2601 0080 a8b5 7a37 db3d 0000 da89 94ae
00000290: 66a5 0000 9f68 e43b 228c acba e4e3 04b8
000002a0: e834 0000 9d38 0080 a312 ce39 77fe 6dba
000002b0: b8f6 e538 2cf4 3bb8 55d8 2ebb c2d8 7a2f
000002c0: e31d c639 66e0 38bb da38 0080 7e8d 3f3a
000002d0: a83f 0039 c485 a739 b7b1 0839 4d39 c7bb
000002e0: 999b e5bb cdc1 0439 88e5 aeb4 449a a739
000002f0: 3437 8b39 fa12 4b3a 0c55 e4bb 1ac1 af3b
00000300: dbe0 9a3d 1442 0080 72b6 8638 73da 92bd
00000310: 4979 d73d 2f5d 6318 c513 4cbd 2407 db3d
00000320: 9e03 7e2e 0123 0080 9395 173d fb23 8516
00000330: 0e02 11bd 3e25 72bd 1a7e 0000 468e c710
00000340: d8ee 0e3d 251a 0abd 240c 0000 ed16 0080
00000350: bfd2 6029 01a8 8cbc 2661 ec3b 2eb7 cabc
00000360: fedc 97bd ea46 0080 dd0d 8a3d 8424 0080
00000370: 862e 0000 8aaf 9e19 e6fe 7ab5 205e 6837
00000380: f830 0080 e608 46b9 dc25 0080 c950 ffb8
00000390: 2c60 0080 bc14 2fbd d16a c23c 3b66 c4bc
000003a0: 5939 0080 eb02 0000 5525 49bc 9da9 2abd
000003b0: 731d 013c 882e 4a3c 616f 433d 0db4 0e38
000003c0: 663d 5b3b 4996 cf3d c11a 0080 c95b 8fbc
000003d0: 3072 533d fb46 ae3a 0351 273c 10fd 0a3e
000003e0: 9c4a f23d ade5 103d c491 7838 3e1c bdbb
000003f0: 84bd 1b3b dcd1 cbbd 67fa ce3d 7f8a 8dbd

gnn.gnn_layer.edge_func.2.bias f4 [1024]
0.0027435254 0.048431195 0.0104025565 -0.014246417 -0.015407244 0.034498077 0.05583642 0.029887697
0.0031259418 -0.12817341 0.0027127296 0.1547653 -0.0014505378 -0.12475136 0.020082738 -0.007709984
-0.07399427 -0.00021055501 -0.013130696 0.05136926 0.012829855 0.08851639 -0.042628605 -0.010970911
0.12618402 0.046766236 0.010226957 0.08266049 0.007556061 0.0816998 -0.0052133086 -0.0117838625
-0.032465626 0.20770985 -0.026327748 0.015668387 -0.01920366 0.12954086 -0.29858986 -0.024331532
-0.025689181 0.12098879 -0.003645182 -0.11560298 -0.057536405 0.12783556 -0.061490823 -0.05703609
0.06035307 -0.0015654177 -0.01346132 -0.15695973 -0.031876814 0.18830843 -0.033466894 -0.06319824
-0.09714382 -0.0313089 -0.09833986 -0.02533202 -0.13334732 -0.011063532 -0.15938088 -0.05561349
0.01782119 -0.069313996 0.0029479307 -0.17613716 0.09322621 0.03147968 0.12870432 -0.0037421044
-0.0016473117 0.07361759 0.012286413 -0.06283218 0.010710101 0.049223825 0.02605838 -0.0148790255
0.07573754 -0.0010578044 -0.0026063817 0.009557035 0.05231466 -0.114531666 0.14694381 -0.0073510096
-0.12193637 0.0064228578 0.01391375 -0.09761312 0.06709264 -0.07573922 0.07402535 0.059481297
-0.024194798 0.15218674 -0.008553473 0.12958466 -0.059202246 0.055628575 -0.018749846 -0.024268767
-0.01617443 0.16199529 -0.0030248626 -0.23678508 -0.051580675 0.1149173 -0.039695047 -0.024732392
0.05444996 -0.0002180169 0.00025273487 -0.21522321 -0.10409509 0.091141276 -0.24048057 -0.026182493
-0.05805152 -0.06541837 -0.03324583 -0.079581164 -0.22348146 0.10662152 -0.046350013 -0.048135515
-0.06907515 0.15139863 -0.04671765 0.0635234 -0.03569349 0.16092876 0.009525866 -0.03684377
-0.058806743 0.14078599 -0.030479847 -0.26260492 -0.053242113 0.23591842 -0.018024234 -0.065378904
0.061266117 -0.004241188 -0.022207357 -0.28156006 -0.09093934 0.089142956 -0.32873878 -0.013027354
0.06993375 -0.10474087 -0.04046236 -0.29955214 -0.2836037 0.02797771 -0.119145185 -0.07213623
0.002788312 -0.13636054 -0.004744757 0.097640075 -0.096388735 0.07447927 -0.13529186 0.021727461
0.008552147 0.08606482 -0.0043055746 -0.0068215406 -0.07114821 -0.19268715 0.0034938033 -0.0022310498
-0.03148821 0.00035481993 0.008595482 0.06204092 -0.044045456 0.046490483 -0.14104438 0.008989286
0.09826874 -0.032562353 0.013133886 0.15637454 -0.14111996 0.13650247 -0.02697364 -0.20715366
0.02092557 -0.0264646 0.0054997895 0.045447763 0.059471328 -0.04502982 -0.20610163 -0.025536878
0.007894782 -0.06304215 0.0022817114 0.123058304 -0.06346247 -0.15162735 0.0066651474 0.020959886
-0.09657859 0.00018185204 0.004639911 0.10317293 -0.052174967 0.0029618556 0.00093911344 -0.017354442
0.043882392 0.016100742 -0.019580781 0.08094878 0.030175889 0.08304455 -0.087930776 -0.07666882
0.010276952 0.053889234 0.004705688 0.15098897 -0.11993396 0.043323744 -0.23521815 -0.003967529
-0.010358455 -0.010509353 0.019042712 -0.23088789 -0.08346696 0.17148906 -0.04563272 0.001374388
-0.08138881 -0.00032543013 0.009572486 -0.26165238 -0.027303256 0.15276997 -0.10018984 -0.023203297
0.11446223 -0.01624803 -0.047805525 -0.09202677 -0.21528906 -0.009384451 -0.050159708 -0.027691234
00000000: b8cc 333b ca5f 463d 7c6f 2a3c ce69 69bc
00000010: aa6e 7cbc db4d 0d3d bbb4 643d 0bd7 f43c
00000020: 9adc 4c3b e43f 03be 0dc8 313b cb7a 1e3e
00000030: f91f beba a47d ffbd 8e84 a43c 09a4 fcbb
00000040: 4f8a 97bd 6ec8 5cb9 2122 57bc 9368 523d
00000050: 5034 523c 1548 b53d 559b 2ebd 56bf 33bc
00000060: 6236 013e f48d 3f3d f78e 273c e749 a93d
00000070: d598 f73b 3a52 a73d 67d4 aabb 1a11 41bc
00000080: adfa 04bd e4b1 543e 4aad d7bc fd5a 803c
00000090: fe50 9dbc 5ca6 043e c5e0 98be ec52 c7bc
000000a0: 1e72 d2bc f9c8 f73d 01e4 6ebb 41c1 ecbd
000000b0: 4bab 6bbd 53e7 023e cddd 7bbd ad9e 69bd
000000c0: c834 773d b42e cdba de8c 5cbc 0dba 20be
000000d0: 4391 02bd edd3 403e 9514 09bd 146e 81bd
000000e0: 57f3 c6bd c33d 00bd 6966 c9bd 1985 cfbc
000000f0: 338c 08be d143 35bc be34 23be f9ca 63bd
00000100: bffd 913c 7ff4 8dbd 1232 413b 4d5d 34be
00000110: 62ed be3d d6f0 003d 11cb 033e 183e 75bb
00000120: 9cea d7ba d2c4 963d f44c 493c 28ae 80bd
00000130: 6b79 2f3c ec9e 493d 6278 d53c 28c7 73bc
00000140: 491c 9b3d 07a6 8aba d4cf 2abb 1c95 1c3c
00000150: e647 563d 948f eabd 7078 163e bde0 f0bb
00000160: c7b9 f9bd d676 d23b 7ff6 633c 63e9 c7bd
00000170: de67 893d 2a1d 9bbd 9a9a 973d a9a2 733d
00000180: 2b34 c6bc d7d6 1b3e de23 0cbc d7b1 043e
00000190: 0e7e 72bd cada 633d 4799 99bc 4bcf c6bc
000001a0: 3d80 84bc 18e2 253e c63c 46bb ca77 72be
000001b0: 4246 53bd c359 eb3d 4697 22bd 969b cabc
000001c0: ec06 5f3d 779b 64b9 8081 8439 7963 5cbe
000001d0: ce2f d5bd 47a8 ba3d 8a40 76be ab7c d6bc
000001e0: 6ec7 6dbd 11fa 85bd c82c 08bd 73fb a2bd
000001f0: 53d8 64be 625c da3d 83d9 3dbd bf29 45bd
00000200: 4677 8dbd 3e08 1b3e 025b 3fbd 8e18 823d
00000210: 5633 12bd 82ca 243e 6112 1c3c 7ee9 16bd
00000220: 57df 70bd 342a 103e dfb0 f9bc 2774 86be
00000230: 6714 5abd 9994 713e 8fa7 93bc 60e5 85bd
00000240: 2ef2 7a3d aaf9 8abb 34ec b5bc a428 90be
00000250: 683e babd 9590 b63d 7350 a8be af70 55bc
00000260: 6d39 8f3d 6282 d6bd dcbb 25bd e65e 99be
00000270: 8134 91be 8331 e53c 6402 f4bd 29bc 93bd
00000280: 1dbc 363b 19a2 0bbe e879 9bbb 85f7 c73d
00000290: 7567 c5bd 9688 983d f389 0abe cafd b13c
000002a0: 4e1e 0c3c c142 b03d c715 8dbb 3b87 dfbb
000002b0: 27b6 91bd c84f 45be 4bf8 643b ce36 12bb
000002c0: c8f9 00bd 2007 ba39 11d4 0c3c 9f1e 7e3d
000002d0: 0269 34bd ce6c 3e3d f06d 10be cc47 133c
000002e0: 1f41 c93d 1a60 05bd 832f 573c a620 203e
000002f0: c081 10be 4ec7 0b3e d3f7 dcbc 1720 54be
00000300: 1a6c ab3c 4acc d8bc 9437 b43b 6f27 3a3d
00000310: 3598 733d 3071 38bd 4e0c 53be b732 d1bc
00000320: 1e59 013c 3e1c 81bd c488 153b fe05 fc3d
00000330: 9df8 81bd 3344 1bbe 4f67 da3b 11b4 ab3c
00000340: ffca c5bd 89af 3e39 650a 983b 544c d33d
00000350: 6bb5 55bd b11b 423b d62e 763a e72a 8ebc
00000360: 06be 333d b4e5 833c e067 a0bc 79c8 a53d
00000370: 6d33 f73c 4313 aa3d 0d15 b4bd 8b04 9dbd
00000380: a960 283c f5ba 5c3d 2c32 9a3b da9c 1a3e
00000390: f09f f5bd 3d74 313d 07dd 70be 0c02 82bb
000003a0: 82b6 29bc 6c2f 2cbc 76ff 9b3c e06d 6cbe
000003b0: baf0 aabd d49a 2f3e 60e9 3abd cf24 b43a
000003c0: 2daf a6bd 7e9e aab9 ebd5 1c3c 4df7 85be
000003d0: 14ab dfbc bb6f 1c3e 5530 cdbd d714 bebc
000003e0: 2c6b ea3d 971a 85bc bacf 43bd 8878 bcbd
000003f0: bc74 5cbe 3ec1 19bc 4474 4dbd bad8 e2bc

gnn.gru.weight_ih_l0 f4 [96, 32]
0.011245569 0.033373386 0.0030121733 -0.027477674 -0.007396129 0.020918388 -0.019714998 0.0070187263
-0.0028534806 0.028532013 -0.0022816025 -0.0057227868 0.008748231 0.11008978 -0.0076927273 0.00028375819
0.009600943 -1.392131e-10 0.0003177774 -0.0006408456 0.00879878 0.05902928 0.03690579 -0.0013428022
0.013686343 -0.016298018 0.020487562 0.06126449 0.0023645342 0.03199696 -0.014178111 0.014329548
0.0014293004 0.038348857 0.00345097 0.052413717 0.016992541 0.021022307 0.03354172 -0.0032362696
0.0056074513 -0.0039349403 -0.0013341649 0.023636555 0.039183117 0.03364418 0.009133614 -0.006197927
-0.003936647 5.264361e-15 0.0003026808 0.0068872697 0.0051352144 0.05051757 0.047361206 0.0021668717
0.023148451 -0.01659913 0.011918105 0.069443084 0.019404406 0.037409235 0.019631363 0.02545888
-0.004214232 0.014420442 0.00016851991 0.011260686 -0.038291305 0.006330732 0.044536322 -0.0011967607
-0.00086857396 0.008375363 -0.0014999564 0.051703613 0.017265517 0.03221701 -0.0070208935 0.0072050523
-0.0002949097 7.199562e-15 0.00039700954 -0.00022724592 -0.0020631135 0.027645202 -0.074713044 0.011760231
0.07122358 -0.025892708 0.01025727 0.0030500032 -0.033705138 0.079953685 -0.021866117 0.01896287
0.0074635167 0.08934526 0.0004193088 -0.024527851 0.027138324 0.030642264 0.018022142 0.00455863
-0.00048321826 0.04688625 -0.00051289843 0.012293137 0.015147313 0.07106714 0.009232335 0.0015001461
0.019558463 -5.6338236e-11 -0.00086413854 0.03176466 -0.0068720896 0.038306534 0.02087448 0.020222897
0.07525082 0.006337906 0.0125937015 -0.007904555 0.014279383 0.08434815 -0.01053203 -0.0053702467
0.0055950023 0.0137760695 -0.0009334251 0.0039004527 -0.014828629 0.021468334 -0.024835685 0.00074112637
-0.0030708113 0.028622564 0.0006414767 -0.00029050582 0.026699482 0.049587645 -0.010785385 -0.0012429199
0.011535859 1.0828854e-16 -1.03048515e-05 0.0148509 0.0046148025 -0.0018931667 0.014280385 0.01634214
0.042810116 0.004535502 0.030976737 0.022796815 -0.005224651 0.044005957 -0.0026842025 -0.0021321462
0.00056875753 0.107189566 -0.0006140537 0.15804732 -0.02985101 0.023515038 0.08316624 0.004844885
-0.003466477 0.041515775 -0.0030203187 0.023468468 0.0679365 0.06575686 -0.0169086 -0.006769237
0.021510141 -1.8921167e-08 -0.0006019233 0.0991299 0.0058096475 0.11641858 0.067134365 0.0015248071
0.09237494 -0.0044590915 -0.0026058955 0.075961165 0.04944365 0.14392099 0.0038986406 0.012919395
0.004737417 0.057444636 0.00064295734 0.010443987 -0.009126976 0.037062272 0.00934157 0.012475045
-0.0026526581 0.016595704 -0.0025708887 0.042077646 0.028557794 0.09468112 -0.012809696 -0.0022862442
0.013501308 -4.758633e-15 -4.0143826e-05 0.10689856 0.01759361 0.11590044 0.074658416 -0.0013674581
0.11017914 -0.025351679 0.009867419 0.105196945 0.019750858 0.12464878 0.009203255 0.0729353
-0.003131534 0.041842144 -0.00096825656 0.044478342 -0.027561527 0.031254724 0.026732925 0.002753037
-0.004748837 0.0031004662 -0.00012233078 0.01744202 0.029343892 0.0040905005 0.0016739891 -0.002755971
-0.009830223 1.5957931e-13 1.5184663e-05 0.04112545 0.0053411066 0.036472127 0.016382167 0.010204271
0.012887262 -0.0030592398 0.019447474 0.06469779 -0.032727476 0.048115324 0.0043172766 0.024790948
00000000: 563f 383c 88b2 083d e267 453b dc18 e1bc
00000010: 3a5b f2bb 0a5d ab3c 5981 a1bc 58fd e53b
00000020: 7601 3bbb f8bb e93c f086 15bb 3786 bbbb
00000030: be54 0f3c c076 e13d 4613 fcbb 61c5 9439
00000040: 464d 1d3c 0111 19af 5c9b a639 6cfe 27ba
00000050: c228 103c b0c8 713d 872a 173d f700 b0ba
00000060: af3c 603c 6c83 85bc 88d5 a73c 79f0 7a3d
00000070: 4df6 1a3b 3f0f 033d 4f4b 68bc 7bc6 6a3c
00000080: 5d57 bb3a b113 1d3d ab29 623b c4af 563d
00000090: f133 8b3c f936 ac3c 0b63 093d 9817 54bb
000000a0: b6be b73b acf0 80bb 25df aeba 73a1 c13c
000000b0: 7a7e 203d 7bce 093d 27a5 153c fb17 cbbb
000000c0: fdfe 80bb 29ab bd27 21b1 9e39 9bae e13b
000000d0: 4d45 a83b 83eb 4e3d d3fd 413d 1302 0e3b
000000e0: d2a1 bd3c e6fa 87bc 2844 433c 2d38 8e3d
000000f0: fdf5 9e3c 6d3a 193d f4d1 a03c 248f d03c
00000100: 8a17 8abb b843 6c3c b8b4 3039 be7e 383c
00000110: 58d7 1cbd 0772 cf3b b86b 363d a0dc 9cba
00000120: 03b1 63ba d238 093c 2f9a c4ba 2bc7 533d
00000130: 6a70 8d3c fcf5 033d 860f e6bb 5c18 ec3b
00000140: 1c9e 9ab9 1fb2 0128 b825 d039 dd48 6eb9
00000150: 4d35 07bb 3178 e23c 2703 99bd fcad 403c
00000160: abdd 913d f21c d4bc 1c0e 283c 90e2 473b
00000170: 660e 0abd c2be a33d 9220 b3bc 0558 9b3c
00000180: 8490 f43b a6fa b63d add6 db39 a2ee c8bc
00000190: 3151 de3c 7c05 fb3c 2ca3 933c 8f60 953b
000001a0: 7558 fdb9 cc0b 403d 0874 06ba 2769 493c
000001b0: 6f2c 783c a68b 913d 3843 173c 8da0 c43a
000001c0: 1239 a03c 37c7 77ae 5b87 62ba a91b 023d
000001d0: 442f e1bb 50e7 1c3d f500 ab3c 7daa a53c
000001e0: 1a1d 9a3d 35ae cf3b d055 4e3c 1b82 01bc
000001f0: 13f4 693c b9be ac3d 898e 2cbc e5f8 afbb
00000200: 4856 b73b 06b5 613c 19b1 74ba bd9e 7f3b
00000210: c7f3 72bc 5cde af3c 3574 cbbc 2648 423a
00000220: aa3f 49bb de79 ea3c c628 283a 084f 98b9
00000230: dfb8 da3c 6a1c 4b3d 2fb5 30bc 79e9 a2ba
00000240: e600 3d3c 45b2 f924 00e3 2cb7 3051 733c
00000250: c537 973b 2224 f8ba 47f8 693c f4df 853c
00000260: a959 2f3d 8c9e 943b edc2 fd3c 63c0 ba3c
00000270: 8d33 abbb 973f 343d 72e9 2fbb 7abb 0bbb
00000280: ac18 153a 3486 db3d 72f8 20ba 28d7 213e
00000290: 1b8a f4bc 9ca2 c03c 1053 aa3d d7c1 9e3b
000002a0: d52d 63bb 720c 2a3d 8af0 45bb f240 c03c
000002b0: 4b22 8b3d 88ab 863d e883 8abc 7ad0 ddbb
000002c0: 0936 b03c 1688 a2b2 64ca 1dba 9e04 cb3d
000002d0: db5e be3b dd6c ee3d be7d 893d 09dc c73a
000002e0: 132f bd3d 921d 92bb acc7 2abb 8791 9b3d
000002f0: 6d85 4a3d 0660 133e 5680 7f3b dfab 533c
00000300: 563c 9b3b 114b 6b3d 238c 283a 421d 2b3c
00000310: 5089 15bc 9cce 173d 620d 193c 2264 4c3c
00000320: 38d8 2dbb b7f3 873c 5b7c 28bb 9c59 2c3d
00000330: 09f2 e93c 2de8 c13d c2df 51bc d0d4 15bb
00000340: 9734 5d3c a472 aba7 1b60 28b8 a2ed da3d
00000350: 7920 903c 365d ed3d 83e6 983d 483c b3ba
00000360: 9aa5 e13d 53ae cfbc f4aa 213c 7f71 d73d
00000370: 8dcc a13c dc47 ff3d 40c9 163c 1a5f 953d
00000380: 6c3a 4dbb ab62 2b3d 99d2 7dba ec2e 363d
00000390: b6c8 e1bc f404 003d 02ff da3c 4c6c 343b
000003a0: 229c 9bbb 3131 4b3b eb45 00b9 91e2 8e3c
000003b0: 9a62 f03c 9b09 863b c169 db3a 859d 34bb
000003c0: f20e 21bc 9bab 332a a2c1 7e37 2973 283d
000003d0: 7304 af3b cc63 153d e533 863c d12f 273c
000003e0: 1825 533c 877d 48bb 4f50 9f3c 4680 843d
000003f0: 3f0d 06bd 9314 453d f177 8d3b 6316 cb3c

gnn.gru.weight_hh_l0 f4 [96, 32]
0.02435049 -0.028705146 0.015845928 -0.0010584708 -0.02753963 -0.00074983394 0.013032426 0.0040635145
-0.01670088 0.031788465 -0.0048313206 0.00039706982 -0.0011709189 0.002054742 0.007947478 0.007821093
0.0091162985 0.009026673 -0.0028006758 -0.008986103 -0.014662034 -0.02156319 -0.015206913 0.01594764
-0.0022758972 0.00029997263 0.0067977733 0.006671403 -0.007022373 0.033682838 0.046866685 0.010958326
0.00967015 0.0068712705 0.008078545 0.008138206 0.014994163 -0.016807608 0.008798688 -0.0023547928
0.012108619 -0.006140034 0.024379216 0.0080785435 0.006034732 0.01376638 0.010937292 0.014131027
0.012255048 0.012869723 0.006834376 -0.015506714 0.019040452 0.013386507 -0.004210899 0.014102628
0.019185036 0.00794161 -0.0089057265 0.027166931 -0.015692176 -0.0041969707 0.008086731 -0.013132466
0.0075660446 -0.00082902575 -0.027424958 0.009015454 -0.010426333 -0.005122292 0.0023803003 -0.0013768201
0.010652478 -0.01219814 -0.014068186 -0.0050020902 -0.0040597524 -0.007983791 -0.0027058022 -0.0007641384
-0.009080377 -0.020837698 0.0049916515 0.0048633497 0.0063156853 -0.0027547432 0.0022286002 0.014263111
-0.006857121 0.005943327 -0.009143371 0.0011582366 -0.009516826 -0.012551993 -0.0073604854 -0.0011391094
0.0142009705 0.011081888 0.014088367 -0.00022402013 0.010132654 0.003250469 0.003989453 0.0067903656
0.009377175 0.024318716 0.0041548368 0.010537964 0.0068070805 0.0048393803 0.016466917 0.0053687687
0.011782793 0.009994859 0.008987341 -0.015547637 0.009442754 0.009703442 -0.013630593 0.009447902
-0.0018713942 -0.0040852623 0.0042820075 0.011743083 -0.0054018837 0.011836726 0.021050446 -3.161946e-05
-0.0008546401 -0.013319063 0.015295341 0.001518042 0.0046386686 0.005843292 -0.0048554353 -0.007715066
0.0016709509 0.010075583 0.006755667 0.00745537 -0.010892816 0.0056070285 -0.0024617366 -0.017837783
0.010852603 0.007194276 0.011171407 0.0036623164 -0.025653634 -0.0073966817 -0.0063156723 0.003868811
0.0015847295 -0.008661983 0.008041645 -0.02353636 -0.0037420262 0.0026845122 0.0063857534 0.0035260022
-0.024491994 0.010610245 0.009171378 -0.0046529197 0.004763722 -0.008859428 -0.03444826 0.0032901238
0.0064032325 -0.020228488 -0.0062894076 -0.0054537714 -0.0129130175 -0.010553149 -0.032242317 0.002970052
-0.0014523431 0.007970041 -0.016345885 0.0041474462 0.008177996 0.016099177 0.010554509 -0.025691206
-0.0029889753 0.006066348 -0.004801911 -0.01460584 -0.011868768 -0.03269202 -0.01920391 -0.024690723
0.00045625714 0.0023075563 0.008770969 0.004565631 0.016990304 -0.012795093 -0.02105343 0.0043594213
-0.0051912926 -0.002974334 -0.004582614 0.005144097 -0.020924574 0.0008940491 -0.026268005 -0.009041208
0.019561494 -0.022561291 0.005232635 -0.015348879 0.0013224481 0.003456931 -0.0044863042 -0.007942952
-0.019747261 -0.009646797 -0.013699483 0.004823817 -0.011736556 -0.0028687771 -0.011225375 -0.0065013967
0.0046113273 -0.0018133906 0.011524085 0.014313134 0.0282353 -0.0023421452 0.0040445793 0.021821013
-0.019315787 0.00878456 -0.0027004327 0.017509839 0.0010092158 -0.0023110637 0.0061645885 -0.004857195
0.0027002047 -0.004483852 0.0070872363 0.0018227444 -0.024560086 -0.008469344 -0.0025170995 0.0030470104
-0.0075443597 -0.00065985636 0.0046461346 -0.011518487 -0.005280691 0.0113665955 0.008940772 -0.0058354414
00000000: ae7a c73c 0e27 ebbc 52cf 813c 63bc 8aba
00000010: ca9a e1bc 8190 44ba f585 553c 3b27 853b
00000020: 49d0 88bc 9f34 023d 0e50 9ebb cf2d d039
00000030: 8579 99ba daa8 063b 2436 023c 0b24 003c
00000040: 875c 153c 9ce4 133c 8b8b 37bb 733a 13bc
00000050: 0739 70bc 49a5 b0bc 6b26 79bc a0a4 823c
00000060: 3827 15bb a545 9d39 dbbf de3b c99b da3b
00000070: ef1b e6bb 04f7 093d 48f7 3f3d 8d8a 333c
00000080: 8c6f 1e3c 6528 e13b e05b 043c 1c56 053c
00000090: 14aa 753c 1cb0 89bc 5f28 103c de52 1abb
000000a0: 3b63 463c 5732 c9bb ecb6 c73c de5b 043c
000000b0: 00bf c53b 628c 613c 5432 333c d385 673c
000000c0: 66c9 483c 88db 523c e7f2 df3b df0f 7ebc
000000d0: b9fa 9b3c 1453 5b3c 95fb 89bb b60e 673c
000000e0: f029 9d3c 871d 023c 53e9 11bc 2f8d de3c
000000f0: e18c 80bc be86 89bb 357e 043c 8e29 57bc
00000100: 95ec f73b fa52 59ba 4eaa e0bc 8eb5 133c
00000110: 36d3 2abc e6d8 a7bb d0fe 1b3b 6b76 b4ba
00000120: bb87 2e3c b5da 47bc 407e 66bc 93e8 a3bb
00000130: ac07 85bb 72ce 02bc d453 31bb 7650 48ba
00000140: ddc5 14bc d2b3 aabc 0291 a33b bc5c 9f3b
00000150: cff3 ce3b ec88 34bb b50d 123b d3af 693c
00000160: b3b1 e0bb 3ec0 c23b 14ce 15bc f9cf 973a
00000170: 76ec 1bbc e0a6 4dbc 3a30 f1bb 2b4e 95ba
00000180: 30ab 683c cf90 353c e5d2 663c f2e6 6ab9
00000190: 6e03 263c d205 553b f5b9 823b b781 de3b
000001a0: b9a2 193c 0b38 c73c 4c25 883b 6da7 2c3c
000001b0: ee0d df3b aa93 9e3b a1e5 863c 7fec af3b
000001c0: 9e0c 413c 7ac1 233c a43f 133c 84bb 7ebc
000001d0: c8b5 1a3c 30fb 1e3c da52 5fbc 60cb 1a3c
000001e0: 9249 f5ba aadd 85bb 1550 8c3b 0f66 403c
000001f0: 4902 b1bb d4ee 413c fc71 ac3c 239f 04b8
00000200: ed09 60ba 3338 5abc 4f99 7a3c 09f9 c63a
00000210: f9ff 973b 1679 bf3b 581a 9fbb aace fcbb
00000220: cf03 db3a 0f14 253c a45e dd3b 2d4c f43b
00000230: c877 32bc 2abb b73b 1655 21bb 8b20 92bc
00000240: 1ecf 313c f6bd eb3b 4708 373c 7903 703b
00000250: 9227 d2bc dd5f f2bb b3f3 cebb e18b 7d3b
00000260: b3b6 cf3a fdea 0dbc 1bc1 033c 53cf c0bc
00000270: c83c 75bb a4ee 2f3b 953f d13b 8014 673b
00000280: 6fa3 c8bc 98d6 2d3c 8c43 163c 8577 98bb
00000290: ff18 9c3b 2227 11bc 9e19 0dbd 1e9f 573b
000002a0: 35d2 d13b 37b6 a5bc 6017 cebb 8db5 b2bb
000002b0: 1f91 53bc 1de7 2cbc 8510 04bd 34a5 423b
000002c0: 8c5c beba c694 023c cee7 85bc 4de7 873b
000002d0: 00fd 053c 6ce2 833c d2ec 2c3c 5d76 d2bc
000002e0: afe2 43bb 37c8 c63b 5959 9dbb 554d 6fbc
000002f0: 3975 42bc 11e8 05bd 8551 9dbc 3344 cabc
00000300: cc35 ef39 5f3a 173b 1cb4 0f3c 4a9b 953b
00000310: 402f 8b3c 82a2 51bc 3e78 acbc 7ad9 8e3b
00000320: b81b aabb 0bed 42bb c129 96bb d08f a83b
00000330: 036a abbc 9f5e 6a3a 0030 d7bc 9321 14bc
00000340: 6d3f a03c 75d2 b8bc 8676 ab3b dd79 7bbc
00000350: ff55 ad3a ae8d 623b d901 93bb 2823 02bc
00000360: 02c5 a1bc 990d 1ebc cc73 60bc 1c11 9e3b
00000370: af4a 40bc 1802 3cbb a3ea 37bc ab09 d5bb
00000380: 9e1a 973b 4baf edba 84cf 3c3c a381 6a3c
00000390: b74d e73c ad7e 19bb 6488 843b fbc1 b23c
000003a0: 243c 9ebc 1ded 0f3c bef9 30bb cb70 8f3c
000003b0: aa47 843a 3775 17bb 5100 ca3b 1b29 9fbb
000003c0: ebf5 303b 47ed 92bb 0c3c e83b 27e9 ee3a
000003d0: 3c32 c9bc 01c3 0abc ecf5 24bb 5ab0 473b
000003e0: ad36 f7bb 36fa 2cba 9a3e 983b 09b8 3cbc
000003f0: a609 adbb f53a 3a3c 517c 123c 3b37 bfbb

gnn.gru.bias_ih_l0 f4 [96]
0.00077886414 0.037419595 -0.013452277 0.055350665 0.013396907 0.032207128 0.04344488 0.022080176
0.026534548 0.022930833 0.014606825 0.0012749595 -0.019763442 -0.020703 0.0080091925 -0.01920391
0.023888215 -0.008550367 -0.017548578 0.004447756 0.03448773 0.04395915 -0.0030522994 -0.02171806
-0.011287527 -0.01607707 -0.01756066 0.047350463 0.014366727 0.042920414 0.00023651544 0.037273973
-0.104474284 -0.049438592 -0.0011573021 0.0048779957 0.074501485 0.044032972 -0.019026471 -0.12021238
-0.056864586 0.022526585 -0.16724655 0.058801785 -0.031777747 0.03664377 0.006565956 0.013671223
0.002785858 -0.16515665 -0.0072349412 0.043909498 0.13798477 0.07966219 -0.11659225 0.005790976
-0.07891349 -0.03464764 0.012355357 0.044648524 0.07755225 0.0263459 0.014512911 0.018098395
0.042472117 0.1670811 -0.009848956 -0.012172491 0.08118202 0.079446755 -0.083676405 -0.054534957
0.11574807 0.11672096 -0.120176755 -0.07428583 0.02407209 -0.053908065 -0.10395212 0.055426363
0.0781303 0.034670867 -0.00893155 0.041549496 0.059753887 0.11728868 0.046566956 -0.044387057
0.01181701 0.092857994 -0.11272062 -0.16829501 -0.08068314 -0.023089543 -0.055204898 0.031908806
00000000: b02c 4c3a 4a45 193d f066 5cbc 61b7 623d
00000010: b37e 5b3c 9feb 033d 42f3 313d 7ce1 b43c
00000020: fb5e d93c 71d9 bb3c 7751 6f3c 8b1c a73a
00000030: f1e6 a1bc 5699 a9bc fd38 033c 8551 9dbc
00000040: 38b1 c33c d716 0cbc 09c2 8fbc 7bbe 913b
00000050: 0243 0d3d 820e 343d 1609 48bb 13ea b1bc
00000060: 52ef 38bc 0fb4 83bc 60db 8fbc 8ff2 413d
00000070: 6c62 6b3c 51cd 2f3d 2101 7839 98ac 183d
00000080: 9df6 d5bd 1f80 4abd 9db0 97ba 98d7 9f3b
00000090: 3c94 983d eb5b 343d 67dd 9bbc e931 f6bd
000000a0: d7ea 68bd ac89 b83c ae42 2bbe 24da 703d
000000b0: 6229 02bd c717 163d 3b27 d73b 44fd 5f3c
000000c0: f192 363b d31e 29be 1613 edbb 72da 333d
000000d0: e14b 0d3e ee25 a33d ebc7 eebd 3ac2 bd3b
000000e0: 659d a1bd afea 0dbd 206e 4a3c 5fe1 363d
000000f0: b7d3 9e3d 5bd3 d73c 90c7 6d3c 1643 943c
00000100: 3ef7 2d3d 4f17 2b3e 845d 21bc 216f 47bc
00000110: c242 a63d fbb4 a23d 895e abbd 0c60 5fbd
00000120: 530d ed3d 660b ef3d 3b1f f6bd 2b23 98bd
00000130: d532 c53c b4ce 5cbd d9e4 d4bd c106 633d
00000140: c702 a03d 0a03 0e3d a355 12bc ce2f 2a3d
00000150: 7ec0 743d 0c35 f03d febc 3e3d 34cf 35bd
00000160: 229c 413c 552c be3d 12da e6bd 8755 2cbe
00000170: 343d a5bd 4826 bdbc 881e 62bd cfb2 023d

gnn.gru.bias_hh_l0 f4 [96]
0.00077886455 0.03741747 -0.013452278 0.055350702 0.013396912 0.032207165 0.043444887 0.022080174
0.026534166 0.022930816 0.014606825 0.0012749662 -0.019763442 -0.020703 0.00799611 -0.0192039
0.023888247 -0.008550018 -0.01754857 0.0044477503 0.03448774 0.043958467 -0.0030522984 -0.02171757
-0.011287528 -0.01607707 -0.017560668 0.047350384 0.012801195 0.04292041 0.00023652156 0.037273988
-0.10410583 -0.059856072 -0.021289008 -0.01230457 0.057786558 0.044057015 -0.017699251 -0.10551362
-0.07409549 0.022992454 -0.14682879 0.055168606 -0.034582578 0.04373385 0.0076524843 0.017401937
-0.021775147 -0.051063906 0.0071928985 0.0317478 0.13786833 0.081290305 -0.10444848 0.004637928
-0.06774673 -0.03471537 0.012067211 0.045601822 0.07084029 0.026597474 0.013105518 0.02934642
0.022991614 0.1660361 0.009276992 -0.08953517 -0.011414478 0.16089053 -0.0143469125 0.004298479
0.1228156 0.033107672 -0.10194754 -0.052254733 0.08220551 0.020372188 0.00724447 0.07176677
0.03823098 0.026609104 -0.019921621 0.0002363965 0.017172342 0.08054483 0.021405175 -0.06509344
0.007389147 -0.020306403 -0.021187397 -0.08675951 0.11516346 -0.027097471 -0.012596316 0.057761453
00000000: b72c 4c3a 1043 193d f266 5cbc 6bb7 623d
00000010: b97e 5b3c a9eb 033d 44f3 313d 7be1 b43c
00000020: 2e5e d93c 68d9 bb3c 7751 6f3c c41c a73a
00000030: f1e6 a1bc 5699 a9bc 1e02 033c 7f51 9dbc
00000040: 49b1 c33c 6015 0cbc 05c2 8fbc 6fbe 913b
00000050: 0443 0d3d cb0d 343d 1209 48bb 0ce9 b1bc
00000060: 53ef 38bc 0fb4 83bc 64db 8fbc 7af2 413d
00000070: 1abc 513c 50cd 2f3d c602 7839 9cac 183d
00000080: 7035 d5bd a42b 75bd 4966 aebc 1b99 49bc
00000090: 99b1 6c3d 2175 343d 05fe 90bc 8617 d8bd
000000a0: 60bf 97bd ac5a bc3c 495a 16be 7af8 613d
000000b0: 76a6 0dbd 4422 333d b1c1 fa3b 828e 8e3c
000000c0: cb61 b2bc 6328 51bd 68b2 eb3b fb09 023d
000000d0: 5b2d 0d3e 887b a63d 16e9 d5bd c3f9 973b
000000e0: ccbe 8abd b431 0ebd 8db5 453c fac8 3a3d
000000f0: b714 913d f2e2 d93c 87b8 563c e767 f03c
00000100: e958 bc3c 5e05 2a3e 86fe 173c 375e b7bd
00000110: ca03 3bbc 7dc0 243e 500f 6bbc 41da 8c3b
00000120: bf86 fb3d e99b 073d dfc9 d0bd 0f09 56bd
00000130: 5d5b a83d 93e3 a63c 0563 ed3b 75fa 923d
00000140: 1798 1c3d 56fb d93c ab32 a3bc 34e1 7739
00000150: 03ad 8c3c b0f4 a43d e859 af3c b64f 85bd
00000160: a820 f23b 9d59 a6bc 3191 adbc f8ae b1bd
00000170: d2da eb3d 84fb ddbc c760 4ebc 4697 6c3d
