1-GNNs/result/6108_AR_NURA_GAT_0920/saved_model/GAT_bst_7.pth (torch, 309731 bytes, 17 tensors)

gnn.gnn_layers.0.gat_conv.attn_l f4 [1, 6, 32]
000000 b5 d1 94 3e fb 59 c4 bd 5b ac db 3e 97 fa fd bd
       0.29066244 -0.09587475 0.42904934 -0.12401312
000010 ce 06 0f 3f b9 56 f5 be 45 a5 2a bf 43 f3 1f bf
       0.5586976 -0.47917727 -0.6665843 -0.6248056
000020 d8 17 1d bf 7b e3 4c 3e 06 a3 85 3e 4b 02 b3 3e
       -0.6136451 0.20008652 0.2610094 0.34962687
000030 43 47 34 3e ad 22 b1 be b3 3b da 3d 17 88 b6 be
       0.17605309 -0.34596768 0.10655918 -0.35650703
000040 14 b3 a4 3e 3f 31 02 3f 9b 5e e2 be d3 a7 05 be
       0.32167876 0.50856394 -0.44212803 -0.13052301
000050 64 6c e1 3d 63 08 0f 3e f6 1e ee 3e 6a 48 ae bc
       0.11007002 0.13968043 0.46507996 -0.021274764
000060 57 90 12 bd e3 05 a5 be 53 e3 a1 3e 3f 52 3d 3e
       -0.035782184 -0.32231054 0.31618747 0.18488406
000070 93 10 00 3e b2 00 36 be 55 c3 18 bf 72 ef bc be
       0.12506323 -0.17773703 -0.59673053 -0.36901432
000080 06 33 0a be d3 e7 fa bd 01 e9 50 bd 7f 5c ae bd
       -0.13496026 -0.12251248 -0.05100346 -0.08513736
000090 d7 a8 74 bd 9d 9f 16 3b dd 59 1f bd ea 1b 7e be
       -0.05973133 0.002298332 -0.03890406 -0.24815336
0000a0 76 47 97 3e ce f7 9d bd 99 bd 88 bc 6d 8d 54 be
       0.29546708 -0.077132806 -0.01669197 -0.20757075
0000b0 bc 49 f7 3c e3 95 5b 3e fc cd 8d 3c 44 b4 9c be
       0.030186526 0.21443896 0.017310135 -0.30606282
0000c0 05 62 ac 3d cf 55 03 3f 4e 3d 73 3e 6e d6 22 3e
       0.08417133 0.5130281 0.23753855 0.15902111
0000d0 f5 a1 0b be 12 e4 ba bc ee 35 84 be 70 08 0d be
       -0.13636 -0.02281383 -0.25822395 -0.1377275
0000e0 85 27 19 3d d2 ed a9 3e 07 b7 ee bd c2 4b af 3e
       0.037391204 0.33189255 -0.116560034 0.34237486
0000f0 f1 0e 5e 3e e6 6a de 3e 1d f3 ee 3e d6 3d 4b 3d
       0.21685387 0.43440932 0.46669856 0.04961952
000100 fd 2b 8e be e6 9d 9c 3c 94 0f c2 3e 32 48 21 3e
       -0.27767935 0.01911826 0.3790251 0.15750197
000110 25 19 98 3d 7a 09 ca be 8a d5 2d bf 7f f2 05 3f
       0.07426671 -0.39460355 -0.6790396 0.52323145
000120 fb 8c cf 3e 7b 38 ce bd da c5 68 be 59 64 1a be
       0.40537247 -0.100693665 -0.22731724 -0.15077342
000130 6c 88 1a be b6 62 e9 3c e6 a7 8a 3e 92 f4 a1 3e
       -0.15091103 0.028489452 0.2708122 0.31631905
000140 27 dc bd 3e c5 46 b3 3d 23 26 ca 3e 4e d4 33 3c
       0.37082025 0.087537326 0.3948222 0.01097591
000150 74 b1 47 3e 96 ab 47 bf 22 47 a4 3d 09 ba 06 bf
       0.19501287 -0.77996194 0.0802138 -0.5262762
000160 d7 49 18 be 78 25 a3 be 49 56 58 3e 60 49 a7 be
       -0.14871918 -0.31864524 0.21126665 -0.32673168
000170 67 11 b4 be dd 80 1f bf 03 57 37 bd 44 fc a1 bc
       -0.35169527 -0.62306005 -0.044760715 -0.01977361
000180 aa 0f a7 3e 34 87 d5 be c3 fe 22 3e 55 b9 4b 3e
       0.32629138 -0.41704714 0.15917496 0.19894917
000190 87 2c ef be 9d f9 b2 bd 49 f8 ee 3d df a6 49 3e
       -0.4671366 -0.08739016 0.116684504 0.19692563
0001a0 fa fb 2e bf ed 33 b8 be e4 5d cd be c7 31 5e be
       -0.68353236 -0.35977116 -0.40110695 -0.21698676
0001b0 6d 60 b4 be ce 87 f1 3e f3 27 24 3f 5f 24 2c 3e
       -0.35229817 0.47173923 0.6412346 0.1681075
0001c0 6a d1 d8 3d 05 96 3a 3e c1 ac 14 3f 85 f9 5c 3e
       0.105868176 0.1822129 0.580761 0.21579559
0001d0 e9 81 ab 3d 02 91 7b be 78 1e e1 3e b0 41 9e 3e
       0.08374388 -0.24567035 0.43968558 0.3090949
0001e0 75 59 6e 3e af 16 b4 3e 8d 29 17 bd a9 55 58 be
       0.23276313 0.35173556 -0.03690486 -0.21126427
0001f0 bc 97 fc bd 7f 1b e4 3e 13 08 0e 3e 1c 5b 85 3e
       -0.123336285 0.44552228 0.13870268 0.26046073
000200 c3 fe e6 3e 5d 14 56 3f 61 14 e2 3e 86 10 02 be
       0.45116243 0.8362482 0.44156173 -0.12701616
000210 20 c5 51 be c7 55 c6 bd a6 38 1b be c5 7a db 3d
       -0.20485353 -0.096843295 -0.15158328 0.10716776
000220 ef b7 96 be d5 04 89 be a2 a4 8b 3d cf f8 f3 3d
       -0.29437205 -0.267615 0.068185106 0.11912691
000230 46 79 86 be 82 5d 04 be 59 57 54 3e ae 08 8d 3e
       -0.262644 -0.12926295 0.20736445 0.27545685
000240 2e 55 4d bf 02 7c 92 bd bf e1 12 3f ff 45 29 3e
       -0.802081 -0.07152559 0.5737571 0.16530608
000250 a3 0e ab be b1 59 11 3e 0f 42 0a 3f e1 3d c0 be
       -0.33409604 0.14194371 0.5400705 -0.3754721
000260 30 00 2a be ef e0 12 bf 52 ff 02 3f a7 e9 ed be
       -0.16601634 -0.5737447 0.5117084 -0.46467325
000270 2a a6 2a 3e 62 7d eb 3c 50 ee 6d bf 0b 74 27 3e
       0.16664949 0.02874631 -0.9294176 0.1635286
000280 76 4c f0 be f7 36 03 3e d6 16 bf be be 04 f2 3e
       -0.46933335 0.12813936 -0.3732211 0.47269243
000290 1c b4 8b be a8 14 93 3e 34 12 17 be aa 1c ca 3e
       -0.2728585 0.28726697 -0.14753038 0.39474994
0002a0 7d 87 62 bd 55 1b 61 3d cf 14 99 be d5 57 42 bf
       -0.055304993 0.054957706 -0.29898688 -0.7591527
0002b0 ef 3c 97 3e bf 0a 1b be 1e 48 27 be 64 fe d4 be
       0.29538676 -0.15140818 -0.16336104 -0.41600335
0002c0 3e 35 ac be b8 08 bb be d5 a3 a4 be aa b1 a8 be
       -0.3363437 -0.3653009 -0.32156244 -0.32948047
0002d0 e6 73 d3 3e a9 d5 3c be c3 76 40 3c c8 6d 99 be
       0.4129936 -0.1844088 0.011747065 -0.2996657
0002e0 cf e1 c7 3c 44 4e 2a 3f 05 78 1c 3e 24 50 25 3e
       0.024399666 0.66525674 0.15280159 0.16143852
0002f0 56 f1 43 be 9f e3 47 bc 1d 51 62 3e df dc 2c bb
       -0.19135031 -0.012200265 0.22101255 -0.0026376767

gnn.gnn_layers.0.gat_conv.attn_r f4 [1, 6, 32]
000000 76 ef bb bd 0a 5b 87 3a 21 40 17 be 1f 86 09 be
       -0.09176533 0.0010326814 -0.14770557 -0.1343007
000010 a0 97 8b 3e 32 79 0f 3e 57 bf 2a 3d 40 ca 89 bd
       0.27264118 0.14011076 0.041686382 -0.06728029
000020 e3 59 6f bd 2f e6 1b be 0e 87 0f be f1 89 a4 be
       -0.058435332 -0.15224527 -0.14016363 -0.3213649
000030 0f e0 c2 3c 90 9b 58 3e 92 96 f4 3d 40 47 d5 bd
       0.02378848 0.21153092 0.119427815 -0.104139805
000040 02 c3 39 bd 8a a7 fe bd da 2f 80 be 60 3c ab 3d
       -0.04535199 -0.12434299 -0.25036508 0.08361125
000050 1a 30 02 bd 7e 6b a2 be ff 64 b1 be c7 8d 70 3c
       -0.031784154 -0.31722635 -0.34647366 0.01468224
000060 e7 e6 b3 3d a0 9c e6 bb f0 e8 8c be 12 18 28 be
       0.087842755 -0.007037714 -0.27521467 -0.16415432
000070 58 01 40 be a8 44 3b be a4 ce c9 3c 48 12 e5 bc
       -0.18750513 -0.18287909 0.024634667 -0.027962819
000080 48 dd 97 bc c1 67 c5 3d c0 47 bc be b8 0b 4b be
       -0.018538132 0.0963893 -0.3677349 -0.19828689
000090 a8 8e 03 be c0 65 8a 3e a6 d1 b4 3d b2 7d 07 be
       -0.12847388 0.27030754 0.0882905 -0.13231543
0000a0 d9 a1 35 3d 2b eb 2f 3e 9b c0 31 3e 4b 4c 4d be
       0.044343803 0.17179553 0.1735863 -0.20048635
0000b0 4b d7 94 3d 68 8b 75 bd 49 90 99 3e 8f 1a 99 bd
       0.072676264 -0.0599474 0.29992893 -0.07475769
0000c0 59 fb 8a be 82 d1 f5 3d 79 5f 1f be 1f 2b c2 3e
       -0.27144888 0.12002851 -0.15563764 0.37923524
0000d0 8f 02 77 3e ae a8 d4 bd 60 f8 df 3e 3c 06 d8 3d
       0.2412207 -0.103837356 0.43744183 0.10548064
0000e0 27 c0 c7 be 25 63 05 bf c7 8b a9 be 0d b9 f3 be
       -0.39013788 -0.5210441 -0.33114454 -0.4760212
0000f0 71 e4 4a bd 18 37 8b 3d 64 6e ac be 2e 94 2f be
       -0.049534265 0.06797618 -0.3367797 -0.1714637
000100 c9 bf a0 3d 9b 0a 4a 3e 5e c1 9b be 7f cf 89 3e
       0.0784908 0.19730608 -0.30420965 0.2691612
000110 18 48 12 3d 69 7c 1f be 20 21 23 be 12 f0 20 be
       0.035713285 -0.15574802 -0.15930605 -0.1571658
000120 01 3e b6 be 3f 54 ea 3c 67 da 2d 3e c5 9a 22 3e
       -0.3559418 0.028604625 0.16977845 0.15879352
000130 9d bc a9 3c 06 83 f3 bb e1 16 10 3d e9 24 86 be
       0.02071982 -0.0074313907 0.03517807 -0.26200035
000140 fd 41 43 be 6f f4 cc bd 5c 91 89 be dd ba f8 bd
       -0.19068141 -0.100075595 -0.26868713 -0.12145016
000150 2c ec cb bd f0 69 23 3e 65 4e 52 be 67 0a 24 3e
       -0.099571556 0.1595838 -0.20537718 0.16019593
000160 87 0a 29 3e a7 71 23 3e 8e 03 99 be a1 3d c8 3d
       0.16507922 0.15961324 -0.29885525 0.0977738
000170 98 d5 18 3e ba 3f 93 3e 02 28 9c bd d6 ac b3 3d
       0.1492523 0.28759557 -0.076248184 0.087732
000180 34 4f 2e 3c c6 72 fc 3d 46 a0 08 3e 35 fe a3 3d
       0.010639001 0.12326579 0.1334239 0.080074705
000190 1e d3 ae 3d 07 e9 57 3e 5c 2d f0 3e 1d b7 2b be
       0.08536361 0.21084987 0.46909606 -0.16769071
0001a0 1c c4 21 bf ed 44 32 3c fb 50 14 3e 20 80 95 be
       -0.63189864 0.010880691 0.14484017 -0.29199314
0001b0 91 5b bc be 71 f8 98 bb 01 c8 a6 3e 26 59 da be
       -0.3678861 -0.0046682884 0.32574466 -0.4264614
0001c0 fa 6a 83 3e 7b e1 70 3e 3f 96 30 3e ae d1 8d 3a
       0.25667554 0.23523514 0.17244814 0.0010819936
0001d0 2c fa d0 3e 69 5b 8d be d0 a3 78 bd 50 e9 6e be
       0.40815866 -0.27608803 -0.0607031 -0.23331189
0001e0 e0 60 3a be a0 34 4c bd 43 d2 09 be 50 59 91 be
       -0.18201017 -0.049854875 -0.13459115 -0.28388453
0001f0 13 0e 2a be ce 3b 28 be a5 cd e6 3d 14 05 86 3d
       -0.16606931 -0.16429064 0.11269692 0.06543937
000200 79 64 71 3d 5a 08 b4 bc f3 be f3 bd a8 45 19 3e
       0.05893371 -0.021976639 -0.11901655 0.14967978
000210 6f e6 4e 3d ca 95 be 3d 12 1d b8 be d4 29 82 3d
       0.050512727 0.09305914 -0.3595968 0.06355634
000220 25 22 93 3e 9c 5e 19 bf e5 5b 5e 3d 15 41 da 3e
       0.28736988 -0.5990999 0.054286856 0.4262778
000230 3e 62 e7 3c cd df d4 bc 71 e5 7e 3e 05 c8 ce be
       0.028245088 -0.025985623 0.24892212 -0.40386978
000240 d0 e6 45 3e 68 09 81 bc 9e e6 a4 bd 82 4b bc bc
       0.19326329 -0.015751556 -0.08051799 -0.022985224
000250 2b d0 d7 3b 32 7c 9d bd c2 5c 7a bc a3 db 78 3e
       0.006586095 -0.07689704 -0.015280904 0.24302535
000260 0d de c2 3d 82 cb 4e 3e b2 e0 cb 3c 94 1d ba 3d
       0.09515009 0.2019482 0.024887417 0.09087673
000270 c4 54 b7 bd ee 93 1b 3e a3 a0 cd bd 40 c3 bd bd
       -0.08951715 0.1519315 -0.10040405 -0.092657566
000280 d1 bc 30 3e 87 c2 3b 3e fe 57 63 3e e3 95 78 3d
       0.17259528 0.18335925 0.22201535 0.060689818
000290 d1 04 0f 3e 74 03 a6 bc 1f 16 98 3e 1e 8b 44 bc
       0.13966681 -0.020265318 0.29704377 -0.011996059
0002a0 12 c9 c7 3e 7c 99 8b 3e 62 29 08 bd 50 9b d5 bd
       0.39020592 0.27265537 -0.03324259 -0.10430014
0002b0 67 1e a9 be 52 15 2d bd 95 05 4a 3e 64 14 60 be
       -0.33031008 -0.04225666 0.19728692 -0.21882778
0002c0 e8 d6 a1 3d 2c 1f 4d 3e d3 da a6 3d 5b a2 33 bd
       0.07902318 0.20031422 0.08147206 -0.043856006
0002d0 e0 bb 06 be 67 72 4d 3e 77 28 b1 be 89 52 88 3e
       -0.13157606 0.20063172 -0.34601185 0.2662547
0002e0 55 6a 69 be 8f 7c 53 be 19 db f4 be db 1b a9 3d
       -0.22794469 -0.20652984 -0.47823408 0.08257266
0002f0 d3 71 49 be d7 03 19 bf e6 54 74 3e 24 ba ed 3e
       -0.19672327 -0.59771484 0.23860511 0.46431077

gnn.gnn_layers.0.gat_conv.bias f4 [192]
000000 d9 28 0e 3d cb 48 7b 3d fc af 36 3d 0f 72 51 3d
       0.034706924 0.061348718 0.044601426 0.051134165
000010 1f c3 21 3d d9 f2 c0 39 30 92 b4 bc ad 76 c1 bc
       0.039492723 0.0003680203 -0.022042364 -0.02361616
000020 d9 bd e9 3c 7f 97 21 3c 94 4e df bc d7 3b 82 bc
       0.02853291 0.00986278 -0.027259149 -0.015897674
000030 b1 0e 7a bd 64 68 20 bc 6c d7 a2 3c 93 34 f2 3d
       -0.061049167 -0.009790514 0.019878112 0.11826434
000040 fb 12 4d 3d 82 e6 ce bd 82 0d 94 bd b1 90 65 bd
       0.05006693 -0.101025596 -0.07229139 -0.05604619
000050 7a 3c 83 3d 9c 1b eb bc 31 c1 47 bd b7 ad 95 3c
       0.06408019 -0.028699689 -0.048768226 0.01827131
000060 39 69 82 3d bd d7 36 bd e9 57 a6 bc 9b a6 10 bd
       0.06367726 -0.044639338 -0.02030559 -0.035315137
000070 77 2f 46 bd 37 7e 82 bd a4 80 86 3c d3 1b 3e bd
       -0.04838511 -0.0637173 0.016418763 -0.046413254
000080 d9 fd 03 3d e4 e4 ee 3b 43 bc 07 3d 5e 1d 18 3c
       0.03222451 0.0072904695 0.033138525 0.009284345
000090 1a 8b 8c 3d 5c f9 2a b9 6d fd 01 3b fd bd b4 3b
       0.06862469 -0.00016305357 0.0019834891 0.0055158124
0000a0 4a 43 ba bc 3a 93 90 bd 2b 6d 0e bc 6c e8 09 3d
       -0.022737164 -0.07059331 -0.00869302 0.03366892
0000b0 37 7d 0b be f3 da e2 3b ab ea ef 3c ec 48 40 3d
       -0.13621984 0.0069230734 0.029286703 0.046944544
0000c0 72 fc 04 3d 27 02 cc bc d2 24 a4 bd 44 24 5f bc
       0.032467313 -0.02490337 -0.080148354 -0.013619486
0000d0 c4 fd 7f bb db f9 19 3d c3 18 4a bd 62 95 42 3c
       -0.0039061168 0.037591796 -0.04934002 0.011876436
0000e0 e6 bf 4e 3b 0a 54 7e bd 27 86 6c 3d ee 6f 31 bc
       0.0031547486 -0.062091865 0.057745125 -0.010829909
0000f0 97 b0 19 be 90 c2 10 bd 0a dc 01 bd 39 ce 18 3d
       -0.1500877 -0.0353418 -0.031703986 0.037306044
000100 eb f3 31 3d ac 1f 30 3d a6 9a e6 bb c9 d6 8c bc
       0.04344551 0.042998955 -0.0070374785 -0.017192261
000110 dc 2e 31 3d 1a 1f 08 3c 7e c2 14 3d e7 e7 e2 bc
       0.04325758 0.008308196 0.036318295 -0.02769847
000120 a6 ba ac bc 75 a8 46 3d 29 3e f3 bc 63 30 47 3d
       -0.021085095 0.048500497 -0.029692726 0.04863013
000130 ae 32 33 bc bd df 38 3d c7 8b 95 bc 59 b8 10 3c
       -0.010937376 0.04513525 -0.018255128 0.008833014
000140 aa 08 5e 3d ca 9f 21 bd 22 7a c9 bc 3c 90 3d bd
       0.05420748 -0.039459027 -0.02459437 -0.04628013
000150 3c 72 13 bc 20 e3 56 3c e8 ec e6 3b 3d 69 12 3b
       -0.008999404 0.013115674 0.0070472844 0.002234056
000160 da ab a4 bc 5b 1e 15 bc 4d aa 4d 3c d1 11 84 bd
       -0.020101476 -0.009101476 0.01255281 -0.06448711
000170 0b 29 3c bd 29 2e 0e be 54 d3 83 bd 18 1d e2 3c
       -0.04593758 -0.13884796 -0.06436792 0.027601764
000180 60 55 ea bc 74 03 ed bc 01 b8 78 bd 16 65 0f 3d
       -0.028605163 -0.02893231 -0.060722355 0.035008512
000190 77 50 39 bd e6 99 ca bc 7b 31 f9 3c f7 ca d9 3c
       -0.045242753 -0.024731588 0.030419102 0.026586039
0001a0 f3 1f 8b bd 64 33 ed 3c 3a 05 64 bd 89 ba bc 3c
       -0.06793203 0.028955169 -0.055669047 0.023038166
0001b0 94 70 8a bd d8 64 be bc 9e 30 53 3d c3 4c 3b 3d
       -0.06759754 -0.023241445 0.051560037 0.045727503
0001c0 ca f5 7c bc 42 c6 a5 bd 23 d1 7e 3d 92 0e 4d 39
       -0.01543946 -0.08094455 0.062211167 0.00019555751
0001d0 73 32 c2 bc 77 f1 82 bc a3 2e 86 3c 26 70 99 bc
       -0.023705697 -0.01598428 0.01637966 -0.018730234
0001e0 28 e9 2f 3d f6 cc 2c bd ff 92 00 3d 5e 86 58 bb
       0.042946965 -0.042187653 0.031390186 -0.0033039073
0001f0 f2 8e 0a bd 1d a9 a5 bd 65 31 53 bd e6 97 5f bd
       -0.03382773 -0.080888964 -0.05156078 -0.05458822
000200 b9 af 31 bc 40 ed c7 bc dc d9 b2 3c e6 2c 78 3c
       -0.010845118 -0.024405122 0.0218324 0.015147423
000210 7b d5 6e 3d 45 92 a3 bd bf 9b 8d 3d 15 b4 29 3b
       0.05830906 -0.07986883 0.06914472 0.002589469
000220 f8 0f ca bc c7 0f 61 bb 9c c0 18 bd 0b 1f 97 bd
       -0.024665818 -0.003434168 -0.03729306 -0.07378968
000230 22 ac 13 be 59 d6 ae 3b 58 df 85 bd d4 c6 2b 3c
       -0.14421132 0.005335611 -0.0653674 0.010484416
000240 fd 1b cc bd be fd dd bc 45 3e 83 bd f9 15 e0 bd
       -0.09966276 -0.027098533 -0.06408361 -0.10941691
000250 03 04 c6 3d 3f 28 86 bd 46 12 82 3b 8f 02 36 bb
       0.09668734 -0.06550645 0.0039694635 -0.002777252
000260 f5 69 dd bc d6 9d 0e bd af 80 b8 bd fe 31 a8 bd
       -0.027028063 -0.034818493 -0.090089194 -0.0821266
000270 12 f6 4d 3d eb 05 d1 bd 79 1f 3f 3d 37 d5 82 3d
       0.0502835 -0.10206207 0.046660874 0.06388324
000280 30 c9 4f bd 21 d0 55 bc 1d 8d f8 ba 37 07 2d 3d
       -0.050728977 -0.01305011 -0.0018962953 0.04224321
000290 38 27 23 3c 68 96 01 bd a8 e3 8f 3b ad 9f 8c 3d
       0.009958081 -0.03163758 0.0043911524 0.06866393
0002a0 aa 50 1c bd cc 81 1f bc ac 4b 10 3d 55 7b f9 3c
       -0.038162865 -0.009735536 0.035228416 0.030454317
0002b0 69 9b 16 bb 36 ca 18 bd d0 2f de bc f0 cd c0 3c
       -0.0022980815 -0.03730222 -0.027122408 0.023535699
0002c0 3b 64 92 bd 46 1b b4 3c 61 56 31 bd 03 e4 1b bd
       -0.07148024 0.021985661 -0.043295268 -0.038059246
0002d0 0e 92 88 3b 43 92 16 bb 29 4b 58 3d 62 be 0d bc
       0.0041678017 -0.0022975362 0.052806053 -0.008651348
0002e0 da ce 3a 3d 94 b1 ef bc 00 7f 18 bd 50 1c f5 bc
       0.045607425 -0.02925948 -0.03723049 -0.029920727
0002f0 52 ba ba bc 5b 21 90 bd ae fa 0e bd 83 ec 2a bd
       -0.022793923 -0.07037612 -0.034907036 -0.04172946

gnn.gnn_layers.0.gat_conv.fc.weight f4 [192, 74]
000000 c7 5d 34 be 1f cb 3b 3e 11 20 c3 bb 1b fb f4 3e
       -0.17613898 0.18339203 -0.0059547503 0.47847828
000010 42 b7 20 be 5f 28 9c 9f 1f 1b 8c bd 87 d7 ae bd
       -0.15694907 -6.613536e-20 -0.068411104 -0.08537202
000020 44 9f 82 bd 94 e9 f1 1e 88 4e 1d 9d aa 4a 8c 1e
       -0.06378034 2.5613473e-20 -2.0819377e-21 1.4853957e-20
000030 ac d9 41 9e 6b e0 71 9d 81 45 2a 9e 90 41 37 bd
       -1.02623484e-20 -3.2012106e-21 -9.014098e-21 -0.04474026
000040 b5 cb 55 1f 70 76 13 1c 15 11 23 9d 0a 11 60 1e
       4.5273007e-20 4.8791297e-22 -2.1581702e-21 1.1861985e-20
000050 19 95 88 9e e7 e2 7b 1e 24 89 29 9f dd 94 da 9d
       -1.4461225e-20 1.3334752e-20 -3.5900582e-20 -5.785804e-21
000060 d9 a0 d3 9e bf de 2b 1f 0f 36 0c 9e 60 62 84 9e
       -2.2407019e-20 3.639491e-20 -7.422717e-21 -1.401673e-20
000070 f0 14 d1 9d 63 63 80 1e b9 70 f3 1e 4f 14 cc 1d
       -5.534349e-21 1.3593633e-20 2.5775247e-20 5.401935e-21
000080 91 0a 18 1f 89 15 1d 1c 9b e9 9e 1c 6e 9f 2a 9f
       3.2195992e-20 5.1974776e-22 1.0515949e-21 -3.6130777e-20
000090 86 1d 3a 1e 37 d8 63 1e 3e dc 3a 1e ae 1a 16 a0
       9.852863e-21 1.2061992e-20 9.892303e-21 -1.2714322e-19
0000a0 b2 0e 88 9f 1b 9e b4 1b 71 d3 73 9b c7 cb f5 9d
       -5.762255e-20 2.9880675e-22 -2.0168809e-22 -6.506166e-21
0000b0 7d 53 04 be b8 f4 44 bd e3 d6 46 bb d4 e3 3a be
       -0.12922473 -0.048084944 -0.0030340485 -0.18250972
0000c0 62 5f c2 9e 6c 76 94 1f 9f b4 32 1d 0a ab 00 9f
       -2.0579998e-20 6.287635e-20 2.3651483e-21 -2.7246535e-20
0000d0 23 51 c9 9f 48 95 e5 1d 74 7b a0 bb 96 c6 5d be
       -8.526104e-20 6.077015e-21 -0.0048975293 -0.21657786
0000e0 1f 2d fa 3d 2a 17 1d be 6d 22 dc 1c 02 e1 19 1f
       0.122156374 -0.15340868 1.4567278e-21 3.2585132e-20
0000f0 60 5b b0 1e 0f 3b 54 bd 48 dd ac b7 2f 7d 2f be
       1.8672517e-20 -0.051814135 -2.060704e-05 -0.17137598
000100 68 3a 90 bd af 72 29 bd 94 13 d0 9e cd 71 7d 9f
       -0.0704239 -0.041369136 -2.2030954e-20 -5.3668968e-20
000110 11 80 31 3e 46 22 3a be 6c ce d3 bd 17 86 35 3e
       0.1733401 -0.18177137 -0.10342106 0.17726932
000120 55 cf d3 bd e5 cd 1f 1f 55 74 01 3d 48 f3 b3 bd
       -0.1034228 3.3839872e-20 0.031605083 -0.087866366
000130 0a 0f 84 bd d7 0f 1b 3e 6a 6c 51 3e d8 29 b6 1d
       -0.06448181 0.15142761 0.20451513 4.8218264e-21
000140 61 41 cb bc 6e 47 00 3e 2c 5b 0e bd 23 5c 36 1e
       -0.024811449 0.12527248 -0.034754917 9.654053e-21
000150 95 21 84 9b ff fd e5 1e b7 01 bb 1c c5 1d fd 9f
       -2.185927e-22 2.4351368e-20 1.2375065e-21 -1.0719892e-19
000160 5f 79 38 1e 25 5d d5 3b cc 56 95 1b c9 08 5a 1f
       9.765978e-21 0.006511348 2.4706073e-22 4.6170563e-20
000170 be ad b5 1e 34 05 88 9c 5d e6 0b 9f c9 18 39 1e
       1.9235979e-20 -9.00107e-22 -2.9624947e-20 9.798944e-21
000180 0a f8 f7 9f 90 a5 e6 1c 7d 5c 09 9f 7e 11 1a 1f
       -1.05018915e-19 1.526292e-21 -2.9087383e-20 3.2625238e-20
000190 9d 99 00 1e c0 79 b7 22 69 a7 99 1e e1 28 0a 1d
       6.80803e-21 4.9731157e-18 1.6268744e-20 1.8285282e-21
0001a0 4d da 1e 1f 98 cc bf 9e b0 57 5b 1f c6 e0 b6 9d
       3.3638376e-20 -2.030753e-20 4.6447587e-20 -4.840741e-21
0001b0 b4 40 42 9d f3 2f 01 9e a1 6e bb 9d 3c 95 0d 9d
       -2.5709137e-21 -6.839119e-21 -4.9612875e-21 -1.8738347e-21
0001c0 27 34 29 1f 4c 30 02 20 c3 d6 b0 9a 0d e0 a7 9f
       3.583028e-20 1.1027408e-19 -7.313886e-23 -7.109791e-20
0001d0 19 46 0b 9f 79 62 b3 9c 84 50 3c be a6 c9 ba 3d
       -2.9492378e-20 -1.1870681e-21 -0.1839009 0.09120493
0001e0 5f 31 3d 3e 1b ad ee bd 42 f9 56 1e 24 00 02 9f
       0.18475865 -0.11654111 1.1380611e-20 -2.7528687e-20
0001f0 28 6e b4 1c 14 cb 1f 9d 96 9f ae 9e ef c5 c5 9b
       1.1939876e-21 -2.1148464e-21 -1.848897e-20 -3.2718828e-22
000200 bb 90 e2 3d 23 43 bc 3c 6c 77 5e bd 60 05 0c be
       0.110627614 0.022981232 -0.05431311 -0.13673925
000210 5f 07 ab 1c c3 87 2f 9c 88 91 07 1c 2c b8 00 be
       1.1317736e-21 -5.807811e-22 4.485585e-22 -0.12570256
000220 90 f1 a8 38 42 f9 1a bd 9f de 03 be c7 79 95 bd
       8.055859e-05 -0.037835367 -0.12877892 -0.07298618
000230 63 13 b4 1d f6 d1 f9 9e 68 c0 05 3e f9 62 c7 3d
       4.766565e-21 -2.6450738e-20 0.13061678 0.097356744
000240 c9 1e 95 3d de bc cf 3c 2f 79 94 bd aa c6 1d 1d
       0.072812624 0.025358614 -0.072496764 2.0881484e-21
000250 83 cf 37 be 81 a4 d4 3e ab d4 76 be 08 61 5e 3c
       -0.17950253 0.41531757 -0.24104564 0.013572939
000260 32 3c 08 be 9c c7 be 9e 81 83 c9 bc fe 18 17 3b
       -0.13304213 -2.0199589e-20 -0.024598839 0.0023055668
000270 20 57 92 be 9f 63 2e 1c 76 a9 15 9f 39 fb 08 1f
       -0.28582096 5.770053e-22 -3.1692152e-20 2.9006927e-20
000280 01 ba 42 9d d8 4a 11 9f a9 bf 31 1d 55 23 e7 bd
       -2.5771848e-21 -3.0766854e-20 2.352484e-21 -0.11286036
000290 61 c0 57 1d ac 08 54 1b 69 17 1d 9f e1 0b ca 1e
       2.855447e-21 1.7539031e-22 -3.3265408e-20 2.1392495e-20
0002a0 27 92 30 9e 42 a1 1a 9f 31 24 91 9d 47 4b fb 9e
       -9.347586e-21 -3.2744158e-20 -3.84186e-21 -2.6606793e-20
0002b0 0c 2d e7 9e 3e 6a 3e 1f 50 57 66 9e 0c db e7 1c
       -2.4476707e-20 4.0321946e-20 -1.21941544e-20 1.534292e-21
0002c0 5d 6e 3c 9c f5 1d c0 9b 20 98 20 9e 0e 0b 8c 1f
       -6.2346623e-22 -3.1783095e-22 -8.501788e-21 5.9310595e-20
0002d0 e2 94 69 9e d7 b6 d1 9c 54 2c 89 1e 11 70 a6 9e
       -1.23657055e-20 -1.3877723e-21 1.4523773e-20 -1.7622283e-20
0002e0 c3 3b 45 1e 7c 7d bb 1b 49 4c 49 9f 1c 25 5c 9c
       1.0441452e-20 3.1017647e-22 -4.2626507e-20 -7.2839857e-22
0002f0 6b fb 16 9f e2 12 da 1d a6 5e 1a 9f 99 d0 32 1f
       -3.1971704e-20 5.7723644e-21 -3.268906e-20 3.7865514e-20
000300 40 41 d6 3c e9 85 76 be 8f 74 74 3e b3 fc a5 bb
       0.02615416 -0.2407452 0.23872589 -0.0050655245
000310 9a 5d 08 1f 84 61 92 9e 88 c4 97 1d a8 c0 5d 9d
       2.8876546e-20 -1.5498683e-20 4.0172576e-21 -2.9348707e-21
000320 53 39 84 9c 31 70 72 9e fb 16 46 3d 56 3e ee bd
       -8.749845e-22 -1.2834574e-20 0.04836176 -0.116329834
000330 88 2d 03 be 42 e8 57 be c1 be b1 9e cd 4e b6 9e
       -0.12810338 -0.21084693 -1.8819498e-20 -1.930259e-20
000340 6f 72 02 1f 2a 22 8a 3d 08 7e a3 38 88 4a ab 3e
       2.7623228e-20 0.067447975 7.795921e-05 0.334553
000350 2b fb 22 3d 98 d1 17 bf 71 98 91 9e 70 75 8e 1e
       0.039790314 -0.5930419 -1.541552e-20 1.5083406e-20
000360 b6 10 4e 3d f1 a2 7e 3c 6e 94 53 bc 7b fd 5e be
       0.050308906 0.015541778 -0.012913806 -0.21776383
000370 4a 6e 23 be bf 91 30 9c 89 a9 83 bd e5 21 cd be
       -0.1596004 -5.842189e-22 -0.06428821 -0.40064922
000380 35 e2 a0 be 8f fe 15 3e 62 46 1e 3e 4c bd bc 1e
       -0.31422582 0.14647888 0.15456536 1.9983566e-20
000390 db 3b 0e bb 80 ca 70 3e c0 30 d0 3c 90 8c b9 9d
       -0.0021703157 0.23514748 0.02541387 -4.911443e-21
0003a0 31 ce 2f 9e bd 43 2c 9e 47 ad ad 9b 74 d1 62 9e
       -9.307062e-21 -9.119612e-21 -2.8732427e-22 -1.2007654e-20
0003b0 96 f3 1f 9d 25 0d 0e bd 29 88 ed 1e 1e bc c4 1d
       -2.1169406e-21 -0.034680504 2.5149666e-20 5.2075277e-21
0003c0 04 02 af 9c 92 53 11 9f 1e 1e f5 9f bb 11 a1 9f
       -1.158105e-21 -3.0774072e-20 -1.0381136e-19 -6.8215485e-20
0003d0 93 e5 83 1f e0 58 15 9f ab ac 00 1f 6e 0f 2f 1e
       5.5860457e-20 -3.1625493e-20 2.7247882e-20 9.267614e-21
0003e0 91 a0 86 9d 43 a1 24 9e 67 ad d9 9e cb 07 0b 1f
       -3.5635526e-21 -8.715436e-21 -2.3047486e-20 2.944084e-20
0003f0 a0 22 e8 9c dd 7f 57 9c 70 96 d3 9e 44 1a e5 1b
       -1.5361423e-21 -7.130279e-22 -2.2402713e-20 3.7901846e-22

gnn.gnn_layers.0.gat_conv.res_fc.weight f4 [192, 74]
000000 72 d5 8d 3d 14 43 24 be 34 5d 3b be 21 26 fc 3e
       0.06925477 -0.16041213 -0.18297273 0.4924784
000010 16 81 13 3e bc 64 5b 9c 16 3a 87 bc ce b4 82 bc
       0.14404711 -7.259122e-22 -0.01650719 -0.015955355
000020 41 a4 68 bc ae 62 bd 9e 3c 16 89 9e e9 ce 03 1e
       -0.014199317 -2.0051966e-20 -1.4514635e-20 6.97787e-21
000030 d2 a7 5d 1e a5 7c 51 1c 98 a1 4c 1e ca 1a 76 bc
       1.1734347e-20 6.93134e-22 1.0833087e-20 -0.015021035
000040 90 47 28 1c c3 10 f6 1d 7d 05 ee 1d 44 a7 ef 9e
       5.567903e-22 6.513299e-21 6.300375e-21 -2.5374289e-20
000050 4b 8b f9 1e c6 54 98 1d 6c 9f 88 9e f1 79 d6 1e
       2.642151e-20 4.032172e-21 -1.4465495e-20 2.2708565e-20
000060 36 05 dc 9d 26 16 7d 1c e3 88 54 9f d5 a9 f3 1d
       -5.8238903e-21 8.3739304e-22 -4.5005976e-20 6.4497167e-21
000070 7c 47 3b 9f 30 60 a2 1e 72 ff 59 9e 8a 90 d6 1d
       -3.965792e-20 1.71922e-20 -1.1540709e-20 5.679478e-21
000080 ea 5b 1e 1e 0b a3 30 9f 4c 0c 89 9f 6b 73 9b 9e
       8.383458e-21 -3.7404316e-20 -5.80421e-20 -1.6458999e-20
000090 13 36 b7 1d ea 98 92 1e f7 98 3d 1e be 14 a0 9d
       4.849561e-21 1.5521595e-20 1.0037209e-20 -4.2373094e-21
0000a0 e4 2a dc 1e 76 bf b4 9c fb ad 0a 1f a0 90 13 9d
       2.3311145e-20 -1.1960892e-21 2.936655e-20 -1.9530057e-21
0000b0 aa 14 03 bb 0d 6a 91 3b 49 ae 6a 3e fc 27 40 bd
       -0.002000133 0.004437691 0.22918047 -0.046913132
0000c0 dc 97 a0 1e c2 f8 19 9e 1f 67 a6 1e 3d 42 67 1d
       1.7003467e-20 -8.1511945e-21 1.7618584e-20 3.060684e-21
0000d0 e6 53 f7 9c 4f 6f a0 1d 4b 66 1e bd 1c 69 6f bc
       -1.6366776e-21 4.2466738e-21 -0.038671773 -0.014612462
0000e0 52 9f 36 3e 62 17 0e be 46 9d da 1c dc a5 80 1b
       0.17834213 -0.13876107 1.4466684e-21 2.1283008e-22
0000f0 03 48 4d 9f c5 dc aa 3d 7d 9f 18 bb 37 94 5c be
       -4.3470005e-20 0.0834289 -0.0023288422 -0.21540914
000100 95 a9 0a bd 1d 09 d2 3d 0a ea 93 1d 09 21 ed 1d
       -0.033853132 0.102556445 3.9152567e-21 6.2767535e-21
000110 04 c8 dc 3d 5a b9 58 3d 0f b6 c2 bb 35 84 cf 3d
       0.107803375 0.05291114 -0.005942113 0.10132638
000120 be 15 f4 bd 0a 18 4a 1e 8c 64 d7 bc c8 65 a9 bc
       -0.119182095 1.0698762e-20 -0.026293062 -0.020678416
000130 f5 bf d0 bd ab 9c 0f bc 5a c0 93 3e ad a6 65 1c
       -0.10192863 -0.00876538 0.2885769 7.598517e-22
000140 8c d0 ef ba ad 79 c3 3d a7 f9 8f 3d 06 ed 14 1f
       -0.0018296405 0.09544692 0.07030039 3.153628e-20
000150 ad d4 32 9e af 27 c8 9f 6c ab 85 9e c0 a5 62 1e
       -9.467222e-21 -8.4768946e-20 -1.4152821e-20 1.1998617e-20
000160 ea b2 78 1f a9 16 54 3d ee 71 86 9c 7f 37 4e 9e
       5.2664037e-20 0.051779423 -8.896826e-22 -1.09170255e-20
000170 d0 e6 a5 9f 19 c6 e1 1e ba bb 2d 1d b7 03 bb 9e
       -7.0262065e-20 2.3904733e-20 2.2993412e-21 -1.9800932e-20
000180 c4 eb 93 9c 42 7b 80 1d 34 d9 d2 1d 5d de 48 9c
       -9.788588e-22 3.4008763e-21 5.581112e-21 -6.6461847e-22
000190 87 b8 65 1e 6a 69 11 1e 76 d3 39 9f 94 4c c0 9d
       1.21613184e-20 7.698035e-21 -3.935019e-20 -5.0901157e-21
0001a0 1b b8 f5 9b a5 ea 3c 9d e9 d3 01 9e 0a ce 9c 9d
       -4.0650825e-22 -2.5002901e-21 -6.873025e-21 -4.1505896e-21
0001b0 49 97 03 9c a0 0b 44 9e d7 0d e2 1f ae 74 f6 9e
       -4.3539796e-22 -1.0378558e-20 9.573762e-20 -2.609452e-20
0001c0 1b d7 87 1f 7a b5 b2 1e bf e0 23 9e 20 38 86 9d
       5.7530586e-20 1.892154e-20 -8.6756246e-21 -3.5527537e-21
0001d0 ae ad 18 9e aa f8 1b 1e 8e 67 0a 3e 79 d2 36 3d
       -8.082729e-21 8.257054e-21 0.13516065 0.044634316
0001e0 21 78 5b 3d 32 ab c4 be 53 90 4b 9e 8f 70 ac 1d
       0.05358136 -0.38411862 -1.0776576e-20 4.5644404e-21
0001f0 41 63 a6 9d 73 1f 25 9d 2c 84 cc 9d 3f fa d9 9c
       -4.404246e-21 -2.1853827e-21 -5.4135013e-21 -1.4424543e-21
000200 1c 34 9b bc e3 7c 14 be 33 41 3a 3e 0b 5a 3e bd
       -0.018945746 -0.14500766 0.18188934 -0.04647259
000210 49 38 f3 9e 63 87 40 1c cb d0 99 9d 34 cf 3d 3e
       -2.5751905e-20 6.3702454e-22 -4.071465e-21 0.18536073
000220 a0 cc 73 bb 47 a3 31 be a3 2f b1 3d 28 55 30 bd
       -0.0037200823 -0.17347442 0.08651664 -0.04304996
000230 08 fe 08 9f 3d b2 dd 9d 49 7c 48 3e dc eb 9c bd
       -2.900925e-20 -5.8682507e-21 0.19578661 -0.07662174
000240 6c 7a 9d bd ee e6 6b 3e c1 2a 86 3d 9d 6a d2 1f
       -0.07689366 0.23037311 0.065511234 8.9114836e-20
000250 dd 99 20 bd ae 29 48 3d 0a e5 a5 3c 43 5b aa bd
       -0.039209235 0.048867874 0.020250816 -0.08318188
000260 ce b8 69 bd 26 1d ef 1d 1d 4a f1 3c 66 67 2f 3b
       -0.05706101 6.3292912e-21 0.029454285 0.002676451
000270 9d ce f2 bd e3 c3 95 9e f8 33 94 1f 17 f9 56 1c
       -0.118558146 -1.5857005e-20 6.276641e-20 7.11286e-22
000280 b2 ac bf 9e db ed fe 1d a9 25 64 1d ee 54 cc bd
       -2.0294337e-20 6.7479177e-21 3.0195019e-21 -0.099771366
000290 69 d7 04 1e e6 a5 fb 1d 19 b3 6f 1c ab 91 95 9e
       7.0325676e-21 6.661068e-21 7.9309945e-22 -1.5836236e-20
0002a0 d9 b9 a1 9e 83 c6 a7 9c 20 1c dd 9d d2 ea 5a 9e
       -1.7123403e-20 -1.1102447e-21 -5.8527293e-21 -1.1589384e-20
0002b0 34 05 30 9e 44 55 4d 1e 94 a6 24 9d 86 75 dd 1b
       -9.318438e-21 1.0870242e-20 -2.1791338e-21 3.663733e-22
0002c0 4c 88 84 1f 19 fa 4a 9c 8b 6f be 1d 22 a7 9b 1e
       5.612966e-20 -6.7159437e-22 5.0407914e-21 1.6480388e-20
0002d0 fd 08 fe 9e 3f d1 52 1f 9d d7 a3 9e 8a 9b e9 1d
       -2.6897014e-20 4.4642314e-20 -1.7347472e-20 6.183541e-21
0002e0 74 d3 dc 1e ed 20 01 1f 69 c6 e9 1e f9 1c 7e 1e
       2.3380861e-20 2.7344048e-20 2.4751895e-20 1.34526394e-20
0002f0 2d d1 88 1d 02 35 fd 9c 08 d0 29 1f ed be 6d 9e
       3.6215183e-21 -1.6755838e-21 3.595922e-20 -1.2586158e-20
000300 8f 34 e3 3d fb 48 1a be d7 cd 20 3d 71 95 2b 3e
       0.11094009 -0.15066902 0.039258804 0.16756226
000310 3a 1d 1d 1e c1 f0 4d 9f ea 51 b3 1e 66 75 93 1f
       8.317555e-21 -4.3609586e-20 1.8986241e-20 6.245114e-20
000320 a6 fc 0a 9d fe 6a 79 9e f7 e7 53 bc 2e 0b 89 3c
       -1.8394764e-21 -1.3204076e-20 -0.012933723 0.016728964
000330 04 02 a6 be 2c ba 21 be 68 37 d0 9b de 02 91 9d
       -0.32423413 -0.15793675 -3.444652e-22 -3.8384145e-21
000340 e9 fe 92 9d 5c 57 06 3e 95 80 2d bb 27 69 62 3e
       -3.890945e-21 0.13119262 -0.0026474346 0.22110425
000350 4d 83 9e 3d 40 68 50 be af d2 0a 1e 45 69 da 1d
       0.077398874 -0.20352268 7.3492275e-21 5.7812966e-21
000360 c6 05 4d 3d 70 94 17 3c 6f 00 65 3e 25 16 89 be
       0.050054334 0.009251699 0.22363447 -0.26774707
000370 40 d7 34 be 39 71 ea 9f 2b 8c 81 bc ab c7 48 be
       -0.17660236 -9.9290166e-20 -0.015813908 -0.19607417
000380 39 52 2f 3c f9 6c e3 3d d2 13 36 3e f6 3e 19 1c
       0.010700756 0.11104769 0.17780998 5.070483e-22
000390 41 d3 0a be 5d 5e 81 bd 9f af 0a bd e8 45 b6 9d
       -0.1355715 -0.063168265 -0.03385889 -4.824728e-21
0003a0 25 fa 6a 9e 8e 79 90 1c 5f f7 6a 9e af 3d 23 9d
       -1.24395855e-20 9.560542e-22 -1.2439012e-20 -2.160476e-21
0003b0 e7 f9 28 1c a9 48 b0 bd 5a 76 5e a0 21 17 3d 9e
       5.590953e-22 -0.08607609 -1.8843291e-19 -1.001036e-20
0003c0 58 37 c9 1d cd c5 f3 1d 7b 92 16 9d 9d 4c d5 9c
       5.326148e-21 6.4526086e-21 -1.9928063e-21 -1.4114962e-21
0003d0 14 d0 f5 1d 98 c5 2e 1f 3b c0 0f 9f b6 75 e1 1d
       6.5066108e-21 3.700938e-20 -3.0440437e-20 5.9678714e-21
0003e0 10 16 0a 1c 64 3b a8 1d ff 16 47 1e 3e 9b 3f 9e
       4.5688885e-22 4.453064e-21 1.0539728e-20 -1.0143559e-20
0003f0 91 d8 db 9f 7c dd f3 9d 2d df a2 1f f5 f4 49 1e
       -9.310839e-20 -6.4550574e-21 6.897888e-20 1.0691507e-20

gnn.gnn_layers.1.gat_conv.attn_l f4 [1, 6, 32]
000000 43 fe 63 bd 1a 69 37 3e f6 6e 80 be 94 9e 88 3d
       -0.055662405 0.17911187 -0.25084656 0.066708714
000010 bb b9 8a be a9 8a 0f bb 5d 5d fe be 6d 8c 0f 3c
       -0.27094826 -0.0021902716 -0.49680606 0.008761507
000020 5c bf 94 3e 1d 66 2e 3e e6 b2 8b bd 03 cd 8c 3e
       0.29052246 0.1703114 -0.068212315 0.27500162
000030 40 73 4f be c3 4d 8d be 59 ab d9 3e b3 f0 f1 3e
       -0.20258808 -0.2759839 0.4251354 0.4725395
000040 12 8a e2 3d 73 00 e5 3d 2c 3a 7b 3e 8b 72 53 be
       0.11061491 0.11181726 0.2453391 -0.20649163
000050 30 59 a9 3d 6e f7 85 bd 60 da ab 3e f9 72 90 3d
       0.08268964 -0.06541334 0.33565044 0.07053179
000060 85 fd 39 bb 60 a8 9c be 89 23 7e be 1d 4b 39 be
       -0.002837987 -0.3059721 -0.24818243 -0.1809506
000070 c3 d1 6b 3d e3 23 34 be de d0 95 be 88 94 67 bc
       0.05757309 -0.17591815 -0.29260916 -0.014134534
000080 be 0d 30 3d 2a 04 b5 3d d6 f1 13 be 9e ab c8 bd
       0.042981856 0.08838685 -0.14447722 -0.097983584
000090 cf 84 85 3d d9 8c d5 bd 42 9c c6 bd 04 c1 f7 3d
       0.06519472 -0.10427255 -0.096977726 0.12097362
0000a0 d2 c9 27 3f 7a 72 03 3e 20 37 4b 3d 8d 9e 39 3d
       0.6554233 0.12836638 0.04961312 0.04531722
0000b0 78 34 82 3c bc 99 a5 3e b6 56 4c 3e db a6 5e be
       0.01589416 0.32343853 0.19954953 -0.21743338
0000c0 d6 03 37 3e 44 01 3d be bf f1 b8 3d 53 1c 39 be
       0.17872557 -0.18457514 0.090304844 -0.18077211
0000d0 45 80 1e bd c6 d7 52 3e 87 b6 7d bd e8 e0 41 bd
       -0.038696546 0.20590124 -0.06194165 -0.047333628
0000e0 aa ca fc bd dc 00 05 bf 55 39 22 3d 4f 56 09 be
       -0.123433426 -0.51954436 0.039605457 -0.1341183
0000f0 8b c8 be bd a2 86 96 be 50 e0 63 bd 0f 7b 19 3e
       -0.09315594 -0.29399592 -0.055633843 0.1498835
000100 53 62 4d 3d f9 c7 a2 be af c2 08 3d 7b 48 ca bc
       0.050142597 -0.31793192 0.03338879 -0.024692765
000110 4b 2b 74 be 07 c8 26 be 29 9a 30 be c6 3c d4 3e
       -0.2384464 -0.16287242 -0.17246307 0.41452616
000120 dd 9c ec b9 d9 66 fb be 7a eb dc bc 2d 8b e1 bd
       -0.000451303 -0.49101904 -0.026967753 -0.11012874
000130 44 a9 84 3b 46 79 ef bb 6f 35 15 be 7a fc 48 be
       0.0040484983 -0.007308158 -0.14571165 -0.19627562
000140 29 81 b8 be 65 f9 8d 3d a5 dc e9 be 49 e9 18 3e
       -0.3603604 0.06932334 -0.4567615 0.14932741
000150 51 59 9b 3e 59 16 99 3d 34 bb 2c 3e 83 7a 44 bc
       0.3034158 0.074749656 0.16868287 -0.0119921
000160 fc 32 a8 bd 16 99 70 3e 51 10 26 3d 8b 89 ad 3e
       -0.082128495 0.23495898 0.040542904 0.33894
000170 b2 de 04 3e 60 2d 00 3e d9 5d ea 3d 4d a5 a6 bc
       0.12975577 0.12517309 0.11443681 -0.020342493
000180 8a b0 73 3e 78 09 80 3e 96 45 40 be f5 56 43 be
       0.23797813 0.25007224 -0.18776545 -0.1907614
000190 b1 2a 9e be fc 62 28 be 67 fa 26 3e 4e 3f 84 3e
       -0.30891946 -0.1644401 0.16306458 0.25829548
0001a0 78 1d 3a be 45 0e 5b 3e 9d b0 58 3e c9 75 68 3e
       -0.18175304 0.21392162 0.21161123 0.22701181
0001b0 17 9a 5b 3e 7b a9 56 be ab 81 d0 be aa a4 c7 bc
       0.214455 -0.20963089 -0.4072393 -0.02437051
0001c0 d4 b8 0a be 9c 7a 40 be 92 3d 5c bd a3 50 51 3d
       -0.13547069 -0.18796772 -0.053769656 0.05110229
0001d0 85 eb 19 3c 23 0b 81 be 03 d0 e9 bc 77 fe 23 3e
       0.009394531 -0.2520381 -0.02854157 0.1601504
0001e0 84 cd 39 be be 26 05 3e e6 cf d2 be 57 34 d0 3d
       -0.18144804 0.1300306 -0.4117424 0.10166233
0001f0 b4 c0 8f 3e 12 ce 0c be 8f 7f 78 be 38 04 b4 3d
       0.28076708 -0.13750485 -0.2426741 0.08789867
000200 36 4c 9b 3d 42 98 a1 be 57 05 54 be 85 d6 a6 bb
       0.075828955 -0.31561476 -0.20705162 -0.0050914907
000210 e3 eb 51 3e 53 64 35 bd 43 f9 8d bd 49 f4 c4 3d
       0.2050014 -0.04428513 -0.069323085 0.09616906
000220 b0 93 8e bd c7 cc 86 be 17 20 14 3c 46 28 be 3d
       -0.06961763 -0.26328108 0.009040854 0.09285025
000230 0e 19 0b be 18 f2 26 3e 6a 56 f4 bc 83 06 2c 3e
       -0.13583776 0.16303289 -0.029826362 0.16799359
000240 ba f9 45 be d9 cc e7 3d 4c 01 66 be 38 91 70 3c
       -0.19333544 0.113183685 -0.22461432 0.01468306
000250 8d 97 ac 3c 43 67 6f 3b ae 8c bf be ca 3b b2 bd
       0.021068359 0.0036530055 -0.37412018 -0.0870281
000260 69 d4 9e be d7 3b 87 bd df 97 f3 be 6d 82 3f 3f
       -0.3102143 -0.066032104 -0.47576806 0.7480839
000270 99 71 d2 3e 83 a0 bf 3a 01 e2 a6 bb 14 06 4a 3d
       0.41102293 0.001461998 -0.0050928597 0.049322203
000280 52 4e ab 3d d7 8a 4e 3d 76 6a 0b 3e 02 43 05 3e
       0.08364548 0.050425377 0.1361483 0.13013843
000290 20 f1 2d 3c 10 e6 e8 bd 0e de 5a 3d b3 ea ee 3d
       0.010616571 -0.11372006 0.053434424 0.11665859
0002a0 c0 af 51 be 53 e8 3a be 30 d6 20 3d 00 d4 77 3a
       -0.204772 -0.18252687 0.039266765 0.00094538927
0002b0 3e 21 2c be 60 01 98 3b 19 b5 b5 bd 2b 38 3e bd
       -0.16809556 0.004638836 -0.08872432 -0.046440285
0002c0 eb d1 24 3c 1d ed 67 be f8 99 91 bd 5d 83 08 be
       0.010059814 -0.22649045 -0.07109445 -0.13331361
0002d0 1b 1a 9d bd cc 5d 9d bd af 2b cd 3d ec 77 8f be
       -0.07670995 -0.07683906 0.100180976 -0.2802118
0002e0 75 ab 0d 3e c5 cf fc 3d b5 0d 08 3a 39 b3 32 bd
       0.13834937 0.123443164 0.0005190031 -0.04362795
0002f0 f2 be 81 bc 94 78 25 bd 73 d1 91 3d 8a 1a 1a 3d
       -0.01583812 -0.040398195 0.071200274 0.037622966

gnn.gnn_layers.1.gat_conv.attn_r f4 [1, 6, 32]
000000 ba f2 9c 3d db 6b ec bd 3d e8 a4 3e 84 d5 55 3d
       0.07663484 -0.11544009 0.32208434 0.052205577
000010 18 31 d4 3e 9b 4d 87 be 26 17 63 3e 35 74 a7 3e
       0.41443706 -0.26426396 0.22176799 0.32705846
000020 38 60 da bd 81 f4 94 be 24 50 b8 3e dd da 3c 3c
       -0.106628835 -0.29092792 0.35998642 0.01152679
000030 f9 65 4f be a0 e0 5b 3e cb ca 9f be 4c 10 e4 bd
       -0.20253743 0.21472406 -0.31209406 -0.11135921
000040 c9 48 0e bd 9f 52 8b bc c5 19 bc be e8 fe a5 3e
       -0.034737382 -0.01700717 -0.3673841 0.3242104
000050 e3 5a fb 3d 3a d4 87 be 72 7c d2 3d 8e e3 3f be
       0.12273195 -0.26529104 0.10277642 -0.18739149
000060 af c7 1f be 45 b0 a4 3e 50 d9 cb 3e 8e ca d5 bd
       -0.15603517 0.32165733 0.39814234 -0.10439025
000070 e8 9f 64 3c 0f ba 5c bd 7a a1 f3 bd 50 47 11 3d
       0.01395414 -0.053888377 -0.118960336 0.0354684
000080 8b 15 c3 bb 68 37 b9 bd 68 da b4 3c d8 2a 69 3e
       -0.005953496 -0.09043771 0.0220768 0.2277025
000090 ac 7b 23 3e 34 8d 66 3e 1b 61 d1 be e0 b9 46 3e
       0.15965146 0.22514802 -0.40894398 0.19406843
0000a0 d3 b2 aa be bc 33 24 3e 85 5d 15 3d cf 22 72 3e
       -0.33339557 0.1603536 0.03646614 0.23646091
0000b0 2f 4f b4 bc 27 22 85 3e 48 67 c3 bd 91 1d 52 3c
       -0.022010414 0.2600262 -0.09541184 0.012824432
0000c0 c0 98 be bd aa 60 35 3d e6 72 02 3e da a8 76 be
       -0.093064785 0.04428164 0.12739143 -0.2408785
0000d0 ce 87 71 3e e7 10 cb bd 6f bd ce 3d 30 21 73 bd
       0.23586962 -0.09915333 0.10094725 -0.059357822
0000e0 ee 5a f0 bd 3e 15 10 3e 46 b6 93 3d 2c 19 4a be
       -0.117360935 0.14070603 0.072125 -0.19736165
0000f0 6a d3 6d 3e 49 17 ef 3d ec a5 f4 be a9 c9 fa 3d
       0.2322518 0.11674363 -0.47782838 0.12245495
000100 94 68 b2 3d 03 23 12 3d ee e5 e7 bd e3 34 44 3d
       0.08711353 0.03567792 -0.113231525 0.047902
000110 d5 c8 09 3e 54 93 af 3e 1b 84 7f be 06 9d 35 3d
       0.13455518 0.3429209 -0.24952738 0.044339202
000120 30 1f 0b bf b0 29 30 3e 8c c4 67 be 4c 4d a7 3c
       -0.54344463 0.17203403 -0.2263357 0.0204226
000130 ae 90 b9 be 26 fb 14 3e 34 ad e2 3d 51 2d 26 3e
       -0.36243194 0.1454893 0.11068192 0.16228224
000140 8c d8 89 3e d5 8c c6 3d 4f 5e 0b 3e 70 38 8a be
       0.26923025 0.0969483 0.13610195 -0.26996183
000150 f1 d9 e0 bc 92 7f d3 bd 45 ed 09 3e b4 97 5e 3e
       -0.027447673 -0.103270665 0.13469417 0.21737558
000160 67 1e 78 3d d3 0e 0b 3e db 6c 25 3d f7 86 d0 3d
       0.06057587 0.13579874 0.040387016 0.101819925
000170 54 df 65 3e a0 0c 16 be 2c fc 06 bf 81 6a fe bd
       0.22448474 -0.14653254 -0.52728534 -0.12422658
000180 ee b2 1c 3c 62 f9 77 bd ac 92 b7 3d a6 3a b5 3d
       0.009564145 -0.060540564 0.08963522 0.08849077
000190 cc fe f5 3d 30 27 ec 3c 9f c5 51 b9 24 9f f8 3d
       0.12011489 0.02882728 -0.00020005413 0.12139729
0001a0 16 0f e2 3d 44 b1 7c 3d 12 f0 71 bd 60 3b cf bd
       0.11038034 0.06169249 -0.05906684 -0.10118747
0001b0 57 d4 3a be 78 3a ca 3d a6 55 cf bc 5c 0a 99 3d
       -0.18245064 0.09874433 -0.025309395 0.07472679
0001c0 de 38 b2 3d 16 19 45 3e cf c5 96 bd 4f 36 60 bd
       0.08702253 0.19247851 -0.07361948 -0.054739293
0001d0 a0 e1 7a be ed e0 ca 3d ba ec 0a 3e d6 20 d7 bd
       -0.24500132 0.099061824 0.13566867 -0.1050431
0001e0 30 e6 a3 3d a8 f8 7a 3d 08 6b 1c 3e 5c 3e d5 bd
       0.08002889 0.061272293 0.15275204 -0.10412285
0001f0 30 b2 58 3c f0 c7 a4 3b c0 55 24 be 41 4c c3 3d
       0.013226077 0.005028717 -0.16048336 0.09536029
000200 99 19 c6 bd 4d 8f 9a 3d 9d 99 5a bd 4e 89 4d 3d
       -0.09672851 0.07546864 -0.053369153 0.050179772
000210 96 a6 42 3c 83 25 0a be f4 36 33 be 85 8a 2c bc
       0.0118805375 -0.13490872 -0.17501432 -0.0105310725
000220 90 0e 00 bc a1 3d 01 be 6f 0d 63 bd 80 1e 26 bc
       -0.007815972 -0.12621166 -0.055432733 -0.010139108
000230 e7 52 9e 3d 95 4b cc 3c 4d ca 44 3c 20 32 67 3e
       0.07730656 0.024938384 0.012011123 0.22577715
000240 5d ea 00 bd ff df 18 be 1d 31 2b 3e 51 a9 59 3d
       -0.031473506 -0.14929198 0.16717954 0.05313999
000250 7b de 09 3d a3 48 11 bb 73 fd 40 be f6 9d a1 3d
       0.03365944 -0.002216854 -0.18846683 0.07891457
000260 af 39 52 bd bb b1 96 bd a5 06 98 3c a9 d8 00 bc
       -0.051324543 -0.07358118 0.018557856 -0.007864156
000270 90 57 df bd 69 dd ee bd a5 4f 3c 3d a7 78 70 bd
       -0.10905373 -0.116633244 0.045974392 -0.058708813
000280 de b7 93 be 6f 2c 65 be b0 91 61 be 59 bd 94 bc
       -0.28851217 -0.22380231 -0.22028232 -0.018156694
000290 ab 68 41 3e b2 14 19 3f 1c d0 53 be d4 0e bd 3d
       0.18887584 0.59797204 -0.20684856 0.09231344
0002a0 4e c3 b6 bb 07 ee c9 3e 7d 00 f2 bd 74 bd 18 3d
       -0.0055774814 0.39439413 -0.118164994 0.03729005
0002b0 06 55 2d 3e 44 c9 29 be 8a c2 85 3e 67 74 4d 3e
       0.16926965 -0.16580683 0.26124984 0.20063935
0002c0 b4 be b4 bc 36 52 cf 3e bf 64 00 3f c7 b9 10 3e
       -0.02206359 0.4049241 0.50153726 0.14133368
0002d0 c8 04 4c bd f1 da 4e be e5 db 6c be 4c 1b bd 3e
       -0.049809247 -0.20200707 -0.23130758 0.36934888
0002e0 8e 2a 11 be 23 4c 8c bc 71 8c 52 be 4a 68 1b 3d
       -0.1417639 -0.017126149 -0.20561387 0.037941255
0002f0 99 d9 65 3c 27 73 8e 3d 3d 74 06 be b0 58 70 3d
       0.01402893 0.06955557 -0.13130279 0.05867833

gnn.gnn_layers.1.gat_conv.bias f4 [192]
000000 80 98 9c 3d 9d 19 ce 3d 51 fd 8b 3d 33 13 2c 3e
       0.076462746 0.10063479 0.06835426 0.16804199
000010 85 96 ed 3d 8e 34 81 bd 1c e0 18 be e0 34 c7 3d
       0.11600975 -0.06308852 -0.14929241 0.09726882
000020 2b 43 48 be 52 2c 1a be 75 a6 16 bd 0c b6 30 3d
       -0.19556873 -0.1505597 -0.03677984 0.043142363
000030 4b e7 97 be 44 95 91 3d c0 8a c1 3d ec fa 7f 3d
       -0.2966865 0.07108548 0.094502926 0.062495157
000040 e3 84 18 3c ae ad 81 be f9 d0 c2 bd ee 38 27 bd
       0.009309026 -0.2532782 -0.095125146 -0.040825777
000050 f2 ce 89 bc 20 e3 b6 3d 16 ae e7 3d 0b ac 91 be
       -0.016822312 0.089300394 0.11312501 -0.2845157
000060 8c 65 08 3d 5b a7 42 bd 5f 65 b3 3d ac bd b2 be
       0.033299968 -0.047522884 0.087595694 -0.34910333
000070 f1 57 d0 bc 45 82 7c be 9d 57 57 be f0 1f 15 bd
       -0.025432559 -0.24659069 -0.21029516 -0.03640741
000080 80 98 9c 3d 9d 19 ce 3d 51 fd 8b 3d 33 13 2c 3e
       0.076462746 0.10063479 0.06835426 0.16804199
000090 85 96 ed 3d 8e 34 81 bd 1c e0 18 be e0 34 c7 3d
       0.11600975 -0.06308852 -0.14929241 0.09726882
0000a0 2b 43 48 be 52 2c 1a be 75 a6 16 bd 0c b6 30 3d
       -0.19556873 -0.1505597 -0.03677984 0.043142363
0000b0 4b e7 97 be 44 95 91 3d c0 8a c1 3d ec fa 7f 3d
       -0.2966865 0.07108548 0.094502926 0.062495157
0000c0 e3 84 18 3c ae ad 81 be f9 d0 c2 bd ee 38 27 bd
       0.009309026 -0.2532782 -0.095125146 -0.040825777
0000d0 f2 ce 89 bc 20 e3 b6 3d 16 ae e7 3d 0b ac 91 be
       -0.016822312 0.089300394 0.11312501 -0.2845157
0000e0 8c 65 08 3d 5b a7 42 bd 5f 65 b3 3d ac bd b2 be
       0.033299968 -0.047522884 0.087595694 -0.34910333
0000f0 f1 57 d0 bc 45 82 7c be 9d 57 57 be f0 1f 15 bd
       -0.025432559 -0.24659069 -0.21029516 -0.03640741
000100 80 98 9c 3d 9d 19 ce 3d 51 fd 8b 3d 33 13 2c 3e
       0.076462746 0.10063479 0.06835426 0.16804199
000110 85 96 ed 3d 8e 34 81 bd 1c e0 18 be e0 34 c7 3d
       0.11600975 -0.06308852 -0.14929241 0.09726882
000120 2b 43 48 be 52 2c 1a be 75 a6 16 bd 0c b6 30 3d
       -0.19556873 -0.1505597 -0.03677984 0.043142363
000130 4b e7 97 be 44 95 91 3d c0 8a c1 3d ec fa 7f 3d
       -0.2966865 0.07108548 0.094502926 0.062495157
000140 e3 84 18 3c ae ad 81 be f9 d0 c2 bd ee 38 27 bd
       0.009309026 -0.2532782 -0.095125146 -0.040825777
000150 f2 ce 89 bc 20 e3 b6 3d 16 ae e7 3d 0b ac 91 be
       -0.016822312 0.089300394 0.11312501 -0.2845157
000160 8c 65 08 3d 5b a7 42 bd 5f 65 b3 3d ac bd b2 be
       0.033299968 -0.047522884 0.087595694 -0.34910333
000170 f1 57 d0 bc 45 82 7c be 9d 57 57 be f0 1f 15 bd
       -0.025432559 -0.24659069 -0.21029516 -0.03640741
000180 80 98 9c 3d 9d 19 ce 3d 51 fd 8b 3d 33 13 2c 3e
       0.076462746 0.10063479 0.06835426 0.16804199
000190 85 96 ed 3d 8e 34 81 bd 1c e0 18 be e0 34 c7 3d
       0.11600975 -0.06308852 -0.14929241 0.09726882
0001a0 2b 43 48 be 52 2c 1a be 75 a6 16 bd 0c b6 30 3d
       -0.19556873 -0.1505597 -0.03677984 0.043142363
0001b0 4b e7 97 be 44 95 91 3d c0 8a c1 3d ec fa 7f 3d
       -0.2966865 0.07108548 0.094502926 0.062495157
0001c0 e3 84 18 3c ae ad 81 be f9 d0 c2 bd ee 38 27 bd
       0.009309026 -0.2532782 -0.095125146 -0.040825777
0001d0 f2 ce 89 bc 20 e3 b6 3d 16 ae e7 3d 0b ac 91 be
       -0.016822312 0.089300394 0.11312501 -0.2845157
0001e0 8c 65 08 3d 5b a7 42 bd 5f 65 b3 3d ac bd b2 be
       0.033299968 -0.047522884 0.087595694 -0.34910333
0001f0 f1 57 d0 bc 45 82 7c be 9d 57 57 be f0 1f 15 bd
       -0.025432559 -0.24659069 -0.21029516 -0.03640741
000200 80 98 9c 3d 9d 19 ce 3d 51 fd 8b 3d 33 13 2c 3e
       0.076462746 0.10063479 0.06835426 0.16804199
000210 85 96 ed 3d 8e 34 81 bd 1c e0 18 be e0 34 c7 3d
       0.11600975 -0.06308852 -0.14929241 0.09726882
000220 2b 43 48 be 52 2c 1a be 75 a6 16 bd 0c b6 30 3d
       -0.19556873 -0.1505597 -0.03677984 0.043142363
000230 4b e7 97 be 44 95 91 3d c0 8a c1 3d ec fa 7f 3d
       -0.2966865 0.07108548 0.094502926 0.062495157
000240 e3 84 18 3c ae ad 81 be f9 d0 c2 bd ee 38 27 bd
       0.009309026 -0.2532782 -0.095125146 -0.040825777
000250 f2 ce 89 bc 20 e3 b6 3d 16 ae e7 3d 0b ac 91 be
       -0.016822312 0.089300394 0.11312501 -0.2845157
000260 8c 65 08 3d 5b a7 42 bd 5f 65 b3 3d ac bd b2 be
       0.033299968 -0.047522884 0.087595694 -0.34910333
000270 f1 57 d0 bc 45 82 7c be 9d 57 57 be f0 1f 15 bd
       -0.025432559 -0.24659069 -0.21029516 -0.03640741
000280 80 98 9c 3d 9d 19 ce 3d 51 fd 8b 3d 33 13 2c 3e
       0.076462746 0.10063479 0.06835426 0.16804199
000290 85 96 ed 3d 8e 34 81 bd 1c e0 18 be e0 34 c7 3d
       0.11600975 -0.06308852 -0.14929241 0.09726882
0002a0 2b 43 48 be 52 2c 1a be 75 a6 16 bd 0c b6 30 3d
       -0.19556873 -0.1505597 -0.03677984 0.043142363
0002b0 4b e7 97 be 44 95 91 3d c0 8a c1 3d ec fa 7f 3d
       -0.2966865 0.07108548 0.094502926 0.062495157
0002c0 e3 84 18 3c ae ad 81 be f9 d0 c2 bd ee 38 27 bd
       0.009309026 -0.2532782 -0.095125146 -0.040825777
0002d0 f2 ce 89 bc 20 e3 b6 3d 16 ae e7 3d 0b ac 91 be
       -0.016822312 0.089300394 0.11312501 -0.2845157
0002e0 8c 65 08 3d 5b a7 42 bd 5f 65 b3 3d ac bd b2 be
       0.033299968 -0.047522884 0.087595694 -0.34910333
0002f0 f1 57 d0 bc 45 82 7c be 9d 57 57 be f0 1f 15 bd
       -0.025432559 -0.24659069 -0.21029516 -0.03640741
