1-GNNs/result/6108_AR_NURA_MPNN_0920/32/model.pth (torch, 437615 bytes, 26 tensors)

gnn.project_node_feats.0.weight f4 [32, 74]
-2.6802664 -0.8226845 -2.6531093 0.12577459 -0.17282002 -2.8260047e-15 0.0015292987 -0.17509812
0.3009689 -2.226432e-15 -1.5593545e-15 2.4280168e-16 1.9023195e-15 4.2404142e-16 -6.4949205e-16 -1.48275e-15
-1.3054686e-15 1.118869e-15 2.8539005e-15 2.1716046e-15 -2.1398943e-15 1.0029235e-15 6.202875e-17 4.382629e-16
2.926905e-15 -2.5145213e-15 -2.6949725e-15 -3.111792e-15 -1.5029407e-15 1.7881397e-15 3.421496e-15 1.7045449e-15
-3.1573788e-15 2.3621178e-15 -2.8092866e-15 2.3789691e-15 -1.2217128e-15 -1.9807751e-15 9.640254e-17 -2.1333992e-15
-2.3229658e-15 -2.7603559e-15 1.9770158e-15 3.6067682e-17 -1.6423076 -2.4885018 -1.5101205 0.14636569
2.1653283e-15 -3.0749087e-15 7.859497e-17 1.1139849e-15 2.3491637e-15 1.0009708e-15 -3.3176205 -2.6103044
-2.5152903 -1.7463325 1.8693938e-16 -2.6607514e-15 2.1541966e-15 -0.0022392368 8.150407e-16 -0.51558286
-2.599209 -2.5145836 -8.7775907e-16 2.545528e-15 -3.4319994 -3.3253565 -2.6097074 -2.5152898
-1.7439393 -1.7771063e-15 -0.036280163 2.2987088e-14 1.8698786e-13 4.9303005e-15 -2.9398887e-15 -5.744286e-16
-1.5049842e-15 -1.5839195e-17 7.059401e-16 -3.824905e-15 -2.3618379e-15 -2.5031772e-15 -2.4518965e-15 -1.497617e-15
9.506561e-16 9.50289e-16 3.890423e-16 1.2364886e-15 -2.8975623e-15 2.0783753e-15 -2.9229437e-16 3.607089e-15
-2.2508609e-15 2.6389477e-15 2.5262144e-15 2.7741712e-15 1.8794924e-15 -5.39257e-16 -2.3300016e-16 1.6955949e-15
-2.8833321e-15 1.2238395e-15 -2.7124485e-15 -4.059526e-16 -2.961937e-15 -3.0944653e-15 -4.5956667e-16 -3.160394e-15
-2.3939826e-15 8.102553e-16 5.34647e-16 -2.3422742e-15 2.8558442e-15 -2.6509105e-15 6.26722e-09 -0.01115578
-1.2052036e-13 1.0310329e-14 7.4927873e-16 -2.2999039e-15 -3.1639088e-15 6.6664574e-16 -1.972148e-15 2.0410745e-15
-4.3456805e-14 -0.003208322 4.487911e-09 -1.5801914e-11 -2.2102577e-15 3.1424823e-15 2.569654e-15 -2.879401e-15
2.5557125e-15 2.7628258e-15 -0.0014991603 -0.0013620546 -2.2912948e-15 -2.5305137e-15 -0.00021968076 -4.8441957e-14
-0.0034869479 4.8796562e-09 -1.55615e-11 -2.947545e-15 -0.17585395 -1.1991084e-13 -4.649927e-13 1.1048828e-14
8.482086e-15 3.4302696e-15 4.5619255e-15 1.7404447e-14 5.5659356e-17 -1.0065461e-15 2.1574429e-15 3.6575576e-16
2.4997885e-16 8.9651e-16 -1.1362924e-15 -9.401848e-15 2.4976454e-15 -2.3186595e-15 8.7394175e-16 2.1309788e-15
-2.8945157e-15 2.3504686e-15 1.10344054e-16 2.4113999e-15 -9.852838e-16 3.3554452e-15 1.8678634e-16 7.1061723e-16
-3.1853546e-15 -2.2954267e-15 -3.4529194e-15 -2.4288486e-15 -2.3345306e-15 1.337924e-15 2.3507278e-15 2.8050412e-16
-2.8330188e-15 2.0984259e-15 3.6092057e-15 1.1532879e-15 1.0312006e-15 -1.5242164e-15 3.0031286e-15 8.4485607e-16
-0.00950456 -0.036844164 5.4285647e-09 -1.1626989e-14 -2.898506e-15 -1.1556565e-15 2.462117e-15 -2.2260288e-15
-3.461395e-15 -1.7271975e-15 -4.301545e-10 -0.0021132748 -0.0060633924 -0.0023017214 -2.3662738e-15 2.8989213e-15
-6.3823154e-16 8.989299e-15 2.0385123e-15 1.4286828e-14 -0.004138297 -0.09862318 1.5504699e-15 -8.8759026e-16
-0.00013339931 -3.1042433e-10 -0.0020919498 -0.0054578404 -0.0023925798 1.9284765e-15 -0.6909138 -0.27443865
-0.28533962 8.044223e-05 -0.012140957 2.6628749e-15 1.2183255e-05 0.034602225 -5.181266e-10 -3.1847742e-15
-2.2815891e-15 -1.4126249e-15 8.052586e-16 -2.2047838e-15 -3.4574987e-15 -8.802947e-15 1.1663564e-15 -3.000902e-15
1.4227499e-15 -2.1740568e-15 -8.0385417e-16 3.636083e-15 -3.3675353e-15 3.015866e-16 2.5434208e-15 -2.5070113e-15
-1.1171341e-15 1.4586953e-15 1.066815e-15 2.8821984e-15 3.2821828e-15 -1.0736771e-16 -2.0539981e-15 3.3842598e-15
00000000: 7c89 2bc0 749b 52bf 8bcc 29c0 0ecb 003e
00000010: bbf7 30be 96a2 4ba7 c072 c83a ec4c 33be
00000020: 9818 9a3e 6c6e 20a7 07ba e0a6 34f7 8b25
00000030: 9a13 0927 7871 f425 0e34 3ba6 d2af d5a6
00000040: 4a23 bca6 fb3e a126 2ca5 4d27 097b 1c27
00000050: 1532 1aa7 5989 9026 5007 8f24 30a4 fc25
00000060: dee7 5227 bb30 35a7 7831 42a7 6e3a 60a7
00000070: ba98 d8a6 5bd9 0027 768b 7627 9ba6 f526
00000080: 5c83 63a7 6235 2a27 316e 4aa7 3c6c 2b27
00000090: 3f11 b0a6 daba 0ea7 044a de24 45ba 19a7
000000a0: 2863 27a7 94e7 46a7 8175 0e27 3455 2624
000000b0: 2337 d2bf 9d43 1fc0 a14b c1bf e3e0 153e
000000c0: 4207 1c27 0e92 5da7 483a b524 ca8a a026
000000d0: 6c46 2927 4e41 9026 e553 54c0 3a0f 27c0
000000e0: 84fa 20c0 d387 dfbf c486 5725 33ba 3fa7
000000f0: ea39 1b27 29c0 12bb 64eb 6a26 3dfd 03bf
00000100: 7159 26c0 f0ee 20c0 30ff 7ca6 b46c 3727
00000110: e1a5 5bc0 a4d2 54c0 7205 27c0 82fa 20c0
00000120: 6739 dfbf d30d 00a7 829a 14bd 9e0c cf28
00000130: 9587 522a ffa1 b127 60d7 53a7 5991 25a6
00000140: 1ee4 d8a6 3e17 92a3 2f79 4b26 86ce 89a7
00000150: 3830 2aa7 785f 34a7 82ad 30a7 51d4 d7a6
00000160: 0501 8926 7af3 8826 8344 e025 6132 b226
00000170: 97ca 50a7 42c3 1527 097f a8a5 86f5 8127
00000180: 0e31 22a7 fe27 3e27 6e08 3627 6de6 4727
00000190: 846e 0727 256e 1ba6 c150 86a5 695c f426
000001a0: 17c4 4fa7 b55f b026 d873 43a7 0804 eaa5
000001b0: 186e 55a7 cffa 5ea7 0976 04a6 fbba 63a7
000001c0: 2f81 2ca7 4a8a 6926 fc19 1a26 55c7 28a7
000001d0: 07c9 4d27 ab04 3fa7 0d57 d731 bcc6 36bc
000001e0: a1b1 07aa 00bc 3928 03f7 5726 bdb9 25a7
000001f0: d1fb 63a7 c625 4026 b61b 0ea7 2e13 1327
00000200: 49b6 43a9 b642 52bb 1534 9a31 bffe 8aad
00000210: 0f44 1fa7 9170 6227 c029 3927 937b 4fa7
00000220: 9328 3827 2415 4727 797f c4ba f886 b2ba
00000230: ee1a 25a7 bd57 36a7 1b5a 66b9 c629 5aa9
00000240: 4785 64bb e9a9 a731 62e1 88ad 9c64 54a7
00000250: 0f13 34be f201 07aa 41e2 02ab ba09 4728
00000260: b8cc 1828 4e2d 7727 565c a427 ecc3 9c28
00000270: 7c57 8024 ff0e 91a6 cc75 1b27 06d8 d225
00000280: 5e1a 9025 6233 8126 cac1 a3a6 5f5e 29a8
00000290: 6df9 3327 b813 27a7 85e5 7b26 9f8d 1927
000002a0: 6492 50a7 7e5e 2927 a26f fe24 7ac2 2d27
000002b0: 8efe 8da6 0ac9 7127 9959 5725 4cd2 4c26
000002c0: 6c87 65a7 2667 25a7 1fcf 78a7 5904 2fa7
000002d0: 7d38 28a7 afd0 c026 4663 2927 1ab3 a125
000002e0: f923 4ca7 2035 1727 0c09 8227 d034 a626
000002f0: 969c 9426 a9a9 dba6 f265 5827 6083 7326
00000300: 04b9 1bbc e8e9 16bd 2986 ba31 0674 51a8
00000310: 00dc 50a7 338c a6a6 0b6a 3127 fc66 20a7
00000320: 786b 79a7 57ea f8a6 dd7a ecaf de7e 0abb
00000330: 6caf c6bb 7ad8 16bb 0c82 2aa7 a9e3 5027
00000340: 2df5 37a6 d3ef 2128 eae3 1227 2faf 8028
00000350: 8d9a 87bb f3fa c9bd 3e72 df26 9ad4 7fa6
00000360: 1be1 0bb9 57a8 aaaf 1819 09bb afd7 b2bb
00000370: d4cc 1cbb 1df6 0a27 badf 30bf 3983 8cbe
00000380: 0918 92be 18b3 a838 ddea 46bc 5fe1 3f27
00000390: af66 4c37 10bb 0d3d eb6b 0eb0 b77c 65a7
000003a0: e467 24a7 a994 cba6 9919 6826 15df 1ea7
000003b0: 9823 79a7 6d94 1ea8 f516 a826 df3c 58a7
000003c0: 350a cd26 45a8 1ca7 f8b1 67a6 f200 8327
000003d0: 10a8 72a7 54da ad25 d545 3727 32a6 34a7
000003e0: f9fe a0a6 5c38 d226 87be 9926 2daf 4f27
000003f0: 9681 6c27 b692 f7a4 9401 14a7 93dc 7327

gnn.project_node_feats.0.bias f4 [32]
-2.6474652 -0.07187004 -0.19954455 -0.815322 -0.24034338 -0.4238079 -0.050571885 3.215121
0.19124545 -0.4507112 1.5094028 1.6000563 -7.164534e-05 -0.08307085 3.6948335 3.0485923
-0.10550052 -3.238837e-05 -0.42125794 -0.00042904838 -0.00043483864 4.4830165 -0.47784895 -0.0038650846
-4.546741e-06 -0.0032575724 -0.16096212 1.286257 -0.08234965 -0.25040394 3.8760571 -0.16875704
00000000: 1270 29c0 9930 93bd 6855 4cbe f1b8 50bf
00000010: 931c 76be 59fd d8be 7724 4fbd 8bc4 4d40
00000020: d9d5 433e 9ec3 e6be 1c34 c13f a5ce cc3f
00000030: 4d40 96b8 0d21 aabd 2778 6c40 231c 4340
00000040: a810 d8bd bfd8 07b8 1faf d7be e6f1 e0b9
00000050: 0efb e3b9 df74 8f40 9ea8 f4be 5c4d 7dbb
00000060: 3590 98b6 ff7c 55bb 41d3 24be 12a4 a43f
00000070: efa6 a8bd f234 80be 5211 7840 a5ce 2cbe

gnn.gnn_layer.bias f4 [32]
-3.0030425 -3.076483 -0.04314983 -3.8864367 0.17296857 0.38443512 0.34873736 2.8046196
-1.4917704 -2.9562364 -1.1751717 -6.049387e-10 -1.6931393 -1.0978838 -1.6979086 1.4423354
1.060053e-09 2.0098124 1.4137565 5.0692535e-05 0.45280114 -1.0164005 0.2530548 1.7797738
2.468318 -0.03942307 -0.6948342 0.84602034 -5.396346e-07 1.8918748 0.1689405 2.1737368
00000000: d931 40c0 19e5 44c0 e0bd 30bd 61bb 78c0
00000010: ac1e 313e aed4 c43e b48d b23e e37e 3340
00000020: 55f2 bebf fa32 3dc0 076c 96bf c748 26b0
00000030: cab8 d8bf 7587 8cbf 1255 d9bf 729e b83f
00000040: 4db1 9130 c4a0 0040 f9f5 b43f b29e 5438
00000050: 8dd5 e73e 6919 82bf 6690 813e a1cf e33f
00000060: ecf8 1d40 167a 21bd a7e0 31bf ca94 583f
00000070: 68db 10b5 f428 f23f bdfe 2c3e 811e 0b40

gnn.gnn_layer.edge_func.0.weight f4 [64, 13]
-2.9584227e-11 -1.1085258e-12 5.2496263e-17 -7.819301e-13 -3.714323e-12 -7.654693e-12 6.3644094e-12 2.9468945e-15
1.8001083e-15 2.8662206e-15 2.4834993e-15 -5.1491435e-16 7.496147e-13 -0.1331929 0.02443953 0.016758066
-0.98304313 -0.858186 -0.85436445 -0.6362969 2.5805777e-16 2.04366e-15 2.9070834e-15 -2.4335348e-15
9.055794e-16 -0.36875597 -1.0231665 -1.6925256 -1.1694348e-06 -0.00083182834 -1.1428907 1.2788194
-1.6328372 -3.1835545e-15 2.65539e-16 -3.0808278e-15 -1.3960177e-15 4.643204e-16 -1.548445 3.999628e-05
3.5049115e-06 -7.436761e-07 -4.1918247e-05 -5.0472474e-05 -5.1118273e-05 -5.7061847e-05 4.6277317e-16 6.642847e-17
3.1877274e-15 -8.7216103e-16 3.4670941e-15 -1.2152522e-05 3.545398e-08 2.9414181e-05 -2.4303777e-08 -1.4920349e-07
-1.2222579e-07 -1.3415807e-07 -5.7366924e-06 -2.3734795e-15 2.3274905e-15 -4.943579e-16 1.7562893e-15 -9.91724e-16
-6.0671134e-08 -0.072783805 0.0022255508 0.0068429024 -0.41156077 -0.40114966 -0.3579743 -0.3114977
2.385142e-15 -2.1983177e-15 -2.3523143e-15 6.188037e-16 -1.8941209e-15 -0.18977097 7.657417e-07 2.4734634e-05
5.4520285e-07 -6.811261e-05 0.00016256727 8.655761e-07 0.0002359951 -1.4479121e-15 -3.2171052e-15 3.228246e-15
1.3643216e-15 2.641134e-15 -2.7452668e-07 -6.942689e-10 -1.5183022e-11 2.9997763e-10 -7.138262e-10 -7.5139295e-10
-9.526401e-10 -9.948756e-10 -3.249399e-15 2.2384707e-15 3.5459412e-15 6.459646e-17 -2.9467116e-15 -7.253553e-12
2.3498876e-11 -3.4310228e-14 -1.1374553e-14 -3.6051283e-12 8.458531e-12 -8.5330994e-13 1.0864418e-09 -1.4301178e-15
-6.911578e-16 -2.66233e-15 3.1030836e-15 -3.07234e-16 -6.2274215e-13 1.8331487e-08 1.1496545e-08 -2.897442e-10
-8.574377e-09 4.247078e-09 1.6077497e-08 3.1125165e-08 2.5166264e-15 9.4682e-16 -1.5895808e-15 2.3360775e-15
-1.1321602e-15 9.484103e-09 -4.3427666e-09 -9.5036965e-09 -9.707775e-10 4.5148493e-08 6.275836e-08 5.4855967e-08
-1.8356785e-08 -2.969473e-15 -2.560752e-15 -3.2664525e-15 -1.3747324e-15 1.0207057e-15 8.56743e-14 -5.747353e-06
-1.0222248e-06 -5.7662364e-06 -0.00018279233 -0.00015565642 -7.5100834e-05 -2.5745992e-05 2.611295e-15 -3.4648615e-15
1.5169139e-15 -2.5361492e-15 -2.1559688e-15 -2.8356137e-06 -0.07323005 -0.0042890236 0.0005213451 -0.05354915
-0.054432686 -0.04440131 -0.07003918 9.260122e-16 2.2319464e-16 3.21174e-15 9.252522e-16 -3.8239565e-15
-0.10579739 1.6836679e-09 6.098236e-08 -2.2298614e-09 2.140108e-10 -3.694716e-09 -4.7091704e-09 -2.4208316e-06
1.7787143e-15 -1.9163678e-15 2.1368325e-15 -2.3003998e-15 9.094816e-16 5.835113e-10 3.7588034e-08 2.1246018e-09
1.7477341e-09 -2.8332126e-08 -3.5925108e-08 -2.5000942e-08 -4.0691326e-08 -1.5942e-16 -9.467592e-16 3.1921805e-15
2.8470925e-15 3.1944353e-15 -1.1487787e-08 1.3215228e-12 1.4558803e-10 -1.4905576e-14 1.0241874e-11 7.868153e-12
1.3353665e-11 -2.7178764e-11 9.797766e-16 1.8409007e-15 -1.1333131e-15 -1.328622e-15 1.5871222e-15 -6.5190645e-11
1.9876557e-06 -6.8368104e-07 8.839533e-10 9.940896e-07 2.0009966e-06 1.6396039e-06 7.115836e-07 -2.3272048e-15
2.6655153e-16 2.280967e-15 7.1025677e-16 -2.323586e-15 1.3585135e-06 3.5735177e-08 2.0462224e-08 6.0098584e-09
-5.59076e-07 1.3340882e-07 -6.252101e-07 2.9311477e-07 2.4514116e-15 -3.0549033e-15 -1.9860026e-15 -1.1377738e-15
-2.5404934e-15 -4.0617483e-09 1.8262171e-11 -2.330945e-09 -1.6724464e-09 6.32865e-11 5.1144766e-10 -4.078759e-11
6.66683e-10 -2.37212e-15 2.2186052e-15 -1.9908053e-15 -4.991245e-16 3.0744628e-15 -8.1742046e-10 4.681189e-10
-1.6964603e-09 1.1774951e-09 -1.2002938e-08 -1.0649857e-08 -1.225901e-08 -9.855303e-09 -7.4370664e-17 -2.7075849e-15
00000000: e11c 02ae da02 9cab a618 7224 0018 5cab
00000010: a6af 82ac aca9 06ad 81ed df2c 9c58 5427
00000020: 23b6 0127 7088 4e27 7af4 3227 f969 14a6
00000030: 6fff 522b b863 08be 6935 c83c 3648 893c
00000040: b7a8 7bbf 14b2 5bbf a1b7 5abf 5be4 22bf
00000050: 9bc2 9425 df42 1327 397a 5127 cb5a 2fa7
00000060: fc81 8226 95cd bcbe 1ff7 82bf aea4 d8bf
00000070: 79f5 9cb5 0e0f 5aba 3e4a 92bf 5bb0 a33f
00000080: cf00 d1bf 3766 65a7 a412 9925 3eff 5da7
00000090: f62f c9a6 ccd4 0526 7233 c6bf aec1 2738
000000a0: ec35 6b36 08a1 47b5 60d1 2fb8 68b2 53b8
000000b0: d467 56b8 b155 6fb8 a262 0526 732c 9924
000000c0: 31b3 6527 2062 7ba6 99d4 7927 afe2 4bb7
000000d0: 1046 1833 79be f637 92c4 d0b2 be34 20b4
000000e0: 2b3d 03b4 170d 10b4 d07d c0b6 f806 2ba7
000000f0: 9fb6 2727 2d7d 0ea6 a31b fd26 28ec 8ea6
00000100: 4f4a 82b3 ad0f 95bd 8cda 113b 6d3a e03b
00000110: 18b8 d2be 7d63 cdbe 6848 b7be a07c 9fbe
00000120: 1bde 2b27 ce67 1ea7 8a80 29a7 a75b 3226
00000130: 5d7c 08a7 5253 42be 5e8d 4d35 397d cf37
00000140: 0e5a 1235 aed7 8eb8 d276 2a39 f059 6835
00000150: 7475 7739 87aa d0a6 1ed1 67a7 a19e 6827
00000160: 959e c426 5350 3e27 a962 93b4 d5d6 3eb0
00000170: 208d 85ad 19ea a42f 0e37 44b0 948a 4eb0
00000180: 0bee 82b0 13bc 88b0 d524 6aa7 7f4c 2127
00000190: 1283 7f27 05f3 9424 3c55 54a7 3236 ffac
000001a0: c4b2 ce2d 0085 1aa9 dee7 4ca8 38b0 7dac
000001b0: d6cd 142d 762f 70ab c651 9530 091a cea6
000001c0: 7236 47a6 52d7 3fa7 ca99 5f27 bc1b b1a5
000001d0: 4d49 2fab 5e77 9d32 5782 4532 df49 9faf
000001e0: 824e 13b2 b1ed 9131 ca1a 8a32 7bae 0533
000001f0: 9057 3527 7e73 8826 2e15 e5a6 0655 2827
00000200: 5729 a3a6 87ef 2232 6137 95b1 b345 23b2
00000210: 326c 85b0 4be9 4133 c6c5 8633 c69a 6b33
00000220: ffae 9db2 1cf9 55a7 8985 38a7 6a5f 6ba7
00000230: ac1e c6a6 6519 9326 dfeb c029 63d9 c0b6
00000240: 6033 89b5 987b c1b6 f1ab 3fb9 b437 23b9
00000250: 747f 9db8 19f9 d7b7 e429 3c27 6aab 79a7
00000260: 3f9c da26 b2bf 36a7 9b5a 1ba7 794b 3eb6
00000270: a3f9 95bd f08a 8cbb e1aa 083a 5a56 5bbd
00000280: cff4 5ebd 26de 35bd b470 8fbd d273 8526
00000290: b7a9 8025 256e 6727 c857 8526 c6c5 89a7
000002a0: 4dac d8bd cc66 e730 68f5 8233 233c 19b1
000002b0: af4e 6b2f 22e6 7db1 4dce a1b1 9275 22b6
000002c0: 7d2b 0027 bf16 0aa7 9af9 1927 e3c2 25a7
000002d0: f311 8326 f564 2030 7b70 2133 6400 1231
000002e0: ed34 f030 015f f3b2 134c 1ab3 a7c1 d6b2
000002f0: 96c4 2eb3 7bcc 37a5 4071 88a6 5605 6627
00000300: 9627 4d27 ee2e 6627 d25b 45b2 e0fc b92b
00000310: 6313 202f eb41 86a8 4d2d 342d 036b 0a2d
00000320: 90eb 6a2d 2311 efad 6033 8d26 a0a6 0427
00000330: e053 a3a6 8079 bfa6 79ba e426 125b 8fae
00000340: aa63 0536 3486 37b5 affa 7230 a96c 8535
00000350: dc48 0636 5c10 dc35 a703 3f35 5ab1 27a7
00000360: 10a8 9925 6a5c 2427 b3b7 4c26 996e 27a7
00000370: 2b56 b635 3e7b 1933 e8c4 af32 467f ce31
00000380: 6913 16b5 233f 0f34 1cd4 27b5 635d 9d34
00000390: 90a4 3027 0521 5ca7 481b 0fa7 72f8 a3a6
000003a0: d50f 37a7 848f 8bb1 c1a2 a02d 6b2e 20b1
000003b0: fadb e5b0 222b 8b2e ee95 0c30 be62 33ae
000003c0: a541 3730 e4ed 2aa7 0bde 1f27 e073 0fa7
000003d0: e3dc 0fa6 d489 5d27 dab0 60b0 f0ac 0030
000003e0: e428 e9b0 6dd5 a130 7b35 4eb2 91f6 36b2
000003f0: b29b 52b2 1550 29b2 b17c aba4 201a 43a7

gnn.gnn_layer.edge_func.0.bias f4 [64]
2.1321635e-11 -0.55231225 -1.654577 -6.0869414e-05 -4.117262e-06 -0.27192292 0.00028035775 -8.4368745e-10
-3.520097e-06 2.1082286e-08 -1.7212816e-08 -1.8592247e-05 -0.08216423 -1.9823601e-06 -3.237291e-08 -3.4636297e-11
9.4404714e-07 2.3593016e-07 -3.0337162e-09 -9.097654e-09 -7.2198515e-12 -0.62237096 -5.6861776e-05 -0.00026798077
-0.0006034896 -3.0161396e-10 -5.449341e-12 -4.981228e-10 -3.2653287e-09 -7.453654e-08 -3.1717432e-12 -2.5374877e-05
-7.3549163e-06 -1.6152254e-06 -1.9458474e-05 -4.945655e-06 -6.038242e-11 -0.0004672441 -3.059786e-06 -1.8107473e-06
-2.4179162e-11 -9.049263e-09 -4.5076182e-10 -7.585375e-07 -0.000620266 -1.2780147e-12 2.8590164e-12 -5.324287e-08
-5.4538807e-10 -0.8519321 -3.6569386e-11 -1.3274824e-11 -4.5493107e-05 -0.032964204 -6.077036e-05 -6.0555454e-09
-0.17065504 1.958789e-12 -2.0242792e-08 -3.9156345e-07 -0.0013166494 -1.5090472e-09 -0.0060110213 -0.10108908
00000000: 0e8c bb2d 5664 0dbf 2ec9 d3bf 094e 7fb8
00000010: 0327 8ab6 7b39 8bbe fbfc 9239 3ae9 67b0
00000020: ce3a 6cb6 7018 b532 62db 93b2 8cf6 9bb7
00000030: b845 a8bd b008 05b6 640a 0bb3 0155 18ae
00000040: 6d6a 7d35 fd53 7d34 b379 50b1 e84b 1cb2
00000050: a406 feac b453 1fbf de7e 6eb8 c57f 8cb9
00000060: 8033 1eba 64d0 a5af 4dbb bfac 47ec 08b0
00000070: 4564 60b1 e510 a0b3 0c31 5fac 22dc d4b7
00000080: 40ca f6b6 b9ca d8b5 c13a a3b7 daf2 a5b6
00000090: 48c8 84ae 71f8 f4b9 b956 4db6 ce08 f3b5
000000a0: a2ae d4ad 1477 1bb2 16cf f7af 4d9e 4bb5
000000b0: 5999 22ba 55dd b3ab 762f 492c 28ad 64b3
000000c0: 46ea 15b0 3918 5abf 78d5 20ae 7e88 69ad
000000d0: dacf 3eb8 7905 07bd ade3 7eb8 2411 d0b1
000000e0: 32c0 2ebe 68d6 092c 5fe2 adb2 1238 d2b4
000000f0: 6c93 acba e166 cfb0 1af8 c4bb cb07 cfbd

gnn.gnn_layer.edge_func.2.weight f4 [1024, 64]
6.8194474e-16 -0.0057471986 3.8549415e-06 -2.9306962e-06 1.874496e-09 -0.0043373704 1.4367388e-05 9.229974e-12
8.749297e-15 -3.1206192e-12 2.2577875e-14 4.503362e-12 0.00010420294 -3.182114e-11 -7.4509726e-10 2.0849494e-15
9.817581e-08 8.3594385e-09 -2.985326e-14 1.6796584e-10 -3.0754803e-17 -9.0835405e-05 -7.808936e-09 -1.0134998e-15
7.6390353e-07 3.0240964e-12 4.869281e-16 2.8857699e-15 -2.7903709e-11 -1.9137083e-09 4.9709916e-15 1.0055033e-14
-6.7917707e-09 1.1286483e-08 -8.093167e-15 5.681156e-16 -4.0968726e-12 -9.9406105e-05 7.345297e-15 1.4754086e-14
-2.3179967e-12 6.3385694e-16 8.6975625e-16 4.0952075e-13 -5.9796537e-09 6.1249106e-16 2.8802402e-15 -1.04564395e-11
-3.1829177e-12 0.011014323 1.1032619e-15 1.4508937e-12 3.1086005e-15 4.431927e-05 -1.0434374e-14 -5.965235e-11
-0.0007762473 -7.279423e-15 3.817565e-15 -2.412589e-11 2.7244192e-07 1.3172529e-11 4.8936437e-07 -0.0013937176
3.4089358e-15 -0.02412035 -0.0010840732 -0.001549697 4.4343935e-07 -0.056218356 0.0017382213 2.5125088e-14
-2.4910983e-15 -6.965671e-10 7.1921303e-16 6.046139e-10 -4.64155e-06 5.215052e-10 -5.490045e-08 -1.0896068e-14
1.305718e-05 2.8815897e-12 -1.2611423e-11 1.1072899e-08 -4.2500073e-15 0.0038860457 -4.1130582e-07 -4.067285e-15
1.2080913e-05 -9.191592e-15 1.4488889e-15 -1.3571022e-15 -2.406451e-13 -5.931251e-08 6.524639e-15 1.9004164e-10
2.4748093e-07 -3.6239585e-06 -9.672652e-15 1.1441504e-15 4.3563067e-14 -6.098464e-07 -4.2763687e-15 8.4326365e-15
-3.3665094e-15 1.098581e-15 -2.3425452e-15 1.2230971e-11 -5.894383e-07 -6.326388e-15 -3.422933e-15 -2.1443025e-09
-1.1838223e-13 -2.347278e-05 5.793368e-14 -1.9404688e-15 3.534806e-15 -1.061557e-09 -6.975852e-15 -2.1087288e-14
-0.02845288 1.2339443e-15 -1.7007146e-11 4.5642472e-11 -3.371459e-07 2.4341174e-09 0.0001290504 0.026363496
-1.8367122e-15 -0.002097596 1.3550606e-05 -7.447299e-05 -1.9381721e-08 -0.0038546799 -2.4363357e-05 -2.6621644e-14
2.5298597e-14 1.1733433e-11 -3.8639458e-15 -5.7815322e-11 -3.4221423e-05 -1.3114355e-11 -1.4900323e-09 -2.7718825e-14
-2.1766384e-07 1.2268174e-12 -3.1509666e-11 -2.775486e-10 -2.9502913e-14 6.143917e-05 -2.8313064e-08 -6.07474e-14
-1.00824e-06 -1.529946e-14 1.9438612e-15 2.5027352e-15 -6.624772e-13 -8.435979e-09 -1.9039314e-14 -5.6163594e-12
-1.0244782e-08 7.478573e-08 1.6426413e-14 -2.3712706e-15 3.8684212e-13 -3.3814993e-06 -4.91305e-14 2.6978386e-14
6.6162497e-15 -1.9556178e-15 -2.3954973e-15 -1.1330774e-13 -4.6608992e-08 1.12576625e-14 -5.9606187e-15 -7.159098e-11
2.1154339e-13 -7.9663056e-05 4.2868412e-14 1.0863436e-14 4.202238e-14 1.4848488e-10 -5.154744e-14 3.141878e-13
-0.0019822961 2.5914113e-15 1.7629941e-11 2.1029865e-10 -3.0170574e-07 -1.2448327e-10 4.623517e-06 -0.0010457012
-3.2285535e-15 0.0012645426 -1.678616e-05 -4.2582556e-05 -3.817402e-08 -0.00017195857 4.1883508e-05 2.9007001e-15
6.065994e-14 -1.8900973e-11 -2.23953e-15 -1.7887475e-08 0.00018055935 -1.3989387e-10 1.4029534e-09 3.500116e-14
3.8054847e-07 -2.7959312e-15 -1.7915797e-14 5.261433e-10 2.0952774e-14 0.0016779238 1.7856013e-05 6.5826014e-14
-1.3094591e-06 -1.9767538e-14 -6.6711124e-16 -2.6865814e-15 4.8305015e-12 2.4247306e-09 8.176716e-15 7.898491e-15
2.2428428e-09 -1.3144992e-07 1.4328663e-14 -1.4072177e-15 5.8499564e-12 1.756957e-05 -6.3896615e-14 -3.905434e-14
-5.123492e-15 2.9451327e-15 -2.2384364e-15 -1.0884711e-09 1.3598976e-08 1.1793017e-14 2.990154e-15 -1.2390516e-10
-1.2648205e-12 0.00032810026 -1.85918e-15 -1.7187222e-14 -6.1071306e-14 5.3699385e-14 5.4616684e-14 3.150585e-12
-2.1036072e-05 -1.7844718e-15 -6.526483e-13 -7.023315e-11 1.2800986e-06 1.06814835e-10 3.0362933e-05 -9.8086775e-06
00000000: a48e 4426 ff52 bcbb b259 8136 faac 44b6
00000010: 7bd0 0031 8020 8ebb 760b 7137 1c60 222d
00000020: 039d 1d28 1498 5bac 095d cb28 ae72 9e2c
00000030: 8787 da38 6bf3 0bae 8fcf 4cb0 873c 1627
00000040: b9d4 d233 339d 0f32 7772 06a9 2eae 382f
00000050: ddd4 0da4 e37e beb8 1028 06b2 8b0f 92a6
00000060: 0d0f 4d35 47cd 542c f458 0c26 0ff1 4f27
00000070: 9171 f5ad 5082 03b1 4e19 b327 a822 3528
00000080: 0c5d e9b1 7ae6 4132 25cb 11a8 88bf 2326
00000090: 5925 90ac 3f78 d0b8 3452 0428 9be4 8428
000000a0: 511d 23ac 63b2 3626 afb0 7a26 298a e62a
000000b0: 9775 cdb1 dd89 3026 0e8b 4f27 9ef3 37ad
000000c0: 59fa 5fac 6b75 343c 2eff 9e26 f431 cc2b
000000d0: 8fff 5f27 74e3 3938 0ff8 3ba8 4a2d 83ae
000000e0: 137d 4bba 6a22 03a8 d38a 8927 ad36 d4ad
000000f0: 2244 9234 ccbb 672d dd5c 0335 67ad b6ba
00000100: c4a3 7527 0a98 c5bc 7617 8eba 341f cbba
00000110: d711 ee34 3845 66bd 07d5 e33a 824e e228
00000120: a780 33a7 8d78 3fb0 8e4c 4f26 ec31 2630
00000130: 9cbe 9bb6 aa59 0f30 afcb 6bb3 3f49 44a8
00000140: 2910 5b37 1bc6 4a2c cddc 5dad 203b 3e32
00000150: 661f 99a7 07ad 7e3b 71d1 dcb4 158a 92a7
00000160: 20af 4a37 bc94 25a8 91ce d026 3c94 c3a6
00000170: 9d78 87aa cbbe 7eb3 2c13 eb27 f7f3 502f
00000180: 85dd 8434 2233 73b6 3c3f 2ea8 b3e3 a426
00000190: cc30 4429 53b4 23b5 8a12 9aa7 ace8 1728
000001a0: 2395 72a7 7c52 9e26 55cc 28a7 652b 572d
000001b0: e439 1eb5 a1ee e3a7 f8a5 76a7 f85a 13b1
000001c0: 5b49 05aa 69e7 c4b7 7e74 8229 55d3 0ba7
000001d0: a9b5 7e27 37e6 91b0 e154 fba7 faef bda8
000001e0: 0416 e9bc 82d4 b126 b098 95ad dbbc 482e
000001f0: fb00 b5b4 7245 2731 b451 0739 42f8 d73c
00000200: 5c59 04a7 d277 09bb 6957 6337 622e 9cb8
00000210: db7c a6b2 cc9e 7cbb e95f ccb7 55c9 efa8
00000220: 98de e328 af6a 4e2d 9c36 8ba7 4446 7eae
00000230: f988 0fb8 ceb5 66ad dac9 ccb0 42ab f9a8
00000240: fbb6 69b4 c1a8 ac2b bb94 0aae 7e95 98af
00000250: 8bde 04a9 e7d8 8038 1635 f3b2 7eca 88a9
00000260: dd52 87b5 27ce 89a8 e911 0c27 5157 3427
00000270: 8378 3aab d4ed 10b2 ab7d aba8 ab9b c5ac
00000280: 0701 30b2 e499 a033 bbf4 9328 39de 2aa7
00000290: d3c5 d92a b7ed 62b6 9c43 5da9 ecff f228
000002a0: 2260 ee27 c8ea 0ca7 209d 2ca7 7725 ffa9
000002b0: 212f 48b3 cecc 4a28 01c1 d6a7 246e 9dae
000002c0: 3b2d 6e2a c710 a7b8 ea0f 4129 c2b2 4328
000002d0: 8140 3d29 c742 232f 2726 68a9 3cdf b02a
000002e0: 69e9 01bb 1abb 3a27 1913 9b2d cf39 672f
000002f0: 1ffa a1b4 edde 08af b523 9b36 e90f 89ba
00000300: 4da4 68a7 02bf a53a 01d0 8cb7 ac9a 32b8
00000310: c7f4 23b3 c74f 34b9 13ac 2f38 7904 5127
00000320: 1398 8829 3541 a6ad 0960 21a7 f9a6 99b2
00000330: 8854 3d39 a0d0 19af 09d2 c030 97a1 1d29
00000340: 2f4e cc34 d477 49a7 045f a1a8 0ba0 1030
00000350: cfb9 bc28 c8ed db3a 7fc9 9537 1d3a 9429
00000360: acc0 afb5 d70c b2a8 1f48 40a6 ae96 41a7
00000370: 4af5 a92c 50a0 2631 724c 1328 5c49 0e28
00000380: 8220 1a31 ae24 0db4 a60f 8128 2bcd caa6
00000390: b9d3 cd2c 5d62 9337 e4e1 8fa9 97e2 2fa9
000003a0: df97 b8a7 1c38 5427 dd4b 21a7 2c99 95b0
000003b0: eea0 6932 b171 5428 9b76 5727 343c 08af
000003c0: f601 b2ab df04 ac39 d1f7 05a7 09cf 9aa8
000003d0: 3685 89a9 2dd7 7129 c0f8 7529 e5b3 5d2c
000003e0: 9f76 b0b7 b295 00a7 44b4 37ab c071 9aae
000003f0: dacf ab35 68e3 ea2e e7b3 fe37 f38f 24b7

gnn.gnn_layer.edge_func.2.bias f4 [1024]
-0.47479755 -2.8013654 -0.48451185 -2.8054502 0.043764926 0.03878357 -0.009349669 2.9274569
0.06352297 -2.1756542 -1.6286795 5.095815e-14 -0.057456918 -2.6810994 -0.021181462 2.9085581
-2.163708e-11 3.0418115 -0.11443407 0.00016052417 -0.5715621 -1.3506252 -0.115680195 0.16959465
-0.13620645 0.008206117 -0.0619107 -0.069512285 -4.4816915e-07 2.8324418 -0.00741059 2.9157403
-1.1133422 -3.1471314 -0.15432446 1.8966806 0.2271797 0.7389328 0.45849138 -2.9028904
2.684305 -3.1108158 2.1255524 -2.9360991e-09 -1.016713 2.311731 2.020367 -1.3621248
-1.1686182e-09 1.5153385 1.2101363 4.675944e-05 0.5846824 -1.8927797 0.5279283 2.9382915
2.6315024 2.9470181 3.1516948 1.1114923 4.7154498e-07 -3.9301908 -0.8288531 1.3092922
-0.533837 -3.114001 -0.69437945 -2.0784092 -0.91244096 -0.94398844 -0.39217848 2.9169934
-3.6229675 -3.1002934 -1.8723009 8.245886e-10 0.43410686 2.9530773 -2.0833702 -2.0675216
-1.6222251e-10 2.5979364 -1.4063379 0.00013047009 -1.437779 -0.6862407 -1.4805994 -1.719521
-2.27751 -2.1878033 -2.3906734 -0.91075903 -3.665451e-07 1.6121608 0.46809614 3.222025
-2.5475028 -3.1153388 -0.40442094 3.5364628 -0.18410085 -0.8892458 0.13386868 -2.844527
-3.8600907 -3.1053874 1.8035495 3.9880243e-12 -1.084804 1.6140406 1.8648491 0.55642235
-1.639841e-10 -2.8147464 -1.7750833 -0.00012477649 -1.7481112 -2.178803 -0.444207 -0.98989934
-2.3173294 -1.511321 -2.1936936 -1.0932245 3.049858e-07 -2.5125096 -0.7221019 -3.4316452
-1.0713344 3.129515 0.9228554 2.545462 0.1297622 0.6288645 0.20391865 -2.8923562
1.4776655 3.1105754 2.1923583 -1.05460565e-08 -0.62184775 -2.2947052 2.0251567 0.3636764
4.8983595e-10 -2.384797 0.75500214 0.0005605566 1.2544502 2.1312675 0.29323372 -0.8106125
1.6621125 -2.360147 -1.8259279 0.7780963 -1.769631e-08 -1.3984264 0.058878712 -3.0369353
-3.9438665 -3.1177974 -1.1135633 1.6934307 -0.26837078 0.6666021 0.46407893 -2.8623674
-3.3576324 -3.108783 1.172588 1.1455591e-09 -2.015431 3.223106 1.8895447 -2.0274816
-3.4478057e-10 1.1295155 0.40955454 0.00012238653 0.6560195 -1.6806883 -0.87121576 0.83899844
-0.5761432 -1.0673853 -1.8876694 -1.3224828 3.639533e-07 -2.4062872 -2.5017035 1.7996525
-0.36537296 3.1448147 -0.029943194 2.9752254 -0.102011554 -0.2768712 -0.02674144 -2.868332
-1.5608053 3.105181 1.8650142 1.9910576e-13 -0.06288085 -2.3923268 1.9360719 0.42444777
-2.3887123e-10 -2.5665905 -0.5177365 -0.00013180233 0.44309178 2.075607 -0.243409 -1.166361
-1.4575186 -0.36780727 -0.40968126 -0.61262643 3.6392805e-07 -1.0917722 0.055319615 -3.3276007
3.0601046 3.1254148 -0.0049328455 3.4044309 0.05267946 -0.5622475 0.42380905 -2.736951
3.0234315 3.0856543 1.8983194 3.8084563e-11 0.47574985 -1.7808337 1.8813881 0.6263278
1.3049625e-10 -1.5766782 0.119202316 -0.00012373901 0.54755026 1.5409752 0.06917147 0.76915914
1.0440406 3.8880615 3.7259576 0.14955579 3.739051e-07 -0.67932886 2.4522092 -2.693588
00000000: aa18 f3be 9249 33c0 f011 f8be 7f8c 33c0
00000010: da42 333d 85db 1e3d 5b2f 19bc 745b 3b40
00000020: 5518 823d eb3d 0bc0 9278 d0bf bf7e 6529
00000030: f257 6bbd 2297 2bc0 bf84 adbc d125 3a40
00000040: 5f52 bead 0aad 4240 695c eabd 6152 2839
00000050: e551 12bf 49e1 acbf bde9 ecbd 38aa 2d3e
00000060: b479 0bbe f372 063c 1396 7dbd 755c 8ebd
00000070: e69b f0b4 ba46 3540 89d4 f2bb 7d9b 3a40
00000080: ff81 8ebf 9a6a 49c0 3b07 1ebe 6ec6 f23f
00000090: cca1 683e b32a 3d3f 62bf ea3e f5c8 39c0
000000a0: a7cb 2b40 9b17 47c0 0d09 0840 67c4 49b1
000000b0: a723 82bf 67f3 1340 b14d 0140 1b5a aebf
000000c0: 199d a0b0 9df6 c13f bfe5 9a3f 911f 4438
000000d0: bfad 153f 9b46 f2bf 4f26 073f f80c 3c40
000000e0: 896a 2840 f29b 3c40 5eb5 4940 6145 8e3f
000000f0: a628 fd34 3f88 7bc0 b72f 54bf e396 a73f
00000100: 8ba9 08bf cb4b 47c0 dac2 31bf a804 05c0
00000110: bb95 69bf 3aa9 71bf 9ecb c8be 05b0 3a40
00000120: b3de 67c0 356b 46c0 8ea7 efbf 44a9 6230
00000130: 4143 de3e 38ff 3c40 f055 05c0 4652 04c0
00000140: 945d 32af 9744 2640 e102 b4bf ccce 0839
00000150: 2409 b8bf 78ad 2fbf 4884 bdbf 4419 dcbf
00000160: b9c2 11c0 f804 0cc0 cb00 19c0 8127 69bf
00000170: 93c9 c4b4 495b ce3f 4caa ef3e a835 4e40
00000180: 490a 23c0 b661 47c0 4310 cfbe 6855 6240
00000190: ef84 3cbe 9da5 63bf df14 093e bb0c 36c0
000001a0: ba0b 77c0 abbe 46c0 b6da e63f ee50 8c2c
000001b0: dcda 8abf e298 ce3f 60b3 ee3f b271 0e3f
000001c0: 6c4d 34af ce24 34c0 ee35 e3bf 6fd6 02b9
000001d0: 1cc2 dfbf 8271 0bc0 1a6f e3be 0b6a 7dbf
000001e0: 204f 14c0 f772 c1bf 7a65 0cc0 c8ee 8bbf
000001f0: eebc a334 f5cc 20c0 acdb 38bf 13a0 5bc0
00000200: 7c21 89bf f949 4840 4040 6c3f d9e8 2240
00000210: 62e0 043e 44fd 203f 0dd0 503e 5d1c 39c0
00000220: 2524 bd3f ab13 4740 994f 0c40 0c2e 35b2
00000230: 6a31 1fbf 73dc 12c0 2b9c 0140 cb33 ba3e
00000240: 24a5 0630 84a0 18c0 d247 413f 51f2 123a
00000250: d391 a03f b066 0840 bb22 963e 4d84 4fbf
00000260: 1ac0 d43f a60c 17c0 01b8 e9bf 5231 473f
00000270: 9902 98b2 a3ff b2bf ce2a 713d 265d 42c0
00000280: 4f68 7cc0 fe89 47c0 3e89 8ebf 56c2 d83f
00000290: e567 89be 6fa6 2a3f c19b ed3e 0731 37c0
000002a0: 73e3 56c0 4df6 46c0 5d17 963f c771 9d30
000002b0: d2fc 00c0 5e47 4e40 9adc f13f 42c2 01c0
000002c0: 8d8b bdaf f793 903f 22b1 d13e e254 0039
000002d0: e5f0 273f cb20 d7bf ff07 5fbf 9ac8 563f
000002e0: 1f7e 13bf 15a0 88bf 279f f1bf 1e47 a9bf
000002f0: 5c65 c334 9c00 1ac0 e91b 20c0 035b e63f
00000300: 2a12 bbbe a544 4940 6e4b f5bc 186a 3e40
00000310: 6feb d0bd 10c2 8dbe dd10 dbbc c092 37c0
00000320: 78c8 c7bf 49bb 4640 c9b8 ee3f 542c 602a
00000330: adc7 80bd e21b 19c0 34d1 f73f 3851 d93e
00000340: 2352 83af 0543 24c0 618a 04bf 6b34 0ab9
00000350: eddc e23e bfd6 0440 3540 79be 514b 95bf
00000360: f88f babf 3c51 bcbe bec1 d1be 16d5 1cbf
00000370: e461 c334 31bf 8bbf d296 623d 69f7 54c0
00000380: c1d8 4340 cc06 4840 b5a3 a1bb 32e2 5940
00000390: 6bc6 573d 74ef 0fbf 80fd d83e 352a 2fc0
000003a0: e77f 4140 5c7b 4540 21fc f23f 687f 272e
000003b0: 7c95 f33e 5cf2 e3bf 53d1 f03f 0557 203f
000003c0: 6e7b 0f2f 97d0 c9bf 5820 f43d f0bf 01b9
000003d0: 412c 0c3f ad3e c53f c6a9 8d3d 9de7 443f
000003e0: 1fa3 853f 00d6 7840 1776 6e40 2725 193e
000003f0: 20bd c834 7fe8 2dbf fff0 1c40 bf63 2cc0

gnn.gru.weight_ih_l0 f4 [96, 32]
-0.0013752108 0.063218854 -0.028480992 0.1361971 -0.0028627994 -0.026120972 0.01776946 0.004320956
0.0017511125 -1.9092197e-11 2.0572336e-15 -1.6729654e-15 -0.0018933368 -0.018522069 -1.4490256e-07 0.0018267912
-1.3359523e-11 0.0055758613 0.0020217916 -1.5375893e-09 -0.014617914 0.012578226 -3.7072525e-05 0.025836762
-0.08081 -0.0035515456 0.0009036429 0.009893684 -4.961957e-10 0.07451194 -0.0012568368 -0.0033377071
0.11399806 2.1078906 0.00021377574 2.9965062 0.00022249152 -0.0005963244 5.6171903e-05 0.0002019442
0.24447234 1.635035e-07 -3.3157393e-15 7.707201e-10 -0.039946932 2.9668767 2.2516303e-06 -0.00015370142
-6.2021777e-10 0.015052077 0.00047153895 -5.644194e-12 -0.0065811393 0.023193222 5.98148e-05 0.010394947
0.001245138 0.08404481 0.2454529 -2.5704874e-05 1.4377441e-09 0.47357392 0.23958386 -3.5738444e-07
-5.360135e-06 0.1619033 -6.4714834e-07 -0.5668104 4.9317703e-12 1.4614515e-06 -5.8265005e-07 9.048874e-09
-2.3151511e-05 1.6817086e-08 -2.4403974e-15 -2.865504e-15 3.0242467e-05 -0.3431853 -4.9614353e-12 1.6694285e-07
-3.7918973e-18 -4.9445366e-06 -1.9937258e-06 -2.4369428e-15 -9.330079e-05 -0.0032055674 -3.548435e-12 -2.755311e-05
1.4137747e-06 4.6294128e-05 9.0282934e-05 6.9290785e-08 -2.3110154e-14 0.10741047 0.00012669337 -7.01457e-11
-0.45996785 0.4608894 0.5984209 -0.52943176 -1.5934961 -0.23066162 0.04582164 -1.8844829
-1.6033994 1.2627037e-08 8.5661797e-16 -2.8111918e-10 -0.022291925 -0.3372938 -0.040512435 -2.0805106
-3.0067593e-10 0.5363011 0.2190726 3.270292e-07 -0.27897528 0.066513665 -1.375266 0.06307118
0.59084725 -1.034819 -1.3433957 0.43664715 1.6083845e-09 -2.057579 -0.4126041 0.51296335
8.8211564e-08 0.15217942 -1.25511834e-14 0.010876067 7.7253893e-13 -2.5739083e-10 8.5631446e-11 -8.326095e-12
-1.8006965e-07 -1.0644888e-08 -2.8108674e-15 4.5587736e-13 6.7405296e-08 -0.17989264 -5.160184e-11 -4.38499e-10
-1.579171e-13 -1.1391917e-08 -4.423404e-12 3.5207052e-15 0.000121958605 -0.00032438 -4.03359e-11 2.0099096e-08
-4.1736237e-09 1.7080379e-07 2.673923e-07 -2.3789404e-12 -1.4202086e-12 -0.048084043 2.812977e-07 -7.46944e-13
9.605524e-05 0.2682411 1.017234e-12 2.4824553 3.937339e-11 -8.0496214e-08 -1.5483051e-08 3.3800705e-11
1.5203272e-05 7.901373e-08 -2.2146077e-15 9.50696e-15 3.6246e-05 2.3745675 -3.8155026e-09 6.245298e-10
-1.8890404e-13 -4.7997823e-06 -2.8203577e-12 -5.7757064e-16 0.0020899102 0.039065193 -1.3390516e-10 5.3253716e-05
2.749678e-06 0.00010086055 -6.0730777e-05 -3.0465307e-12 3.5453663e-13 -0.4935135 2.760905e-05 -1.0597461e-10
0.105691545 -0.029678594 0.0006678498 -0.035559893 -0.00022365659 -0.0015356886 0.00247182 0.00090343255
0.6794715 6.710078e-10 8.7304973e-13 1.6107202e-10 -0.63098675 0.025907185 -4.6381766e-07 -0.0018400922
-3.3124177e-11 0.30995452 -0.0012127145 3.107215e-10 0.0024907999 0.0015019375 0.00030834376 -0.58471864
0.080692135 0.17943232 0.63261664 0.0007927773 6.4474054e-10 0.0016755825 0.6261092 -1.2618098e-05
-0.35898128 -0.00041285166 0.24933048 -0.009182433 0.18679544 -0.15496615 -0.54138696 0.21602124
-0.09766982 1.635037e-11 -1.6216122e-15 -2.698467e-09 -0.5092386 -0.007178825 0.0028159437 0.17074506
-3.1025604e-09 -0.08501787 -0.040771678 -6.9133876e-08 0.29182175 -0.592482 0.13347915 -0.3663366
0.039033893 -0.40031224 -0.13041055 -0.38732794 8.577838e-10 0.38728404 -0.17324285 7.658758e-07
00000000: 6b40 b4ba e378 813d f850 e9bc 4177 0b3e
00000010: ce9d 3bbb a6fb d5bc 4291 913c ce96 8d3b
00000020: 9685 e53a ceef a7ad 433d 1427 8719 f1a6
00000030: d729 f8ba 98bb 97bc 8396 1bb4 f170 ef3a
00000040: f105 6bad b7b5 b63b 0980 043b 1d53 d3b0
00000050: fa7f 6fbc e714 4e3c 527e 1bb8 9ea7 d33c
00000060: b77f a5bd 0cc1 68bb 73e2 6c3a 1e19 223c
00000070: ab64 08b0 b799 983d 72bc a4ba 6fbd 5abb
00000080: d177 e93d aee7 0640 fd28 6039 c2c6 3f40
00000090: 9d4c 6939 a752 1cba 1f9a 6b38 fcc0 5339
000000a0: f556 7a3e 808f 2f34 98ec 6ea7 9bda 5330
000000b0: 659f 23bd 4fe1 3d40 b71a 1736 e92a 21b9
000000c0: f27b 2ab0 fd9c 763c e338 f739 6196 c6ac
000000d0: 99a6 d7bb b6ff bd3c a7e1 7a38 914f 2a3c
000000e0: e633 a33a af1f ac3d 0158 7b3e cca0 d7b7
000000f0: 209a c530 4878 f23e 7955 753e 8bde bfb4
00000100: 36db b3b6 fbc9 253e b2b7 2db5 7d1a 11bf
00000110: 7085 ad2c 1727 c435 6867 1cb5 5e75 1b32
00000120: 7e35 c2b7 2a75 9032 63d9 2fa7 387b 4ea7
00000130: 34b1 fd37 fcb5 afbe a390 aeac e740 3334
00000140: 75e5 8ba2 3fe9 a5b6 f3cb 05b6 a999 2fa7
00000150: 7baa c3b8 7f14 52bb ecb2 79ac da21 e7b7
00000160: eec0 bd35 f12b 4238 4856 bd38 03cd 9433
00000170: 6328 d0a8 05fa db3d fed8 0439 8540 9aae
00000180: e880 ebbe b2f9 eb3e 1d32 193f d788 07bf
00000190: aef7 cbbf 8f32 6cbe 79af 3b3d bc36 f1bf
000001a0: 313c cdbf 4cee 5832 40e7 7626 028c 9aaf
000001b0: 8e9d b6bc c6b1 acbe 5ef0 25bd 1627 05c0
000001c0: 604c a5af 074b 093f 9154 603e 8d92 af34
000001d0: d9d5 8ebe 5138 883d b708 b0bf 762b 813d
000001e0: c441 173f f374 84bf 64f4 abbf 3790 df3e
000001f0: 000e dd30 60af 03c0 d840 d3be 9151 033f
00000200: d26e bd33 ecd4 1b3e 1e1a 62a8 8831 323c
00000210: 4c73 592b 8a80 8daf 384e bc2e 6679 12ad
00000220: 2b59 41b4 b6e0 36b2 5a8b 4aa7 6d51 002b
00000230: 74c0 9033 c735 38be 82f2 62ae 3f11 f1af
00000240: 81cc 31aa 2eb6 43b2 7ba2 9bac 8cb1 7d27
00000250: 07c4 ff38 8c11 aab9 3066 31ae 61a6 ac32
00000260: 9567 8fb1 3066 3734 1e8e 8f34 2e67 27ac
00000270: 68e0 c7ab c6f3 44bd 4305 9734 fd3e 52ab
00000280: 4471 c938 e656 893e b829 8f2b 8ce0 1e40
00000290: 7f2a 2d2e 43dd acb3 97ff 84b2 36a8 142e
000002a0: 8e11 7f37 42ae a933 4d94 1fa7 1d43 2b28
000002b0: d906 1838 eaf8 1740 8419 83b1 61ab 2b30
000002c0: e2af 54aa d10d a1b6 0c77 46ac 3179 26a6
000002d0: e0f6 083b d302 203d f43a 13af be5c 5f38
000002e0: 1c87 3836 1885 d338 2db9 7eb8 6b61 56ac
000002f0: 1d96 c72a cdad fcbe fc99 e737 670a e9ae
00000300: cf74 d83d 8620 f3bc a412 2f3a 40a7 11bd
00000310: 5c85 6ab9 2949 c9ba 42fe 213b 55d4 6c3a
00000320: d8f1 2d3f fa71 3830 ddbd 752b be19 312f
00000330: 5988 21bf 4e3b d43c 9d02 f9b4 402f f1ba
00000340: 82ae 11ae 5cb2 9e3e f2f3 9eba 2ad2 aa2f
00000350: b03c 233b a9dc c43a 33a9 a139 1fb0 15bf
00000360: eb41 a53d 1bbd 373e 2af3 213f 62d2 4f3a
00000370: 9539 3130 389f db3a b148 203f 51b2 53b7
00000380: 65cc b7be 0374 d8b9 7d50 7f3e ea71 16bc
00000390: 4e47 3f3e 72af 1ebe 5698 0abf ac34 5d3e
000003a0: 1d07 c8bd c3d1 8f2d eeb2 e9a6 ef6f 39b1
000003b0: 765d 02bf 593c ebbb b28b 383b cbd7 2e3e
000003c0: d234 55b1 d91d aebd 3400 27bd c076 94b3
000003d0: a969 953e e6ac 17bf c2ae 083e 7990 bbbe
000003e0: 01e2 1f3d baf5 ccbe 588a 05be d94f c6be
000003f0: 2bc9 6b30 184a c63e 9366 31be 9696 4d35

gnn.gru.weight_hh_l0 f4 [96, 32]
0.003682071 -0.09772875 -0.0509041 -0.022364244 0.03021311 0.0041800253 0.049843132 0.018274985
0.28381196 -0.004645008 1.352239 -0.015219756 -0.033727348 0.03895901 0.026839433 -0.08388721
0.029553976 0.18789999 -0.09805711 -0.03250537 8.632223e-05 0.009783447 -0.04253105 -0.0073488834
-0.17307456 -0.00058255775 -0.14682499 -0.053114384 0.027556632 -0.26194626 0.12996313 0.09436755
-0.026083399 2.429069 2.4513528 2.377846 -2.4886312 2.3051589 -2.409674 -2.221805
2.5889153 0.0011910679 -3.2702682 1.0159823 2.445248 -2.4431534 -2.4649804 -2.455669
2.4615784 2.2452714 -2.5550885 2.1707733 0.020137727 -2.5224369 2.3924577 1.2221186
-2.266343 0.012433129 2.462776 -0.8151412 2.4760144 -2.5836933 -2.4477134 2.0759976
0.10687473 0.61770046 0.5193405 0.8920263 -0.3147471 -0.7013336 -0.4035921 -0.6564593
-1.516149 0.061956 -2.3349943 -0.29270104 0.5435421 -0.5431255 -0.72162735 -0.41965586
0.5333922 -0.6990361 0.28023922 0.37928605 -0.006866058 -0.27031383 0.5506201 -0.18247882
0.6564756 -0.0013421128 0.53534436 0.70049024 0.5337688 0.3712547 0.38604647 0.16371115
-0.096592344 -0.2394036 0.3883045 -0.3201103 0.13410486 -1.1651131 0.1464534 0.15981066
-1.4972311 -0.015365687 -2.617818 -0.03966514 -0.19440931 0.19911104 0.12985855 0.020721972
0.23404957 -1.1121678 0.09445578 -0.12802202 -0.0021807768 0.15381546 -0.18115479 -0.03747382
1.1233118 0.001572462 0.51352584 0.24558486 -0.13087867 0.32906744 -0.31176683 -0.012062353
-0.08366262 -0.29272163 -0.249427 -0.42869845 0.26578733 0.3184494 0.24918154 0.24711953
0.38126904 0.0054908786 -1.4313858 0.19055797 -0.2976082 0.29487884 0.3560098 0.19079874
-0.28119445 0.3184378 0.48977143 -0.036942326 0.006227489 0.27691612 -0.3077791 0.2690164
-0.30954623 -0.0022955888 -0.28251132 -0.31804952 -0.275945 0.57312524 0.6722418 0.13336274
-0.09874994 0.9514993 0.95245713 1.0337691 -1.0845767 0.99029285 -1.0480621 -0.7892259
2.091856 0.0014206261 -0.23572007 -0.5819266 1.0284488 -1.0321213 -1.0381504 -0.9760839
1.0044857 0.9901187 -1.1455387 0.708281 -0.026938694 -1.0672874 1.0451086 -0.40853763
-0.9874694 -0.017299023 1.0045048 -1.037255 1.0085787 -1.0958848 -1.1426493 0.29182678
-0.00037739612 -0.22549674 0.3161856 -0.03507318 -0.055429507 -0.35393566 0.008472344 0.006880109
0.19062582 -0.0031407296 0.4741108 -0.07522475 0.0055931383 -0.0061832014 0.01344301 -0.24570797
0.46595982 0.08184394 -0.21776739 -0.02439368 -0.018981248 -0.3472927 -0.041763313 -0.044954747
-0.0043671676 -0.0010335917 0.02160228 -0.08138401 0.17330007 -0.20326859 0.041288033 -0.26599008
0.031594153 -0.150688 -0.2678136 -0.118576035 0.24357341 0.13220873 -0.08067111 -0.042021293
0.22313294 0.00292866 -1.2844958 -0.05899824 -0.008367616 0.013174983 0.20597738 -0.2802563
-0.19551273 0.141425 -0.21687156 -0.027203409 0.18645455 -0.7408305 -0.116144314 -0.07454621
-0.3209737 -0.004906202 -0.2403042 -0.2773403 -0.18166469 -0.08493983 -0.24296099 -0.11994805
00000000: e74e 713b 0326 c8bd d180 50bd 3835 b7bc
00000010: 7c81 f73c 98f8 883b 5028 4c3d 6cb5 953c
00000020: cd4f 913e 2735 98bb 2b16 ad3f 495c 79bc
00000030: b025 0abd 7c93 1f3d 5fde db3c 0fcd abbd
00000040: 2e1b f23c db68 403e 2bd2 c8bd 5a24 05bd
00000050: e507 b538 c04a 203c 0a35 2ebd e7ce f0bb
00000060: 753a 31be cab6 18ba 4a59 16be 788e 59bd
00000070: 72be e13c d21d 86be 0e15 053e c643 c13d
00000080: daac d5bc de75 1b40 f7e2 1c40 a12e 1840
00000090: bc45 1fc0 b987 1340 1938 1ac0 0e32 0ec0
000000a0: cab0 2540 9b1d 9c3a 134c 51c0 b50b 823f
000000b0: f17e 1c40 a05c 1cc0 3dc2 1dc0 ae29 1dc0
000000c0: 808a 1d40 87b2 0f40 9286 23c0 f3ed 0a40
000000d0: e0f7 a43c 9b6f 21c0 071e 1940 626e 9c3f
000000e0: c40b 11c0 53b4 4b3c 1f9e 1d40 18ad 50bf
000000f0: 0577 1e40 3b5b 25c0 56a7 1cc0 25dd 0440
00000100: 23e1 da3d 9e21 1e3f 80f3 043f d65b 643f
00000110: 8826 a1be 998a 33bf a0a3 cebe b70d 28bf
00000120: 2c11 c2bf 93c5 7d3d 8c70 15c0 e9dc 95be
00000130: 9325 0b3f 460a 0bbf 92bc 38bf 22dd d6be
00000140: 648c 083f 08f4 32bf 847b 8f3e c831 c23e
00000150: abfc e0bb 9366 8abe 70f5 0c3f badb 3abe
00000160: c90e 283f d5e9 afba 540c 093f 5453 333f
00000170: 12a5 083f 1915 be3e e2a7 c53e e5a3 273e
00000180: 35d2 c5bd 3826 75be d9cf c63e 7fe5 a3be
00000190: c952 093e 6d22 95bf e1f7 153e 68a5 233e
000001a0: 45a5 bfbf 5dc0 7bbc 558a 27c0 ea77 22bd
000001b0: 3c13 47be c4e3 4b3e a4f9 043e 20c1 a93c
000001c0: b1aa 6f3e 845b 8ebf 0872 c13d 3418 03be
000001d0: 5deb 0ebb cd81 1d3e a480 39be 267e 19bd
000001e0: aec8 8f3f 121b ce3a 6e76 033f 997a 7b3e
000001f0: 0f05 06be 877b a83e e79f 9fbe 2da1 45bc
00000200: 4f57 abbd 9cdf 95be cb69 7fbe 5d7e dbbe
00000210: 4715 883e cd0b a33e 7229 7f3e e70c 7d3e
00000220: b235 c33e d4ec b33b a637 b7bf a121 433e
00000230: 1a60 98be 5cfa 963e eb46 b63e bf60 433e
00000240: b8f8 8fbe 480a a33e 52c3 fa3e d650 17bd
00000250: f70f cc3b f3c7 8d3e 3995 9dbe 85bc 893e
00000260: d87c 9ebe 9771 16bb 53a5 90be 63d7 a2be
00000270: aa48 8dbe 56b8 123f 0a18 2c3f 3e90 083e
00000280: 693d cabd 7595 733f 3bd4 733f 8c52 843f
00000290: 69d3 8abf d583 7d3f e626 86bf b50a 4abf
000002a0: f8e0 0540 4d34 ba3a 9a60 71be 24f9 14bf
000002b0: 36a4 833f 8d1c 84bf 1de2 84bf a2e0 79bf
000002c0: fd92 803f 6b78 7d3f 03a1 92bf e751 353f
000002d0: 89ae dcbc e09c 88bf 1ec6 853f d82b d1be
000002e0: cbca 7cbf aeb6 8dbc 9d93 803f c6c4 84bf
000002f0: 1b19 813f f445 8cbf 5542 92bf 526a 953e
00000300: 40dd c5b9 9ee8 66be 14e3 a13e e5a8 0fbd
00000310: 0d0a 63bd 0e37 b5be 96cf 0a3c 8a72 e13b
00000320: 6a33 433e b3d4 4dbb a7be f23e 6f0f 9abd
00000330: a546 b73b 749c cabb 1240 5c3c df9a 7bbe
00000340: 4992 ee3e cc9d a73d 6afe 5ebe 41d5 c7bc
00000350: 907e 9bbc 59d0 b1be 0210 2bbd 7822 38bd
00000360: 751a 8fbb 9579 87ba 44f7 b03c a9ac a6bd
00000370: 9375 313e a425 50be a41d 293d da2f 88be
00000380: df68 013d f44d 1abe dd1e 89be fed7 f2bd
00000390: 4f6b 793e ba61 073e e536 a5bd 851e 2cbd
000003a0: f67c 643e c3ee 3f3b 5c6a a4bf 23a8 71bd
000003b0: 5318 09bc e2db 573c bceb 523e c17d 8fbe
000003c0: 7d34 48be b7d1 103e 9413 5ebe afd9 debc
000003d0: f1ed 3e3e 11a7 3dbf 12dd edbd afab 98bd
000003e0: aa56 a4be 35c4 a0bb 4e12 76be 8cff 8dbe
000003f0: 4f06 3abe eff4 adbd c4ca 78be 53a7 f5bd

gnn.gru.bias_ih_l0 f4 [96]
0.18952002 2.228301 -0.70092136 -1.0961556 0.31793576 1.0092072 0.11142635 -0.01364432
1.4740646 1.92216 -3.831774 -1.3004789 -0.6649776 -1.0923579 -0.1878334 -0.6081792
-0.6512804 -0.59752023 1.9800367 -0.04464252 -1.4981991 0.06701161 0.11575018 -0.1122839
0.37129605 -1.6897882 -2.4190707 -2.956811 -0.16965856 -0.16374514 -0.6548082 -2.3774111
-0.12194849 -0.7607263 0.85162574 1.5335029 -3.1319692 0.5648106 -0.19902435 -2.0692642
0.6369982 1.4480033 -2.587936 0.9260974 -1.7885176 0.5931509 -1.2295554 -0.20287481
-0.5673587 -1.0914613 0.26797542 4.1682124 2.043327 1.2008468 -2.5268059 -1.0589751
-2.4726472 0.62321985 -0.528081 -3.3072572 0.7283897 -0.07534194 -0.8186044 2.9296813
-0.541372 -2.7388856 1.0612504 0.2544525 -1.7860198 -2.9369552 -2.8812222 -1.789234
0.76482177 2.2343473 3.6207426 1.5245489 0.8291488 -2.3646111 -1.4854416 -0.26407716
0.22928496 -0.37467453 0.051967304 0.65008664 -2.0229485 0.4695546 2.5797312 -0.09397706
-0.3383308 1.3408105 1.469442 3.8316808 0.36574426 -1.3748863 -3.0688093 2.8198333
00000000: 8911 423e 7c9c 0e40 956f 33bf d44e 8cbf
00000010: 7ac8 a23e b42d 813f 8033 e43d 6d8c 5fbc
00000020: 26ae bc3f 5709 f63f c93b 75c0 1876 a6bf
00000030: f93b 2abf 62d2 8bbf 6657 40be a2b1 1bbf
00000040: 50ba 26bf 16f7 18bf d871 fd3f 13db 36bd
00000050: fdc4 bfbf 623d 893d 6e0e ed3d 1af5 e5bd
00000060: 841a be3e fb4a d8bf 0ed2 1ac0 643c 3dc0
00000070: f9ba 2dbe ceac 27be 83a1 27bf 8127 18c0
00000080: 21c0 f9bd f5be 42bf 2504 5a3f d349 c43f
00000090: 2f72 48c0 6d97 103f 0acd 4bbe d36e 04c0
000000a0: 5012 233f 2c58 b93f bea0 25c0 b814 6d3f
000000b0: 25ee e4bf bdd8 173f 1262 9dbf 6abe 4fbe
000000c0: 6b3e 11bf 01b5 8bbf 1334 893e ff61 8540
000000d0: dfc5 0240 59b5 993f 30b7 21c0 7f8c 87bf
000000e0: da3f 1ec0 568b 1f3f 5130 07bf 1aaa 53c0
000000f0: bf77 3a3f e04c 9abd 0f90 51bf e67f 3b40
00000100: 5b97 0abf e749 2fc0 0ed7 873f 9947 823e
00000110: 4c9c e4bf 13f7 3bc0 f265 38c0 9f05 e5bf
00000120: 5ccb 433f 8cff 0e40 3fba 6740 6b24 c33f
00000130: 1943 543f ca55 17c0 f322 bebf 1f35 87be
00000140: adc9 6a3e 57d5 bfbe abdb 543d 146c 263f
00000150: fd77 01c0 7669 f03e 511a 2540 0b77 c0bd
00000160: b239 adbe ae9f ab3f ad16 bc3f 423a 7540
00000170: d542 bb3e 46fc afbf 5f67 44c0 2678 3440

gnn.gru.bias_hh_l0 f4 [96]
0.18954493 2.2282968 -0.70074236 -1.0960189 0.31787753 1.0051256 0.11143207 -0.014068857
1.4740512 1.9222591 -3.8317735 -1.3004808 -0.66469014 -1.0923845 -0.18783222 -0.60815924
-0.6478778 -0.5975182 1.9798388 -0.046215363 -1.4984941 0.06718176 0.115777165 -0.11906926
0.37115932 -1.6898735 -2.4190729 -2.956819 -0.16938059 -0.16404065 -0.6547949 -2.3774164
-0.121952526 -0.76054275 0.8516492 1.5338039 -3.131652 0.5679855 -0.19902714 -2.069621
0.6368124 1.4476645 -2.5875788 0.9257648 -1.7883964 0.593103 -1.2296724 -0.20282763
-0.56769246 -1.0919961 0.26646033 4.1676283 2.0433471 1.2008928 -2.526813 -1.0589541
-2.4729707 0.6232235 -0.52907336 -3.3081782 0.7284556 -0.07430502 -0.8186012 2.929661
-0.47725695 -2.485288 0.2992246 0.11386124 -2.7237494 -2.949676 -1.8626398 -1.066187
0.2681631 0.99343526 3.625903 1.02889 0.32106197 -1.2985448 -1.5157189 -0.28737646
0.21751256 -0.47597802 -0.6953849 0.57608414 -1.8029879 -0.13057213 3.2202282 -1.781275
-0.6011447 1.3822349 2.2263973 4.0801373 0.20897216 -0.9176781 -2.5330582 2.2703977
00000000: 1118 423e 6a9c 0e40 da63 33bf 594a 8cbf
00000010: d8c0 a23e f5a7 803f 7f36 e43d 1081 66bc
00000020: b6ad bc3f 960c f63f c73b 75c0 2876 a6bf
00000030: 2229 2abf 41d3 8bbf 1757 40be 53b0 1bbf
00000040: 52db 25bf f4f6 18bf 5c6b fd3f 524c 3dbd
00000050: a8ce bfbf 9796 893d 941c ed3d 96da f3bd
00000060: 9808 be3e c64d d8bf 17d2 1ac0 863c 3dc0
00000070: 1b72 2dbe 46fa 27be a3a0 27bf 9727 18c0
00000080: 3fc2 f9bd eeb2 42bf af05 5a3f b053 c43f
00000090: fd6c 48c0 7f67 113f c5cd 4bbe ac74 04c0
000000a0: 2306 233f 124d b93f e49a 25c0 ecfe 6c3f
000000b0: 2cea e4bf 99d5 173f e865 9dbf 0cb2 4fbe
000000c0: 4b54 11bf 87c6 8bbf 7d6d 883e 365d 8540
000000d0: 33c6 0240 dbb6 993f 4eb7 21c0 cf8b 87bf
000000e0: 2745 1ec0 938b 1f3f 5a71 07bf 31b9 53c0
000000f0: 117c 3a3f 3b2d 98bd d98f 51bf 917f 3b40
00000100: 065b f4be f50e 1fc0 f733 993e 1530 e93d
00000110: e951 2ec0 7ec7 3cc0 fb6a eebf d178 88bf
00000120: ad4c 893e c651 7e3f cb0e 6840 abb2 833f
00000130: 3c62 a43e b736 a6bf 1403 c2bf 0223 93be
00000140: 9dbb 5e3e 64b3 f3be bf04 32bf 407a 133f
00000150: 4fc8 e6bf b3b4 05be 3818 4e40 d200 e4bf
00000160: 9ee4 19bf 13ed b03f 4b7d 0e40 7c90 8240
00000170: ccfc 553e f4ec 6abf a01d 22c0 324e 1140
