1-GNNs/result/6108_AR_NURA_MPNN_0920/50/model.pth (torch, 437615 bytes, 26 tensors)

gnn.project_node_feats.0.weight f4 [32, 74]
000000 0e cb 03 3e 23 17 48 bd cc 8f 1c bc 2d ed f7 bc
       0.12870428 -0.04885019 -0.009555768 -0.030264461
000010 19 4b af 3d bf 1f f2 a2 67 c5 2d bc 08 44 a3 ba
       0.085592456 -6.5627844e-18 -0.010606146 -0.0012456188
000020 69 e4 2a 3a 2b 8b d8 a3 81 b2 6b 24 0c 6b df 24
       0.0006519021 -2.3477707e-17 5.11087e-17 9.689218e-17
000030 4a 9b ad a4 bc e7 6e a3 26 27 93 21 3e 2c ae 3a
       -7.528986e-17 -1.29510775e-17 9.97147e-19 0.0013288332
000040 15 8e b4 a4 68 2f 91 a4 fc 45 d4 23 64 9a 36 23
       -7.830325e-17 -6.2964035e-17 2.3014726e-17 9.898933e-18
000050 70 9e af a1 ee b7 f7 a2 72 6f 6a 23 43 55 9f a4
       -1.1900399e-18 -6.7144227e-18 1.2708765e-17 -6.90997e-17
000060 95 e0 47 a3 42 cc 6d 24 b0 10 0c a4 02 3d 07 a3
       -1.0835369e-17 5.1564196e-17 -3.0371796e-17 -7.3312836e-18
000070 15 27 d1 a4 04 4f 5c 24 03 16 0e a3 a4 d0 f9 22
       -9.070551e-17 4.7771824e-17 -7.702497e-18 6.7712492e-18
000080 82 e9 1b a3 08 93 86 a4 ec 86 08 23 b3 3b 7f a4
       -8.452014e-18 -5.836232e-17 7.401146e-18 -5.5344878e-17
000090 b6 c0 72 24 0b e6 02 a4 b7 c7 73 24 f8 5c ea a2
       5.2638618e-17 -2.838411e-17 5.286139e-17 -6.352426e-18
0000a0 e8 b7 17 24 cf 5e 78 a4 d3 54 b5 23 3f 67 0f a4
       3.289868e-17 -5.3856734e-17 1.9659984e-17 -3.1095635e-17
0000b0 36 41 49 3d c4 4d 4b 3d 02 24 e4 3d 14 a0 9d bd
       0.049134456 0.04963471 0.111396804 -0.07696548
0000c0 4d 42 ef a2 70 98 5f a4 58 70 7e a4 a5 cd 18 a3
       -6.485128e-18 -4.8484536e-17 -5.517263e-17 -8.2834834e-18
0000d0 b3 76 db 24 ec 9d 3d 24 32 33 05 be 55 e9 5f 3e
       9.5177195e-17 4.1116607e-17 -0.1300781 0.21866353
0000e0 54 36 c6 3c d1 31 52 3c ae 49 f4 a2 f5 5c 81 a4
       0.024195828 0.01282926 -6.6214344e-18 -5.610231e-17
0000f0 9a ee 0a 23 8b 32 1e b9 90 de 9d 33 8a bc 34 3d
       7.531521e-18 -0.00015086883 7.351366e-08 0.044125117
000100 52 67 38 3c f8 35 0d 3e a0 2a aa a4 2d 0f 96 23
       0.011255102 0.13790119 -7.379796e-17 1.626946e-17
000110 ef 48 d1 bd ba 1a 08 be 6a 70 64 3e a7 aa c5 3c
       -0.10218989 -0.13291445 0.22308508 0.024129225
000120 bb 31 52 3c ee f5 8d a4 ac c1 a8 bd 25 90 a4 3e
       0.0128292395 -6.1565624e-17 -0.08240065 0.32141224
000130 13 79 cc 3d 27 6f 4b bc e5 a3 36 be f4 bb 86 a4
       0.099840306 -0.0124166375 -0.17835958 -5.843164e-17
000140 df f0 cb 3b b9 97 97 bc b0 2b 47 3c f5 18 76 a3
       0.0062237824 -0.018504964 0.012156412 -1.33409716e-17
000150 51 26 d5 a3 f9 d5 2f a4 93 72 d6 22 18 22 ca 24
       -2.3109734e-17 -3.8128318e-17 5.8126126e-18 8.766129e-17
000160 05 26 d7 23 cb 36 47 3b 17 66 e3 20 44 a5 d0 a4
       2.3326449e-17 0.003039765 3.8522853e-19 -9.048559e-17
000170 ab 8b d4 a2 26 92 90 23 f5 97 94 a4 ec f7 55 24
       -5.7610594e-18 1.5674408e-17 -6.4442194e-17 4.639701e-17
000180 06 88 26 24 8e 5b 5b 22 32 60 15 24 a5 7f 49 23
       3.611073e-17 2.9728503e-18 3.2390705e-17 1.0923262e-17
000190 86 1b c6 23 bf ec ae a2 b8 e2 59 24 c8 c2 6a 24
       2.147886e-17 -4.741346e-18 4.7246413e-17 5.0905648e-17
0001a0 d3 44 94 24 c1 d1 17 a4 57 b8 d8 24 7d fd b2 a3
       6.430136e-17 -3.2920574e-17 9.398735e-17 -1.9406155e-17
0001b0 e6 d7 96 22 96 9d dc 24 92 b6 93 a3 d2 1a e3 1e
       4.0886173e-18 9.567675e-17 -1.6015093e-17 2.4045652e-20
0001c0 83 6e 11 a4 80 b1 a0 23 f3 b4 f3 a3 4c 38 11 24
       -3.153547e-17 1.7422409e-17 -2.6422748e-17 3.1489548e-17
0001d0 dc 5f be a3 91 f2 e8 23 2e c5 c6 3e 67 7d f8 3d
       -2.064044e-17 2.5256221e-17 0.3882231 0.121332936
0001e0 8f d3 26 be fd 97 00 be b6 18 1e 21 ab 36 a9 a1
       -0.1629164 -0.12557979 5.3565187e-19 -1.1466356e-18
0001f0 00 1e 92 a1 4f 45 91 a4 ce 2e f1 24 10 89 84 a4
       -9.901286e-19 -6.300114e-17 1.0459638e-16 -5.747807e-17
000200 54 79 57 bd 36 85 c8 bd eb 7a 0d 3e cc a5 22 3e
       -0.052605942 -0.09791033 0.1381642 0.15883559
000210 c5 5d 44 a3 9c c8 1d 24 75 21 c6 24 19 5c c3 3b
       -1.0645038e-17 3.421387e-17 8.592549e-17 0.0059619066
000220 d6 4d cf 38 89 d9 67 3b 94 eb c3 3c 7a 87 3b 3e
       9.885027e-05 0.0035377464 0.023916043 0.18313399
000230 0f 62 d6 24 a8 9c e7 24 b5 e9 19 3e 72 be a2 bd
       9.2973824e-17 1.0044567e-16 0.15030558 -0.07946481
000240 11 42 a9 bd 44 14 0e 3e f3 a7 22 3e 89 1c b9 24
       -0.08264554 0.13874918 0.1588438 8.02793e-17
000250 9d e3 0b be 74 ac f4 3e fc b7 96 3e ac 4a c2 bd
       -0.13661046 0.4778782 0.29437244 -0.09486899
000260 c8 a3 26 be 22 ac d5 a2 73 7d 80 3b 8d bb aa bd
       -0.16273415 -5.791602e-18 0.0039212047 -0.08336554
000270 91 08 e1 3d f2 fc 9c a4 f0 0e f1 23 c6 88 4e a4
       0.10987962 -6.808272e-17 2.6135599e-17 -4.478498e-17
000280 ef 21 50 a4 32 2d f7 23 4f 82 96 a2 7f 55 0e 3d
       -4.5131553e-17 2.6798935e-17 -4.079555e-18 0.034749504
000290 db cd 0b 24 92 75 0b a3 e6 41 65 a4 13 12 d0 24
       3.0315187e-17 -7.5601016e-18 -4.9712278e-17 9.023624e-17
0002a0 6c 72 a5 24 58 71 53 23 7c 83 a4 a3 0c ea d3 a4
       7.175118e-17 1.1462334e-17 -1.7836601e-17 -9.1903154e-17
0002b0 ca 6f ea 23 20 02 1d 23 fb 61 2d 23 e1 0c 4c a3
       2.5417675e-17 8.511437e-18 9.399097e-18 -1.1061589e-17
0002c0 85 c8 89 23 18 9a 28 23 1e f6 b3 a4 e1 09 c7 22
       1.4938493e-17 9.139929e-18 -7.8045814e-17 5.3949518e-18
0002d0 d7 2a ed a4 9a 3d 09 a2 1b 05 f4 23 18 87 f7 23
       -1.0285494e-16 -1.8599574e-18 2.6456695e-17 2.6837008e-17
0002e0 c1 32 c8 24 26 47 d9 24 c5 a8 d0 23 e0 97 b4 a4
       8.6822154e-17 9.422928e-17 2.2622882e-17 -7.831984e-17
0002f0 a5 a4 1f a4 f8 0a bf a4 ab 43 7b a3 2f d8 fc a2
       -3.461709e-17 -8.285163e-17 -1.36210665e-17 -6.853363e-18
000300 21 33 66 3f 29 5e f7 3c b9 f9 91 be 9b ba b4 be
       0.89921767 0.030196266 -0.28510836 -0.3529862
000310 89 8e 14 23 e8 0c 17 24 69 0b c2 a4 fc 87 d8 a4
       8.053279e-18 3.2753838e-17 -8.415342e-17 -9.3905434e-17
000320 5c 2f 96 24 dd 48 ab 23 da d7 08 3d 00 2c 4a be
       6.513236e-17 1.8570716e-17 0.033408977 -0.19743347
000330 31 3a 0f 3e 93 d9 f6 3e 12 02 4a a3 7a ed 04 a4
       0.13987042 0.4821287 -1.095088e-17 -2.8824088e-17
000340 e2 d4 21 a2 6d 52 b3 3d 16 47 a1 39 7a 17 30 3d
       -2.1932268e-18 0.08755956 0.00030761276 0.04299114
000350 01 a8 56 bd fe f1 9e 3e 8f 10 4e a4 0f 41 a0 a3
       -0.052406315 0.31044 -4.4683155e-17 -1.7374788e-17
000360 08 20 e5 3c 00 04 00 3d 7a ec 31 be cf 1f 1a 3e
       0.027969375 0.031253815 -0.17375365 0.15051197
000370 2f de f6 3e 9e 34 c5 a4 65 75 93 bb ec 65 b0 b9
       0.48216388 -8.552427e-17 -0.0045000785 -0.00033645274
000380 71 49 89 39 a5 30 54 b8 ca 5e 93 bc 5e 49 a3 24
       0.00026185394 -5.0590043e-05 -0.017989535 7.081427e-17
000390 d5 77 1b 37 7c df f6 39 b5 d7 3c 37 4e b4 d5 22
       9.2666205e-06 0.00047087285 1.1255896e-05 5.792467e-18
0003a0 ef 3c e9 22 7e 3d a6 21 56 8c 8a a4 6c 3d 87 23
       6.3219292e-18 1.1264874e-18 -6.00857e-17 1.4662743e-17
0003b0 09 79 c9 23 07 fb f0 38 c1 8d 91 a4 a3 3d cf 23
       2.1843724e-17 0.00011490849 -6.3123866e-17 2.2469089e-17
0003c0 81 80 15 a3 11 aa 18 24 ea 97 b2 24 19 db d1 a4
       -8.104518e-18 3.3103798e-17 7.745255e-17 -9.101047e-17
0003d0 dd 65 b7 24 9c f0 05 a4 16 29 a7 a4 ec 34 ab a4
       7.953616e-17 -2.9043582e-17 -7.249431e-17 -7.424908e-17
0003e0 c7 e0 ee a4 6d a0 ab a3 bf c0 df 23 62 42 5d 23
       -1.03596834e-16 -1.86078e-17 2.425934e-17 1.1994491e-17
0003f0 69 10 08 24 77 ea 90 24 90 ed 96 24 c7 07 ac 23
       2.95042e-17 6.2847244e-17 6.545458e-17 1.8651571e-17

gnn.project_node_feats.0.bias f4 [32]
000000 9a f2 73 3d 2d c7 10 3e 1f af 82 3e fa 4c 7d bc
       0.059557535 0.1413848 0.25524232 -0.015460247
000010 67 06 66 3c 25 10 13 3e 6d 5b 16 bd 01 4c 1a 3d
       0.014039612 0.14361627 -0.036708284 0.03767014
000020 98 35 87 3d 5c f4 31 bb 70 80 82 3d 18 cf 05 3e
       0.06602019 -0.0027153706 0.06372154 0.13067281
000030 51 75 80 bc 3c 9b 8d 3d bc 6a 76 3d 9d 43 35 bd
       -0.01568094 0.06914374 0.060160384 -0.044253934
000040 a1 2b ad b9 c2 9a b2 b5 dc bd 5c 3c 05 5d ad bc
       -0.00033029637 -1.3307074e-06 0.013473 -0.02116252
000050 86 f6 57 3c 5c 8c ee bc 29 95 b7 ba 12 c5 36 3d
       0.013181334 -0.029119663 -0.0014006245 0.044621535
000060 a1 e4 95 3d b6 03 87 b6 fa d4 f5 bc bd 1a 3a bc
       0.07318998 -4.0237455e-06 -0.030008782 -0.011358914
000070 aa eb 7d 3d 7f 65 d1 bb 89 b4 e4 3d 69 56 18 b9
       0.061992325 -0.006390273 0.11167247 -0.0001452804

gnn.gnn_layer.bias f4 [32]
000000 04 db 79 b6 44 44 f3 39 c4 4c a2 b9 15 35 4a bd
       -3.7231375e-06 0.00046399434 -0.00030956243 -0.04936703
000010 cd 7f 29 3e 6e 59 d9 bc d4 8c ef 3c 79 71 3c bb
       0.16552658 -0.026531901 0.029241957 -0.0028754158
000020 c5 68 77 b9 13 20 06 3b 6b c3 94 3d f4 de ef b5
       -0.00023594785 0.0020465895 0.072638355 -1.7871776e-06
000030 70 81 ad 3d 71 d2 ed b6 03 ab 20 39 90 0e 02 3d
       0.08471954 -7.087649e-06 0.00015322496 0.03175217
000040 19 4d 25 3e 63 d5 5f bc 6f 4f 6f bc 90 f9 b7 b2
       0.16142692 -0.013661715 -0.014606341 -2.1417492e-08
000050 3a 4a 90 b7 6f 85 6d bd 59 90 d4 b7 13 29 ba b4
       -1.7200702e-05 -0.05798858 -2.5339587e-05 -3.4675085e-07
000060 1f 98 a3 b0 35 f0 8e ba 24 a4 2a b9 28 ec 3f 2f
       -1.1903046e-09 -0.0010905328 -0.0001627361 1.7455248e-10
000070 af 15 09 bd 30 5f a0 b1 57 bb 90 bc 79 c0 72 bd
       -0.033467945 -4.6674344e-09 -0.017667456 -0.059265587

gnn.gnn_layer.edge_func.0.weight f4 [64, 13]
000000 1f 8a ce b8 f9 2a 2a 31 15 fb ef ae 62 e9 04 31
       -9.8485725e-05 2.4762683e-09 -1.0913063e-10 1.934119e-09
000010 f1 6f 0b b6 a9 1c 41 b5 93 61 b1 ba fb 7d 42 23
       -2.0777773e-06 -7.193981e-07 -0.0013533108 1.05434385e-17
000020 58 8e b6 a5 eb 3c 51 a5 96 27 39 a4 7a f7 e8 23
       -3.1668423e-16 -1.81485e-16 -4.014901e-17 2.52583e-17
000030 ff b0 64 30 50 a4 5e bc 2f 37 56 37 27 6b f9 b9
       8.3197443e-10 -0.01358898 1.2768242e-05 -0.00047572816
000040 00 16 9e bb ca 94 de bb e2 1c f3 bc 9b 4e 3d bd
       -0.0048244 -0.0067926394 -0.029676858 -0.046217542
000050 fe 60 31 25 1f 11 b9 21 22 9f 12 25 72 e8 23 25
       1.5385165e-16 1.254062e-18 1.2717398e-16 1.4216752e-16
000060 9b ea 13 a5 de 0f ba bc ba 48 30 b6 ba b2 be ae
       -1.2829705e-16 -0.022712644 -2.6268376e-06 -8.671948e-11
000070 6d e3 ba ae 22 59 f7 2f 76 49 97 ae 91 74 f8 32
       -8.4987e-11 4.499237e-10 -6.879734e-11 2.8924008e-08
000080 db 08 37 b8 52 3e 31 25 3b d6 f4 a4 fa 40 b0 a5
       -4.3638847e-05 1.5373418e-16 -1.0618105e-16 -3.0575163e-16
000090 f8 fc 02 25 f7 68 c7 a5 d0 34 fe 2f 40 93 3a ba
       1.1361412e-16 -3.4592124e-16 4.6239856e-10 -0.0007117279
0000a0 f7 73 14 2c 61 40 e7 ab 34 8f 6c ac 29 1e 0d ad
       2.1096438e-12 -1.6431406e-12 -3.361711e-12 -8.021619e-12
0000b0 b6 a6 dc ad d7 0f b9 ba d4 48 32 23 13 f0 cc a2
       -2.5085139e-11 -0.00141191 9.664821e-18 -5.55485e-18
0000c0 4e 9a 9d 25 1c d1 8d 23 63 84 05 25 80 87 98 2c
       2.733972e-16 1.5375812e-17 1.1580765e-16 4.3351434e-12
0000d0 95 ba 5b be 58 cd a8 3e 9f d5 5d be d9 23 cc 3d
       -0.21457894 0.32969165 -0.21663521 0.09967775
0000e0 bc 7f a6 3d e3 34 ac 3d 17 33 92 bb 84 20 02 24
       0.08129832 0.08408525 -0.004461657 2.8216798e-17
0000f0 d1 ef 3b 25 40 3f b5 24 64 86 00 25 e2 7a b7 23
       1.6300917e-16 7.860339e-17 1.1147764e-16 1.9892943e-17
000100 38 fd 1f 3e ad a5 f3 bb e5 5a 26 3b 68 41 80 3a
       0.15623939 -0.0074355216 0.0025383767 0.0009785118
000110 cd 39 0c bb a9 4a 06 ba 71 97 6b bb 85 c0 01 bc
       -0.0021396757 -0.00051228196 -0.003594842 -0.007919435
000120 6d 4c bc a1 4b 93 71 23 01 b3 e4 a4 81 82 85 a3
       -1.2759605e-18 1.3095827e-17 -9.918248e-17 -1.447516e-17
000130 d0 39 26 a4 95 a6 ca bb b3 e5 b9 3e 39 cf d1 bd
       -3.604448e-17 -0.006184409 0.3630806 -0.10244603
000140 68 70 f8 3b b6 e1 2c be 50 71 4e be 3e 4d cc 3e
       0.0075817592 -0.16882977 -0.20160413 0.3990268
000150 2a c3 2f 3e 1d 9e 06 25 06 d7 37 a5 d1 34 45 a4
       0.17164293 1.1676218e-16 -1.5945573e-16 -4.2762303e-17
000160 01 8e 61 23 05 cf 16 25 0e 9a 95 bd 3e 24 31 3e
       1.2227345e-17 1.3080567e-16 -0.07304774 0.17298982
000170 9c 4b 9b bd f2 3b 18 3e 44 4b 28 bc 22 d3 1e 3e
       -0.07582781 0.14866617 -0.010271851 0.15510228
000180 0c 97 ab be 5e 88 b0 3d 49 07 ef 23 38 b5 1b 25
       -0.33513677 0.0861976 2.5915517e-17 1.3505506e-16
000190 b5 b8 a2 a4 d8 af 32 25 86 07 43 a5 0b b3 81 bd
       -7.0569207e-17 1.5498617e-16 -1.6916103e-16 -0.06332978
0001a0 bf dd a9 3d f1 52 ef bd 20 63 fb 3d 5e 1a dd b3
       0.08294248 -0.11685742 0.12274766 -1.02959106e-07
0001b0 7c 24 3a 3e 94 d5 51 be 83 d2 49 bd dc 54 f9 23
       0.1817798 -0.2049163 -0.049273025 2.7032573e-17
0001c0 f3 90 49 25 31 cb 3e a4 e4 2c 9d a2 05 4c d6 24
       1.7483082e-16 -4.1371792e-17 -4.2602465e-18 9.293649e-17
0001d0 24 53 8c b8 86 ae 23 3e 12 f0 e2 bd 81 02 0e 3e
       -6.691206e-05 0.15984544 -0.11080946 0.13868143
0001e0 b4 7b af bc ce 7c 07 3e e5 a1 73 be e4 33 23 3d
       -0.021421291 0.13231203 -0.23792227 0.03984441
0001f0 cb 59 f2 24 94 89 08 25 a7 d7 74 a4 8d 5e b8 25
       1.05102886e-16 1.1842733e-16 -5.309173e-17 3.1982982e-16
000200 02 38 89 a5 43 d9 cb bc fb ed 17 3b 5c a2 1c bb
       -2.3803664e-16 -0.024883872 0.002318262 -0.0023900485
000210 f1 d3 36 bb e5 63 2e 39 0f 30 9f ba 56 29 01 39
       -0.0027897323 0.00016631147 -0.001214506 0.00012317798
000220 af bb 5b bb 6f c7 fc a4 14 47 5b 24 4a ba 78 a5
       -0.0033528616 -1.0962543e-16 4.754826e-17 -2.1573688e-16
000230 d5 2a 24 25 f2 eb 84 24 25 d6 ff bb 08 82 80 3e
       1.4239245e-16 5.764558e-17 -0.0078075104 0.25099206
000240 e0 00 4b 3d fa c1 c4 3d 0c 79 18 3c 8e eb 4f 3e
       0.04956138 0.096073106 0.009306204 0.203047
000250 18 69 61 3d 3d 05 6b 3e 17 15 22 25 f6 b3 18 a4
       0.055031866 0.22951217 1.4058406e-16 -3.311218e-17
000260 b4 5c 8c a2 76 82 65 25 49 78 fd 24 65 9e 1c be
       -3.804523e-18 1.9906786e-16 1.0992503e-16 -0.15294798
000270 d9 b9 e6 b6 8e 4a 8d b5 3e 78 47 35 fd 44 84 b5
       -6.8761697e-06 -1.0527017e-06 7.430825e-07 -9.854845e-07
000280 36 50 dd b5 98 2a 03 36 c8 7a a8 b6 90 3a 2a a4
       -1.6489128e-06 1.9545314e-06 -5.021084e-06 -3.6912478e-17
000290 8c de a8 25 44 00 48 a4 73 98 1f a5 96 3c 33 a3
       2.9294158e-16 -4.3368312e-17 -1.3842703e-16 -9.716439e-18
0002a0 d1 55 be b6 13 ae c0 b3 c0 eb b2 31 09 0d ce 31
       -5.6724316e-06 -8.9723606e-08 5.2072835e-09 5.996871e-09
0002b0 ef fa cd 32 f9 84 c3 b2 fc 84 2b b4 33 55 ef b3
       2.3979252e-08 -2.2761457e-08 -1.5973995e-07 -1.11448024e-07
0002c0 d2 d7 e9 22 a7 04 27 a5 04 4c aa a3 17 2d 16 24
       6.3383285e-18 -1.4486517e-16 -1.846363e-17 3.2564258e-17
0002d0 32 08 9f 24 e5 7c 3f b0 d1 1f 15 3e ee 21 ae bc
       6.896914e-17 -6.966288e-10 0.14562918 -0.021256413
0002e0 2c 52 a6 3d c7 8a 76 bb 36 ad b4 3d c6 78 7b be
       0.08121142 -0.003761934 0.088221 -0.2455779
0002f0 e1 d8 49 3d 65 d3 47 a5 95 8b 60 23 ba c7 af a4
       0.049279097 -1.7332122e-16 1.2172622e-17 -7.62325e-17
000300 d4 61 97 a4 0d 9c 23 25 83 eb 8d bc 2e b8 42 3e
       -6.565154e-17 1.4190868e-16 -0.017324215 0.19015571
000310 64 47 10 3d 02 32 f7 3d bd e8 3a bc f1 c7 22 3e
       0.035224333 0.12070085 -0.011408028 0.15896584
000320 e7 ce df be 83 79 09 3e c5 41 65 25 04 6a b0 24
       -0.4371254 0.1342526 1.9884867e-16 7.650743e-17
000330 0b 27 d4 a4 e2 c8 93 a5 6d 95 36 25 0c 74 ff bd
       -9.2006486e-17 -2.5636559e-16 1.5836611e-16 -0.12473306
000340 cc 04 3a 3a 13 c4 16 b9 0b 10 b4 b5 aa bf 54 b9
       0.00070960517 -0.00014378158 -1.3415714e-06 -0.00020289296
000350 a0 df 06 3a 12 87 92 bb c6 ab ed ba cb d8 26 a5
       0.0005145017 -0.004471668 -0.0018132858 -1.4471657e-16
000360 e8 da 30 a3 3b b8 1b a5 78 f0 ef 22 68 ce 02 24
       -9.587334e-18 -1.3506527e-16 6.5035686e-18 2.836409e-17
000370 23 5b 49 b8 81 a7 21 3d ae 4f 8d bd e3 41 a8 3d
       -4.8007012e-05 0.039466385 -0.06899963 0.08215692
000380 24 cc 91 b6 78 dc fe 3d 05 0a e6 bd 45 9f c7 bc
       -4.345102e-06 0.12444395 -0.1123238 -0.024367938
000390 62 3f 70 25 65 43 71 25 2a 5b 86 a5 c3 9f 16 23
       2.0838157e-16 2.0926252e-16 -2.330707e-16 8.165347e-18
0003a0 12 1a bb 25 7e f2 41 2b 51 4c 40 3d cb 04 7f bd
       3.2456995e-16 6.89039e-13 0.04694778 -0.06226043
0003b0 7c 32 8e 3d d4 09 93 b8 ca 0b df 3d d0 7b 0f be
       0.06943223 -7.011337e-05 0.108909205 -0.14012074
0003c0 3e 16 98 bc 9c 69 a6 a5 ea 6a 2d a4 41 ac 80 23
       -0.018565293 -2.8867973e-16 -3.7603955e-17 1.395074e-17
0003d0 39 f1 4f a5 3b 6b 11 a5 9e 99 d8 bc f1 ac 3b 3e
       -1.8036117e-16 -1.2613076e-16 -0.026440438 0.1832769
0003e0 a8 31 ae bd eb db 0b 3e 22 38 c9 ba e2 cb 06 3e
       -0.08505565 0.13658111 -0.0015351812 0.13163713
0003f0 0b 15 a3 be 0d f6 94 3d 4b 82 9f 23 96 43 09 23
       -0.31851992 0.07273493 1.7293996e-17 7.441097e-18

gnn.gnn_layer.edge_func.0.bias f4 [64]
000000 23 ba 6d bb 82 4a d5 bd 1f 7d 7a b9 c0 49 e3 ba
       -0.0036274276 -0.10414602 -0.00023888469 -0.0017340705
000010 a2 2f f2 3d bd 65 46 bc 1c 40 b3 3d 94 ee 7f 3d
       0.118254915 -0.012109217 0.08752462 0.062483385
000020 40 67 0f bc 52 20 0e 3c 50 b0 19 bd ca 01 11 3e
       -0.008752644 0.008674698 -0.03752166 0.14160839
000030 87 b1 cd b6 a3 9d cb b3 d2 70 1c 3d 59 c0 d6 3d
       -6.130143e-06 -9.481598e-08 0.03819353 0.10485906
000040 31 92 5b bb c7 cc b9 bc d8 7a 3e bb 51 02 38 3d
       -0.0033503885 -0.022680653 -0.002906492 0.044924084
000050 48 7b 9b 3e 6b 7f 06 3e ee 97 7c 3d 57 8e aa ba
       0.30367494 0.13134544 0.06166833 -0.0013012391
000060 09 5c cb bb 9b 28 df af a4 14 df 3b ef 77 e6 bd
       -0.00620604 -4.0592316e-10 0.0068078805 -0.11253344
000070 d6 cb 57 bc bc e8 9e b2 13 3f e4 bb fa 5e 24 b9
       -0.013171157 -1.8499456e-08 -0.006965527 -0.0001567564
000080 a5 1f 58 b8 33 51 73 ba c1 62 23 bd 11 92 73 bd
       -5.1527884e-05 -0.0009281814 -0.0398891 -0.05946547
000090 e9 67 13 ba d6 d4 13 b5 34 fd 53 bc 50 16 96 b9
       -0.0005623089 -5.5071484e-07 -0.012938786 -0.00028626854
0000a0 ca 68 0e b8 7f 19 86 3d 47 bf 18 b0 b7 83 a3 ba
       -3.395303e-05 0.06547832 -5.55691e-10 -0.0012475167
0000b0 5d d0 4f bc e9 4f f3 b0 92 f1 bd b7 a1 6b f4 3d
       -0.012683955 -1.7703289e-09 -2.2643046e-05 0.11934591
0000c0 b9 4a 07 ba 6d 91 b5 3d 65 cc 0a bb bb de 96 bc
       -0.0005160976 0.088656284 -0.0021178958 -0.018416753
0000d0 a5 00 e1 ba 58 3a f1 ba d0 d5 9a b8 01 8c 53 bc
       -0.001716633 -0.0018404229 -7.383118e-05 -0.0129117975
0000e0 3b bc ec 3d 0e 7f 70 b7 93 eb 8f bc ec a6 3d 3d
       0.115593396 -1.4334697e-05 -0.017568385 0.046301767
0000f0 47 d6 6a b2 0c c4 04 bb c8 ea 46 b9 fc 42 2e bb
       -1.3669314e-08 -0.0020258455 -0.00018970214 -0.0026590219

gnn.gnn_layer.edge_func.2.weight f4 [1024, 64]
000000 7f fd b9 2e 6b 70 a6 b1 41 8d ad a4 6c d9 67 a5
       8.457856e-11 -4.8440163e-09 -7.5266084e-17 -2.0109722e-16
000010 e2 a3 94 35 d2 15 d4 b1 e5 4d a0 b6 d0 49 6b 35
       1.1074555e-06 -6.1724927e-09 -4.7774397e-06 8.7651733e-07
000020 61 e2 a4 b4 a6 26 76 b4 d9 9c a1 33 8a c5 4a b6
       -3.0712093e-07 -2.2924596e-07 7.525677e-08 -3.0215328e-06
000030 0f d1 0b ad 03 65 cf ab 14 c5 86 b3 d9 49 c1 34
       -7.9476556e-12 -1.4736271e-12 -6.2757096e-08 3.6002783e-07
000040 b8 fd 17 b4 a7 d0 b7 b3 07 9b 03 35 9e e4 5d 35
       -1.4155273e-07 -8.559555e-08 4.90269e-07 8.26616e-07
000050 f3 67 39 b7 4a 88 3f 35 b0 8b 72 35 56 02 72 a4
       -1.1051062e-05 7.135137e-07 9.03553e-07 -5.2477364e-17
000060 d0 af 17 b5 14 51 57 27 7a ee 2c b5 9e 6b c4 b1
       -5.6507724e-07 2.9881196e-15 -6.442202e-07 -5.7165854e-09
000070 fa 93 56 b4 e3 f7 97 24 55 98 fc b3 2f 9b 50 b1
       -1.9984137e-07 6.590575e-17 -1.17623735e-07 -3.0356195e-09
000080 e8 7d 19 b2 eb 9e 4f a7 1a 9a cd b2 5b 9c 87 2d
       -8.9344e-09 -2.881317e-15 -2.3935218e-08 1.5417159e-11
000090 98 e1 0e b1 9e 19 8f ab 4f 33 bc 32 8f 75 8f b1
       -2.0791955e-09 -1.0167871e-12 2.1909413e-08 -4.1752126e-09
0000a0 2e 97 56 26 fe b8 37 b1 47 73 49 a9 ce ef b8 ae
       7.445105e-16 -2.673516e-09 -4.4730953e-14 -8.409949e-11
0000b0 5d c8 96 b1 72 ea 27 25 21 21 0e 31 75 84 5f 33
       -4.3883532e-09 1.4564374e-16 2.0682551e-09 5.2041703e-08
0000c0 77 7e 4f b1 ab dd b9 35 0d 49 fc 27 c4 dd 65 af
       -3.0194351e-09 1.3848088e-06 7.0023252e-15 -2.0906216e-10
0000d0 14 5f 0d 2f 4c 26 f0 2e 3c 66 26 2e 30 65 ed 26
       1.2857654e-10 1.0920739e-10 3.7834832e-11 1.6472605e-15
0000e0 de 97 89 36 60 fb 86 af 70 5e 24 b4 6a 05 f0 34
       4.100598e-06 -2.455307e-10 -1.5308046e-07 4.4707423e-07
0000f0 2f 43 a6 a4 65 a6 f1 a6 da 37 0c b1 f0 f8 4f 31
       -7.210484e-17 -1.6767836e-15 -2.040443e-09 3.026397e-09
000100 c3 33 d3 2d 0a b2 4f b6 07 5d fd 2d 07 28 46 2b
       2.401091e-11 -3.0949036e-06 2.8804082e-11 7.039928e-13
000110 04 11 22 36 06 69 b2 34 55 a2 85 b8 46 f3 ac 37
       2.4149786e-06 3.3231498e-07 -6.372171e-05 2.061728e-05
000120 a5 06 59 b6 38 e6 9c 37 e9 ae dc 34 06 d8 07 b9
       -3.2339387e-06 1.8703853e-05 4.1105457e-07 -0.00012955078
000130 00 ce 5b 2e db 94 36 ad e0 ea bb 37 c8 d1 4a 38
       4.99778e-11 -1.0378555e-11 2.240151e-05 4.8355927e-05
000140 ed b6 28 b5 b4 9f 1c b3 33 7a 33 35 12 bf 90 37
       -6.285107e-07 -3.646683e-08 6.686052e-07 1.7255112e-05
000150 69 23 d0 b6 38 79 3c 37 b1 07 00 38 8b 22 02 2b
       -6.2030053e-06 1.1233897e-05 3.052474e-05 4.6233216e-13
000160 cb 5d b8 b6 bb 61 86 29 0d d0 21 b7 0b a9 50 b8
       -5.4945463e-06 5.967749e-14 -9.644788e-06 -4.9748498e-05
000170 45 45 99 b6 40 ad bd 2a 10 d4 63 b5 aa ba 4d 31
       -4.5678194e-06 3.369336e-13 -8.487268e-07 2.9937532e-09
000180 67 80 c5 b0 dc 76 0d ad fc 53 20 34 39 09 19 b5
       -1.4370131e-09 -8.041314e-12 1.4931715e-07 -5.701036e-07
000190 65 6d 10 b3 e0 f4 c6 a9 d7 e5 35 b5 f7 aa 08 b2
       -3.3627106e-08 -8.8354454e-14 -6.7762215e-07 -7.955115e-09
0001a0 05 28 b4 2c 65 0c 7b 37 70 38 ca 29 b4 19 8a 2e
       5.1203508e-12 1.4963652e-05 8.9803924e-14 6.280079e-11
0001b0 65 85 dd 32 8e e6 a7 aa d2 db 28 34 05 69 50 38
       2.5788447e-08 -2.982514e-13 1.572619e-07 4.968887e-05
0001c0 19 98 8a 33 85 70 38 37 28 94 e8 ad 2b 09 77 36
       6.453792e-08 1.0993453e-05 -2.6441141e-11 3.6811205e-06
0001d0 51 d3 d8 b3 0b 78 65 2e c7 8a 89 b0 1f 70 b9 ae
       -1.0096722e-07 5.217519e-11 -1.0007505e-09 -8.432743e-11
0001e0 e8 24 88 b7 66 cb 85 b0 9b 3e 1d b6 4e 8c 11 38
       -1.622965e-05 -9.734833e-10 -2.3431264e-06 3.4701363e-05
0001f0 6c 9d 85 a7 8f e5 9c ab 5f 35 ce 2c 77 dc a2 30
       -3.7085593e-15 -1.1148182e-12 5.8607975e-12 1.1849711e-09
000200 55 2b 1d a8 82 96 fe 34 97 cc 69 a7 5f c8 88 a8
       -8.724647e-15 4.7420696e-07 -3.2446154e-15 -1.518593e-14
000210 e3 3a fd b8 0f b2 13 35 20 e6 9b b9 19 c3 ac 37
       -0.000120749486 5.5020877e-07 -0.0002973536 2.0594847e-05
000220 7c e4 eb b4 ff 88 73 37 30 7f b0 35 43 6b 89 b7
       -4.3938405e-07 1.4515826e-05 1.3150038e-06 -1.638162e-05
000230 bf e5 27 30 7c c4 8c 2c 5f f9 a3 37 07 ea 41 b8
       6.1080735e-10 4.0008535e-12 1.9547237e-05 -4.623274e-05
000240 10 30 6b b2 08 0b 44 34 c2 c9 f8 b3 56 aa 3b 38
       -1.36897285e-08 1.8257936e-07 -1.15850995e-07 4.4742912e-05
000250 5e 08 2a b9 44 0d 36 b7 5b a3 2e b9 bd b1 a3 a6
       -0.0001621558 -1.0851134e-05 -0.00016654788 -1.1358573e-15
000260 2f 23 c9 b5 04 60 97 2a 43 00 05 36 92 c2 71 39
       -1.4985907e-06 2.6889612e-13 1.9818697e-06 0.00023056034
000270 b6 21 d3 b6 2c 42 29 a8 96 f5 cc b3 d6 91 71 33
       -6.2922145e-06 -9.395733e-15 -9.544162e-08 5.6244822e-08
000280 30 fe c3 af 0c 39 a6 28 69 70 e1 b3 78 67 f9 b1
       -3.5650904e-10 1.8454442e-14 -1.0497826e-07 -7.258617e-09
000290 18 cf 30 2f 85 39 b0 af c7 90 17 36 e3 4e 1b aa
       1.6080681e-10 -3.2055084e-10 2.2585025e-06 -1.3794135e-13
0002a0 67 29 b4 a9 d2 a7 de b7 3e d3 80 aa 1a 45 5d a8
       -8.000788e-14 -2.654261e-05 -2.2883946e-13 -1.22829484e-14
0002b0 9a 74 b5 32 5a dc 8e 2b 52 01 0a ac 86 12 97 b8
       2.1124198e-08 1.0150867e-12 -1.9611712e-12 -7.203691e-05
0002c0 4d 82 eb b1 f2 1c 69 37 30 18 b7 2c 71 4f 3e aa
       -6.8542136e-09 1.3894622e-05 5.203858e-12 -1.6902952e-13
0002d0 43 1c bc 34 29 6c 43 a8 62 7e 54 ae 35 57 16 2a
       3.5038292e-07 -1.0848128e-14 -4.831547e-11 1.3352932e-13
0002e0 c9 f9 98 37 c2 cd 30 af 94 06 aa b3 77 bf da b8
       1.8236127e-05 -1.6080207e-10 -7.9174384e-08 -0.00010430713
0002f0 2c 5a 14 24 bf 74 4a a9 27 72 59 ae dc 1d 41 aa
       3.2168763e-17 -4.495427e-14 -4.9441475e-11 -1.7152203e-13
000300 94 6f 6c 2e cf a1 66 31 bd 4f b5 a9 f0 43 e4 28
       5.375929e-11 3.3561383e-09 -8.051847e-14 2.5342548e-14
000310 e4 11 2b 3c 3c e2 cd 36 8c 07 98 bd f8 4f 35 3b
       0.010441277 6.1358132e-06 -0.074233145 0.0027666073
000320 71 d3 05 ba 57 6e 36 bb 9b bc 75 3a 6d 8e 41 bd
       -0.00051050546 -0.0027836764 0.00093741127 -0.04725497
000330 43 03 6d 2c 9e 3b 90 b1 2a 98 36 3b 07 fd db bb
       3.3681536e-12 -4.1977293e-09 0.0027861693 -0.006713513
000340 ce 29 81 ae 4c 46 a2 b8 88 d1 cb b8 52 36 2d 3b
       -5.873667e-11 -7.737856e-05 -9.7188225e-05 0.0026430083
000350 96 e0 4a 3c c8 4e 9e b8 eb 5b 65 3c 11 a9 9a 28
       0.012382647 -7.548701e-05 0.013998966 1.7170755e-14
000360 ca 30 9e 3a be 4d 74 ab 39 36 c3 39 d6 2c 08 2f
       0.0012068984 -8.6794103e-13 0.00037233697 1.2385057e-10
000370 cc a5 43 ba f6 44 04 25 3c 68 84 b1 1e 82 6a 30
       -0.00074633653 1.147254e-16 -3.8535557e-09 8.531361e-10
000380 c9 bb a3 b4 0e bb 69 26 32 20 79 b8 d0 b7 0b ba
       -3.0497748e-07 8.109162e-16 -5.939621e-05 -0.00053298194
000390 bd 36 ae b1 ce 62 6d 32 1a 2b 3a 36 85 01 19 a7
       -5.0702895e-09 1.3817681e-08 2.7741248e-06 -2.123384e-15
0003a0 d4 14 18 2a 77 8c de ba 02 86 86 aa a2 f4 2b ab
       1.3507538e-13 -0.0016979118 -2.3896168e-13 -6.10909e-13
0003b0 34 27 80 36 e2 12 ec a3 5b a6 23 b4 05 19 cd bb
       3.819261e-06 -2.5595168e-17 -1.5241078e-07 -0.006259086
0003c0 f8 46 9e 36 4f 8c 5f bb 20 3f bd aa 77 e6 bc b9
       4.717029e-06 -0.003411073 -3.3616946e-13 -0.00036029864
0003d0 06 20 11 30 41 14 12 ac ca ae 0c 2e 18 4e a4 2c
       5.27962e-10 -2.075909e-12 3.198756e-11 4.6698305e-12
0003e0 7f 5a cb 3c 6a 84 8d 32 ed 5c 8f 39 33 c5 24 bb
       0.024823425 1.6474775e-08 0.0002734432 -0.0025141954
0003f0 05 89 68 26 7d 1d a9 29 8b 6d 46 b7 d8 b8 fe ad
       8.0676865e-16 7.510223e-14 -1.1827225e-05 -2.8958544e-11

gnn.gnn_layer.edge_func.2.bias f4 [1024]
000000 c9 43 79 b6 db 3a 11 ba 75 69 b5 b9 c4 be 8e bd
       -3.7143348e-06 -0.0005540081 -0.00034601582 -0.069699794
000010 23 b1 9f 3d 27 8f b3 bc 86 66 1c 3c 5b fd 5b ba
       0.07797458 -0.021918846 0.009545928 -0.000839194
000020 d2 10 ee bb 89 e8 a7 3b ff 1f de 3c 65 d3 dc 35
       -0.0072651887 0.005124156 0.027114866 1.6452801e-06
000030 d3 f0 20 3d 6a 85 75 b7 b8 c7 cd b9 48 c6 23 3c
       0.039292168 -1.4634201e-05 -0.0003924945 0.009996004
000040 f2 66 9e 3d eb 51 9b 3d 69 60 ae 3d 00 b7 eb b3
       0.07734479 0.07583984 0.085144825 -1.0976328e-07
000050 26 6d 35 b8 cc 22 c7 bc dd af 2d b8 c0 05 c8 b4
       -4.3255415e-05 -0.024308585 -4.14102e-05 -3.7257087e-07
000060 d9 8b 7c b1 02 0e 11 bc dd 0c 03 b9 77 3f 54 31
       -3.675032e-09 -0.008853437 -0.00012497925 3.0886136e-09
000070 57 b3 b6 bc db 8a 9a 32 fa 71 8f bc 8a 19 e6 bc
       -0.022302313 1.7991104e-08 -0.017510403 -0.02808835
000080 dc cd b1 34 71 ac 89 b8 58 00 d6 38 e9 4d 88 bb
       3.3118602e-07 -6.564789e-05 0.00010204379 -0.0041596782
000090 ad fa 8a 3e 33 62 83 bb f1 67 e9 3c 40 2d 23 3b
       0.27144375 -0.004009509 0.028491946 0.0024898797
0000a0 d9 0a 9b 38 45 3e 0e 3c d9 2c d4 3d bc b1 8f 35
       7.3929965e-05 0.008681838 0.103601165 1.0706058e-06
0000b0 82 aa 04 3e b3 86 54 b6 e7 85 94 39 dd 7d 1c 3d
       0.12955669 -3.1668867e-06 0.00028328525 0.03820597
0000c0 e2 bd 89 3e 09 eb a7 3c ab c8 9d 3c 5b 68 99 b0
       0.26902682 0.020497816 0.019260725 -1.1161875e-09
0000d0 13 da df b6 b2 11 28 bd fc 1f eb b7 07 4f cd b3
       -6.671305e-06 -0.0410325 -2.8029077e-05 -9.5604314e-08
0000e0 02 5c 72 b0 0b 94 67 3b 50 3a b7 b8 94 7e d3 2e
       -8.816984e-10 0.0035336043 -8.7369815e-05 9.617654e-11
0000f0 1e d5 93 bc 4d ce 94 b1 01 73 72 bc db a4 67 bd
       -0.018045958 -4.3308206e-09 -0.014797927 -0.056553703
000100 02 8c d3 b5 71 31 6e 39 3d 26 98 39 40 00 42 bd
       -1.5761473e-06 0.00022715867 0.0002902019 -0.04736352
000110 64 d7 a0 3e 10 c6 18 3d 2d ad 4a 3d d3 e9 4b bc
       0.3141433 0.037298262 0.04948156 -0.012445885
000120 35 2f 09 3b 3c bf 28 3d 61 a2 2a 3e 0c a6 34 36
       0.0020932679 0.041198 0.16663505 2.6918742e-06
000130 66 8c 43 3e 84 5f 72 b6 fd 37 2f bb dc 89 b6 3d
       0.19096527 -3.6116408e-06 -0.0026736252 0.08913013
000140 de 7e a8 3e b5 5f 2d bb af 8a f8 bb 23 46 34 32
       0.32909292 -0.002645475 -0.0075848917 1.0493326e-08
000150 46 7c 1b b7 37 01 97 bd 08 8e b5 b8 5c 3e 6d 30
       -9.267655e-06 -0.073732786 -8.657208e-05 8.6308716e-10
000160 8d 79 c7 b0 9f 21 e0 bb 17 99 9b b8 45 7b b8 b6
       -1.4513702e-09 -0.0068399454 -7.419491e-05 -5.497978e-06
000170 1a 8a 96 bc 61 f0 03 b2 f3 51 c8 bc 86 52 c5 bd
       -0.018376399 -7.679859e-09 -0.024453139 -0.09634881
000180 42 4d 5e 33 e1 71 8d 34 4c 48 b5 33 c0 56 8d b7
       5.175867e-08 2.6346154e-07 8.44162e-08 -1.6848906e-05
000190 6f 97 4e 3a fa 6e 3f 3a 19 df b5 b7 16 0c 37 39
       0.0007880842 0.00073026086 -2.168077e-05 0.00017456742
0001a0 c7 65 fe 36 c0 90 8b b6 1c cb 81 b8 d3 d9 ea af
       7.5816383e-06 -4.159374e-06 -6.1890314e-05 -4.2719125e-10
0001b0 73 39 8e b8 0e 2e c8 b1 78 35 1f b6 c0 73 a2 b7
       -6.7817884e-05 -5.826002e-09 -2.372397e-06 -1.9365805e-05
0001c0 7c 55 8d 39 21 9f 85 3b 30 40 9f 3b f1 24 24 ae
       0.00026957307 0.0040778075 0.0048599467 -3.7322093e-11
0001d0 d1 ab a1 33 9b 73 7d b7 39 86 fc 35 79 9c 0a b0
       7.5284e-08 -1.5106892e-05 1.8814527e-06 -5.042647e-10
0001e0 53 5a 01 ad 52 ff 06 39 e5 14 e5 b3 2b ba 21 2f
       -7.352857e-12 0.0001287435 -1.0667444e-07 1.4709005e-10
0001f0 19 fe 4d 36 10 91 69 30 96 96 f0 b5 1a 7f 8e b8
       3.0695285e-06 8.497105e-10 -1.792522e-06 -6.794762e-05
000200 00 7c 80 35 88 d9 c4 37 e8 6b 84 b7 14 81 82 3b
       9.572832e-07 2.3466317e-05 -1.5785874e-05 0.0039826725
000210 d9 77 2a 3d 77 53 e0 37 f2 88 8c b9 f0 01 c5 b9
       0.041618202 2.6741747e-05 -0.00026804913 -0.00037576212
000220 ce 01 9d 39 53 74 cd 3a 06 65 28 3c 1e 93 09 35
       0.00029946718 0.0015674926 0.010277992 5.125056e-07
000230 ac 9e 4e 3c 6d 93 1f b4 d5 3f b3 39 73 fe 82 ba
       0.0126110725 -1.4861662e-07 0.000341891 -0.0009994045
000240 a7 62 1f 3d a0 6e d8 bd 6a ac ec bd 0a e8 f9 b0
       0.03891244 -0.10567975 -0.11556323 -1.8183084e-09
000250 00 51 1a b4 a6 20 ba 3c 6c 5d 43 38 86 54 1e b4
       -1.4371835e-07 0.022720646 4.657863e-05 -1.4745646e-07
000260 90 4d 48 af 64 ff 9d ba d9 ef 05 36 41 8e 7f ae
       -1.821745e-10 -0.0012054262 1.9958154e-06 -5.8106634e-11
000270 92 ce b1 bc 06 f9 58 b2 78 ea e1 bb 07 cd 77 3c
       -0.021704946 -1.2629476e-08 -0.006894406 0.015124566
000280 5d 87 eb 35 b2 10 cc 38 08 e8 8d 38 bd f6 8f 3b
       1.754826e-06 9.730588e-05 6.766623e-05 0.004393427
000290 0b 23 aa 3e 1e cb 07 bc 1b d7 29 3d 2b b9 27 3b
       0.3322986 -0.008288173 0.041464906 0.0025592546
0002a0 60 1e 31 ba 6e 06 76 3c 88 75 08 3e 55 81 11 36
       -0.00067565404 0.015016181 0.13326085 2.1681965e-06
0002b0 d3 b4 28 3e f2 14 72 b6 05 cd 8b 3a 48 41 3b 3d
       0.16475229 -3.6073002e-06 0.0010665959 0.045716554
0002c0 2c 1f aa 3e 9b d2 00 be 10 ce 0b be ba 4a 37 31
       0.33226907 -0.1258034 -0.13652825 2.6672482e-09
0002d0 ca cf e4 b6 a0 a6 2b bd 14 a2 96 37 ba 97 83 b4
       -6.8191193e-06 -0.041906953 1.7956867e-05 -2.4511047e-07
0002e0 53 fb 9a b0 3b ce 84 3b d7 ce 06 b9 2a 25 94 ae
       -1.1276405e-09 0.004052905 -0.0001285629 -6.7368625e-11
0002f0 fc 33 2d bd 7d 9d 8c b2 10 92 71 bc 1c 75 26 bd
       -0.042285904 -1.6369762e-08 -0.014744297 -0.040639028
000300 25 2e 10 ae e2 56 5e 32 d0 50 c4 2e 93 29 89 b1
       -3.2782794e-11 1.2941856e-08 8.927403e-11 -3.991951e-09
000310 67 af b0 36 12 da d9 28 e1 c9 b0 b4 9e 72 9f a9
       5.2656283e-06 2.4186413e-14 -3.292944e-07 -7.0809013e-14
000320 24 59 a2 ae 22 fb 1a 34 2c 47 13 35 d3 fa 49 2d
       -7.3827416e-11 1.4433729e-07 5.4865336e-07 1.1481221e-11
000330 98 89 45 b5 92 23 09 32 5e ff cb 32 c4 74 98 b4
       -7.3588444e-07 7.982537e-09 2.3748438e-08 -2.8397164e-07
000340 dd b4 8e 37 34 b8 11 b9 a3 17 ae b9 19 b8 fc 28
       1.701194e-05 -0.00013896899 -0.00033205477 2.805746e-14
000350 72 df ee ab 90 87 f4 28 a2 54 d0 2e e3 cc 14 27
       -1.6972936e-12 2.7148233e-14 9.473779e-11 2.0650195e-15
000360 8a a8 0a 24 a3 32 a9 af 03 59 91 a7 64 1f dd 2b
       3.0066738e-17 -3.07769e-10 -4.034209e-15 1.5711707e-12
000370 2b f0 a8 29 72 4d 03 2d 51 b8 4c 24 2a ed 9e ac
       7.502361e-14 7.463684e-12 4.439157e-17 -4.5169606e-12
000380 d9 b3 81 35 1a c1 b4 37 ef e0 ed b3 c5 58 0d bb
       9.663592e-07 2.1547592e-05 -1.1077088e-07 -0.0021567803
000390 1d 35 82 3d ac 8e 00 3b 11 c2 34 3b dc 54 93 ba
       0.06357787 0.001961629 0.0027581493 -0.00112405
0003a0 6a 94 7c 39 f8 54 1e 3b 30 f6 8f 3c ee 05 32 35
       0.00024087881 0.0024159532 0.017573446 6.6318796e-07
0003b0 c8 7d aa 3c c6 c5 30 b4 40 e8 20 39 1e 0d 75 3a
       0.02081193 -1.6463227e-07 0.00015345309 0.0009347963
0003c0 f5 57 6d 3d 35 7b cc bd e2 cf dd bd 53 89 bd 30
       0.05794521 -0.099844374 -0.10830666 1.379059e-09
0003d0 13 5a d8 b4 13 b7 97 3c 9b a9 35 38 38 f9 fb b3
       -4.0298673e-07 0.018519914 4.331172e-05 -1.1733431e-07
0003e0 66 0b cf ae fe 2f 0e bb 56 29 4d 36 1e c9 2a 2d
       -9.415295e-11 -0.0021696086 3.057144e-06 9.708038e-12
0003f0 7d ce 14 bc 93 d1 83 b2 63 0c b8 bb ab f0 4f 3c
       -0.009082434 -1.534571e-08 -0.005616711 0.012691657

gnn.gru.weight_ih_l0 f4 [96, 32]
000000 49 15 2a b2 5b 52 6b b5 74 db 3c 37 46 aa d8 b9
       -9.900142e-09 -8.7664165e-07 1.1256769e-05 -0.00041325594
000010 08 8b b1 bb 58 b3 c4 b8 6c 05 a4 ba 27 ce f0 b8
       -0.005418185 -9.379414e-05 -0.0012513823 -0.00011482491
000020 25 26 6a b7 a2 d4 43 b8 73 de 20 bb 64 0a d2 2e
       -1.3956368e-05 -4.6689653e-05 -0.0024546653 9.55154e-11
000030 b7 49 2e bb fd 1d 8b b2 f2 11 c7 38 7c 3c 5f ba
       -0.002659423 -1.6195367e-08 9.492402e-05 -0.0008515788
000040 11 65 ae bb 4f a2 31 bb 06 a8 32 bb 4e 4c ef 2f
       -0.0053221066 -0.00271048 -0.0027260794 4.3528064e-10
000050 64 96 81 34 f8 9f 53 39 80 d7 29 b6 14 65 43 30
       2.4137546e-07 0.00020182121 -2.53084e-06 7.108423e-10
000060 80 91 dd ad b3 7c c0 38 80 90 81 36 6e ac 77 2d
       -2.5189406e-11 9.1785005e-05 3.8613216e-06 1.40786115e-11
000070 eb 5d b5 ba 89 73 a6 b0 e8 1f 6b 39 f2 3e d9 b8
       -0.0013837194 -1.2110927e-09 0.00022423232 -0.00010359091
000080 57 f7 a6 b3 a5 3f 9c b6 3e 5a 55 36 47 ea ac 38
       -7.774968e-08 -4.6565715e-06 3.1792001e-06 8.245237e-05
000090 e0 87 05 bb 44 0d 70 39 9f 6b 50 b9 a1 db 24 39
       -0.0020375177 0.00022893125 -0.00019876518 0.00015722077
0000a0 e0 5d 60 38 7f de 03 37 ef 7b 8a 3a 70 a6 06 b0
       5.349319e-05 7.860012e-06 0.00105655 -4.898544e-10
0000b0 1a 32 3e 3a 4f 5b 2c b3 8e 93 ae 37 fa fd 1f 3a
       0.00072553905 -4.0129915e-08 2.0811127e-05 0.0006103214
0000c0 8d 5b 02 bb ae d1 fe ba d1 4f 06 bb 41 65 23 b1
       -0.0019890994 -0.0019441152 -0.0020494352 -2.3777178e-09
0000d0 47 af d9 34 12 0e da ba 32 65 4c 36 67 69 36 b1
       4.054693e-07 -0.0016636273 3.0457272e-06 -2.65444e-09
0000e0 11 84 37 ac 4d a6 54 b9 56 bf c2 b6 06 4b a3 2d
       -2.6079176e-12 -0.00020279847 -5.803925e-06 1.8564272e-11
0000f0 d0 b2 9b ba c0 9f c5 af 4a 88 15 bb e7 76 7f 3b
       -0.0011878852 -3.59476e-10 -0.002281683 0.0038980783
000100 a6 8d 02 36 1f 0d 4e b7 8a 72 cb 35 fb 80 53 bb
       1.945396e-06 -1.2281612e-05 1.5158014e-06 -0.0032272923
000110 e5 61 66 bc f5 78 ae b8 53 15 7a bb b5 3c ec b9
       -0.014061426 -8.3194966e-05 -0.0038159683 -0.00045058658
000120 e8 73 64 38 d8 cb d5 b9 cf 89 34 bb e7 8e 6f b1
       5.4467382e-05 -0.000407784 -0.002754796 -3.4860308e-09
000130 ad 13 a0 bb ca df 5d b3 c9 4e 07 3a 14 85 1a bb
       -0.004885158 -5.1659107e-08 0.0005161581 -0.0023577856
000140 ac af 58 bc a8 92 bd bb be 96 b8 bb 5b 22 e2 b1
       -0.013225477 -0.005785305 -0.0056332042 -6.5813714e-09
000150 0d 59 2f 35 74 84 f3 ba 9e c1 29 37 6f b5 2d 33
       6.5322166e-07 -0.0018578903 1.0118265e-05 4.0444714e-08
000160 9f 40 d6 ad a3 52 a8 b8 7a d2 9f b7 a9 71 46 2c
       -2.435768e-11 -8.0262565e-05 -1.9052288e-05 2.8200586e-12
000170 77 f5 e8 bb 06 dd 45 b1 ab 70 1b bc f4 e7 6f 39
       -0.00710934 -2.879291e-09 -0.009487311 0.00022879225
000180 a1 4e 80 35 4e c8 bf b5 84 fb dc 36 86 c8 91 3a
       9.559627e-07 -1.4288905e-06 6.585791e-06 0.0011122383
000190 09 42 04 bb 09 28 dd 38 3a 14 8e ba 29 fb 1c b8
       -0.0020180962 0.00010545558 -0.0010839768 -3.742721e-05
0001a0 2e 54 75 b8 00 ff e4 b8 38 18 1c bb ed f6 69 ae
       -5.849095e-05 -0.00010919385 -0.0023818146 -5.319738e-11
0001b0 44 09 ee ba e4 29 d1 33 96 e7 0a b9 53 6d 8a ba
       -0.001816072 9.739941e-08 -0.00013246978 -0.0010561146
0001c0 e2 e3 01 bb 47 5a c2 ba 37 9f bf ba 88 13 9f af
       -0.0019819667 -0.001482793 -0.0014619593 -2.893581e-10
0001d0 57 ba 76 b5 5b 08 2c ba f8 c7 0b 36 27 99 97 b1
       -9.19133e-07 -0.00065625244 2.0829011e-06 -4.41209e-09
0001e0 00 52 97 ad 82 9d 21 b9 ab 2b c9 36 26 e2 ae ac
       -1.7203128e-11 -0.00015412833 5.9953504e-06 -4.970485e-12
0001f0 b8 5a 98 3a 95 f1 ca b0 a6 17 8c 3a 12 15 31 bb
       0.0011623716 -1.4766096e-09 0.00106882 -0.0027020616
000200 d5 1f 8e 34 90 63 59 36 52 74 3f 37 03 2e d2 39
       2.6472722e-07 3.2393473e-06 1.141157e-05 0.00040088603
000210 b2 c1 dd ba 49 3e 30 b9 66 de 3f ba 28 26 31 39
       -0.0016918688 -0.00016807871 -0.0007319212 0.0001689425
000220 19 da a9 38 4a 1a 4a b8 c6 3e f1 ba ac d2 17 ae
       8.099172e-05 -4.8185037e-05 -0.0018405549 -3.452054e-11
000230 11 9a c1 ba 7c 33 01 b4 74 08 f5 b8 90 68 4b ba
       -0.0014770647 -1.2032791e-07 -0.00011684085 -0.00077594165
000240 92 e9 8e ba 64 b3 3d bb ef 4b 36 bb cd 70 9b 31
       -0.001090335 -0.0028946036 -0.0027816256 4.5239177e-09
000250 26 0e 66 35 c9 f7 a6 39 ff 8d 7b b6 c4 2a 2b b1
       8.5702266e-07 0.00031846602 -3.7484567e-06 -2.4908084e-09
000260 e3 8f 14 ae db b2 d1 37 96 e9 66 b6 d7 d3 b3 2d
       -3.37791e-11 2.4998028e-05 -3.4408636e-06 2.044402e-11
000270 d2 83 bd b9 72 c2 e9 b0 e0 23 49 3a 88 71 67 3b
       -0.00036147103 -1.7008246e-09 0.00076728873 0.0035315473
000280 b1 ce 15 31 a6 93 67 b6 3f 8a 5f 35 ec e6 fe 39
       2.1799844e-09 -3.4507625e-06 8.327515e-07 0.00048618705
000290 0a 63 18 bb 3a 31 5b 39 0c 64 fc b7 f5 79 1d 39
       -0.0023252391 0.00020903806 -3.0087329e-05 0.0001501812
0002a0 b4 dc 0d b7 36 3d 5a 36 e6 7f 43 3a df b4 db af
       -8.455641e-06 3.252016e-06 0.0007457718 -3.9964385e-10
0002b0 2f df f8 39 22 d0 f7 b2 04 b7 98 b8 b2 dd ec 39
       0.0004746853 -2.8849232e-08 -7.282014e-05 0.00045178604
0002c0 cb 56 26 bb bd dc 18 bb 97 0f 21 bb 1e da ab 2e
       -0.0025381322 -0.002332493 -0.0024575943 7.814925e-11
0002d0 7a 8c a0 34 c7 03 88 bb 37 d3 ee 35 17 0f 16 31
       2.9904533e-07 -0.004150841 1.7793853e-06 2.183645e-09
0002e0 d4 de 17 2d 2b 4b fc b8 da a9 a8 b6 e0 13 c5 ab
       8.632834e-12 -0.000120302975 -5.0265635e-06 -1.4003208e-12
0002f0 34 16 b2 ba d9 d0 0b b0 95 55 86 39 3c 39 2d b8
       -0.0013586939 -5.0864696e-10 0.00025622235 -4.1299718e-05
000300 a3 c2 17 34 68 62 85 35 74 be 54 37 cb e7 4e ba
       1.413378e-07 9.937912e-07 1.2680528e-05 -0.0007892816
000310 12 82 66 bb 5d e4 c3 b8 9f 84 90 ba 84 af 13 38
       -0.0035172743 -9.3408606e-05 -0.0011025852 3.5210993e-05
000320 c0 5b 1c 38 5b e7 b0 b8 d6 9f 21 bb b9 d3 2a ae
       3.7278747e-05 -8.435427e-05 -0.002466192 -3.8841572e-11
000330 5e fc 18 bb 89 f4 bb b3 78 7e af 39 35 e6 84 ba
       -0.0023343782 -8.752347e-08 0.00033472828 -0.0010139408
000340 36 8c 59 bb df 87 5a bb 5b 2b 53 bb ea 4a c5 31
       -0.0033195144 -0.0033345146 -0.0032221887 5.7419713e-09
000350 7d d3 5d 35 d7 6a c0 39 81 a8 6e b6 da 86 63 b0
       8.263667e-07 0.00036700696 -3.5562846e-06 -8.2773755e-10
000360 0d 3a fd 2b 70 03 fb 37 83 de c3 b4 7e 87 39 2c
       1.7992844e-12 2.9923132e-05 -3.648348e-07 2.6365294e-12
000370 3d b2 ad b9 26 0d b3 b0 e8 d2 eb 39 d2 db 4d bb
       -0.0003312993 -1.3027701e-09 0.0004497983 -0.003141154
000380 dc 4e 9d 34 76 d6 02 b5 b5 e6 e7 35 a0 5c 34 ba
       2.9300907e-07 -4.8740856e-07 1.7277986e-06 -0.0006880257
000390 3f 83 e4 ba 92 93 4b b9 36 5f 68 ba 6d 41 ea b9
       -0.0017434134 -0.00019414563 -0.0008864285 -0.00044680704
0003a0 97 70 95 b8 75 26 ad b8 99 c7 fe ba b9 55 81 ae
       -7.125845e-05 -8.256446e-05 -0.0019438147 -5.881468e-11
0003b0 d9 73 d6 ba c5 b2 f7 b3 35 06 01 b9 da b1 5d ba
       -0.001636143 -1.1534352e-07 -0.00012304711 -0.0008456983
0003c0 91 cf c0 ba e7 ab 03 bb 67 de ff ba 7a 15 a9 31
       -0.0014710297 -0.0020091475 -0.0019521237 4.920989e-09
0003d0 81 b3 fe b3 98 26 f3 b8 2e 0e 53 34 8b 3c c8 30
       -1.1860448e-07 -0.000115943316 1.9656065e-07 1.4569123e-09
0003e0 f5 fe 04 2e 71 f0 e4 b8 d7 35 3a b6 e2 57 fc ad
       3.0239772e-11 -0.00010916673 -2.7747499e-06 -2.8688111e-11
0003f0 39 2f 59 ba 92 ac e4 b0 aa cd 87 b7 05 e2 12 3b
       -0.000828493 -1.6638231e-09 -1.6189024e-05 0.002241255

gnn.gru.weight_hh_l0 f4 [96, 32]
000000 86 7b d6 3a 49 5e c3 39 27 09 55 37 c4 64 24 b5
       0.0016363717 0.00037263546 1.269792e-05 -6.1241394e-07
000010 2e 24 b9 39 1b 9a c4 ba f9 ff 00 31 bf a2 1d ba
       0.00035312906 -0.001499954 1.8771955e-09 -0.0006013326
000020 a1 fa 6c ba 99 0c ce a8 84 86 b5 3a 76 4f 30 3a
       -0.0009040032 -2.2876058e-14 0.0013849293 0.0006725708
000030 45 26 a1 39 89 0b 19 ba c0 af 05 3b 1f e4 f7 36
       0.00030736826 -0.00058382057 0.0020398945 7.3877304e-06
000040 d6 42 be a7 46 73 5a 24 e7 94 b6 37 ac 75 65 37
       -5.2808057e-15 4.7368855e-17 2.1765429e-05 1.3676861e-05
000050 8b 06 93 b8 5a e6 92 ae bb fe 9b b8 25 cb 84 ba
       -7.010725e-05 -6.68023e-11 -7.438423e-05 -0.0010131343
000060 aa fe a4 39 b5 b4 45 a4 9b 3b 27 ba dd fc 6f 28
       0.00031470257 -4.287063e-17 -0.00063794263 1.3321996e-14
000070 88 1a ce b9 29 b6 6e b4 5a 19 38 ba 4d c1 f8 26
       -0.0003931115 -2.2231747e-07 -0.00070228206 1.7260851e-15
000080 08 f7 cd 3a c5 f1 06 3a 6d 3b bb 3b af aa ff b7
       0.001571388 0.0005147721 0.005713871 -3.047785e-05
000090 6a 22 28 3b c7 cb 85 ba f2 b6 5b 31 ec 34 b5 b9
       0.0025655278 -0.0010207825 3.1972687e-09 -0.0003456244
0000a0 d0 bd 96 3b ee 42 3a 29 3d 22 84 ba d9 74 d0 ba
       0.004600264 4.135835e-14 -0.0010081005 -0.0015903964
0000b0 f7 f1 4b 3a c9 f2 2f 3b c7 20 28 3b 5b a6 c7 b8
       0.0007779891 0.0026847592 0.0025654302 -9.5200456e-05
0000c0 48 a4 46 a8 d9 03 10 a5 72 49 82 39 88 b7 07 b8
       -1.1026831e-14 -1.2491313e-16 0.00024850253 -3.2357435e-05
0000d0 99 12 31 b8 d7 58 87 af 52 26 fa 39 6e 49 07 bb
       -4.221741e-05 -2.4619481e-10 0.00047712267 -0.0020643133
0000e0 c3 99 95 3a 81 03 11 25 c0 fa 91 3a f7 5f 95 2a
       0.0011413622 1.2577932e-16 0.0011137351 2.6534306e-13
0000f0 d8 7c 6a 39 48 ff 58 34 b4 90 c6 ba b9 33 46 a7
       0.00022362487 2.0209438e-07 -0.0015149326 -2.7506059e-15
000100 1d 78 f0 3b 00 61 92 bb 06 2d c7 bc 6f 2a b8 34
       0.0073385374 -0.0044671297 -0.024313461 3.4303545e-07
000110 11 c7 80 ba a8 f0 88 bb f3 3f 38 32 0e 28 15 bb
       -0.0009824951 -0.004179079 1.072475e-08 -0.002275947
000120 99 aa 04 bc 58 13 70 aa 4b c5 52 3b a6 08 d2 bb
       -0.008097314 -2.1322993e-13 0.0032161053 -0.0064097224
000130 90 71 c7 3a ef 28 d5 3a 12 17 19 3c 00 e4 81 39
       0.0015216339 0.001626281 0.009343879 0.0002477467
000140 0e 71 b4 27 39 1b 12 24 11 c4 8c 3a a8 d4 7a 3a
       5.008261e-15 3.1681762e-17 0.0010739585 0.00095684314
000150 88 d2 9d 3a c8 54 f2 ae 1e e0 29 3b d6 7e 12 bb
       0.0012040893 -1.1019946e-10 0.0025920938 -0.0022353432
000160 e0 28 46 3b e4 b8 be 23 2f 65 d2 bb 56 35 c0 28
       0.0030236766 2.0678146e-17 -0.0064207534 2.1339413e-14
000170 dc 1c db ba 82 46 6a 37 25 4b f5 b9 eb 15 e8 a5
       -0.0016716975 1.3963903e-05 -0.00046786029 -4.0260437e-16
000180 67 b6 80 bb 13 70 9d 39 e6 8e 78 ba c6 8e f1 35
       -0.003927994 0.00030028875 -0.0009481743 1.7997452e-06
000190 a9 ca 88 39 3f f3 02 3a 96 16 28 b1 26 be 44 3a
       0.00026090935 0.0004995353 -2.4460056e-09 0.0007505141
0001a0 86 b4 0f 3a 2e ed 71 2a f1 2e b9 3a 00 2e 98 b9
       0.0005481917 2.1487388e-13 0.001412837 -0.00029025972
0001b0 0d 26 b3 ba f7 ac 6b b9 13 27 71 bb ce ce 77 b6
       -0.0013667956 -0.00022475781 -0.0036796972 -3.6926244e-06
0001c0 db 49 b7 a7 22 5d 2b a5 47 f1 3c b8 9e 43 42 37
       -5.0872778e-15 -1.486344e-16 -4.50474e-05 1.1579044e-05
0001d0 12 47 57 39 d6 8a 04 2f ef bb 08 b9 f6 1f ed b9
       0.00020530474 1.2054654e-10 -0.00013039981 -0.00045227975
0001e0 c4 5c c5 37 99 e0 e3 a3 0f 69 d4 b8 b3 a5 af 29
       2.3527427e-05 -2.470651e-17 -0.000101285164 7.8003054e-14
0001f0 24 bf 56 3a 5c 1c 0d 34 af 27 24 ba 0a a2 a3 a7
       0.00081919343 1.3141965e-07 -0.0006262017 -4.541727e-15
000200 a0 15 37 ba 1c 2f 1a 3a 31 18 4b 3a eb d3 5d 35
       -0.00069841184 0.00058816536 0.000774744 8.2637297e-07
000210 a8 70 b4 3a c3 95 da 3a d3 e1 54 b0 90 b2 ac 3a
       0.0013766484 0.0016676713 -7.7446066e-10 0.0013175774
000220 b5 c2 bf 39 07 79 38 a8 75 99 0d 3b d2 44 a0 3a
       0.00036575427 -1.02402954e-14 0.002160636 0.0012227541
000230 c0 d9 4a ba d3 eb 1b 3a a4 5c ff ba 7e ca d9 36
       -0.0007738136 0.00059479213 -0.0019482565 6.490677e-06
000240 cf 6c b3 a5 d4 1c 85 a4 d1 a6 87 b6 0a c6 68 39
       -3.1125282e-16 -5.772839e-17 -4.0427335e-06 0.0002219902
000250 25 43 88 39 65 c7 4b 2e 3c ab fe 38 03 2e 1d 3a
       0.00025989968 4.6333954e-11 0.00012143559 0.0005995931
000260 72 d3 bf 39 d1 2b 07 a5 7a 33 71 39 3a 61 96 28
       0.00036587898 -1.1724229e-16 0.00023002728 1.669551e-14
000270 9c 62 83 3a db 9c f5 34 fa e0 df 3a 48 45 71 a7
       0.0010023895 4.5748934e-07 0.0017080598 -3.3483026e-15
000280 39 49 a4 3a 1a a1 09 3a ba 5b a3 3b 03 37 a3 36
       0.0012534029 0.0005250141 0.0049853 4.8641828e-06
000290 f7 a4 23 3b 28 8a 43 ba c0 a4 9e 2f 7b 04 f7 3a
       0.0024970153 -0.00074592466 2.8857094e-10 0.001884594
0002a0 d1 18 b0 3b bc 18 22 29 7d 8b 8b 3a 0a bb c0 ba
       0.005374052 3.599268e-14 0.0010646429 -0.001470418
0002b0 34 89 2b 3a d0 f0 ae 3b 91 c1 0e 3b dc 0e 66 b8
       0.0006543577 0.0053387657 0.0021782855 -5.4850112e-05
0002c0 e8 90 c8 a7 88 2e b9 a4 52 8a 0b 39 64 e1 61 b9
       -5.566826e-15 -8.030979e-17 0.00013307601 -0.00021541637
0002d0 0b f6 da b8 a5 3f 62 ae 13 dd bb 39 ae ba de ba
       -0.00010440879 -5.144298e-11 0.00035832133 -0.0016992891
0002e0 f1 1a 7f 3a 03 91 b2 a4 2d c5 70 3a 54 d5 11 aa
       0.00097314926 -7.7440854e-17 0.0009184655 -1.29526e-13
0002f0 79 e4 17 3b 1e 1a 0b b6 c6 0a 5c ba 96 9c 55 a7
       0.0023176952 -2.0727816e-06 -0.00083939394 -2.9644573e-15
000300 b0 19 28 ba b7 e8 be 39 cc f2 5c 3a 3f c7 bb b5
       -0.0006412519 0.0003641301 0.00084285135 -1.3990574e-06
000310 93 dd e4 37 48 10 6a 3a c1 57 d0 af 30 da 7b 3a
       2.7282897e-05 0.00089288177 -3.7897332e-10 0.00096074026
000320 45 4a 6c ba f7 75 23 a8 20 bb 9d b7 a9 a5 20 b9
       -0.00090137526 -9.073897e-15 -1.8802995e-05 -0.00015320502
000330 51 d5 8b ba 55 b2 01 3b 26 4b ff ba c5 91 1b b6
       -0.0010668432 0.0019790132 -0.0019477352 -2.318165e-06
000340 92 e1 81 27 b2 f3 9d a4 8d 41 8e b7 19 e7 11 39
       3.6049256e-15 -6.850073e-17 -1.6958244e-05 0.00013914368
000350 88 4a 23 39 ca a6 31 ae 8a 3b 84 b8 41 92 d6 b8
       0.00015572656 -4.039328e-11 -6.3053405e-05 -0.00010231557
000360 a2 4c 84 39 98 29 0e 25 00 b3 3c b9 9f 84 9f 28
       0.00025234098 1.2330629e-16 -0.0001799576 1.7710061e-14
000370 8d 46 2d 3a 6a e5 54 35 a1 87 b2 3a 9d db be 27
       0.0006609939 7.9309996e-07 0.0013620743 5.29737e-15
000380 7b 30 e7 ba 3f 74 0e 3a f0 e8 88 3a e4 13 44 35
       -0.001763835 0.0005434192 0.0010445397 7.3044635e-07
000390 4b f9 ba 3a d4 aa ac 3a cd f4 f4 af d1 b2 8e 3a
       0.0014264969 0.0013173469 -4.4557283e-10 0.0010887032
0003a0 df e6 52 ba de 49 52 a9 51 f8 0a 3b e4 3e 99 3a
       -0.0008045267 -4.6693437e-14 0.0021205137 0.0011691716
0003b0 60 78 88 ba f9 ce 8d ba 5f bd 85 bb 30 85 7d 37
       -0.0010411851 -0.0010819129 -0.0040814127 1.5110985e-05
0003c0 07 67 0a 28 b7 fe 91 a4 e5 60 32 b6 b2 e2 12 38
       7.682879e-15 -6.331523e-17 -2.6580467e-06 3.502024e-05
0003d0 28 cc 4a 38 e8 01 97 ae 88 4d 1d 39 22 74 f1 37
       4.835069e-05 -6.8670236e-11 0.0001500157 2.8783517e-05
0003e0 4b 51 4c 3a 89 01 ad 24 da 98 8c 38 6d 11 27 a9
       0.0007794096 7.502939e-17 6.704191e-05 -3.7096563e-14
0003f0 e1 cf d8 38 d8 05 c3 34 5d 8c c2 b7 37 3c 3a 27
       0.00010338403 3.6325832e-07 -2.3191964e-05 2.5845328e-15
