1-GNNs/result/6108_AR_NURA_AFP_0920/9/model.pth (torch, 68176 bytes, 40 tensors)

gnn.init_context.project_node.0.weight f4 [16, 74]
0	0xbb76da45	-0.003766672
1	0x39c8985b	0.00038260486
2	0x3a9fd4c7	0.001219415
3	0x39eb1858	0.0004484083
4	0xba70627b	-0.0009169948
5	0x3996b4e6	0.0002874501
6	0x3977042a	0.00023557307
7	0xb9aed091	-0.0003334326
8	0x3aab9b06	0.0013092465
9	0x390770aa	0.00012916574
10	0x3a0dcda2	0.0005409365
11	0x3a80ef0c	0.0009836867
12	0xba8edcb1	-0.0010899511
13	0xb9d737bc	-0.0004104952
14	0x398c75ad	0.00026790556
15	0x395aed48	0.00020878494
16	0x38b55e81	8.648355e-05
17	0x39c6baff	0.00037904826
18	0xba2d2ec3	-0.00066063943
19	0x384c3b52	4.8692636e-05
20	0xb9376e6e	-0.00017493378
21	0xba6c66f9	-0.00090180297
22	0x3983c31f	0.00025131644
23	0x39ae24cf	0.0003321529
24	0x3a8cb59d	0.0010735277
25	0xb85c90e4	-5.2587027e-05
26	0x39c972db	0.00038423282
27	0xba90da91	-0.0011051466
28	0xb97e7a59	-0.00024268906
29	0x398eb4f6	0.00027219177
30	0x3a186707	0.0005813692
31	0x39062bd3	0.00012795562
32	0x36b829d2	5.488496e-06
33	0x3ad83a21	0.0016496816
34	0x39879215	0.00025858046
35	0xba22f708	-0.000621662
36	0xb96f43d7	-0.00022818088
37	0xb8eb8b9e	-0.00011231679
38	0xb9ad5876	-0.0003306304
39	0xb99df7e8	-0.00030130078
40	0xb9f17027	-0.00046050662
41	0xb915fec8	-0.0001430466
42	0xba66aae7	-0.000879927
43	0xb9080f19	-0.00012975595
44	0x3b158c89	0.0022819361
45	0xbacf2629	-0.0015804219
46	0x3b39f6db	0.0028375897
47	0x39e11bd0	0.00042936066
48	0xb922a881	-0.00015512297
49	0x39a4e582	0.00031451514
50	0xb9a50118	-0.00031472067
51	0xba03c2f2	-0.00050263025
52	0x39392af5	0.00017658978
53	0xb8f94e87	-0.00011887872
54	0x39ee5b79	0.0004546305
55	0xbad51425	-0.0016256614
56	0x396d89d1	0.00022653422
57	0x39bf9169	0.00036538698
58	0xba4c8e1f	-0.000780316
59	0x3ad79b53	0.0016449488
60	0xb9390496	-0.00017644683
61	0xba5cde03	-0.00084254163
62	0xb8991a8d	-7.300554e-05
63	0xba96bb34	-0.0011499883
64	0xba84ac9c	-0.0010122242
65	0xbafd48b9	-0.0019324041
66	0xba399de8	-0.000708072
67	0xba8e2498	-0.0010844646
68	0x3acaff28	0.001548742
69	0x38c23dca	9.26215e-05
70	0x37194817	9.136295e-06
71	0xbae1769e	-0.0017201488
72	0xb9a92c1d	-0.0003226706
73	0x39fce484	0.00048235443
74	0x3984b189	0.00025309276
75	0xba313b7d	-0.00067608786
76	0x3ad274c1	0.0016056524
77	0xbaafb4fb	-0.0013405377
78	0xbad5a482	-0.0016299638
79	0xb9a616e0	-0.0003167903
80	0x3a3c2680	0.0007177368
81	0xb9fe17e5	-0.00048464458
82	0xb99260d7	-0.0002791944
83	0xba0d1f4f	-0.00053833885
84	0xb98b9d0f	-0.00026629164
85	0xbace24a1	-0.0015727469
86	0x39b1ff14	0.0003395012
87	0xb9b3eb4e	-0.00034316856
88	0xba82c7e1	-0.0009977781
89	0xb952189f	-0.00020036333
90	0x3a1c8429	0.0005970621
91	0x3a1fb90e	0.0006092944
92	0x3ab13379	0.0013519368
93	0x383ad713	4.454616e-05
94	0x399a5427	0.00029435867
95	0xb96f7cd4	-0.00022839318
96	0xb8ea589a	-0.00011174493
97	0xb9d66775	-0.00040894342
98	0x3a6a7e08	0.0008945172
99	0x3a8f0206	0.0010910637
100	0x39def8d8	0.00042528543
101	0x39a0552f	0.00030581045
102	0x3a1469dc	0.0005661526
103	0x385e1a46	5.2953394e-05
104	0x3954c92d	0.0002029284
105	0xb8a29f85	-7.754475e-05
106	0xb9992f20	-0.00029217545
107	0x38ee2cc7	0.00011357065
108	0xba79e883	-0.0009533243
109	0xba05742e	-0.00050908595
110	0x3a5200f2	0.0008011005
111	0xb8ebf6fb	-0.00011251677
112	0x391fd80c	0.00015243905
113	0xb8cf08fb	-9.872202e-05
114	0xba6e0d3c	-0.00090809516
115	0x3a110ca3	0.0005533194
116	0xba118e91	-0.0005552555
117	0x3a0108e4	0.0004922284
118	0x3aad5351	0.0013223683
119	0x3b2f837c	0.0026781252
120	0x3a128ef7	0.00055907614
121	0x3b3604de	0.0027773897
122	0xb9504a11	-0.00019864018
123	0x39ec59ec	0.00045080425
124	0xb9827201	-0.00024880472
125	0xba4b5a68	-0.0007757307
126	0x3995d10c	0.00028575247
127	0x38941fc4	7.063107e-05
128	0xbb11f794	-0.0022272812
129	0xbaab9e86	-0.0013093508
130	0x3ae9fa7f	0.0017851143
131	0x3a6f8137	0.0009136381
132	0x396ba9a5	0.00022474544
133	0x3a9bd90f	0.001189025
134	0xba4659cf	-0.0007566483
135	0xb969b531	-0.0002228811
136	0xba476f5a	-0.000760784
137	0xbadc9cf7	-0.0016831447
138	0xba3a6d05	-0.0007111582
139	0x3b7dfc66	0.0038755178
140	0x399b079b	0.0002956957
141	0x3a8ca17b	0.0010729277
142	0xbac6f904	-0.0015180414
143	0xbb3e3490	-0.002902303
144	0x398a7a39	0.00026412474
145	0x3af4ae87	0.0018667736
146	0x39e887ea	0.00044351752
147	0x39dea674	0.00042467157
148	0x3dd2a80d	0.102859594
149	0x3b6129ea	0.0034357258
150	0xbcf8875c	-0.030337982
151	0x3b50c3d1	0.0031854997
152	0xba2ed263	-0.00066689233
153	0xba132fe3	-0.00056147407
154	0xba594a60	-0.0008288976
155	0xbb9104e9	-0.004425634
156	0xb9e3c70a	-0.0004344511
157	0x3869c5ff	5.5735927e-05
158	0x38598bea	5.1867137e-05
159	0x39737d38	0.00023220934
160	0xba56ec7e	-0.0008198692
161	0x3841930c	4.6151734e-05
162	0x394dcf54	0.00019627559
163	0x39340712	0.00017168772
164	0x3a817c99	0.0009879052
165	0x3a89b8d6	0.0010507356
166	0xb8f4b048	-0.000116676616
167	0x3a46bc20	0.00075811334
168	0xb9bfb49b	-0.0003656492
169	0x3a28d63f	0.00064406166
170	0x384385fd	4.661641e-05
171	0xb9a22070	-0.00030923216
172	0x397042e9	0.0002291311
173	0x399b00b0	0.00029564416
174	0x3a259245	0.00063160463
175	0xb9e8ed52	-0.00044427306
176	0x394f3fc5	0.00019764814
177	0xb8e941fa	-0.00011122595
178	0xba465d46	-0.00075669994
179	0xb9cfa9ff	-0.00039608774
180	0xb96f5466	-0.00022824257
181	0x3aa724d0	0.001275206
182	0x39a25ef2	0.00030969788
183	0x3a208da2	0.00061246206
184	0xb935690a	-0.00017300635
185	0xb96a3f69	-0.00022339601
186	0xba8daf61	-0.0010809713
187	0x3a3189d1	0.00067725504
188	0x3a0edce1	0.00054497836
189	0x39c11295	0.00036825673
190	0xb92fc1e7	-0.00016761535
191	0xb9c60dd5	-0.0003777581
192	0xbd6a96df	-0.057272788
193	0xbc070493	-0.008240837
194	0xbcfbb329	-0.030725079
195	0x3a771143	0.00094248744
196	0xb6960a75	-4.4715657e-06
197	0x3aa746f4	0.0012762235
198	0xba673226	-0.00088194234
199	0xb92f99df	-0.00016746622
200	0x3966ff3d	0.00022029593
201	0x3a1a4791	0.0005885298
202	0xbc2ac5ef	-0.010423168
203	0x3d50154f	0.05080157
204	0xbd99795d	-0.07493851
205	0x3ab62683	0.0013896975
206	0xb969a680	-0.00022282638
207	0x3aac4006	0.0013141639
208	0x3a430bea	0.0007440435
209	0xba477579	-0.00076087523
210	0xb9a39ff0	-0.00031208945
211	0x3a3ba986	0.0007158745
212	0x3cf96aad	0.030446375
213	0xba019de0	-0.00049444847
214	0xb8d74f54	-0.00010266775
215	0xb7350a30	-1.0790813e-05
216	0x3d97c4c9	0.07410581
217	0xbd5c12a5	-0.05372872
218	0x3cd794d4	0.026316084
219	0xbd9b49f2	-0.07582463
220	0x3ade0e53	0.0016941525
221	0x3a89bfc5	0.0010509422
222	0xbcc30538	-0.0238062
223	0x3b058dfd	0.002037882
224	0x3b2c00f8	0.0026245695
225	0xb9d6ca4e	-0.0004096799
226	0x3b8812dd	0.0041526393
227	0xba8a145a	-0.001053463
228	0xba1671c1	-0.00057389966
229	0x3a3dcdbb	0.0007240434
230	0xb8f8b540	-0.00011859322
231	0x3991f443	0.00027838544
232	0xb9908491	-0.0002756459
233	0x3ab16cca	0.001353645
234	0xb821ce0b	-3.8577284e-05
235	0x397b3a9a	0.00023959056
236	0xba7983fe	-0.00095182646
237	0xba542cdb	-0.0008093842
238	0xb79223ac	-1.7421167e-05
239	0x396069d2	0.00021401726
240	0x3a089a56	0.0005210986
241	0xb86c4d12	-5.6338562e-05
242	0x39c9e338	0.00038507
243	0x3a5d01f0	0.00084307697
244	0xb7cea062	-2.4631798e-05
245	0x398d8952	0.00026995927
246	0x39844cc7	0.00025234206
247	0x3a200930	0.00061048847
248	0x3910fe7b	0.00013827712
249	0x39aee35d	0.00033357265
250	0xb919aef6	-0.00014656395
251	0xba6a0cd6	-0.00089283043
252	0xb98199eb	-0.00024719475
253	0xb8f2fbe6	-0.00011586379
254	0xb87c75d7	-6.019123e-05
255	0x39fddb47	0.00048419295

gnn.init_context.project_node.0.bias f4 [16]
0	0x3b3d3b44	0.0028874436
1	0x3a36c3e2	0.0006971938
2	0x3c93a4a3	0.01802284
3	0xbbaf5663	-0.0053508743
4	0x3c42157f	0.011845945
5	0x39f148e2	0.00046021404
6	0x3b02df43	0.00199695
7	0xbbb39f35	-0.0054816254
8	0xbdc92e01	-0.09823228
9	0x3cc89a21	0.024487557
10	0xbd49c2fe	-0.049258225
11	0xbd8e644a	-0.06952722
12	0xbc638063	-0.01388559
13	0xbc3f1bf5	-0.01166438
14	0xbcdd1130	-0.026985735
15	0xb907c28a	-0.00012947075

gnn.init_context.project_edge1.0.weight f4 [16, 87]
0	0x3a395769	0.0007070215
1	0x3a2cbc59	0.0006589345
2	0x38ba6024	8.887079e-05
3	0xb9382635	-0.0001756184
4	0xbae9f238	-0.0017848676
5	0x383d5b61	4.5146215e-05
6	0xba12f697	-0.0005606203
7	0x3a81cfe1	0.0009903872
8	0xb9becb9c	-0.00036391325
9	0x38a82938	8.018542e-05
10	0x3974300f	0.00023287557
11	0x39a4c99e	0.00031430734
12	0x3a388fbd	0.00070404616
13	0xba079827	-0.0005172514
14	0x3951cb39	0.000200075
15	0x3a005933	0.0004896104
16	0x3a0b71f2	0.00053194084
17	0x39e3ea85	0.00043471545
18	0x3989b4f6	0.00026265503
19	0x393cfbcd	0.0001802288
20	0x3984084c	0.00025183184
21	0x39ff9413	0.00048747714
22	0x3a4d591f	0.00078334095
23	0x398437ac	0.0002521848
24	0xb7d342e5	-2.518431e-05
25	0x39db673c	0.0004184785
26	0x39f97b37	0.00047584783
27	0xba1f7b40	-0.00060837343
28	0x39bb700a	0.00035750895
29	0xba236a36	-0.0006233783
30	0x3a6a38b1	0.0008934839
31	0x38ed2a43	0.000113089125
32	0xb98822bc	-0.0002596582
33	0xb8f7891d	-0.00011803417
34	0xba8d40f8	-0.0010776808
35	0xb9353601	-0.00017281623
36	0xb96d628c	-0.00022638793
37	0x385a0a7b	5.198501e-05
38	0xba743c78	-0.0009316872
39	0xb97f0868	-0.00024321827
40	0xba497bec	-0.00076860073
41	0x39dca229	0.0004208249
42	0xba8f4cc5	-0.0010932913
43	0x385efce9	5.3164465e-05
44	0x3b04ae3f	0.002024546
45	0x3a40b0ae	0.0007350546
46	0xba01337c	-0.0004928631
47	0xba97bb99	-0.0011576294
48	0x390e3027	0.00013560113
49	0x392c3de2	0.00016426251
50	0xbaaadf4e	-0.0013036521
51	0xb9efa2d1	-0.0004570694
52	0xba444d87	-0.0007488359
53	0x3a5dfb08	0.00084678875
54	0xbb2393c2	-0.0024959897
55	0xbaa4e567	-0.0012580574
56	0xbb1e2a8c	-0.0024134247
57	0xba2c09b7	-0.0006562727
58	0x38ef2f61	0.00011405233
59	0xb9a748ec	-0.00031907053
60	0x3a724c18	0.0009242906
61	0xb9daa5df	-0.00041703784
62	0xb78f7851	-1.7102955e-05
63	0xba294847	-0.00064576085
64	0x3a3a299e	0.00071015384
65	0x3a466cec	0.0007569331
66	0x3a8c8038	0.0010719365
67	0xb99e3118	-0.00030172686
68	0x39b9e78f	0.00035458474
69	0x3a85f714	0.001022073
70	0xb9934ac4	-0.0002809373
71	0xba01e9ff	-0.00049558276
72	0x39e29e3c	0.00043223973
73	0xb9d681ab	-0.0004091387
74	0xb8b5ac36	-8.662829e-05
75	0xba8bad6a	-0.001065654
76	0xb78b4596	-1.6602495e-05
77	0x3a17c3e2	0.00057893817
78	0x39aeaeb8	0.00033318042
79	0xb9c0f4f5	-0.000368036
80	0xb987b0bd	-0.00025880887
81	0xb88f7b70	-6.8417634e-05
82	0x3a8f0440	0.0010911301
83	0x39237195	0.00015587204
84	0xb84f7340	-4.945998e-05
85	0xba35e393	-0.0006938513
86	0x3b167923	0.0022960387
87	0xba9c2736	-0.0011913541
88	0x3b4b4d1f	0.003102131
89	0xb9348458	-0.0001721544
90	0x39916d53	0.00027738008
91	0x39bbb372	0.00035801117
92	0xb9614b74	-0.0002148578
93	0x3a79f61c	0.00095352693
94	0xba8edb42	-0.0010899084
95	0xb92c5ce0	-0.00016437797
96	0x3a57922b	0.000822338
97	0x3a3b164a	0.0007136805
98	0xba3c9c4f	-0.00071949227
99	0xba4287d3	-0.0007420752
100	0xba2d3c73	-0.0006608434
101	0x3a2ca744	0.0006586204
102	0xb913baed	-0.00014088648
103	0xb91effb0	-0.00015163305
104	0x3a3d7d22	0.0007228424
105	0x393ab9f6	0.00017807618
106	0xba5817f4	-0.00082433154
107	0x3a22fcb0	0.0006217463
108	0xba65c622	-0.0008765181
109	0x3a918e48	0.0011105025
110	0x3880c59f	6.1403254e-05
111	0x38b568b8	8.650258e-05
112	0x39be103d	0.00036251722
113	0x39f6a254	0.0004704172
114	0x38a9e3b1	8.100959e-05
115	0x393323f3	0.00017084162
116	0xba9a01ea	-0.0011749838
117	0xb9862469	-0.000255856
118	0xb9cc0756	-0.00038915378
119	0xba31a3b1	-0.0006776406
120	0x399a1d28	0.00029394892
121	0xb9cb9ed0	-0.00038837502
122	0x3a8aea76	0.0010598439
123	0xb9e34fbe	-0.00043356227
124	0xb9f8b453	-0.00047436598
125	0x3a99a98b	0.0011723501
126	0xb86da653	-5.6660105e-05
127	0xba473a84	-0.0007599967
128	0x37d2c8ce	2.5127458e-05
129	0xb8c1c317	-9.2392955e-05
130	0xb90bdb38	-0.00013337738
131	0xbb5b77a5	-0.0033488062
132	0xb9874f88	-0.00025808462
133	0x3893d7a1	7.04967e-05
134	0x3af54e9d	0.0018715445
135	0xbaa71b73	-0.0012749269
136	0x39deb608	0.00042478763
137	0x3a5c277d	0.0008398218
138	0x3a63a671	0.00086841645
139	0xb9c3c8d8	-0.0003734294
140	0xb9a32a07	-0.00031121096
141	0xba832fe5	-0.001000878
142	0xbade8b8d	-0.0016978845
143	0xbb176ef1	-0.0023106898
144	0xbac8ae1a	-0.0015310675
145	0xb99839bd	-0.00029034718
146	0x36619bc0	3.361827e-06
147	0x3a0fe5e0	0.0005489271
148	0xba84a4a9	-0.0010119873
149	0xba4647af	-0.0007563782
150	0xba71dc4a	-0.0009226246
151	0xbbaadfee	-0.005214683
152	0xbb791168	-0.003800476
153	0xb9a7f15e	-0.00032032555
154	0xba042d01	-0.00050421065
155	0xbb37c327	-0.0028039904
156	0x3a7637c8	0.00093924673
157	0xbada550b	-0.0016657425
158	0xbb339d91	-0.002740715
159	0xbab349ac	-0.0013678572
160	0x395dc60f	0.00021149985
161	0xbaa6cb38	-0.0012725359
162	0xbb0bc89e	-0.0021329294
163	0x394cb2c0	0.00019521546
164	0x3b8345ea	0.004006137
165	0xba1dae2b	-0.0006015028
166	0xbb5c988b	-0.0033660259
167	0xbb6f2ce0	-0.0036495253
168	0xba7f3fb8	-0.0009736973
169	0xb98f5ed1	-0.0002734573
170	0x382a5441	4.0609626e-05
171	0x3a3ab64a	0.00071225
172	0xb90653f2	-0.00012810508
173	0x3b7740c7	0.003772782
174	0x3b8365b7	0.004009928
175	0x3abfb0f8	0.0014624884
176	0xba884782	-0.0010397288
177	0xba41757a	-0.0007379871
178	0x3a9fce16	0.0012192156
179	0x3a5aa8fb	0.000834122
180	0x3a500c96	0.0007936446
181	0xba847b4b	-0.0010107545
182	0xba9291ac	-0.001118233
183	0xbab028de	-0.0013439914
184	0xb89119cc	-6.918944e-05
185	0xb981b8d2	-0.000247425
186	0x399477fa	0.0002831815
187	0x39fb1693	0.0004789127
188	0xb9524bf7	-0.0002005546
189	0x3a6479d7	0.00087156653
190	0xb8f1a4c2	-0.00011522464
191	0x38ebc706	0.00011242744
192	0xba44a4a2	-0.0007501339
193	0x3a13d99d	0.0005640032
194	0x3aa6d9b2	0.0012729673
195	0x39a5f614	0.00031654595
196	0xb92c5da7	-0.00016438086
197	0x3ab176e8	0.0013539465
198	0xba6474ed	-0.0008714933
199	0x39ad8153	0.00033093485
200	0xba22656f	-0.00061949244
201	0xba320819	-0.0006791368
202	0xb81c909b	-3.7327973e-05
203	0x3ab038f7	0.0013444711
204	0xbaae4803	-0.0013296608
205	0x39dd7f91	0.0004224745
206	0xb97507f5	-0.00023367985
207	0xba5e0d44	-0.00084706047
208	0x3a533400	0.000805676
209	0xba2d3ef1	-0.0006608805
210	0xb9e89854	-0.00044363982
211	0xb89d7f60	-7.510069e-05
212	0xb9a12e38	-0.0003074275
213	0xb9f36dd3	-0.00046430397
214	0x3a25b864	0.0006321727
215	0x392986ac	0.00016167265
216	0xb99f8438	-0.00030425354
217	0xbaad9c42	-0.0013245421
218	0x3aa21921	0.0012367108
219	0xba3ef12f	-0.0007283864
220	0xbb28af4a	-0.0025739246
221	0xba661a46	-0.0008777719
222	0x3a9c8d82	0.0011944028
223	0x3a86a07a	0.0010271214
224	0xb98950a5	-0.0002619076
225	0x3a35eae2	0.00069396023
226	0xb9b088cb	-0.00033671255
227	0xb7ba88d8	-2.223665e-05
228	0xb98b8cd7	-0.0002661708
229	0xbb159bbc	-0.002282842
230	0x3b2c0a43	0.0026251234
231	0xb9a5ab93	-0.00031599085
232	0x392d6327	0.00016535503
233	0x39672142	0.00022042266
234	0x39d616bf	0.00040834208
235	0x39c14fd9	0.0003687132
236	0xb9f49ed1	-0.00046657634
237	0xba5a170e	-0.00083194755
238	0xbb0305ec	-0.0019992543
239	0xbafb43cd	-0.0019169986
240	0xb9b532fb	-0.00034560994
241	0xb90223b6	-0.0001241107
242	0x3b0ad199	0.002118206
243	0xbb69cf4c	-0.0035676537
244	0xbb4dc2de	-0.0031396667
245	0x3a866b88	0.0010255435
246	0x3a128c73	0.00055903866
247	0x3a3ee87b	0.0007282567
248	0x3a4f7c56	0.0007914951
249	0xba8fbb7c	-0.0010965909
250	0x397fced7	0.00024395749
251	0xbb0026e8	-0.001955444
252	0x3b5e4209	0.0033913872
253	0xba9b7ce5	-0.0011862783
254	0x3b795b75	0.0038048897
255	0xba36b864	-0.00069702254

gnn.init_context.project_edge1.0.bias f4 [16]
0	0xbb1d13e5	-0.0023968157
1	0xbaeadbd4	-0.0017918297
2	0x3b0aa54f	0.002115566
3	0xbb36a25a	-0.0027867765
4	0x3b1daa34	0.0024057748
5	0xbb3330d8	-0.0027342346
6	0xba7e8250	-0.0009708749
7	0xbb532bce	-0.0032222155
8	0xbadd19b7	-0.0016868626
9	0xbb0b9925	-0.0021300998
10	0xba989a49	-0.001164266
11	0xbb7558d0	-0.003743697
12	0x3b52cb54	0.003216465
13	0x3bb21087	0.005434099
14	0xba5a21f0	-0.0008321097
15	0x3ba1d2bc	0.0049384516

gnn.init_context.project_edge2.1.weight f4 [1, 32]
0	0xbb0e8f67	-0.0021752955
1	0x3a0dbc28	0.00054067606
2	0x3a9ff6b3	0.0012204259
3	0x3aa28a48	0.001240083
4	0xbb149a06	-0.0022674813
5	0x39dc0bc9	0.0004197045
6	0xba531444	-0.0008052031
7	0xbb130b88	-0.0022437293
8	0x3ae19d23	0.0017212968
9	0x3a3166a8	0.0006767311
10	0xbab956d6	-0.0014140259
11	0x3a2a52e7	0.0006497339
12	0x3a8cde68	0.0010747435
13	0xb99cf78d	-0.00029939078
14	0x3ab49fdc	0.0013780552
15	0xba14fefb	-0.0005683747
16	0x3a6c5d12	0.0009016554
17	0x393a5ad2	0.00017772175
18	0xba04e4c5	-0.00050694897
19	0x3aadabbe	0.0013250036
20	0xbaf3b012	-0.0018591902
21	0x3a7cff1d	0.0009651052
22	0xba1fc8f0	-0.00060953107
23	0xba6af81f	-0.00089633645
24	0xba341502	-0.00068695855
25	0xba24ef68	-0.0006291778
26	0x3b0cdaaa	0.0021492639
27	0x3ab48667	0.0013772965
28	0x3a07cebb	0.00051806465
29	0xba72bd02	-0.0009259732
30	0xba70e0a1	-0.0009188746
31	0xb9fb7533	-0.0004796177

gnn.init_context.attentive_gru.edge_transform.1.weight f4 [16, 16]
0	0xbaaab927	-0.001302515
1	0x39ae019c	0.00033189065
2	0x3af71fcf	0.0018854084
3	0xbb4e67ab	-0.0031494896
4	0xbb793bba	-0.0038029985
5	0xba2e99b0	-0.00066604745
6	0xbac20c36	-0.0014804665
7	0xbbad10bb	-0.0052815354
8	0x3b612ae1	0.0034357833
9	0x3b825415	0.0039773085
10	0xbad3e2a1	-0.0016165563
11	0x3ad6d8d2	0.0016391522
12	0x3b2723e9	0.0025503582
13	0xbb911314	-0.004427323
14	0xbbac8932	-0.0052653784
15	0x39f6e729	0.00047093004
16	0x3b509b13	0.0031830713
17	0xba8523c6	-0.0010157756
18	0x3b3b13d3	0.0028545752
19	0x3aaca120	0.0013170578
20	0xbb20c6bd	-0.002453252
21	0xb99f0a70	-0.0003033462
22	0xbb04d0ba	-0.0020266012
23	0xbb656cf7	-0.0035007575
24	0x3b40683a	0.0029359
25	0x3b36e369	0.0027906543
26	0x3a74377b	0.00093161286
27	0xba600c84	-0.0008546787
28	0xba1f3247	-0.00060728606
29	0x3b591047	0.0033121274
30	0x3b3b14db	0.0028546366
31	0x3b29ac36	0.002589
32	0x3b21fa8c	0.0024715988
33	0xbab5af80	-0.0013861507
34	0x387b8839	5.996993e-05
35	0x39696e3b	0.00022261676
36	0x3b877791	0.0041341265
37	0x3b200eee	0.0024422961
38	0x3a597f5e	0.0008296872
39	0xbabda373	-0.0014468267
40	0x3aebd9ea	0.0017994021
41	0xba88905f	-0.0010419003
42	0xb9e16335	-0.0004298926
43	0x3b168c50	0.0022971816
44	0xb981b5e6	-0.00024740322
45	0xbb081a21	-0.0020767527
46	0xbb2031fc	-0.0024443856
47	0xbb2805eb	-0.0025638293
48	0xbbc3aefd	-0.005971788
49	0xbbee0a47	-0.0072644087
50	0xbb199df7	-0.0023440102
51	0xbb616674	-0.0034393342
52	0x3c576a0d	0.013147843
53	0x3ae480f6	0.0017433453
54	0x39c976a5	0.00038426105
55	0x3bb1b754	0.0054234657
56	0xba4b5c2d	-0.0007757571
57	0xba3581f1	-0.0006923965
58	0xbaf4442c	-0.001863604
59	0x3b35ad88	0.002772184
60	0xb8b64f3a	-8.6931934e-05
61	0x3a6bfda1	0.0009002332
62	0x3b97cadc	0.004632337
63	0x3b4299d9	0.002969375
64	0xba485337	-0.00076417945
65	0x3b351b26	0.002763459
66	0xbb66fad4	-0.003524472
67	0x3b404948	0.0029340554
68	0x3a9bb813	0.001188042
69	0x3b449d5f	0.0030001027
70	0x38f429aa	0.00011642587
71	0xbab6e28d	-0.0013953015
72	0x3970ec15	0.00022976131
73	0xbb439429	-0.002984295
74	0x3a157823	0.00057018007
75	0x3ae31929	0.0017326224
76	0x3aecb51c	0.0018059346
77	0xbb468980	-0.0030294359
78	0x3ae46ffd	0.0017428395
79	0xbb8ef5d1	-0.0043627997
80	0x3b075430	0.0020649545
81	0xbb204ed6	-0.0024461052
82	0x3a784323	0.00094704534
83	0xbb01543b	-0.0019734043
84	0x3bbff4cb	0.005858039
85	0xb8ba6d1d	-8.889495e-05
86	0x3b60e342	0.0034315144
87	0xbbe50cee	-0.0069900667
88	0xbabef730	-0.0014569517
89	0x397c49f3	0.00024060141
90	0x3b177780	0.0023112
91	0x3aa7eb3e	0.0012811197
92	0xbb48a730	-0.003061723
93	0x3bba7ccd	0.005691147
94	0xbb0b2a1b	-0.0021234814
95	0x3a950c46	0.0011371456
96	0x39a3580b	0.0003115538
97	0x3bd40b95	0.0064711072
98	0xba86f268	-0.0010295631
99	0xbb2e0007	-0.002655031
100	0x3b5b0195	0.003341769
101	0xb8c21aec	-9.2556555e-05
102	0xbb80a7a9	-0.0039262366
103	0x3bbe704c	0.0058117267
104	0x3931cae8	0.00016955624
105	0xbb9261bc	-0.0044672173
106	0xba7d6f5f	-0.00096677797
107	0xbb43e956	-0.0029893718
108	0xbb863142	-0.0040952275
109	0x3bb87a0a	0.0056297826
110	0xbb5b8fca	-0.0033502453
111	0x3a9ba9d3	0.0011876173
112	0xbb22b4e8	-0.0024827067
113	0xbbdc1d1f	-0.0067173387
114	0x3b13c6eb	0.0022548984
115	0x3b5620ba	0.0032673315
116	0x3af9371e	0.0019013619
117	0x3af89b9f	0.0018967277
118	0xbb02990e	-0.0019927653
119	0xbb2f107f	-0.0026712713
120	0x3b0b7189	0.002127739
121	0x3b237de6	0.0024946867
122	0xba271632	-0.0006373852
123	0x3b7f981a	0.0039000572
124	0xba86e179	-0.0010290585
125	0x3ba5c180	0.0050584674
126	0x3afaa48a	0.0019122523
127	0x3b9c934d	0.004778302
128	0xb96008e4	-0.00021365617
129	0xbb3a5ee3	-0.0028437905
130	0xbb0b983d	-0.0021300458
131	0xb998afc3	-0.00029122652
132	0x3b04e56a	0.0020278343
133	0x3a9dbe0d	0.0012034789
134	0xbb3892e0	-0.0028163716
135	0x3ace8157	0.0015755099
136	0xbb39d584	-0.0028356025
137	0xba061646	-0.00051150133
138	0xba4179ef	-0.0007380535
139	0xbaa2d9c9	-0.0012424524
140	0xbb0ac8dd	-0.0021176853
141	0x3b3782c0	0.0028001517
142	0x3ad61ff5	0.0016336428
143	0xbb4b6101	-0.003103316
144	0x3a2a9cb3	0.00065083354
145	0xbb890c8a	-0.004182403
146	0x3b29a8f7	0.0025888064
147	0xb91ce094	-0.00014960981
148	0x3b16fd8d	0.0023039312
149	0xbb87c3eb	-0.0041432283
150	0x3ad8abcd	0.0016530693
151	0xbb6efdde	-0.0036467235
152	0xbb0cef07	-0.0021504776
153	0x3ace51c7	0.0015740924
154	0xbb047869	-0.0020213372
155	0x3afb90c4	0.0019192924
156	0xbae4ce7b	-0.0017456556
157	0xbb18c4a7	-0.0023310573
158	0xba251dbc	-0.0006298681
159	0x3af7056e	0.0018846223
160	0xbb51a944	-0.003199176
161	0xbbd87007	-0.0066051516
162	0x3b80cf9e	0.003931
163	0x3b06fc92	0.002059732
164	0xbafe6188	-0.0019407729
165	0xbad6f1e1	-0.001639899
166	0x3ba435c2	0.0050112912
167	0xbbc4f057	-0.006010096
168	0xbb282f5d	-0.0025662996
169	0x3b9b7235	0.004743839
170	0x3abe1bde	0.0014504155
171	0xb981192c	-0.00024623552
172	0xbc0fb4c7	-0.008771128
173	0xbb3a113b	-0.0028391618
174	0x3babd741	0.005244166
175	0xb97a8e97	-0.00023894977
176	0xba1ab9aa	-0.00059023
177	0xbba30b2f	-0.0049756984
178	0x38b4553b	8.598944e-05
179	0x3ac1dde7	0.0014790863
180	0xbbc45bf8	-0.005992409
181	0x3a265845	0.00063455506
182	0xb986acbd	-0.00025687172
183	0xbb5c94ae	-0.0033657956
184	0x3b901b05	0.004397752
185	0x3b301993	0.0026870712
186	0xbb04afd3	-0.00202464
187	0x3ae0a216	0.0017138149
188	0xb90c427f	-0.00013376212
189	0xbba9ee49	-0.0051858765
190	0x3afba8a6	0.0019200041
191	0xba827018	-0.000995162
192	0xbb8a9dd1	-0.004230239
193	0xbc0eff25	-0.008727823
194	0x3b314b56	0.002705296
195	0x3b7e8e57	0.0038842165
196	0x3bb1279f	0.0054063345
197	0x3a291742	0.0006450304
198	0x3b3731ce	0.002795327
199	0xbc0c72b6	-0.008572271
200	0x3a26b569	0.00063594297
201	0xbb000ef6	-0.0019540167
202	0xba0b1c0c	-0.00053066085
203	0xb9d5c60d	-0.00040774085
204	0xbb3b09b2	-0.0028539714
205	0x3ae1396e	0.0017183253
206	0xbb8d2416	-0.0043072803
207	0x3b10877f	0.0022053418
208	0xbb28bb54	-0.0025746422
209	0x3bbd4c47	0.0057769152
210	0xbb61a370	-0.0034429692
211	0x38f11f6a	0.00011497627
212	0xbbe9fe81	-0.007140935
213	0xbaa0a6ba	-0.001225672
214	0xb9b40b3a	-0.0003434064
215	0x3b8d9c83	0.004321636
216	0x3ab39f64	0.0013704118
217	0xbb89b538	-0.004202511
218	0xba7b7770	-0.0009592688
219	0xba56bdc1	-0.00081917277
220	0x3b6a1b7a	0.0035721944
221	0xbbaa5220	-0.0051977783
222	0x3b14cce2	0.0022705127
223	0x3b4b367a	0.0031007812
224	0xba374dec	-0.0006992507
225	0x3b596d79	0.0033176823
226	0x3b5d0bdd	0.0033728995
227	0x3a23bdd7	0.0006246245
228	0xba9ac69b	-0.0011808457
229	0x3aaf6a27	0.0013383076
230	0xb9d461ac	-0.00040508562
231	0xbb869c4e	-0.0041079884
232	0x3a389554	0.00070412946
233	0xbac7ee13	-0.0015253447
234	0xba1c951a	-0.00059731456
235	0x3b906dfb	0.004407642
236	0x3b4aadb6	0.0030926294
237	0x3a7dc660	0.0009680744
238	0x39d0e4f9	0.0003984345
239	0x3aaa7a05	0.0013006335
240	0x3b423551	0.002963383
241	0xbc2618b1	-0.010137723
242	0x3aafba7d	0.0013407018
243	0xbaba04b0	-0.0014192071
244	0x3b907c3c	0.004409341
245	0xbb3308f7	-0.0027318576
246	0xba5a3ce4	-0.00083251134
247	0xba272420	-0.00063759275
248	0x3b69af4b	0.0035657461
249	0x3b9f994d	0.00487057
250	0x39acd146	0.00032962317
251	0x398cf5b1	0.00026885935
252	0x3b87531a	0.0041297795
253	0x37b26bbe	2.1269425e-05
254	0xba3969e0	-0.00070729665
255	0x3a1e36c9	0.00060353853

gnn.init_context.attentive_gru.edge_transform.1.bias f4 [16]
0	0x3c0b8d56	0.008517584
1	0x3c071fe7	0.008247352
2	0xbb8e2721	-0.0043381606
3	0xbb88fa3b	-0.0041802204
4	0xbb8c3ed0	-0.004279949
5	0xbac3b5f7	-0.0014931549
6	0xbc8071b2	-0.015679214
7	0x3bc0cc8c	0.005883759
8	0x3bc4a0b7	0.006000604
9	0xba79ba83	-0.00095263886
10	0x3d1417a2	0.03615535
11	0xba47ce25	-0.00076219655
12	0x3dcb0a25	0.09914044
13	0x3ba9d9b7	0.0051834243
14	0xbaa140d8	-0.001230265
15	0x3c89c874	0.016819216

gnn.init_context.attentive_gru.gru.weight_ih f4 [48, 16]
0	0xba7c6334	-0.00096278195
1	0x39e55916	0.00043744658
2	0x3ae70f74	0.0017628507
3	0xbb17ab26	-0.0023142784
4	0x3b4517b7	0.003007395
5	0x3a5d5578	0.0008443217
6	0xba66d2b8	-0.0008805203
7	0xba863de9	-0.0010241839
8	0x38d04285	9.930603e-05
9	0x36ed9c73	7.0813635e-06
10	0xbaefd4be	-0.0018297655
11	0x388875ad	6.506904e-05
12	0x3a387276	0.0007036099
13	0xbaf8dc72	-0.0018986596
14	0xb9a0f392	-0.00030699052
15	0x3b1b3527	0.0023682804
16	0xbaa4b96d	-0.0012567468
17	0xbafcc5bc	-0.0019285004
18	0xba319804	-0.0006774666
19	0xba784c95	-0.0009471861
20	0x3b3fb694	0.0029253112
21	0x3b03ad7a	0.0020092414
22	0x3b1090a7	0.0022058876
23	0xb9c8af8b	-0.00038277762
24	0x3a9f4ed7	0.0012154233
25	0x3a5250e8	0.000802292
26	0xb75b9f69	-1.3090533e-05
27	0xbb09e1ef	-0.0021039208
28	0x39db9cb0	0.00041887676
29	0x3b026c94	0.0019901143
30	0xb969be92	-0.00022291605
31	0x3ad7c359	0.0016461416
32	0xba4ee999	-0.0007893085
33	0x392b3d5e	0.00016330692
34	0x3a8a22d2	0.0010538942
35	0xbacd9bfd	-0.0015686747
36	0x3a228ad5	0.0006200497
37	0x3a1f1c84	0.0006069618
38	0xbace1dc0	-0.0015725419
39	0xba0e69b9	-0.0005432624
40	0xbb11d922	-0.0022254665
41	0x3ad60e3b	0.0016331145
42	0x3af90932	0.0018999933
43	0xbaa7c398	-0.001279938
44	0x3b036e3c	0.0020054718
45	0xba4a57b0	-0.0007718755
46	0x39d73b25	0.00041052062
47	0xbb0260ce	-0.0019894126
48	0xbad2c72d	-0.0016081088
49	0xbac89b8e	-0.0015305148
50	0xba8ab3b2	-0.0010582118
51	0xbb1d5547	-0.0024007128
52	0xb6149752	-2.2141799e-06
53	0xbaae916a	-0.0013318483
54	0xbb324453	-0.002720137
55	0x3b3f3cda	0.0029180557
56	0x3af3ca02	0.0018599632
57	0xbacc3728	-0.0015580403
58	0x3b26f9da	0.0025478513
59	0xba4a0d1e	-0.0007707643
60	0xb900bfea	-0.00012278525
61	0x3a2cf72a	0.00065981096
62	0xba8e93ec	-0.0010877824
63	0x398d2291	0.0002691937
64	0x3a390f49	0.00070594676
65	0x395a07e2	0.00020793037
66	0x3b2ecd45	0.0026672643
67	0x3b320eb2	0.0027169404
68	0x397fbc12	0.00024388757
69	0x3aaff946	0.001342573
70	0xb9fd4d35	-0.00048313444
71	0xbb219fcc	-0.0024661897
72	0x3958379d	0.00020620083
73	0xba8a3a6a	-0.0010545973
74	0x3b15398b	0.0022769894
75	0xbb411a8c	-0.0029465286
76	0x3acc5aed	0.0015591063
77	0x3b0ae2a8	0.0021192227
78	0xb9e9908b	-0.00044548916
79	0x3a223efa	0.0006189194
80	0x3a8a3677	0.0010544796
81	0xbabd0347	-0.0014420532
82	0xbaa519ad	-0.0012596153
83	0x3ada5be3	0.0016659464
84	0x3b33c742	0.0027432
85	0x39b4423b	0.0003438162
86	0xb9afe930	-0.0003355234
87	0xbb2651d7	-0.002537837
88	0x39898d25	0.00026235837
89	0x39b10e02	0.00033770507
90	0x3792643e	1.7451235e-05
91	0x39e83fd8	0.00044298056
92	0xb9b48aa4	-0.0003443557
93	0x3a08bbb4	0.0005215958
94	0x39f8f113	0.0004748186
95	0xba6b046e	-0.00089651986
96	0xbaded5dc	-0.0017000991
97	0x39f67fd1	0.00047016007
98	0xbaf335f5	-0.0018555509
99	0x3b32828e	0.0027238461
100	0x3ae0b005	0.0017142302
101	0xbab790d7	-0.0014004958
102	0xbb18405d	-0.0023231723
103	0x39acd5a3	0.00032965568
104	0xb9d637f7	-0.00040858958
105	0xba2f2965	-0.00066818885
106	0xba89faed	-0.0010527052
107	0x3ad5d37c	0.0016313638
108	0x3836dfdf	4.3600678e-05
109	0xbac02ad2	-0.0014661199
110	0x3adb8543	0.0016748089
111	0xba23ab2b	-0.00062434626
112	0xbab86dae	-0.0014070773
113	0xba2a270a	-0.00064908026
114	0xba0ae8f6	-0.0005298996
115	0xbabbd4f9	-0.0014330439
116	0x3ae73742	0.001764037
117	0xbacd4678	-0.001566126
118	0x3a7acb74	0.000956706
119	0xbb3e09fd	-0.0028997653
120	0x38acbb35	8.236469e-05
121	0x39c04f6b	0.00036680265
122	0x3a4fb356	0.00079231465
123	0x3a8204e2	0.0009919668
124	0xbb26c23d	-0.0025445365
125	0x3a7ba8a1	0.0009600018
126	0xba357958	-0.00069226837
127	0x3afbc39e	0.0019208079
128	0x3b500721	0.003174253
129	0xba322199	-0.00067951676
130	0xba8285b3	-0.0009958058
131	0x3a87656e	0.0010329911
132	0x39b63571	0.00034753562
133	0x3b144da7	0.0022629292
134	0x3ab8da86	0.0014103211
135	0xb9c66854	-0.00037843233
136	0x3a56c92e	0.000819343
137	0xbafe632b	-0.0019408216
138	0x3ab55db6	0.0013837132
139	0x3a9ee52f	0.0012122745
140	0xbb1f4b1e	-0.0024306248
141	0x3b4cbc05	0.0031239998
142	0x3a7d346c	0.00096589956
143	0xbb471da6	-0.0030382662
144	0x3aec63be	0.0018035097
145	0x3a9eeb1a	0.0012124509
146	0x39c3f96c	0.00037379132
147	0x390a43a7	0.00013185908
148	0x3a92a3a1	0.0011187681
149	0x3b453e87	0.0030097084
150	0x3b14ca09	0.002270343
151	0x3b4ee9a9	0.0031572378
152	0xbb2b68bc	-0.0026154956
153	0x3ab80fe4	0.0014042822
154	0xb9cdcb54	-0.00039252138
155	0xbb356992	-0.0027681333
156	0x3b25e74d	0.0025314868
157	0xba6d8393	-0.00090604386
158	0x3aec926d	0.0018049009
159	0xb8c19d72	-9.2322836e-05
160	0x3a9ecef3	0.0012116119
161	0x3a1be048	0.0005946201
162	0x39905b3a	0.0002753379
163	0x39819649	0.00024716769
164	0x3b44d3f6	0.0030033565
165	0xb9583276	-0.00020618163
166	0xb9650e21	-0.00021844405
167	0xbb1141a5	-0.0022164371
168	0xbad4eac0	-0.0016244277
169	0x3b28f59a	0.0025781156
170	0x3ad6dd0c	0.0016392781
171	0x3a328619	0.0006810143
172	0x39a998c0	0.00032348
173	0xba199a8f	-0.0005859518
174	0x3845c99c	4.7156223e-05
175	0x3b424fc6	0.00296496
176	0xbac667cf	-0.0015137139
177	0x3b1dbd89	0.002406927
178	0x3b0d36d0	0.0021547563
179	0x3a467914	0.00075711426
180	0x39f54b9a	0.0004678637
181	0x3b3e9973	0.0029083162
182	0xb9b8b6d8	-0.00035231444
183	0x3b0105b2	0.0019687233
184	0x3b5046b8	0.0031780433
185	0x3b11e10e	0.0022259387
186	0x3b1bdac8	0.0023781527
187	0x3a8c9e42	0.0010728317
188	0x3ab94a94	0.0014136606
189	0xbb33cdac	-0.0027435822
190	0xbb3fe472	-0.002928045
191	0x3a0dc715	0.00054083887
192	0xbb28b301	-0.002574146
193	0xbb12d5a9	-0.0022405183
194	0x3b454534	0.0030101063
195	0x39839066	0.00025093852
196	0xbb3b7e70	-0.0028609298
197	0x3ac606cf	0.001510823
198	0x3a74fe61	0.0009345767
199	0xbaa3e04a	-0.0012502756
200	0xb9362035	-0.0001736887
201	0xbae1b089	-0.0017218749
202	0x3ac007df	0.0014650783
203	0xba9ee1ea	-0.0012121771
204	0x3a0a9a15	0.0005287242
205	0x3af35a7f	0.0018566399
206	0xba3e2a67	-0.0007254243
207	0x397c8968	0.0002408378
208	0x3a3bc36d	0.00071626046
209	0xbac8294a	-0.0015271094
210	0x3a62908c	0.0008642755
211	0x3a756936	0.0009361686
212	0xba62006c	-0.00086212787
213	0x3ae7e50f	0.0017692166
214	0x38c7e073	9.5308664e-05
215	0xb9f288fb	-0.00046259895
216	0x3b4fc69d	0.0031704076
217	0x3b2e4382	0.002659053
218	0xba68223a	-0.0008855198
219	0xb9b44d88	-0.0003439004
220	0x3a24c630	0.0006285636
221	0x3a6a043d	0.0008927023
222	0xbac9a0f3	-0.001538305
223	0x3b3e5e48	0.0029047895
224	0xba94e7bf	-0.001136057
225	0x3a96dab7	0.0011509274
226	0x36bb40d6	5.580582e-06
227	0x3a004f4c	0.00048946287
228	0x3b4775e3	0.0030435256
229	0x3b1f17be	0.0024275626
230	0x3a3c9bba	0.0007194836
231	0x3a3f66fb	0.0007301417
232	0x39fd7057	0.0004833962
233	0xbb0094e4	-0.0019619996
234	0xbab9174a	-0.001412132
235	0x38f92457	0.00011880014
236	0xbb6d9081	-0.003624946
237	0xba06c104	-0.0005140456
238	0xb99858be	-0.00029057817
239	0xbac3d9bb	-0.0014942208
240	0xbb166861	-0.0022950398
241	0xb990c0d9	-0.00027609503
242	0x39d95d2c	0.00041458884
243	0x3b402c75	0.0029323373
244	0x3b1ca639	0.0023902787
245	0x397869d0	0.00023690541
246	0xba546c51	-0.00081032986
247	0xbad27270	-0.0016055834
248	0xba8f1ceb	-0.0010918652
249	0xbb26497e	-0.0025373395
250	0x39aa2c36	0.00032457866
251	0x398b97ad	0.00026625153
252	0x3b328beb	0.0027244042
253	0xba1a6b7c	-0.000589065
254	0xbaccd727	-0.0015628085
255	0x3980a4cb	0.00024536843

gnn.init_context.attentive_gru.gru.weight_hh f4 [48, 16]
0	0xb83a249d	-4.4379954e-05
1	0xbb01c1cc	-0.001979935
2	0x3b3d63ce	0.00288986
3	0xba0f7c64	-0.0005473553
4	0xb97f031b	-0.00024319852
5	0x3ae1dcdf	0.0017231962
6	0xbb094c31	-0.0020949955
7	0x3a559631	0.00081476854
8	0xb9fefb19	-0.00048633738
9	0x3ae0f63a	0.0017163225
10	0xba6b1e5e	-0.00089690636
11	0x398f8eb1	0.000273814
12	0xbab8b6e9	-0.0014092597
13	0xb98ce5de	-0.00026874145
14	0x3a77c7d7	0.00094520807
15	0xbaf7016d	-0.0018845029
16	0xb9932c9a	-0.00028071256
17	0xb9babc0c	-0.0003561679
18	0xba08b2cf	-0.0005214633
19	0x3b06af70	0.0020551346
20	0xba55f7ee	-0.00081622496
21	0x399ec153	0.00030280146
22	0xba96abd0	-0.0011495296
23	0xbb3ba0c0	-0.002862975
24	0x3a684b62	0.00088613306
25	0xb8c7c16c	-9.525087e-05
26	0x3b2bf2d5	0.0026237268
27	0xbb1979c3	-0.0023418523
28	0x3aae5688	0.0013300935
29	0xbb14f4b0	-0.0022728853
30	0xb98da0f3	-0.00027013532
31	0x39cbd1fd	0.0003887563
32	0x3a49cdf5	0.00076982315
33	0xba7abc5e	-0.0009564812
34	0x3b8f31ae	0.004369936
35	0x399fec1d	0.0003050276
36	0xba7d2914	-0.0009657305
37	0x3accf4dc	0.0015636939
38	0xbad01a5d	-0.0015876997
39	0x39fe9756	0.0004855941
40	0xba896e4d	-0.0010485143
41	0x3a925419	0.0011163979
42	0x3aceea0a	0.0015786302
43	0x3abc0eee	0.0014347711
44	0xb9b7a7a5	-0.00035029385
45	0xbacf86a1	-0.0015832969
46	0xba5c1bc0	-0.0008396469
47	0x3a8a331e	0.0010543799
48	0xba1b1188	-0.0005915393
49	0xbb196eed	-0.0023412064
50	0x3b519cec	0.0031984402
51	0x3b595c29	0.0033166504
52	0x3abd25ff	0.0014430879
53	0xbb0b1be6	-0.0021226346
54	0x3b14392f	0.0022617092
55	0x3a9cfead	0.0011977755
56	0xb8bebf70	-9.095564e-05
57	0xba9a0229	-0.0011749911
58	0x3976a6f4	0.00023522583
59	0x3af044f5	0.0018331098
60	0x3a402e0b	0.00073310797
61	0xb9bee17c	-0.00036407623
62	0xb8409ca5	-4.5922254e-05
63	0xba2f0615	-0.00066766265
64	0xba94f65a	-0.0011364922
65	0x39aaeb0a	0.00032600045
66	0x3a1ecb21	0.000605749
67	0x3b1ec1ae	0.0024224329
68	0x3b26edb8	0.0025471281
69	0xba1ecf43	-0.0006058106
70	0xb9f7a514	-0.00047234504
71	0xbb0a3d2d	-0.0021093593
72	0x3afcd496	0.001928943
73	0xbb502cb4	-0.0031764926
74	0x3a91a5a7	0.001111199
75	0xbad14727	-0.001596664
76	0xbb10d55f	-0.0022099835
77	0xb9feaa02	-0.0004857332
78	0x3b269b58	0.0025422182
79	0xbb3de8ea	-0.002897794
80	0xba1f4ade	-0.0006076525
81	0x3a2e0f0d	0.0006639816
82	0x3a8d62f1	0.0010786933
83	0x3b1dab7b	0.002405851
84	0x3b0b7590	0.002127979
85	0xb9b063e4	-0.0003364376
86	0xbaae99a9	-0.0013320941
87	0x3ada31ae	0.0016646886
88	0xb9927f42	-0.00027942104
89	0xba8608d7	-0.0010226023
90	0xba463c8f	-0.00075621245
91	0x3a000fb0	0.000488515
92	0xbab48985	-0.0013773894
93	0x3a8def49	0.0010828759
94	0x3958cdab	0.00020675983
95	0xbab2b61b	-0.0013634594
96	0xbaa4e865	-0.0012581466
97	0x3817d80f	3.6202426e-05
98	0xbb16f802	-0.0023036008
99	0xb71fa016	-9.514411e-06
100	0xbac60e7b	-0.0015110517
101	0x3ab55ecc	0.0013837456
102	0x3abeb148	0.0014548684
103	0x3a47a331	0.0007615565
104	0x3a20d4be	0.00061352167
105	0x3b088874	0.0020833286
106	0xba7b8924	-0.00095953257
107	0x3b082a38	0.0020777117
108	0x39f2f678	0.0004634147
109	0xb9a51a58	-0.0003149088
110	0x3a36e7b5	0.0006977276
111	0xbb43598b	-0.002980801
112	0xbab2e0df	-0.0013647339
113	0x3b125e7a	0.0022334144
114	0x3af21f79	0.0018472514
115	0xb9bb5771	-0.00035732568
116	0x3a274676	0.0006381044
117	0xb95fd6b4	-0.0002134692
118	0x394587e5	0.00018838009
119	0x3a193a9d	0.0005845221
120	0xba901986	-0.0010993935
121	0xb894d255	-7.096367e-05
122	0xb9886d49	-0.00026021365
123	0x3a5ebea4	0.00084970356
124	0xbb25820b	-0.0025254514
125	0xbac36923	-0.0014908653
126	0x38d48652	0.00010133967
127	0xba263af3	-0.00063411816
128	0x3ad1ca77	0.0016005774
129	0x3ae53175	0.0017486053
130	0x3ae1d885	0.0017230666
131	0xbb3a9369	-0.002846921
132	0xb9ea3548	-0.00044671656
133	0x3a358904	0.0006925019
134	0xbaa45acb	-0.0012539265
135	0xb9b5a195	-0.00034643398
136	0x3a8656f9	0.0010249309
137	0x395a2b5b	0.00020806251
138	0xb9b445fc	-0.00034384418
139	0x39da1e80	0.00041602924
140	0xba012c3e	-0.0004927552
141	0x3a34f9b6	0.0006903665
142	0x3a89aa21	0.0010502973
143	0xba0989a3	-0.0005246645
144	0x38f6f4f7	0.00011775822
145	0x39c52284	0.00037600484
146	0xba738b62	-0.0009290484
147	0x3abfe23e	0.0014639569
148	0xbab7970e	-0.001400681
149	0x38f1c810	0.0001152904
150	0xb9c0cf1d	-0.00036775405
151	0x3aaaf71d	0.0013043616
152	0xbb4355b3	-0.002980572
153	0xbb5a543e	-0.0033314372
154	0x38b85dfc	8.79131e-05
155	0x3988f186	0.0002611989
156	0xb915c364	-0.00014282536
157	0x39a180ed	0.0003080437
158	0x3b3a8453	0.002846022
159	0xbb4d3223	-0.0031310401
160	0xbb02811d	-0.0019913383
161	0x39e29970	0.000432204
162	0xbb47465a	-0.0030406923
163	0x39e7e147	0.00044227598
164	0x3ae1c90f	0.0017226058
165	0x3957afbf	0.00020569468
166	0x3aca0469	0.0015412691
167	0xbac92d63	-0.0015348609
168	0xb9baed2a	-0.00035653386
169	0xb938f6b9	-0.00017639519
170	0xbb0500d4	-0.0020294683
171	0xba4b4844	-0.0007754604
172	0x3b345b9d	0.0027520426
173	0x3985a9ed	0.0002549434
174	0x3ab90a5b	0.0014117466
175	0x38e7d27c	0.00011054144
176	0x3a8bec63	0.0010675307
177	0x3b0edfe9	0.0021800941
178	0x39708e2b	0.00022941145
179	0xba600573	-0.0008545734
180	0xba99ecf7	-0.0011743595
181	0x3b4645b9	0.003025396
182	0x37b7d73a	2.1915523e-05
183	0xba3ac332	-0.0007124423
184	0xbab995a7	-0.001415898
185	0x3a1d4ff2	0.00060009875
186	0x3a7c1914	0.0009616774
187	0x391a8615	0.00014736534
188	0xbaa778ba	-0.0012777068
189	0x39c5f095	0.00037754016
190	0x39555808	0.00020346057
191	0x3a8954a9	0.0010477501
192	0x3a9abfec	0.0011806465
193	0x3b3cf171	0.0028830434
194	0xba9b6adb	-0.0011857407
195	0x388e274d	6.778408e-05
196	0xb911d427	-0.0001390731
197	0xbb1d939a	-0.0024044276
198	0xba238882	-0.0006238298
199	0xbaec0b28	-0.0018008696
200	0x3b3b5610	0.0028585233
201	0xba9561de	-0.0011396965
202	0xb956318f	-0.00020427092
203	0xba90c803	-0.0011045936
204	0x3a6a95b2	0.0008948698
205	0xba775a09	-0.00094357185
206	0x3affcdde	0.0019516309
207	0x39a1b6da	0.00030844548
208	0x3ac4ffda	0.0015029863
209	0xb99d3622	-0.00029985706
210	0x3a6624f0	0.0008779308
211	0x3a01326a	0.0004928472
212	0xba3ff516	-0.00073225924
213	0xbab58a36	-0.0013850394
214	0xbb357266	-0.0027686595
215	0x3ab01221	0.0013433137
216	0xbb087fda	-0.0020828159
217	0x3af391cf	0.0018582883
218	0x3a3c9c42	0.0007194915
219	0x3a72dede	0.0009264777
220	0x3a8d46b1	0.0010778514
221	0xb942f408	-0.0001859219
222	0x3a778016	0.00094413885
223	0x3b154f87	0.0022782998
224	0xbb1dfca1	-0.0024106877
225	0x3ac03dbe	0.0014666838
226	0xbad0078b	-0.0015871389
227	0x3ad3c118	0.0016155569
228	0x3a10743a	0.0005510483
229	0x3a35e22f	0.0006938306
230	0xb959f705	-0.00020786755
231	0xba11f181	-0.0005567298
232	0x3b422331	0.0029623026
233	0x3b6ce3d2	0.0036146534
234	0xb8d61945	-0.00010209022
235	0x3a10333f	0.00055008003
236	0xbaf36095	-0.0018568212
237	0x3ad08a42	0.0015910345
238	0x3a49fcbc	0.0007705202
239	0x3aaa68bb	0.0013001183
240	0xb9e7b150	-0.00044191862
241	0x3ac2324a	0.0014816013
242	0x3b470d4b	0.0030372913
243	0xba8f45c5	-0.0010930827
244	0xb981163a	-0.00024621357
245	0x3b07cf54	0.0020722942
246	0x3b3800bb	0.0028076607
247	0xbad09fb6	-0.0015916738
248	0x3a227a30	0.0006198017
249	0x3b352aaf	0.002764385
250	0xba3e57d2	-0.0007261011
251	0xbb13344c	-0.0022461591
252	0xba3d0ec5	-0.00072119787
253	0xbb35804a	-0.0027694874
254	0xba262301	-0.00063376134
255	0x3af42226	0.00186259

gnn.init_context.attentive_gru.gru.bias_ih f4 [48]
0	0x3b19e0ce	0.0023479941
1	0xb9b52a90	-0.00034554722
2	0x3b2f8893	0.0026784285
3	0x3b31a4bf	0.0027106253
4	0x3acedf51	0.0015783106
5	0xbaaec5a9	-0.0013334054
6	0x3ad16210	0.001597466
7	0x3b3f0552	0.0029147458
8	0xbb26f85a	-0.002547762
9	0x3b8a0279	0.0042117205
10	0x3a087b8d	0.0005206399
11	0xbb31481d	-0.002705104
12	0xbb457494	-0.00301293
13	0x3b040c4a	0.0020148926
14	0xba8e7d28	-0.001087104
15	0xbadecadf	-0.0016997716
16	0xba64182c	-0.00087011117
17	0x3a17fe52	0.00057980896
18	0xbb61429e	-0.0034371982
19	0xbb6e3ce6	-0.0036352216
20	0xb87563fe	-5.8505677e-05
21	0x39e13e34	0.0004296169
22	0x3b03a5d8	0.0020087864
23	0xbb34a3c2	-0.0027563428
24	0xbbb2d187	-0.0054571065
25	0x3af34504	0.0018559997
26	0xbb6b6856	-0.0035920343
27	0x3bc7472c	0.0060814824
28	0xb9890fab	-0.0002614235
29	0x3aea289e	0.0017864888
30	0xb986dbb6	-0.0002572217
31	0x3aaeb847	0.0013330065
32	0xbc0da6ab	-0.008645694
33	0x3a60c449	0.00085741706
34	0xbd51d0ba	-0.051224448
35	0xbd800451	-0.06250823
36	0xbbaff647	-0.0053699347
37	0xba68b984	-0.00088777416
38	0x3b57b20e	0.0032912525
39	0x3a201a68	0.00061074505
40	0xbd4cb2e8	-0.049975306
41	0x39b4ed65	0.00034509148
42	0xbd9aaa4b	-0.07552012
43	0xbd7822a7	-0.060579922
44	0xbc47fa13	-0.012205618
45	0xbd30fcd2	-0.04320986
46	0xbccfc983	-0.025364643
47	0x3b5b5755	0.0033468802

gnn.init_context.attentive_gru.gru.bias_hh f4 [48]
0	0xb78999da	-1.6403315e-05
1	0xbabd8265	-0.0014458416
2	0x3b8db1d6	0.004324178
3	0x3b84cc49	0.004052673
4	0x3b16df02	0.0023021107
5	0x3adf337e	0.0017028896
6	0x3ad2cf70	0.001608355
7	0x3b03d25d	0.00201144
8	0xba4d5b47	-0.0007833731
9	0x3ac91e62	0.0015344138
10	0xba33eacc	-0.00068632956
11	0x3b32c7fc	0.0027279845
12	0xb9d5094f	-0.0004063346
13	0x3b05ef23	0.0020436726
14	0xbb23d1f0	-0.0024996959
15	0x3953a714	0.0002018477
16	0xbb4ea041	-0.0031528624
17	0x3b229532	0.0024808166
18	0xbb4019d3	-0.0029312267
19	0xb99be201	-0.0002973229
20	0xba05cfd2	-0.0005104515
21	0xb9286bd9	-0.00016061905
22	0xb9befadc	-0.0003642653
23	0x3b053093	0.0020323142
24	0xbc01a49a	-0.007912779
25	0xbb17e4e4	-0.00231772
26	0xbb985090	-0.0046482757
27	0x3ae4986f	0.0017440448
28	0xb9c6eb32	-0.00037940737
29	0x3ad811e8	0.0016484829
30	0xba433cf4	-0.00074477424
31	0x37c93616	2.3986253e-05
32	0x3ac737c7	0.0015199118
33	0x3b9318a5	0.004489022
34	0xbd3182a7	-0.04333749
35	0xbbb9b261	-0.0056670164
36	0x3b88f51a	0.004179609
37	0x39f4317c	0.00046576175
38	0x3b27045a	0.0025484771
39	0xbb8a43fc	-0.00421953
40	0xbceaa23e	-0.028641816
41	0xbd0d3b95	-0.03448065
42	0xbd649a9d	-0.055811513
43	0xbc13f793	-0.009031194
44	0xbbf9d13d	-0.00762382
45	0xbb30307e	-0.0026884372
46	0xbaec9a9c	-0.0018051448
47	0x3b29c882	0.0025906865

gnn.gnn_layers.0.project_edge.1.weight f4 [1, 32]
0	0xbab630c8	-0.0013900036
1	0xb8dc44b1	-0.00010503212
2	0x3aaafe28	0.0013045715
3	0xb94adde3	-0.0001934688
4	0xb99e68f9	-0.0003021432
5	0xb999dbbd	-0.00029346152
6	0xb945f3da	-0.00018878226
7	0x38b29e5d	8.517199e-05
8	0xba448abe	-0.0007497481
9	0x3abf5c39	0.0014599628
10	0x394f4e34	0.00019770191
11	0xb9cd7a14	-0.00039191602
12	0x3af40df4	0.0018619881
13	0x3ab0cace	0.0013488175
14	0x3a3651d4	0.00069549424
15	0xb94c3b7a	-0.00019477113
16	0xbaab65f9	-0.0013076655
17	0xba69c932	-0.0008918225
18	0x3a5169e0	0.0007988494
19	0x3b005359	0.001958093
20	0x3aca283a	0.0015423365
21	0xb990a668	-0.00027589803
22	0x3926ffe4	0.0001592632
23	0xbad6e5b5	-0.0016395362
24	0xba7c8b3f	-0.00096337864
25	0xbb0bd370	-0.0021335743
26	0x39aa0324	0.00032427267
27	0x3a717edb	0.00092123233
28	0x39937b79	0.0002813002
29	0xb9e4cbe3	-0.00043639456
30	0xb9d1d49f	-0.00040022001
31	0x3a2376b9	0.00062356476

gnn.gnn_layers.0.attentive_gru.project_node.1.weight f4 [16, 16]
0	0x3aba2786	0.0014202453
1	0xb9fd0c99	-0.00048265306
2	0x3add729e	0.001689512
3	0xbb650099	-0.0034942983
4	0x3b2132eb	0.0024597
5	0xba0b8ce0	-0.0005323421
6	0xbaf47a8d	-0.0018652246
7	0xbb0d64b1	-0.002157491
8	0x3afd9e71	0.0019349587
9	0xbc075d72	-0.008262025
10	0xba1f3615	-0.00060734275
11	0x399a2814	0.0002940303
12	0xbafd960f	-0.0019347089
13	0x3a8a5e83	0.0010556731
14	0xbba4a5c2	-0.0050246427
15	0x3aba02a2	0.0014191458
16	0xbb17fa8b	-0.0023190107
17	0xbaaa3c14	-0.0012987875
18	0xbc32538e	-0.010884179
19	0x39a83fc1	0.00032090957
20	0x3c422b7a	0.011851186
21	0xbaf5f9f4	-0.0018766508
22	0x3b627b28	0.003455827
23	0x3b02d34b	0.0019962366
24	0xbad45dd1	-0.0016202276
25	0x3d27d145	0.04097106
26	0xbadb563c	-0.0016734074
27	0x3c20e1c6	0.009819454
28	0xbb77d970	-0.0037818812
29	0xbbd61ba1	-0.0065340553
30	0xb9eb8c64	-0.00044927292
31	0xbaa45f8c	-0.0012540682
32	0x3a41fc9d	0.0007400008
33	0xbb1f8abe	-0.0024344171
34	0x3b8641ca	0.004097198
35	0xbb050736	-0.0020298488
36	0x3b87879d	0.0041360394
37	0xbabcffc7	-0.0014419489
38	0x39c75689	0.00038020712
39	0xbba8121f	-0.0051291133
40	0x3b25e508	0.0025313515
41	0xbaf02835	-0.001832253
42	0x3ac5c70d	0.0015089229
43	0x3bc82664	0.006108092
44	0x3ae47e50	0.0017432664
45	0xbb268d86	-0.0025413944
46	0x3b322b48	0.0027186442
47	0x394814f8	0.00019081298
48	0xba951a7e	-0.0011375693
49	0x3b0f4816	0.0021863035
50	0xba5c376d	-0.0008400593
51	0xb96e681c	-0.00022736232
52	0xbbb9ce46	-0.0056703417
53	0xb9df8fc1	-0.0004264098
54	0x3a20cd35	0.0006134094
55	0xbb8b2abe	-0.0042470386
56	0x3b8cd71b	0.0042981035
57	0x3ae9595f	0.0017803124
58	0xba75e7cd	-0.00093805493
59	0xbb93b20d	-0.0045073093
60	0xbb054f43	-0.0020341433
61	0x3b5e89f5	0.003395674
62	0x3a9eb20b	0.0012107504
63	0xba629b06	-0.0008644316
64	0x3a4267e8	0.0007415996
65	0x3b1a682b	0.0023560624
66	0xbb79478d	-0.0038037032
67	0x3ad2d276	0.0016084451
68	0x3af50759	0.0018694206
69	0xbb444c07	-0.0029952542
70	0xbb2547e4	-0.0025219852
71	0x3bc55663	0.006022261
72	0xbb9b3d13	-0.004737505
73	0x3bd51bb2	0.0065035457
74	0x398c4e0a	0.00026761024
75	0x39e2f01e	0.0004328498
76	0xb993ca24	-0.0002818863
77	0x3afc88d7	0.0019266856
78	0xb7aead0d	-2.0823e-05
79	0x3b039ab2	0.002008122
80	0x3b38b802	0.002818585
81	0xbad467f9	-0.0016205303
82	0x3aa97595	0.0012928719
83	0x3b60b431	0.003428709
84	0x3b30e882	0.0026994054
85	0x3ab6f2f8	0.0013957908
86	0xbad3a2a7	-0.0016146497
87	0xba73a418	-0.0009294166
88	0x388a828f	6.604671e-05
89	0xbc569515	-0.013097067
90	0x3b0c3308	0.0021392722
91	0xbb301054	-0.00268652
92	0x3b889612	0.0041682804
93	0x3acf6f53	0.0015826024
94	0x3b940d97	0.0045182216
95	0xbb3285eb	-0.0027240466
96	0x3b0b22bd	0.0021230422
97	0xbb2e72ad	-0.0026618645
98	0x3c091200	0.008366108
99	0x38b1a140	8.470053e-05
100	0x3b8929ff	0.0041859145
101	0xbb1d313a	-0.002398564
102	0x3b362b16	0.0027796677
103	0x3b2a3206	0.0025969758
104	0x3b3cf4db	0.0028832469
105	0xbbec2093	-0.0072060316
106	0x3ad67c6c	0.0016363985
107	0x3a82fcab	0.0009993514
108	0xbadb4d64	-0.0016731438
109	0x3a12d168	0.0005600662
110	0x3b8fde56	0.004390518
111	0x3ad37eb3	0.0016135782
112	0xbaf6ae45	-0.0018820247
113	0x3b86dbd8	0.004115563
114	0x3b4799e2	0.0030456712
115	0xbb23d992	-0.0025001508
116	0xbb65efdd	-0.0035085597
117	0xbaeeb63f	-0.0018212273
118	0x3a2a010a	0.000648514
119	0x39c95a91	0.00038405185
120	0xbb04bf2c	-0.002025555
121	0x3ab39878	0.0013702055
122	0x3b1019ca	0.0021988028
123	0x3b883e1a	0.0041577937
124	0xbb324181	-0.0027199688
125	0xba405855	-0.0007337381
126	0x3a1854f1	0.0005810997
127	0x3b04e201	0.002027631
128	0xbb21a868	-0.0024667028
129	0xbb3dd087	-0.0028963403
130	0xbbe5767a	-0.007002649
131	0x3ae09eaf	0.0017137135
132	0x3bbed40f	0.005823619
133	0xbafa138c	-0.0019079312
134	0xbb3039f3	-0.002689001
135	0xb9c0243e	-0.00036648096
136	0x3ae37cc5	0.001735591
137	0x3bbe4669	0.0058067334
138	0xbb5e9cc3	-0.003396795
139	0x3b3c9d31	0.0028780217
140	0x3b0859c3	0.0020805455
141	0xbb683bd4	-0.003543605
142	0x3ae5115b	0.0017476486
143	0x3b092f0b	0.002093258
144	0xbbd5479d	-0.006508781
145	0xbb57cd96	-0.0032928935
146	0x39c5aa5e	0.00037701702
147	0xbb72a3f8	-0.0037024003
148	0xbb183b25	-0.0023228612
149	0x3a14c690	0.000567534
150	0xba971141	-0.0011525528
151	0xba4c2931	-0.00077881204
152	0xbbde16c3	-0.0067776158
153	0x3a961ec1	0.0011453257
154	0xbad1e7b2	-0.0016014485
155	0x3a2ff1b6	0.0006711738
156	0x3a900e8f	0.0010990667
157	0xbba950dc	-0.00516711
158	0x3b05bd5f	0.0020407063
159	0xbaba5a95	-0.0014217669
160	0x3b4c0084	0.0031128237
161	0x3b0a6d53	0.0021122291
162	0x3bac099e	0.00525017
163	0x3b31ebf3	0.0027148693
164	0x3b990ce7	0.0046707275
165	0x3ae0f40c	0.0017162575
166	0xbb42fbc0	-0.0029752105
167	0x3a5149dd	0.0007983724
168	0xb9b25174	-0.00034011493
169	0xbaa023da	-0.0012217716
170	0x3b162c09	0.002291443
171	0x3b619ad9	0.0034424572
172	0xbae3609c	-0.0017347517
173	0x3b38f7dd	0.002822391
174	0x391d0ce7	0.00014977493
175	0xbb2211dc	-0.0024729883
176	0x3ab5647c	0.0013839151
177	0xba3c2fec	-0.0007178772
178	0xbb140ece	-0.0022591832
179	0xbb999d65	-0.0046879523
180	0x3b1bef62	0.0023793806
181	0xba71b524	-0.00092204125
182	0x3b213891	0.0024600367
183	0x3a81ff85	0.000991807
184	0x3b0304f4	0.0019991966
185	0xbb45a854	-0.0030160146
186	0xbabd48b6	-0.0014441225
187	0x3c1ea495	0.009682794
188	0xbb410d05	-0.0029457223
189	0x3b1cc593	0.0023921474
190	0xbbb071d0	-0.0053846613
191	0xbad51052	-0.0016255474
192	0xbb31bbd2	-0.0027120006
193	0xbb37a12e	-0.0028019655
194	0x3be9ef94	0.0071391556
195	0xb9d49400	-0.0004054606
196	0xbbb957b3	-0.0056562065
197	0x3a890663	0.0010454174
198	0xbb0f2318	-0.0021840986
199	0xbaabf000	-0.001311779
200	0x3a8523c9	0.001015776
201	0xbcb189c7	-0.021672143
202	0x3ac1354c	0.0014740615
203	0xbc0e87a6	-0.008699333
204	0xbae672af	-0.0017581786
205	0xbafc0eb1	-0.0019230453
206	0x3b83974e	0.0040158397
207	0x3b42fb4f	0.0029751842
208	0x3adf172c	0.0017020456
209	0x3a4a2342	0.00077109423
210	0xbb5bf73a	-0.0033564107
211	0x3b6dc6de	0.0036281864
212	0xbbc8bbe2	-0.006125913
213	0x3a184bdf	0.00058096455
214	0x3a94f768	0.0011365237
215	0xba869ea6	-0.001027067
216	0xbbc0628f	-0.005871124
217	0xbb68f291	-0.0035544971
218	0xbb05d1b7	-0.002041919
219	0xbbe1bd47	-0.0068890187
220	0xba1770e4	-0.0005777015
221	0x3b5be42a	0.0033552744
222	0x38bfb982	9.142143e-05
223	0x3925dab6	0.00015817102
224	0xba4e04c6	-0.00078589877
225	0xba5a17d5	-0.0008319591
226	0xbc3f327c	-0.011669751
227	0x3b6e4c46	0.003636138
228	0xb8fc7274	-0.00012037615
229	0x3b40913c	0.0029383441
230	0xbb1e73ea	-0.0024177977
231	0x3a0eb20b	0.00054434006
232	0x39ac3259	0.00032843908
233	0x3c0e68e1	0.008691997
234	0x389a7208	7.364532e-05
235	0xbb8d171c	-0.0043057334
236	0x39dc7c85	0.00042054444
237	0x3a5ab6d5	0.0008343284
238	0xbb26b50f	-0.002543751
239	0xba9c2130	-0.0011911746
240	0xbb4ced62	-0.003126942
241	0x3b889007	0.00416756
242	0xb92e7b6f	-0.00016639916
243	0xba95e184	-0.0011435007
244	0xbadc0cbe	-0.0016788465
245	0xba1ac826	-0.0005904458
246	0x3b0ba5e8	0.0021308605
247	0x3aeff203	0.0018306378
248	0xbbb7e681	-0.005612195
249	0x3c70c5dd	0.014695612
250	0xb8b7fb66	-8.7729466e-05
251	0xbbb040a3	-0.005378799
252	0xbae01f36	-0.0017099145
253	0xbb330a5a	-0.0027319402
254	0xbbf3261a	-0.0074203135
255	0x3b4dc4a4	0.0031397725

gnn.gnn_layers.0.attentive_gru.project_node.1.bias f4 [16]
0	0x3d8bd9a6	0.068286225
1	0xbcbe0380	-0.023195028
2	0x3d164fdc	0.036697254
3	0x3d058fdf	0.03260791
4	0xbd185e59	-0.037199352
5	0x3d29bfa3	0.041442525
6	0x3dc6c759	0.09705991
7	0xbb693f1a	-0.003559059
8	0xbc8b6573	-0.017016148
9	0xbcd9e56d	-0.026598657
10	0xbd9938d2	-0.07481541
11	0xbd8fb9a7	-0.07017832
12	0xbc4378e4	-0.011930678
13	0xbc240408	-0.010010727
14	0x3bf6a1e4	0.007526623
15	0xbde08906	-0.10963635
