1-GNNs/result/6108_AR_NURA_MPNN_0920/41/model.pth (torch, 437615 bytes, 26 tensors)

gnn.project_node_feats.0.weight f4 [32, 74]
0	0xbe5877aa	-0.21139398
1	0xbdc802ab	-0.09766134
2	0x3dc90d08	0.09816939
3	0x3c6ce4c8	0.014458843
4	0xbe50c0d6	-0.20386061
5	0xbd5588ee	-0.05213254
6	0x3d0315b3	0.032003116
7	0xbcd100ed	-0.025513137
8	0x3b23d77c	0.0025000265
9	0x3c131ae6	0.008978581
10	0xbd47570d	-0.048667002
11	0x3d4e99ea	0.050439753
12	0x3c82db14	0.015973605
13	0xbc39ad41	-0.011332811
14	0x3c267dab	0.0101617975
15	0xbd557721	-0.052115563
16	0xbd08897f	-0.03333425
17	0x3d4db069	0.050217066
18	0xbc525f7e	-0.01284015
19	0xbd167f26	-0.036742352
20	0xbcd9f5d5	-0.02660648
21	0x3d5541d1	0.05206472
22	0x3d4483bd	0.047977198
23	0xbd47bfff	-0.048767086
24	0xbcbc6ac5	-0.02300013
25	0x3d5d8d13	0.054089617
26	0xbd1826cc	-0.037146375
27	0xbbd4a3cf	-0.006489254
28	0xbc7445ec	-0.014909249
29	0xbd56fbcf	-0.052486237
30	0xbce3b088	-0.027794138
31	0xbcf8a8a0	-0.030353844
32	0x3d4dac75	0.050213296
33	0x3cb8344d	0.022485876
34	0xbc7750b8	-0.015094928
35	0x3d437cf0	0.04772657
36	0xbcd0eaf8	-0.025502667
37	0x3bda6742	0.0066651413
38	0x3cf93f1c	0.0304256
39	0xbd58a172	-0.05288834
40	0x3d5490af	0.051895794
41	0xbc978f4f	-0.018500952
42	0xbc039605	-0.008031373
43	0x3d47280a	0.04862217
44	0xbdb27806	-0.08714299
45	0xbcc3c374	-0.02389691
46	0xbec6a3c8	-0.3879683
47	0xbd97bb88	-0.074088156
48	0x3d48f949	0.04906586
49	0xbd5fd880	-0.05464983
50	0x3c20937b	0.009800787
51	0x3cb83d6c	0.022490226
52	0xbc139f19	-0.0090101
53	0xbc9a3801	-0.018825533
54	0xbea4ba3b	-0.32173333
55	0xbced4594	-0.028963841
56	0x3e0aa59f	0.13539742
57	0xbdb9324c	-0.090427965
58	0x3cbd0e0e	0.02307799
59	0x3c7f6c06	0.01558972
60	0xbd32e5c1	-0.04367614
61	0x3c673f38	0.014114194
62	0x3d5521e4	0.052034274
63	0x3d7f6729	0.06235424
64	0xbe4cee22	-0.20012715
65	0x3da7cf22	0.08193804
66	0xbccb52af	-0.0248197
67	0xbcb9c9c0	-0.02267921
68	0xbe9b0076	-0.3027379
69	0xbea8107b	-0.32825074
70	0xbd2a1504	-0.04152395
71	0x3e0e0a43	0.13871102
72	0xbd8ec499	-0.06971092
73	0xbc71367b	-0.014722462
74	0xbf364d2c	-0.71211505
75	0xbf1c9a31	-0.6117278
76	0xbf0403fb	-0.51568574
77	0xbe95f7b2	-0.2929054
78	0xbee81e32	-0.45335537
79	0x3d4b2573	0.04959626
80	0x3c9d8ffd	0.019233698
81	0xbef14e8b	-0.47130236
82	0x3e675aae	0.22593185
83	0xbbb539a5	-0.0055305534
84	0x3d5df5e4	0.054189578
85	0xbcab35f3	-0.020899748
86	0x3c764a93	0.015032428
87	0x3d5ec3cf	0.054385956
88	0x3be29e7f	0.006915867
89	0xbd3f4802	-0.04669953
90	0xbc5e45e3	-0.013566467
91	0x3c59abe0	0.013285607
92	0xbcfcdba6	-0.030866455
93	0xbd4c9aca	-0.049952306
94	0xbce12599	-0.027483748
95	0x3ceeb427	0.029138638
96	0xbc906676	-0.017626982
97	0xbc6d9c99	-0.014502668
98	0x3bb7282b	0.005589505
99	0x3c5b6d21	0.013392718
100	0x3c06311c	0.0081904195
101	0xbd25da67	-0.040491488
102	0xbba226da	-0.004948479
103	0xbcc6b55e	-0.024256404
104	0x3d14153e	0.03615307
105	0x3d5eabd2	0.05436308
106	0xbccfe4c8	-0.025377646
107	0x3c45f55a	0.012082422
108	0x3d20809d	0.039185155
109	0x3c412c78	0.011790387
110	0xbce6c316	-0.028169196
111	0x3d5e9a8d	0.05434661
112	0xbcbb83f0	-0.022890061
113	0xbc4ea09b	-0.0126115335
114	0x3bb89b07	0.005633715
115	0xbbc03706	-0.0058659343
116	0x3c05dcc4	0.00817031
117	0x3d4b0974	0.049569562
118	0xbf0d6e09	-0.55246025
119	0xbf1cf3c5	-0.6130946
120	0xbf194f03	-0.5988619
121	0xbf17211c	-0.59034896
122	0x3c1fc68b	0.009751926
123	0x3d2f6827	0.042823937
124	0xbce758c6	-0.028240573
125	0xbcb310bd	-0.021858567
126	0xbcf3e57f	-0.029772518
127	0xbd5c73d7	-0.05382141
128	0xbf3c3af0	-0.7352743
129	0xbf41e1fa	-0.7573544
130	0xbf06bb42	-0.5262948
131	0xbf27b4fe	-0.6551055
132	0xbd09e733	-0.033667754
133	0x3d5c6be8	0.053813845
134	0xbd5eae1e	-0.05436527
135	0xbddc471f	-0.10755753
136	0xbb527990	-0.0032115914
137	0xbe76b16e	-0.24091122
138	0xbf2d7d50	-0.67769337
139	0xbf19f320	-0.60136604
140	0xbd3a7392	-0.045520373
141	0x3d54b208	0.051927596
142	0xbf559175	-0.83425075
143	0xbf359845	-0.7093547
144	0xbf27f4d5	-0.6560796
145	0xbf226a43	-0.6344339
146	0xbf3178e3	-0.69325083
147	0x3d5ec55f	0.054387446
148	0x3e7198c4	0.23593432
149	0x3d77cf0a	0.060500182
150	0xbcf44dcd	-0.029822255
151	0x38a81890	8.0154394e-05
152	0xbc6317e4	-0.013860676
153	0x3ba86062	0.005138443
154	0xbd5e21f7	-0.05423161
155	0x3c5a0ef3	0.013309228
156	0x3bc83521	0.006109849
157	0x3cec7823	0.02886588
158	0x3cb48cda	0.02203982
159	0xbd5deaf0	-0.054179132
160	0xbd4901a6	-0.049073838
161	0x3bfc38e5	0.007697212
162	0x3d5aac58	0.053387016
163	0x3b8ae57e	0.0042387834
164	0x3d180e98	0.037123293
165	0xbbc620a5	-0.006046372
166	0x3c387d4f	0.011260345
167	0x3c3ecc31	0.011645363
168	0xbc4e9c4e	-0.012610508
169	0xbbb47ddd	-0.005508168
170	0x3c955c12	0.01823238
171	0x3d1e5455	0.038654644
172	0x3d16007e	0.036621563
173	0xbcfcd346	-0.030862462
174	0x3cf31875	0.029674748
175	0x3c740d76	0.014895787
176	0xbceec67f	-0.029147385
177	0xbbf017a6	-0.007327038
178	0xbccb8200	-0.024842262
179	0x3d189efb	0.03726099
180	0xbbb3eeec	-0.005491128
181	0x3c4c1a03	0.012457374
182	0x3c87a037	0.016555889
183	0xbc3f643b	-0.011681612
184	0xbbb15727	-0.0054120007
185	0xbba622fb	-0.005070088
186	0x3ba3504c	0.0049839374
187	0x3cb65e6d	0.022261823
188	0x3d4fcdc6	0.05073335
189	0xbd032452	-0.03201706
190	0xbbb5bca0	-0.0055461675
191	0x3d5ce3c1	0.05392814
192	0xbd800387	-0.06250673
193	0x3d565d74	0.052335218
194	0x3ddc8339	0.10767216
195	0xbc45911c	-0.012058523
196	0xbd5ec521	-0.054387216
197	0xbd5ec6ba	-0.05438874
198	0xbc9c7bba	-0.019101966
199	0xbbae5bb6	-0.0053209914
200	0xbce88f51	-0.028388651
201	0xbcf5988f	-0.029979972
202	0x3e3813f2	0.17976359
203	0x3e1b3681	0.1515751
204	0x3c4c24fe	0.0124599915
205	0x3c06a1e1	0.008217306
206	0xbcbe39a9	-0.023220854
207	0x3bb3f465	0.0054917806
208	0x3d56bbd2	0.052425213
209	0xbd2ea62c	-0.042638943
210	0xbd4fbcdc	-0.05071722
211	0xbcc9f605	-0.024653444
212	0x3e4adc0b	0.19810502
213	0x3d668193	0.056275915
214	0xbbe0c6b7	-0.006859626
215	0x3cc73bdb	0.024320533
216	0x3e164ad4	0.14676982
217	0x3e3df3ce	0.18550035
218	0x3e08af19	0.13348044
219	0x3c195d28	0.009360589
220	0x3cbf855d	0.023379022
221	0xbd4e1b8c	-0.05031924
222	0x3f42f789	0.7615896
223	0x3e808a7c	0.25105655
224	0xbdff5a6d	-0.12468419
225	0x3b882da4	0.0041558314
226	0x3f6b3a40	0.9188576
227	0xbd57dc5f	-0.052700397
228	0x3d5a6082	0.053314693
229	0xbd4c208c	-0.049835727
230	0xbd67af04	-0.056563392
231	0x3cbb2b98	0.022847936
232	0xbba9723d	-0.005171089
233	0xbc8544f0	-0.016268224
234	0xbd5df431	-0.054187957
235	0x3c2b1af4	0.010443438
236	0x3bb5b383	0.005545081
237	0xbd3a464b	-0.045477193
238	0x3d5e8bd1	0.054332558
239	0xbba1e526	-0.0049406467
240	0xbd28ef41	-0.041243795
241	0x3b9f35a0	0.0048586875
242	0x3d092071	0.033478204
243	0xbc330bf2	-0.010928141
244	0x3d5ec6b9	0.054388735
245	0x3d2cd11d	0.042191613
246	0xbc07c631	-0.008286999
247	0x3c1d5da7	0.009604848
248	0x3c494b4f	0.012286021
249	0xbc804500	-0.015657902
250	0xbd38980f	-0.04506689
251	0xbcf2a818	-0.029621169
252	0x3d5768c8	0.05259016
253	0x3d5bc052	0.053650208
254	0x3d2bab34	0.04191132
255	0x3bbcb27c	0.0057585817

gnn.project_node_feats.0.bias f4 [32]
0	0xbe999682	-0.2999764
1	0xbf427d7c	-0.75972724
2	0x3e2bbea7	0.16771947
3	0x3f5f0334	0.8711426
4	0x3dbeeca4	0.09322479
5	0x3da3b965	0.079943456
6	0x3e947205	0.2899324
7	0x3e9c7798	0.30559993
8	0x3f8dbee0	1.1073875
9	0xbed228ed	-0.4104685
10	0x3e94571a	0.28972703
11	0xbe493508	-0.19649136
12	0x3dfbdab9	0.122975774
13	0xbdcffdf3	-0.10155859
14	0xbeea95fc	-0.45817554
15	0xbf48f444	-0.7849772
16	0xbea4e15a	-0.3220318
17	0xbf40f0f7	-0.75367683
18	0xbf494788	-0.78624773
19	0x3e90b09c	0.28259742
20	0xbf5f46c7	-0.8721737
21	0x3e7d8298	0.24756849
22	0xbe030e4b	-0.12798421
23	0xbf2e8266	-0.6816772
24	0xbb8d9af9	-0.0043214527
25	0xbf80216b	-1.0010198
26	0xbeab1efc	-0.33422077
27	0xbf46823a	-0.7754246
28	0xbf1d0d09	-0.61348015
29	0x3ef8dbc0	0.48605156
30	0xbf294403	-0.661194
31	0xbe2a8c31	-0.16655041

gnn.gnn_layer.bias f4 [32]
0	0xbd9a922a	-0.0754741
1	0x3d0b64a7	0.034031536
2	0x3da23a42	0.07921268
3	0x3ebb0b8e	0.36532253
4	0x3dfc27f6	0.123123094
5	0xbd0fc630	-0.035101116
6	0xbe2a1fe1	-0.16613723
7	0xbe532a1d	-0.20621534
8	0x3ce36700	0.027759075
9	0x3e9282bf	0.28615376
10	0xbca21bfc	-0.019788735
11	0xbe3544ae	-0.1770198
12	0xbda3101a	-0.079620555
13	0xbe147736	-0.144986
14	0xbf0e3264	-0.5554564
15	0xbf1b4b03	-0.60661334
16	0x3f42a037	0.7602572
17	0x3e694361	0.2277961
18	0xbf1e6fd7	-0.61889404
19	0x3e417d20	0.18895388
20	0xbdb9e7bd	-0.09077404
21	0x3ee1b085	0.44079986
22	0xbf0de6ee	-0.55430496
23	0xbe31f47a	-0.17378417
24	0xbd27f148	-0.041001588
25	0x3d9a7db9	0.07543511
26	0x3e12e3d8	0.14344728
27	0xbb2d8423	-0.0026476465
28	0x3ec7d24b	0.39027628
29	0x3e8514c7	0.25992414
30	0xbd65b694	-0.056082323
31	0x3e06a1a1	0.13147594

gnn.gnn_layer.edge_func.0.weight f4 [64, 13]
0	0xbed00d2c	-0.4063505
1	0x3e269bc0	0.16270351
2	0xbd27249b	-0.040806394
3	0xbf3e043c	-0.7422521
4	0xbf4b19b2	-0.7933608
5	0xbf44fc07	-0.76947063
6	0xbf242ad8	-0.64127874
7	0x3d5ae39f	0.053439733
8	0x3c98fd4d	0.01867547
9	0x3c8c477b	0.017123928
10	0xbcd1c644	-0.025607236
11	0x3ce51ebb	0.027968755
12	0x3d4c5224	0.049883023
13	0x3e15208b	0.14563195
14	0xbc33270e	-0.010934604
15	0xbc5e0bf2	-0.013552653
16	0x3cad24ad	0.021135652
17	0x3e36bbc1	0.1784506
18	0x3e046488	0.12928975
19	0x3d70ea26	0.05881705
20	0xbce8396a	-0.02834769
21	0xbd5e3d80	-0.05425787
22	0x3c8ee027	0.017440869
23	0x3d4777ac	0.048698112
24	0xbd405f73	-0.046966027
25	0x3e73fa1a	0.23825875
26	0xbd57a306	-0.052645706
27	0xbcaad85e	-0.020855125
28	0xbd5ff5f9	-0.054677937
29	0x3be9f4d0	0.0071397796
30	0x3c142138	0.009041123
31	0xbd831220	-0.063999414
32	0xbdb25f06	-0.087095305
33	0xbc83adf5	-0.01607416
34	0x3d10b3ff	0.035327908
35	0xbca86511	-0.020556005
36	0xbceac3e9	-0.02865787
37	0x3cc21773	0.023692822
38	0x3ce9d04b	0.028541705
39	0x3f800dd3	1.0004219
40	0xbe075007	-0.13214122
41	0x3d9f6d3b	0.07784506
42	0x3f850c0d	1.0394303
43	0x3f9a50be	1.205589
44	0x3f9620c6	1.1728752
45	0x3f80f589	1.0074931
46	0x3cd8e28e	0.026475217
47	0x3d158e51	0.036512677
48	0xbbeb15e9	-0.0071742428
49	0xbd5ff13a	-0.05467341
50	0xbd507ae9	-0.050898466
51	0x3f739c64	0.9516051
52	0x3c9767fc	0.0184822
53	0x3ad8a76f	0.0016529391
54	0xbd585e68	-0.052824408
55	0xbdc64bb1	-0.09682406
56	0xbd90dc55	-0.07073275
57	0xbd96c2de	-0.07361387
58	0xbe02f1b7	-0.1278752
59	0x3cab517a	0.020912874
60	0xbcbf2124	-0.023331232
61	0xbd585aeb	-0.05282108
62	0x3d5dc746	0.05414512
63	0x3cd515f9	0.026011454
64	0xbd0c64b9	-0.034275744
65	0xbdf3a832	-0.11897315
66	0x3dd8b02a	0.10580476
67	0xbcd88bf3	-0.02643392
68	0x3d9406b2	0.072278395
69	0x3e312681	0.17299844
70	0xbd6544a8	-0.05597368
71	0xbdc7c6df	-0.097547285
72	0x3ca881df	0.02056974
73	0x3d575493	0.05257089
74	0x3d1d6c77	0.03843352
75	0xbd6bc657	-0.0575622
76	0x3cc328db	0.023823192
77	0xbdf323b9	-0.11872048
78	0xbe028f9c	-0.12750095
79	0x3e286069	0.16443028
80	0xbdb820d3	-0.08990636
81	0xbf0073d5	-0.50176746
82	0xbefba12b	-0.491464
83	0xbf120789	-0.5704275
84	0xbf3ebb8d	-0.7450493
85	0x3d4352f5	0.047686536
86	0x3c928748	0.017886773
87	0xbcad5692	-0.021159444
88	0x3bf53e76	0.0074842526
89	0xbccb3564	-0.024805732
90	0xbdfa20a6	-0.122132584
91	0xbdb0cdf3	-0.08633032
92	0xbda8ddfd	-0.08245466
93	0x3bbc04e2	0.0057378868
94	0x3c7c66c1	0.015405358
95	0x3d9a074b	0.07520922
96	0x3e143d19	0.14476432
97	0x3e093efa	0.1340293
98	0xbd1c85e8	-0.03821364
99	0xbd57efab	-0.0527188
100	0x3d4f39a8	0.050592095
101	0x3ce9eb78	0.028554663
102	0xbabd7616	-0.0014454748
103	0x3da90f63	0.08254888
104	0x3e32c11e	0.17456481
105	0x3d5a24c8	0.053257734
106	0x3d3eb2c7	0.046557214
107	0xbd94d2f7	-0.07266801
108	0x3c1f4670	0.009721383
109	0xbcab9644	-0.020945676
110	0x3dec8487	0.11548715
111	0xbd377dae	-0.044797592
112	0xbd584d66	-0.052808188
113	0x3ca21a48	0.019787923
114	0x3cd504b3	0.026003217
115	0x3ce6997a	0.028149355
116	0x3e2b408c	0.16723841
117	0x3b75cb74	0.00375053
118	0xbd510d4e	-0.05103808
119	0xbc6329fa	-0.013864988
120	0xbe55dca8	-0.20884955
121	0xbe69561f	-0.22786759
122	0xbe460f58	-0.1934179
123	0xbe600889	-0.21878256
124	0xbd5b4978	-0.053536862
125	0xbc359fb6	-0.011085441
126	0xbd5e24f6	-0.054234467
127	0xbd079881	-0.033104423
128	0x3d6f336b	0.058398645
129	0xbd2536b3	-0.04033537
130	0xbdb4ed1d	-0.08834288
131	0x3d48d18f	0.049027976
132	0xbd180aa6	-0.03711953
133	0x3e0eb97d	0.13937946
134	0x3e2e8ae7	0.17045175
135	0x3e73f0b9	0.23822297
136	0x3db5e7db	0.088821135
137	0xbd5ecf2f	-0.054396804
138	0xbd1c380e	-0.038139395
139	0x3bc8e608	0.0061309375
140	0xbce52e74	-0.027976252
141	0xbd519fae	-0.051177673
142	0x3dd5d4b1	0.10440958
143	0xbf03bd79	-0.5146099
144	0x3dea047d	0.11426637
145	0xbd99bc28	-0.07506591
146	0xbf0abdea	-0.54196036
147	0xbf08dd57	-0.5346274
148	0xbf054a8f	-0.5206689
149	0xbf21b7bf	-0.63171
150	0x3b9f5385	0.004862251
151	0xbd4b4fdb	-0.049636703
152	0x3cf9c26f	0.030488221
153	0x3d6e4e8c	0.058180377
154	0xbcc0217a	-0.023453463
155	0xbf190c95	-0.59784824
156	0x3f3a28dc	0.72718596
157	0xbe4d59c1	-0.2005377
158	0x3dd8048c	0.10547742
159	0x3efa2cba	0.4886225
160	0x3f2a8235	0.6660493
161	0x3f37f26e	0.71854293
162	0x3f74a53f	0.95564646
163	0xbcfe2406	-0.031023037
164	0x3d582417	0.052768793
165	0xbd595141	-0.053056005
166	0xbd0af69d	-0.033926595
167	0x3d6ea8a4	0.058266297
168	0x3f2372ed	0.6384724
169	0xbda4fc25	-0.08055905
170	0xbb7edd34	-0.0038889172
171	0xbc06c89a	-0.008226538
172	0xbd12264c	-0.035681054
173	0xbd314ae5	-0.043284316
174	0xbcf7402e	-0.03018197
175	0xbba3e3f3	-0.005001539
176	0x3bb5f767	0.0055531743
177	0xbd3a3f43	-0.045470487
178	0xbd47572d	-0.04866712
179	0x3c7a9a6c	0.015295606
180	0x3ba00bc9	0.0048842174
181	0xbd7ebc04	-0.062191024
182	0xbde28634	-0.110607535
183	0x3d1a679d	0.03769647
184	0xba2f477f	-0.0006686374
185	0x3ca044fd	0.019564146
186	0x3c92ac8d	0.017904544
187	0xbd5fa31a	-0.054598905
188	0xbdc3fc39	-0.09569592
189	0x3c43c3e8	0.011948563
190	0xbbe8ac80	-0.0071006417
191	0xbc4089a4	-0.011751566
192	0xbd3a5c43	-0.045498144
193	0xbd558612	-0.052129813
194	0x3d150b49	0.036387715
195	0x3d8622ef	0.06549632
196	0x3d5d4de5	0.054029364
197	0x3c6ca7b8	0.014444284
198	0x3dbdf560	0.09275317
199	0x3e27b331	0.1637695
200	0x3df74b7e	0.12074946
201	0x3e20c006	0.15698251
202	0x3cc5fe01	0.02416897
203	0x3c09c973	0.008409846
204	0xbd633e6a	-0.055479445
205	0x3d32eeb2	0.04368467
206	0xbd199fe4	-0.037506
207	0xbc50daeb	-0.012747507
208	0xbcd92930	-0.026508898
209	0xbd684dc2	-0.05671478
210	0xbcc96e30	-0.024588674
211	0x3dbc1492	0.09183611
212	0xbcb2c07b	-0.021820297
213	0x3dff05a1	0.124522455
214	0x3de63807	0.11241155
215	0x3ce96af6	0.028493386
216	0xbba6b812	-0.005087861
217	0x3d09f6ea	0.03368274
218	0x3cc33618	0.023829505
219	0x3d368d45	0.04456832
220	0x3d3e0e95	0.046400625
221	0x3da7c95e	0.081927046
222	0xbd23c5fb	-0.03998373
223	0x3d6cef9f	0.057845708
224	0xbdd0c5e1	-0.101939924
225	0x3e3699dc	0.1783213
226	0x3e1289e2	0.1431041
227	0xbe2717d3	-0.16317682
228	0x3d5b944c	0.053608224
229	0x3d6153d2	0.055011578
230	0x3d69b302	0.05705548
231	0xbc2be5e4	-0.010491822
232	0x3d222336	0.03958436
233	0x3e4bb94e	0.19894907
234	0xbf2cb101	-0.67457587
235	0x3e1e2dc6	0.15447149
236	0xbd819f0a	-0.063291624
237	0xbf172424	-0.5903952
238	0xbf1259f3	-0.571685
239	0xbf0346df	-0.51280016
240	0xbf191d4a	-0.59810317
241	0x3cca7531	0.024714084
242	0xbcc809d5	-0.02441875
243	0xbd1c9807	-0.038230922
244	0xbc762820	-0.015024215
245	0xbd531e20	-0.0515424
246	0xbf0acc88	-0.5421834
247	0xbe243acc	-0.16038054
248	0x3d312fa2	0.043258317
249	0xbcb93de1	-0.022612514
250	0xbdb497ad	-0.08817992
251	0xbda2d1c3	-0.07950165
252	0xbd9ba20c	-0.07599267
253	0xbdc0ad1b	-0.09408017
254	0x3d08b6a8	0.03337732
255	0xbc55079b	-0.013002302

gnn.gnn_layer.edge_func.0.bias f4 [64]
0	0xbf595d2f	-0.8490781
1	0x3eae4d04	0.34043133
2	0xbe125068	-0.14288485
3	0x3fa988ed	1.3244911
4	0xbd7c12fc	-0.061541542
5	0xbe48038e	-0.19532606
6	0xbf3902f4	-0.7227013
7	0x3e0310cc	0.12799376
8	0x3c0409c1	0.008058966
9	0xbe457a00	-0.1928482
10	0x3da10727	0.07862692
11	0xbf5836fc	-0.844589
12	0x3f765834	0.9622834
13	0xbc4f9377	-0.012669436
14	0x3d81488e	0.06312667
15	0x3e52a22b	0.20569675
16	0x3d8b7d56	0.06811015
17	0xbeb326cb	-0.34990534
18	0xbf226699	-0.634378
19	0x3dc449c5	0.09584383
20	0xbe9615d6	-0.29313534
21	0x3dd9f0cf	0.10641634
22	0xbf144435	-0.57916576
23	0x3f9260cd	1.1435791
24	0x3f4fbc65	0.8114684
25	0x3f3ae1f6	0.7300104
26	0xbf5d0d87	-0.86348766
27	0xbf55dfbc	-0.83544517
28	0x3df2fae5	0.118642606
29	0xbee20296	-0.44142598
30	0x3db15f77	0.086607866
31	0xbd8d56ff	-0.06901359
32	0x3f0ac2a1	0.5420323
33	0x3f93ad37	1.1537236
34	0x3e50244e	0.20326349
35	0x3dae167b	0.085003816
36	0x3f497d8a	0.7870718
37	0x3ee9b25e	0.45643896
38	0x3d00bf92	0.031432696
39	0xbe3ae250	-0.18250394
40	0xbf596bd2	-0.84930146
41	0x3f442679	0.76621205
42	0xbdc322be	-0.09528111
43	0x3c8f9e9d	0.017531687
44	0xbf1ddcf6	-0.61665285
45	0xbf03be43	-0.5146219
46	0xbf2e4dca	-0.68087447
47	0xbf432bfe	-0.76239
48	0xbf2ae521	-0.6675587
49	0xbe088775	-0.13332923
50	0x3e472b2f	0.19450067
51	0x3d7a8f45	0.06117179
52	0xbe09fd14	-0.13475448
53	0x3e0f93c4	0.14021212
54	0x3f8c9420	1.0982704
55	0x3f13f9d3	0.57803077
56	0x3f0234bf	0.50861734
57	0xbf3828cb	-0.71937245
58	0xbd61e357	-0.05514845
59	0xbeb9f619	-0.3632057
60	0x3e228ba3	0.1587358
61	0x3fb284c1	1.3946763
62	0xbe8bef61	-0.2733107
63	0xbf418d4c	-0.75606227

gnn.gnn_layer.edge_func.2.weight f4 [1024, 64]
0	0xbcf57e89	-0.029967563
1	0x3d7017cf	0.058616456
2	0x3b3c7b37	0.0028759965
3	0xbd638258	-0.055544227
4	0x3ac5cdde	0.001509126
5	0xbd1e7613	-0.038686823
6	0xbdb2ebd9	-0.087363906
7	0xbccfcf4b	-0.0253674
8	0xbd9b35ef	-0.075786464
9	0x3a371ecc	0.0006985485
10	0xbc2957e8	-0.0103359
11	0x3d4a2ebb	0.049360972
12	0x3a48fb11	0.00076668063
13	0xbd0df111	-0.034653727
14	0x3d9b34a9	0.075784035
15	0x3b98bceb	0.0046611927
16	0x3c30ab22	0.010782989
17	0x3d6eb7cd	0.058280755
18	0x3d5332a4	0.051561967
19	0x3cb49209	0.022042291
20	0x3d8a22ff	0.06744956
21	0xbdbea03f	-0.09307908
22	0x3d36db7a	0.044642903
23	0x3cacb802	0.021083836
24	0xbcbd579d	-0.023113066
25	0xbb6603cb	-0.0035097476
26	0x3a47e5bf	0.00076254824
27	0xbd5c8876	-0.053841077
28	0x3d0e5779	0.03475139
29	0xbd21719c	-0.039414987
30	0x3d5ec2d2	0.054385014
31	0xbd2ffe38	-0.04296705
32	0xbcbdc0e5	-0.023163268
33	0xbdadd509	-0.08487899
34	0xbc5328f8	-0.012888186
35	0x3d42385f	0.04741704
36	0xbc9ea8df	-0.019367633
37	0xbb4209e2	-0.0029607941
38	0x3cbee9b6	0.023304801
39	0xbd4c77cd	-0.04991894
40	0x3d06588b	0.032799285
41	0xbe09221c	-0.13391918
42	0x3d7758bb	0.060387354
43	0xbd0c0836	-0.034187518
44	0x3d39be21	0.045347337
45	0x3d3e5455	0.046467144
46	0x3d027e34	0.031858638
47	0xbc1d0fcd	-0.009586287
48	0xbd1f9fdd	-0.038970817
49	0xbd933d98	-0.071894825
50	0xbc28eb74	-0.010310043
51	0x3c880450	0.016603619
52	0x3c829f82	0.0159452
53	0xbd1924a4	-0.03738846
54	0x3d31daf3	0.043421697
55	0xbd6581ea	-0.0560321
56	0xbd2834e3	-0.04106606
57	0x3c4075c7	0.01174683
58	0xbd3d14fa	-0.046162583
59	0x3d842563	0.064524435
60	0xbb1396ae	-0.0022520232
61	0xbd2b1ac4	-0.041773573
62	0x3d579317	0.05263051
63	0xbcfeba70	-0.03109476
64	0x3d5efe3e	0.054441683
65	0xbd0ae406	-0.033908866
66	0xbcda0d5b	-0.026617697
67	0xbceba669	-0.028765874
68	0xbb00270d	-0.0019554526
69	0xbc4d7542	-0.0125401635
70	0x3c0deb81	0.008662106
71	0xb9c89fb8	-0.00038265972
72	0x3cea2af8	0.028584942
73	0xbcf91979	-0.030407654
74	0x3d0c3df9	0.03423879
75	0xbd095096	-0.03352412
76	0xbc6b1e19	-0.014350438
77	0x3d58f527	0.05296817
78	0xbcd99713	-0.026561296
79	0xbc4fa29a	-0.012673045
80	0x3d5a0a6b	0.05323259
81	0xbd224b5e	-0.039622657
82	0xbc0dbc13	-0.008650797
83	0xbcd43fc8	-0.02590932
84	0xbcda5658	-0.0266525
85	0x3d1eaa40	0.03873658
86	0xbca6eab3	-0.020375585
87	0xbd5076de	-0.05089461
88	0x3d53b87a	0.051689602
89	0xbbb5d22a	-0.005548735
90	0xbd38983c	-0.045067057
91	0xbd48ee3b	-0.04905532
92	0xbd259716	-0.04042729
93	0xbc128f5d	-0.008945313
94	0x3c4e797e	0.012602208
95	0xbd5d3226	-0.054002903
96	0xbc62441b	-0.013810183
97	0xbd55fc60	-0.052242637
98	0x3ce1e3e3	0.027574485
99	0x3d0a0bad	0.03370254
100	0xbd4bd4bf	-0.049763437
101	0x3ce43174	0.027855612
102	0xbba2346f	-0.004950098
103	0x3c366409	0.011132249
104	0x3ced6a0d	0.028981233
105	0x3d77f56b	0.060536783
106	0xbcbba294	-0.022904672
107	0xbd2fec1b	-0.042949777
108	0xbd033ccb	-0.0320404
109	0x3b84f64a	0.0040576803
110	0x3c8885b7	0.016665323
111	0xbd30868c	-0.043097064
112	0x3c66486b	0.014055352
113	0x3d957a38	0.07298702
114	0x3d5d06c9	0.05396155
115	0x3d28b1d3	0.04118521
116	0xbd4f3aa1	-0.050593022
117	0x3d5ceadc	0.053934917
118	0xbd48c399	-0.04901466
119	0xbc4475aa	-0.011990944
120	0xbc8953d2	-0.016763601
121	0xbcd8e7a5	-0.026477644
122	0xbd410cf1	-0.047131483
123	0xbc93564b	-0.017985484
124	0xbd51f0d2	-0.051255055
125	0x3c7cfbe2	0.015440913
126	0xbd128712	-0.035773344
127	0x3d0a18c3	0.03371502
128	0xbd45b5e1	-0.048269156
129	0x3db80ba3	0.089865945
130	0xbd320b8e	-0.04346805
131	0x3d420839	0.047371123
132	0x3c2f300f	0.01069261
133	0xbd0c3bb1	-0.034236614
134	0x3d8cfad2	0.06883778
135	0xbd156dcd	-0.036481667
136	0xbd90c2a8	-0.07068378
137	0x3c521204	0.012821678
138	0x3d888f1c	0.06667921
139	0xbce6809d	-0.0281375
140	0xbcd13a12	-0.025540385
141	0x3d64e125	0.055878777
142	0x3d3aa308	0.045565635
143	0xbd064685	-0.032782096
144	0xbd019617	-0.031637277
145	0x3d113c0c	0.035457656
146	0xbcf49a4c	-0.02985873
147	0xbd1605f5	-0.036626775
148	0x3d238555	0.039922077
149	0x3ce13542	0.027491216
150	0xbc209b8f	-0.009802713
151	0x3c2636b7	0.010144881
152	0x3c0f4a0e	0.008745683
153	0x3d80f237	0.06296199
154	0x3c788690	0.015168801
155	0x3d15ba73	0.036554765
156	0x3d51fb10	0.051264822
157	0xbcf72ef1	-0.03017375
158	0x3d745a43	0.059656393
159	0xbc0c83c5	-0.008576338
160	0x3dad8e31	0.084743865
161	0xbcf66dc8	-0.030081645
162	0xbca229d7	-0.019795341
163	0x3d5ec632	0.054388233
164	0xbc9a2d39	-0.018820392
165	0x3b97f158	0.0046369247
166	0xbd1bb6de	-0.038016193
167	0xbd0eb878	-0.03484389
168	0xbcde8e3e	-0.027167436
169	0xbd1d618d	-0.03842311
170	0x3d86b33a	0.065771535
171	0xbc6aeccf	-0.014338686
172	0x3c9293a2	0.017892662
173	0x3d34a9ec	0.044107363
174	0x3bd2e083	0.0064354553
175	0x3c4f805f	0.012664883
176	0x3d4a02bd	0.049319018
177	0xbc54e332	-0.012993621
178	0xbc5011be	-0.012699543
179	0x3d9d4a17	0.07680147
180	0xbce6f902	-0.028194908
181	0xbb96cab2	-0.0046018
182	0x3cbd7806	0.02312852
183	0x3c1abdbe	0.009444652
184	0xbd46a715	-0.048499186
185	0xbccedfef	-0.025253264
186	0x3c7c5d66	0.015403127
187	0x3db83f36	0.089964315
188	0xbc2a07ac	-0.010377806
189	0x3d23016a	0.03979627
190	0x3b06ac7a	0.0020549581
191	0x3bc25d61	0.005931542
192	0xbd119c9b	-0.03554974
193	0x3d6bbf9f	0.05755579
194	0xbd7956d5	-0.060873825
195	0xbdeb4297	-0.114873104
196	0x3d8dd010	0.069244504
197	0x3d1dc41f	0.038517114
198	0x3d29e61a	0.041479208
199	0x3d4e40c8	0.05035475
200	0xbe2b24bf	-0.16713236
201	0xbd2074d8	-0.03917393
202	0x3d04e26c	0.032442495
203	0xbcfb2659	-0.030657934
204	0xbbdb9c42	-0.006701977
205	0x3cae611f	0.021286545
206	0xbd60765a	-0.05480037
207	0x3d4bc564	0.049748793
208	0x3db9bcfe	0.090692505
209	0x3c9416b1	0.018077226
210	0x3b36f775	0.0027918492
211	0x3da28a23	0.07936504
212	0x3dd240e6	0.10266285
213	0xbdad9512	-0.084756985
214	0x3c183808	0.009290703
215	0x3d949b9e	0.07256244
216	0x3d57d095	0.052689154
217	0xbd0ec851	-0.034859005
218	0x3d0cb208	0.03434947
219	0x3d00d6c2	0.03145481
220	0x3c68d948	0.01421196
221	0xbc2b77ae	-0.010465546
222	0x3db12810	0.086502194
223	0x3b431720	0.0029768422
224	0x3d62730a	0.05528549
225	0xbd91774d	-0.07102833
226	0xbc57912c	-0.01315717
227	0xbcd03354	-0.0254151
228	0x3d4dd793	0.050254416
229	0xbc47cd1f	-0.012194901
230	0xbd6d8a1b	-0.057993036
231	0xbbbf5b3d	-0.005839734
232	0x3d1e370b	0.03862671
233	0xbe3a4176	-0.18189034
234	0xbd8ef7fa	-0.069808915
235	0xbd29c890	-0.041451037
236	0x3d430381	0.047610763
237	0xbc757a49	-0.014982768
238	0x3c127310	0.008938566
239	0x3cb36f77	0.021903737
240	0x3cf2c99f	0.029637156
241	0xbdd9c090	-0.106324315
242	0x3d1ea5d5	0.03873237
243	0x3df31c82	0.11870672
244	0x3d3e8ca4	0.046520844
245	0xbd7f3f5b	-0.06231628
246	0xbd4f9ccf	-0.050686654
247	0xbd60b2bc	-0.054857954
248	0xbd564fd2	-0.052322216
249	0xbd3377d8	-0.043815464
250	0x3dc0a6e7	0.09406834
251	0x3da43036	0.08017008
252	0xbd109884	-0.0353017
253	0x3d9c0966	0.0761898
254	0x3da08be2	0.078391805
255	0x3d1af076	0.037826978

gnn.gnn_layer.edge_func.2.bias f4 [1024]
0	0xb9d68eb0	-0.0004092357
1	0x3d4a65fb	0.049413662
2	0xbd636d1c	-0.055523977
3	0xbdb273a4	-0.08713463
4	0x3c280f1d	0.01025751
5	0xbd7ecaaa	-0.062204994
6	0x3df9cd16	0.1219732
7	0x3dcdd8cd	0.10051117
8	0x3a38642e	0.0007033971
9	0x3d466652	0.048437424
10	0x3d90e59f	0.07075047
11	0x3c46f1ee	0.0121426415
12	0x3d73363c	0.059377894
13	0x3d382a9f	0.04496252
14	0xbbf930be	-0.0076046875
15	0x3bd9d816	0.006648074
16	0xbe4da5ec	-0.20082825
17	0x3d64649a	0.055760004
18	0xbc30ed35	-0.010798742
19	0x3ca8846b	0.020570954
20	0x3e374b3d	0.17899795
21	0x3d7e6dbb	0.062116366
22	0x3dc7df7b	0.097594224
23	0xbd131c62	-0.03591574
24	0x3cc3c599	0.023897933
25	0xbd4768e7	-0.048684027
26	0xbd73d671	-0.05953068
27	0xbe43cf8c	-0.19122142
28	0x3954cc52	0.00020294011
29	0xbd60bda8	-0.05486837
30	0xbd14e814	-0.03635414
31	0xbcf983f7	-0.030458434
32	0x3dac289d	0.08406184
33	0xbda3d4b7	-0.079995565
34	0x3dc7209b	0.09723016
35	0xbf558e30	-0.83420086
36	0x3d48c437	0.04901525
37	0xbf211bb7	-0.62932914
38	0x3d50076e	0.050788336
39	0x3e80379d	0.2504243
40	0x3d922ab7	0.071370535
41	0x3f82ee26	1.0228927
42	0x3eb89104	0.36048138
43	0x3e826b3e	0.25472444
44	0x3bade966	0.0053073643
45	0x3eef21d7	0.46705505
46	0xbe4ed4a4	-0.20198303
47	0xbe9f7c48	-0.31149507
48	0x3f00694e	0.5016068
49	0x3ebfd191	0.37464574
50	0xbda62375	-0.08112232
51	0x3db0e406	0.08637242
52	0xbdf5f7a6	-0.12010126
53	0x3f929ebb	1.1454691
54	0xbe16492c	-0.1467635
55	0xbf416d5d	-0.755575
56	0x3f09d17d	0.5383528
57	0xbf757a01	-0.9588929
58	0x3cae4cfc	0.021276943
59	0xbf68e8bf	-0.9098014
60	0x3f2db1ec	0.6784961
61	0x3ec262b0	0.37965918
62	0x3dc27b94	0.09496227
63	0xbe28c6d4	-0.16482097
64	0x3ccf56af	0.025309889
65	0x3dd5c906	0.10438733
66	0x3dbd3d45	0.09240202
67	0x3dc8ffd3	0.098144196
68	0x3e8616f1	0.26189378
69	0x3eed341b	0.46328816
70	0x3de299d7	0.11064499
71	0xbe59c8b5	-0.2126797
72	0x3c9940d7	0.018707676
73	0xbf2da9dc	-0.6783731
74	0xbe80272b	-0.25029883
75	0xbd40bc17	-0.047054376
76	0x3d070723	0.03296579
77	0xbe439293	-0.19098882
78	0xbe795caf	-0.24351762
79	0x3e8a830d	0.2705311
80	0xbf67abb9	-0.904964
81	0xbea39e27	-0.31956598
82	0xbe7ca23d	-0.24671264
83	0xbd90e342	-0.07074596
84	0x3de935a7	0.113871865
85	0xbf393862	-0.7235166
86	0xbdf1aac6	-0.118001506
87	0x3ef02b5f	0.4690809
88	0x3e1cb290	0.15302491
89	0x3f6ca395	0.92437106
90	0x3e590200	0.21192169
91	0x3f131b1c	0.5746324
92	0xbef356e0	-0.47527218
93	0xbf1cc658	-0.6124015
94	0xbd6eaf89	-0.058272872
95	0x3d04f7c1	0.03246284
96	0xbbef59c5	-0.0073044025
97	0x3bfdf3be	0.0077500036
98	0xbd8d9783	-0.06913664
99	0xbe6e63b0	-0.23280215
100	0x3ea2a54a	0.3176673
101	0x3f31e12d	0.69484216
102	0xbdd68e53	-0.10476365
103	0xbf3d4f3d	-0.73949033
104	0x3df8e83c	0.1215367
105	0xbeba20b5	-0.36353078
106	0xbeea0f5d	-0.45714846
107	0x3e077d2b	0.13231342
108	0x3bfbaff8	0.007680889
109	0xbded60d6	-0.115907356
110	0x3e3d2e42	0.18474677
111	0x3e6ef87e	0.2333698
112	0xbf23a6f8	-0.6392665
113	0xbdd114b4	-0.10209027
114	0x3e3e0b73	0.18559055
115	0xbd85d1a2	-0.06534125
116	0x3e97430c	0.2954334
117	0xbec378a4	-0.3817798
118	0xbd8ccfaf	-0.0687555
119	0x3eda0fc1	0.42590144
120	0x3e9797c0	0.29607964
121	0x3f772626	0.96542585
122	0x3edc59cf	0.4303727
123	0x3f576dde	0.8415202
124	0x3e4fb6c1	0.20284559
125	0xbf502ef5	-0.8132165
126	0x3e10a108	0.14123929
127	0x3e1887d9	0.14895572
128	0xbce70d89	-0.028204696
129	0x3d1a6f3e	0.037703745
130	0xbe12a7c5	-0.14321811
131	0xbf58e8c4	-0.8473017
132	0xbcd5f099	-0.026115702
133	0xbf2b73b2	-0.6697341
134	0x3d2733d8	0.040820926
135	0xbdec4ebb	-0.11538454
136	0xbd645593	-0.055745672
137	0x3f726556	0.94685876
138	0x3ed1c725	0.40972248
139	0x3f2670a9	0.65015656
140	0xbc395247	-0.01131112
141	0xbe6f20ae	-0.2335231
142	0xbcc6a6ae	-0.024249401
143	0x3e6af9c9	0.22946848
144	0x3f287c51	0.6581469
145	0x3ee34961	0.4439192
146	0x3ce982de	0.028504785
147	0x3dd8771d	0.10569594
148	0xbe3fb615	-0.18721803
149	0x3f52e86f	0.82385916
150	0xbc90c01c	-0.01766973
151	0xbf1687cc	-0.5880096
152	0x3f3ab9c5	0.7293971
153	0xbf810568	-1.0079775
154	0xbd878f5d	-0.06619141
155	0xbf81b45e	-1.0133169
156	0x3f079bd6	0.5297216
157	0x3eb6f75b	0.35735592
158	0xbe0f36b2	-0.13985708
159	0xbcf2dcbb	-0.029646268
160	0xbcac6b35	-0.021047214
161	0x3dc9ea80	0.098591805
162	0xbd619f8f	-0.055083808
163	0x3e17fd75	0.1484278
164	0x3e85f4e5	0.26163402
165	0x3ef09352	0.46987396
166	0xbd920dd4	-0.07131544
167	0xbe4db7b6	-0.20089611
168	0x3b78cbc2	0.0037963246
169	0xbf2b08c7	-0.6681027
170	0xbe314f51	-0.17315413
171	0xbcea2e9a	-0.028586674
172	0xbd12ab84	-0.0358081
173	0xbe816f31	-0.25280145
174	0x3cec77ca	0.028865714
175	0x3e1c5e99	0.15270461
176	0xbf5b80e3	-0.8574354
177	0xbf145ef5	-0.5795739
178	0xbe60c34f	-0.21949504
179	0xbd9ccc98	-0.07656211
180	0x3d7a1e0d	0.061063815
181	0xbf368952	-0.71303284
182	0xbd10720b	-0.03526501
183	0x3f07ca6f	0.53043264
184	0x3e630dd1	0.2217324
185	0x3f0b9dfa	0.5453793
186	0xbd9eab73	-0.07747545
187	0x3f0c73bd	0.548641
188	0xbf11bc90	-0.5692835
189	0xbf1c05bb	-0.60946244
190	0xbc2a52e8	-0.010395743
191	0x3cbc0678	0.022952303
192	0xbe2fe39e	-0.17176673
193	0xbdd82beb	-0.10555252
194	0xbe442d5d	-0.1915793
195	0xbf0f8517	-0.56062454
196	0xbe919115	-0.28431
197	0xbf33b3d6	-0.7019628
198	0x3da44229	0.080204315
199	0x3e86ccf4	0.26328242
200	0x3db5527c	0.08853623
201	0x3f2a2c55	0.66473895
202	0x3dec02bf	0.11523961
203	0x3978d702	0.0002373122
204	0x3c7e19a2	0.015509041
205	0x3e6db572	0.23213747
206	0x3e944195	0.28956285
207	0xbdb45a9d	-0.088063456
208	0x3eea4fa8	0.45763898
209	0x3f1862df	0.59525865
210	0x3e663322	0.22480443
211	0xbe30c966	-0.17264327
212	0xbd8e3b44	-0.06944898
213	0x3f3885f0	0.7207937
214	0x3e8b7fd4	0.27245963
215	0xbee3e713	-0.44512233
216	0xbd5c86d2	-0.053839512
217	0xbf82142b	-1.0162405
218	0x3cea52d0	0.028603941
219	0xbf643bb9	-0.8915363
220	0x3ebbc147	0.36670896
221	0x3ec98041	0.39355662
222	0xbe4dac90	-0.20085359
223	0x3d579cf6	0.052639924
224	0x3e164b0f	0.1467707
225	0xbc1e62ed	-0.00966714
226	0x3db966f9	0.090528436
227	0x3d178efc	0.037001595
228	0xbd0d84ae	-0.03455036
229	0xbe259be7	-0.16172753
230	0x3e28fb58	0.1650213
231	0xbd785f6e	-0.060637884
232	0x3d4862dc	0.048922405
233	0x3d101034	0.035171703
234	0xbd62f6e1	-0.055411223
235	0xbd49c804	-0.049263015
236	0x3d5829e7	0.052774336
237	0x3db59de8	0.08868009
238	0xbd95f7e3	-0.07322671
239	0x3ddeb6f7	0.108747415
240	0xbe08a8ca	-0.13345638
241	0x3c0ea306	0.00870586
242	0xbda8a396	-0.082343265
243	0x3d6d97c1	0.058006052
244	0x3e2ded10	0.16984963
245	0x3e02641e	0.12733504
246	0xbda60ce7	-0.0810793
247	0x3cbb91f4	0.022896744
248	0x3e286790	0.16445756
249	0xbd42e837	-0.04758474
250	0x3e05ec8c	0.13078517
251	0xbe413436	-0.18867573
252	0xbe4200d6	-0.18945631
253	0xbddcef7c	-0.107878655
254	0x3e13ad66	0.14421615
255	0xbc92bd30	-0.017912477

gnn.gru.weight_ih_l0 f4 [96, 32]
0	0xbca4f18e	-0.020134714
1	0xbd12c5ed	-0.035833288
2	0xbce95380	-0.028482199
3	0x3d1823f1	0.03714365
4	0xbd13c0a0	-0.036072373
5	0x3d1af412	0.03783042
6	0x3d033e1a	0.032041647
7	0x3bdcb30e	0.006735212
8	0xbd481726	-0.0488502
9	0x3d3bb82d	0.04582994
10	0xbb9c48f7	-0.0047694403
11	0xbc44c6ad	-0.012010259
12	0xbd070376	-0.032962285
13	0x3cd00940	0.025395036
14	0xbd0b4b75	-0.03400751
15	0xbd4b8ca2	-0.049694665
16	0xbbc14230	-0.0058977827
17	0xbd5b1f67	-0.053496744
18	0x3a6ceda9	0.00090380997
19	0x3d0ca95b	0.034341197
20	0xbc231ded	-0.009955865
21	0xbc59250a	-0.01325346
22	0xbd1eba8c	-0.038752124
23	0xbd1c65d7	-0.03818306
24	0xbd29f422	-0.04149259
25	0xbcf71d01	-0.030165197
26	0x3d0ae138	0.03390619
27	0xbd5c2c93	-0.053753447
28	0x3d525018	0.051345915
29	0xbc038760	-0.008027881
30	0x3d43323f	0.04765534
31	0x3c93a0fa	0.018021096
32	0x3d9b5490	0.075844884
33	0xbcf14aa8	-0.029454544
34	0xbd1f4fbf	-0.03889441
35	0xbd9ac8ee	-0.075578555
36	0xbd4044a2	-0.046940453
37	0x3d4a23b8	0.04935047
38	0x3d6df4c1	0.058094744
39	0x3d171af7	0.03689095
40	0xbcb180d1	-0.02166787
41	0xbd4b5a36	-0.04964658
42	0xbccd5ef4	-0.025069691
43	0x3bdb435b	0.006691379
44	0xbd1ae750	-0.037818253
45	0x3d10f8cf	0.035393532
46	0xbb25e31a	-0.0025312365
47	0xbbc4cc67	-0.006005812
48	0x3d3c1885	0.04592182
49	0xbd40f659	-0.047109935
50	0x3d53ff70	0.051757276
51	0xbb594a9f	-0.003315605
52	0x3d7810ec	0.060563013
53	0x3d10e228	0.03537193
54	0xbc83d08d	-0.016090656
55	0xbcdbe9c9	-0.026844876
56	0x3cccb23f	0.024987338
57	0xbd1ab62e	-0.037771396
58	0x3c77ea57	0.015131555
59	0xbc0673c1	-0.008206309
60	0xbd416a13	-0.0472203
61	0x3d5d1bee	0.053981714
62	0x3da3fd76	0.08007328
63	0x3d583038	0.05278036
64	0x3c37a103	0.011207822
65	0x3d1903ab	0.037357014
66	0xbd1b2d8a	-0.037885226
67	0x3c85e679	0.01634525
68	0x3c09b0d5	0.008403976
69	0xbc9ce244	-0.01915086
70	0xbcbb2623	-0.022845333
71	0xbd4bae3f	-0.04972672
72	0x3d5ecb57	0.05439314
73	0xbca2ab8d	-0.019857192
74	0xbccd400f	-0.02505496
75	0xbd431204	-0.047624603
76	0x3beba210	0.00719095
77	0xbc8fe176	-0.017563563
78	0xbd166b6c	-0.03672354
79	0xbd0b39e7	-0.033990767
80	0xbca76868	-0.020435527
81	0x3be57935	0.0070029744
82	0xbcd934a2	-0.026514355
83	0xbd218692	-0.039434977
84	0xbc1345f4	-0.008988846
85	0x3bbd97a4	0.0057858992
86	0xbca535f3	-0.020167327
87	0xbcc1a80f	-0.023639707
88	0xbc3ec24e	-0.011643006
89	0x3a1f0b08	0.00060670124
90	0xbc97830c	-0.018495105
91	0xbd1d206a	-0.03836099
92	0xbc4169a7	-0.011804975
93	0xbd0b24ce	-0.033970647
94	0x3c9afd19	0.018919514
95	0x3ba1591e	0.0049239537
96	0x3dbcd5e7	0.09220486
97	0xbd5e3d9b	-0.05425797
98	0xbc016bbf	-0.007899224
99	0x3cff3201	0.031151773
100	0x3d19873f	0.037482496
101	0xbce80ea2	-0.02832729
102	0x3d799b62	0.0609392
103	0xbc9af8c8	-0.018917456
104	0xbbc3e54c	-0.005978262
105	0x3d153526	0.03642764
106	0x3bb6cdd0	0.005578734
107	0x3cd7640f	0.026292829
108	0x3cabc41f	0.020967541
109	0x3bbf28c3	0.0058337166
110	0xbc22957c	-0.009923335
111	0x3c9a830e	0.01886132
112	0xbd2c3fbc	-0.04205297
113	0x3d7454e3	0.059651267
114	0x3d6742c2	0.05646015
115	0x3cc14bd6	0.023595732
116	0x3daeaade	0.08528684
117	0xbd561ef5	-0.052275617
118	0xbd24ddc9	-0.040250573
119	0x3c58ef82	0.013240697
120	0x3d4daf64	0.050216094
121	0x3cc37a02	0.023861889
122	0x3b335ce2	0.0027368595
123	0x3cc12a0b	0.023579618
124	0x3d680c9b	0.056652647
125	0xbcab9461	-0.020944776
126	0x3da83fec	0.08215317
127	0xbc4da42c	-0.012551349
128	0x3d13665d	0.035986293
129	0x3cd8e34a	0.026475567
130	0x3b0ee7c5	0.0021805626
131	0x3d56b091	0.05241448
132	0xbcbe2489	-0.02321078
133	0x3d14fbba	0.036372878
134	0x3c122cb3	0.00892179
135	0x3d1ddf70	0.038543165
136	0x3c5a28ca	0.013315389
137	0x3bdd61d5	0.0067560473
138	0xbca3cf24	-0.019996233
139	0x392aaa93	0.00016276007
140	0x3cc43d3f	0.023954986
141	0xbcb5e17e	-0.02220225
142	0xbbf73cd9	-0.0075450954
143	0xbbad1c61	-0.005282924
144	0xbce17812	-0.027523074
145	0x3ce36b73	0.027761197
146	0xbc885311	-0.016641172
147	0xbd5085c6	-0.050908826
148	0x3ce29ff8	0.02766417
149	0x3c8dfdc1	0.017332913
150	0xbd47ec94	-0.048809603
151	0x3d1c981b	0.038230997
152	0xbc82727f	-0.015923737
153	0x3b5c1c4a	0.0033586198
154	0xbd63a354	-0.055575684
155	0xbc228b6e	-0.009920938
156	0x3c645e1f	0.013938456
157	0xbd234ba4	-0.03986706
158	0x3ca308df	0.019901691
159	0x3cf8cdb2	0.03037152
160	0xbccadac3	-0.024762517
161	0x3ce0ec74	0.0274565
162	0x3d0f944f	0.035053547
163	0xbdb721eb	-0.08942016
164	0x3d02bac0	0.03191638
165	0x3d90e305	0.070745505
166	0xbdc2d097	-0.095124416
167	0xbd354a0e	-0.044260077
168	0x3cbc9829	0.023021774
169	0x3c950814	0.018192329
170	0x3dbda312	0.09259619
171	0xbccd9335	-0.025094608
172	0x3c8faf00	0.017539501
173	0x3bc5b405	0.006033423
174	0x3d70c11a	0.058777906
175	0xbd24d4af	-0.040241893
176	0xbc8f8956	-0.017521542
177	0xbc9e0c54	-0.019292988
178	0x3cfff55e	0.03124493
179	0xbd514de5	-0.051099677
180	0xbcfe23a1	-0.031022849
181	0x3c9748f4	0.018467404
182	0x3d60e76f	0.054908212
183	0xbd16478b	-0.036689322
184	0x3b92245a	0.0044599
185	0xbcf6acfe	-0.030111786
186	0xbdcf72ad	-0.101292945
187	0x3d5f2ab0	0.05448407
188	0x3d6fcb5b	0.058543544
189	0xbb9df4ca	-0.004820441
190	0x3b8860f0	0.0041619465
191	0x3becddb1	0.007228576
192	0x3c82b7dc	0.015956812
193	0x3c4597ef	0.01206015
194	0x3bcdbcfc	0.006278632
195	0x3d5aa5f1	0.05338091
196	0xbd5ea654	-0.05435784
197	0x3d53afda	0.051681377
198	0xbcdca5ff	-0.026934622
199	0xbaab909a	-0.0013089359
200	0xbc65cbd8	-0.014025651
201	0xbd05c6e0	-0.032660365
202	0xbd0e8af2	-0.034800477
203	0xbcc02180	-0.023453474
204	0x3d5e284d	0.054237653
205	0xbd5f5b42	-0.05453039
206	0xbcdf6b44	-0.027272828
207	0xbada45c3	-0.0016652871
208	0x3c26552f	0.010152145
209	0xbc29e8f7	-0.010370485
210	0xbcca37ec	-0.024684869
211	0xbc9c081d	-0.019046837
212	0x3c002418	0.007821105
213	0xbd491a1a	-0.049097158
214	0xbd31f1b8	-0.04344341
215	0xbc86119d	-0.01636582
216	0xbd1d880b	-0.03845982
217	0x3be56099	0.0070000407
218	0xbb23413e	-0.0024910714
219	0xbd12b9a1	-0.03582156
220	0x3d09fb66	0.033687018
221	0x3d5b3260	0.05351484
222	0xbcdf4218	-0.027253196
223	0xbcc2a4a1	-0.023760142
224	0x3cc9114e	0.024544384
225	0xbcadf5f6	-0.021235447
226	0x3c34efca	0.011043498
227	0x3c65150a	0.013982067
228	0xbc9e8b4b	-0.01935353
229	0x3ca2977d	0.019847626
230	0x3db2ee60	0.08736873
231	0xbc0cd509	-0.008595713
232	0xbbf4bd0a	-0.0074688243
233	0xbca6238c	-0.020280622
234	0x3d132b89	0.03593019
235	0x3cc587a8	0.024112538
236	0x3d19f898	0.037590593
237	0xbb2f7b82	-0.0026776497
238	0xbb6bf37f	-0.003600329
239	0xbcd3f542	-0.025873784
240	0xbd1c1664	-0.03810729
241	0x3db872a9	0.09006245
242	0x3d5c4c14	0.05378349
243	0xbc87bd7e	-0.01656985
244	0x3ba8cb3e	0.0051511815
245	0x3cccc0f9	0.02499436
246	0x3d80b8c0	0.06285238
247	0xbd510adf	-0.051035758
248	0x3d3fed2a	0.046857037
249	0x3d687af8	0.056757897
250	0x3d94fa2c	0.07274279
251	0xbd310464	-0.043217078
252	0x3c1253ae	0.008931084
253	0xbd24787d	-0.04015397
254	0x3d3d2828	0.046180874
255	0xbcd4347b	-0.02590393

gnn.gru.weight_hh_l0 f4 [96, 32]
0	0xbce22f54	-0.027610458
1	0x3c8a8b83	0.016912227
2	0x3d1ea67a	0.038732983
3	0xbc5bbf84	-0.01341236
4	0xbc70dbd3	-0.014700848
5	0x3ac1fa33	0.0014799297
6	0xbd3e734d	-0.04649668
7	0x3b3c171a	0.0028700293
8	0x3b9b9d8c	0.0047490057
9	0x3d0f1dfe	0.034940712
10	0xbd4d09c2	-0.050058134
11	0xbca6d072	-0.020363066
12	0xbd54d89d	-0.05196439
13	0xbc98a317	-0.018632455
14	0xbd017342	-0.03160406
15	0xbd185ff8	-0.037200898
16	0xbd36bcc6	-0.044613622
17	0xbcaaeb08	-0.020864025
18	0xbd4c7655	-0.049917538
19	0x3d2bd147	0.04194763
20	0x3d16e536	0.036839686
21	0x3d4535db	0.048147064
22	0xbcc6631b	-0.024217179
23	0xbd1e4b72	-0.03864617
24	0xbd29f90a	-0.041497268
25	0x3d49debb	0.049284678
26	0xbcc6addc	-0.024252824
27	0x3d430804	0.047615066
28	0xbcc51e03	-0.024062162
29	0xbc45c6cf	-0.012071325
30	0x3b9d4333	0.0047992705
31	0x3cbad177	0.022804959
32	0xbbe2dcb1	-0.006923281
33	0x3cdea9e1	0.027180614
34	0xbbbfec79	-0.005857047
35	0xbd3b0c78	-0.045666188
36	0xbc278f5f	-0.010227053
37	0x3d1e2028	0.038604885
38	0xbd640b41	-0.055674795
39	0x3cfc34aa	0.030786831
40	0x3cfc921a	0.030831385
41	0x3d07a096	0.03311213
42	0x3d1f5aed	0.038905073
43	0x3a0e83d2	0.0005436513
44	0x3d1edcf1	0.038784925
45	0xbcf3e342	-0.02977145
46	0x3d588964	0.0528654
47	0x3bc4cd88	0.0060059465
48	0x3d38e412	0.04513938
49	0xbc8168ee	-0.015797105
50	0x3d05779d	0.032584775
51	0x3d13f49f	0.03612196
52	0x3d13dc28	0.03609863
53	0xbc853cc7	-0.016264332
54	0xbcf52d3b	-0.029928794
55	0x3da1450f	0.078745
56	0x3d631d1c	0.055447683
57	0x3c3b2e5b	0.011424626
58	0x3b8337d3	0.0040044575
59	0xbd67c961	-0.056588534
60	0x3d990e1b	0.074733935
61	0xbcfb9504	-0.030710705
62	0x3d25811d	0.040406335
63	0xbaf32178	-0.0018549403
64	0xbd5534e1	-0.052052382
65	0x3b9d5e65	0.0048025125
66	0xbd061cf4	-0.032742456
67	0xbc9b3211	-0.018944772
68	0x3c5f8e69	0.013644793
69	0x3d5f002d	0.054443527
70	0x3c23d3f2	0.009999262
71	0xbc2945eb	-0.010331611
72	0xbc3e3669	-0.011609652
73	0xbd5e2b5d	-0.054240573
74	0xbd4d3d88	-0.05010751
75	0xbbf5245c	-0.007481141
76	0xbd339778	-0.043845624
77	0xbd46d6f3	-0.048544835
78	0xba7ccbba	-0.0009643395
79	0xbc8f4ab6	-0.01749168
80	0x3d385fc0	0.04501319
81	0xbb8159d4	-0.003947476
82	0xbccceafc	-0.025014393
83	0x3d3877ac	0.045036003
84	0xbd1e69e6	-0.03867521
85	0xbc349c4f	-0.011023595
86	0x3d1d092c	0.038338825
87	0x3d250572	0.040288396
88	0xbcaa0774	-0.020755507
89	0xbd3ff36a	-0.046862997
90	0x3a116d3f	0.000554759
91	0x3cbcad72	0.023031924
92	0xbd0c724c	-0.03428869
93	0xbd587959	-0.0528501
94	0xbd55cfac	-0.052200004
95	0x3d55a5e6	0.052160166
96	0x3d088c6a	0.033337034
97	0x3cde4bb9	0.027135717
98	0x3cd14f96	0.025550645
99	0xbccdf0f0	-0.025139302
100	0x3c91398b	0.017727634
101	0xbcea3c13	-0.028593099
102	0xbcb837be	-0.022487517
103	0x39f47622	0.00046627322
104	0x3cc6f3b5	0.02428613
105	0x3cb58c47	0.022161616
106	0x3cf1cf7c	0.029517882
107	0xbc4a7f6a	-0.012359479
108	0x3d5cfdc1	0.053952936
109	0x3d37263c	0.044714198
110	0x3d0fba07	0.03508952
111	0xbc9767d2	-0.018482123
112	0x3ce04acc	0.027379416
113	0xbd18e4e3	-0.03732766
114	0x3b0b5b0a	0.002126398
115	0x3d6835fe	0.056692116
116	0x3d6bc663	0.057562243
117	0xbd00de76	-0.031462155
118	0xbd63b086	-0.055588268
119	0x3dbcc1bb	0.09216639
120	0x3c5dd52b	0.013539593
121	0x3cb604c9	0.022219079
122	0x3cf92626	0.030413698
123	0xbcf02e9d	-0.029319102
124	0xbb67bf0e	-0.003536168
125	0xbd06b409	-0.03288654
126	0xbd254c8d	-0.040356208
127	0x3c4e0db1	0.0125765065
128	0xbccf0533	-0.025271034
129	0xbca70100	-0.020386219
130	0x3d1d2c30	0.03837222
131	0xbd17517b	-0.03694294
132	0xbd4ad516	-0.04951962
133	0xbd3f202f	-0.046661552
134	0xbb2d2610	-0.0026420392
135	0xbc1d4723	-0.00959948
136	0x3d0b485c	0.034004554
137	0x3c6af32d	0.014340204
138	0xbc91021f	-0.017701207
139	0xbd1e7d3a	-0.038693644
140	0x3ccec07f	0.025238274
141	0x3d404c31	0.04694766
142	0x3d1d9777	0.038474526
143	0x3cd3aa88	0.025838152
144	0xbd4be026	-0.04977431
145	0xbcba959b	-0.022776416
146	0xbc71d702	-0.0147607345
147	0xbd218777	-0.03943583
148	0xbd1d2e68	-0.038374335
149	0x3bbd753e	0.0057817986
150	0x3d1e66d5	0.038672287
151	0x3c2771dc	0.010220017
152	0x3cb87bb2	0.02251992
153	0x3d497b6f	0.04918998
154	0x3ced6506	0.028978836
155	0xbd451e50	-0.04812461
156	0x3ca24a23	0.019810742
157	0xbb3e1944	-0.0029006759
158	0x3cfed852	0.031109009
159	0xbcf715ff	-0.030161856
160	0x3d306ba8	0.04307142
161	0x3c661ad3	0.014044481
162	0xbc45c6ac	-0.012071293
163	0xbcf2b30d	-0.029626394
164	0xbdb87185	-0.09006027
165	0xbcc0eb94	-0.023549832
166	0xbbdf0917	-0.0068065035
167	0x3db4331f	0.08798813
168	0x3ce78e1f	0.02826601
169	0x3d26ddd5	0.0407389
170	0xbcca737e	-0.024713274
171	0xbd91c1a0	-0.07117009
172	0xbcc3a379	-0.02388166
173	0x3d1afbc5	0.037837762
174	0x3d8e0e6c	0.069363445
175	0xbd095206	-0.03352549
176	0xbcd3f64e	-0.025874283
177	0x3cd81e3e	0.026381608
178	0xb991ed06	-0.0002783315
179	0x3d9a6dc0	0.075404644
180	0xbcb54cbe	-0.02213132
181	0x3c755876	0.014974704
182	0xbd8c6262	-0.068547025
183	0xbdb749aa	-0.08949597
184	0x3da52b1a	0.080648616
185	0xbd2be8dd	-0.041970123
186	0x3d6e71d7	0.058214035
187	0xbbf35be2	-0.007426725
188	0xb9a47e75	-0.00031374735
189	0xbce1a51f	-0.027544556
190	0x3dad7d0d	0.08471117
191	0xbd89be7c	-0.06725785
192	0xbd4d0bf0	-0.050060213
193	0x3c324b16	0.01088216
194	0x3d3ea14d	0.046540547
195	0x3d2b7772	0.04186196
196	0x3d51042f	0.05102938
197	0xbd248f71	-0.04017586
198	0xbd1bb6eb	-0.03801624
199	0x3d302b16	0.04300984
200	0xbcc38eeb	-0.02387186
201	0xbd485966	-0.048913382
202	0xbc2cb015	-0.010540028
203	0xbd19a23b	-0.03750823
204	0x3aa8177c	0.0012824382
205	0xbd194b86	-0.03742554
206	0xbd16f470	-0.036854208
207	0x3cf8a214	0.030350722
208	0xbd644610	-0.05573088
209	0xbcbbe927	-0.022938324
210	0x3d3e386a	0.04644052
211	0x3cb820e0	0.022476614
212	0x3d0723d4	0.032993153
213	0xbcc0caeb	-0.023534259
214	0x3cbd023c	0.023072354
215	0x3bb0256a	0.005375554
216	0x3d06e4d1	0.03293306
217	0x3d407222	0.046983846
218	0xbd1bde49	-0.038053785
219	0x3d1aa8e1	0.03775871
220	0xbcc127f7	-0.023578627
221	0xbd17fc81	-0.03710604
222	0x3d12bd01	0.03582478
223	0x3d29d46e	0.041462354
224	0xbc83592a	-0.016033728
225	0x3d03194f	0.032006558
226	0xbcc65fc3	-0.024215585
227	0x3d174309	0.036929164
228	0xbd19a3ac	-0.037509605
229	0xbd3283bb	-0.04358266
230	0xbc23b817	-0.009992621
231	0xbc8e7524	-0.017389841
232	0x3c6f9d6c	0.014624935
233	0xbd4ec78c	-0.05048327
234	0xbceaf419	-0.028680848
235	0x3c4c91cb	0.012485932
236	0xbcd1f181	-0.025627853
237	0xbce636e1	-0.02810234
238	0xbb7c9f0f	-0.0038546955
239	0x3d52a3e1	0.05142582
240	0x3b0672a8	0.0020515118
241	0x3d17a30e	0.037020735
242	0xbd23f532	-0.04002876
243	0xbcd50a35	-0.026005844
244	0xb92d24d3	-0.00016512284
245	0xbd48c242	-0.049013384
246	0x3b036cc3	0.002005384
247	0x3ccc74b5	0.024957994
248	0x3c02fda4	0.007995043
249	0x3d2f3ef1	0.042784635
250	0x3cb69a70	0.022290438
251	0xbd4f7679	-0.050650094
252	0xbcd4711a	-0.025932837
253	0xbd10b2e4	-0.035326853
254	0xbd0aafe9	-0.033859167
255	0xbcc33c4a	-0.023832459

gnn.gru.bias_ih_l0 f4 [96]
0	0xbc605933	-0.013693142
1	0x3dc7066a	0.0971802
2	0x3d78a043	0.060699712
3	0xbdbe2636	-0.09284632
4	0xbd6a406a	-0.057190336
5	0x3e24fb49	0.16111483
6	0x3d995f98	0.07488936
7	0xbdd551cd	-0.10415993
8	0x3aa5173f	0.0012595429
9	0xbcf037d4	-0.029323496
10	0x3d43e063	0.047821414
11	0xbd71f59f	-0.059072133
12	0xbc9996a0	-0.018748581
13	0x3e230bd2	0.15922478
14	0xbd0aa160	-0.033845305
15	0xbd8ea367	-0.0696476
16	0xbcde745c	-0.027155094
17	0x3db928fd	0.09041021
18	0x3d1861d8	0.037202686
19	0xbce77f8a	-0.028259058
20	0x3d2c61ef	0.042085584
21	0xbda41bdb	-0.080131255
22	0xbde09bbe	-0.109672055
23	0xbdc76264	-0.097355634
24	0x3cf1d323	0.029519623
25	0xbc020f2a	-0.007938186
26	0xbc2bd38d	-0.010487449
27	0xbd9b1e1f	-0.075741045
28	0x3d0fc1a5	0.035096783
29	0xbd4e84b5	-0.050419528
30	0x3dfdd89c	0.123948306
31	0xbbc5ffa8	-0.0060424395
32	0x3c701adc	0.014654841
33	0xbd0fc6dc	-0.035101756
34	0xbdfddde1	-0.12395836
35	0xbd235c71	-0.03988308
36	0x3d833095	0.06405751
37	0xbdbadfe9	-0.09124739
38	0x3e064bb8	0.13114822
39	0xbcaa3951	-0.020779284
40	0x3c8d66f1	0.017261
41	0xbd9c2db1	-0.076259024
42	0xbe3ff282	-0.18744853
43	0xbd8da3c1	-0.06915999
44	0xbf4e81d5	-0.8066686
45	0xbe03e48f	-0.12880157
46	0x3d2ab20b	0.0416737
47	0xbe440fb1	-0.19146611
48	0x3c3f2bdd	0.011668173
49	0xbd19bba0	-0.03753245
50	0xbdacf855	-0.08445803
51	0x3ed52e79	0.41637018
52	0xbf39e29c	-0.72611403
53	0x3a927828	0.0011174725
54	0x3dac4d63	0.08413198
55	0xbdab6b5d	-0.08370087
56	0x3d98658f	0.07441246
57	0x3f02ff1f	0.51170534
58	0x3e07bfa7	0.13256703
59	0x3dbc029d	0.09180186
60	0x3d0923ba	0.033481337
61	0xbd7b620d	-0.061372805
62	0xbdbce540	-0.092234135
63	0xbf22e6ba	-0.6363331
64	0x3d1abc33	0.037777137
65	0x3f43f0b4	0.7653916
66	0xbf401dbc	-0.7504537
67	0xbf11a5ef	-0.5689382
68	0x3e50fcd1	0.20408942
69	0xbf705ac8	-0.9388852
70	0x3f18f55d	0.59749395
71	0xbf2e5bf7	-0.6810908
72	0x3f7dda0d	0.99160844
73	0xbe9c685c	-0.3054837
74	0xbe461851	-0.19345213
75	0xbf60b489	-0.87775475
76	0x3cdb1be4	0.026746698
77	0xbf719e15	-0.9438184
78	0x3db61b66	0.088919446
79	0x3f3c797d	0.73622876
80	0xbf74f3da	-0.9568459
81	0xbf31caf3	-0.694503
82	0x3e9beccb	0.30454096
83	0xbe4feaba	-0.20304385
84	0xbe996031	-0.299562
85	0x3eda7885	0.42670074
86	0x3f275027	0.6535668
87	0x3f5fb3bc	0.8738363
88	0x3dd12dca	0.10213812
89	0x3d761f62	0.060088523
90	0x3ded363d	0.11582611
91	0x3ef28a29	0.47371033
92	0xbf3f17b2	-0.7464553
93	0xbf04a22c	-0.51809955
94	0x3f19554a	0.59895766
95	0xbe2bf1dd	-0.16791482

gnn.gru.bias_hh_l0 f4 [96]
0	0x3c47fdaa	0.012206474
1	0x3dc4e0b1	0.09613169
2	0x3db0cdc4	0.08632997
3	0xbdbfc311	-0.09363378
4	0xbda9c84c	-0.08290157
5	0x3e187cf5	0.14891417
6	0x3d98ee15	0.074672855
7	0xbddf97d0	-0.10917628
8	0xbd4475ef	-0.047964033
9	0xbc9ae275	-0.018906811
10	0x3d1ecc60	0.038769126
11	0xbd3f0b16	-0.04664143
12	0x3ce28001	0.027648928
13	0x3e1dcb3d	0.1540956
14	0xbcac7887	-0.021053566
15	0xbd8e5025	-0.0694888
16	0x3d977f17	0.07397287
17	0x3dc59c64	0.0964897
18	0x3d192c63	0.037395846
19	0x3cb504ce	0.022097018
20	0x3cd9ea15	0.026600877
21	0xbd2c1654	-0.04201348
22	0xbdbd9b84	-0.09258178
23	0xbdaabb21	-0.08336473
24	0xbbc461b2	-0.0059930915
25	0xbd94b014	-0.07260147
26	0x3cf8f1ba	0.030388702
27	0xbdbc487c	-0.09193513
28	0x3cda3321	0.026635708
29	0xbd4fde2a	-0.05074898
30	0x3d37955b	0.04482017
31	0xbc4e0fe2	-0.012577029
32	0xba9c0ab8	-0.001190505
33	0xbd4b7f84	-0.049682155
34	0xbdbc8208	-0.09204489
35	0xbd5f9ed4	-0.05459483
36	0x3db37fda	0.0876462
37	0xbdc584d7	-0.09644478
38	0x3dda2e29	0.106533356
39	0xbda879ab	-0.08226331
40	0x3d82aada	0.063802436
41	0xbe036f58	-0.12835443
42	0xbe312ff3	-0.17303447
43	0xbda1872d	-0.07887111
44	0xbf552e3f	-0.8327369
45	0xbda8bd7c	-0.08239266
46	0x3d4f7408	0.050647765
47	0xbe0ed752	-0.13949326
48	0xbbe1b840	-0.0068884194
49	0x3d001b23	0.03127588
50	0xbda16345	-0.07880262
51	0x3ee63f33	0.44970092
52	0xbf64fa55	-0.89444476
53	0xbd39d99a	-0.045373537
54	0x3dbaaee4	0.09115389
55	0xb9baa405	-0.0003559889
56	0x3d3052f7	0.04304787
57	0x3f03c4fc	0.5147245
58	0x3e49df92	0.19714192
59	0x3dbebdd0	0.093135476
60	0xbc33086d	-0.010927302
61	0xbb1e5d4e	-0.00241645
62	0xbd5f99e6	-0.05459013
63	0xbf1f2959	-0.62172467
64	0xbe1b81a2	-0.1518617
65	0x3ef34268	0.475116
66	0xbecf1df7	-0.4045255
67	0xbe939c42	-0.28830153
68	0x3d3600f7	0.044434514
69	0xbf28acff	-0.6588897
70	0x3e8be0eb	0.27320036
71	0xbec2c2df	-0.380393
72	0x3f392736	0.72325456
73	0x3d91ee7d	0.07125566
74	0x3d80d378	0.062903345
75	0xbf028f8b	-0.5100028
76	0x3e5b1dee	0.21398136
77	0xbf319b95	-0.69378024
78	0xbe25c1d5	-0.16187222
79	0x3f16d9e5	0.5892623
80	0xbf25a77d	-0.6470869
81	0xbeaab74a	-0.33342963
82	0xbd799e27	-0.06094184
83	0xbdb01a1c	-0.0859873
84	0x3e458f53	0.19292955
85	0x3e29d282	0.16584209
86	0x3ec13357	0.37734482
87	0x3f12b96f	0.573142
88	0xbe3452e0	-0.1760974
89	0xbe447fec	-0.19189423
90	0x3dc13a7a	0.09434982
91	0x3e2f6651	0.17128874
92	0xbef38c7a	-0.47568113
93	0xbdeacc8b	-0.11464795
94	0x3e6ca1c2	0.2310858
95	0xbddbd35f	-0.10733675
