1-GNNs/result/6108_AR_NURA_GAT_0920/12/model.pth (torch, 282851 bytes, 17 tensors)

gnn.gnn_layers.0.gat_conv.attn_l f4 [1, 6, 32]
0	0xbbc3f24f	-0.005979813
1	0xbd8280c7	-0.063722186
2	0x3c4b5dde	0.012412516
3	0x3d997930	0.07493818
4	0x3cf9ade4	0.030478425
5	0x3d95a1e3	0.07306268
6	0x3e500b55	0.20316823
7	0x3d5cdd9b	0.053922277
8	0x3dfc6c53	0.12325349
9	0x3c99c335	0.01876984
10	0x3d79ef8b	0.06101946
11	0x3d19b395	0.03752478
12	0x3e2c4afd	0.16825481
13	0xbdbceade	-0.09224485
14	0xbd2f0642	-0.042730577
15	0x3d01b3cc	0.03166561
16	0x3da5e1a0	0.08099675
17	0xbcf7bdc8	-0.030241862
18	0x3e1188f2	0.14212397
19	0xbe1d7fc0	-0.15380764
20	0x3d4b6e75	0.049665887
21	0x3d9ff5a0	0.07810521
22	0xbba8526d	-0.005136779
23	0xbd95270a	-0.07282837
24	0x3d63a055	0.055572826
25	0x3d3cf211	0.04612929
26	0x3d129a35	0.035791595
27	0xbd233e12	-0.039854117
28	0x3d075981	0.033044342
29	0x3d8cd0ae	0.0687574
30	0x3d126d91	0.035749022
31	0x3d633cb7	0.055477824
32	0x3cdb96d9	0.026805328
33	0x3d2996bb	0.041403513
34	0x3cd263b0	0.0256823
35	0xbcee3c4e	-0.02908149
36	0x3dc2aa48	0.09505135
37	0x3dd495bd	0.10380123
38	0x3df8e912	0.1215383
39	0x3c079dbb	0.008277352
40	0x3d8333a0	0.06406331
41	0x3d1a024b	0.037599843
42	0xbcec712e	-0.028862562
43	0x3ced1d52	0.028944645
44	0x3e3355ef	0.1751325
45	0xbc8f0c08	-0.017461792
46	0xbc8d7542	-0.017267827
47	0x3e06fd9f	0.13182686
48	0x3c706fe6	0.014675116
49	0xbd031e72	-0.032011457
50	0xbdedd233	-0.11612358
51	0xbd222c01	-0.039592747
52	0x3d56c10f	0.05243021
53	0x3d19dd2b	0.037564438
54	0x3d5a3ff3	0.053283643
55	0xbcefbfd7	-0.029266281
56	0x3da88889	0.08229167
57	0xbd6fddf6	-0.058561288
58	0x3d47608e	0.048676066
59	0x3d8b8a0d	0.068134405
60	0xbd725707	-0.059165027
61	0xbdc93bed	-0.09825883
62	0xbc7dc41f	-0.015488653
63	0x3d114105	0.035462398
64	0xbef7e1cd	-0.4841446
65	0xbdf4c007	-0.11950689
66	0x3e080e2d	0.13286658
67	0xbd9b9b22	-0.075979486
68	0xbea12531	-0.31473687
69	0xbe4d7d1a	-0.20067254
70	0x3e657f33	0.22411804
71	0xbecd8156	-0.40137738
72	0xbdea72d9	-0.11447687
73	0x3e84ae41	0.25914195
74	0x3df186cd	0.11793289
75	0x3db0f063	0.086396
76	0xbe8336fb	-0.25627884
77	0x3e3d750a	0.18501678
78	0xbe52cce6	-0.20585975
79	0x3df231cd	0.11825905
80	0x3da91b76	0.08257191
81	0xbe1c3b7a	-0.15257064
82	0xbda11db0	-0.078669906
83	0x3dc04540	0.093882084
84	0xbd2c0272	-0.04199452
85	0xbd993dc4	-0.07482484
86	0xbe7be3cb	-0.24598615
87	0xbec52240	-0.38502693
88	0xbddbc688	-0.10731226
89	0xbe327b98	-0.1742996
90	0x3e990c5d	0.29892245
91	0xbe9cae8a	-0.30601913
92	0x3efdeff5	0.49597135
93	0xbdcfcbc7	-0.10146289
94	0xbcca6c65	-0.02470989
95	0xbe4a631b	-0.19764368
96	0xbd900d07	-0.07033735
97	0xbc29b21c	-0.010357406
98	0xbe63766a	-0.2221314
99	0x3e17790f	0.14792274
100	0xbec6864f	-0.38774344
101	0x3df610f4	0.12014952
102	0xbd4b603f	-0.049652334
103	0xbe002d96	-0.1251739
104	0x3dca3a19	0.098743625
105	0x3e32abae	0.17448303
106	0xbd94f252	-0.072727814
107	0xbddfbcd2	-0.109246865
108	0xbe8d5659	-0.2760494
109	0xbdba8fb6	-0.09109442
110	0xbd6807e1	-0.05664814
111	0x3e0a35e8	0.13497126
112	0xbe7555cc	-0.2395851
113	0x3e33a86a	0.17544714
114	0x3e8f2da9	0.27964523
115	0xbd8a63dc	-0.06757328
116	0x3b8a59df	0.0042221393
117	0xbeb4535d	-0.3521985
118	0x3daec156	0.0853297
119	0xbe2bc535	-0.16774447
120	0x3df5e155	0.12005869
121	0xbe5e0c53	-0.21684389
122	0xbdbf9abd	-0.09355686
123	0xbe102c21	-0.14079334
124	0x3ce8f611	0.028437646
125	0xbd81bb4e	-0.06334554
126	0x3e40fb81	0.18845941
127	0xbdeac6f0	-0.114637256
128	0x3ea30d8e	0.3184628
129	0xbdc0159a	-0.0937912
130	0xbddc0035	-0.10742227
131	0xbe199767	-0.14999162
132	0xbe968851	-0.29400876
133	0xbe91e27c	-0.28493106
134	0x3e9e5ec3	0.30931672
135	0xbbc455fd	-0.005991696
136	0xbd792a9b	-0.060831647
137	0x3c822900	0.015888691
138	0xbea75dd5	-0.32688776
139	0xbe7f1058	-0.24908578
140	0x3e6dc282	0.2321873
141	0x3e05ba2e	0.13059303
142	0xbe12c380	-0.1433239
143	0xbe0a5c0d	-0.13511677
144	0x3e25bcb5	0.16185267
145	0x3ee401e7	0.445327
146	0xbe94ffd2	-0.29101425
147	0x3e813b0e	0.25240368
148	0xbe88329e	-0.26601118
149	0x3dc0d6d2	0.09415974
150	0xbe58c729	-0.21169724
151	0x3d7113ab	0.058856647
152	0xbe93afec	-0.28845155
153	0xbe019d9d	-0.12657781
154	0xbe564371	-0.20924164
155	0x3e4a8c26	0.19780025
156	0x3ea4872e	0.32134384
157	0xbe31d285	-0.17365463
158	0xbe939410	-0.288239
159	0x3e6ac0fb	0.22925179
160	0xbdf4500c	-0.1192933
161	0x3e0eb7f9	0.13937367
162	0xbe3e1e44	-0.18566233
163	0x3d09fcb0	0.033688247
164	0x3cb90b14	0.02258829
165	0x3e29adf8	0.1657027
166	0x3c73aa3d	0.014872131
167	0xbd31410f	-0.043274935
168	0xbd23138c	-0.039813563
169	0x3df631cc	0.12021217
170	0xbd076786	-0.033057712
171	0x3d114dd2	0.035474606
172	0xbe012038	-0.12609947
173	0xbcf4f5aa	-0.029902298
174	0xbd98be14	-0.074581295
175	0xbd1546e6	-0.036444567
176	0xbeb00715	-0.34380403
177	0xbc98c73a	-0.018649686
178	0x3e394022	0.18090871
179	0x3a9ce6f9	0.0011970691
180	0x3cc8de62	0.024520103
181	0xbc8cf506	-0.01720668
182	0xbbdaac49	-0.00667337
183	0xbdbfdd57	-0.09368389
184	0xbd0bf3eb	-0.034168165
185	0x3cb5e324	0.022203036
186	0x3de0ce3f	0.10976838
187	0xbd7b2946	-0.06131866
188	0x3d9ab98b	0.07554921
189	0xbda7e24c	-0.081974596
190	0x3ddf49b7	0.10902732
191	0xbdd09e41	-0.101864345

gnn.gnn_layers.0.gat_conv.attn_r f4 [1, 6, 32]
0	0x3c3a2197	0.0113605475
1	0x3b9ebb6a	0.004844119
2	0xbd8af6ed	-0.067853786
3	0xbc144e44	-0.009051863
4	0xbd3352fa	-0.043780304
5	0xbbba3600	-0.005682707
6	0xbc81e8bd	-0.015858049
7	0xbd294e67	-0.041334536
8	0x3d8ff0a4	0.070283204
9	0xbd283b2e	-0.041072063
10	0xbcbb9928	-0.022900179
11	0x3d0bdc84	0.034145847
12	0x3dfa78e7	0.122300915
13	0xbd4a9f08	-0.04946807
14	0xbd7ee0fc	-0.06222628
15	0x3d2ef0e1	0.04271019
16	0xbb37e417	-0.0028059536
17	0x3db40240	0.08789492
18	0xbd1a84e9	-0.03772441
19	0x3d634238	0.055483073
20	0xbc57703d	-0.013149318
21	0xbd933dbe	-0.07189511
22	0x3dab7803	0.083725
23	0x3c771368	0.01508031
24	0xbd9b9110	-0.07596028
25	0xbd224c4f	-0.039623555
26	0x3cc96776	0.024585467
27	0x3d5667e3	0.052345168
28	0xbd627f06	-0.05529692
29	0xbd23c639	-0.03998396
30	0xbc7f667b	-0.015588398
31	0xbc8869b7	-0.016651971
32	0x3d1231b8	0.035691947
33	0x3aefa75b	0.0018284129
34	0xbda1371f	-0.07871842
35	0x3d0cf751	0.034415547
36	0xbd888a7b	-0.06667038
37	0xbcf2c855	-0.029636541
38	0xbcc0270e	-0.023456123
39	0xbcccce91	-0.025000842
40	0xbd54bfc2	-0.051940687
41	0x3d62bdfe	0.055356972
42	0xbc40a691	-0.0117584625
43	0xbca2cdd6	-0.01987354
44	0x3b879443	0.004137547
45	0x3c86362c	0.016383253
46	0xbca3fdb2	-0.020018432
47	0xbdf7bf33	-0.12097015
48	0xbc9fde8e	-0.019515302
49	0x3cc385a5	0.023867438
50	0x3b5d3429	0.0033753014
51	0xbdb6de9e	-0.089291796
52	0xbd54fb40	-0.051997423
53	0xbd09754f	-0.03355914
54	0xbd4dcbf9	-0.05024335
55	0xbdb1f041	-0.08688403
56	0xbd5a2dd9	-0.05326638
57	0x3cdee9f4	0.027211167
58	0xbd18f46f	-0.037342485
59	0x3d055713	0.032553744
60	0xbd2ae6e0	-0.041724086
61	0x3c88d928	0.01670511
62	0x3d1f0558	0.038823456
63	0x3d2f812b	0.042847794
64	0xbd65d843	-0.056114446
65	0xbd5487fe	-0.051887505
66	0x3d7bcd04	0.061474815
67	0xbc5fd908	-0.013662584
68	0xbcbf1a41	-0.023327949
69	0xbd8567b8	-0.065139234
70	0x3e08fc06	0.1337739
71	0xbb5d0af2	-0.0033728448
72	0x3d0131bc	0.03154157
73	0x3d676cb8	0.056500167
74	0x3d7e5e9c	0.062101945
75	0x3da43378	0.080176294
76	0xbda32b04	-0.07967189
77	0x3d93eef6	0.072233126
78	0xbbe2280c	-0.0069017466
79	0x3d750fb0	0.059829414
80	0x3dc320cd	0.09527741
81	0xbd252472	-0.04031796
82	0xba8b1594	-0.0010611289
83	0x3d937f10	0.072019696
84	0xbcfbfb17	-0.030759377
85	0x3d986d15	0.07442681
86	0xbb7bec81	-0.0038440528
87	0xbc34975e	-0.011022417
88	0xbd9cf988	-0.07664782
89	0xbe3b10c6	-0.18268117
90	0xbd0b2d11	-0.033978526
91	0xbd610ec6	-0.05494573
92	0xbcbfe35d	-0.023423845
93	0x3d408f49	0.047011647
94	0x3c195c69	0.009360411
95	0xbd8b8a8a	-0.068135336
96	0xbd9409e2	-0.072284475
97	0x3d255766	0.040366553
98	0xbe9043f0	-0.28176832
99	0x3e4eaec5	0.20183857
100	0xbe4a55a6	-0.19759235
101	0xbe1e0088	-0.1542989
102	0xbd8caca6	-0.068688676
103	0xbe89cd0d	-0.26914254
104	0x3dd8ba23	0.10582378
105	0x3e3d635e	0.18494937
106	0xbd9e1e2b	-0.07720598
107	0xbd954e01	-0.07290269
108	0xbe429525	-0.19002207
109	0xbe95bb29	-0.29244354
110	0xbdb6cf5d	-0.0892627
111	0x3c32dee3	0.010917398
112	0xbe8acd15	-0.2710959
113	0x3e574455	0.2102216
114	0x3e56d7c2	0.20980743
115	0xbd40d738	-0.04708025
116	0xbe79f790	-0.24410844
117	0xbe823ac3	-0.25435457
118	0x3dbdd620	0.09269357
119	0xbdbe2d43	-0.09285977
120	0x3e127248	0.14301407
121	0xbef4e6c0	-0.47832298
122	0xbddf7b64	-0.10912207
123	0xbe4ac056	-0.19799933
124	0xbdd4b6b7	-0.103864126
125	0xbe99ab68	-0.30013585
126	0x3e2c106d	0.16803141
127	0xbe7e428f	-0.24830078
128	0x3dfc3f7e	0.12316798
129	0xbc10ccad	-0.008837861
130	0x3d3c412d	0.045960594
131	0xbd8afad8	-0.06786126
132	0xbde9de88	-0.114193976
133	0x3d9776dd	0.07395718
134	0x3ca86912	0.020557914
135	0xbd5b9469	-0.05360833
136	0xbd123f74	-0.035705045
137	0x3dc12258	0.09430379
138	0x3daf7dc5	0.085689105
139	0x3da3d5c6	0.079997584
140	0x3bc7cd76	0.006097491
141	0xbc35f5e7	-0.011105991
142	0xbd208df8	-0.039197892
143	0x3d3ad192	0.045610018
144	0x3e523ded	0.20531435
145	0xbb1830ab	-0.0023222368
146	0x3c552fa9	0.013011851
147	0xbda7c06c	-0.081909984
148	0x3b9ceac6	0.0047887294
149	0x3e6367e9	0.22207607
150	0x3d4f90b2	0.0506751
151	0xbce8defc	-0.02842664
152	0x3d88b6eb	0.06675514
153	0xbd681413	-0.05665977
154	0x3db45bce	0.08806573
155	0xbb89bea6	-0.0042036353
156	0xbdfdd3ce	-0.12393914
157	0x3d5c52a5	0.053789753
158	0x3d16c7a4	0.036811486
159	0x3de00ffb	0.10940548
160	0x3d23f35a	0.040027
161	0xbe596593	-0.21230154
162	0x3d11fd2a	0.035641827
163	0xbd5bd841	-0.053673033
164	0xbd9ddfc7	-0.07708698
165	0x3d7dd1d6	0.061967693
166	0x3cafba55	0.021451155
167	0xbdcaf3ff	-0.0990982
168	0x3c4d29ac	0.012522142
169	0x3ce52dcf	0.027975945
170	0x3d5ea303	0.05435468
171	0x3d53ecb4	0.05173941
172	0xbc831bed	-0.016004527
173	0x3c6616e1	0.014043541
174	0xbda92f65	-0.08260993
175	0xbe053d32	-0.13011625
176	0x3d9833d4	0.074317604
177	0xbd8e408f	-0.06945907
178	0xbdfcfe6d	-0.12353215
179	0xbb665469	-0.0035145527
180	0xba3ae9e5	-0.000713019
181	0x3d995c8a	0.074883536
182	0x3c1158d2	0.008871274
183	0x3ca667dd	0.020313198
184	0x3d8aeb3f	0.06783151
185	0xbdceb3e7	-0.100929074
186	0xbd79b59d	-0.060964216
187	0x3d2843c0	0.041080236
188	0xbd3d7b72	-0.046260305
189	0x3d8744e6	0.06604938
190	0xbe6d48de	-0.23172328
191	0x3d201564	0.0390829

gnn.gnn_layers.0.gat_conv.bias f4 [192]
0	0x3c6154c4	0.01375312
1	0x3cb1046b	0.021608552
2	0x3e3bc5bf	0.18337153
3	0xbd81bf00	-0.063352585
4	0x3e8732e9	0.2640603
5	0xbe427ebf	-0.18993662
6	0xbc7a01fa	-0.01525926
7	0xbe606c4e	-0.21916315
8	0xbdc91d3e	-0.09820031
9	0x3d4803d3	0.048831772
10	0xbdbfd249	-0.093662806
11	0xbc4987f3	-0.012300479
12	0x3e092724	0.13393837
13	0xbde91177	-0.11380284
14	0xbeb08bd5	-0.34481683
15	0x3c844fbb	0.0161513
16	0x3ed52e62	0.4163695
17	0xbe2d162e	-0.16902992
18	0xbe504252	-0.20337799
19	0x3e0654b2	0.13118246
20	0xbe8b9b4a	-0.27266914
21	0x3eb77aef	0.35835978
22	0xbdab8dce	-0.083766565
23	0x3dd00441	0.10157061
24	0x3ec7ce35	0.3902451
25	0xbd8f598f	-0.06999504
26	0x3d4cc8c1	0.04999614
27	0x3df1d116	0.11807458
28	0xbe78b625	-0.24288233
29	0x3d1524df	0.036412116
30	0xbe69b493	-0.2282279
31	0xbd646967	-0.055764582
32	0xbe04d695	-0.12972482
33	0xbe480cdf	-0.1953616
34	0xbeb69ce3	-0.3566657
35	0xbe960346	-0.29299372
36	0x3a223252	0.0006187308
37	0xbe9826e2	-0.29717165
38	0xbd0d3548	-0.03447464
39	0x3b0807e3	0.0020756654
40	0xbde486fe	-0.1115856
41	0xbde98cc7	-0.11403804
42	0xbdb18aba	-0.08669038
43	0x3de8a000	0.113586426
44	0x3e0cba1e	0.13742873
45	0xbd25b6c1	-0.04045749
46	0xbe8a9cc0	-0.27072716
47	0xbce66fc8	-0.028129473
48	0xbdc3f3bd	-0.09567974
49	0xbe5f9001	-0.21832277
50	0x3d57a3f6	0.0526466
51	0x3d4d07a0	0.0500561
52	0x3eddd2f7	0.43325016
53	0xbd03ff62	-0.032225974
54	0xbca1c2a2	-0.019746128
55	0x3d19df34	0.03756638
56	0xbd42a272	-0.0475182
57	0xbe85a249	-0.26100376
58	0xbe66c3cb	-0.22535627
59	0x3d46a4e9	0.048497114
60	0x3e76d410	0.24104333
61	0xbce7c666	-0.028292846
62	0xbbf8aaa2	-0.0075887004
63	0xbebfd7ac	-0.37469232
64	0x3e123acc	0.14280242
65	0xbd9e4681	-0.07728291
66	0x3e3fb809	0.18722548
67	0xbe4bb2fe	-0.19892499
68	0x3c7cec64	0.015437219
69	0xbdb3f558	-0.0878703
70	0x3df80df7	0.121120386
71	0x3d5e514f	0.05427676
72	0xbdb4a74d	-0.088209726
73	0x3dac4746	0.08412032
74	0xbe58dc56	-0.21177801
75	0x3c68df19	0.014213347
76	0xbe2861d9	-0.16443576
77	0x3eb1e2e2	0.3474341
78	0xbd655c60	-0.0559963
79	0xbc820760	-0.015872657
80	0x3c89f986	0.016842615
81	0xbd43c722	-0.04779733
82	0xbe086203	-0.13318639
83	0x3e554e11	0.20830561
84	0xbeb03398	-0.34414363
85	0xbe23837b	-0.15968125
86	0x3df67157	0.120333366
87	0xbd8ff2ac	-0.07028708
88	0xbda3f2f1	-0.08005322
89	0xbebb5ff3	-0.3659664
90	0xbea1afce	-0.3157944
91	0xbdfb44f8	-0.12269014
92	0xbdbd1a5b	-0.092335425
93	0x3ec0ce22	0.37657267
94	0xbdd141d7	-0.10217636
95	0xbe229dc7	-0.158805
96	0x3efe6546	0.4968664
97	0xbe04029d	-0.12891622
98	0xbd353533	-0.044240188
99	0xbee7f747	-0.45305845
100	0x3e816866	0.25274962
101	0x3e4ac1f5	0.19800551
102	0xbdd32e14	-0.10311523
103	0x3e072b32	0.13200071
104	0xbe8bc0d3	-0.2729555
105	0xbd4d9ad2	-0.050196476
106	0xbe282978	-0.16422069
107	0xba8e8496	-0.0010873254
108	0x3cb6e9b1	0.02232823
109	0x3c3d4534	0.011552144
110	0xbd58fc8e	-0.05297523
111	0xbde4c166	-0.111697
112	0x3e503016	0.20330843
113	0xbee04c4f	-0.4380822
114	0xbd17bb28	-0.03704372
115	0x3e6e2efb	0.23260109
116	0xbdfdc1d5	-0.12390486
117	0x3e0fd5b4	0.14046365
118	0xbe51d238	-0.20490348
119	0x3e9b6fe2	0.30358797
120	0x3d286bc1	0.041118387
121	0x3e04fd48	0.12987244
122	0xbc80f9a0	-0.01574403
123	0x3e29d508	0.16585171
124	0xbd8d410a	-0.06897171
125	0x3d60ecb3	0.054913234
126	0x3d8d876b	0.069105946
127	0x3e5fbccd	0.21849366
128	0xbd0e3510	-0.034718573
129	0xbd82e3b1	-0.06391085
130	0x3d831435	0.064003386
131	0xbe2f6bed	-0.17131014
132	0x3e893d27	0.26804468
133	0x3e094510	0.13405252
134	0x3e11f10a	0.14252105
135	0xbe479ad3	-0.19492655
136	0x3e561422	0.20906118
137	0x3e760721	0.24026157
138	0x3d907cbf	0.070550434
139	0x3da5da0a	0.08098228
140	0x3daceff3	0.08444204
141	0x3e45d099	0.19317855
142	0xbe06d873	-0.13168506
143	0x3e440835	0.19143756
144	0x3e82b13f	0.25525853
145	0xbe83a12b	-0.257089
146	0xbe06ab22	-0.1315122
147	0x3e88ecb8	0.26743102
148	0x3e1b19b7	0.15146528
149	0x3e6d95f7	0.23201738
150	0x3a01b467	0.00049478415
151	0x3cc2138c	0.023690961
152	0x3c69cb75	0.014269699
153	0xbe8dd2f1	-0.27699998
154	0x3e806c6f	0.25082728
155	0xbd0034e7	-0.03130045
156	0xbea1807c	-0.31543338
157	0x3c518bb2	0.012789654
158	0xbd78741a	-0.060657598
159	0xbe634ee0	-0.22198057
160	0x3c7c3d9f	0.015395551
161	0xbec26898	-0.37970424
162	0xbd667f73	-0.05627389
163	0xbea4c155	-0.3217875
164	0xbe5e62f1	-0.2171743
165	0x3e90d225	0.28285328
166	0x3d2e45e1	0.04254711
167	0xbe632525	-0.22182138
168	0x3af5d789	0.0018756251
169	0x3dc0827c	0.09399888
170	0x3e219be7	0.15782128
171	0x3d8bf26a	0.06833346
172	0xbd9993fb	-0.07498928
173	0xbd890190	-0.06689751
174	0xbe421c13	-0.18956022
175	0xbe831bb4	-0.25607073
176	0x3d142f39	0.036177848
177	0xbea10cae	-0.31454986
178	0xbe49c197	-0.19702755
179	0xbb773ea4	-0.0037726546
180	0xbd3311c1	-0.043718103
181	0x3e9f7cd7	0.31149933
182	0x3d1a5d6c	0.03768675
183	0xbdeda04f	-0.11602842
184	0x3e2c28fb	0.16812508
185	0xbe92e36e	-0.2868914
186	0xbe4fe0a3	-0.20300536
187	0x3c59b162	0.01328692
188	0xbbf9d91d	-0.007624759
189	0x3e0c6a08	0.13712323
190	0xbed034fe	-0.4066543
191	0x3d15056c	0.036382124

gnn.gnn_layers.0.gat_conv.fc.weight f4 [192, 74]
0	0x3d3bc138	0.045838565
1	0xbcf13c5b	-0.029447725
2	0xbcc5e827	-0.02415855
3	0x3cb0d96d	0.021588052
4	0xbc5b0607	-0.013368136
5	0x39ee92a4	0.00045504153
6	0xbc00d17f	-0.007862448
7	0x3d3ede08	0.046598464
8	0x3d0dee95	0.034651358
9	0x3918324a	0.00014514584
10	0x3b08f16f	0.0020895859
11	0x3a2a2ffb	0.0006492135
12	0x3a155997	0.0005697249
13	0x3b068d03	0.0020530827
14	0xba99149a	-0.0011679113
15	0x3b9f3d45	0.004859599
16	0x3abd80c1	0.0014457927
17	0x39db902f	0.0004187836
18	0x397909be	0.0002375012
19	0xba4e8096	-0.0007877437
20	0x3a83a7e3	0.0010044541
21	0xbb069b8e	-0.0020539495
22	0x3a97cba0	0.0011581071
23	0x3aa8e0eb	0.0012884414
24	0xb806d785	-3.2148808e-05
25	0xb9f62c67	-0.0004695386
26	0x39f51c64	0.00046751194
27	0xba9bb74d	-0.0011880189
28	0x3ac495ea	0.0014998291
29	0x3ac510d0	0.0015034918
30	0xba30fab6	-0.0006751226
31	0x3a8fb2b8	0.0010963297
32	0x3a451b9a	0.00075190666
33	0xb940500d	-0.00018340368
34	0x3a9b3140	0.0011840239
35	0xba760b78	-0.0009385864
36	0x3a5c5508	0.00084050046
37	0x397f4d7e	0.00024347563
38	0x3b245177	0.002507297
39	0xb9b9332b	-0.00035324073
40	0xb96f1ff7	-0.00022804724
41	0x3888ae22	6.51742e-05
42	0x39f84481	0.00047353285
43	0xbac1c356	-0.0014782946
44	0x3cc9a6b5	0.024615625
45	0x3ce9d3ca	0.028543372
46	0x3bf06a1a	0.007336867
47	0xbc4a3d0e	-0.012343658
48	0x3a276e8e	0.00063870184
49	0x3a138d1b	0.00056286313
50	0xba817ae0	-0.0009878539
51	0x3ae9a791	0.0017826428
52	0xbb5bdaff	-0.003354728
53	0x39de15fe	0.00042359525
54	0x3c64858f	0.0139478585
55	0xbd4494aa	-0.04799334
56	0x3d275247	0.04084995
57	0x3d3a6553	0.045506787
58	0x3a268ae4	0.0006353094
59	0x3a2266b1	0.0006195112
60	0xbae60476	-0.0017548937
61	0xbce6e598	-0.02818565
62	0xb9ab5c67	-0.00032684507
63	0x3c234b14	0.0099666305
64	0xbc8bfab4	-0.017087318
65	0x3df695f3	0.12040319
66	0x3a37e637	0.00070152007
67	0xba03444b	-0.000500743
68	0xbc3b0914	-0.011415739
69	0x39ffff07	0.000488274
70	0xbc3d3823	-0.011549029
71	0x3d490c9e	0.0490843
72	0x3d229112	0.03968913
73	0x39f6d690	0.00047080638
74	0x3dc20d0c	0.09475145
75	0xbd31b861	-0.043388728
76	0xbda72a13	-0.08162322
77	0xbbfd3f68	-0.007728506
78	0x3d28e09f	0.04122984
79	0x3a395403	0.00070697087
80	0xbd16ed30	-0.036847293
81	0xbdb40d17	-0.08791559
82	0xbd49b916	-0.049248777
83	0xba87bc13	-0.0010355733
84	0x3917f2b0	0.0001449089
85	0x38eb8d42	0.000112319845
86	0x3a0eeba3	0.0005451983
87	0x3a645498	0.0008710115
88	0x3b18bde5	0.0023306545
89	0xbcb7e97f	-0.022450207
90	0x3b545589	0.0032399616
91	0xbaaca0b2	-0.001317045
92	0xbaa4d334	-0.001257515
93	0x39c1b707	0.00036948195
94	0xbad32b7a	-0.001611098
95	0x3a2c838a	0.000658088
96	0x3a64e900	0.00087322295
97	0xbaebf868	-0.0018003108
98	0x3a1bec4c	0.0005947992
99	0x3a400727	0.00073252845
100	0x38e9692d	0.00011129896
101	0xba072e08	-0.00051567005
102	0x3b3c1c65	0.0028703448
103	0xba0ef630	-0.0005453555
104	0xb9034bf1	-0.00012521424
105	0x3aae2e76	0.0013288993
106	0xb8782ae3	-5.916775e-05
107	0xbb14a1d3	-0.0022679463
108	0x3865b11e	5.4762808e-05
109	0x3b3c8756	0.002876719
110	0x3993a82f	0.0002816333
111	0xbab41de5	-0.001374182
112	0x3a0599d2	0.00050964684
113	0xb9a4c972	-0.00031430606
114	0xb9ae5102	-0.00033248222
115	0x3a3ad0d9	0.00071264576
116	0x3a99f2df	0.0011745355
117	0x3a883681	0.001039222
118	0xbcd91155	-0.026497522
119	0x3da072a1	0.07834364
120	0xbe5d4a9a	-0.2161049
121	0x3ce621ea	0.028092343
122	0x39725f7c	0.00023114489
123	0xba147075	-0.00056625094
124	0xb808c671	-3.260974e-05
125	0x3a77a6bf	0.00094471494
126	0x39104e8a	0.00013762168
127	0xb9d7e890	-0.00041181268
128	0xbd8f69f4	-0.07002631
129	0x3d841548	0.064493716
130	0x3cfd3ff1	0.030914279
131	0xbe151bfb	-0.14561455
132	0xba3b100f	-0.0007135877
133	0xb9c7c74b	-0.00038104723
134	0x3b00e33a	0.0019666688
135	0x3cae90c9	0.021309273
136	0xb8d274e1	-0.00010035351
137	0x3d7004e1	0.058598403
138	0xbd1707ff	-0.03687286
139	0x3e23026a	0.1591889
140	0xba455381	-0.00075273967
141	0xba5c4788	-0.0008402993
142	0x3d631586	0.05544045
143	0xbd7e47e7	-0.06208029
144	0x3d731633	0.059347343
145	0x3d56ae4f	0.052412327
146	0xbe1ea4b5	-0.15492518
147	0xba1bd29d	-0.00059441646
148	0x3cb758b2	0.02238116
149	0x3e09b50f	0.13447975
150	0x3e113b7c	0.14182848
151	0xbb89f5dc	-0.004210217
152	0xbdffa550	-0.12482703
153	0xba875a84	-0.0010326658
154	0x3cccf9ef	0.025021521
155	0x3cb9440c	0.022615455
156	0x3d75a2c2	0.05996967
157	0xb9f1feb8	-0.00046156882
158	0xba920ea9	-0.0011143285
159	0x3b163d48	0.002292471
160	0x3a9e4310	0.001207443
161	0x3886f6a5	6.435559e-05
162	0x397fbed0	0.00024389778
163	0xbbb51867	-0.0055265906
164	0x3a944e02	0.0011314752
165	0x3a4284ff	0.00074203307
166	0xba34de89	-0.00068996154
167	0xba8eb539	-0.0010887749
168	0xbaac2172	-0.0013132526
169	0xb95ac31d	-0.00020862785
170	0xbb1ce93f	-0.0023942736
171	0xbaf78616	-0.0018884565
172	0x39130f26	0.00014024656
173	0x3ac8301d	0.0015273128
174	0xb9fc514b	-0.00048125754
175	0x3ab7029c	0.001396257
176	0xba625a2a	-0.00086346513
177	0xba0e8541	-0.00054367265
178	0x3a81f6b6	0.0009915445
179	0xb9732671	-0.00023188606
180	0x3996814a	0.00028706557
181	0xb9b24d8b	-0.0003400858
182	0x39c69661	0.00037877544
183	0x3a35b81e	0.00069320376
184	0x3a1750fb	0.000577226
185	0x3a2a3e9e	0.0006494316
186	0xb9cb89f7	-0.0003882197
187	0xb99cd7a6	-0.0002991531
188	0x3a92cd09	0.0011200021
189	0x3aa5162b	0.0012595108
190	0xba711128	-0.0009195977
191	0x3a593ee1	0.0008287263
192	0x3ceb2da8	0.028708294
193	0x3d62bbc6	0.055354856
194	0x3e5af694	0.21383125
195	0xbd79e8ff	-0.061013218
196	0x3a5eaacd	0.0008494079
197	0x3a4e9f0c	0.0007881976
198	0xb9cb28eb	-0.00038749664
199	0x39b21e0c	0.00033973192
200	0xbacb7437	-0.0015522306
201	0xbabbff95	-0.0014343137
202	0x3c92866c	0.017886363
203	0x3cf7c832	0.030246828
204	0x3d2a79ee	0.041620187
205	0xbceae47f	-0.028673409
206	0x3a1c7ac0	0.0005969219
207	0xba970af1	-0.0011523647
208	0x3ac57236	0.0015063945
209	0xbcd895d3	-0.02643863
210	0xba5b34ff	-0.0008362084
211	0x3dc7c978	0.09755224
212	0x3e5f25cc	0.21791762
213	0xbca98c61	-0.02069682
214	0xb994728d	-0.00028314107
215	0x39cdc802	0.00039249664
216	0x3d64c5d3	0.055852722
217	0xbb535e8d	-0.0032252402
218	0x3d1166b2	0.03549833
219	0x3d2ced9b	0.042218786
220	0xbc4e4303	-0.012589219
221	0x3a951420	0.0011373796
222	0x3d437c8c	0.0477262
223	0xbe07e71f	-0.1327176
224	0xbda705d3	-0.08155408
225	0xbc00a750	-0.00785239
226	0x3da857e2	0.08219887
227	0xbaa50618	-0.0012590317
228	0x3ce36d31	0.027762027
229	0xbb95d3ce	-0.004572368
230	0xb8613a7a	-5.369864e-05
231	0x3a7d9630	0.0009673564
232	0x3ad1727e	0.0015979556
233	0xbacea8db	-0.0015766876
234	0xbb3c912c	-0.0028773053
235	0x3a5e835d	0.00084882026
236	0x3a1da2c0	0.00060133263
237	0xb9b4cb5c	-0.0003448379
238	0xb933b37f	-0.00017137638
239	0x3ac62df2	0.0015119894
240	0xba8603d6	-0.0010224532
241	0x3a7759b4	0.0009435669
242	0xbac272b6	-0.0014835212
243	0x3a5ba88a	0.0008379301
244	0x3a128d76	0.00055905373
245	0xb84a5ff3	-4.8249913e-05
246	0x3a8ffe7e	0.0010985879
247	0x399d1d71	0.0002996731
248	0x3a63e47f	0.00086934114
249	0xba3b520c	-0.000714571
250	0x39e89ae2	0.00044365885
251	0xbb092872	-0.0020928648
252	0x39dbde9e	0.00041936798
253	0x390256cc	0.000124301
254	0x398d1f15	0.00026916774
255	0xbac3f9a4	-0.0014951718

gnn.gnn_layers.0.gat_conv.res_fc.weight f4 [192, 74]
0	0xbc87ddee	-0.016585317
1	0x3cf0dc14	0.029401816
2	0xbca6d9f1	-0.020367594
3	0x3c84165d	0.016123945
4	0x3cd2e34b	0.025743147
5	0x399d0a3f	0.00029953007
6	0x3cbcdaf1	0.023053618
7	0x3dbed3ec	0.09317765
8	0x3d46b1af	0.048509296
9	0xba367c07	-0.00069612305
10	0x3a2d0bdd	0.0006601194
11	0xba9e21d2	-0.0012064523
12	0x3a8a7e0e	0.0010566132
13	0x3a9454a8	0.0011316733
14	0x3a40843c	0.0007343923
15	0x3c0f5d32	0.008750247
16	0x3a852338	0.0010157591
17	0x39def1fc	0.00042523432
18	0x3a7a035a	0.00095372426
19	0x3ae944b8	0.0017796969
20	0xb9cc5d74	-0.0003897954
21	0x3a662360	0.0008779075
22	0xb844ec41	-4.695007e-05
23	0x39ec2ac2	0.00045045285
24	0x3a8bdbc8	0.0010670358
25	0xba7ba5f4	-0.0009599619
26	0x38d549e7	0.00010170397
27	0xbaa57ff3	-0.0012626633
28	0xba190ddb	-0.00058385514
29	0xba8d92aa	-0.0010801156
30	0x3a91e94a	0.0011132148
31	0xbb1f600c	-0.0024318723
32	0x3ae03055	0.0017104248
33	0x3adbd77a	0.0016772591
34	0x3af24e60	0.0018486492
35	0xb98782fb	-0.00025846795
36	0x3a494dd9	0.00076791417
37	0xbb6337a5	-0.0034670618
38	0x3925c6fc	0.00015809754
39	0x38aa57ad	8.1225626e-05
40	0x3a367ee0	0.0006961655
41	0x3a7e4bd6	0.00097006315
42	0xbabaabd8	-0.0014241887
43	0xb9f71d20	-0.0004713321
44	0x3d098c5e	0.03358113
45	0x3d8c749d	0.0685818
46	0x3d1f1e0f	0.038847025
47	0xbda89503	-0.08231547
48	0x3a48cd3b	0.0007659976
49	0x39fe126e	0.00048460386
50	0xb9ac6689	-0.0003288279
51	0xba997265	-0.0011707066
52	0xba409f42	-0.000734795
53	0x3a383c5d	0.0007028038
54	0xbc100ce8	-0.00879214
55	0x3c8046a1	0.015658678
56	0x3d3058a5	0.043053288
57	0x3c58f8f9	0.013242953
58	0xb9c58a7c	-0.00037677947
59	0x3a638969	0.00086798385
60	0xbb443ba0	-0.0029942766
61	0x3d35fec5	0.04443242
62	0xba83b4aa	-0.0010048349
63	0xbc909732	-0.01765022
64	0xbbd1863a	-0.006394175
65	0x3e0a68fe	0.13516614
66	0xba169990	-0.00057449285
67	0x39e5f047	0.00043857304
68	0xbbbe9a2b	-0.005816718
69	0xbce68b2f	-0.02814254
70	0x3ccd085f	0.025028406
71	0x3d4e32e4	0.0503415
72	0xbb2f6991	-0.0026765803
73	0xb8eea28e	-0.000113790025
74	0xbdbddcff	-0.09270667
75	0x3d42a594	0.04752119
76	0xbd8e1b02	-0.06938745
77	0x3b809192	0.0039236033
78	0x3e505602	0.2034531
79	0x3ac1a57d	0.0014774051
80	0x3c581e27	0.013190783
81	0xbcaeb445	-0.021326194
82	0xbdf83c6e	-0.12120901
83	0xba52ec02	-0.0008046032
84	0xba21ad5a	-0.0006167494
85	0x3a74b0b9	0.0009334195
86	0xb980d545	-0.0002457296
87	0x3a78626f	0.0009475117
88	0x39c161ab	0.00036884597
89	0xbce572c7	-0.028008832
90	0xba99e141	-0.0011740105
91	0xbaade460	-0.0013266914
92	0xbaff3cfe	-0.0019473133
93	0x39abce30	0.00032769283
94	0xba7e9a8e	-0.00097123615
95	0x3a438653	0.00074586755
96	0xbaa6c375	-0.0012723046
97	0xba4416f5	-0.00074802275
98	0xb89cf6c3	-7.4846226e-05
99	0xba1abf7c	-0.0005903167
100	0xba4b54e4	-0.0007756485
101	0xba7a63b9	-0.0009551603
102	0xbb6dcf92	-0.0036287052
103	0xba7d6836	-0.0009666713
104	0xba90d6a7	-0.00110503
105	0x38dece2d	0.00010624188
106	0xbaebeadc	-0.0017999071
107	0xba5e3f53	-0.0008478064
108	0x3a75e34c	0.0009379878
109	0x3aa047f5	0.0012228476
110	0x3a397b1e	0.0007075536
111	0x3b04f60c	0.0020288257
112	0xba196ee2	-0.00058530096
113	0x3a3e6fba	0.00072645734
114	0x398cfadd	0.0002688979
115	0x3b88634c	0.0041622277
116	0x3a94e1bc	0.0011358778
117	0xba976a6e	-0.0011552104
118	0xbd88e4ee	-0.0668429
119	0x3e4af8ca	0.19821468
120	0xbdb8b8f8	-0.09019655
121	0xbc164139	-0.009170824
122	0xba7e7a97	-0.00097075984
123	0xba89770b	-0.0010487748
124	0xba5df448	-0.00084668817
125	0xb9037f00	-0.00012540445
126	0xb9f390b9	-0.000464564
127	0xbab9c24f	-0.0014172288
128	0xbcbbcc3d	-0.022924537
129	0x3dbc9ddb	0.09209796
130	0x3d3e719c	0.046495065
131	0xbe23a0d2	-0.15979317
132	0x3b181a9c	0.002320922
133	0xb9f8636e	-0.00047376327
134	0x3a59309c	0.00082851364
135	0x3d3d9589	0.046285186
136	0xb9a4ee49	-0.00031458054
137	0x3d627d9b	0.055295568
138	0x3bdaddd3	0.0066792755
139	0x3dea593a	0.114428
140	0x39f5d77d	0.00046890593
141	0x3a3d6f60	0.0007226374
142	0x3da0a220	0.07843423
143	0xbcc43ec8	-0.023955718
144	0x3d72261c	0.059118375
145	0x3d821639	0.06351895
146	0xbe337e51	-0.17528655
147	0xba7c8725	-0.0009633175
148	0xbccd670a	-0.025073547
149	0x3dd0873a	0.101820424
150	0x3e3e5cdd	0.18590112
151	0x3d5bb28b	0.05363707
152	0xbd9b19f6	-0.07573311
153	0x3a99daef	0.0011738221
154	0x3d075e06	0.033048652
155	0x3d17622c	0.03695886
156	0x3d1a8399	0.037723158
157	0xbaba0f17	-0.0014195171
158	0x3aa504ca	0.0012589928
159	0xba7d3ea0	-0.0009660516
160	0xbb637a87	-0.0034710483
161	0xb8df8ee4	-0.00010660084
162	0xba84c6ee	-0.0010130086
163	0xbc48530c	-0.012226831
164	0xba105dc0	-0.0005507134
165	0xbacbe07a	-0.001555457
166	0x39731ee8	0.000231858
167	0x39dcb729	0.00042098135
168	0xba844b13	-0.0010093175
169	0xba9a0cf1	-0.0011753124
170	0x3a85be47	0.0010203802
171	0x3a63d5ce	0.0008691222
172	0xb8f21da7	-0.000115449824
173	0xba635607	-0.0008672182
174	0x3aeeda56	0.0018223028
175	0xb9a0b212	-0.0003065025
176	0xb9ec8bde	-0.00045117637
177	0xbb15209a	-0.0022755028
178	0xba8bb797	-0.0010659572
179	0xba5a92d6	-0.00083379203
180	0x375d765b	1.3200183e-05
181	0x3a8a0f95	0.0010533208
182	0xb8df4417	-0.00010646151
183	0xbae1297f	-0.0017178504
184	0xb8ac93ad	-8.229106e-05
185	0xbaa23e4c	-0.0012378185
186	0x3adb29ab	0.0016720792
187	0x3afd8bbd	0.0019344013
188	0xbadc8eaf	-0.0016827191
189	0xba12d6bb	-0.00056014553
190	0x3b54cb7f	0.0032469926
191	0xba8f37ae	-0.0010926628
192	0x3e270d9f	0.1631379
193	0xbdbb4d56	-0.0914561
194	0x3ea8a986	0.32941836
195	0xbe4df2c1	-0.20112135
196	0x3a030c6d	0.0004999105
197	0x3a8e115a	0.0010838911
198	0xb9e23361	-0.0004314436
199	0x3ae28caa	0.0017284353
200	0x3abbcee0	0.0014328621
201	0xba6befcc	-0.0009000271
202	0x3d63a4de	0.05557715
203	0xbd37e0f2	-0.04489226
204	0x3d72acdc	0.059246883
205	0xbd53642b	-0.0516092
206	0x3a4f08e7	0.000789775
207	0xbb591a36	-0.0033127195
208	0x3a74b720	0.0009335149
209	0x3cd5b27a	0.02608608
210	0xba16f561	-0.000575861
211	0x3da30bb7	0.07961219
212	0x3e786223	0.24256186
213	0xbd39b64d	-0.04533987
214	0x39b276cc	0.00034039316
215	0xbaa7a604	-0.0012790565
216	0x3daeb37c	0.08530328
217	0x3d3c8675	0.046026666
218	0xbd59aa39	-0.053140853
219	0x3d912611	0.07087339
220	0xbccd1a2f	-0.0250369
221	0x39d29a17	0.00040169127
222	0x3dcf51fb	0.101230584
223	0xbe804de8	-0.25059438
224	0xbdb92527	-0.09040289
225	0xbcce3ac6	-0.02517451
226	0x3e1889d9	0.14896335
227	0xbac1709f	-0.0014758295
228	0x3d8c59f7	0.06853097
229	0x3cc1aa6b	0.023640832
230	0x3b50f78f	0.0031885838
231	0xb9b54664	-0.00034575455
232	0xb99f4fdd	-0.00030386346
233	0x3aa53684	0.0012604748
234	0x3a9e2b58	0.0012067361
235	0xba065ed9	-0.0005125828
236	0xb987b57b	-0.0002588442
237	0xbc09c29e	-0.008408217
238	0xba79d3fe	-0.00095301855
239	0x3941b806	0.00018474468
240	0xba30cf5a	-0.0006744765
241	0x3a03ffab	0.0005035351
242	0xba1aed8a	-0.000591003
243	0x38637961	5.423406e-05
244	0x3ac2a7d8	0.0014851047
245	0xba61b761	-0.00086103944
246	0xbb15a095	-0.002283131
247	0x388aa3aa	6.6108376e-05
248	0xba23e94c	-0.00062527205
249	0xba0cec94	-0.0005375829
250	0xba0fafbf	-0.00054812053
251	0x395d3c2e	0.00021098621
252	0xbabaaaae	-0.001424154
253	0x3ab3b152	0.0013709462
254	0xbac09698	-0.0014693318
255	0xba9b1c8d	-0.001183407

gnn.gnn_layers.1.gat_conv.attn_l f4 [1, 6, 32]
0	0xbc50f5aa	-0.012753883
1	0xbd6bacca	-0.05753783
2	0x3d521aa3	0.051294934
3	0x3b2e3322	0.002658077
4	0x3d6da037	0.05801412
5	0xbd62c386	-0.055362247
6	0xbcfeb4b0	-0.031092018
7	0x3db89a8c	0.090138525
8	0xbe0fb79e	-0.14034888
9	0xbc0d713a	-0.008632952
10	0xbd10587e	-0.035240643
11	0xbc28bc5e	-0.0102988165
12	0x3bf20ec5	0.0073870146
13	0x3e0b487e	0.13601872
14	0xbda25425	-0.079262055
15	0xbc8493fd	-0.016183848
16	0xbc312f93	-0.010814565
17	0x3d464cb6	0.048413
18	0xbd0f08b6	-0.034920417
19	0xbd7236b0	-0.059134185
20	0x3c198c83	0.0093718795
21	0xba8ac263	-0.0010586496
22	0x3d1ce038	0.03829977
23	0xbd4fb15e	-0.05070626
24	0x3ba19cab	0.0049320064
25	0x3d36421f	0.04449665
26	0x3cdc77f0	0.02691266
27	0x3c20eedf	0.009822576
28	0xbd894760	-0.06703067
29	0xbd8c7aae	-0.06859337
30	0x3d0340b5	0.03204413
31	0x3c97648d	0.018480564
32	0x3d7bb68d	0.06145339
33	0x3dde4d4a	0.108545855
34	0x3ce76e73	0.028250908
35	0x3dae8425	0.08521298
36	0x3e32e6fb	0.17470925
37	0x3da1f568	0.07908136
38	0x3e5ca2fb	0.21546547
39	0xbe38d642	-0.18050483
40	0xbd9ae42a	-0.0756305
41	0xbd2b8293	-0.041872572
42	0x3ca8f52a	0.020624716
43	0x3da1b61c	0.07896063
44	0x3e13f31b	0.14448206
45	0xbdea27c7	-0.11433368
46	0x3da3ee0c	0.08004388
47	0xbdcc5d6d	-0.09978757
48	0xbd27f8df	-0.041008826
49	0x3e2b8c99	0.16752852
50	0x3de398a5	0.11113099
51	0xbcfef3a2	-0.031122033
52	0xb9660ba9	-0.00021938853
53	0xbdb10652	-0.08643784
54	0xbd8c3221	-0.06845499
55	0xbd8cea4b	-0.06880625
56	0xbc812e00	-0.015769005
57	0xbdcd3b6d	-0.100211
58	0xbbb7fb19	-0.00561465
59	0x3e71cebf	0.23614024
60	0xbb35c766	-0.002773726
61	0xbe38c95d	-0.18045564
62	0x3d5b6632	0.053564258
63	0xbe1d2c23	-0.15348868
64	0x3eb0943b	0.3448809
65	0x3ebf8c60	0.37411785
66	0xbcc09e7e	-0.023513075
67	0x3dbde170	0.092715144
68	0xbe17ab11	-0.1481135
69	0x3e7277ac	0.23678464
70	0x3ef0f60a	0.47062713
71	0xbde76ec0	-0.11300421
72	0x3ea199f8	0.3156278
73	0x3e80cb36	0.25155038
74	0x3dd26102	0.10272409
75	0x3e57a2f0	0.2105825
76	0x3e9a50b3	0.30139694
77	0xbe41d561	-0.18929054
78	0x3e263ad6	0.16233382
79	0xbe0f5fb0	-0.14001346
80	0x3d46f84e	0.048576646
81	0x3e07a8d2	0.13247994
82	0x3e05ee08	0.13079083
83	0x3e319aef	0.17344259
84	0xbdbdcce9	-0.09267599
85	0xbb08df99	-0.0020885228
86	0xbe6b0885	-0.22952469
87	0xbcad3bfc	-0.021146767
88	0x3c931ed3	0.017959034
89	0xbe7640c7	-0.24048148
90	0xbae8fa08	-0.001777471
91	0xbe23af08	-0.15984738
92	0x3e2720c2	0.1632109
93	0xbe49f98c	-0.19724101
94	0x3deafaaf	0.11473595
95	0xbd87cd27	-0.066309266
96	0x3e100b96	0.1406692
97	0x3e3c214b	0.18372075
98	0xbe6673b9	-0.22505082
99	0x3c740458	0.014893614
100	0xbe312a9b	-0.17301409
101	0x3ddc88a4	0.1076825
102	0x3e1e7c4e	0.15477106
103	0xbdc02941	-0.093828686
104	0xbdce9e2e	-0.10088764
105	0x3e914ea1	0.28380302
106	0x3d64da97	0.055872526
107	0x3d66f29e	0.05638372
108	0x3e6a0769	0.22854389
109	0xbec0ad85	-0.37632385
110	0xbd82d388	-0.06388003
111	0xbe6fbc17	-0.23411594
112	0xbd93220c	-0.07184228
113	0x3d6777ff	0.05651092
114	0x3db98398	0.09058303
115	0x3ead7a3f	0.3388233
116	0xbe11496b	-0.14188163
117	0xbe6beadd	-0.23038812
118	0xbe50f3b5	-0.20405467
119	0x3c17526d	0.00923596
120	0xbba6856e	-0.005081824
121	0xbead2898	-0.33820033
122	0xbe334ba7	-0.17509328
123	0xbe8e1398	-0.27749324
124	0xbd245a2b	-0.040125053
125	0xbdfe8fc6	-0.12429766
126	0x3e52ba51	0.20578887
127	0xbe3d5651	-0.18489958
128	0x3e702cb0	0.23454547
129	0x3eb823e0	0.3596487
130	0x3c3b8dd4	0.011447389
131	0x3db58f87	0.08865266
132	0xbc0dcc98	-0.008654736
133	0x3ddc880a	0.10768135
134	0x3e8d7a01	0.27632144
135	0xbe115df9	-0.14196004
136	0xbd926709	-0.07148559
137	0x3e583d35	0.21117099
138	0xbb3ed56d	-0.002911891
139	0x3d897f5c	0.06713745
140	0x3e77369b	0.24141924
141	0xbdd17bc8	-0.102286875
142	0x3ebcdad0	0.3688569
143	0xbea20746	-0.31646174
144	0x3d71bcc0	0.059017897
145	0x3dc4a439	0.096016355
146	0x3d2f0af6	0.042735063
147	0x3e6d5874	0.23178273
148	0xbd1e4250	-0.03863746
149	0xbe0ecdd6	-0.13945708
150	0xbdcd946c	-0.10038075
151	0x3e5ff8d3	0.21872263
152	0xbde6944a	-0.11258753
153	0xbe792a6b	-0.24332587
154	0xbcf0a7bb	-0.029376855
155	0x3e190816	0.14944491
156	0xbe0c78dc	-0.13717979
157	0xbe883bdb	-0.26608166
158	0xbb5e3355	-0.0033905108
159	0xbd5d2fe9	-0.05400077
160	0x3ec8e192	0.39234596
161	0xbca1636e	-0.019700732
162	0x3e2ba744	0.16763026
163	0xbf1faf4d	-0.6237686
164	0x3dcb1e5e	0.099179015
165	0xbde4358f	-0.11143028
166	0x3d756efd	0.0599203
167	0xbd0ccd66	-0.03437557
168	0xbe719d97	-0.23595272
169	0x3f088bdf	0.53338426
170	0x3daacbdb	0.083396636
171	0x3be7e7c5	0.0070771896
172	0xbe713bdd	-0.23557992
173	0xbe0b85e3	-0.13625292
174	0xbec9ab46	-0.39388484
175	0x3e564bb7	0.2092732
176	0x3f09f45f	0.53888506
177	0xbe97511f	-0.29554078
178	0xbe608b28	-0.21928084
179	0x3ef138cb	0.47113642
180	0xbdb582ca	-0.08862837
181	0x3f0b098d	0.5431145
182	0xbe3d06c7	-0.18459617
183	0x3f002870	0.500617
184	0x3ee63d9c	0.4496888
185	0xbe256337	-0.16151129
186	0xbd2cb8ef	-0.042168554
187	0x3dd29335	0.10281984
188	0xbe0b253c	-0.13588423
189	0x3e8c1144	0.27356923
190	0xbd309e6a	-0.043119825
191	0x3dfc8ad5	0.123311676

gnn.gnn_layers.1.gat_conv.attn_r f4 [1, 6, 32]
0	0x3d814186	0.06311326
1	0x3dc998d9	0.098436065
2	0xbd28e5e8	-0.04123488
3	0x3e12618c	0.14295024
4	0x3cf0fc50	0.029417187
5	0x3d7deeb5	0.061995227
6	0x3e1d75e4	0.15377003
7	0xbce68288	-0.028138414
8	0x3dc6d902	0.0970936
9	0xbcea98ff	-0.028637407
10	0xbdcaf943	-0.09910824
11	0x3dacf9a5	0.084460534
12	0x3d6369bf	0.05552077
13	0xbe260f4c	-0.16216773
14	0x3dd5147b	0.10404297
15	0x3c40ad80	0.011760116
16	0xbdfa161a	-0.12211247
17	0x3df1da00	0.11809158
18	0xb817e176	-3.6211182e-05
19	0xbd9f00a5	-0.07763795
20	0xbda108ee	-0.07863031
21	0xbdf5c37c	-0.12000176
22	0xbe0cc7b4	-0.13748056
23	0xbe1b3d83	-0.15160184
24	0xbd48794b	-0.0489438
25	0xbd98b5ea	-0.07456572
26	0xbda841c7	-0.08215671
27	0xbd1af83a	-0.037834384
28	0xbd0bd90c	-0.03414254
29	0xbe3f67de	-0.18691966
30	0x3dd54c45	0.10414938
31	0xbdadb202	-0.08481218
32	0x3e1417c1	0.14462186
33	0x3e88db2c	0.26729715
34	0x3cbbd522	0.022928778
35	0x3e580016	0.21093783
36	0x3e6a3e64	0.22875363
37	0x3d77a209	0.060457263
38	0x3ea0026c	0.31251848
39	0xbe877bce	-0.26461643
40	0xbdddc307	-0.10828214
41	0xbd92e9cd	-0.071735
42	0xbdd3b4d9	-0.10337228
43	0x3d5f199a	0.054467775
44	0x3ceea939	0.029133426
45	0xbd94ff02	-0.072752014
46	0x3e5471b1	0.20746495
47	0x3bae741c	0.0053239
48	0xbe016e9a	-0.12639847
49	0x3e202100	0.15637589
50	0xbd18bde2	-0.03729046
51	0xbe4d18f0	-0.20029044
52	0x3c52ccda	0.012866223
53	0xbdd71b9f	-0.10503315
54	0x3cc873df	0.024469314
55	0xbd92c5c5	-0.07166628
56	0x3cdb0668	0.026736453
57	0x3c84eb82	0.01622558
58	0x3d25cd0b	0.040478747
59	0x3ee2aff5	0.4427487
60	0xbb0b1c89	-0.0021226725
61	0xbe2b83fe	-0.1674957
62	0x3dea084e	0.11427365
63	0xbe09fa46	-0.13474378
64	0x3edb60d5	0.42847314
65	0x3ea6feec	0.32616365
66	0xbd482355	-0.04886182
67	0x3d73e075	0.05954023
68	0xbe235ede	-0.15954158
69	0x3e97e208	0.29664636
70	0x3ed11407	0.40835592
71	0xbe15be73	-0.14623432
72	0x3ea66aa8	0.32503247
73	0x3e7108dc	0.23538536
74	0x3de19a24	0.11015728
75	0x3e7abf5b	0.24487059
76	0x3e6c1658	0.23055398
77	0xbe2bfcd7	-0.1679567
78	0x3e4b7b26	0.19871196
79	0x3d126998	0.035745233
80	0x3db20cd2	0.086938515
81	0x3c90e64b	0.017687937
82	0x3c17d66a	0.009267429
83	0x3dbd6858	0.092484176
84	0xbe19492c	-0.14969319
85	0x3d9f9597	0.07792204
86	0xbe90f057	-0.28308365
87	0xbd9bba9a	-0.07603951
88	0x3b9dfc63	0.0048213466
89	0xbec3a811	-0.38214162
90	0x3cfbca0f	0.030735997
91	0xbdd8d90e	-0.10588275
92	0x3e4b76ee	0.19869587
93	0xbdaf4c7f	-0.08559512
94	0x3e0089fa	0.12552634
95	0xbe18ddf8	-0.14928424
96	0x3c00d945	0.007864301
97	0xbd1c72ca	-0.03819541
98	0x3d2dc57e	0.04242467
99	0xbb5e66db	-0.0033935818
100	0xbca3e5dc	-0.020007066
101	0xbcd4f89e	-0.025997456
102	0x3ce3b884	0.027797945
103	0x3d018243	0.031618368
104	0x3dc9c6ea	0.09852393
105	0x3c95933c	0.018258683
106	0xbd0f95ff	-0.035055157
107	0xbcc504f7	-0.024050219
108	0xbd04a78e	-0.032386355
109	0xbcb54fbc	-0.022132747
110	0xbe11e10a	-0.14246002
111	0x3d490190	0.049073756
112	0x3d815b2c	0.06316218
113	0xbdc6c449	-0.09705407
114	0xbd2ce08f	-0.042206343
115	0x3da3dab8	0.08000702
116	0xb9eb8492	-0.00044921465
117	0x3d2ba6de	0.041907184
118	0xb95ece9b	-0.00021248536
119	0x3e15373b	0.1457185
120	0x3d97f3f1	0.07419575
121	0xbcc57cf8	-0.024107441
122	0x3c2ff391	0.010739223
123	0x3e0a5b08	0.13511288
124	0xbcdcd9be	-0.026959296
125	0x3dcddc2e	0.100517616
126	0xbcc439e3	-0.023953384
127	0xbbc19f8c	-0.005908912
128	0xbed1413e	-0.40870088
129	0xbeb965c1	-0.36210445
130	0x3e61c30f	0.22047065
131	0x3e929f75	0.2863728
132	0x3e8a1480	0.26968765
133	0xbd6a8bdd	-0.05726229
134	0x3e28b19a	0.16474
135	0x3deaac7b	0.11458679
136	0xbc2e5775	-0.010640969
137	0xbeed1cf6	-0.46311158
138	0xbe54fcdf	-0.20799588
139	0xbd90647c	-0.07050416
140	0xbd2d0f08	-0.042250663
141	0x3ed7c5d0	0.42143106
142	0x3df32d8f	0.11873924
143	0xbe346040	-0.17614841
144	0xbe9ee2a4	-0.31032288
145	0x3ee0eb8c	0.43929708
146	0xbdf7fd65	-0.12108878
147	0xbed104ce	-0.40823978
148	0x3dca7ff2	0.09887685
149	0xbe614dc6	-0.22002324
150	0x3e55870b	0.20852296
151	0xbe73bd73	-0.23802738
152	0xbe8de30d	-0.27712288
153	0x3ecad41c	0.39614952
154	0x3e32c92c	0.17459553
155	0x3e546d74	0.20744878
156	0x3c866d93	0.016409671
157	0xbefd1d92	-0.49436623
158	0x3e60f7a1	0.21969463
159	0x3e068d7e	0.13139912
160	0x3e2bac40	0.16764927
161	0xbd9f71b5	-0.0778536
162	0x3eabf801	0.3358765
163	0xbecc0396	-0.39846486
164	0x3e80bac6	0.25142497
165	0xbe85d848	-0.26141572
166	0xbd8463e6	-0.064643666
167	0x3b1bb4d3	0.0023758903
168	0xbe1ba956	-0.15201315
169	0x3e86cdcd	0.2632889
170	0x3c170e3b	0.009219701
171	0xbdac3416	-0.08408372
172	0xbe99ae3d	-0.30015746
173	0x3e1e2c77	0.1544665
174	0xbe81c689	-0.25346783
175	0x3e86df96	0.26342458
176	0x3eaa8e10	0.3331151
177	0xbda8c4ea	-0.082406834
178	0xbeab503b	-0.33459648
179	0x3db4499b	0.08803102
180	0xbe1b6b8f	-0.15177749
181	0x3ea08b66	0.31356353
182	0xbe984b5f	-0.29745004
183	0x3eace6e8	0.33769917
184	0x3e84b24e	0.25917286
185	0x3ae67b9b	0.0017584445
186	0x3e2fe06b	0.17175452
187	0x3d4944eb	0.04913799
188	0xbe44b4ca	-0.1920959
189	0x3d8d4218	0.06897372
190	0xbd46ebdb	-0.048564773
191	0x3ee6a41b	0.45047078

gnn.gnn_layers.1.gat_conv.bias f4 [192]
0	0x3e3ba7cf	0.18325733
1	0xbd1a878d	-0.037726928
2	0xbb181c41	-0.00232102
3	0xbe939c1a	-0.28830034
4	0x3c26d839	0.010183387
5	0x3d1aea63	0.037821185
6	0x3e249b19	0.1607479
7	0xbd94d6e8	-0.072675526
8	0xbb298934	-0.0025869133
9	0x3e9c2580	0.3049736
10	0x3d962366	0.073309705
11	0x3db14335	0.08655397
12	0x3cbee1c4	0.023301013
13	0xbe1c6973	-0.152746
14	0xbe53dbf6	-0.20689377
15	0x3e1ac6e1	0.15114929
16	0x3e8ddc1b	0.2770699
17	0xbe75f0ed	-0.24017687
18	0xbc6ef8f9	-0.014585727
19	0x3ea6f168	0.32606053
20	0xbd1b4f12	-0.037917204
21	0x3e80bb69	0.25142983
22	0xbbc4988c	-0.0059996303
23	0x3e756a8f	0.2396643
24	0x3e181a15	0.148537
25	0xbe0adc8f	-0.13560699
26	0xbc0982c3	-0.008392992
27	0x3d7e0c82	0.062023647
28	0xbd870453	-0.06592622
29	0x3e9b4d86	0.30332583
30	0x3c5bb72a	0.013410369
31	0xbd8b4624	-0.06800488
32	0x3e3ba7cf	0.18325733
33	0xbd1a878d	-0.037726928
34	0xbb181c41	-0.00232102
35	0xbe939c1a	-0.28830034
36	0x3c26d839	0.010183387
37	0x3d1aea63	0.037821185
38	0x3e249b19	0.1607479
39	0xbd94d6e8	-0.072675526
40	0xbb298934	-0.0025869133
41	0x3e9c2580	0.3049736
42	0x3d962366	0.073309705
43	0x3db14335	0.08655397
44	0x3cbee1c4	0.023301013
45	0xbe1c6973	-0.152746
46	0xbe53dbf6	-0.20689377
47	0x3e1ac6e1	0.15114929
48	0x3e8ddc1b	0.2770699
49	0xbe75f0ed	-0.24017687
50	0xbc6ef8f9	-0.014585727
51	0x3ea6f168	0.32606053
52	0xbd1b4f12	-0.037917204
53	0x3e80bb69	0.25142983
54	0xbbc4988c	-0.0059996303
55	0x3e756a8f	0.2396643
56	0x3e181a15	0.148537
57	0xbe0adc8f	-0.13560699
58	0xbc0982c3	-0.008392992
59	0x3d7e0c82	0.062023647
60	0xbd870453	-0.06592622
61	0x3e9b4d86	0.30332583
62	0x3c5bb72a	0.013410369
63	0xbd8b4624	-0.06800488
64	0x3e3ba7cf	0.18325733
65	0xbd1a878d	-0.037726928
66	0xbb181c41	-0.00232102
67	0xbe939c1a	-0.28830034
68	0x3c26d839	0.010183387
69	0x3d1aea63	0.037821185
70	0x3e249b19	0.1607479
71	0xbd94d6e8	-0.072675526
72	0xbb298934	-0.0025869133
73	0x3e9c2580	0.3049736
74	0x3d962366	0.073309705
75	0x3db14335	0.08655397
76	0x3cbee1c4	0.023301013
77	0xbe1c6973	-0.152746
78	0xbe53dbf6	-0.20689377
79	0x3e1ac6e1	0.15114929
80	0x3e8ddc1b	0.2770699
81	0xbe75f0ed	-0.24017687
82	0xbc6ef8f9	-0.014585727
83	0x3ea6f168	0.32606053
84	0xbd1b4f12	-0.037917204
85	0x3e80bb69	0.25142983
86	0xbbc4988c	-0.0059996303
87	0x3e756a8f	0.2396643
88	0x3e181a15	0.148537
89	0xbe0adc8f	-0.13560699
90	0xbc0982c3	-0.008392992
91	0x3d7e0c82	0.062023647
92	0xbd870453	-0.06592622
93	0x3e9b4d86	0.30332583
94	0x3c5bb72a	0.013410369
95	0xbd8b4624	-0.06800488
96	0x3e3ba7cf	0.18325733
97	0xbd1a878d	-0.037726928
98	0xbb181c41	-0.00232102
99	0xbe939c1a	-0.28830034
100	0x3c26d839	0.010183387
101	0x3d1aea63	0.037821185
102	0x3e249b19	0.1607479
103	0xbd94d6e8	-0.072675526
104	0xbb298934	-0.0025869133
105	0x3e9c2580	0.3049736
106	0x3d962366	0.073309705
107	0x3db14335	0.08655397
108	0x3cbee1c4	0.023301013
109	0xbe1c6973	-0.152746
110	0xbe53dbf6	-0.20689377
111	0x3e1ac6e1	0.15114929
112	0x3e8ddc1b	0.2770699
113	0xbe75f0ed	-0.24017687
114	0xbc6ef8f9	-0.014585727
115	0x3ea6f168	0.32606053
116	0xbd1b4f12	-0.037917204
117	0x3e80bb69	0.25142983
118	0xbbc4988c	-0.0059996303
119	0x3e756a8f	0.2396643
120	0x3e181a15	0.148537
121	0xbe0adc8f	-0.13560699
122	0xbc0982c3	-0.008392992
123	0x3d7e0c82	0.062023647
124	0xbd870453	-0.06592622
125	0x3e9b4d86	0.30332583
126	0x3c5bb72a	0.013410369
127	0xbd8b4624	-0.06800488
128	0x3e3ba7cf	0.18325733
129	0xbd1a878d	-0.037726928
130	0xbb181c41	-0.00232102
131	0xbe939c1a	-0.28830034
132	0x3c26d839	0.010183387
133	0x3d1aea63	0.037821185
134	0x3e249b19	0.1607479
135	0xbd94d6e8	-0.072675526
136	0xbb298934	-0.0025869133
137	0x3e9c2580	0.3049736
138	0x3d962366	0.073309705
139	0x3db14335	0.08655397
140	0x3cbee1c4	0.023301013
141	0xbe1c6973	-0.152746
142	0xbe53dbf6	-0.20689377
143	0x3e1ac6e1	0.15114929
144	0x3e8ddc1b	0.2770699
145	0xbe75f0ed	-0.24017687
146	0xbc6ef8f9	-0.014585727
147	0x3ea6f168	0.32606053
148	0xbd1b4f12	-0.037917204
149	0x3e80bb69	0.25142983
150	0xbbc4988c	-0.0059996303
151	0x3e756a8f	0.2396643
152	0x3e181a15	0.148537
153	0xbe0adc8f	-0.13560699
154	0xbc0982c3	-0.008392992
155	0x3d7e0c82	0.062023647
156	0xbd870453	-0.06592622
157	0x3e9b4d86	0.30332583
158	0x3c5bb72a	0.013410369
159	0xbd8b4624	-0.06800488
160	0x3e3ba7cf	0.18325733
161	0xbd1a878d	-0.037726928
162	0xbb181c41	-0.00232102
163	0xbe939c1a	-0.28830034
164	0x3c26d839	0.010183387
165	0x3d1aea63	0.037821185
166	0x3e249b19	0.1607479
167	0xbd94d6e8	-0.072675526
168	0xbb298934	-0.0025869133
169	0x3e9c2580	0.3049736
170	0x3d962366	0.073309705
171	0x3db14335	0.08655397
172	0x3cbee1c4	0.023301013
173	0xbe1c6973	-0.152746
174	0xbe53dbf6	-0.20689377
175	0x3e1ac6e1	0.15114929
176	0x3e8ddc1b	0.2770699
177	0xbe75f0ed	-0.24017687
178	0xbc6ef8f9	-0.014585727
179	0x3ea6f168	0.32606053
180	0xbd1b4f12	-0.037917204
181	0x3e80bb69	0.25142983
182	0xbbc4988c	-0.0059996303
183	0x3e756a8f	0.2396643
184	0x3e181a15	0.148537
185	0xbe0adc8f	-0.13560699
186	0xbc0982c3	-0.008392992
187	0x3d7e0c82	0.062023647
188	0xbd870453	-0.06592622
189	0x3e9b4d86	0.30332583
190	0x3c5bb72a	0.013410369
191	0xbd8b4624	-0.06800488
