1-GNNs/result/6108_AR_NURA_GCN_0920/50/model.pth (torch, 76406 bytes, 12 tensors)

gnn.gnn_layers.0.graph_conv.weight f4 [74, 64]
-0.16243093 -4.1080766e-06 -0.07470213 -7.050515e-21 -1.3626662e-09 -0.014804237 -0.005090643 -0.027137263
-0.014536807 1.665661e-07 -0.14341669 0.8373492 -0.21882963 -0.47191033 -0.70298564 -0.06816293
-0.0037441512 4.987923e-05 -0.03195771 -0.020844102 -2.1072253e-09 -1.5638749e-05 -1.01090355e-17 0.016103417
-0.007941496 -0.07939836 -0.00029431938 -0.0023710588 -0.32994375 -9.654718e-06 -0.47335383 -0.0070894347
-0.009971008 -0.074931405 -0.010377466 0.003229368 -4.5437177e-05 -0.46483952 -0.0010781636 -0.46904692
-0.17431149 -0.011917079 -2.7413918e-05 -0.10971262 -0.01042669 -2.1536566e-07 0.5260763 -0.26720473
0.52031696 0.0020347077 -1.3881781 -0.1284735 -0.001207222 -2.2240753e-05 -0.11633512 -0.0008812608
-1.2331268e-05 -0.001199959 -0.019427134 0.0087852655 -0.000507738 3.6758047e-05 -0.018571155 -0.031884845
0.02504397 -1.3173644e-05 -0.09646233 1.3746588e-22 -1.6437991e-09 0.029900316 -0.017555509 -0.6889176
0.0064193946 -8.4450065e-08 0.01048007 0.15204743 -0.18129261 -0.03536851 0.19730066 -0.0005341604
0.00039031045 -7.3002964e-05 0.09594341 -0.016475726 6.4877166e-11 1.7474305e-06 -4.9994946e-19 -0.0010452787
-0.0014786654 0.014153911 -3.6214667e-05 0.001714716 0.1725615 1.3906254e-06 -0.08542164 0.0019834738
0.00033669444 0.019840496 0.011398672 -0.003946913 -0.00012452756 0.17570129 0.002377308 -0.009429842
-0.036825564 0.0013862002 -0.00020843824 -0.024856253 0.0025980968 1.0395992e-06 -0.354896 0.15147956
-0.34091362 -0.00048903015 -0.5095018 -0.0388225 -3.5089008e-05 -0.00011701306 0.024156462 4.611959e-05
6.018324e-06 -0.00061408523 -0.01239969 -0.0046665533 -0.00018822159 -2.7386877e-05 0.0062920414 -0.5251803
-0.028403653 -5.103502e-06 -0.11369994 -1.9940481e-21 -3.153836e-10 -0.0012886014 0.0052731377 -0.86460704
-0.003766077 3.36461e-08 -0.0130402865 -0.57851803 0.11931794 -0.11185656 -0.18283544 -0.008237116
0.00062454224 -4.9865983e-05 0.008161111 0.0036378931 3.1664366e-10 6.585972e-06 5.8927835e-19 -0.009871675
0.009370163 -0.0010577288 1.1271332e-05 0.0012486182 -0.0028858958 -8.47187e-07 -0.05927126 -0.0011292604
-0.0012806673 -0.036812842 0.0024174203 -0.0010669803 -7.121158e-07 -0.050395224 0.00016211948 -0.10831312
0.008581023 0.007813877 -5.6754692e-05 -0.04621916 0.0014740227 1.9106847e-06 -0.7279934 0.037412528
-0.6316935 0.02039794 -0.2935067 -0.016699668 2.7278655e-05 -0.00020336028 -0.019560575 8.820665e-05
4.2926576e-06 0.0006661159 -0.0059964783 -0.0031031596 -0.00011158861 9.578796e-06 0.0017601242 -0.7512601
-0.016041612 3.2200219e-06 0.028316077 1.6166072e-21 -2.0437009e-10 -0.00028169944 -0.02036428 -0.27521303
0.0019261003 1.5375291e-07 -0.070906475 -0.36950412 0.029768955 -0.04334215 -0.021170134 -0.006607372
0.00021219127 -1.0933131e-05 -0.00054938375 -0.0020476673 -1.5963003e-10 -4.8915996e-07 -3.3932027e-19 -0.010699483
0.0009024566 0.00012130918 2.3325002e-08 0.0002464516 -0.026303511 9.1701935e-07 -0.007752764 0.0021193135
-0.00038256426 0.010029659 0.00071125984 -0.0046269135 7.938718e-05 -0.030336326 -0.0005287553 0.15635432
-0.010334529 0.0009287518 -6.5118984e-05 -0.031036722 -0.00038072464 7.296711e-08 -0.37259644 0.025574775
-0.23904666 0.025526868 -0.013188032 0.028590528 2.5028037e-05 9.905805e-06 0.04005175 -8.5519176e-05
5.130879e-06 -5.2807563e-06 0.0063511916 -0.0057587572 -3.5401827e-05 1.6094651e-05 0.0028297747 0.18033502
00000000: 4b54 26be 1cd8 89b6 6efd 98bd 332e 059e
00000010: 8e48 bbb0 788d 72bc 69cf a6bb f74e debc
00000020: ca2b 6ebc 57d9 3234 d3db 12be 845c 563f
00000030: e014 60be 3b9e f1be def6 33bf 0299 8bbd
00000040: 6f60 75bb 6a35 5138 16e6 02bd 40c1 aabc
00000050: b3ce 10b1 f52f 83b7 927a 3aa3 50eb 833c
00000060: 0c1d 02bc 9b9b a2bd e14e 9ab9 c463 1bbb
00000070: 63ee a8be b3fa 21b7 6f5b f2be 7d4e e8bb
00000080: 705d 23bc a375 99bd 3f06 2abc cea3 533b
00000090: cc93 3eb8 72ff edbe 2b51 8dba eb26 f0be
000000a0: b67e 32be da3f 43bc f1f6 e5b7 03b1 e0bd
000000b0: b5d4 2abc 433f 67b4 f0ac 063f 0fcf 88be
000000c0: 7e33 053f bb58 053b d2af b1bf 8f8e 03be
000000d0: a63b 9eba a791 bab7 1b41 eebd 6904 67ba
000000e0: 65e2 4eb7 f147 9dba a725 9fbc 13f0 0f3c
000000f0: b819 05ba a72c 1a38 8922 98bc af99 02bd
00000100: 0329 cd3c 5f04 5db7 0b8e c5bd a12f 261b
00000110: 0aec e1b0 82f1 f43c 92d0 8fbc e75c 30bf
00000120: c959 d23b ea5a b5b3 99b4 2b3c 52b2 1b3e
00000130: c5a4 39be 92de 10bd 2f09 4a3e e606 0cba
00000140: 95a2 cc39 2b19 99b8 fb7d c43d 1af8 86bc
00000150: 99aa 8e2e 4189 ea35 1d8f 13a1 bc01 89ba
00000160: c7cf c1ba cee5 673c 34e5 17b8 52c0 e03a
00000170: f6b3 303e 86a5 ba35 8af1 aebd 2bfd 013b
00000180: 5d86 b039 8988 a23c 7fc1 3a3c 1b55 81bb
00000190: 9d93 02b9 0aeb 333e 9ccc 1b3b a07f 1abc
000001a0: 67d6 16bd 29b1 b53a 3790 5ab9 579f cbbc
000001b0: d544 2a3b 5b88 8b35 eeb4 b5be 751d 1b3e
000001c0: 3b8c aebe 4232 00ba b66e 02bf 5704 1fbd
000001d0: 892c 13b8 e964 f5b8 c6e3 c53c 8870 4138
000001e0: 02f1 c936 90fa 20ba 1228 4bbc e3e9 98bb
000001f0: 595d 45b9 dfbc e5b7 782d ce3b 3772 06bf
00000200: c7ae e8bc c03e abb6 84db e8bd 80aa 169d
00000210: 4c62 adaf 4ae6 a8ba 49ca ac3b e356 5dbf
00000220: 4ad0 76bb 4782 1033 eda6 55bc c219 14bf
00000230: f75c f43d 0d15 e5bd 3739 3bbe f8f4 06bc
00000240: 52b8 233a 3127 51b8 2eb6 053c b869 6e3b
00000250: a213 ae2f 12fd dc36 9dec 2d21 cebc 21bc
00000260: 5085 193c 7da3 8aba 011a 3d37 ada8 a33a
00000270: 4c21 3dbb 3f6a 63b5 6cc6 72bd b103 94ba
00000280: 10dc a7ba 10c9 16bd 956d 1e3b ebd9 8bba
00000290: 3a28 3fb5 396b 4ebd 9efe 2939 45d3 ddbd
000002a0: 6b97 0c3c c705 003c e30b 6eb8 4d50 3dbd
000002b0: ff33 c13a 5039 0036 c75d 3abf e13d 193d
000002c0: aab6 21bf 9519 a73c 8346 96be becd 88bc
000002d0: 77d4 e437 1c3d 55b9 803d a0bc 96fb b838
000002e0: a609 9036 489e 2e3a 1b7e c4bb 615e 4bbb
000002f0: ae04 eab8 9eb4 2037 f8b3 e63a 9552 40bf
00000300: b369 83bc 8e17 5836 1ef7 e73c 764b f41c
00000310: 11b5 60af 0fb1 93b9 fed2 a6bc b9e8 8cbe
00000320: 3475 fc3a 4717 2534 6a37 91bd a52f bdbe
00000330: 06de f33c 8a87 31bd fd6c adbc a782 d8bb
00000340: a97f 5e39 716d 37b7 8504 10ba 2832 06bb
00000350: dc83 2faf d14e 03b5 a14c c8a0 e24c 2fbc
00000360: d692 6c3a 5f67 fe38 395c c832 2c36 8139
00000370: 767a d7bc 1729 7635 e60a febb 2ee4 0a3b
00000380: e892 c8b9 7053 243c d773 3a3a 5d9d 97bb
00000390: ab7c a638 e383 f8bc 2b9c 0aba 591b 203e
000003a0: 2852 29bc 7a77 733a 7d90 88b8 b940 febc
000003b0: ff9b c7b9 18b2 9c33 f6c4 bebe 3182 d13c
000003c0: a6c8 74be b91d d13c 9e12 58bc af36 ea3c
000003d0: 4df3 d137 1c31 2637 4e0d 243d c258 b3b8
000003e0: ea29 ac36 5a31 b1b6 a81d d03b f5b3 bcbb
000003f0: 6c7c 14b8 0003 8737 be73 393b bea9 383e

gnn.gnn_layers.0.graph_conv.bias f4 [64]
-0.0802106 -1.1375114e-06 0.03866414 -6.777872e-21 2.556404e-09 0.016452435 -0.0039215456 -0.72549725
-0.0006326335 9.512073e-08 0.0005895907 0.10563475 0.075872935 0.011291962 -0.20147459 -0.027223751
-0.0024710977 -1.6561633e-05 -0.01982477 -0.013138067 1.1143251e-09 -5.088885e-06 -7.792681e-18 0.016192134
0.0038508815 -0.016947605 1.7880797e-05 -0.00053003634 -0.09339628 -4.688152e-06 -0.27938768 -0.0017294673
-0.0034881476 -0.07755871 0.005840525 -0.0005807084 0.00021341683 0.06803229 -0.00078379735 -0.21774966
0.03524529 0.016559245 0.00030721127 0.14411987 -0.00040485704 2.957586e-06 -0.1266799 -0.2338447
0.00047678934 -0.036863532 -1.3595291 -0.058616042 0.00029784147 8.314938e-05 -0.08154478 0.00063575245
-1.5751313e-05 0.000152996 0.016637655 0.020388478 0.00022243784 6.867628e-05 0.014852771 -0.44186604
00000000: 7445 a4bd 98ac 98b5 4a5e 1e3d c707 009e
00000010: bcac 2f31 42c7 863c 4f80 80bb 30ba 39bf
00000020: 51d7 25ba 2d45 cc33 c38e 1a3a 0857 d83d
00000030: 4563 9b3d ec01 393c 5b4f 4ebe 5804 dfbc
00000040: 24f2 21bb d6ed 8ab7 8e67 a2bc 0c41 57bc
00000050: d426 9930 30c1 aab6 e5bf 0fa3 5ea5 843c
00000060: 125f 7c3b b4d5 8abc b8fe 9537 23f2 0aba
00000070: 8d46 bfbd eb4e 9db6 e70b 8fbe 4baf e2ba
00000080: 6899 64bb 1ad7 9ebd e061 bf3b ae3a 18ba
00000090: a5c8 5f39 8354 8b3d c077 4dba c4f9 5ebe
000000a0: 5d5d 103d 41a7 873c 3311 a139 2994 133e
000000b0: fe42 d4b9 f17a 4636 60b8 01be fc74 6fbe
000000c0: 95f9 f939 37fe 16bd 0d05 aebf 6017 70bd
000000d0: 9b27 9c39 7c60 ae38 f300 a7bd a0a8 263a
000000e0: b021 84b7 8d6d 2039 b14b 883c bd05 a73c
000000f0: 343e 6939 4c06 9038 0959 733c 443c e2be

gnn.gnn_layers.1.graph_conv.weight f4 [64, 64]
0.006213052 4.5288674e-05 -0.0032216634 0.044922195 0.020826101 0.004785911 0.0011592297 -9.002645e-05
-0.0007447623 -6.2908765e-07 0.047290497 0.008726999 0.047470506 0.00085306395 0.0026686753 0.007792013
-8.181951e-06 0.0868741 4.804853e-06 2.9853259e-06 0.0068958425 0.0001892857 -0.0004492208 9.733592e-05
-0.0013953072 1.2714712e-05 0.0012905457 0.0015703543 0.0061771525 0.0013880132 0.027486572 -0.012254827
6.8153963e-07 0.0061904993 0.0019514203 0.00021006566 -0.010419062 0.024422232 -0.010166885 5.861048e-05
-0.009660855 0.002931585 -0.034637686 0.0037129135 -0.0013788794 0.011632775 -0.002718762 -0.0016874672
3.090549e-08 -0.00068693183 -3.5270536e-05 -0.002858674 0.003396124 0.0008848138 -0.01639261 0.010238049
-0.020992812 5.739997e-06 0.010649142 0.0018294236 0.010795501 0.015056348 0.0058819856 0.021556763
-1.151538e-07 -2.0617277e-09 6.133271e-07 3.8026315e-06 -3.2184607e-07 1.6097379e-06 -2.8162688e-06 5.418946e-08
-1.5922014e-06 1.13970415e-08 7.5538213e-07 1.0631082e-06 9.486982e-06 -7.6784954e-07 1.7095788e-06 6.4314936e-06
5.323784e-09 -7.70213e-06 -2.4545537e-09 -6.792291e-10 -8.1452475e-07 4.1613788e-07 -7.5459604e-07 1.7592404e-08
-3.7732687e-07 7.4303337e-09 9.74092e-08 1.6606753e-06 -6.6438283e-06 -8.097447e-07 3.2109386e-07 5.9357296e-07
-3.921801e-07 1.3678035e-06 1.7178314e-05 1.5936065e-06 -2.5529755e-07 1.1741909e-06 -5.019161e-06 2.686919e-08
2.4422495e-06 -4.5825874e-07 -1.1746342e-06 -5.8802425e-07 -1.997394e-07 1.1415636e-05 -3.684601e-07 2.1164193e-07
3.891559e-11 -1.6786679e-07 -2.7610992e-07 1.2949778e-07 -2.7148695e-07 6.526071e-07 -1.9045495e-07 -3.3956525e-07
-9.853994e-06 5.8083796e-08 -5.736759e-07 9.613951e-08 4.119448e-06 -3.2967387e-06 -6.1888395e-06 -7.6069625e-07
-1.2323489e-05 -2.0050436e-05 0.0057347375 0.030762509 -0.03957756 -0.027009156 -0.071464926 0.00039763932
0.017681604 5.131682e-06 -0.10394262 -0.03485119 0.035713073 0.032760657 -0.0016022818 0.019647025
-7.16225e-06 0.0017558443 0.0019805317 7.907485e-07 0.01085194 0.00036916824 0.00021755202 -0.0020432093
-0.0035554662 0.0003160471 -0.018676035 -0.053153187 -0.2236437 -0.027293885 0.04447203 0.019815104
0.003086453 -0.005560517 -0.002911009 0.00019086566 -0.028972639 0.03459365 0.007307001 -0.00013006144
-0.03620905 -0.0033799964 -0.014041005 -0.00016272259 -0.0024926888 -0.026203439 0.0034092022 -0.016708257
-5.5644723e-08 0.0008350383 -0.0001786779 -0.002556303 0.0035026632 -0.0039291033 0.013769463 0.0033736923
0.006961325 0.0005446371 -0.06839361 -0.048968133 -0.002252221 0.08449888 -0.08302602 0.07396857
2.2253875e-23 -1.8936166e-24 1.040779e-22 1.6992946e-20 -7.6554975e-22 1.5204794e-22 -2.2592625e-21 4.8303318e-24
-1.0099044e-22 -2.1863913e-24 -1.03363e-21 -6.901852e-22 -1.2876975e-21 3.5387467e-22 1.735579e-22 2.3201954e-21
-2.8317543e-26 1.9638917e-22 6.5049306e-23 -3.4524553e-24 4.8909523e-22 -8.2084496e-24 -1.2298588e-22 -2.2350548e-23
6.8571667e-22 3.470268e-24 -5.9324928e-24 1.31177755e-23 -3.1179645e-22 3.6352522e-23 1.666157e-24 2.1432742e-21
1.05109705e-23 3.617865e-22 -2.5341227e-21 3.827061e-22 1.2682672e-21 -6.361984e-22 -3.3004374e-24 -2.6832106e-24
4.6283527e-22 6.6447124e-23 1.1461606e-22 2.4034297e-22 -3.5618177e-23 6.152318e-22 -1.4463004e-22 -2.2815503e-22
-1.3553265e-26 -2.4296323e-22 4.581537e-23 2.24708e-22 3.815238e-23 3.1818024e-22 -8.114539e-22 -1.8317319e-22
-3.7448085e-22 5.1156516e-23 1.1316909e-21 4.3076084e-23 -6.715985e-22 -8.779713e-22 -3.453059e-21 2.4214638e-21
00000000: dc96 cb3b 58f4 3d38 8b22 53bb 5600 383d
00000010: 809b aa3c 22d3 9c3b 4bf1 973a 95cc bcb8
00000020: 273c 43ba 93de 28b5 aeb3 413d b0fb 0e3c
00000030: 6f70 423d 27a0 5f3a f1e4 2e3b 2554 ff3b
00000040: 3645 09b7 0ceb b13d 5f39 a136 8257 4836
00000050: 85f6 e13b fe7a 4639 6585 ebb9 d320 cc38
00000060: bee2 b6ba 4651 5537 8727 a93a 59d4 cd3a
00000070: b669 ca3b ffed b53a 852b e13c 78c8 48bc
00000080: 0cf3 3635 acd9 ca3b cdc6 ff3a 1245 5c39
00000090: b7b4 2abc 2211 c83c 0293 26bc 86d4 7538
000000a0: 9048 1ebc d61f 403b 3fe0 0dbd 5a54 733b
000000b0: 84bb b4ba 6597 3e3c 422d 32bb 012e ddba
000000c0: f2bc 0433 3713 34ba 73ef 13b8 9758 3bbb
000000d0: 8291 5e3b d9f2 673a cb49 86bc 7dbd 273c
000000e0: 1ef9 abbc 339a c036 bd79 2e3c 45c9 ef3a
000000f0: 9ddf 303c e7ae 763c acbd c03b cf97 b03c
00000100: 794a f7b3 4cae 0db1 84a3 2435 b630 7f36
00000110: 30ca acb4 2c0e d835 21ff 3cb6 f1bd 6833
00000120: a0b3 d5b5 b8cc 4332 77c5 4a35 1fb0 8e35
00000130: 472a 1f37 381e 4eb5 ae74 e535 1cce d736
00000140: 80ec b631 6538 01b7 f7ac 28b1 80b4 3ab0
00000150: b7a5 5ab5 8e69 df34 728f 4ab5 1b1e 9732
00000160: 6993 cab4 e84d ff31 462f d133 5ee4 de35
00000170: 0dee deb6 3b5d 59b5 ce62 ac34 0656 1f35
00000180: d38c d2b4 5f95 b735 261a 9037 e7e3 d535
00000190: d40f 89b4 e498 9d35 446a a8b6 f9cd e632
000001a0: 87e5 2336 9a06 f6b4 20a8 9db5 b8d8 1db5
000001b0: f377 56b4 c985 3f37 c5d0 c5b4 b13f 6334
000001c0: 0f27 2b2e df3e 34b4 423c 94b4 140c 0b34
000001d0: e2c0 91b4 d22e 2f35 dc7f 4cb4 7e4d b6b4
000001e0: 9552 25b7 cf77 7933 b5fe 19b5 4175 ce33
000001f0: ca39 8a36 8a3d 5db6 baa9 cfb6 a632 4cb5
00000200: fbc0 4eb7 fc31 a8b7 77ea bb3b a801 fc3c
00000210: 141c 22bd 4e42 ddbc 345c 92bd 3f7a d039
00000220: 03d9 903c d030 ac36 dedf d4bd 1fc0 0ebd
00000230: df47 123d 0a30 063d a803 d2ba ccf2 a03c
00000240: 4253 f0b6 5c24 e63a cfcb 013b d343 5435
00000250: 56cc 313c ec8c c139 ad1e 6439 5de7 05bb
00000260: d302 69bb 20b3 a539 7cfe 98bc 28b7 59bd
00000270: db02 65be 6d97 dfbc 4e28 363d 4953 a23c
00000280: 1746 4a3b ff34 b6bb a0c6 3ebb 1c23 4839
00000290: 0758 edbc 12b2 0d3d 916f ef3b 1a61 08b9
000002a0: f14f 14bd ee82 5dbb 3e0c 66bc 83a0 2ab9
000002b0: 615c 23bb 98a8 d6bc ec6c 5f3b c1df 88bc
000002c0: 05fe 6eb3 79e6 5a3a 7c5b 3bb9 a687 27bb
000002d0: f08c 653b b5bf 80bb 5099 613c 2a19 5d3b
000002e0: d41b e43b fac5 0e3a f311 8cbd cf92 48bd
000002f0: 009a 13bb c00d ad3d 8c09 aabd d57c 973d
00000300: ed39 d719 f182 1298 1aa5 fb1a 6c7e a01e
00000310: 8b5f 679c 8fd0 371b 7eb4 2a9d 4add ba18
00000320: 0e2e f49a f129 2998 a032 9c9c 7e98 509c
00000330: 6297 c29c 74e7 d51b 92d1 511b 1b4f 2f1d
00000340: c038 0c95 816b 6d1b 9247 9d1a 768f 8598
00000350: e9d1 131c 46c6 1e99 49ae 149b 4729 d899
00000360: c23e 4f1c df3f 8618 9080 e598 14bc 7d19
00000370: 2a78 bc9b 3eca 2f1a a4e9 0018 f4f0 211d
00000380: ce4f 4b19 c0af da1b 1079 3f9d e754 e71b
00000390: b6a7 bf1c 7847 409c e65b 7f98 769a 4f98
000003a0: 25e2 0b1c c7a8 a01a f48f 0a1b 4647 911b
000003b0: 2b3d 2c9a 41f1 391c d4d8 2e9b 48e9 899b
000003c0: 9c39 8694 bddc 929b ae8c 5d1a e1d3 871b
000003d0: 5c7e 381a 0254 c01b 343f 759c 5b71 5d9b
000003e0: 1b5c e29b b360 771a 2c04 ab1c 9c4d 501a
000003f0: 6bfa 4a9c dfac 849c f073 829d ecf5 361d

gnn.gnn_layers.1.graph_conv.bias f4 [64]
0.0003039801 -0.00012750847 -0.0069954544 0.05740441 0.15268631 0.05557529 -0.012869495 -0.00022283281
0.012024244 0.00012667035 -0.054990835 0.020835292 -0.05335187 0.020544056 0.0050576744 -0.020015001
-4.7895537e-05 -0.06427072 0.0026430099 -6.466439e-05 0.02891852 -0.0005135454 0.002726522 -3.8583174e-05
-0.00624527 6.984588e-05 -0.00043081818 -0.044099342 0.06164611 -0.02829767 0.007262777 -0.31532532
0.0047024162 -0.005787291 -0.047653098 -0.0003057739 0.0146834245 -0.016335817 0.0625252 -1.1152667e-05
-0.062039353 0.030053169 -0.06845279 0.012548814 0.0053265924 0.05556457 0.00015763796 -0.016849047
1.5335903e-07 -0.0022239867 -4.8720904e-05 -0.04063979 -0.007104473 0.0007113828 -0.23005995 0.039263062
0.005799163 -8.9380505e-05 -0.0110448105 0.02549571 -0.04097059 0.03325169 -0.095511645 0.050299242
00000000: 855f 9f39 cbb3 05b9 203a e5bb e320 6b3d
00000010: cd59 1c3e eaa2 633d 93da 52bc 3aa8 69b9
00000020: 5601 453c d0d2 0439 123e 61bd c6ae aa3c
00000030: 7e87 5abd 024c a83c d9ba a53b 80f6 a3bc
00000040: 71e3 48b8 5ea0 83bd 5936 2d3b 6e9c 87b8
00000050: 88e6 ec3c 739f 06ba 73af 323b 5ed4 21b8
00000060: 1fa5 ccbb 397a 9238 70df e1b9 83a1 34bd
00000070: a280 7c3d 84d0 e7bc 97fc ed3b 5272 a1be
00000080: ba16 9a3b 51a3 bdbb e52f 43bd 4750 a0b9
00000090: bf92 703c b1d2 85bc 360d 803d 571c 3bb7
000000a0: fa1c 7ebd 1032 f63c fa30 8cbd 8a99 4d3c
000000b0: b28a ae3b ad97 633d 9e4b 2539 0307 8abc
000000c0: 02ab 2434 4ec0 11bb ac59 4cb8 e975 26bd
000000d0: a4cc e8bb 177c 3a3a d694 6bbe 4ed2 203d
000000e0: e806 be3b cb71 bbb8 4bf5 34bc 61dc d03c
000000f0: c7d0 27bd ed32 083d 9c9b c3bd 9406 4e3d

readout.weight_and_sum.atom_weighting.0.weight f4 [1, 64]
0.008566944 -0.000865945 -0.022296943 0.10172631 0.12748507 -0.01837347 -0.0064959396 0.00029752016
-0.02350545 -8.733769e-05 0.09205516 -0.119795874 -0.032044798 0.10385692 0.004293038 -0.3428204
-0.0005613543 0.8143485 -0.0009379894 -0.00025229028 -0.043248143 0.0002087769 0.014977272 -0.00012301473
0.054769993 7.6664044e-05 0.0041258703 -0.004408007 -0.10963523 0.01845745 0.050402664 0.3363317
0.06930825 -0.0040788897 -0.06042515 0.0076233293 -0.18370414 0.0032465744 -0.10871855 0.001661845
0.32552984 -0.11466656 -0.3307407 -0.008929786 -0.00095500273 -0.027964687 -0.046747763 -0.035046887
1.3490885e-06 -0.0014932845 -0.001197275 0.055685677 0.036541678 0.01810708 -0.84799707 0.045251258
-0.82386744 0.0052648676 0.0085283285 0.012930965 -0.031732887 0.19246574 0.89236444 -0.20059943
00000000: 5e5c 0c3c 9600 63ba 14a8 b6bc e255 d03d
00000010: 728b 023e f683 96bc e4db d4bb 7bfc 9b39
00000020: 808e c0bc 1129 b7b8 6a87 bc3d 8a57 f5bd
00000030: 6841 03bd f0b2 d43d 9dac 8c3b 2886 afbe
00000040: d927 13ba 2579 503f 67e3 75ba d445 84b9
00000050: f724 31bd 1feb 5a39 3b63 753c 84fd 00b9
00000060: 8056 603d b2c6 a038 4f32 873b 0b71 90bb
00000070: 6f88 e0bd 1434 973c 0673 4e3d ab33 ac3e
00000080: 7cf1 8d3d 35a8 85bb 5d80 77bd 1fcd f93b
00000090: f01c 3cbe 7bc4 543b d5a7 debd 44d2 d93a
000000a0: d9ab a63e 4dd6 eabd d856 a9be 3d4e 12bc
000000b0: 2659 7aba 3316 e5bc 957a 3fbd 538d 0fbd
000000c0: 5412 b535 50ba c3ba e2ed 9cba aa16 643d
000000d0: baac 153d 4d55 943c 5616 59bf 6259 393d
000000e0: fae8 52bf e984 ac3b 67ba 0b3c 66dc 533c
000000f0: 58fa 01bd bd15 453e ff71 643f f069 4dbe

predict.predict.1.weight f4 [64, 128]
-0.00013621099 -4.823236e-06 0.001529136 -0.0175079 0.021615164 0.004321833 0.0008391367 0.00014149223
-0.003112736 -2.8980783e-05 0.20841084 0.0039179544 0.01566347 0.008393813 2.053854e-05 -0.0056181275
-7.244589e-05 0.023301514 -0.000120721284 2.998147e-06 -0.01717073 -3.8565748e-05 0.0043288944 -4.170087e-05
0.0010980918 -2.8078926e-05 0.0035682335 0.011583856 -0.028175894 0.014774742 -0.0008254902 0.04429106
0.0006164298 -0.0032416906 -0.10922036 5.028385e-05 0.0010150044 0.0028807023 0.01190163 3.9900187e-05
-0.0050007496 0.00040357947 -0.01296424 -0.00010027185 0.019343896 -0.0139590865 -0.00090519356 -0.0018974554
6.220881e-09 0.00012874822 -4.3059958e-05 -2.6496817e-05 -0.0009366728 0.019086447 -0.010185284 -0.0054486757
-0.011439552 -0.00017163075 3.8089955e-05 -0.006599557 -0.029653061 -0.018171014 -0.111284725 0.0051806225
-8.034878e-05 -1.8948793e-06 0.0009871267 -0.028119333 0.040335502 0.0018497675 -0.00061355706 3.775681e-05
0.0024382314 6.6481794e-06 -0.0073878067 -0.009477601 0.0036328188 -0.0015667456 0.00032624038 -0.0016255955
4.938224e-07 0.0026458076 -7.83091e-05 1.422526e-06 0.018439392 1.4120334e-05 -0.001754064 0.00015462228
0.00032666032 -9.016778e-06 -0.0011997991 -0.00047097605 0.020540789 -0.0023758993 0.0034190966 0.002320571
0.0001056332 -6.872273e-05 0.0131048 2.4436952e-06 -0.001985374 0.00063038996 -0.003894253 -2.0211975e-05
-0.00023118926 6.0959115e-05 0.00036240643 -0.00011768287 -0.0005486508 0.011108002 8.4026404e-05 -0.00015249547
3.2190592e-09 -7.169065e-05 -2.9690116e-05 -0.0009977827 0.00015573254 -0.0011069756 0.017898088 -0.001630673
-0.003241694 3.375571e-05 -0.0008181475 6.718169e-05 -8.485113e-05 0.006141086 -0.0035941396 -0.0017662692
0.0008231115 -3.219222e-06 -0.0008194801 -0.0062057152 0.011478164 -0.0003481688 -0.0019557464 -6.782142e-05
0.00021657432 -6.2645195e-06 -0.0003978972 -0.0024134596 -0.011540152 -0.0031523674 -0.00029176378 -0.010551057
-5.376211e-07 -0.022284959 -1.5818527e-05 6.68201e-06 -0.0037860593 -0.00020248433 -0.0002502043 5.8537247e-05
0.00044106858 -4.5824584e-07 0.00020689308 0.006463584 0.01070093 -0.0002711332 -0.0019764071 -0.0024187425
0.00024148288 0.00033290632 -0.006143265 -0.00072263554 0.0018584724 0.00027235044 0.0010060723 -8.657352e-05
0.00047686655 -0.0017487126 -0.0018624833 -9.927278e-05 0.00018148284 -0.0045039686 -6.6205816e-05 0.00056930276
-1.9775111e-08 0.00019010478 -9.5344425e-05 0.00011145685 -7.7363635e-05 0.0024721164 0.005490173 -0.0007100786
0.0020851442 -0.00013882523 0.0013283514 -0.0034006315 -0.01387472 -0.001229788 -0.007936452 0.0017817026
-8.106539e-05 1.7734432e-06 -0.00042534937 -0.0042496994 -0.007828609 2.6945434e-06 -0.00089170155 2.3845907e-06
-2.7705037e-05 -2.6877713e-06 -0.0011765304 0.003909536 -0.008577103 -0.0015646844 0.00010025904 -0.0008429345
-3.253279e-06 -0.011767427 -1.772811e-05 5.924396e-06 -0.0016500364 -2.5564977e-05 0.00022817026 2.1038642e-05
-0.00016083404 4.7208778e-07 -9.862156e-05 0.0011262653 0.010321108 -0.00017469015 0.002206222 -0.009786634
4.6258014e-05 9.381423e-05 -0.007062122 4.5016048e-05 0.00057861424 0.0010281261 0.0047968244 -1.4664044e-05
0.001769892 0.0012109438 -0.006283199 7.269087e-06 -8.503014e-05 0.0005449102 9.513216e-05 0.0003342754
5.496381e-10 -7.119403e-05 -8.982488e-06 -0.0006670542 -2.7109698e-05 0.00050368527 -0.001421634 -0.00427449
-0.0038860557 -0.00011661322 0.00016326073 0.00047926197 0.009643367 -0.0061690975 -0.0040327967 -0.0001318214
00000000: dcd3 0eb9 48d7 a1b6 4a6d c83a ba6c 8fbc
00000010: 4912 b13c 2a9e 8d3b 83f9 5b3a 885d 1439
00000020: 0bff 4bbb c21b f3b7 a769 553e 2f62 803b
00000030: ad50 803c 3486 093c 2e4a ac37 4518 b8bb
00000040: 17ee 97b8 d1e2 be3c bf2b fdb8 c633 4936
00000050: a1a9 8cbc a8c1 21b8 66d9 8d3b f8e7 2eb8
00000060: d9ed 8f3a 098b ebb7 06d9 693b 37ca 3d3c
00000070: 22d1 e6bc c211 723c b665 58ba 8b6a 353d
00000080: e797 213a 8b72 54bb edae dfbd dfe7 5238
00000090: e509 853a 2aca 3c3b 0eff 423c 805a 2738
000000a0: 54dd a3bb 8597 d339 f767 54bc 0a49 d2b8
000000b0: 1777 9e3c a7b4 64bc 834a 6dba 0ab4 f8ba
000000c0: 73bf d531 9600 0739 479b 34b8 7b45 deb7
000000d0: 0c8b 75ba 2e5b 9c3c 2de0 26bc ce8a b2bb
000000e0: f56c 3bbc c7f7 33b9 c7c2 1f38 1941 d8bb
000000f0: faea f2bc 61db 94bc 3fe9 e3bd 36c2 a93b
00000100: ec80 a8b8 8f53 feb5 7a62 813a 845a e6bc
00000110: d736 253d e673 f23a 1ed7 20ba 115d 1e38
00000120: bcca 1f3b 6d13 df36 6a15 f2bb f147 1bbc
00000130: 9614 6e3b 425b cdba 3e0b ab39 ef11 d5ba
00000140: 388f 0435 4965 2d3b e139 a4b8 9fed be35
00000150: 350e 973c 5fe6 6c37 9fe8 e5ba 1a22 2239
00000160: 9b43 ab39 c446 17b7 9442 9dba 56ed f6b9
00000170: 2845 a83c fab4 1bbb ec12 603b b914 183b
00000180: 6487 dd38 3c1f 90b8 84b5 563c 5dfe 2336
00000190: 0c1d 02bb c140 253a b936 7fbb e38c a9b7
000001a0: 656b 72b9 5aae 7f38 5e01 be39 82cc f6b8
000001b0: 55d3 0fba 56fe 353c 5537 b038 31e7 1fb9
000001c0: 4a36 5d31 a058 96b8 0a0f f9b7 08c8 82ba
000001d0: 234c 2339 f017 91ba 039f 923c 4ebc d5ba
000001e0: 9a72 54bb eb94 0d38 f378 56ba e5e3 8c38
000001f0: 1bf2 b1b8 2a3b c93b a88b 6bbb 2982 e7ba
00000200: 14c6 573a d009 58b6 61d2 56ba 5059 cbbb
00000210: e90e 3c3c 6d8a b6b9 fb2b 00bb 593b 8eb8
00000220: 3a18 6339 d033 d2b6 dc9c d0b9 222b 1ebb
00000230: e812 3dbc f397 4ebb dff7 98b9 57de 2cbc
00000240: 0a51 10b5 f28e b6bc 07b2 84b7 0736 e036
00000250: 891f 78bb f951 54b9 da2d 83b9 e485 7538
00000260: 393f e739 d404 f6b4 70f1 5839 79cc d33b
00000270: f452 2f3c e226 8eb9 9c86 01bb c483 1ebb
00000280: 9136 7d39 ee89 ae39 714d c9bb 406f 3dba
00000290: fc97 f33a 42ca 8e39 2fde 833a ce8e b5b8
000002a0: f203 fa39 0f35 e5ba 921e f4ba ab30 d0b8
000002b0: 6e4c 3e39 0796 93bb fad7 8ab8 433d 153a
000002c0: eedd a9b2 dd56 4739 a6f3 c7b8 f1bd e938
000002d0: 493e a2b8 3b03 223b e9e6 b33b 9124 3aba
000002e0: eaa6 083b 9d91 11b9 141c ae3a 21dd 5ebb
000002f0: cb52 63bc d630 a1ba e407 02bc 0588 e93a
00000300: a601 aab8 0b07 ee35 6d01 dfb9 1041 8bbb
00000310: 9143 00bc e7d3 3436 14c1 69ba f506 2036
00000320: 1d68 e8b7 8f5f 34b6 cf35 9aba 911b 803b
00000330: fa86 0cbc 1916 cdba 2a42 d238 60f8 5cba
00000340: e852 5ab6 2bcc 40bc d4b6 94b7 2dca c636
00000350: 0946 d8ba 5f74 d6b7 fd40 6f39 247c b037
00000360: 8fa5 28b9 4073 fd34 0cd3 ceb8 319f 933a
00000370: dd19 293c 082d 37b9 4396 103b 1e58 20bc
00000380: 2a05 4238 22be c438 6069 e7bb 9dcf 3c38
00000390: 25ae 173a 30c2 863a ae2e 9d3b 9705 76b7
000003a0: b9fb e73a 88b8 9e3a 4be3 cdbb fbe8 f336
000003b0: 3552 b2b8 4ed8 0e3a b181 c738 af41 af39
000003c0: 5815 1730 014e 95b8 7eb3 16b7 40dd 2eba
000003d0: a269 e3b7 bf09 043a 1f56 baba 0511 8cbb
000003e0: 32ad 7ebb 3f8e f4b8 f830 2b39 7445 fb39
000003f0: 36ff 1d3c 2426 cabb 8d25 84bb 8a39 0ab9

predict.predict.1.bias f4 [64]
-0.0027072132 0.00022556885 0.002018705 0.0010397519 -7.275516e-24 0.0009567162 0.004818166 4.707718e-08
0.00017506698 2.5048488e-10 1.2009271e-05 -3.9238552e-36 -7.4007885e-06 -2.2617849e-05 7.05299e-08 -0.0028472587
0.0025961727 -2.9717317e-05 9.4576825e-07 1.2134444e-13 -0.0031319438 -0.002438761 3.6068752e-11 -2.5133916e-06
-1.5134e-41 -2.2138598e-05 -0.00065348635 -0.027479107 1.8276e-41 -6.843e-42 -0.0006107501 8.056256e-10
-8.013e-42 0.0026824335 3.03024e-40 -3.583773e-06 -6.357935e-05 3.3927807e-31 1.4278e-41 -0.12535073
0.0008075714 -0.0004050873 -0.04714927 -1.442652e-05 0.0022661893 8.496e-42 0.0254833 2.6086301e-25
0.18628284 -1.3539252e-06 0.05401095 -0.00017050946 -3.6098755e-10 1.18725145e-08 1.2072e-41 6.393434e-06
-0.0012581984 -6.184e-42 1.3109603e-07 0.0039717704 -3.1374489e-06 0.04743632 0.0012156274 0.002488182
00000000: 806b 31bb ad86 6c39 404c 043b 4948 883a
00000010: 9cba 0c99 23cc 7a3a b5e1 9d3b e831 4a33
00000020: 2f92 3739 9db4 892f 6d7b 4937 00e7 a684
00000030: 4a54 f8b6 76bb bdb7 3976 9733 1399 3abb
00000040: 8d24 2a3b 7449 f9b7 b3e0 7d35 279f 082a
00000050: 4c41 4dbb 9fd3 1fbb cea1 1e2e bdab 28b6
00000060: 302a 0080 47b6 b9b7 ba4e 2bba dd1b e1bc
00000070: f232 0000 1313 0080 bf1a 20ba dd72 5d30
00000080: 5616 0080 c4cb 2f3b b54c 0300 c080 70b6
00000090: e755 85b8 3d34 dc0c cd27 0000 f15b 00be
000000a0: 33b3 533a e661 d4b9 981f 41bd 6e09 72b7
000000b0: 5984 143b af17 0000 5bc2 d03c 6577 a116
000000c0: eec0 3e3e 84b8 b5b5 963a 5d3d c9ca 32b9
000000d0: 7b74 c6af dff7 4b32 a721 0000 2e87 d636
000000e0: 22ea a4ba 3d11 0080 67c3 0c34 a025 823b
000000f0: f68c 52b6 964c 423d b055 9f3a c410 233b

predict.predict.3.weight f4 [64]
0.008477621 -0.0031579977 -0.08233001 -0.041626446 2.371301e-22 -0.002051289 -0.005292412 2.004483e-06
0.0013853565 1.4133802e-06 -0.00038532598 -9.547e-35 1.8368562e-05 -0.00032572105 -4.5716893e-06 0.004763323
-0.0669371 0.0006875552 8.190582e-05 -4.3094237e-11 0.012967878 0.099356286 -4.3033253e-09 0.00013837716
7.1e-43 0.00028770822 -0.006754916 0.44511566 1.903e-42 2.616e-42 0.030789224 3.2532443e-18
3.49e-43 0.03453346 -1.5943577e-36 -0.0002592847 -0.00065723085 2.3332507e-29 1.83822e-40 -0.13270704
-0.06316821 0.022180982 0.056841467 0.0018416749 0.0060606785 -1.777e-42 1.1226889 -5.708509e-23
-0.04971717 9.367993e-05 0.02266733 -0.00091217534 -2.303099e-07 5.967529e-07 -2.685e-42 0.0002323651
-0.021759832 -2.885e-42 -1.05908e-06 -0.005845075 0.0004114897 0.12892643 -0.015289304 -0.0049127303
00000000: b8e5 0a3c 69f6 4ebb a39c a8bd 7e80 2abd
00000010: 1b56 8f1b eb6e 06bb f86b adbb c184 0636
00000020: da94 b53a 60b3 bd35 9405 cab9 84cd fd86
00000030: 3016 9a37 8ac5 aab9 8366 99b6 a615 9c3b
00000040: 5116 89bd 0c3d 343a dac4 ab38 cc87 3dae
00000050: 3977 543c 4f7b cb3d 73dc 93b1 5619 1139
00000060: fb01 0000 8bd7 9639 5858 ddbb 33e6 e33e
00000070: 4e05 0000 4b07 0000 af39 fc3c 0c0c 7022
00000080: f900 0000 f572 0d3d 09a2 0784 9af0 87b9
00000090: 044a 2cba a79e ec0f 6c00 0200 5be4 07be
000000a0: 565e 81bd e4b4 b53c 99d2 683d 5b64 f13a
000000b0: a898 c63b f404 0080 45b4 8f3f f605 8a9a
000000c0: 3ba4 4bbd 0876 c438 d6b0 b93c 0d1f 6fba
000000d0: 1a4b 77b4 8c30 2035 7c07 0080 08a7 7339
000000e0: ad41 b2bc 0b08 0080 b625 8eb5 0b88 bfbb
000000f0: 36bd d739 4a05 043e fd7f 7abc f8fa a0bb

predict.predict.3.bias f4 [64]
-0.0423242 0.020657249 -0.008499019 -0.17570838 -2.5256919e-05 -0.0036704254 0.120517515 5.9223316e-06
0.0013662704 -1.5159799e-05 0.00031751336 2.0146295e-25 -0.0007481166 -0.0026402555 -1.9920702e-05 -0.0032106768
0.04748386 0.0011976907 0.00016163848 -1.1213788e-09 -0.026785104 -0.19735877 6.3576815e-09 0.0016908656
5.7183195e-07 0.00035015296 -0.0038816966 0.4141507 -1.6019173e-15 3.634579e-12 -0.020282222 -3.7805177e-05
-5.9824107e-28 -0.041288745 8.5987153e-07 -0.00032791722 -0.0015225889 1.0862633e-18 -8.2063664e-13 -0.094510406
-0.008708258 -0.0021303874 -0.08394883 -0.0009640989 -0.03665974 -3.4582864e-15 -0.9103988 -2.960511e-16
-0.13558316 -2.9280802e-05 -0.08396957 0.0011376526 9.169838e-07 -9.082082e-05 -5.1995646e-20 -0.00025630312
-0.057223845 -3.172051e-12 -6.528327e-05 -0.0036315124 1.5700747e-05 0.36965695 -0.0026760874 7.266477e-05
00000000: 245c 2dbd 6439 a93c 783f 0bbc e6ec 33be
00000010: d2de d3b7 858b 70bb e3d1 f63d 71b8 c636
00000020: 6d14 b33a d756 7eb7 ec77 a639 2866 7916
00000030: 411d 44ba 2308 2dbb 621b a7b7 386a 52bb
00000040: 707e 423d d5fb 9c3a 807d 2939 021f 9ab0
00000050: 6f6c dbbc 6b18 4abe c272 da31 09a0 dd3a
00000060: fe7f 1935 bc94 b739 1064 7ebb 900b d43e
00000070: 51dc e6a6 c1c2 7f2c e726 a6bc 0091 1eb8
00000080: 1597 3d92 631e 29bd ecd1 6635 4eec abb9
00000090: 9b91 c7ba de4d a021 1afd 66ab ac8e c1bd
000000a0: 15ad 0ebc f89d 0bbb 5ded abbd 95bb 7cba
000000b0: 8628 16bd 2032 79a7 e50f 69bf 6ea9 aaa5
000000c0: 50d6 0abe 0ba0 f5b7 3df8 abbd 491d 953a
000000d0: a626 7635 0e77 beb8 e18a 759f 6c60 86b9
000000e0: 8d63 6abd 9736 5fac b0e8 88b8 abfe 6dbb
000000f0: 19b5 8337 ad43 bd3e 4c61 2fbb 9a63 9838

predict.predict.3.running_mean f4 [64]
10.977981 2.5458634 26.660595 0.14669171 6.752936e-20 1.9505559 8.074245 0.0015519958
0.790605 0.001099361 0.15949824 2.0937e-32 0.034445677 0.15694799 0.0018529113 0.9493482
10.631454 0.32939118 0.011791261 1.1091942e-08 2.3634884 21.344765 2.6146224e-06 0.15886904
7.39712e-40 0.25176808 3.393801 0.62889427 4.87513e-40 1.09464e-39 10.084663 9.2773983e-10
4.21722e-40 2.3126543 2.1435091e-34 0.024384595 1.6968664 2.8745323e-27 2.508916e-38 12.860686
2.382627 1.0092486 8.317944 0.15794422 14.859689 6.94633e-40 236.00311 2.1230219e-20
75.20208 0.02330651 120.94164 0.64551294 6.196199e-05 0.00012046238 9.635325e-35 0.040780198
8.113142 9.20349e-40 0.001174311 4.7078357 0.067878634 143.64706 8.3336 2.5121682
00000000: cfa5 2f41 6def 2240 e648 d541 5a36 163e
00000010: fe72 9f1f d1ab f93f 1c30 0141 566c cb3a
00000020: 1765 4a3f 6f18 903a 8253 233e 186c d90a
00000030: e916 0d3d f9b6 203e 63dd f23a 7c08 733f
00000040: 701a 2a41 f6a5 a83e 2230 413c e08e 3e32
00000050: 6543 1740 14c2 aa41 df76 2f36 91ae 223e
00000060: 040e 0800 bfe7 803e 0934 5940 37ff 203f
00000070: fd4e 0500 69eb 0b00 c85a 2141 e303 7f30
00000080: 9797 0400 8702 1440 eb75 8e07 34c2 c73c
00000090: eb32 d93f 71be 6313 2f99 0801 5fc5 4d41
000000a0: f67c 1840 0f2f 813f 4c16 0541 21bc 213e
000000b0: 49c1 6d41 5b90 0700 cc00 6c43 8583 c81e
000000c0: 7767 9642 4bed be3c 1fe2 f142 5640 253f
000000d0: 97f1 8138 bfa0 fc38 5013 0007 2309 273d
000000e0: 6ecf 0141 8f05 0a00 57eb 993a 97a6 9640
000000f0: f403 8b3d a6a5 0f43 6d56 0541 5dc7 2040

predict.predict.3.running_var f4 [64]
604.1578 37.586742 643.6206 2.0153978 9.173966e-39 136.69449 346.37448 2.776637e-06
38.881096 2.436383e-05 0.048008908 6e-45 0.015716469 0.13297436 1.16232595e-05 1.8656802
230.32236 0.118661076 0.0001622277 1.0848902e-15 69.653725 1762.3663 6.039981e-10 0.23668584
6e-45 0.09989555 88.34611 94.9854 6e-45 6e-45 99.334206 1.7047494e-28
6e-45 50.612537 6e-45 0.0046872115 8.356823 6e-45 6e-45 1896.7952
44.83511 6.844589 242.7961 0.080952786 332.54968 6e-45 33442.844 3.0974532e-37
5809.67 0.00073554297 14806.42 13.696098 2.8067642e-08 6.599727e-08 6e-45 0.0258617
403.78436 6e-45 1.05810095e-05 235.41 0.044289697 119883.82 90.79567 21.993996
00000000: 190a 1744 d358 1642 b8e7 2044 47fc 0040
00000010: 49e5 6300 cab1 0843 ef2f ad43 4356 3a36
00000020: 3e86 1b42 ed60 cc37 fda4 443d 0400 0000
00000030: d3bf 803c 6e2a 083e 8501 4337 9cce ee3f
00000040: 8652 6643 9404 f33d ab1b 2a39 6259 9c26
00000050: b54e 8b42 b94b dc44 9606 2630 c65d 723e
00000060: 0400 0000 0a96 cc3d 35b1 b042 86f8 bd42
00000070: 0400 0000 0400 0000 1dab c642 481a 5811
00000080: 0400 0000 3d73 4a42 0400 0000 2e97 993b
00000090: 8cb5 0541 0400 0000 0400 0000 7219 ed44
000000a0: 2757 3342 e006 db40 cdcb 7243 93ca a53d
000000b0: 5c46 a643 0400 0000 d8a2 0247 3fcd d202
000000c0: 5c8d b545 74d1 403a ae59 6746 3823 5b41
000000d0: 6619 f132 62ba 8d33 0400 0000 eadb d33c
000000e0: 66e4 c943 0400 0000 1785 3137 f668 6b43
000000f0: 1d69 353d e925 ea47 6297 b542 b4f3 af41

predict.predict.4.weight f4 [1, 64]
0.0058974605 -0.010651504 -0.057769142 -0.014375087 -1.0854312e-05 -0.00019395427 0.012428723 -1.324497e-06
-0.0024593612 2.7309175e-06 -0.00043635152 -2.3224519e-25 -6.590827e-05 -0.0016741889 -2.162682e-06 0.00062537106
-0.0050342474 0.0004443767 8.079508e-06 2.4284974e-09 0.0017814906 0.06421015 4.9496975e-09 -0.0004938272
1.5449969e-07 0.0002663534 0.0048341868 -0.0042410744 -9.323765e-16 1.8799372e-12 0.024432996 -1.2071183e-05
-4.788403e-28 0.019416869 3.1319274e-07 -0.0002023556 0.004262093 5.8289317e-18 -2.2694395e-13 0.13163823
0.033207957 -0.008792721 0.021590903 -0.0013994524 0.007421073 -1.996371e-15 1.3640355 -2.6240088e-16
0.121611364 7.5622076e-05 -0.063030034 0.0037597166 -1.0814832e-06 -2.3487955e-06 -2.7450477e-20 -9.7192584e-05
-0.030656435 -1.3604661e-12 2.578864e-06 0.0077907187 -0.0002452604 0.09729172 -0.014033906 0.0031919477
00000000: 7c3f c13b a583 2ebc 569f 6cbd 7c85 6bbc
00000010: ea1a 36b7 3460 4bb9 d8a1 4b3c 5fc5 b1b5
00000020: 3c2d 21bb ce44 3736 1cc6 e4b9 b8c0 8f96
00000030: 3c38 8ab8 7570 dbba 9822 11b6 f1ef 233a
00000040: 54f6 a4bb 3bfb e839 398d 0737 94e2 2631
00000050: e880 e93a 9c80 833d 0012 aa31 2f74 01ba
00000060: 8de4 2534 59a5 8b39 1968 9e3b b6f8 8abb
00000070: 9f5e 86a6 f049 042c b527 c83c 5685 4ab7
00000080: 24c0 1792 2010 9f3c e224 a834 6b2f 54b9
00000090: 07a9 8b3b b40c d722 2484 7faa 2ccc 063e
000000a0: 1105 083d 580f 10bc 68df b03c d56d b7ba
000000b0: 792c f33b 8bda 0fa7 b798 ae3f 8943 97a5
000000c0: 610f f93d 4b97 9e38 e415 81bd 9465 763b
000000d0: 7b27 91b5 00a0 1db6 97a1 019f dfd3 cbb8
000000e0: 3423 fbbc f577 bfab 8c10 2d36 4949 ff3b
000000f0: 4b96 80b9 e240 c73d 78ee 65bc ff2f 513b
