1-GNNs/result/6108_AR_NURA_GCN_0920/48/model.pth (torch, 77732 bytes, 10 tensors)

gnn.gnn_layers.0.graph_conv.weight f4 [74, 128]
00000000: ff20 08ba f0c7 caba cdb5 28be 59e9 c1ae
00000010: 4fc2 ccbe 3f31 b0bc bcc4 3fb6 f1d2 f0b8
00000020: 22f2 27bd a7d4 99bc 46af aebe 7856 10bb
00000030: fa5d 9dba 7a1a 32b4 02a0 a6b4 3502 16be
00000040: 2acb aebd e0e9 bebc 18bf 92b8 7faf 0ab6
00000050: e93c b8b5 1cae bc35 e3ed 88b8 95a0 d63e
00000060: 7fb3 38bb b766 c1bb c4d6 29b4 caca 17b0
00000070: a3c6 533e be17 99af 7e66 f03b b22a 283e
00000080: 54fe 8f35 5b17 b9b1 c4ae 12bd 8297 e8b6
00000090: 0782 a4b4 b0b2 4eb6 422a 3d3c c3cb c9b9
000000a0: 0908 9dbb a353 f3b8 488d f9b5 2bd5 ca3e
000000b0: d10a b4bc 2024 bfbb 1d1b 86bd 2540 2ebf
000000c0: 2a2d 08ba ab19 00bb 7a98 94bb fe41 05b9
000000d0: 818a 2dbd b0ef b3aa 2e16 5db8 6455 35bd
000000e0: aeac 53ba 5e16 d7a5 fcff 98b5 eae5 aeb9
000000f0: 8f28 94b0 dd52 b1bc bc5b aab7 58f5 21b7
00000100: d0ff 21ba 26f9 7c3b 6a53 0fba 472f ddbe
00000110: 124b d1bc f603 95b7 c37e dbbc 5829 14b8
00000120: cef0 97be 7034 c8b9 4c80 bdb8 eedd 9cbb
00000130: c118 1dba 609d 9bbc 8ba1 d8be f4dc 00bc
00000140: a0ea 70b5 574b 2cbc 611b c43e 62c4 66bc
00000150: 5ef3 69bd e9bc 9fb3 0e69 86b6 3542 50be
00000160: 3c1e 0cbd c399 96be 0f19 38ba 2368 61be
00000170: 84b1 16b8 a386 6fbd d2c6 443e 6c55 50b5
00000180: fe6a c6ba 8996 f6ad d26c e6be 81b9 edbc
00000190: 3fe6 d1bb f40a 83b8 0cf4 56ad 374d 4e2c
000001a0: cc6a 16b8 a118 dfbe 54aa f4b7 d8cb 50b5
000001b0: ac7b 04bb 7a62 35b9 b94b 7eba 01f5 6cb5
000001c0: e500 4bba 61ef aab9 b4fb 0ab7 a338 7bbb
000001d0: ef48 2eb7 cd8e 94ba 046e 20b5 645e 4035
000001e0: 2e20 e6bd cd38 e2bc 1f16 02b7 d432 37b9
000001f0: 34f1 d2bd cd59 84b7 ed3c 09b9 2df2 04ba
00000200: 3f6b bb39 3354 49b9 e139 a3bd 71d6 fd2d
00000210: 7ef1 6dbe c67b dd3b 89a9 2337 c212 6cba
00000220: d933 753c 5b8e c1b9 1dc3 b83d 5f3b f7bd
00000230: 8b1c 1139 9c7b 99b4 290b 16b1 dd4c d83b
00000240: 1cef 063c b1f7 65be 0ecc ea37 e350 7234
00000250: 535b 62b3 7b41 e135 b832 6938 f7e0 50bd
00000260: 4295 c8b9 0858 95bb 0233 c2b1 fa60 622f
00000270: 8b53 9bbe 63b3 e687 e852 4abe 3617 ac3d
00000280: fbbe aa34 d1f3 2431 ed4e eebb d3b5 01b7
00000290: 0c69 f1b3 1ab4 cfb4 f621 bdbb 17eb cdb7
000002a0: 7fad d53a edfa d836 7acf 72b4 1944 16be
000002b0: efb6 85bb 73f6 36bb 2a12 d2bc 8808 eb3e
000002c0: ac93 f937 88c6 25ba 4be6 eebb c80c 69b7
000002d0: e914 87bc 87a1 6ca7 e4b8 14b7 abaf 4dbd
000002e0: 430f a1b8 6165 8b01 d349 5333 8143 84b8
000002f0: 2161 1caf dede bfbb 4c0b 81b6 0cc0 ab35
00000300: ba25 39ba e960 433b 64b5 3ab9 8ca9 bdbc
00000310: 94d5 a5bc e5ff 4837 738a d63a 3c6f b536
00000320: 224f 8cbd f81c ba38 4c66 1db9 7c67 1839
00000330: 123b 99b8 fe64 c83b 9c91 84bc 33aa 8abb
00000340: deaa 5b34 47ed 57bb ac9d cebe 94da e23a
00000350: 7a5e 54bc 92d7 93b1 8a1e 6ab6 0546 85be
00000360: eca8 8139 dceb 88bd 75db 8fb9 6f4c 1abd
00000370: 976a 70b6 c3ca f93c d146 4fbe 6661 b3b5
00000380: 03e9 57b9 45eb dd2c 972f 8f3d 3646 c23a
00000390: 58ef 913a 0c1a 2cb8 0d17 1bad 40e6 c4a4
000003a0: 6442 feb4 f607 ac3b 9442 af35 059f 8c34
000003b0: 1850 b53b 27cc 92b8 fdf3 91b9 d1d6 afb3
000003c0: 1e15 58b9 1f60 4338 63c4 28b5 0319 25bd
000003d0: dfb4 0033 6228 2d3a 9722 1433 0e75 0d37
000003e0: 29b1 fbbc 2bd1 563c 942d 0fb7 63e7 7538
000003f0: fd2e 143e b1c4 1db7 6401 dfb7 cc97 7eb9
-0.0005192905 -0.0015470963 -0.16475601 -8.818075e-11 -0.39991996 -0.021507857 -2.8575732e-06 -0.00011483383
-0.0410024 -0.018778158 -0.34118098 -0.0022024196 -0.0012006157 -1.6587174e-07 -3.103633e-07 -0.1464928
-0.08534844 -0.02330488 -6.9974165e-05 -2.0665755e-06 -1.3726795e-06 1.4057764e-06 -6.529295e-05 0.4191939
-0.002818316 -0.005902137 -1.5817483e-07 -5.522166e-10 0.20681243 -2.7847408e-10 0.007336437 0.16422537
1.072835e-06 -5.386864e-09 -0.0358112 -6.9317766e-06 -3.0641988e-07 -3.0800402e-06 0.01154572 -0.00038489522
-0.0047922176 -0.000116027215 -1.8593064e-06 0.3961576 -0.021977814 -0.005833164 -0.0654814 -0.68066627
-0.0005194718 -0.001954655 -0.004534778 -0.00012708452 -0.042368416 -3.1963104e-13 -5.2711162e-05 -0.044270888
-0.00080747425 -3.7311711e-16 -1.1399384e-06 -0.00033359166 -1.0779945e-09 -0.021645958 -2.0308296e-05 -9.653471e-06
-0.00061797816 0.0038600652 -0.0005467447 -0.43200132 -0.025548492 -1.7764029e-05 -0.026793843 -3.5324454e-05
-0.29675907 -0.00038186042 -9.0361194e-05 -0.0047871983 -0.00059927633 -0.01899594 -0.42310748 -0.007865179
-8.974839e-07 -0.010516009 0.38302138 -0.014084907 -0.05711686 -7.438377e-08 -4.005741e-06 -0.20337756
-0.03420852 -0.29414186 -0.0007022777 -0.22012381 -3.592811e-05 -0.05847801 0.19216469 -7.7610343e-07
-0.0015138087 -2.8033813e-11 -0.45004898 -0.02901912 -0.0064056213 -6.248607e-05 -1.2218681e-11 2.9317224e-12
-3.586225e-05 -0.43573478 -2.9166382e-05 -7.778267e-07 -0.0020215316 -0.0001729819 -0.00097006146 -8.827338e-07
-0.0007743969 -0.00032603278 -8.284045e-06 -0.0038333319 -1.0388189e-05 -0.0011334062 -5.976474e-07 7.166293e-07
-0.112366065 -0.027614975 -7.753754e-06 -0.00017471175 -0.10299912 -1.5777443e-05 -0.00013088035 -0.00050714874
0.00035747324 -0.0001920022 -0.07970024 2.8858001e-11 -0.23236653 0.0067591397 9.75503e-06 -0.00090054807
0.014965975 -0.00036917892 0.0902159 -0.12071871 0.0001383891 -2.8588408e-07 -2.1834217e-09 0.0066009597
0.008235719 -0.22457768 2.7989994e-05 2.2567433e-07 -5.2702784e-08 1.6782864e-06 5.5598764e-05 -0.050995793
-0.00038258178 -0.0045576133 -5.651942e-09 2.0589033e-10 -0.30337176 -3.4711988e-34 -0.19758189 0.08402865
3.1803924e-07 2.4003735e-09 -0.0072725923 -7.731333e-06 -1.1241545e-07 -3.8687796e-07 -0.0057718707 -2.4547377e-05
0.0016302316 6.4665132e-06 -2.2613486e-07 -0.14674415 -0.0040806453 -0.0027917891 -0.025643427 0.45904946
2.9751878e-05 -0.0006323834 -0.0072906367 -1.3890858e-05 -0.016489463 -3.2839143e-15 -8.864536e-06 -0.05021636
-7.679921e-05 5.120601e-38 4.919441e-08 -6.306824e-05 -1.4222624e-10 -0.0058554253 -3.8458147e-06 1.2796386e-06
-0.00070628116 0.0029812402 -0.00017805916 -0.023152135 -0.020243444 1.1980509e-05 0.0016368165 5.4071697e-06
-0.06851031 8.874567e-05 -0.00015010795 0.000145344 -7.306611e-05 0.006115555 -0.016182713 -0.004231715
2.0458126e-07 -0.0032947825 -0.4035467 0.0017307573 -0.012961978 -4.3027706e-09 -3.4886493e-06 -0.26029983
0.00024730654 -0.066856116 -0.00027438594 -0.03767055 -3.582483e-06 0.030492192 -0.20241858 -1.3364886e-06
-0.00020590801 6.307318e-12 0.06991499 0.001482195 0.0011133952 -4.1032254e-05 -8.815848e-12 -8.539151e-17
-4.7359492e-07 0.0052499725 1.3057893e-06 2.6192734e-07 0.0055332296 -6.999849e-05 -0.0002783834 -8.1881474e-08
-0.00020607232 4.6581143e-05 -6.287066e-07 -0.040307056 2.9966824e-08 0.0006605444 3.4490395e-08 8.431509e-06
-0.030724125 0.013111393 -8.534076e-06 5.8628048e-05 0.1447105 -9.403725e-06 -2.658432e-05 -0.00024279876

gnn.gnn_layers.0.graph_conv.bias f4 [128]
00000000: c585 ad39 4f28 c2ba a6af 71be d378 f92d
00000010: 6737 a8be dad7 ffbc 3108 e535 ac30 36ba
00000020: 2f4f cfbc c602 34b9 c073 fe3c f396 39be
00000030: 96e1 ebb9 eb49 1db4 21cf 6eb4 891e a1bd
00000040: be5d 903c 4f5f ddbd b0d0 f4b7 5906 0b33
00000050: 4612 c034 105e b2b5 87e4 8c38 c70b 1dbc
00000060: ad73 f5ba af0d ecba 71a7 dcae 9e29 2eae
00000070: b6fc a6bd 2156 8c0c d5fa b6bd 1eca 363d
00000080: 37af 6235 8ea7 8030 73ec 9539 fdeb 03b6
00000090: 09ef 2eb4 6777 ce35 7105 923b 504e adb9
000000a0: fd24 c6b9 6ec5 40b8 cc74 dcb4 9739 1bbd
000000b0: 8d53 10bc d304 48ba 952e 4b3d 4e4e 7c3e
000000c0: 7bd8 6339 1fa9 1cb9 0987 0bba b786 6d36
000000d0: c010 33bd 5501 5a27 659a 11b8 a993 89bc
000000e0: beb2 a2b8 501b 1380 ac3e 94b2 e5e7 1639
000000f0: 2e8d 2eb0 d579 88bb 0e1e dc37 1d95 e7b6
00000100: 9c18 ccba c7d3 d4ba 01f6 1cba fca6 9fbe
00000110: 031f 1bbc b385 b636 d039 a6ba 0ac8 0bb7
00000120: 3301 28be 5d9f 5339 e6fb 68b9 a9e7 18bb
00000130: 33ac adb9 0008 31bc 2327 c8be e181 1bbc
00000140: 6642 46b5 3f96 d9bb f0aa b93d 0341 0bbc
00000150: 47b3 c5bb ecc1 94b3 f615 30b6 23c1 16be
00000160: e3bf eab9 ae1d e83c 0660 57b8 1645 0abe
00000170: b0f9 7fb7 d497 6fbc d544 9fbe e4b3 7e34
00000180: b80c 88ba f769 8e2d 924d 9abe aa22 15bc
00000190: c53d 5e3b 4490 b0b8 d1cc 31ae 1dab 0325
000001a0: d58f a0b6 1103 9d3c c3cf fc36 b01d 25b5
000001b0: 90b8 7cba b77b e8b8 488e 1339 648b 3c34
000001c0: e470 a039 19fe 93b9 40b4 8db6 181c d73c
000001d0: e25d e4b5 0bd1 3139 d91f c033 bacd 76b6
000001e0: 636f 203c 967c 7fbb 129e 1b37 8e8f 82b8
000001f0: c215 923e dd6d 90b7 66d3 89b7 a8a0 f938
0.00033096797 -0.0014813038 -0.23602161 2.836168e-11 -0.3285477 -0.031230856 1.7064214e-06 -0.00069500017
-0.025306312 -0.00017167171 0.031061053 -0.18123989 -0.00044990767 -1.4648656e-07 -2.224083e-07 -0.07867152
0.017622825 -0.10809194 -2.9184244e-05 3.2369233e-08 3.5776083e-07 -1.3289409e-06 6.718287e-05 -0.0095853275
-0.0018726491 -0.0018009449 -1.0034185e-10 -3.9599983e-11 -0.081536695 2.1622252e-31 -0.08934561 0.044626348
8.444653e-07 9.360848e-10 0.00028595663 -1.9657884e-06 -1.6291973e-07 1.5382947e-06 0.004456215 -0.0003305548
-0.0003779306 -4.5960238e-05 -4.1063174e-07 -0.03789672 -0.008808983 -0.00076301134 0.04960497 0.24639246
0.00021729052 -0.00014940322 -0.0005322551 3.5394166e-06 -0.043717146 3.02543e-15 -3.4714485e-05 -0.016794043
-7.758055e-05 -1.754672e-39 -1.7257967e-08 0.00014391502 -6.350146e-10 -0.004164914 2.6240039e-05 -6.9016955e-06
-0.0015571299 -0.0016237431 -0.0005987585 -0.31182086 -0.009467843 5.4395873e-06 -0.0012682024 -8.331621e-06
-0.16406707 0.00020181896 -0.00022219084 -0.002333144 -0.0003312543 -0.01080513 -0.3909236 -0.009491415
-7.385737e-07 -0.006640225 0.09065807 -0.008499387 -0.0060333344 -6.927061e-08 -2.6238827e-06 -0.14722113
-0.00044774925 0.028334465 -5.1349423e-05 -0.13502917 -1.5257319e-05 -0.014623601 -0.31107202 2.3721037e-07
-0.0010379767 1.6190589e-11 -0.30137306 -0.009102503 0.003391133 -8.4192056e-05 -4.0427054e-11 1.1420414e-16
-4.785116e-06 0.019166501 7.534372e-06 -6.151049e-07 -0.0009640539 -0.00011085666 0.00014072016 1.7559574e-07
0.00030601688 -0.00028227342 -4.2231113e-06 0.026258513 -1.7014647e-06 0.0001695791 8.94649e-08 -3.6776605e-06
0.009792182 -0.003898417 9.275524e-06 -6.225622e-05 0.28532225 -1.7217297e-05 -1.6430113e-05 0.0001190317

readout.weight_and_sum.atom_weighting.0.weight f4 [1, 128]
00000000: d6e2 fcba a02f 76ba e930 a2bd 94fe 00ae
00000010: 14b9 09be d037 9bbb 5444 da36 c2f7 0ab9
00000020: 04d2 dbbc 31cd e9bb 7098 a7be cb94 c5be
00000030: 8c3e 94ba cdb6 8932 45e8 b233 eff9 ad3d
00000040: 88db adbd b014 45be 9ae4 58b8 76ce 9234
00000050: b835 2334 17eb 2335 5d3a 29b9 90f2 69bd
00000060: fce7 0a3a af10 433a 5045 35b2 74c5 5cae
00000070: 37d7 9fbd 1500 17a6 710b d1be 10d5 75be
00000080: f110 7435 6153 22b1 2fdc c6bd 579d eb38
00000090: 620a bab4 62f8 c035 a4ed 27bb a865 84b9
000000a0: dca5 58bb a9e1 deba 4f52 9837 9689 043d
000000b0: fd5d 0d3c c6ed 8f3b 217c 58be 54eb 16bf
000000c0: 4ec7 beb9 e6e5 4ebd e194 293a e51d 88b7
000000d0: 80dd 67bd 0b5c ca29 c9f6 3ab8 7fbd 2ebd
000000e0: aefd 023a b7f8 7080 0fce 5234 037e 08b9
000000f0: a8c6 6dae 5bab 04bc 4e6d 5bb9 679d bd36
00000100: d0db 93ba 5620 5f3a 847a ff37 cfe3 5cbd
00000110: 6c17 f4bd 3eba 73b6 8d33 9dbc 7de9 a7b8
00000120: eb61 47be 62be 8bb9 644c ea37 82b7 04bb
00000130: 13bb ccb9 ca4e 13bc 5480 ee3d e07b 5dbd
00000140: 523b 4935 6557 783b 814e 54be 0986 63bb
00000150: 1ddf f4bc 3efa 4033 4cc4 1437 316b b5bd
00000160: 3895 a5bc 9cbe e1bd 2607 38bd 57ba babd
00000170: 2bea 6ab8 1ee7 3bbd e44a 19be 991b 0db5
00000180: 83a8 99ba 9dfb a42d 1a93 f2be 6c99 05bd
00000190: a423 a5bc 6ca8 93bb e9d8 91af f0bc adab
000001a0: e8f0 97b8 53e6 c5be 1e14 dfba abd5 3db3
000001b0: a31c f7ba 5326 cab9 f5fb db36 8d1e 41b5
000001c0: b1cc bdba a9a3 3739 f5de b2b3 9ac2 5cbd
000001d0: 1140 a1b6 776b d0ba a865 45b2 0e7b d2b7
000001e0: ae25 e2bc 5586 d1bc 594f 85b9 98f7 8dbb
000001f0: 2fa7 773e fb1f 20b8 d308 3537 68ad 4a38
-0.0019293677 -0.0009391252 -0.07919485 -2.932994e-11 -0.13449508 -0.004736878 6.5048607e-06 -0.00013253003
-0.026833542 -0.0071350564 -0.32733488 -0.38590083 -0.0011310144 1.6032027e-08 8.3310205e-08 0.08494937
-0.08489138 -0.19246173 -5.1711315e-05 2.734484e-07 1.5200101e-07 6.106433e-07 -0.00016138838 -0.05711609
0.00052988506 0.0007441146 -1.05513465e-08 -5.0197582e-11 -0.07804721 -5.238876e-16 -0.40829042 -0.24007058
9.0921736e-07 -2.3621498e-09 -0.097099654 0.0001123498 -3.4652754e-07 1.4377404e-06 -0.0025623823 -0.00025252742
-0.0033057844 -0.0017004508 1.815814e-05 0.032357775 0.008628366 0.0043923585 -0.21141101 -0.5895283
-0.00036388118 -0.050512217 0.0006469023 -1.6226384e-05 -0.056607723 8.986569e-14 -4.4575692e-05 -0.042661186
0.00049969077 -1.0374798e-38 1.9632738e-07 -0.00013016914 -5.4064003e-11 -0.008097495 -0.00020926187 5.650963e-06
-0.0011280719 0.00085115933 3.045542e-05 -0.053928193 -0.1191853 -3.631823e-06 -0.01918962 -8.006671e-05
-0.19470946 -0.00026653992 2.7930546e-05 -0.002025098 -0.00039049293 -0.008990953 0.116455704 -0.054073215
7.496466e-07 0.0037893888 -0.20733072 -0.0034717342 -0.029891545 4.4931078e-08 8.867191e-06 -0.08858336
-0.020212755 -0.11022684 -0.044928692 -0.09117573 -5.6008033e-05 -0.045874707 -0.14969975 -5.2566753e-07
-0.0011723194 1.875638e-11 -0.47377855 -0.032617018 -0.020158596 -0.0045061614 -2.652947e-10 -1.234483e-12
-7.2451134e-05 -0.38652286 -0.0017019545 -4.419932e-08 -0.0018853139 -0.00038556996 6.5560403e-06 -7.194256e-07
-0.0014480558 0.00017513208 -8.3293266e-08 -0.053896524 -4.805632e-06 -0.0015901168 -1.1490023e-08 -2.5091253e-05
-0.027605858 -0.02557675 -0.00025426855 -0.004332494 0.24184869 -3.8176757e-05 1.0790495e-05 4.832205e-05

predict.predict.1.weight f4 [32, 256]
00000000: f212 8226 07fc dfa7 9a28 b922 0831 e11d
00000010: 4563 0826 6156 2427 ae31 86a3 61c1 2029
00000020: a944 2d26 d971 0ca1 ded0 4f23 ef7a 5da7
00000030: 998d 8f26 b710 ee1a 3a61 2122 5c0a 3721
00000040: 6c79 08a6 a687 08a3 acc0 fca5 846d 9e9c
00000050: 8fa6 a1a0 68b4 e9a3 9e0f bb25 6ac5 6aa8
00000060: 76f0 5b9f 0b34 40a2 6e97 ca1e eb86 91a5
00000070: 7323 07a8 060a 0080 af58 d925 fdb2 d2a7
00000080: 6a90 07a4 c29e 1521 f04b d5a5 a587 aca8
00000090: cfdc a79f 0237 c51f f86b 69a5 eb14 14a2
000000a0: 5172 2ba6 3ef7 eea5 4c64 95a7 550b a528
000000b0: 9755 95a8 9583 1c27 c496 12a5 a513 1328
000000c0: 2b17 a5a2 cc8e 14a8 d927 c125 11f0 a59f
000000d0: e49c a1a3 e8c5 1721 be9e aca1 da0b 8ba7
000000e0: 8f2c 1624 7b07 0000 42eb 5023 da0e 5725
000000f0: f3db fa9a 362f fe25 522a fea4 4b27 1322
00000100: e6ab a124 e4d0 33a5 bdb2 3f23 5ac6 0425
00000110: 5fa7 c3a1 e48d 021f 97a6 81a7 9bb3 cc23
00000120: 9535 bca2 a49e 1727 a537 0526 ac4b 8a22
00000130: e45c 8f1c c613 839e 432a 0c27 842f 44a1
00000140: 23b0 a034 4f2b 00a7 8241 06a9 7ef7 dfa0
00000150: b09a 3327 9349 e722 50bf 1c22 dc48 73a7
00000160: f513 f2a3 132a dda4 5d30 d8a2 92d8 a724
00000170: bd7e 63a8 9fc6 f925 6eaa b4a7 0c57 a020
00000180: eca1 80a2 2fa7 7717 19e2 3720 596b 1020
00000190: c459 2ea4 178a 5427 f700 869d 2470 0f18
000001a0: 5e46 cd28 16f6 9ea5 18d9 b4a8 337e cca0
000001b0: 8c98 6ba6 f234 8d23 07ee 3d27 a4ef 521f
000001c0: b316 d6a7 d0e6 8326 704f aaa7 0f74 0d26
000001d0: dc42 2125 d671 10a6 5444 b1b6 d584 7d27
000001e0: d512 32a5 e9c2 34a7 d9e0 0a27 9b14 0e27
000001f0: 5c55 1527 413b 45a1 2039 9929 5a22 bfa5
00000200: d441 afa4 1106 cfa9 cc2f 2924 3a53 961c
00000210: 7a1d 9f27 ad70 1028 7644 9223 ee66 24a8
00000220: f1e8 13a5 ca0a 421f 3814 9321 230e 3228
00000230: 1335 93a4 0635 bd1b ce67 6d24 8096 dca4
00000240: 7c8c 0828 fdaa 1aa5 3bd0 b125 dc72 f49c
00000250: 5561 34a2 0f4a 45a5 597d 9a26 7225 c9a8
00000260: 44b4 861e 0bf1 c11e cfbd 011f 3051 54a4
00000270: a3e1 a426 850b 0000 5a35 83a8 76e5 c5a9
00000280: 12d2 da23 e5b7 3b9f a487 a324 a75e 2428
00000290: 2dbc a020 fda9 f49d 5fb5 82a6 4ea4 1a21
000002a0: e6de 1727 c85e 7026 eca6 01a8 0e2d 4e28
000002b0: ca24 2b28 944b 63a4 523e 9524 3b89 1528
000002c0: 3c0a 56a2 9569 4ea7 56f1 a3a5 2f3e 7220
000002d0: 8260 6d25 f987 fba0 af6d 18a1 7e0d 0e28
000002e0: cf7e c2a5 1101 0080 9411 c9a2 f297 07a4
000002f0: 2c5a 8a99 f8da 6625 1ec9 1124 5fdf b3a1
00000300: 767c f325 ba03 d524 af12 e122 a2b2 91a6
00000310: d5e0 38a1 e96f c31f f06c 36a7 6a0b 48a4
00000320: 9b09 bf21 d9c8 bea7 f7cf 6126 2239 d8a1
00000330: 1b90 0b1b 663f ae9d c944 a025 0b56 4c22
00000340: 4451 529b 00d8 14a6 a689 e427 21c9 a4a1
00000350: ee54 bf24 ed78 99a3 d247 0125 37c7 76a6
00000360: eb19 ca22 caaf 00a5 8af8 2825 b566 bf22
00000370: df52 0627 332b da26 ed98 fc27 1f1f 0923
00000380: 6117 8ba4 9c09 b197 2163 4721 36c4 0f9f
00000390: 6b0f 8325 548d a528 2049 c69d 392e 4c1d
000003a0: 9df6 f028 2d58 2225 78c5 1ea8 5568 c0a0
000003b0: 211e ed24 2ca9 0da3 fc1a b1a8 02fb c21d
000003c0: cb43 3aa8 d3b8 14a8 fc27 dda8 96ec 5624
000003d0: 8526 0427 0ef2 0828 a1aa a79d 5902 b328
000003e0: f82e f824 616f 79a6 1a60 a1a8 5e38 c426
000003f0: b009 c1a7 e128 bd20 68e3 8a28 1935 04a4
9.025697e-16 -6.2168182e-15 5.018734e-18 5.96077e-21 4.7319014e-16 2.2806398e-15 -1.454935e-17 3.5694866e-14
6.0114484e-16 -4.758452e-19 1.1265722e-17 -3.0736553e-15 9.960998e-16 9.84615e-23 2.187104e-18 6.201652e-19
-4.7349036e-16 -7.4012994e-18 -4.384559e-16 -1.0483872e-21 -2.738468e-19 -2.5338316e-17 3.2449912e-16 -1.3032417e-14
-4.657396e-20 -2.6048403e-18 2.1450212e-20 -2.5244914e-16 -7.501692e-15 -3.596e-42 3.7703594e-16 -5.848077e-15
-2.9395782e-17 5.069328e-19 -3.7001067e-16 -1.9154662e-14 -7.109255e-20 8.352375e-20 -2.024611e-16 -2.0068814e-18
-5.948247e-16 -4.1453957e-16 -4.146455e-15 1.8323594e-14 -1.6579442e-14 2.172068e-15 -1.2714563e-16 8.164399e-15
-4.474787e-18 -8.2466145e-15 3.3507165e-16 -7.0277375e-20 -1.75221e-17 5.1422717e-19 -1.1697192e-18 -3.85931e-15
3.2563808e-17 2.683e-42 1.132552e-17 1.8653309e-16 -1.03752924e-22 4.4093968e-16 -1.10226634e-16 1.9943016e-18
7.011383e-17 -1.559655e-16 1.039198e-17 1.1516379e-16 -1.3258017e-18 2.764594e-20 -3.598531e-15 2.219379e-17
-5.1014234e-18 2.1041459e-15 4.6219057e-16 3.7485096e-18 9.486958e-22 -1.3878343e-20 1.9451813e-15 -6.647027e-19
2.993048e-07 -1.7787046e-15 -2.9810796e-14 -3.7941446e-19 2.4925096e-15 6.2690575e-18 2.1243222e-18 -3.3762522e-15
-2.6246145e-17 -9.591475e-17 -5.8598124e-18 7.279159e-17 -1.2628513e-14 4.3329205e-16 -5.0144816e-15 2.7162657e-19
-3.486591e-18 8.002102e-25 1.5575512e-19 1.2232793e-19 -3.780627e-17 2.9495769e-15 -3.5470502e-21 1.8538933e-24
2.2790089e-14 -2.7575385e-16 -2.0078164e-14 -3.4642456e-19 -8.1738743e-16 1.5309674e-17 2.6358054e-15 4.4667456e-20
-5.9421542e-15 9.152513e-16 -4.7270605e-15 4.907649e-16 1.3987177e-16 -5.011431e-16 -5.2829655e-06 3.5182812e-15
-1.544542e-16 -2.508568e-15 1.9273237e-15 1.9717629e-15 2.0724177e-15 -6.682462e-19 6.8044745e-14 -3.3156496e-16
-7.600567e-17 -9.193699e-14 3.668652e-17 9.947681e-22 4.4163324e-15 8.0180384e-15 1.5858346e-17 -9.126148e-15
-1.2829141e-16 4.1090022e-20 9.966459e-19 9.88405e-15 -6.3841e-17 3.1301693e-22 5.147911e-17 -9.566475e-17
7.579979e-15 -1.3415304e-16 3.0845708e-16 -1.6176256e-21 -2.4446076e-18 -1.7112118e-16 1.0719872e-15 -2.2331722e-14
1.4262358e-20 2.0534363e-20 2.747382e-20 -4.603894e-17 1.1440945e-15 4.132e-42 -1.456706e-14 -8.7883626e-14
2.3724576e-17 -3.9750904e-20 7.0919766e-17 9.124353e-15 2.7229579e-19 -6.4762026e-21 -9.069723e-16 5.2394685e-19
2.1076293e-15 8.339518e-16 -7.197134e-15 1.1445067e-14 9.500384e-15 -4.9286796e-17 6.4724024e-17 8.300919e-15
-2.9007826e-18 -2.864548e-15 -2.8439528e-16 2.0518772e-19 2.0589171e-16 -4.2611033e-19 -5.164477e-19 7.885509e-15
-3.3739564e-16 -3.83e-43 -5.449977e-18 -2.940216e-17 -1.4305286e-23 2.002351e-16 3.1612216e-17 -1.2188638e-18
4.2238118e-16 9.238034e-17 6.1006154e-18 -1.0109815e-15 -6.263919e-19 8.277085e-20 -2.531663e-15 -4.3377755e-17
1.2945206e-18 -5.2953353e-15 7.83444e-16 -1.4651852e-18 1.1544374e-22 -4.612297e-21 2.7802186e-16 2.7692706e-18
-1.7397051e-22 -5.164055e-16 6.343195e-15 -1.1166311e-18 8.297692e-17 -1.6639507e-17 1.12133e-16 -8.561838e-16
5.477965e-18 -1.116179e-16 1.4655886e-16 5.18794e-18 1.864116e-15 1.5138498e-15 7.0109853e-15 7.433375e-18
-6.0321246e-17 -1.1440783e-24 6.755502e-19 -3.044373e-20 2.2735325e-16 1.8379971e-14 -5.2485773e-21 2.7023072e-21
2.6752304e-14 1.4081135e-16 -8.813581e-15 -3.2595106e-19 1.02833406e-16 -7.679449e-18 -1.966265e-14 5.161091e-21
-1.0339774e-14 -8.255728e-15 -2.455327e-14 4.660425e-17 1.8339561e-15 7.602004e-15 -4.438096e-21 1.987401e-14
1.07632424e-16 -8.6540176e-16 -1.7916268e-14 1.361551e-15 -5.3578764e-15 3.2044897e-19 1.54197e-14 -2.8667913e-17

predict.predict.1.bias f4 [32]
00000000: 2eb4 1da6 7869 3930 7007 a2bc 79a3 8d08
00000010: 83af d6a2 88ba 8a3c 8d31 eb34 d750 0080
00000020: 36a7 1114 9fa1 2ca0 3d33 e335 b7a9 5f1a
00000030: 0dc3 008d 146f 023d 572e 0125 1130 9a39
00000040: d284 163e 84de 34be 4645 c18a 1e10 942d
00000050: d625 0080 b30a 0000 cf56 e039 ed66 b1be
00000060: 57fb caba 8d5a 899d a743 6f3e 6ec2 22b4
00000070: 7afb 8c3c 9144 1b8c c337 0080 ac9b 97bc
-5.4714506e-16 6.745249e-10 -0.019778937 8.524561e-34 -5.8190646e-18 0.016934648 4.3808214e-07 -2.9e-41
7.353606e-27 -1.4622443e-19 1.692773e-06 4.6252414e-23 -3.967783e-31 0.031844214 1.1204667e-16 0.0002940898
0.14699104 -0.17663008 -1.8611282e-32 1.683281e-11 -1.3573e-41 3.838e-42 0.00042789287 -0.3464884
-0.0015486282 -3.6357225e-21 0.23365651 -1.5158159e-07 0.017209757 -1.1961399e-31 -2.0004e-41 -0.018506847

predict.predict.3.weight f4 [32]
00000000: d04f 9028 759d ccb2 fe74 993c 8012 8d9c
00000010: 2110 42ab aa11 993f 6ac7 56b6 cd00 0000
00000020: 2395 c6a2 5b39 1621 714f 0ab6 75fc 6927
00000030: 7eb3 67a0 a81a d0bd ad77 58af 5ba1 daba
00000040: 00c9 183e 9dbe d7bd bb65 9f9f c0a0 4ab3
00000050: aa05 0080 3d02 0080 a85b 573b fca3 dd3d
00000060: d67a c23a 6199 0328 90f7 e1bd 5fea 12b6
00000070: 392e e7bd 0785 351f f107 0000 e536 44bd
1.6021825e-14 -2.3820329e-08 0.018732544 -9.335379e-22 -6.894503e-13 1.1958516 -3.200456e-06 2.87e-43
-5.3825912e-18 5.0897886e-19 -2.0609843e-06 3.2472103e-15 -1.962585e-19 -0.10161334 -1.9687603e-10 -0.0016680168
0.14920425 -0.105344035 -6.750742e-20 -4.717799e-08 -2.032e-42 -8.03e-43 0.0032861028 0.10822293
0.0014837633 7.3052196e-15 -0.11033547 -2.1892117e-06 -0.11288113 3.843828e-20 2.849e-42 -0.047903914

predict.predict.3.bias f4 [32]
00000000: e274 2a30 f858 22b6 1274 e53d aa23 1ca4
00000010: e785 39b2 aa99 7cbf 5fbf f538 2c3d 7795
00000020: 118a d5a6 87e6 6fa9 4f76 8238 803d 09ad
00000030: d1e1 e0a7 d988 74be 5c38 0331 27ed 3dbb
00000040: b187 84bd 237e 153e b161 eda5 a16d 3335
00000050: 6d67 1300 af11 40b8 6bc4 28ba fd59 0cbd
00000060: 7f72 75bc 787d 92ac 91d9 debe 9952 6d3a
00000070: f59b 1ebe ee3f 44a6 faae 050e aeb7 273c
6.201174e-10 -2.4191668e-06 0.11203779 -3.3857316e-17 -1.0798863e-08 -0.9867197 0.00011718156 -4.992951e-26
-1.4817267e-15 -5.326861e-14 6.22092e-05 -7.801204e-12 -6.241732e-15 -0.23880328 1.9095046e-09 -0.0028980465
-0.064711936 0.14598899 -4.1179145e-16 6.684223e-07 1.781977e-39 -4.5792836e-05 -0.000643796 -0.034265507
-0.014980911 -4.1634994e-12 -0.43525365 0.00090531405 -0.1548918 -6.80878e-16 1.6477764e-30 0.010236664

predict.predict.3.running_mean f4 [32]
00000000: 5381 8a2c 0724 d134 1582 cb3e 96b8 862e
00000010: 3cc3 0932 c2f8 df40 ff4a 8738 0a74 0000
00000020: 467b 8833 2440 9723 726c 3237 1592 d833
00000030: 594b 1334 3d68 8e3f ed6e 5b37 8d87 993b
00000040: 72cf 3d3f d4da 563e 87ce a132 34f4 0138
00000050: 3f44 0000 7622 0000 e9a8 f33b 9bae f23a
00000060: 29ec c53c 1540 9130 6ac2 983f 0b49 8536
00000070: 4755 323b 3fb7 7334 6932 0000 b579 843e
3.9365538e-12 3.8955497e-07 0.39747682 6.1264036e-11 8.018841e-09 6.999116 6.451271e-05 4.1627e-41
6.355417e-08 1.6398617e-17 1.0634876e-05 1.0084856e-07 1.3717853e-07 1.1125561 1.3079244e-05 0.0046853484
0.7414466 0.20981914 1.8836785e-08 3.098343e-05 2.4482e-41 1.2362e-41 0.007435907 0.0018515171
0.024160462 1.0568352e-09 1.193433 3.972212e-06 0.0027211474 2.2697803e-07 1.8084e-41 0.25874105

predict.predict.3.running_var f4 [32]
00000000: 7995 1e1c 3661 362b 59f8 243e ccb5 a025
00000010: 9474 2b2a af5a 8541 fb05 4a32 0400 0000
00000020: a5ee a528 f350 8410 8abe 2631 2493 622c
00000030: 1edb 2e2a 8c16 0e3f 7505 1531 97f1 f838
00000040: 9b49 903e 999c a73d b796 d929 6917 5432
00000050: 0400 0000 0400 0000 88f0 2e38 0232 f139
00000060: 4456 7c3a 0260 1a2a 1d6a 473f 4bce 5b2e
00000070: 03f3 ac3a a665 072c 0400 0000 66b9 363d
5.2471004e-22 6.4794296e-13 0.16110362 2.7878766e-16 1.5228297e-13 16.66928 1.1759307e-08 6e-45
1.8422175e-14 5.218954e-29 2.4264488e-09 3.2198211e-12 1.5530326e-13 0.55503154 2.1685456e-09 0.00011870561
0.28181157 0.081841655 9.662881e-14 1.2345347e-08 6e-45 6e-45 4.1708845e-05 0.0004600436
0.00096258917 1.3711257e-13 0.7789629 4.997806e-11 0.0013194982 1.924108e-12 6e-45 0.044610403

predict.predict.4.weight f4 [1, 32]
00000000: c0a2 29b0 a1d4 38b8 b923 44bb 89c5 5823
00000010: 6388 fcb1 03dd bf3f b92a 6738 ef0d aa13
00000020: c476 6427 65be 0baa b9e1 5cb7 edb5 ee2c
00000030: 437f baa7 2579 c4bd e7e1 d32f 6e35 83b8
00000040: edd8 66bd 7bac 293e 4048 daa5 e76a c5b4
00000050: 7667 0d00 f5c3 60b7 4cd0 feba f913 f6bd
00000060: 3d7f 90bb a6ca 20ab 2ba1 a2be bd98 a739
00000070: 1bb9 c43d ba08 c2a6 8cfa f58c 1211 443d
-6.1713124e-10 -4.4067045e-05 -0.002992852 1.1751213e-17 -7.3496706e-09 1.4989322 5.511448e-05 4.2927773e-27
3.170574e-15 -1.2411736e-13 -1.3165577e-05 6.7845647e-12 -5.176335e-15 -0.09593419 3.854119e-10 -6.256519e-05
-0.05635922 0.16569702 -3.786593e-16 -3.677189e-07 1.230976e-39 -1.3397065e-05 -0.0019440739 -0.12015528
-0.0044096992 -5.712465e-13 -0.31763586 0.0003196652 0.096056186 -1.346382e-15 -3.789902e-31 0.047867842
