1-GNNs/result/6108_AR_NURA_MPNN_0920/37/model.pth (torch, 437615 bytes, 26 tensors)

gnn.project_node_feats.0.weight f4 [32, 74]
3.3665547e-06 -7.931583e-06 6.1320355e-07 1.9026493e-07 -1.7086103e-06 5.8882262e-05 -8.2772823e-07 -2.350611e-06
-1.4073188e-06 -0.0010510609 1.424866e-39 3.64843e-40 -7.3524893e-06 2.8239382e-09 -0.0018084738 -2.6255625e-06
0.0018681873 7.14954e-40 -9.19948e-40 2.2607682e-10 -2.3688448e-35 6.47936e-10 1.1827673e-09 -1.4767e-41
-4.733151e-10 8.608208e-38 -4.3467746e-18 4.22402e-40 -7.2115e-40 -7.499346e-11 7.88978e-07 9.7180894e-08
8.72105e-40 -1.125101e-39 1.8519277e-06 7.3497e-40 -9.870546e-06 -7.250562e-09 -3.266931e-06 -0.0019847269
0.0038951507 4.10453e-40 -3.0614e-41 1.581826e-09 -3.4468221e-06 -1.0511097e-06 2.5357144e-07 -4.9307596e-07
5.5321427e-05 7.0217627e-09 3.1598435e-15 9.11172e-40 -7.98667e-40 -9.977433e-09 -1.4744926e-06 8.1859264e-07
9.826651e-06 -5.5490036e-06 -3.3741377e-35 1.5843531e-09 1.2515849e-38 -3.2977593e-07 -6.0154663e-09 5.157324e-07
-1.6413229e-06 -7.2248026e-06 -4.3692e-40 1.8746071e-08 -3.1794744e-07 -1.5138658e-06 1.1314974e-06 9.116831e-06
-5.5470355e-06 6.64245e-40 6.8555156e-10 1.0199183e-09 7.332226e-10 -1.6934218e-10 1.1115276e-09 3.435811e-36
-3.254115e-11 -6.180152e-10 -6.812746e-10 1.4246795e-09 -0.00084176986 6.77897e-20 -3.5074468e-10 2.04515e-40
8.5777e-40 -4.598077e-11 9.35707e-40 -0.006725696 -8.82893e-38 -9.64896e-40 3.3335684e-06 -1.3999748e-07
6.810985e-30 -2.2328448e-09 2.89081e-40 -0.021337884 6.5443e-40 3.47994e-40 -2.8006957e-09 2.27374e-39
-4.2398518e-10 -7.452049e-05 -3.3357193e-28 3.0345e-40 -1.21586e-40 -1.5944923e-07 -7.409909e-06 5.785085e-09
9.691793e-09 2.0813029e-07 -1.6372933e-36 -3.51569e-40 -1.0364265e-09 -1.3812551e-30 7.651745e-10 -2.152612e-10
2.4840023e-09 4.1929618e-10 1.136028e-39 -8.496872e-08 4.0753e-40 6.7541763e-09 -4.7065805e-05 -1.3178305e-09
1.4155868e-09 -1.06401304e-10 2.3837396e-10 1.0329361e-10 8.5948304e-05 0.014251218 1.99481e-12 -3.407845e-10
-0.0007892742 5.715717e-10 9.009944e-10 -3.1246217e-11 1.1227094e-06 -2.8681598e-06 5.5188626e-10 1.4267598e-09
-9.4773904e-11 2.3847627e-10 1.0321584e-10 0.0002190546 4.933043e-07 -2.853603e-07 -2.863721e-07 -1.8726124e-07
5.9063425e-09 0.00011927961 -8.934048e-10 6.627314e-09 5.5425943e-08 1.073239e-39 -5.55541e-09 -5.0846e-10
-2.424502e-06 -8.191587e-05 4.213894e-10 0.00049101835 -1.6894393e-09 1.2943603e-09 7.5014e-40 -6.34675e-11
-2.3772354e-06 -1.3665036e-10 -7.5525e-40 -4.0095435e-07 -1.4221249e-26 3.88719e-10 -3.3740627e-05 0.0036528823
4.6087e-40 8.5638196e-05 -2.0604143e-35 3.392798e-10 -1.210074e-39 3.3253995e-09 -7.659599e-10 7.542353e-18
1.0250058e-08 -4.21666e-40 -1.078361e-39 -5.7083027e-05 -2.27015e-40 -2.13726e-40 -1.3315412e-06 6.53732e-40
-7.733036e-07 1.09071e-06 -7.9054786e-07 8.9944745e-09 3.1342756e-10 -2.1111164e-10 1.0000453e-09 3.8510157e-07
-1.21511e-39 -9.34843e-40 -7.311336e-07 -9.0622294e-08 1.263347e-06 -3.27185e-07 1.50826e-40 5.98782e-40
5.945453e-07 1.11950325e-08 3.0339428e-10 -9.2519734e-08 -8.1211033e-07 7.5388994e-07 -1.197074e-06 -2.490371e-06
-6.672449e-08 -7.438616e-07 -6.843184e-08 1.2636539e-06 -3.2588238e-07 -9.48882e-40 -1.24547886e-14 -3.8685634e-15
-9.041137e-15 5.178152e-15 1.2138922e-14 -7.148199e-10 -1.3173655e-15 1.5585896e-15 -2.5809448e-15 -4.0148162e-08
0.038461804 -2.1385889e-08 -5.0780473e-05 1.95309e-40 1.5199831e-09 -2.0153277e-15 4.8257e-41 0.0009936246
1.052157e-39 -2.1414496e-38 -1.14313385e-10 -6.30349e-40 3.27881e-40 6.079001e-07 -3.202254e-33 -0.01226725
1.0656273e-34 -7.1589035e-05 -2.3637616e-37 -3.079188e-15 4.18506e-40 -7.063754e-06 -2.6425815e-36 -1.2085738e-23
00000000: f8ec 6136 e411 05b7 079b 2435 a04b 4c34
00000010: 6753 e5b5 59f8 7638 0d31 5eb5 31bf 1db6
00000020: 1be3 bcb5 c0c3 89ba f283 0f00 09f9 0300
00000030: 67b5 f6b6 3f0f 4231 500a edba d232 30b6
00000040: f7dd f43a 00c9 0700 7104 0a80 f892 782f
00000050: 17e6 fb85 711a 3230 ed8e a230 2a29 0080
00000060: 971a 02b0 7456 ea01 205e a0a2 7c99 0400
00000070: 46da 0780 91e9 a4ae 28ca 5335 c3b1 d033
00000080: 137f 0900 5340 0c80 c08f f835 cc00 0800
00000090: ac99 25b7 9e20 f9b1 723d 5bb6 3112 02bb
000000a0: c945 7f3b 2d78 0400 5755 0080 8e67 d930
000000b0: f44f 67b6 db13 8db5 9822 8834 ec5b 04b5
000000c0: ee08 6838 1444 f131 d3b0 6327 faeb 0900
000000d0: 5cb2 0880 3769 2bb2 2ee7 c5b5 42bd 5b35
000000e0: 25dd 2437 9431 bab6 6266 3386 78c0 d930
000000f0: 1849 8800 0f0c b1b4 9ab0 ceb1 dc70 0a35
00000100: 6d4b dcb5 956c f2b6 f5c1 0480 0c07 a132
00000110: 5db2 aab4 0830 cbb5 f4dd 9735 7ef4 1837
00000120: ac20 bab6 a53b 0700 6771 3c30 2f2d 8c30
00000130: f48b 4930 9631 3aaf 67c4 9830 ab24 9204
00000140: 141e 0fae f4e0 29b0 7044 3bb0 74ce c330
00000150: 38aa 5cba 5c10 a01f edd2 c0af 1b3a 0200
00000160: 1d57 0900 bf39 4aae 5f30 0a00 3a63 dcbb
00000170: a958 f081 bd81 0a80 45b6 5f36 3752 16b4
00000180: a824 0a0f 9f70 19b1 d725 0300 c9cc aebc
00000190: 4920 0700 11ca 0300 5c76 40b1 43c2 1800
000001a0: 9c16 e9af e247 9cb8 246d d391 e54d 0300
000001b0: ef52 0180 1235 2bb4 a2a2 f8b6 25c6 c631
000001c0: f580 2632 6b7a 5f34 1749 0b84 08d4 0380
000001d0: 0472 8eb0 181f e08d 5e54 5230 a4ae 6caf
000001e0: 08b3 2a31 b182 e62f c95e 0c00 0c78 b6b3
000001f0: 0770 0400 5d12 e831 8668 45b8 0a1f b5b0
00000200: 888e c230 9cfa e9ae 270c 832f 2225 e32e
00000210: 253f b438 f17d 693c 4d5f 0c2c 2859 bbaf
00000220: 4ce7 4eba c81c 1d30 d8a9 7730 1d6c 09ae
00000230: 00b0 9635 9c7a 40b6 8bb3 1730 a617 c430
00000240: f768 d0ae 8d1a 832f 5af9 e22e 05b2 6539
00000250: 9d6b 0435 9f33 99b4 afbe 99b4 fa11 49b4
00000260: bdf0 ca31 c125 fa38 c693 75b0 78b6 e331
00000270: 780d 6e33 c1af 0b00 e7e1 beb1 b1c3 0bb0
00000280: a1b4 22b6 3fca abb8 49a9 e72f afb7 003a
00000290: dc31 e8b0 41e5 b130 162b 0800 0791 8bae
000002a0: 9888 1fb6 a83f 16af 5439 0880 bf42 d7b4
000002b0: 26d7 8c94 56b3 d52f b984 0db8 3265 6f3b
000002c0: b804 0500 a898 b338 d019 db85 6385 ba2f
000002d0: 322d 0d80 0c85 6431 a38b 52b0 c121 0b23
000002e0: 3b18 3032 6f97 0480 08be 0b80 6f6c 6fb8
000002f0: d378 0280 c853 0280 68b7 b2b5 571e 0700
00000300: 0595 4fb5 8364 9235 0936 54b5 1e86 1a32
00000310: 024f ac2f a51e 68af f771 8930 f5bf ce34
00000320: 3b3b 0d80 f62d 0a80 1e43 44b5 229c c2b3
00000330: 4690 a935 f7a7 afb4 71a4 0100 2985 0600
00000340: d898 1f35 4654 4032 f3ca a62f 43af c6b3
00000350: ccff 59b5 ec5e 4a35 26ab a0b5 3f20 27b6
00000360: 2d4a 8fb3 c8ad 47b5 cdf4 92b3 d19a a935
00000370: eff4 aeb4 1955 0a80 935d 60a8 3361 8ba7
00000380: e3de 22a8 0690 ba27 e6ac 5a28 fb7c 44b0
00000390: 35da bda6 cf9d e026 07fa 39a7 5f6f 2cb3
000003a0: 208a 1d3d 11b4 b7b2 1efd 54b8 7120 0200
000003b0: a7e7 d030 3c38 11a7 8586 0000 823c 823a
000003c0: fc74 0b00 e72e e980 b760 fbae 28dd 0680
000003d0: 0092 0300 942e 2335 3504 8589 93fc 48bc
000003e0: 6ba5 0d07 1222 96b8 89de a082 fee0 5da7
000003f0: a08e 0400 2f05 edb6 54ce 6084 adc5 6999

gnn.project_node_feats.0.bias f4 [32]
-2.199955e-06 5.1737015e-10 6.940941e-08 -4.4653326e-12 -7.388027e-11 -9.732712e-12 6.0944956e-09 -8.085115e-11
7.0586614e-10 7.4735357e-10 -2.486964e-07 -6.1400733e-06 2.9351e-05 -3.805006e-08 4.2730946e-08 -2.4544747e-07
-0.00029004813 -0.0010300926 7.1479207e-07 -1.1891606e-06 -0.0012779798 -4.3822657e-11 -6.7839966e-07 -7.505131e-06
2.1336553e-05 1.850879e-07 -6.113485e-09 -8.831232e-05 -0.007986615 1.8764181e-09 -4.2111887e-07 0.00530251
00000000: f0a2 13b6 b036 0e30 3a0e 9533 241c 9dac
00000010: e576 a2ae 3d38 2bad c067 d131 27cb b1ae
00000020: ea06 4230 556e 4d30 9384 85b4 d406 ceb6
00000030: cb36 f637 7c6c 23b3 2c87 3733 0bc6 83b4
00000040: 9a11 98b9 2c04 87ba 23e0 3f35 3f9b 9fb5
00000050: e381 a7ba edbb 40ae 451b 36b5 96d4 fbb6
00000060: e6fb b237 93bc 4634 c80e d2b1 5134 b9b8
00000070: 4bda 02bc 4cf2 0031 2316 e2b4 aec0 ad3b

gnn.gnn_layer.bias f4 [32]
2.3651949e-06 1.6346017e-09 -2.0088886e-07 3.1572855e-10 -3.3865792e-05 -7.4610597e-07 9.1604335e-08 4.3414962e-05
2.7305834e-06 4.866126e-08 -5.2960294e-09 -7.1208087e-06 -3.5286207e-06 -1.446719e-08 3.1829114e-08 8.817003e-06
-4.2551833e-09 -3.8802634e-07 5.8210204e-05 -3.5178398e-06 -1.0830718e-08 4.227618e-08 -2.9213759e-06 -3.0269136e-09
-4.287513e-07 -3.9588613e-06 5.190946e-06 -7.410176e-06 -0.0001775276 -2.4793633e-06 -4.0911228e-08 -1.3068768e-06
00000000: bdb9 1e36 6fa8 e030 e9b3 57b4 d892 ad2f
00000010: 1e0b 0eb8 0348 48b5 04b8 c433 7618 3638
00000020: 113f 3736 9fff 5033 5ef8 b5b1 48ef eeb6
00000030: 3ecd 6cb6 608b 78b2 7bb4 0833 bdec 1337
00000040: fd34 92b1 ef51 d0b4 bb26 7438 0714 6cb6
00000050: 0012 3ab2 2793 3533 db0c 44b6 0702 50b1
00000060: 212f e6b4 5cd6 84b6 e32d ae36 eda4 f8b6
00000070: b426 3ab9 2363 26b6 5fb6 2fb3 f267 afb5

gnn.gnn_layer.edge_func.0.weight f4 [64, 13]
-1.2592846e-10 -3.228169e-11 -1.4062952e-12 1.1544929e-10 1.2680642e-12 4.4812275e-11 -7.468115e-11 -6.43015e-40
7.51774e-40 -7.34527e-40 -1.7051172e-09 -1.190828e-39 -8.53753e-11 -6.3204793e-09 1.6877577e-11 -3.0438276e-09
-6.5555686e-11 -3.7932937e-10 -4.6803077e-09 -2.8000786e-09 -3.66227e-40 -8.34361e-40 7.31957e-40 2.7133224e-11
8.114766e-08 -1.7003258e-09 3.962281e-09 -4.6044275e-09 -5.4224065e-09 -7.047535e-09 1.3981315e-09 -1.5108323e-08
8.257331e-09 -8.5108e-40 6.5097934e-27 -3.566984e-09 -2.00593e-40 -8.122144e-06 3.865939e-08 -2.1333851e-06
1.2924843e-07 -5.6301883e-07 -1.2816461e-06 1.0399128e-06 -2.009263e-06 6.978323e-07 -4.36398e-40 7.5807e-40
-9.64591e-40 1.101873e-39 -4.7229e-40 -7.6591334e-08 -1.4899462e-07 -2.2031571e-08 7.30646e-10 -1.041677e-08
-1.2915851e-07 1.301797e-07 -1.4596421e-07 -0.02282601 -1.139589e-39 -1.180855e-39 1.9214597e-09 -9.2187e-40
-1.6891592e-07 -8.9799876e-11 -1.279222e-10 2.2543656e-11 2.0532577e-11 -7.508114e-11 -7.516784e-12 5.3333206e-11
9.88591e-40 -1.437773e-39 -7.75107e-40 -8.26121e-40 4.50861e-40 2.9144062e-11 8.189067e-09 -1.8933821e-09
-5.1474497e-10 1.2826085e-08 -1.1869915e-09 2.1106281e-08 3.231018e-09 1.9570119e-09 -6.8183e-40 -1.283626e-39
4.90855e-40 -3.48304e-40 -6.041404e-09 5.3864348e-08 -3.189247e-08 1.1733965e-08 5.570067e-08 2.7870806e-08
-5.8601582e-08 -7.265349e-08 -5.86527e-40 0.028556429 5.1508774e-33 1.21752e-40 -8.53441e-40 3.869646e-09
-1.3153449e-07 -1.5996615e-07 1.1483695e-08 2.964234e-08 4.6866692e-08 8.488786e-08 5.055691e-08 -8.09303e-40
-1.3416e-41 -1.245592e-39 5.3385e-40 -1.262151e-39 -1.8232104e-08 6.3844885e-10 -1.5030446e-09 -1.1952608e-10
5.4845267e-10 1.3372607e-09 4.745373e-10 -2.5745084e-09 -4.42202e-40 -7.00679e-40 5.9039604e-07 -8.28152e-40
-1.096946e-39 -1.6273668e-09 -2.7425983e-08 3.8808903e-09 -1.9577735e-09 2.6104946e-08 2.2393307e-08 7.635617e-09
-2.9106092e-08 8.7237784e-10 5.52697e-40 5.9611e-40 3.31982e-40 5.009194e-10 -2.0552086e-08 -9.138276e-09
-8.857449e-09 -8.228797e-10 2.57051e-09 -1.6872417e-09 -1.1151642e-08 -3.0639442e-09 -5.7745e-41 2.14563e-40
1.3030161e-11 -2.9647133e-06 2.93736e-40 -4.2730885e-09 -5.509709e-08 2.5700648e-09 1.4085162e-08 -9.06899e-09
5.1391154e-09 1.7345936e-07 1.4329002e-07 -1.01918e-40 1.0816067e-09 -6.773109e-06 -1.218722e-06 -3.35038e-40
1.0117629e-07 -4.832177e-07 -4.803317e-07 -1.1919098e-08 -2.4211494e-07 -1.7779466e-07 -4.752872e-07 -2.769236e-07
-1.2449077e-06 4.0915e-41 3.66228e-40 -5.68197e-40 2.82049e-40 -8.519876e-07 1.18838926e-07 5.3825044e-10
-6.5998044e-08 5.72074e-08 6.598687e-08 1.6549293e-07 1.2796323e-07 -3.99464e-40 2.22149e-40 4.81216e-40
-1.130698e-39 -2.557103e-39 8.8828514e-08 -6.1684343e-12 -1.166065e-12 -4.5217427e-13 -1.5449253e-12 6.1371465e-13
-1.4037492e-12 -9.8033595e-12 -6.20377e-40 1.6681e-40 7.049884e-32 0.0015272513 -5.94813e-40 3.9969313e-12
-4.7066436e-08 -3.4888487e-10 -3.1992218e-09 5.50502e-09 -6.7012085e-10 -7.4028414e-08 -4.010144e-08 9.38723e-40
-1.5978337e-07 -6.78118e-40 3.68473e-40 -9.28527e-40 1.5696768e-08 3.820651e-10 -2.724741e-11 -1.0215904e-10
8.791826e-11 -6.5668764e-12 -4.5795748e-10 -3.9901601e-10 -8.73553e-40 -2.00751e-40 -2.61077e-40 2.5395253e-38
-3.03377e-40 7.605025e-11 3.1753242e-10 -3.2622797e-11 -2.017213e-10 -2.4530007e-09 -2.3388702e-09 1.0925006e-09
-1.4709245e-09 -2.105238e-37 8.49557e-40 -6.7449e-40 -1.66711e-40 -1.204133e-39 1.5367189e-09 -2.4840782e-08
-1.209295e-08 2.8330838e-08 5.478005e-08 2.9642187e-08 7.6257024e-08 1.1932194e-08 4.20437e-40 -5.80272e-40
00000000: b675 0aaf f4f9 0dae 20eb c5ab 2ce0 fd2e
00000010: d476 b22b 2316 452e c039 a4ae 7700 0780
00000020: a42f 0800 90ff 0780 7a59 eab0 8bf7 0c80
00000030: 05be bbae 862b d9b1 ed74 942d 952b 51b1
00000040: 9228 90ae dd89 d0af 6cd0 a0b1 816b 40b1
00000050: e4fc 0380 dc15 0980 66f8 0700 97aa ee2d
00000060: 6643 ae33 e5b0 e9b0 9824 8831 f934 9eb1
00000070: fe4f bab1 c626 f2b1 6128 c030 8ec7 81b2
00000080: 20dc 0d32 7744 0980 93f0 0014 0c1f 75b1
00000090: 2c2f 0280 5844 08b7 730a 2633 472b 0fb6
000000a0: 8ac7 0a34 5c22 17b5 0605 acb5 2293 8b35
000000b0: e0d6 06b6 ac52 3b35 80c0 0480 3141 0800
000000c0: e380 0a80 93ff 0b00 8d24 0580 887a a4b3
000000d0: 54fb 1fb4 f03f bdb2 a4d6 4830 70f5 32b2
000000e0: d2ae 0ab4 86c7 0b34 56ba 1cb4 9dfd babc
000000f0: b668 0c80 bedb 0c80 ad0a 0431 cc09 0a80
00000100: 415f 35b4 d678 c5ae e6a6 0caf cd4b c62d
00000110: 419b b42d ed1a a5ae 963c 04ad da8f 6a2e
00000120: cac3 0a00 eda7 0f80 af70 0880 e4fe 0880
00000130: d1e8 0400 4c2d 002e e6af 0c32 bb1c 02b1
00000140: f57d 0db0 b859 5c32 8d23 a3b0 344d b532
00000150: ab08 5e31 1e7c 0631 aa6c 0780 3afa 0d80
00000160: 4e58 0500 eeca 0380 c094 cfb1 7a58 6733
00000170: 24fa 08b3 8696 4932 893b 6f33 8d68 ef32
00000180: 1fb1 7bb3 ae05 9cb3 0063 0680 2cef e93c
00000190: 86f5 d509 6553 0100 0c4b 0980 c4f5 8431
000001a0: ed3b 0db4 29c3 2bb4 d349 4532 32a0 fe32
000001b0: 794a 4933 984b b633 e923 5933 02d0 0880
000001c0: 6625 0080 3490 0d80 28d0 0500 5dbe 0d80
000001d0: d29c 9cb2 d87e 2f30 ae93 ceb0 9a6b 03af
000001e0: edc1 1630 aeca b730 9870 0230 3beb 30b1
000001f0: aed0 0480 35a1 0780 b57b 1e35 8d04 0980
00000200: d7f1 0b80 e1a9 dfb0 6096 ebb2 ac58 8531
00000210: 8489 06b1 623d e032 675b c032 cc2d 0332
00000220: f904 fab2 22cc 6f30 b204 0600 b67d 0600
00000230: 6e9d 0300 12b1 0930 848a b0b2 90fe 1cb2
00000240: 792b 18b2 0331 62b0 e4a4 3031 8ae4 e7b0
00000250: 7195 3fb2 7a8d 52b1 f8a0 0080 1d56 0200
00000260: a13a 652d 63f5 46b6 d132 0300 7cd2 92b1
00000270: e4a3 6cb3 0f9d 3031 33fb 7132 d7cd 1bb2
00000280: 2394 b031 2540 3a34 43db 1934 1b1c 0180
00000290: a7a7 9430 9044 e3b6 f892 a3b5 f3a5 0380
000002a0: 4146 d933 78b6 01b5 25f0 00b5 bfc4 4cb2
000002b0: 06fc 81b4 d3e7 3eb4 fa2a ffb4 17ac 94b4
000002c0: b416 a7b5 0e72 0000 e5fc 0300 e72f 0680
000002d0: 3d12 0300 24b4 64b5 6434 ff33 02f4 1330
000002e0: cfba 8db3 34b4 7533 aab4 8d33 5ab2 3134
000002f0: 4466 0934 8b59 0480 436b 0200 6f3d 0500
00000300: ed4f 0c80 2ad8 1b80 fec1 be33 5108 d9ac
00000310: eb1b a4ab 2e8d feaa cd6d d9ab cdbe 2c2b
00000320: 658f c5ab 6876 2cad 5cc1 0680 00d1 0100
00000330: 8406 b70b 0d2e c83a 197a 0680 28a1 8c2c
00000340: 1826 4ab3 2ecd bfaf 4ed9 5bb1 ab26 bd31
00000350: 9033 38b0 8df9 9eb3 003c 2cb3 c738 0a00
00000360: eb90 2bb4 5162 0780 2703 0400 5b1c 0a80
00000370: 8fd5 8632 e20a d22f b6ab efad 6da6 e0ae
00000380: 9555 c12e 2a0d e7ac c9c3 fbaf 835c dbaf
00000390: 1c83 0980 9d2f 0280 c7d7 0280 d143 0a01
000003a0: b14d 0380 7c3c a72e b790 ae2f 017a 0fae
000003b0: 80cb 5daf a591 28b1 d7b9 20b1 f326 9630
000003c0: 8e29 cab0 6b46 8f82 3840 0900 3458 0780
000003d0: b9d0 0180 a21c 0d80 7d34 d330 7561 d5b2
000003e0: 5bc1 4fb2 2c5c f332 4d47 6b33 dc9f fe32
000003f0: bec2 a333 58fe 4c32 0294 0400 9051 0680

gnn.gnn_layer.edge_func.0.bias f4 [64]
-6.763366e-11 -2.3898354e-09 1.1816801e-08 2.1207156e-06 -2.7865943e-07 3.6314776e-10 2.377161e-09 7.650692e-08
6.321599e-08 4.5381596e-09 -3.9454186e-08 -3.0976894e-09 -1.0308666e-07 -3.557301e-07 1.3375356e-07 -5.8498657e-12
5.277857e-09 4.112764e-10 2.3966357e-10 2.9098445e-08 6.899063e-08 -7.074396e-08 -2.0825743e-07 -5.8428483e-08
-2.0866263e-08 -2.9924006e-08 -2.112997e-09 8.0502275e-08 -8.3506313e-10 -7.9561884e-16 -7.836936e-08 2.997872e-07
3.4369971e-09 5.0178382e-08 -2.2225912e-09 -1.2396091e-08 7.3276107e-07 1.4332139e-07 -6.645083e-09 2.6507976e-07
9.1510477e-10 1.0838347e-07 7.698663e-08 -1.3655384e-08 -2.7316023e-09 5.5760278e-08 2.6600705e-10 2.0042416e-08
7.515691e-11 2.0673459e-09 -1.6780845e-08 -2.6437321e-09 -1.9299728e-07 7.5788854e-12 1.1624239e-07 1.0042356e-09
-3.5128733e-29 4.5496076e-08 -9.171802e-08 3.7479277e-09 -1.1562021e-09 1.9420448e-14 2.8036938e-08 9.312926e-09
00000000: 5eba 94ae 6e3a 24b1 d702 4b32 9e51 0e36
00000010: a99a 95b4 81a4 c72f 755b 2331 204c a433
00000020: 5cc1 8733 13ee 9b31 5674 29b3 21df 54b1
00000030: 7e60 ddb3 2cfb beb4 e69d 0f34 e8d2 cdac
00000040: 8558 b531 021a e22f a6c1 832f 28f4 f932
00000050: 0028 9433 e7eb 97b3 5e9d 5fb4 ccf2 7ab3
00000060: 663d b3b2 cb85 00b3 3d34 11b1 98e0 ac33
00000070: 588a 65b0 4f52 65a6 034c a8b3 70f2 a034
00000080: 4b30 6c31 b783 5733 3dbc 18b1 96f6 54b2
00000090: f5b2 4435 e2e3 1934 c552 e4b1 4950 8e34
000000a0: c68a 7b30 71c0 e833 d953 a533 0499 6ab2
000000b0: dbb6 3bb1 137d 6f33 2a3d 922f bd29 ac32
000000c0: 9445 a52e 2211 0e31 7825 90b2 07ad 35b1
000000d0: b03a 4fb4 4454 052d eea0 f933 6605 8a30
000000e0: b41f 3290 7767 4333 84f6 c4b3 1fc7 8031
000000f0: 3fe8 9eb0 81ec ae28 e1d5 f032 affe 1f32

gnn.gnn_layer.edge_func.2.weight f4 [1024, 64]
-4.8371425e-07 2.3551693e-18 1.561724e-17 2.6384418e-13 7.9361465e-14 1.1184547e-17 1.4476017e-16 4.6604485e-15
3.4879525e-15 -5.001016e-16 -2.6648376e-16 8.86373e-17 -1.0837522e-15 -1.3405866e-13 3.1313377e-15 -1.8372387e-20
4.8899996e-15 3.0072197e-17 2.5708482e-17 -1.1072858e-16 -7.506216e-15 -2.5007115e-14 -3.875255e-14 -2.6970164e-15
-1.1068363e-15 1.4537063e-16 -7.1054225e-21 5.0345724e-15 -1.1317924e-17 -1.4222903e-25 1.5629405e-15 6.2743436e-15
-2.1584254e-18 2.2917786e-14 -9.654703e-19 -3.6796985e-14 4.259256e-15 2.6810062e-15 9.108525e-17 3.2891157e-14
1.0856604e-16 -5.275214e-16 -3.9837504e-14 -1.4209456e-15 -5.3050262e-17 1.3476358e-14 1.12962e-11 -1.9782713e-15
6.6162425e-17 7.946573e-17 -3.9401157e-17 3.053985e-16 8.668341e-16 1.744814e-18 1.5993886e-14 -7.7421134e-17
-1.509604e-30 8.381101e-15 -2.7247501e-17 6.229972e-16 -4.562974e-16 2.4579636e-24 3.4238567e-16 2.1445653e-16
3.8019652e-22 -9.997905e-20 -7.896548e-19 1.9655967e-16 0.0049576615 -2.5291217e-20 1.7727552e-19 6.071275e-17
2.7877988e-18 -5.606759e-20 2.9196056e-19 -1.1980226e-20 -6.7898433e-19 -1.9625778e-17 1.5196209e-19 1.2226132e-22
1.3185688e-17 -4.4770178e-20 1.3508433e-19 -9.777027e-06 -1.9683776e-20 3.8456425e-18 -9.175857e-17 -1.7766096e-18
-3.3838775e-19 6.2426116e-19 5.4425415e-20 7.256244e-19 4.0236243e-20 1.0110114e-29 2.3427461e-21 -7.08748e-19
-4.865349e-22 -1.4826658e-17 4.636838e-19 4.3265475e-18 5.214826e-17 1.940702e-18 2.2047025e-21 -2.9704893e-17
3.9207485e-21 4.0100054e-19 9.725317e-11 6.3543936e-18 -7.1923354e-21 -1.331339e-18 7.219914e-16 4.303532e-18
2.0256821e-20 9.7681734e-21 -6.1473304e-20 3.5849707e-20 2.5367704e-18 -8.8442846e-21 9.4665157e-17 -1.1115184e-17
-8.082853e-33 -1.8003834e-17 8.9911424e-20 3.8524253e-21 -4.711579e-19 -1.9867171e-28 4.7964977e-21 -7.3976463e-19
1.886181e-19 -5.208412e-18 -1.6009785e-18 2.0328826e-13 1.0248692e-14 8.0138085e-18 3.6116128e-17 1.41527415e-14
1.4335934e-14 -5.7939714e-17 1.3243613e-16 4.9818067e-17 -2.7317413e-16 2.5850388e-14 9.562006e-16 -6.1395203e-21
1.1269291e-15 -3.005976e-18 -8.367802e-18 8.822125e-17 4.1025274e-15 -1.09928885e-14 -4.745412e-08 3.2451275e-16
-1.1753604e-16 6.690212e-17 6.009349e-18 2.7685736e-15 8.0556333e-19 6.720596e-26 2.4258394e-16 -4.0191798e-14
-2.4284877e-18 4.298528e-15 -1.6504166e-17 -3.997357e-15 7.007482e-18 1.9819597e-15 -3.777444e-20 1.068926e-14
-1.139093e-16 8.068206e-17 3.2070986e-15 -2.0668802e-16 1.8923833e-18 9.864403e-15 7.289431e-12 2.082716e-15
5.855669e-18 4.63657e-17 -1.4269828e-17 2.3307665e-16 2.663492e-16 -8.814516e-19 1.5878381e-14 1.9282822e-15
2.1610441e-32 2.424992e-15 8.627528e-19 4.591321e-16 6.374811e-18 4.833595e-24 2.350195e-16 -1.6559577e-16
7.9930075e-23 -1.8229442e-20 -5.6598795e-21 7.497875e-17 2.7921662e-15 -1.6577079e-20 2.0341572e-19 -2.326988e-17
-1.4327491e-18 -5.923232e-19 -1.4521293e-19 1.7898878e-21 8.20502e-19 2.6308872e-18 1.111279e-19 -3.9663418e-23
-3.556775e-19 2.1270358e-20 -1.269893e-19 1.4790255e-18 4.776398e-19 5.409336e-19 1.0559828e-05 1.8682885e-18
3.5674962e-20 -2.8959679e-19 -6.916983e-21 2.58695e-19 -3.0453097e-20 -4.1435537e-33 1.441317e-20 4.5047124e-19
-6.0483044e-22 -2.41136e-19 -1.182799e-20 5.2277513e-18 -1.5984599e-17 4.2636906e-19 1.5550903e-23 1.0000261e-17
-7.8505166e-20 1.1026701e-19 -3.917063e-19 1.1099225e-18 -1.287841e-21 -2.4372913e-19 4.9531357e-17 1.5084505e-18
3.768255e-21 7.917518e-22 1.27723836e-20 -1.2787268e-20 7.969731e-19 -4.7274807e-20 2.0559204e-17 3.729663e-18
1.491287e-31 -1.2213815e-16 4.4937776e-19 4.7680936e-20 -1.9599648e-19 2.509253e-28 6.183932e-20 -3.7531875e-19
00000000: 97d8 01b5 e4c7 2d22 2a0b 9023 f487 942a
00000010: c5b4 b229 8851 4e23 a9e5 2625 0de9 a727
00000020: 5e55 7b27 fc24 10a6 109e 99a5 3a62 cc24
00000030: 662f 9ca6 c7ef 16aa fca2 6127 b585 ad9e
00000040: 492e b027 fcae 0a24 701e ed23 9e52 ffa4
00000050: 5038 07a8 7b3e e1a8 a686 2ea9 2c57 42a7
00000060: 0d83 9fa6 d699 2725 b737 069e bc63 b527
00000070: 63c7 50a3 2e12 3096 543e e126 9b0e e227
00000080: 8143 1fa2 d16c ce28 707a 8ea1 09b8 25a9
00000090: b474 9927 d62f 4127 3e07 d224 ec20 1429
000000a0: 1456 fa24 360c 18a6 8469 33a9 a4c7 cca6
000000b0: b2a6 74a4 bbc4 7228 90b9 462d aa8c 0ea7
000000c0: 678f 9824 4a3c b724 adb4 35a4 dd0c b025
000000d0: 11d9 7926 9bbe 0022 640f 9028 5f85 b2a4
000000e0: 7ff2 f48d 02fb 1628 5850 fba3 1491 3326
000000f0: ce84 03a6 fc2c 3e18 355f c525 6540 7725
00000100: 90d0 e51b a111 ec9f a110 69a1 2d9e 6225
00000110: e173 a23b 69de ee9e 3d4a 5120 7bfe 8b24
00000120: 08b4 4d22 c762 849f d557 ac20 d14c 629e
00000130: 9b66 48a1 0f04 b5a3 b967 3320 0cce 131b
00000140: a73b 7323 d36b 539f bc7a 1f20 0308 24b7
00000150: 73e8 b99e 11e1 8d22 b394 d3a4 3517 03a2
00000160: b6bf c7a0 d73f 3821 2582 801f a12a 5621
00000170: a202 3e1f b70e 4d0f 4d03 311d 7c2f 51a1
00000180: d10b 139c 75c0 88a3 f5da 0821 169f 9f22
00000190: cc7d 7024 d332 0f22 2695 261d 59fd 08a4
000001a0: 271f 941d 7db5 ec20 abdc d52e 8d6f ea22
000001b0: 00dc 079e 9178 c4a1 9019 5026 b6c5 9e22
000001c0: fd51 bf1e fd83 381e 5526 919f a34b 291f
000001d0: 3d2e 3b22 5610 279e 7248 da24 f909 4da3
000001e0: d1df 278a 5a0e a6a3 1f4c d41f 5f8a 911d
000001f0: af0f 0ba1 a8d8 7b91 e134 b51d 0957 5aa1
00000200: 53ae 5e20 0f28 c0a2 4243 eca1 dae1 642a
00000210: c09f 3828 24d4 1323 668e 2624 00f4 7e28
00000220: 6a20 8128 9299 85a4 3fb0 1825 cbbe 6524
00000230: 6379 9da5 f0d6 e828 93cd 8926 ccf1 e79d
00000240: 5868 a226 48cd 5da2 d45b 1aa3 a26c cb24
00000250: 23cf 9327 c007 46a8 5bd0 4bb3 a111 bb25
00000260: 8482 07a5 0b44 9a24 b2b4 dd22 2b7f 4727
00000270: a5c2 6d21 d664 a615 12d7 8b25 fd01 35a9
00000280: d630 33a2 ecde 9a27 5c39 98a3 1c05 90a7
00000290: e643 0123 b4d0 0e27 7f62 329f 838f 4028
000002a0: 1754 03a5 480a ba24 8718 6727 894b 6ea5
000002b0: 1ca2 0b22 88b3 3128 ae3c 002d 5413 1627
000002c0: 3b09 d822 f5d2 5524 ae9d 83a3 0b5c 8625
000002d0: 348a 9925 4d14 82a1 0e05 8f28 87f2 0a27
000002e0: 686a e00a 35bd 2e27 c2a3 7e21 f855 0426
000002f0: 6330 eb22 9bfd ba18 c27a 8725 3feb 3ea5
00000300: 5242 c11a 162c ac9e ffd2 d59d a4e3 ac24
00000310: 6032 4927 eb90 9c9e a126 7020 73a0 d6a3
00000320: bb6f d3a1 add2 2ea1 ea6f 2ba0 773d 071d
00000330: 612b 7221 0e20 4222 5932 0320 efcc 3f9a
00000340: 77f4 d1a0 92e4 c81e 29ec 15a0 0144 da21
00000350: 71f9 0c21 caa7 1f21 1e2a 3137 f9da 0922
00000360: 6278 281f a1f2 aaa0 7aa8 029e e2b4 9820
00000370: 89cf 0f9f d21d ac89 e820 881e a5f4 0421
00000380: 7dcc 369c 7157 8ea0 a66c 5f9e b7de c022
00000390: 916e 93a3 12af fb20 2c66 9619 e678 3823
000003a0: 765d b99f 292e 0220 fc38 e7a0 b0cb a321
000003b0: f09c c29c 4edf 8fa0 4e6c 6424 a69b de21
000003c0: 535c 8e1d d44a 6f1c 7543 711e 6f8b 719e
000003d0: 9639 6b21 bc3f 5f9f 0ca0 bd23 ac99 8922
000003e0: 8394 410c d2d0 0ca5 06a2 0421 b72a 611f
000003f0: 4d64 67a0 f50a 9f11 9303 921f 918c dda0

gnn.gnn_layer.edge_func.2.bias f4 [1024]
8.797055e-09 1.8001891e-13 6.5482837e-09 1.2723469e-11 8.958819e-09 -4.336632e-09 -2.7842692e-10 -3.8922966e-08
3.233213e-09 4.0306574e-11 2.8018123e-11 -1.3893884e-09 6.4174386e-09 7.8815766e-11 2.0558781e-10 -1.8224208e-08
1.1617335e-13 3.301538e-11 2.0502242e-07 5.908748e-09 -1.9116564e-11 -5.1738176e-11 1.0311586e-08 1.6523848e-12
1.0453342e-09 -1.1951778e-09 -2.3979123e-08 4.9062328e-09 1.0087411e-07 -2.3575328e-10 4.6252346e-10 2.4998925e-09
1.10037894e-13 5.8622716e-16 1.6367269e-13 6.4061303e-16 1.7566456e-13 9.59204e-14 -1.6031867e-14 -1.3258167e-12
1.1954966e-13 6.5107235e-16 -8.3921187e-16 2.9280316e-13 -7.237285e-14 1.5610214e-16 7.339769e-15 4.670446e-13
-7.6956125e-16 -2.8251468e-13 4.626385e-12 1.4142803e-13 -1.069073e-15 -3.7863927e-15 -4.118931e-13 1.8898796e-17
1.29421755e-14 1.1727434e-13 -1.2852046e-12 1.5007854e-17 2.2212e-12 -1.4587641e-13 2.0654107e-14 -7.404065e-14
5.3255006e-10 -3.5195092e-13 4.1322515e-10 7.311871e-14 4.7406656e-10 2.1698535e-10 5.855732e-13 -5.5140412e-09
2.623714e-10 2.5639339e-12 4.6863007e-13 -1.7164105e-10 2.8937264e-10 3.798411e-12 1.6522363e-11 -8.6766383e-10
5.710246e-13 2.720353e-10 -1.2575669e-08 1.8145885e-10 3.545346e-13 -3.709781e-12 5.0314164e-10 1.441218e-13
6.081835e-11 -8.934499e-12 7.960753e-10 7.3425606e-11 2.9327154e-09 -3.1926798e-11 4.087251e-11 1.6096441e-10
4.970839e-10 -3.3020903e-13 4.715164e-10 -8.8710154e-14 1.7316502e-09 4.827933e-10 2.6603742e-11 -5.7122267e-09
7.800283e-10 6.5198075e-13 -2.5029813e-13 5.225367e-12 4.7701726e-10 2.2057902e-12 3.376705e-11 1.906356e-10
-1.3010888e-13 -4.2689855e-11 -4.4720718e-08 1.999526e-10 4.5595108e-12 -2.693997e-12 -5.9631196e-11 8.661857e-14
5.943903e-11 3.7797862e-10 -2.2694848e-09 3.0010086e-10 5.1100466e-09 1.5652578e-10 7.163462e-11 1.4768765e-10
-2.0366531e-14 -2.3484124e-17 -1.8375131e-14 -2.0416644e-17 -1.6409991e-14 -1.316906e-15 -1.5327015e-17 8.0295843e-14
-8.317014e-15 1.0648661e-16 -4.5972488e-17 4.367828e-15 -1.6126123e-14 1.8127908e-17 -6.215789e-16 2.7635161e-14
-8.6817105e-18 -1.2420265e-15 1.3262402e-15 -1.5449307e-14 -7.33757e-18 1.6285865e-16 -5.4585033e-14 -3.3365625e-18
-1.8855877e-15 2.827399e-15 4.642105e-14 -6.6213014e-15 -2.0202525e-13 3.0248652e-15 -1.7189285e-15 -7.429097e-15
-1.4626353e-15 -1.0243252e-18 -8.500767e-16 -5.976525e-19 -2.1115985e-15 -4.898421e-16 6.413734e-19 1.2081736e-14
-1.1533173e-15 8.922273e-18 -1.2253039e-18 5.657465e-16 -8.966323e-16 -9.076747e-18 -2.938637e-17 1.9159087e-15
6.8756044e-19 2.275312e-16 2.9036225e-14 -7.8538314e-16 3.9695744e-18 8.393244e-18 -1.8047735e-15 -1.1710595e-19
-1.04559044e-16 -2.0539977e-16 2.1647665e-16 -1.176791e-17 -8.622635e-15 2.812898e-17 -1.2002235e-16 -8.73559e-16
2.6994393e-10 -2.2472927e-13 8.257415e-11 3.109226e-13 -3.687731e-10 1.634869e-10 -1.2299386e-12 5.644053e-11
2.920476e-10 1.8016364e-13 3.5500845e-13 1.5850299e-10 8.6512436e-11 1.0553275e-12 4.4915152e-12 1.7813785e-10
-5.3031483e-13 -1.6250286e-10 -1.2476705e-08 -3.8003806e-12 -2.7306013e-12 -4.0520953e-13 2.3271456e-11 -2.6777786e-14
4.835752e-12 2.3001474e-10 7.868644e-10 -4.0871768e-11 -8.424207e-10 2.3310034e-12 2.0819341e-11 2.2991428e-10
2.0611725e-15 -2.860766e-17 -6.7579253e-15 -2.2498997e-17 -1.5364812e-14 -2.411451e-16 6.19466e-16 -1.1667056e-13
7.634232e-15 -6.323591e-17 -1.4248494e-17 -6.1996556e-15 -9.73913e-17 2.2942872e-17 -1.00517036e-16 3.9831923e-15
3.3811997e-17 -1.3943979e-14 -1.1058081e-13 8.6649684e-17 3.7671317e-17 -3.3771233e-17 -2.2523661e-14 -6.6807527e-19
2.6966694e-16 1.4118069e-14 3.7141056e-14 -1.189238e-15 -4.9854526e-14 -4.74512e-16 5.488463e-16 6.4498704e-15
00000000: db21 1732 ebae 4a2a 50ff e031 69d5 5f2d
00000010: 4de9 1932 6b01 95b1 1b11 99af 412c 27b3
00000020: 492f 5e31 2b45 312e 3473 f62d c2f4 beb0
00000030: 6380 dc31 5551 ad2e d30b 622f 758b 9cb2
00000040: b0cc 022a 0334 112e 2224 5c34 e605 cb31
00000050: ad26 a8ad 028c 63ae d626 3132 708d e82b
00000060: 6dab 8f30 9543 a4b0 a6fa cdb2 ae93 a831
00000070: 21a0 d833 539b 81af 6446 fe2f 93ca 2b31
00000080: 87c8 f729 eef7 2826 7147 382a e6a4 3826
00000090: ddc7 452a 59fe d729 f866 90a8 9597 baab
000000a0: d899 062a a9a8 3b26 e8e2 71a6 62d5 a42a
000000b0: 1cf8 a2a9 38f9 3325 b638 0428 1c76 032b
000000c0: 99cf 5da6 a80a 9faa c6c6 a22c db3b 1f2a
000000d0: d511 9aa6 4f6b 88a7 0de0 e7aa 854f ae23
000000e0: 4025 6928 070a 042a 60e0 b4ab 4b6c 8a23
000000f0: 954d 1c2c 033e 24aa 2109 ba28 87b9 a6a9
00000100: e162 1230 7921 c6aa 452c e32f 11a6 a429
00000110: 784f 0230 f293 6e2f ffd2 242b 0576 bdb1
00000120: 7e3d 902f ba6b 342c 5be8 032b a9b8 3caf
00000130: 9415 9f2f 0ba5 852c 0e55 912d 6a80 6eb0
00000140: a9ba 202b 918d 952f 610c 58b2 2084 472f
00000150: d295 c72a bd86 82ac 724d 0a30 4844 222a
00000160: b0bd 852e 682d 1dad d2d2 5a30 f176 a12e
00000170: e088 4931 616a 0cae 5bc2 332e 74fb 302f
00000180: 2ba3 0830 23e4 b9aa 049c 0130 ecc1 c7a9
00000190: 06ff ed30 8fb5 0430 4d02 ea2d 4745 c4b1
000001a0: 9d69 5630 2a84 372b c3e7 8caa ecd9 b72c
000001b0: 1b1f 0330 fc37 1b2c 5282 142e 279b 512f
000001c0: 557d 12aa 81c0 3bae f312 40b3 a7d9 5b2f
000001d0: 6c6c a02c bc92 3dac 6121 83ae 350c c329
000001e0: 33b5 822e c3cb cf2f 33f5 1bb1 71fb a42f
000001f0: 7294 af31 171a 2c2f b586 9d2e 6162 222f
00000200: 0672 b7a8 529a d8a3 2b82 a5a8 704f bca3
00000210: ddce 93a8 42c9 bda6 e45d 8da3 67cf b429
00000220: 75d3 15a8 9a8a f524 bc02 54a4 1a5e 9d27
00000230: 4f40 91a8 5033 a723 6d28 33a6 58ea f828
00000240: 3826 20a3 b1fe b2a6 a121 bf26 ad27 8ba8
00000250: b25a 07a3 64c3 3b25 42d4 75a9 e231 76a2
00000260: f4de 07a7 4ebc 4b27 d40f 5129 ba8e eea7
00000270: d075 63aa eaf6 5927 45b9 f7a6 aad4 05a8
00000280: b8c9 d2a6 e929 97a1 9704 75a6 5965 30a1
00000290: 1e28 18a7 f82f 0da6 ce4c 3d21 2ca5 5928
000002a0: e635 a6a6 3e96 2423 acd2 b4a1 b910 2326
000002b0: e537 81a6 ba6f 27a3 4d85 07a4 470e 0a27
000002c0: 99ee 4a21 ae29 8325 7dc4 0229 0c5f 62a6
000002d0: 9273 9222 f9d3 1a23 320c 02a7 1a41 0aa0
000002e0: c418 f1a4 50cf 6ca5 a194 7925 6214 59a3
000002f0: e354 1ba8 d7b8 0124 5860 0aa5 47c9 7ba6
00000300: 3b67 942f cd05 7daa 1d95 b52e ab08 af2a
00000310: 33bc caaf 79c1 332f 3519 adab 633a 782e
00000320: 0c8e a02f a2d8 4a2a 1cda c72a a046 2e2f
00000330: 2c3e be2e 2e86 942b f907 9e2c 59dd 432f
00000340: 3645 15ab 7dac 32af 2159 56b2 c9b6 85ac
00000350: 2426 40ac d91c e4aa a9b2 cc2d 5f31 f1a8
00000360: 9524 aa2c 65e7 7c2f a94a 5830 85c1 33ae
00000370: 1690 67b0 a007 242c fd20 b72d 1ecb 7c2f
00000380: ec85 1427 f7ed 03a4 dc7a f3a7 4184 cfa3
00000390: d864 8aa8 bc02 8ba5 868c 3226 005c 03aa
000003a0: ae86 0928 e5cf 91a4 4e6b 83a3 bb5d dfa7
000003b0: ad91 e0a4 539c d323 c9c6 e7a4 7782 8f27
000003c0: 29ee 1b24 4131 7ba8 7f01 f9a9 f2cc c724
000003d0: 71ba 2d24 09be 1ba4 07e0 caa8 572e 45a1
000003e0: d173 9b25 1a54 7e28 b944 2729 2363 aba6
000003f0: 5b86 60a9 cec4 08a6 b531 1e26 8e61 e827

gnn.gru.weight_ih_l0 f4 [96, 32]
-3.237691e-11 9.105442e-16 1.165711e-12 -4.668855e-15 6.613878e-06 0.0005706962 5.8589535e-12 2.9707978e-09
-1.738774e-12 -4.2187472e-13 -1.25045e-13 6.327486e-13 -1.5799341e-11 2.5824757e-14 -3.055818e-14 -2.9144725e-11
-9.415196e-15 8.094665e-12 3.2738125e-11 2.831871e-11 2.8654938e-14 0.002738539 1.3619142e-11 -5.732611e-17
-7.784124e-13 1.3510942e-11 -4.4577314e-11 2.677907e-12 -2.4498322e-12 1.7332127e-11 -7.6530275e-12 4.406919e-11
-1.7499444e-20 6.075855e-22 3.0840573e-20 6.1250367e-24 1.5025162e-20 -9.207564e-21 -4.052847e-20 -2.6879652e-18
6.0490284e-20 -1.315522e-22 3.4503157e-21 3.9802105e-20 -1.2349724e-18 -3.4596302e-22 -6.065895e-23 2.48508e-18
9.6071324e-23 -5.294235e-21 -6.1947825e-18 -6.453066e-23 6.979951e-21 4.4697272e-23 1.8074827e-20 -9.329652e-25
-1.8222238e-21 1.1367652e-18 4.677627e-19 -2.6720363e-21 -1.4175926e-20 -1.1776657e-18 -2.0755797e-20 -1.8224206e-20
-2.2255657e-14 9.027323e-17 -7.782408e-15 1.842299e-18 6.608269e-16 2.9710965e-14 -6.000703e-15 -2.781518e-15
1.1065534e-15 -8.72277e-17 -2.4642925e-16 -4.592247e-16 -1.5630616e-13 -4.9193182e-17 -4.6105105e-17 2.9111362e-13
7.053806e-18 -8.377018e-16 5.6543467e-16 -9.761266e-16 8.073636e-16 -2.5187353e-16 2.8120196e-15 2.9581762e-19
1.1828308e-15 2.0785946e-14 1.1164203e-13 -3.418731e-16 -5.4971003e-15 -6.484275e-14 9.8812035e-15 4.211924e-15
-3.966511e-13 7.192641e-16 -1.8060957e-14 5.501678e-16 -8.088949e-09 9.224897e-13 -2.4168447e-14 -2.1257022e-13
-1.6542796e-15 1.999825e-15 5.0099365e-17 8.963514e-15 -3.8531048e-14 1.3187473e-16 2.7771267e-16 1.4214332e-13
-4.99885e-17 -2.7366162e-14 -0.00055838603 -1.7733372e-13 -1.0906989e-16 -7.05983e-16 -1.5254548e-12 1.8285535e-18
-2.7591399e-14 2.2454157e-14 -1.5150468e-12 -2.8376023e-15 2.338583e-14 5.217977e-14 6.9975636e-11 5.627868e-14
-7.199628e-23 -3.4339041e-25 -3.042306e-23 -5.9892093e-28 3.934021e-22 9.4983006e-23 5.0558913e-23 -3.5881175e-22
-1.8961375e-23 -3.4940117e-06 -1.4396875e-24 2.3086286e-23 -6.157145e-22 -4.2939664e-06 -1.5458735e-25 -2.6545455e-22
-1.7032914e-26 1.8753333e-23 7.129835e-22 3.0126344e-24 1.8696884e-23 -1.067277e-24 -1.1744152e-22 -2.3173225e-28
1.9436848e-24 -3.8123294e-23 -2.960337e-07 -3.2461066e-24 2.6529274e-22 -4.809153e-22 -6.277053e-23 7.9172245e-23
-5.8077477e-28 8.0421283e-28 6.9820883e-26 -4.2020677e-29 -4.432442e-27 -2.339729e-25 4.1494257e-27 2.2492044e-18
-4.5866068e-26 1.1148974e-27 3.9665936e-28 2.4753793e-27 6.7324483e-19 1.0556821e-27 2.0814293e-27 -2.6032033e-24
7.6222116e-30 5.2863646e-26 -2.6685269e-08 -2.4235163e-26 -1.9154433e-28 -1.5856715e-27 2.073929e-25 1.5439264e-31
-4.9398784e-26 -2.6902295e-27 -8.281501e-25 -2.085516e-27 -6.908723e-26 -3.9266806e-25 -1.2742786e-25 2.441739e-26
7.342611e-14 2.0514677e-16 -2.46891e-16 1.9904803e-17 1.0503757e-14 1.0471024e-13 1.2449308e-15 -8.6701e-05
1.1272673e-15 6.412018e-16 -4.0138476e-17 2.8765316e-16 -9.284722e-14 -1.9689243e-17 -3.1386564e-18 -1.1533417e-13
8.310044e-18 3.6340448e-14 2.9009838e-13 1.5078914e-15 -1.1064872e-15 7.1776784e-17 9.612782e-14 1.1125716e-19
-1.0259536e-16 -6.7903036e-15 7.0147816e-13 -1.1066853e-15 4.0883573e-16 -3.1602914e-14 -1.5847317e-14 1.703076e-14
4.4565825e-22 1.1873274e-24 -7.0066335e-23 3.0221626e-25 2.549659e-22 -5.412258e-22 7.243871e-24 -1.2526025e-21
-1.6659704e-23 6.8003044e-24 -1.259e-24 3.8293498e-23 -3.9006143e-22 1.4068882e-24 -1.0404707e-25 -1.5546027e-21
-6.215369e-25 4.980475e-23 -1.1478642e-20 -5.1913573e-23 1.667766e-24 3.529142e-24 6.647431e-22 -5.2420023e-27
5.1910294e-24 -1.564352e-21 -3.3631964e-21 -5.226597e-24 -8.3975604e-22 3.7462951e-22 7.395665e-23 1.6395151e-22
00000000: 2965 0eae 2739 8326 2a0f a42b 9636 a8a7
00000010: c8ec dd36 c69a 153a c324 ce2c d426 4c31
00000020: efb5 f4ab 8e7e edaa c4c9 0caa 571a 322b
00000030: f4f8 8aad d69b e828 2f9f 09a9 0b2e 00ae
00000040: ee9b 29a8 2167 0e2d dafb 0f2e 1118 f92d
00000050: e50c 0129 0f79 333b 2a97 6f2d 5d2f 84a4
00000060: 861a 5bab e0af 6d2d 980d 44ae e270 3c2c
00000070: 4164 2cac 7b74 982d 2ca2 06ad 7fd1 412e
00000080: 0f47 a59e a7a1 371c f7a3 111f 6df3 ec18
00000090: 9de8 8d1e 0ced 2d9e ea63 3f9f 3a56 46a2
000000a0: 22d4 8e1f 6f09 1f9b 6859 821d cbf5 3b1f
000000b0: f03f b6a1 2f1f d19b 12aa 929a d65d 3722
000000c0: 4549 e81a b302 c89d 118c e4a2 8b06 9c9a
000000d0: f9d8 031e 8b24 581a 40b6 aa1e 8f5e 9097
000000e0: efae 099d c6c1 a721 260f 0a21 b3e4 499d
000000f0: 49e3 859e f4ca ada1 7008 c49e 6d1f ac9e
00000100: 0d76 c8a8 e927 d024 0632 0ca8 0bf0 0722
00000110: 6b78 3e26 69ce 0529 b732 d8a7 f36d 48a7
00000120: 9d78 9f26 2522 c9a4 8a0e 8ea5 cd5c 04a6
00000130: 2ffc 2faa 0fdd 62a4 4d9f 54a4 e5e1 a32a
00000140: a81e 0223 7c73 71a6 b7f9 2226 b7ac 8ca6
00000150: ebb4 6826 f931 91a5 9ba0 4a27 b29e ae20
00000160: c176 aa26 2139 bb28 4065 fb29 9113 c5a5
00000170: cd0d c6a7 4d03 92a9 0201 3228 24c0 9727
00000180: 734b dfaa 5350 4f26 bbad a2a8 3893 1e26
00000190: 93f7 0ab2 32d4 812b a5b0 d9a8 3255 6faa
000001a0: 2568 eea6 431a 1027 e40a 6724 ea78 2128
000001b0: 4687 2da9 8d0a 1825 2817 a025 060a 202a
000001c0: 0188 66a4 137e f6a8 a760 12ba f7a8 47aa
000001d0: 807f fba4 5a7c 4ba6 4db0 d6ab 66ec 0622
000001e0: 6f85 f8a8 c33f ca28 5039 d5ab 8678 4ca7
000001f0: 0da4 d228 2eff 6a29 c8e0 992e e774 7d29
00000200: 8a13 ae9a 628c d496 ed1d 139a 3dce 3d92
00000210: 07cc ed1b a2a7 e51a e77c 741a 6ee3 d89b
00000220: 1762 b799 aa7a 6ab6 e6c7 de97 e046 df19
00000230: 9a16 3a9c e414 90b6 b05e 3f96 1a75 a09b
00000240: 91af a894 015f b519 6d7c 571c 5f17 6918
00000250: 3ed3 b419 3327 a597 64fa 0d9b b5e0 9291
00000260: a562 1618 5a5a 389a 90ee 9eb4 c427 7b98
00000270: 105c a01b 0559 119c 14c5 979a 3f6d bf1a
00000280: 0c0e 3892 7fdd 7e12 3ede ac15 f511 5590
00000290: 4d96 af93 7cd2 9096 2d60 a413 45f6 2522
000002a0: 261e 6395 9da9 b012 a969 fb11 a81e 4413
000002b0: f1b4 4621 8e47 a712 67e8 2413 c169 4998
000002c0: c998 1a0f 51e2 8215 8739 e5b2 7003 f094
000002d0: b0cf 7291 7a42 fb92 b75e 8016 c169 480c
000002e0: 669c 7495 5624 5593 6826 8097 4a3b 2593
000002f0: 3c0d ab95 bd0c f396 80bf 1d96 70d1 f114
00000300: 4557 a529 a484 6c25 ae52 8ea5 e396 b723
00000310: 0838 3d28 58c9 eb29 d769 b326 3fd3 b5b8
00000320: d374 a226 58d0 3826 261b 39a4 1dd2 a525
00000330: c712 d1a9 e999 b5a3 8b97 67a2 d0da 01aa
00000340: 134b 1923 afa9 2329 954f a32a 604f d926
00000350: 2c76 9fa6 8981 a524 ea75 d829 6a59 0320
00000360: 9c91 eca4 7fa5 f4a7 d472 452b 7b7d 9fa6
00000370: 81ad eb25 ae53 0ea9 6dbd 8ea8 4266 9928
00000380: 23b1 061c e2ba b717 f668 a99a 1410 bb16
00000390: 101e 9a1b 5193 239c e91d 0c19 b649 bd9c
000003a0: 6e1f a199 7a89 0319 21d2 c297 0e2d 391a
000003b0: 15c7 eb9b 95b4 d917 d5cd 0096 c7ec ea9c
000003c0: 3a5b 4097 4bd7 701a 4fd3 589e e409 7b9a
000003d0: 8209 0118 ee86 8818 02e8 481c 38a8 cf93
000003e0: 77d1 c818 f065 ec9c ae1d 7e9d b631 ca98
000003f0: facc 7d9c 1c73 e21b f3d0 b21a 8934 461b

gnn.gru.weight_hh_l0 f4 [96, 32]
-1.3463963e-10 -6.8931263e-14 -1.0184926e-10 1.573786e-11 -4.932752e-15 1.9668845e-16 4.1763024e-11 4.4588102e-15
2.9820933e-06 -2.7470942e-14 1.6903951e-12 -1.917138e-09 -1.4550097e-08 9.0824015e-12 -9.71223e-13 -3.143213e-11
-3.8551903e-08 1.4056625e-06 -1.2292578e-10 -0.002841145 4.2425192e-08 -1.7927133e-15 2.3191618e-09 6.9186934e-10
9.025328e-09 2.2246245e-10 1.762078e-05 2.2934634e-07 1.7880528e-07 5.858344e-12 -5.5146533e-11 -3.3255097e-07
2.0342933e-18 2.8084544e-22 4.4322192e-20 -2.5156095e-19 -7.6650893e-25 -2.4276783e-25 -8.382987e-21 5.751861e-24
9.122299e-22 -9.770573e-23 2.3095015e-20 -8.303754e-18 -8.842573e-18 3.8850195e-20 -1.7683163e-20 -2.2906691e-19
7.7137424e-17 -3.8599274e-15 4.0481356e-20 -1.7939702e-19 -1.5368801e-15 1.3275547e-25 2.2183847e-18 -2.6571693e-19
-3.5258703e-17 8.838102e-19 -2.711007e-24 2.4567674e-16 7.231093e-16 -8.171584e-21 -2.8056808e-19 5.2348113e-16
-9.602468e-14 1.0115951e-16 6.2428492e-15 -3.9031133e-14 5.185629e-18 -1.1658678e-19 -2.7571632e-14 2.0261262e-18
3.0338926e-16 -1.2976747e-17 -1.4214915e-14 -1.3323609e-12 2.8143347e-12 -2.7874143e-15 2.943396e-16 -6.881474e-15
-1.4489479e-11 -9.716592e-12 -8.974517e-14 4.212395e-14 5.999021e-10 1.0726166e-19 2.2329918e-12 1.9511834e-12
-8.915999e-12 -1.9749275e-13 6.7046866e-17 1.2558625e-11 3.3721578e-11 -1.4775387e-15 -5.2884777e-14 -1.9834752e-10
-3.4448134e-12 -1.0196594e-16 -5.338439e-14 2.9137473e-13 -8.025258e-18 1.3855742e-19 1.5984913e-13 2.4102164e-17
-1.3322053e-14 1.737887e-16 -1.1933979e-13 -8.535004e-12 -8.500464e-12 -2.4434468e-14 -3.1154346e-15 2.5173093e-13
-1.1287224e-10 0.0011869346 0.006824482 -1.3581139e-13 -6.9407494e-11 9.3221435e-18 -1.900239e-11 -9.154467e-12
1.06181564e-10 1.2892623e-12 -1.1350532e-15 5.954591e-10 -3.4411957e-10 4.4844554e-15 -9.091983e-13 1.5319283e-09
2.1215834e-21 -8.2642085e-26 7.273128e-23 -1.4719407e-22 1.4012242e-26 -2.7327682e-28 3.1703247e-23 -5.9473707e-27
-1.467548e-23 -1.2004893e-25 1.2954139e-22 9.4958816e-21 3.2136593e-21 -6.395021e-23 1.8539195e-23 5.7130665e-22
-1.245934e-19 7.611287e-19 -3.3458837e-22 7.5379085e-22 1.3990532e-18 7.807371e-27 -1.6638751e-20 -2.1952517e-21
-1.868762e-20 1.785686e-23 -2.643012e-25 1.5935703e-19 5.2568905e-19 6.5612184e-24 1.3303966e-21 2.4614476e-20
-3.0760456e-24 2.1569354e-28 -6.4462425e-25 1.5075981e-25 7.22675e-30 4.2659645e-32 1.0543482e-27 -3.2234082e-29
-3.7264704e-26 -3.62678e-28 -8.5111836e-26 2.0091295e-23 -6.687198e-23 -9.3966307e-26 3.3707737e-26 1.414839e-25
-3.0057835e-22 2.2093293e-21 -4.5721865e-25 5.253251e-24 -3.6059996e-22 -5.8714785e-29 -2.2677384e-23 1.486994e-23
2.0027943e-22 6.30211e-25 -9.075484e-27 -2.2478304e-21 -2.2929852e-21 3.3009384e-27 1.8346134e-24 -2.1307272e-21
1.3261719e-12 -4.1336895e-17 6.637575e-14 -8.835562e-14 -3.3363112e-18 -1.4385387e-19 -1.7115703e-14 6.0099713e-18
2.9591376e-15 1.756268e-16 -3.7135815e-14 -2.2843153e-12 1.24040795e-11 1.5212364e-14 3.434872e-15 8.011035e-14
1.266965e-10 -0.003687145 8.9351297e-14 4.744746e-13 -1.3446507e-11 -3.058542e-18 -1.126099e-11 3.498054e-12
-3.5626814e-11 3.5146487e-13 7.1969446e-16 -5.966988e-10 7.5816214e-10 -2.607958e-15 -3.5096025e-13 1.4088245e-09
-1.6363815e-20 -2.8173492e-25 -7.7680317e-22 -1.6439623e-21 2.7652536e-26 -4.258919e-30 6.5724715e-22 6.680006e-26
-2.394205e-23 -1.1252207e-24 1.155547e-22 3.1372456e-20 7.721998e-20 -7.8422865e-23 1.110442e-22 6.973846e-22
-7.1386685e-19 9.548055e-19 -3.112096e-21 -3.6194063e-21 1.436596e-17 -2.3387994e-26 -5.733404e-20 -3.643668e-20
1.9610638e-19 -5.3027738e-21 8.3263235e-24 -2.163478e-18 8.790299e-18 2.885927e-23 -1.4529243e-21 -5.6779756e-19
00000000: b009 14af 2b38 9ba9 09f8 dfae 836e 8a2d
00000010: 9bb8 b1a7 2fc4 6225 fcac 372e 44a5 a027
00000020: f91f 4836 ae6f f7a8 e7e6 ed2b a6be 03b1
00000030: 01f8 79b2 80c7 1f2d ffaf 88ab 6f3d 0aae
00000040: 4494 25b3 32aa bc35 8828 07af 8132 3abb
00000050: fe36 3633 b92d 01a7 205f 1f31 fa2d 3e30
00000060: d00d 1b32 9d99 742f 56d0 9337 3e42 7634
00000070: 9ffd 3f34 461f ce2c 7a89 72ae 7589 b2b4
00000080: b71a 1622 bac2 a91b 3e4e 511f d17e 94a0
00000090: 1839 6d97 1944 9696 a359 1e9e ac83 de18
000000a0: 2fda 891c eb3c ec9a 5220 da1e 5f2d 19a3
000000b0: df1d 23a3 0177 371f 4403 a79e 9d37 87a0
000000c0: e6dd b124 8c11 8ba7 f52a 3f1f 6ccb 53a0
000000d0: de7c dda6 e357 2416 1ab0 2322 02da 9ca0
000000e0: 219a 22a4 686d 8221 07c1 5198 7d9f 8d25
000000f0: 0c6c 5026 5b5b 1a9e 409e a5a0 17e2 1626
00000100: 763a d8a9 0942 e924 1fec e027 d5c7 2fa9
00000110: e250 bf22 31a4 09a0 db57 f8a8 7180 1522
00000120: 5ae4 ae25 f560 6fa3 5d09 80a8 5c83 bbab
00000130: 8c0a 462c b8da 48a7 dcac a925 65ee f7a7
00000140: d0e6 7ead a4ef 2aad 9116 caa9 9cb5 3d29
00000150: 5be6 2430 b243 fd1f 0122 1d2c 654d 092c
00000160: 17da 1cad 695b 5eaa 7c99 9a24 05ef 5c2d
00000170: 1f4f 142e 8eef d4a6 ff2b 6ea9 dd15 5aaf
00000180: 3e68 72ac 111e eba4 036c 70a9 8607 a42a
00000190: 360a 14a3 6994 2320 60f9 332a a04d de23
000001a0: 20fd 6fa8 5f5d 4825 5a5d 06aa 3e26 16ad
000001b0: b08a 15ad 0c16 dca8 a07d 60a7 40b6 8d2a
000001c0: 6c35 f8ae eb92 9b3a e89f df3b f8e8 18aa
000001d0: f2a0 98ae 94f6 2b23 9425 a7ad 0e0c 21ad
000001e0: e87e e92e 9272 b52b 1294 a3a6 b6ad 2330
000001f0: 862e bdaf cd91 a127 a4ea 7fab ef8b d230
00000200: 644d 201d a59c cc95 7bda af1a 5cf2 319b
00000210: 41c5 8a14 b335 ad91 b84e 191a 8199 eb93
00000220: bbee 8d99 069d 1496 1e9b 1c1b 445f 331e
00000230: 36d1 721d 439f 9a9a d34c b319 b6aa 2c1c
00000240: 0b18 13a0 42a5 6021 0b3f ca9b bed1 631c
00000250: bc76 ce21 13a4 1a14 0826 9d9e 58de 259d
00000260: e57f b09e 72b3 ac19 3298 a396 b522 3c20
00000270: f127 1b21 29d3 fd18 3a0b c91c 277a e81e
00000280: 5cff 6d98 47b6 8811 6580 4797 b1a1 3a16
00000290: 6e93 120f 6580 5d0b 7211 a712 3b72 2390
000002a0: a086 3895 dfdf e591 09ba d295 a34f c219
000002b0: c0af a19a 39a6 e895 a2e9 2615 0a26 2f16
000002c0: 3fb0 b59b a5ee 261d 9880 0d97 ae39 cb18
000002d0: 24f8 d99b 13dc 9490 7c52 db99 30d0 8f19
000002e0: 7b1f 721b 760a 4317 2cc2 3394 5dd7 299d
000002f0: c940 2d9d 7ec3 8213 43f2 0d18 42fe 209d
00000300: 61a4 ba2b fea1 3ea4 0477 9529 8cf5 c6a9
00000310: 232d 76a2 2ad5 29a0 202a 9aa8 93ba dd22
00000320: 743a 5527 e27b 4a25 ae3e 27a9 91be 20ac
00000330: 0237 5a2d 5305 8928 3482 7727 7964 b429
00000340: e54d 0b2f 07a4 71bb 8433 c929 808d 052b
00000350: af8d 6cad 3aae 61a2 fe1a 46ad 5727 762c
00000360: 3ab0 1cae 6ddb c52a 1470 4f26 f204 24b0
00000370: eb66 5030 55ec 3ba7 b492 c5aa 9ba0 c130
00000380: 478d 9a9e ae62 ae96 3cc6 6a9c b66d f89c
00000390: c1ed 0815 25c3 ac8e 09a4 461c 9163 a515
000003a0: a58d e799 961e ae97 73b2 0b1b f926 141f
000003b0: 9d54 b61f 679d bd9a 843e 061b 85c5 521c
000003c0: 41b2 52a1 88e7 8c21 b124 6b9d c0bc 889d
000003d0: aa80 8423 9c9f e794 4d60 879f 3e11 2c9f
000003e0: 8485 6720 4855 c89d f50d 2119 f2a2 1fa2
000003f0: 0327 2223 0c8e 0b1a 498f db9c 9295 27a1

gnn.gru.bias_ih_l0 f4 [96]
3.795046e-07 1.0286218e-15 -9.345481e-10 1.2916734e-09 2.4345315e-18 -7.9886846e-22 1.7393473e-10 5.677753e-18
-2.4158592e-12 -9.037541e-15 -6.895254e-10 -1.1584254e-06 2.6922976e-06 -8.020765e-13 -4.0120716e-11 -2.5389986e-09
0.00014901058 -0.010655167 -5.5798086e-09 2.0936397e-09 0.01711791 3.6660947e-18 -3.991302e-05 -5.380877e-07
6.366158e-05 -1.8883298e-08 -2.6614728e-12 -0.014201678 -0.0042766244 -7.53792e-13 -6.5969225e-10 -0.05964352
-4.116011e-08 1.1495815e-16 -3.694643e-11 1.5805171e-10 8.706137e-20 1.7904437e-21 1.4364533e-11 -2.9774544e-18
5.2086563e-13 8.5537495e-16 1.5968828e-10 8.709772e-08 -1.2126967e-06 2.5311316e-11 8.968681e-13 3.24264e-10
-4.4521035e-05 -0.0070079565 1.337967e-09 -1.2063711e-08 -0.004708485 1.935932e-18 1.2094209e-05 7.219435e-08
3.516823e-06 4.33276e-09 9.747699e-13 0.007130827 0.0058877165 4.410247e-13 -3.825978e-10 0.04601588
-0.00015753714 -4.085319e-09 -5.3649646e-06 -1.1078537e-05 1.0837173e-10 -1.0414905e-11 -2.7683166e-07 1.0955015e-10
1.8931901e-07 1.4597956e-08 -4.9289106e-06 -6.6516004e-05 -0.0005765351 -3.9591786e-08 1.7327717e-07 -2.7637996e-06
-0.0033634566 -0.036405835 -1.480538e-06 -3.4273427e-05 -0.026949214 -1.4622097e-10 -0.000510568 8.791468e-05
-0.0012604 -1.4792838e-06 2.5094275e-07 0.00029550315 -0.10967895 1.9391267e-07 5.756634e-06 0.03225874
00000000: b7be cb34 723d 9426 7d71 80b0 b886 b130
00000010: 00a3 3322 7471 719c 463e 3f2f dc78 d122
00000020: 4000 2aac 4dce 22a8 0989 3db0 327b 9bb5
00000030: 52ad 3436 b4c3 61ab e973 30ae 897a 2eb1
00000040: b93f 1c39 0293 2ebc 84b8 bfb1 b3df 0f31
00000050: dc3a 8c3c 4941 8722 4768 27b8 1b71 10b5
00000060: 0d82 8538 d034 a2b2 d548 3bac 28ae 68bc
00000070: ed22 8cbb 702c 54ab b755 35b0 c34c 74bd
00000080: 05c8 30b3 a889 0425 fb7d 22ae 9ac7 2d2f
00000090: 5e91 cd1f 3848 071d 1bb4 7c2d 86b2 5ba2
000000a0: 539c 122b 888b 7626 4194 2f2f 7a0a bb33
000000b0: f1c3 a2b5 04a4 de2d 2872 7c2b 1a44 b22f
000000c0: 19bc 3ab8 00a3 e5bb 87e3 b730 c340 4fb2
000000d0: a349 9abb b9d8 0e22 3be8 4a37 4309 9b33
000000e0: 8f02 6c36 5cdf 9431 c92f 892b b6a9 e93b
000000f0: bfed c03b 5c46 f82a da55 d2af 267b 3c3d
00000100: 8e30 25b9 d95e 8cb1 b204 b4b6 f4dd 39b7
00000110: dc4f ee2e 9038 37ad 749f 94b4 40e7 f02e
00000120: 9d47 4b34 7dca 7a32 0563 a5b6 827e 8bb8
00000130: 9e22 17ba a10b 2ab3 110e 3a34 b779 39b6
00000140: 706d 5cbb 491e 15bd e6b6 c6b5 d0c0 0fb8
00000150: 99c4 dcbc 8bc5 20af a3d7 05ba d65e b838
00000160: 0234 a5ba ce8b c6b5 4fb9 8634 c3ed 9a39
00000170: 5b9f e0bd 4f36 5034 1c29 c136 be21 043d

gnn.gru.bias_hh_l0 f4 [96]
-2.0412739e-07 1.2735907e-15 -8.9891944e-10 1.1822157e-09 2.7503096e-18 -4.0979827e-22 1.4111977e-10 9.062339e-18
-3.758572e-12 -8.833456e-15 -3.06929e-10 -1.1154099e-06 2.7045237e-06 -1.6782704e-11 -2.9763466e-11 -2.026616e-09
0.00015097672 -0.010657078 -5.8466467e-09 -2.7816829e-09 0.017185826 7.571347e-18 -3.989171e-05 -5.5077027e-07
-3.5548715e-06 -1.8484213e-08 -2.6808087e-12 -0.014023545 -0.004362427 -1.5201176e-12 -4.2130716e-10 -0.05964477
-4.0422837e-08 1.1458851e-16 -3.741354e-11 1.5809312e-10 8.714591e-20 1.7937916e-21 1.7245188e-11 -3.6405894e-18
5.194936e-13 8.590644e-16 1.5968778e-10 9.728057e-08 -1.2367987e-06 2.502608e-11 8.9795944e-13 3.2437245e-10
-4.9095914e-05 -0.007008014 1.3970358e-09 -1.2209595e-08 -0.004727998 1.9688836e-18 1.224251e-05 7.215769e-08
5.237843e-06 4.3381307e-09 9.760985e-13 0.0072322898 0.0058747875 4.4004714e-13 -3.6788977e-10 0.04506465
1.6998785e-05 -3.381815e-09 1.0858685e-07 1.9219763e-06 -2.1418207e-10 -3.0725197e-11 -4.0707764e-06 2.7027876e-11
8.336922e-07 -1.7169333e-09 -4.4826056e-06 -0.00013759646 -0.00036893788 4.36069e-06 -7.150722e-07 -3.3564634e-06
-0.016764408 0.003773032 -1.589752e-05 -2.1571852e-05 0.024099447 8.8187013e-10 -0.0011860207 4.489298e-05
0.0010738872 -4.1011182e-05 5.545248e-07 0.03032501 -0.0049148537 -1.382179e-07 -6.777384e-07 0.016986668
00000000: 1c2e 5bb4 348b b726 d517 77b0 847b a230
00000010: e1ef 4a22 36b5 f79b af29 1b2f b02b 2723
00000020: 353e 84ac 2021 1fa8 6bbc a8af 31b5 95b5
00000030: 5d7f 3536 4a9f 93ad afe6 02ae 9b44 0bb1
00000040: 814f 1e39 069b 2ebc a6e3 c8b1 e227 3fb1
00000050: 4ac9 8c3c adaa 0b23 6651 27b8 a5d8 13b5
00000060: 3a90 6eb6 37c7 9eb2 28a5 3cac 03c3 65bc
00000070: b1f2 8ebb 02f0 d5ab b69d e7af 134e 74bd
00000080: 619d 2db3 8f1c 0425 e78b 24ae 42d3 2d2f
00000090: 78c4 cd1f fa88 071d b6b0 972d 6550 86a2
000000a0: 7539 122b c49b 7726 1d94 2f2f 8fe8 d033
000000b0: 1400 a6b5 b921 dc2d ccc0 7c2b 5d53 b22f
000000c0: 56ec 4db8 7ba3 e5bb d401 c030 5ec2 51b2
000000d0: 52ed 9abb 2947 1122 2e65 4d37 1cf5 9a33
000000e0: bbc0 af36 9a0e 9531 a85f 892b d8fc ec3b
000000f0: 4a81 c03b 7ab9 f72a e23f caaf b695 383d
00000100: 9d98 8e37 8565 68b1 4130 e933 4dfb 0036
00000110: e57e 6baf 7f21 07ae b497 88b6 5ebd ed2d
00000120: e4ca 5f35 38f9 ebb0 4a69 96b6 c547 10b9
00000130: 016e c1b9 0b52 9236 63f3 3fb5 9a3f 61b6
00000140: 8355 89bc f944 773b aa5b 85b7 33f5 b4b7
00000150: 346c c53c 1868 7230 4074 9bba 784b 3c38
00000160: adc1 8c3a 6c03 2cb8 a7da 1435 286c f83c
00000170: c80c a1bb 0c69 14b4 d4ed 35b5 a027 8b3c
