1-GNNs/result/6108_AR_NURA_GAT_0920/48/model.pth (torch, 102966 bytes, 12 tensors)

gnn.gnn_layers.0.gat_conv.attn_l f4 [1, 8, 32]
0	0x3e91eab2	0.2849937
1	0xbd4d99c8	-0.050195485
2	0xbda21eae	-0.07916008
3	0xbd006821	-0.031349305
4	0xbe1415e3	-0.14461474
5	0x3dad2c9c	0.08455774
6	0xbe6c9a44	-0.23105723
7	0x3e4ab04a	0.19793811
8	0x3d8c80e0	0.068605185
9	0x3dafe9e3	0.08589532
10	0xbe897d32	-0.2685333
11	0xbd023f87	-0.031798866
12	0x3defa229	0.117008515
13	0xbda1a2be	-0.07892369
14	0xbd903539	-0.070414014
15	0xbd7fc4db	-0.062443595
16	0xbd925d7c	-0.07146737
17	0xbd96bd48	-0.07360321
18	0x3e2041f6	0.15650162
19	0xbe34b2b1	-0.1764629
20	0x3d25c789	0.040473495
21	0x3dcfd232	0.101475134
22	0xbc5ac922	-0.013353618
23	0x3dbaa081	0.09112645
24	0x3ebbb27e	0.36659616
25	0x3d419ddf	0.0472697
26	0x3d8257a4	0.063643724
27	0xbe12f9a1	-0.14353038
28	0xbc9d48fd	-0.019199843
29	0xbdbd5a99	-0.09245796
30	0x3f33b7d0	0.7020235
31	0xbe83a7b9	-0.257139
32	0xbb768a09	-0.0037618896
33	0xbef217bd	-0.47283736
34	0x3d20ed0e	0.039288573
35	0xbea90a25	-0.33015552
36	0x3dd639ea	0.10460265
37	0x3e4cb60c	0.1999132
38	0xbdebc3b8	-0.1151194
39	0x3e44835b	0.19190733
40	0xbe928c08	-0.2862246
41	0x3df06b0e	0.11739169
42	0xbeedfff6	-0.46484345
43	0xbd9d6769	-0.076857395
44	0xbe6b3ae0	-0.22971678
45	0xbe2ea4cd	-0.17055054
46	0xbe06e563	-0.13173442
47	0x3d71d3ab	0.059039753
48	0xbd4c3e8e	-0.049864344
49	0xbebdfd02	-0.37107092
50	0x3e0f8aed	0.1401784
51	0xbe4b189a	-0.19833604
52	0xbd374f56	-0.044753395
53	0x3dd3144d	0.103066064
54	0x3db1ad1a	0.08675595
55	0x3e87ae23	0.26500043
56	0x3e4b986a	0.1988236
57	0xbc739bbc	-0.014868673
58	0x3d9e50d7	0.07730263
59	0xbf0755a7	-0.5286507
60	0xbdf2c521	-0.118540056
61	0x3daf0c1d	0.08547232
62	0xbe8e6ef8	-0.27819037
63	0xbe68d4cd	-0.22737427
64	0x3d1cdc9a	0.03829632
65	0xbb49efd5	-0.0030813117
66	0x3de1f9a9	0.11033947
67	0xbe2e56b9	-0.1702527
68	0x3e0f6887	0.14004718
69	0xbdad5f73	-0.08465471
70	0x3d1ca229	0.038240585
71	0x3dc913b4	0.09818211
72	0x3d194563	0.037419688
73	0x3b1f2aa1	0.0024286883
74	0x3e60be19	0.21947517
75	0xbca80237	-0.020508869
76	0x3d108f76	0.035293065
77	0xbd0c450b	-0.034245532
78	0x3d5459b4	0.05184336
79	0x3d7c1b0e	0.06154924
80	0xbd1eb018	-0.038742155
81	0x3bf37a48	0.0074303485
82	0x3cc59cb6	0.024122577
83	0x3e031af8	0.12803257
84	0xbc3abb55	-0.0113972025
85	0x3dbe8e1d	0.0930445
86	0x3d730e44	0.059339777
87	0x3d7ca53c	0.061681017
88	0x3c79bf00	0.015243292
89	0xbc5df6a2	-0.013547571
90	0x3d20070f	0.03906923
91	0xbc882861	-0.016620817
92	0xbdc22290	-0.094792485
93	0x3d08ade4	0.03336896
94	0xbdec1592	-0.11527552
95	0x3d83650c	0.064157575
96	0xbdae0726	-0.08497457
97	0xbf2b8e49	-0.67013985
98	0xbe48b07c	-0.19598573
99	0x3d5c71d1	0.05381948
100	0x3da32dee	0.07967745
101	0x3de61ee8	0.11236364
102	0x3e22c781	0.15896417
103	0x3b38eacd	0.0028216124
104	0xbee51a0a	-0.4474643
105	0x3c2f4e53	0.010699826
106	0x3ef45d4b	0.47727427
107	0x3da5c963	0.08095052
108	0xbf0d9963	-0.55312175
109	0x3e15b320	0.14619112
110	0x3eb1b5b5	0.34708944
111	0xbe8d1ee7	-0.2756264
112	0x3f0744a2	0.528391
113	0x3ea3bc97	0.3197982
114	0xbe322a48	-0.17398942
115	0x3e0282d3	0.12745218
116	0xbdc536a2	-0.09629561
117	0x3e397f66	0.18115005
118	0x3cb4f9d4	0.022091784
119	0xbea388c1	-0.31940272
120	0xbf03792a	-0.51356757
121	0xbe0b417b	-0.13599198
122	0x3dfb6f22	0.12277056
123	0x3efe2012	0.49633843
124	0x3de55104	0.11197093
125	0x3edfba8d	0.43697014
126	0xbef660d0	-0.48120737
127	0xbe845db2	-0.25852734
128	0x3ddf646e	0.10907827
129	0x3d929b1a	0.071584895
130	0xbdf6b500	-0.12046242
131	0xbe89028c	-0.26759756
132	0x3e207805	0.15670784
133	0xbd41c59a	-0.04730759
134	0xbd391dc7	-0.045194414
135	0x3de02f08	0.109464705
136	0xbe0e39e1	-0.13889267
137	0xbdc61d9d	-0.09673617
138	0xbef51615	-0.4786841
139	0xbdb96698	-0.09052771
140	0xbe4120e0	-0.18860197
141	0xbe0c04b0	-0.13673663
142	0x3e056bf2	0.13029459
143	0xbd12ded9	-0.035857055
144	0xbcd73ef9	-0.026275145
145	0xbd8ba68e	-0.06818877
146	0x3e0f7734	0.14010316
147	0xbe089775	-0.13339026
148	0xbd91f933	-0.07127609
149	0x3e50ab60	0.20377874
150	0xbd98f21e	-0.07468055
151	0xbe31c956	-0.1736196
152	0x3d0bbd16	0.034115873
153	0xbd297be8	-0.04137793
154	0x3e038839	0.12844934
155	0xbf6906e3	-0.91026133
156	0x3cf3047f	0.02966523
157	0x3e39486f	0.18094037
158	0xbf19cf49	-0.6008192
159	0x3cd75fed	0.026290858
160	0xbd812b74	-0.06307116
161	0x3de6a052	0.112610474
162	0x3e02b922	0.12765935
163	0xbdb5aa41	-0.08870364
164	0x3ddbdecd	0.10735855
165	0xbc83a385	-0.016069183
166	0x3dc0130d	0.09378634
167	0xbdb3bb54	-0.087759644
168	0x3eb280d0	0.348639
169	0xb996dee4	-0.00028776296
170	0x3e166adf	0.14689206
171	0x3d366bdb	0.044536453
172	0x3deaf8b1	0.11473215
173	0xbc190e2d	-0.009341759
174	0x3e0b13d6	0.13581786
175	0x3ef76f5a	0.48327142
176	0xbbc9ed7a	-0.0061623426
177	0x3e01991e	0.12656066
178	0x3e652664	0.22377926
179	0x3c285425	0.010273968
180	0xbc868cbd	-0.016424531
181	0x3e1b25b1	0.15151097
182	0x3e3fb75a	0.18722287
183	0x3d644f0b	0.055739444
184	0x3e8e0aac	0.27742517
185	0xbcbf8f8d	-0.02338388
186	0x3e154b20	0.14579439
187	0x3eaf6020	0.34253025
188	0xbd7d388e	-0.061821513
189	0x3d85ca2d	0.065327026
190	0x3db90470	0.090340495
191	0x3e136276	0.14393029
192	0x3d5029c7	0.050821092
193	0x3d187c7f	0.037228104
194	0x3e1910ba	0.14947787
195	0xbeb5a242	-0.35475355
196	0x3e50b4b5	0.20381434
197	0xbdd8212a	-0.105532005
198	0x3dfc50cc	0.12320098
199	0x3e14fd1f	0.14549683
200	0xbd7c7147	-0.061631467
201	0xbdbec605	-0.09315113
202	0xbe54d92d	-0.20785971
203	0xbe04a754	-0.12954456
204	0x3d2771f2	0.04088015
205	0xbd550898	-0.05201015
206	0x3db084f1	0.086191066
207	0x3e37f388	0.17963994
208	0xbd896f30	-0.067106605
209	0xbe442045	-0.19152935
210	0x3cbf5c4e	0.023359444
211	0x3e070b7e	0.13187978
212	0xbd0a14f4	-0.03371139
213	0x3c871000	0.016487122
214	0x3dcc680d	0.099807836
215	0xbd01e456	-0.0317119
216	0xbe921d50	-0.2853799
217	0xbcf2ee18	-0.029654548
218	0x3e773ff1	0.24145485
219	0xbed0c5b9	-0.4077585
220	0xbdc28584	-0.09498122
221	0x3c112816	0.008859655
222	0x3c184a14	0.009295005
223	0x3e230317	0.15919147
224	0x3dd3fb32	0.10350646
225	0x3e706809	0.23477186
226	0x3df4686c	0.119339794
227	0xbedfb9b5	-0.4369637
228	0x3ebfa9d0	0.37434244
229	0xbe807779	-0.2509115
230	0x3dc0a4af	0.09406411
231	0x3c6412e7	0.013920522
232	0x3ddd1ded	0.107967235
233	0xbe3ffb88	-0.18748295
234	0x3e657ccf	0.22410892
235	0xbe21b90c	-0.15793246
236	0x3e38ad89	0.18034948
237	0xbd82f1c3	-0.06393769
238	0xbd86b83b	-0.06578108
239	0xbd7ac522	-0.061223157
240	0x3dd44ba7	0.10365992
241	0xbe11a387	-0.14222537
242	0xbe3f3972	-0.18674257
243	0x3e99ea1f	0.30061433
244	0x3bfd0589	0.007721607
245	0x3d1949ab	0.03742377
246	0xbdb16918	-0.08662623
247	0xbe854aaf	-0.26033542
248	0xbeaf0b90	-0.3418851
249	0xbc969394	-0.018380918
250	0x3dec4968	0.11537439
251	0xbded55cb	-0.11588629
252	0xbe40627e	-0.18787572
253	0x3d949843	0.07255604
254	0xbf323cba	-0.6962391
255	0x3e0b44dd	0.13600488

gnn.gnn_layers.0.gat_conv.attn_r f4 [1, 8, 32]
0	0x3d00dd97	0.031461325
1	0xbd9e2a34	-0.07722893
2	0x3c82fcb0	0.015989631
3	0xbe47b4fa	-0.19502631
4	0xbba1cfaf	-0.004938088
5	0x3c86afd1	0.016441258
6	0xbd609712	-0.054831572
7	0x3e79d3c0	0.24397182
8	0xbd0c57de	-0.034263484
9	0x3c9e4a4b	0.019322535
10	0xbc55b5fd	-0.013043878
11	0xbd80da09	-0.06291587
12	0x3da462ae	0.08026634
13	0xbdd1e289	-0.10248286
14	0xbe8d9c96	-0.27658528
15	0x3d68e8b2	0.05686254
16	0xbdcea6f1	-0.10090435
17	0xbe146b6c	-0.14494103
18	0xbca03016	-0.01955418
19	0xbc9c1d3a	-0.019056905
20	0x3a3b11d4	0.00071361405
21	0xbd518d1a	-0.051159956
22	0x3d7bc907	0.06147101
23	0x3e31941a	0.17341653
24	0x3d141cf0	0.03616041
25	0x3d0c31cb	0.034227174
26	0xba4bf696	-0.00077805796
27	0x3db93abc	0.09044406
28	0xbda7c2ee	-0.08191477
29	0xbe04d12c	-0.12970418
30	0xbd6152ff	-0.055010792
31	0xbd9393f2	-0.07205953
32	0x3d7e8bb3	0.062144946
33	0xbc26253d	-0.010140714
34	0xbd948d36	-0.07253496
35	0x3d9c68a9	0.0763715
36	0xbd01aee3	-0.031660926
37	0x3d60e4c4	0.054905668
38	0xbe43d180	-0.19122887
39	0xbd6deba8	-0.058086067
40	0xbe602507	-0.21889125
41	0x3c822a13	0.015889203
42	0xbdfae792	-0.122512
43	0x3d8428cd	0.06453095
44	0xbdc41c36	-0.09575693
45	0x3de1a16d	0.11017118
46	0x3eaca127	0.337167
47	0xbde5d023	-0.112213396
48	0x3d8cd851	0.068771966
49	0x3e07939d	0.13239904
50	0x3af0db43	0.0018375892
51	0xbdeca261	-0.11554409
52	0xbc24f150	-0.010067299
53	0xbcfa7dae	-0.030577507
54	0xbd3b5f12	-0.045744963
55	0x3c978491	0.01849583
56	0x3ea28d7c	0.3174857
57	0xbca3191d	-0.019909436
58	0xbc025a25	-0.007956062
59	0xbe051e9e	-0.12999961
60	0x3e0bc3e4	0.13648945
61	0x3e2b8979	0.1675166
62	0x3d693ac0	0.056940794
63	0x3cd63662	0.026148979
64	0xbcd5b542	-0.026087407
65	0x3b6eb56d	0.0036424056
66	0x3c62852f	0.013825699
67	0xbc3f1840	-0.0116634965
68	0xbd28f84f	-0.04125243
69	0xbd137c47	-0.036007192
70	0x3d7d9ddf	0.061918136
71	0x3d2a8fe2	0.041641124
72	0xbc752253	-0.014961797
73	0xbd4be98f	-0.049783286
74	0x3d80da26	0.062916085
75	0xbc8ca4e7	-0.017168475
76	0x3d7556b9	0.05989716
77	0x3c3586fe	0.011079548
78	0x3d60b8b3	0.054863643
79	0xbb5d55b2	-0.0033773002
80	0xbceeb8b1	-0.029140802
81	0x3c7bf895	0.015379091
82	0xbca11627	-0.019663883
83	0x3d5c7d2c	0.05383031
84	0x3be9f5db	0.007139904
85	0xbc97ca99	-0.018529223
86	0xbcdcfd6f	-0.026976315
87	0xbde29187	-0.110629134
88	0xbd736e30	-0.059431255
89	0x3b0886b8	0.0020832252
90	0x3b93ea48	0.0045140125
91	0xbcb91cff	-0.022596834
92	0x3c79526a	0.015217403
93	0xbd6233c4	-0.05522515
94	0xbd075e97	-0.033049192
95	0x3cdc1244	0.026864178
96	0xbccae6db	-0.024768284
97	0xbd387212	-0.04503066
98	0x3d4d89a8	0.050180107
99	0xbb3e2a9a	-0.0029017092
100	0x3d2c548d	0.04207282
101	0xbd27c1fc	-0.040956482
102	0x3ddb32b3	0.107030295
103	0xbc2be1fe	-0.010490892
104	0xbdf2467e	-0.118298516
105	0xbcdb48d2	-0.026768122
106	0x3d8f44f9	0.06995577
107	0x3896a349	7.1829716e-05
108	0xbe9a29ec	-0.3011011
109	0xbca2331b	-0.01979976
110	0xbc193075	-0.009349932
111	0x3cb52f4f	0.022117285
112	0x3e54e1be	0.20789239
113	0xbd1c65e0	-0.038183093
114	0xbd20907d	-0.039200295
115	0x3d10ed18	0.03538236
116	0xbb9eaf25	-0.004842656
117	0x3da74d76	0.081690714
118	0x3b123a8f	0.0022312736
119	0x3acb253a	0.0015498765
120	0x3e57d53b	0.21077435
121	0xbc8dfc8d	-0.01733234
122	0x3be53bba	0.0069956454
123	0xbe161612	-0.14656857
124	0x3c74ae78	0.014934175
125	0xbd2efed2	-0.042723484
126	0xbd94cd60	-0.07265735
127	0xbbab9431	-0.0052361717
128	0x3e2c3cbc	0.16820043
129	0x3e05bc14	0.13060027
130	0xbdd9c0da	-0.10632487
131	0xbd8ed311	-0.069738515
132	0x3e2fe647	0.17177688
133	0xbd36ff01	-0.044676784
134	0xbdfa5034	-0.12222329
135	0x3d42aa69	0.047525797
136	0x3e0d56a3	0.1380258
137	0x3c01d057	0.007923207
138	0xbdcb77b8	-0.09934944
139	0x3d08fea5	0.033445973
140	0xbd8f0e35	-0.06985132
141	0x3ceed188	0.029152647
142	0x3e631ed1	0.22179724
143	0xbd91016c	-0.07080349
144	0x3d299f28	0.04141155
145	0x3e223eb2	0.15844229
146	0x3c944359	0.01809852
147	0xbd8f927e	-0.07010363
148	0xbcce8d12	-0.025213752
149	0xbd935109	-0.071931906
150	0xbd88b0d7	-0.066743545
151	0xbc2f52b2	-0.010700868
152	0x3e8cd3ea	0.27505428
153	0xbcc13d1c	-0.02358871
154	0x3d20392e	0.03911703
155	0xbde0c137	-0.10974353
156	0x3d480982	0.048837192
157	0x3e69f1b5	0.2284611
158	0xbe30641b	-0.17225687
159	0x3dee15a6	0.11625223
160	0x3cc5e276	0.024155837
161	0xbde56abc	-0.112019986
162	0xbdcffd48	-0.101557314
163	0x3e280df4	0.16411573
164	0xbd5c9b64	-0.05385913
165	0x3d6e7597	0.05821761
166	0xbe06a5ad	-0.13149138
167	0xbbf821fb	-0.00757241
168	0xbe051515	-0.12996323
169	0x3cb5b7a6	0.022182297
170	0xbd46c64d	-0.048528958
171	0x3d63bf83	0.05560256
172	0xbda6c9e1	-0.08143974
173	0x3d88c4e2	0.066781774
174	0x3d08df1a	0.03341589
175	0xbd3f4a06	-0.046701454
176	0x3dd1d482	0.10245611
177	0x3d9a1e4a	0.075253084
178	0x3d273879	0.04082534
179	0xbd2e58c3	-0.04256512
180	0x3bac1e56	0.0052526398
181	0x3bb02c24	0.0053763557
182	0xbd61ffb3	-0.055175494
183	0xbd005d4c	-0.031338975
184	0xbcceb865	-0.02523441
185	0x3bf4da9a	0.0074723484
186	0xbbb29761	-0.0054501747
187	0x3d9a8a40	0.075459
188	0x3bbe02d2	0.005798676
189	0x3d57eed6	0.052718006
190	0xbe055b86	-0.13023195
191	0xbe506b8c	-0.20353526
192	0x3de6b8eb	0.11265739
193	0xbda875f3	-0.08225622
194	0x3e1687cf	0.14700244
195	0xbee07888	-0.43841958
196	0x3e35d057	0.17755257
197	0xbd8b1600	-0.067913055
198	0xbdd6a0e3	-0.104799055
199	0x3e4b8e95	0.1987861
200	0xbdf8ffec	-0.12158188
201	0xbd28f48e	-0.04124885
202	0xbeba151b	-0.36344227
203	0xbe5a359b	-0.21309511
204	0x3e0a4155	0.13501485
205	0xbdb11c7b	-0.0864801
206	0xbe19e2df	-0.1502795
207	0xbd99201b	-0.07476827
208	0xbd9c5206	-0.07632832
209	0xbea6d952	-0.32587677
210	0xbd3f2171	-0.04666275
211	0xbd9f8677	-0.07789319
212	0xbd846c29	-0.064659424
213	0xbd58d9eb	-0.052942198
214	0xbcf5c49b	-0.030000975
215	0x3d20c6c7	0.03925207
216	0xbe8546aa	-0.26030475
217	0x3d69c08f	0.057068404
218	0x3e3e0de7	0.18559991
219	0xbe719241	-0.23590948
220	0xbd9e72ee	-0.07736765
221	0xbe4629ba	-0.19351855
222	0xbe0b1c44	-0.13585001
223	0xbd5d5122	-0.054032452
224	0x3d79ec6a	0.061016478
225	0x3e126b28	0.1429869
226	0x3d364e43	0.04450823
227	0xbec0560e	-0.37565655
228	0x3ed70d18	0.42002177
229	0xbe68ee3a	-0.22747126
230	0x3d8a0498	0.067391574
231	0x3c5a94b0	0.013341114
232	0xbd00e904	-0.03147222
233	0xbe837621	-0.25676063
234	0x3eaa5fab	0.33276114
235	0xbe103d59	-0.14085902
236	0x3e8c1c2e	0.2736525
237	0xbd1e5aff	-0.038661
238	0x3e52d90f	0.20590614
239	0x3d7f25bc	0.062291846
240	0x3debba49	0.115101404
241	0x3d6f32cb	0.05839805
242	0xbe5997f1	-0.21249367
243	0x3e47cb2f	0.19511102
244	0xbc01b6ad	-0.007917088
245	0x3dcf8dd0	0.101344705
246	0xbc3480cf	-0.0110170385
247	0xbe1f64cc	-0.15565795
248	0xbe631a8e	-0.22178099
249	0xbba039e3	-0.004889713
250	0x3df4bdec	0.11950287
251	0x3e4c8371	0.19972016
252	0xbe24b7c6	-0.16085729
253	0x3ddef6b1	0.108868964
254	0xbe8424a0	-0.25809193
255	0x3e324597	0.17409359

gnn.gnn_layers.0.gat_conv.bias f4 [256]
0	0x3c82a0de	0.015945848
1	0x3c652d23	0.013987812
2	0xbe2bf76d	-0.16793604
3	0x3e0d5f97	0.13805996
4	0xbcb10f0b	-0.021613618
5	0x3e2cf578	0.16890514
6	0xbd91800b	-0.071045004
7	0xbe2db06d	-0.16961832
8	0xbdb44311	-0.088018544
9	0x3bb78582	0.005600632
10	0xbeb05b17	-0.34444496
11	0x3e0ad5e9	0.13558163
12	0xbe92b02f	-0.28650042
13	0x3ca381e3	0.019959396
14	0xbb057b83	-0.0020367808
15	0xbe69dbd4	-0.22837764
16	0x3dea9807	0.11454778
17	0x3d737563	0.05943812
18	0x3d286494	0.041111544
19	0xbe299fa8	-0.1656481
20	0xbc46e2a3	-0.012138995
21	0xbd17bdfc	-0.037046418
22	0xbe4010e9	-0.1875645
23	0xbe116100	-0.14197159
24	0xbe197633	-0.14986496
25	0xbd5d4b67	-0.054026987
26	0xbd908fb4	-0.07058659
27	0xbe79d698	-0.24398267
28	0x3de3c818	0.11122149
29	0x3d963a2b	0.073353134
30	0xbe85af30	-0.2611022
31	0xbb82d908	-0.0039931573
32	0x3c82a0de	0.015945848
33	0x3c652d23	0.013987812
34	0xbe2bf76d	-0.16793604
35	0x3e0d5f97	0.13805996
36	0xbcb10f0b	-0.021613618
37	0x3e2cf578	0.16890514
38	0xbd91800b	-0.071045004
39	0xbe2db06d	-0.16961832
40	0xbdb44311	-0.088018544
41	0x3bb78582	0.005600632
42	0xbeb05b17	-0.34444496
43	0x3e0ad5e9	0.13558163
44	0xbe92b02f	-0.28650042
45	0x3ca381e3	0.019959396
46	0xbb057b83	-0.0020367808
47	0xbe69dbd4	-0.22837764
48	0x3dea9807	0.11454778
49	0x3d737563	0.05943812
50	0x3d286494	0.041111544
51	0xbe299fa8	-0.1656481
52	0xbc46e2a3	-0.012138995
53	0xbd17bdfc	-0.037046418
54	0xbe4010e9	-0.1875645
55	0xbe116100	-0.14197159
56	0xbe197633	-0.14986496
57	0xbd5d4b67	-0.054026987
58	0xbd908fb4	-0.07058659
59	0xbe79d698	-0.24398267
60	0x3de3c818	0.11122149
61	0x3d963a2b	0.073353134
62	0xbe85af30	-0.2611022
63	0xbb82d908	-0.0039931573
64	0x3c82a0de	0.015945848
65	0x3c652d23	0.013987812
66	0xbe2bf76d	-0.16793604
67	0x3e0d5f97	0.13805996
68	0xbcb10f0b	-0.021613618
69	0x3e2cf578	0.16890514
70	0xbd91800b	-0.071045004
71	0xbe2db06d	-0.16961832
72	0xbdb44311	-0.088018544
73	0x3bb78582	0.005600632
74	0xbeb05b17	-0.34444496
75	0x3e0ad5e9	0.13558163
76	0xbe92b02f	-0.28650042
77	0x3ca381e3	0.019959396
78	0xbb057b83	-0.0020367808
79	0xbe69dbd4	-0.22837764
80	0x3dea9807	0.11454778
81	0x3d737563	0.05943812
82	0x3d286494	0.041111544
83	0xbe299fa8	-0.1656481
84	0xbc46e2a3	-0.012138995
85	0xbd17bdfc	-0.037046418
86	0xbe4010e9	-0.1875645
87	0xbe116100	-0.14197159
88	0xbe197633	-0.14986496
89	0xbd5d4b67	-0.054026987
90	0xbd908fb4	-0.07058659
91	0xbe79d698	-0.24398267
92	0x3de3c818	0.11122149
93	0x3d963a2b	0.073353134
94	0xbe85af30	-0.2611022
95	0xbb82d908	-0.0039931573
96	0x3c82a0de	0.015945848
97	0x3c652d23	0.013987812
98	0xbe2bf76d	-0.16793604
99	0x3e0d5f97	0.13805996
100	0xbcb10f0b	-0.021613618
101	0x3e2cf578	0.16890514
102	0xbd91800b	-0.071045004
103	0xbe2db06d	-0.16961832
104	0xbdb44311	-0.088018544
105	0x3bb78582	0.005600632
106	0xbeb05b17	-0.34444496
107	0x3e0ad5e9	0.13558163
108	0xbe92b02f	-0.28650042
109	0x3ca381e3	0.019959396
110	0xbb057b83	-0.0020367808
111	0xbe69dbd4	-0.22837764
112	0x3dea9807	0.11454778
113	0x3d737563	0.05943812
114	0x3d286494	0.041111544
115	0xbe299fa8	-0.1656481
116	0xbc46e2a3	-0.012138995
117	0xbd17bdfc	-0.037046418
118	0xbe4010e9	-0.1875645
119	0xbe116100	-0.14197159
120	0xbe197633	-0.14986496
121	0xbd5d4b67	-0.054026987
122	0xbd908fb4	-0.07058659
123	0xbe79d698	-0.24398267
124	0x3de3c818	0.11122149
125	0x3d963a2b	0.073353134
126	0xbe85af30	-0.2611022
127	0xbb82d908	-0.0039931573
128	0x3c82a0de	0.015945848
129	0x3c652d23	0.013987812
130	0xbe2bf76d	-0.16793604
131	0x3e0d5f97	0.13805996
132	0xbcb10f0b	-0.021613618
133	0x3e2cf578	0.16890514
134	0xbd91800b	-0.071045004
135	0xbe2db06d	-0.16961832
136	0xbdb44311	-0.088018544
137	0x3bb78582	0.005600632
138	0xbeb05b17	-0.34444496
139	0x3e0ad5e9	0.13558163
140	0xbe92b02f	-0.28650042
141	0x3ca381e3	0.019959396
142	0xbb057b83	-0.0020367808
143	0xbe69dbd4	-0.22837764
144	0x3dea9807	0.11454778
145	0x3d737563	0.05943812
146	0x3d286494	0.041111544
147	0xbe299fa8	-0.1656481
148	0xbc46e2a3	-0.012138995
149	0xbd17bdfc	-0.037046418
150	0xbe4010e9	-0.1875645
151	0xbe116100	-0.14197159
152	0xbe197633	-0.14986496
153	0xbd5d4b67	-0.054026987
154	0xbd908fb4	-0.07058659
155	0xbe79d698	-0.24398267
156	0x3de3c818	0.11122149
157	0x3d963a2b	0.073353134
158	0xbe85af30	-0.2611022
159	0xbb82d908	-0.0039931573
160	0x3c82a0de	0.015945848
161	0x3c652d23	0.013987812
162	0xbe2bf76d	-0.16793604
163	0x3e0d5f97	0.13805996
164	0xbcb10f0b	-0.021613618
165	0x3e2cf578	0.16890514
166	0xbd91800b	-0.071045004
167	0xbe2db06d	-0.16961832
168	0xbdb44311	-0.088018544
169	0x3bb78582	0.005600632
170	0xbeb05b17	-0.34444496
171	0x3e0ad5e9	0.13558163
172	0xbe92b02f	-0.28650042
173	0x3ca381e3	0.019959396
174	0xbb057b83	-0.0020367808
175	0xbe69dbd4	-0.22837764
176	0x3dea9807	0.11454778
177	0x3d737563	0.05943812
178	0x3d286494	0.041111544
179	0xbe299fa8	-0.1656481
180	0xbc46e2a3	-0.012138995
181	0xbd17bdfc	-0.037046418
182	0xbe4010e9	-0.1875645
183	0xbe116100	-0.14197159
184	0xbe197633	-0.14986496
185	0xbd5d4b67	-0.054026987
186	0xbd908fb4	-0.07058659
187	0xbe79d698	-0.24398267
188	0x3de3c818	0.11122149
189	0x3d963a2b	0.073353134
190	0xbe85af30	-0.2611022
191	0xbb82d908	-0.0039931573
192	0x3c82a0de	0.015945848
193	0x3c652d23	0.013987812
194	0xbe2bf76d	-0.16793604
195	0x3e0d5f97	0.13805996
196	0xbcb10f0b	-0.021613618
197	0x3e2cf578	0.16890514
198	0xbd91800b	-0.071045004
199	0xbe2db06d	-0.16961832
200	0xbdb44311	-0.088018544
201	0x3bb78582	0.005600632
202	0xbeb05b17	-0.34444496
203	0x3e0ad5e9	0.13558163
204	0xbe92b02f	-0.28650042
205	0x3ca381e3	0.019959396
206	0xbb057b83	-0.0020367808
207	0xbe69dbd4	-0.22837764
208	0x3dea9807	0.11454778
209	0x3d737563	0.05943812
210	0x3d286494	0.041111544
211	0xbe299fa8	-0.1656481
212	0xbc46e2a3	-0.012138995
213	0xbd17bdfc	-0.037046418
214	0xbe4010e9	-0.1875645
215	0xbe116100	-0.14197159
216	0xbe197633	-0.14986496
217	0xbd5d4b67	-0.054026987
218	0xbd908fb4	-0.07058659
219	0xbe79d698	-0.24398267
220	0x3de3c818	0.11122149
221	0x3d963a2b	0.073353134
222	0xbe85af30	-0.2611022
223	0xbb82d908	-0.0039931573
224	0x3c82a0de	0.015945848
225	0x3c652d23	0.013987812
226	0xbe2bf76d	-0.16793604
227	0x3e0d5f97	0.13805996
228	0xbcb10f0b	-0.021613618
229	0x3e2cf578	0.16890514
230	0xbd91800b	-0.071045004
231	0xbe2db06d	-0.16961832
232	0xbdb44311	-0.088018544
233	0x3bb78582	0.005600632
234	0xbeb05b17	-0.34444496
235	0x3e0ad5e9	0.13558163
236	0xbe92b02f	-0.28650042
237	0x3ca381e3	0.019959396
238	0xbb057b83	-0.0020367808
239	0xbe69dbd4	-0.22837764
240	0x3dea9807	0.11454778
241	0x3d737563	0.05943812
242	0x3d286494	0.041111544
243	0xbe299fa8	-0.1656481
244	0xbc46e2a3	-0.012138995
245	0xbd17bdfc	-0.037046418
246	0xbe4010e9	-0.1875645
247	0xbe116100	-0.14197159
248	0xbe197633	-0.14986496
249	0xbd5d4b67	-0.054026987
250	0xbd908fb4	-0.07058659
251	0xbe79d698	-0.24398267
252	0x3de3c818	0.11122149
253	0x3d963a2b	0.073353134
254	0xbe85af30	-0.2611022
255	0xbb82d908	-0.0039931573

gnn.gnn_layers.0.gat_conv.fc.weight f4 [256, 74]
0	0x3c861e2b	0.016371807
1	0x3de19a9f	0.1101582
2	0x3dba5d8d	0.09099875
3	0xbd951dcc	-0.07281074
4	0xbd8bdb7c	-0.06828973
5	0x98ba57ec	-4.816865e-24
6	0x3989dd12	0.00026295386
7	0xbd35841b	-0.04431544
8	0xbc80ca65	-0.01572151
9	0x98a2d737	-4.209333e-24
10	0x989547dd	-3.858816e-24
11	0x1941678d	9.998778e-24
12	0x190174c2	6.692723e-24
13	0x99091656	-7.087245e-24
14	0x98ab7bd6	-4.4327506e-24
15	0xbc9a30b5	-0.018822053
16	0x98a5a6f8	-4.2820096e-24
17	0x97806726	-8.297844e-25
18	0x98904205	-3.728979e-24
19	0x17ccb0b9	1.3227802e-24
20	0x18e8ef4c	6.0212223e-24
21	0x1937a03b	9.4932365e-24
22	0x199d1bbb	1.624462e-23
23	0x9893d0ea	-3.820956e-24
24	0x18b44c56	4.660599e-24
25	0x181b470a	2.0069146e-24
26	0x9893286f	-3.8039437e-24
27	0x185179dd	2.7074142e-24
28	0x18e73233	5.976279e-24
29	0x186906f1	3.0118049e-24
30	0x18ff2ab7	6.5959086e-24
31	0x981ac35b	-2.0002663e-24
32	0x98d39d4a	-5.4701043e-24
33	0x17ad55f6	1.1201563e-24
34	0x176e7077	7.70439e-25
35	0x991765e0	-7.8270905e-24
36	0x98d05b71	-5.3859072e-24
37	0x184ec8a3	2.6726172e-24
38	0x9873826e	-3.1472864e-24
39	0x98ad084c	-4.472783e-24
40	0x988d4d13	-3.652547e-24
41	0x18b4b7ff	4.67147e-24
42	0x194bf0c2	1.0543475e-23
43	0x189b6123	4.0164644e-24
44	0x3c85fc91	0.016355785
45	0x3d7c487d	0.061592568
46	0x3c5730aa	0.013134161
47	0x3e4b0409	0.19825758
48	0x19279be3	8.665179e-24
49	0x17ae5fd1	1.1268674e-24
50	0x18e43fc8	5.900102e-24
51	0x181c6a7a	2.0216284e-24
52	0x9791cd4b	-9.422229e-25
53	0x989031e7	-3.7273516e-24
54	0x3e7cdb4b	0.24693029
55	0x3b7e9f20	0.003885217
56	0xbd91aae7	-0.07112675
57	0xbd33e6a1	-0.043921117
58	0x99377b34	-9.485759e-24
59	0x18b30f35	4.628577e-24
60	0x183b27ed	2.418934e-24
61	0xbe49b56b	-0.19698112
62	0xba7309f2	-0.00092711963
63	0x3e48d08c	0.19610804
64	0xbd1b9b92	-0.03799016
65	0x3cce60d0	0.025192648
66	0x180e1984	1.8365952e-24
67	0x17889db6	8.828606e-25
68	0x3b123c3b	0.0022313732
69	0x3e922a2a	0.28547794
70	0x3b1844f1	0.0023234452
71	0xbda18fcb	-0.078887545
72	0xbc6647f6	-0.014055243
73	0x9778f7fb	-8.0446117e-25
74	0x3e363d53	0.17796831
75	0xbe0a7236	-0.1352013
76	0x3d8ca09c	0.06866571
77	0xbda10d05	-0.078638114
78	0xbcbc94a0	-0.023020089
79	0x9848d04c	-2.5954557e-24
80	0x3dcca741	0.09992839
81	0x3e0b7962	0.13620523
82	0x3df9b971	0.12193573
83	0x18b15515	4.583934e-24
84	0x188f4cbf	3.7042127e-24
85	0x18217cb3	2.087172e-24
86	0x1977a0e4	1.2802092e-23
87	0x19565366	1.1080383e-23
88	0x18b4904e	4.667462e-24
89	0xbc43f5c3	-0.01196045
90	0x97d8b4a8	-1.4004277e-24
91	0x15e4e911	9.245618e-26
92	0x189e5fe0	4.093885e-24
93	0x1899b6a0	3.9733977e-24
94	0x98349130	-2.3337756e-24
95	0x995fbace	-1.1566555e-23
96	0x18c1ad0f	5.0064075e-24
97	0x1887a76a	3.5065727e-24
98	0x96b945ff	-2.9932536e-25
99	0x98adbae7	-4.4908175e-24
100	0x1837604e	2.3700817e-24
101	0x17137076	4.7640207e-25
102	0x982654a9	-2.149774e-24
103	0x98b7a3ba	-4.7469713e-24
104	0x98f1d396	-6.2510687e-24
105	0x9892e5c9	-3.797214e-24
106	0x1867bb90	2.9950745e-24
107	0x18dfa9f5	5.781576e-24
108	0x984f0bda	-2.6760106e-24
109	0x18bb1069	4.8354937e-24
110	0x989cb01d	-4.0502884e-24
111	0x986b266c	-3.0392436e-24
112	0x96496592	-1.6268701e-25
113	0x189df5c9	4.083173e-24
114	0x17c676d9	1.2825451e-24
115	0x98a93898	-4.374262e-24
116	0x98c06792	-4.9735416e-24
117	0x17640ec5	7.3689415e-25
118	0x3e7fd66a	0.24984136
119	0xbe382b7d	-0.1798534
120	0xbe31c608	-0.17360699
121	0x3c354a36	0.011065057
122	0x18808e68	3.323102e-24
123	0x1787c099	8.772789e-25
124	0x9788692d	-8.815344e-25
125	0x98912535	-3.751919e-24
126	0x98c1a953	-5.0060304e-24
127	0x97f5a680	-1.5874784e-24
128	0x3e463f63	0.19360118
129	0xbe8ee62d	-0.27909985
130	0xbc5f5046	-0.0136299785
131	0x3dfa2b9d	0.1221535
132	0x9918eea8	-7.906412e-24
133	0x98e49c18	-5.9094233e-24
134	0x97f5b3c2	-1.5878131e-24
135	0x3db39b0c	0.08769807
136	0xbaf83b77	-0.001893862
137	0x3f0bcaea	0.546065
138	0xbd161436	-0.03664037
139	0xbe4a830d	-0.19776554
140	0x191fb8a2	8.257394e-24
141	0x190002f4	6.618041e-24
142	0x3d8f6cc5	0.07003168
143	0x3dc2f47e	0.095192894
144	0xbe1d7516	-0.15376696
145	0x3d0f39f7	0.03496739
146	0x3e116404	0.14198309
147	0x990b009d	-7.1862554e-24
148	0xbdbe9123	-0.093050264
149	0x3d857ad7	0.065175705
150	0xbbb327a2	-0.005467371
151	0x3c590430	0.013245627
152	0xbd22c03c	-0.03973411
153	0x18ee28bd	6.1562693e-24
154	0x3cacf6ba	0.021113742
155	0xbbc314e6	-0.005953419
156	0xbb8d7e84	-0.0043180604
157	0x19166e48	7.777089e-24
158	0x186f48ca	3.0926775e-24
159	0x998a2a5d	-1.4285976e-23
160	0x1944dbca	1.01773486e-23
161	0x182ab79b	2.2064682e-24
162	0x9888114b	-3.5172637e-24
163	0xbbf392d4	-0.0074332748
164	0x98f33b53	-6.287393e-24
165	0x1945b7ca	1.0221777e-23
166	0x959192f9	-5.8796916e-26
167	0x98a1e414	-4.1847825e-24
168	0x18c73c98	5.150148e-24
169	0x18721fe4	3.1293868e-24
170	0x1805ddf1	1.7301899e-24
171	0x9587259c	-5.45854e-26
172	0x9818defd	-1.975812e-24
173	0x18559fd6	2.7610301e-24
174	0x1940ad11	9.961118e-24
175	0x178182f8	8.369491e-25
176	0x1901d383	6.711858e-24
177	0x18a782fa	4.330074e-24
178	0x17a1f368	1.0465826e-24
179	0x989dd271	-4.079604e-24
180	0x17781ed5	8.0172037e-25
181	0x9817fc53	-1.9643684e-24
182	0x18e8ded2	6.0195585e-24
183	0x1849d8bf	2.608807e-24
184	0x1929e31f	8.782962e-24
185	0x179cfa55	1.0144456e-24
186	0x18d02a71	5.3809595e-24
187	0x989ff009	-4.134291e-24
188	0x18f04cc8	6.2116075e-24
189	0x989b164c	-4.0089075e-24
190	0x18abbb6c	4.439171e-24
191	0x18945e0a	3.835206e-24
192	0x3d06d532	0.032918163
193	0xbdd2321b	-0.10263463
194	0xbe4806de	-0.1953387
195	0xbd1b6919	-0.037942026
196	0x989d9008	-4.0728983e-24
197	0x18a7422c	4.3235305e-24
198	0x9893c709	-3.8199584e-24
199	0x18a56c6d	4.2760982e-24
200	0x9909b9c0	-7.120246e-24
201	0x188dbdcd	3.6639296e-24
202	0xbe29bc55	-0.16575749
203	0xbc8f67bc	-0.01750552
204	0x3d7801cd	0.060548592
205	0x3c556aba	0.013025934
206	0x98ee4fe3	-6.1602223e-24
207	0x98d00c56	-5.3779196e-24
208	0x18bb885f	4.8476067e-24
209	0xbcd12379	-0.02552961
210	0xb899340b	-7.305302e-05
211	0xbd0d618e	-0.034516864
212	0xbd303e2e	-0.04302805
213	0xbcab0f20	-0.020881236
214	0x187906c1	3.2185906e-24
215	0x1826c3e1	2.155389e-24
216	0xbd3c2216	-0.045930944
217	0xbe320101	-0.17383195
218	0x3ced7066	0.02898426
219	0x3d9eb739	0.07749791
220	0x3d163116	0.036667906
221	0x1896ccfc	3.8981073e-24
222	0x3e852478	0.26004386
223	0xbbadb358	-0.0053009205
224	0xbb31a126	-0.0027104109
225	0x3c79ac60	0.015238851
226	0xbda2a844	-0.0794225
227	0x191cba73	8.102664e-24
228	0x3cf2670a	0.029590148
229	0x3d732e76	0.05937048
230	0x3b7bbe41	0.003841296
231	0x992a4405	-8.8025304e-24
232	0x18569658	2.7734756e-24
233	0x18b2331d	4.6063533e-24
234	0x958b635a	-5.62984e-26
235	0x986216b4	-2.9221278e-24
236	0x99197320	-7.933164e-24
237	0x3bcff683	0.006346525
238	0x17b5fdf4	1.1760958e-24
239	0x9782b27a	-8.446107e-25
240	0x98bbb601	-4.8522144e-24
241	0x985a6486	-2.822659e-24
242	0x18c070eb	4.9744855e-24
243	0x17f61b65	1.5904293e-24
244	0x189e2c95	4.088706e-24
245	0x18d6572d	5.540573e-24
246	0x18aeccf0	4.518488e-24
247	0x18f1c828	6.2499146e-24
248	0x1910cf21	7.486455e-24
249	0x189444b6	3.8326484e-24
250	0x9728cea1	-5.454453e-25
251	0x19284438	8.699173e-24
252	0x987c5ff4	-3.261868e-24
253	0x97fb979a	-1.6258764e-24
254	0x98ea89be	-6.0626666e-24
255	0x98a67c2c	-4.3035376e-24

readout.weight_and_sum.atom_weighting.0.weight f4 [1, 32]
0	0x3ecc8493	0.39944896
1	0x3ec067af	0.37579104
2	0x3e83c725	0.25737873
3	0xbe393584	-0.18086821
4	0xbd227ac7	-0.03966787
5	0xbea043d8	-0.3130176
6	0x3a74b0de	0.00093342166
7	0x3ee4b7be	0.44671434
8	0x3f0a504e	0.54028785
9	0xbd41a4b1	-0.047276203
10	0x3f5b5787	0.8568043
11	0xbe689fd2	-0.22717217
12	0x3f185ea8	0.59519434
13	0xbde7e209	-0.1132241
14	0xbe262cd5	-0.1622804
15	0xbdd76318	-0.105169475
16	0xbe2a6e4b	-0.16643636
17	0xbd8ab7d5	-0.067733444
18	0xbe81fae1	-0.25386718
19	0x3dd435d3	0.10361829
20	0x3d4f290d	0.05057626
21	0xbe7c8fc7	-0.24664222
22	0x3e188d5a	0.14897671
23	0x3e82de89	0.25560406
24	0x3c397cb8	0.011321239
25	0x3dc28f92	0.0950004
26	0x3f0325f1	0.5122977
27	0x3ed5050a	0.41605407
28	0xbde1de2c	-0.11028704
29	0xbe772fdd	-0.24139352
30	0x3d043e9a	0.032286264
31	0xbdd4bd2f	-0.103876464

predict.predict.1.weight f4 [64, 64]
0	0xa7eb2fd4	-6.527746e-15
1	0xa9208ded	-3.5650238e-14
2	0xb0cbf053	-1.4838498e-09
3	0x27434927	2.7101342e-15
4	0xa7cbd4ed	-5.6574673e-15
5	0xa88bd6f6	-1.5525324e-14
6	0x281bd323	8.650011e-15
7	0x2f54dacf	1.9359024e-10
8	0xaaecb61d	-4.2048388e-13
9	0x2b6d90c6	8.440023e-13
10	0xa6994a19	-1.0636592e-15
11	0x2874d9ac	1.3591921e-14
12	0x27cd5e47	5.7001146e-15
13	0xa7c8b93c	-5.5711983e-15
14	0x35bbfa55	1.4005442e-06
15	0x27c38857	5.4271192e-15
16	0x287a85aa	1.3906772e-14
17	0x271db9de	2.1888886e-15
18	0x2b59bad5	7.735317e-13
19	0xb52dad7f	-6.469999e-07
20	0x26ab32f4	1.1879319e-15
21	0x2e0c0911	3.1840367e-11
22	0xa8242f3d	-9.114072e-15
23	0x27fee520	7.074758e-15
24	0x28b5c9d9	2.0182574e-14
25	0xa5dcfe79	-3.8336354e-16
26	0xa93fc376	-4.2580055e-14
27	0x28650d84	1.2714984e-14
28	0x2b48cbd0	7.133712e-13
29	0x2855a647	1.1859931e-14
30	0xa7781112	-3.4426168e-15
31	0xa81cd757	-8.706434e-15
32	0xa7a0e93e	-4.4661803e-15
33	0x27c4d8cb	5.4635976e-15
34	0xa753f2cd	-2.9413755e-15
35	0xa6a35323	-1.1332931e-15
36	0xa6c461ec	-1.3626774e-15
37	0xa74a2fd5	-2.8059061e-15
38	0x284819fa	1.1107863e-14
39	0xa6f93ff6	-1.7295182e-15
40	0x270ebfb2	1.9810377e-15
41	0xa87c008f	-1.3988931e-14
42	0xa6211a08	-5.5893375e-16
43	0xa82d3baf	-9.616371e-15
44	0x27e7a324	6.4292257e-15
45	0x27ddc9f6	6.155879e-15
46	0x26069392	4.6690584e-16
47	0x2709f764	1.914668e-15
48	0xa7f52387	-6.803968e-15
49	0x283bd397	1.04264665e-14
50	0x27a35024	4.5328477e-15
51	0xa7011a6f	-1.7916676e-15
52	0xa71f744c	-2.2128727e-15
53	0xa78bf702	-3.8848057e-15
54	0x26e0295c	1.5554333e-15
55	0xa6dd64b4	-1.5362251e-15
56	0x25c10a5e	3.3487188e-16
57	0x28d73c81	2.3896034e-14
58	0xa82cafdf	-9.586054e-15
59	0xa580d6bf	-2.2349978e-16
60	0x2793ac42	4.098746e-15
61	0xa7665aa7	-3.1968055e-15
62	0xa8361a7c	-1.0108772e-14
63	0x276fbca1	3.3270169e-15
64	0xbb87125c	-0.0041220617
65	0x3bdfe7b2	0.00683304
66	0xbb9b9a85	-0.004748645
67	0x3bcdc225	0.0062792473
68	0xbad31692	-0.0016104749
69	0x39e7786d	0.00044149478
70	0x3b0bded0	0.0021342523
71	0xbc17a99a	-0.009256745
72	0xbafdbe55	-0.0019359092
73	0xbb0eee7d	-0.002180963
74	0xbb274cd9	-0.0025527983
75	0x3a4e36e4	0.00078664557
76	0xbb97cda7	-0.00463267
77	0x3b9d5ca0	0.0048023015
78	0x3b9e7318	0.0048354976
79	0xbb4ad7b5	-0.0030951325
80	0x3b40b75a	0.002940616
81	0x3b04bb77	0.002025334
82	0xba9208a8	-0.0011141496
83	0xb92aa442	-0.00016273654
84	0xba80b962	-0.0009820873
85	0x3b369a40	0.0027862936
86	0xbb8fe988	-0.0043918528
87	0xbb784729	-0.0037884212
88	0xbbadf35c	-0.0053085517
89	0xbaa361af	-0.0012465025
90	0xbb83117d	-0.0039998875
91	0xbb840027	-0.0040283385
92	0x3bb3dfb3	0.0054893135
93	0x3ab18d35	0.0013546111
94	0xb93639de	-0.0001737843
95	0x3bd3d9a1	0.0064651524
96	0x3967aa03	0.00022093211
97	0x3caf9c11	0.021436723
98	0xbc2ede0f	-0.01067306
99	0xb9fd4064	-0.00048303895
100	0x3c1c36e4	0.009534571
101	0x3c6163b7	0.013756684
102	0x3c8fe182	0.017563585
103	0x39a383ef	0.0003118808
104	0x3b3d83b5	0.0028917615
105	0xbbcba9b2	-0.0062152976
106	0x3b93a99b	0.0045063025
107	0x3ae21eca	0.0017251607
108	0xbc5212e4	-0.012821887
109	0x3c787e93	0.015166896
110	0x3c358219	0.011078381
111	0x3c86a921	0.016438069
112	0x3c45c4ef	0.012070878
113	0x3cca2469	0.024675565
114	0x3c0a931d	0.008457926
115	0x3b4f1f91	0.0031604508
116	0xb9f99921	-0.0004760707
117	0x3b84f20c	0.0040571745
118	0xbb94d7ce	-0.0045423275
119	0xbc1f6e1c	-0.009730842
120	0xbc148fb0	-0.009067461
121	0xbae9936a	-0.0017820422
122	0xbb028049	-0.001991289
123	0x3b37224e	0.0027944031
124	0x3c83e18a	0.016098756
125	0x3c6212d6	0.013798436
126	0x3c1d1325	0.009587084
127	0x3ca4b3da	0.020105291
128	0x3bdacc28	0.0066771694
129	0x3ae2da09	0.0017307411
130	0xba619c9a	-0.00086064043
131	0xbb10a05b	-0.0022068236
132	0xbb3795bd	-0.0028012835
133	0x38a2bc6e	7.75986e-05
134	0x3ad5eb06	0.0016320653
135	0x3bcd2afb	0.006261227
136	0x3baf1d03	0.0053440346
137	0xba5ad465	-0.0008347689
138	0xb9a7b376	-0.0003198643
139	0xb905aa91	-0.0001274741
140	0xbb8b276b	-0.0042466423
141	0x39a77acb	0.0003194421
142	0x3a9cf8a1	0.0011975953
143	0xb98c376e	-0.0002674418
144	0xbb636bbf	-0.0034701673
145	0xbb13b76e	-0.0022539753
146	0x3a14633e	0.000566054
147	0xba7aa2bd	-0.0009560993
148	0xb36adfe1	-5.4685987e-08
149	0x3a73877f	0.0009289905
150	0x3a079310	0.00051717553
151	0x3a9b0990	0.0011828411
152	0xbad533df	-0.0016266069
153	0xbab5d570	-0.0013872813
154	0x3c2fc777	0.0107287085
155	0xba84c9b6	-0.0010130915
156	0xbabb9168	-0.0014310302
157	0xbb3d68e4	-0.002890163
158	0xbb192ae6	-0.0023371517
159	0x3b5dfedf	0.003387384
160	0xbb1d3881	-0.0023989978
161	0x3ac6babd	0.0015161854
162	0x3ac5de1a	0.0015096099
163	0x3c0b1018	0.008487724
164	0x3a9dabd5	0.0012029359
165	0xb9b3a243	-0.00034262435
166	0xb9c3dd34	-0.00037358108
167	0xbb00092d	-0.001953672
168	0x3b2a1625	0.002595314
169	0x3ae49873	0.0017440453
170	0x3bffe740	0.0078095496
171	0x3a9913be	0.0011678857
172	0x3952fe0c	0.000201218
173	0x3a136a5b	0.0005623453
174	0x3ae5f309	0.0017543744
175	0x3a2fd733	0.00067077874
176	0xbb2fdf61	-0.0026836025
177	0xb837f2f3	-4.3856864e-05
178	0xbaefd573	-0.0018297866
179	0x3b309d3f	0.0026949195
180	0x3a79cb23	0.0009528866
181	0x3b67d535	0.0035374884
182	0x3af35c7c	0.0018566991
183	0x3b5b98d1	0.0033507834
184	0x393c8054	0.00017976883
185	0x3a02422a	0.00049689657
186	0xbc7ef1ae	-0.015560551
187	0x3b8c65d9	0.004284602
188	0xbb0fe718	-0.002195781
189	0xbad8bb4c	-0.0016535311
190	0x3b220191	0.0024720172
191	0x3b4830e8	0.0030546729
192	0x3271780d	1.4055343e-08
193	0x3166ed6d	3.3604366e-09
194	0xb3042dcb	-3.0775293e-08
195	0x32a746b8	1.9473518e-08
196	0x326d97ae	1.3829704e-08
197	0xb2f328b9	-2.8307442e-08
198	0xb249d9d6	-1.174927e-08
199	0x313ab6f8	2.7170568e-09
200	0x35bcf373	1.4077945e-06
201	0x33276c7d	3.8981387e-08
202	0x33156dbf	3.479158e-08
203	0x2fda3ce4	3.9697234e-10
204	0x353ed43e	7.108937e-07
205	0x30fa8222	1.822688e-09
206	0x31b98fdb	5.400563e-09
207	0x3207e35d	7.909731e-09
208	0x32377a0a	1.067975e-08
209	0x37c4f4a9	2.347895e-05
210	0xb12449dd	-2.3907127e-09
211	0x32c752a3	2.3204228e-08
212	0xb17bfd6f	-3.6669368e-09
213	0xb63ceee7	-2.8153243e-06
214	0x337969f3	5.807119e-08
215	0xb1b5041c	-5.2682605e-09
216	0xb2c86e66	-2.3333268e-08
217	0x3206b602	7.84121e-09
218	0xb6253e9f	-2.4623366e-06
219	0xb2a5596d	-1.9249194e-08
220	0x33635db9	5.2937796e-08
221	0x32a18984	1.8805402e-08
222	0x3505fa63	4.991072e-07
223	0xb2acea67	-2.013003e-08
224	0xb1887af0	-3.9720973e-09
225	0xb2966502	-1.7508231e-08
226	0xb31e4675	-3.6851322e-08
227	0xb249f83e	-1.1756184e-08
228	0x316e4109	3.4670526e-09
229	0x335dbc36	5.162675e-08
230	0x330a6d7a	3.2230197e-08
231	0x32beaefd	2.2198487e-08
232	0xb34b004b	-4.7264887e-08
233	0xb2ca185c	-2.3526972e-08
234	0x32cb9b34	2.3702889e-08
235	0x32dd6846	2.5775204e-08
236	0xb31e780d	-3.6896427e-08
237	0x32944eac	1.7265243e-08
238	0x33450b9e	4.5878203e-08
239	0x30f5c584	1.7882233e-09
240	0x3370b388	5.6042637e-08
241	0x3361289c	5.242383e-08
242	0x3306f1a8	3.141909e-08
243	0x334a3c5b	4.7086683e-08
244	0xb24b8299	-1.184585e-08
245	0x3290870c	1.6825219e-08
246	0xb23449d4	-1.04941655e-08
247	0xb3950eba	-6.941032e-08
248	0xb2cc400c	-2.377785e-08
249	0x32a0763e	1.8680222e-08
250	0xb2f70ff8	-2.8761846e-08
251	0xb295a457	-1.7420616e-08
252	0x333ce87a	4.3983597e-08
253	0x32869f86	1.5672196e-08
254	0x33b26822	8.3077126e-08
255	0x324c0690	1.1875855e-08

predict.predict.1.bias f4 [64]
0	0x27a0b799	4.460798e-15
1	0x3c1497c5	0.009069388
2	0x3c2ac577	0.010423056
3	0x33f21855	1.1273429e-07
4	0xb3dc6604	-1.0263105e-07
5	0x23272fd7	9.063219e-18
6	0x29bb6f01	8.323724e-14
7	0x2d418312	1.0999883e-11
8	0xa0ef7840	-4.056775e-19
9	0x3a3d4a86	0.00072208827
10	0x3f183016	0.59448373
11	0x27537850	2.9347354e-15
12	0x37200321	9.537472e-06
13	0xb72e6efa	-1.0397047e-05
14	0x3c9ad5e5	0.018900821
15	0xaf38016b	-1.6735206e-10
16	0x2dac23ab	1.9569976e-11
17	0xbb89af70	-0.004201822
18	0xbb00cef4	-0.0019654604
19	0xa3d3febc	-2.298455e-17
20	0xad77538c	-1.4058876e-11
21	0xb46e6860	-2.2203449e-07
22	0xa6c8ca47	-1.3932615e-15
23	0xa2c46648	-5.32342e-18
24	0xb1b67070	-5.30968e-09
25	0x23acc754	1.8732696e-17
26	0x3f0d921a	0.5530106
27	0xaba4afc5	-1.1701687e-12
28	0xbce98fda	-0.028510977
29	0xbb40456f	-0.002933826
30	0xa1ad0605	-1.1724529e-18
31	0xbdc9ea77	-0.09859174
32	0x3d17a91d	0.037026513
33	0x3cff5e2c	0.031172834
34	0x3da85d36	0.082209036
35	0x2f325b05	1.6221342e-10
36	0x28678736	1.2852395e-14
37	0xbb027796	-0.0019907705
38	0x3cbab9f4	0.022793747
39	0x25c9b390	3.4989618e-16
40	0x3e7a8d8a	0.24468055
41	0xb7a0c5b9	-1.9165558e-05
42	0xb575e598	-9.1603715e-07
43	0xad4fb1cc	-1.18060665e-11
44	0xbdcc097a	-0.09962745
45	0xbb385b8b	-0.0028130736
46	0x3bf4fce1	0.0074764346
47	0xb765f6d4	-1.3706933e-05
48	0x3bd8d1f9	0.0066168276
49	0x2f506ec9	1.8956849e-10
50	0x3f41c318	0.75688314
51	0xa74d3833	-2.847993e-15
52	0x29c455f5	8.71906e-14
53	0x2bcad8f7	1.4413183e-12
54	0xb2801f81	-1.4915488e-08
55	0x3b8bb77b	0.004263816
56	0xbca2ae4b	-0.0198585
57	0xac5e82ba	-3.1620665e-12
58	0x2aed08f2	4.2105864e-13
59	0xb7e13073	-2.6844651e-05
60	0xba1a8909	-0.00058950536
61	0xa4c141a4	-8.381161e-17
62	0xa892dde4	-1.6305486e-14
63	0x2883831e	1.4600785e-14

predict.predict.3.weight f4 [64]
0	0x2b63f6b2	8.098896e-13
1	0x3c79b448	0.015240736
2	0xb9fd5c19	-0.00048324539
3	0x36c69455	5.918128e-06
4	0xaef1bfb0	-1.0993462e-10
5	0xa5520e55	-1.8219452e-16
6	0x35e286fe	1.68776e-06
7	0xb31abae0	-3.602588e-08
8	0x257a07a4	2.1686632e-16
9	0x3a7b48e3	0.0009585751
10	0x3f9fe08c	1.2490401
11	0x33af4ae7	8.162697e-08
12	0x3a19de60	0.0005869623
13	0x383471d3	4.302135e-05
14	0x3d4e229d	0.05032598
15	0x3739d8a3	1.1077299e-05
16	0x351ba0ac	5.797581e-07
17	0x3b4e5a98	0.0031487104
18	0x343401c4	1.6764449e-07
19	0x265fca26	7.764263e-16
20	0x348d6445	2.6336252e-07
21	0x3835cbb8	4.334349e-05
22	0xb17c8c7e	-3.6750687e-09
23	0xa3610ea1	-1.2200372e-17
24	0xb6bba0fe	-5.5917762e-06
25	0x23f3c1d8	2.6428209e-17
26	0x3f1e2ff8	0.61791945
27	0x34897b42	2.560792e-07
28	0x3d5a6791	0.053321425
29	0xbb463b5d	-0.0030247786
30	0x224e46d8	2.795571e-18
31	0x3d9febd1	0.0780865
32	0xbc267e05	-0.010161881
33	0xbc8ca4f6	-0.017168503
34	0x3e0eb4d4	0.13936168
35	0x36272b90	2.4910296e-06
36	0x283780d7	1.0186478e-14
37	0xbc18a846	-0.009317463
38	0xbdaf1425	-0.08548764
39	0xa9573af4	-4.7790724e-14
40	0xbe88585b	-0.2662991
41	0xba84b5c1	-0.0010124968
42	0xb7aabf77	-2.0354737e-05
43	0x35cd8b70	1.5314272e-06
44	0xbe5a6c80	-0.21330452
45	0xbb99bbf2	-0.0046915943
46	0x3c7b529f	0.015339523
47	0x38626c28	5.3983327e-05
48	0x3c10f4aa	0.008847395
49	0x35598f89	8.104767e-07
50	0x3f56b958	0.8387656
51	0xab2fd762	-6.2471393e-13
52	0x283e40f8	1.0561207e-14
53	0xada99947	-1.9281144e-11
54	0x3840929b	4.5912904e-05
55	0x3c2b7cef	0.010466798
56	0x3d0a3f1c	0.033751592
57	0x35d39692	1.5764547e-06
58	0x2da5d0a3	1.8850982e-11
59	0xb857c59b	-5.144403e-05
60	0xbafab341	-0.0019126908
61	0xa95ed3b9	-4.9477542e-14
62	0xb17556aa	-3.5701455e-09
63	0xafa87b8a	-3.0646802e-10

predict.predict.3.bias f4 [64]
0	0x2fedd0f2	4.3258513e-10
1	0x3c0a7708	0.008451231
2	0x3ac6671b	0.0015136929
3	0x35e511a0	1.7066959e-06
4	0xb2b50e9d	-2.1077819e-08
5	0xadf3bb15	-2.7708983e-11
6	0x2f651f4d	2.0838549e-10
7	0xb308e936	-3.187707e-08
8	0xab444a0f	-6.9735965e-13
9	0xb98e1461	-0.00027099534
10	0xbf248485	-0.6426471
11	0x2d8f0d02	1.6262994e-11
12	0x389f311e	7.5908596e-05
13	0xb8bc3c5b	-8.975781e-05
14	0xbdad4c5b	-0.08461829
15	0x32290329	9.837813e-09
16	0xb2a79df9	-1.9513196e-08
17	0x3bac0187	0.0052492055
18	0x38189bdd	3.6384783e-05
19	0xb013cac1	-5.376642e-10
20	0x3150b71e	3.0372074e-09
21	0xb4862e23	-2.4993014e-07
22	0x2e3af93e	4.2512875e-11
23	0xb8136fc3	-3.5151617e-05
24	0x35350367	6.7432705e-07
25	0xada1865d	-1.836325e-11
26	0xbeb20e24	-0.34776413
27	0x320f9240	8.356949e-09
28	0x3c6d910d	0.014499915
29	0xbb531379	-0.0032207652
30	0xb2b77cda	-2.136078e-08
31	0x3aee0bad	0.0018161439
32	0x3c93d4b6	0.018045764
33	0x3cbefad5	0.023312965
34	0xbd9be672	-0.07612313
35	0x33d1cee4	9.769954e-08
36	0x3934e5ff	0.00017251818
37	0xb9d0ae20	-0.00039802585
38	0x3cf2367f	0.029567001
39	0x2f202ee2	1.4568571e-10
40	0x3e64c911	0.22342326
41	0xb718a4f2	-9.09831e-06
42	0xb7bc7ebd	-2.2470364e-05
43	0xb1be6c5a	-5.542046e-09
44	0xbdea4035	-0.11438028
45	0x3be9a9be	0.0071308305
46	0xbcf09a18	-0.029370353
47	0xb92774b3	-0.00015969835
48	0x3c12d782	0.008962514
49	0x34c8160d	3.7268947e-07
50	0x3ea9c591	0.33158544
51	0xafdf2f55	-4.0597095e-10
52	0x2ebadbef	8.497369e-11
53	0xb096125e	-1.0919157e-09
54	0x35f8b0cd	1.8528896e-06
55	0x3cd9c262	0.026581947
56	0xbc0b2f40	-0.008495152
57	0xb0e2fd32	-1.6515627e-09
58	0x31958b24	4.352289e-09
59	0xb93f8cb5	-0.00018267597
60	0xbb018422	-0.0019762595
61	0xaef58aeb	-1.1165987e-10
62	0xae9ed19f	-7.222244e-11
63	0x3089f6a0	1.0038157e-09

predict.predict.3.running_mean f4 [64]
0	0x34391eff	1.7240744e-07
1	0x3d8b4e4a	0.06802042
2	0x3c80afb7	0.015708787
3	0x3593364b	1.0968155e-06
4	0x35478794	7.433057e-07
5	0x2393c1a7	1.6019787e-17
6	0x29bbb1df	8.335324e-14
7	0x32481937	1.1647265e-08
8	0x2e58ebef	4.9322265e-11
9	0x3ba20faa	0.004945715
10	0x402ab599	2.6673338
11	0x32b04052	2.0518346e-08
12	0x398dd921	0.0002705539
13	0x35c3e18f	1.4594278e-06
14	0x3e8c97ea	0.2745965
15	0x31284bae	2.4490237e-09
16	0x2f59987e	1.9790211e-10
17	0x39f4326d	0.00046576877
18	0x2b4852af	7.116902e-13
19	0x26a0b7c1	1.1152037e-15
20	0x2e8514ed	6.051857e-11
21	0x34716784	2.2482533e-07
22	0x2e656c93	5.2165005e-11
23	0x2388150c	1.4754063e-17
24	0x33b4bb00	8.415918e-08
25	0x246b2023	5.0984723e-17
26	0x4021e26d	2.529445
27	0x30acc29a	1.2569956e-09
28	0x3b018a9f	0.0019766463
29	0x3b75c170	0.003749933
30	0x22321ca5	2.4138663e-18
31	0x39a3e7f7	0.0003126261
32	0x3e8c4677	0.2739751
33	0x3dbf7094	0.093476444
34	0x3f6ca703	0.9244234
35	0x300dd18b	5.159328e-10
36	0x27f6018e	6.82804e-15
37	0x365240c9	3.1330148e-06
38	0x3e86ee8a	0.26353866
39	0x26b5d3f4	1.2616848e-15
40	0x3ff0a469	1.8800174
41	0x36b6a916	5.443707e-06
42	0x35a1cf9c	1.2055857e-06
43	0x31263c0f	2.4190319e-09
44	0x3be409cb	0.006959175
45	0x3d80dc49	0.06292016
46	0x3d8f455b	0.069956504
47	0x367f1b71	3.8013934e-06
48	0x3d20c691	0.039251868
49	0x30817565	9.419351e-10
50	0x3f969036	1.176276
51	0x283b656b	1.0402577e-14
52	0x32ac4d60	2.0058621e-08
53	0x2c330d5c	2.5444846e-12
54	0x3528058f	6.2592966e-07
55	0x3d3388c7	0.043831613
56	0x3c06264a	0.00818784
57	0x2b9b6a6b	1.1042949e-12
58	0x2c8de5b8	4.032965e-12
59	0x370beed9	8.340657e-06
60	0x3b6fd0ec	0.0036593033
61	0x26813192	8.964609e-16
62	0x34c65f1c	3.6949575e-07
63	0x32e9f485	2.7235965e-08

predict.predict.3.running_var f4 [64]
0	0x2a19e2cd	1.3667817e-13
1	0x3a3b05a5	0.0007134325
2	0x3852aa9a	5.0226787e-05
3	0x2c644c39	3.244306e-12
4	0x2cf781a1	7.034554e-12
5	0x0ad9f5c2	2.0988784e-32
6	0x16333140	1.4475045e-25
7	0x27cc66a8	5.6732674e-15
8	0x1ebbc921	1.988258e-20
9	0x359c790b	1.1658134e-06
10	0x40ab295c	5.3487988
11	0x264891a7	6.9586335e-16
12	0x32ad5da7	2.0182439e-08
13	0x2eaa9e85	7.758864e-11
14	0x3cf8e76c	0.030383788
15	0x2371bb53	1.3104304e-17
16	0x1eee2457	2.521426e-20
17	0x36367e8a	2.7193769e-06
18	0x294854c8	4.4482457e-14
19	0x15341f6e	3.6375504e-26
20	0x21368c09	6.1849334e-19
21	0x2b9c1c42	1.109231e-12
22	0x1eb10ec6	1.8746714e-20
23	0x0a616511	1.08523644e-32
24	0x2a949b37	2.6397783e-13
25	0x0b10a008	2.7853785e-32
26	0x3fc3d3bf	1.5298995
27	0x24007a8d	2.785938e-17
28	0x393ac2f7	0.00017810972
29	0x3a15a7aa	0.0005708883
30	0x07012e35	9.71846e-35
31	0x37bad774	2.2273256e-05
32	0x3be9397a	0.0071174474
33	0x3ac6cc5f	0.0015167109
34	0x3df2a000	0.11846924
35	0x233ab1df	1.0120746e-17
36	0x10f36fef	9.601906e-29
37	0x31674538	3.365427e-09
38	0x3cae38eb	0.021267375
39	0x113d2790	1.4921662e-28
40	0x3fb4e8bf	1.4133528
41	0x2f6652cd	2.0947795e-10
42	0x2e189e5b	3.4701447e-11
43	0x25321514	1.544618e-16
44	0x3b0382fc	0.0020067086
45	0x3b6dbf08	0.0036277194
46	0x3b59bfa4	0.00332258
47	0x2f9f30b6	2.8956543e-10
48	0x3a26c14d	0.00063612015
49	0x23ebb5aa	2.5555689e-17
50	0x3efc0d5b	0.4922894
51	0x1206e180	4.2560895e-28
52	0x27a6327c	4.612899e-15
53	0x1ad4bd36	8.798683e-23
54	0x2a3758cb	1.6284471e-13
55	0x3ab1e3cf	0.001357192
56	0x39929afe	0.00027962768
57	0x1aac971f	7.138168e-23
58	0x1bdbbff9	3.635457e-22
59	0x2fcdcdc2	3.7435482e-10
60	0x37e155ac	2.6861984e-05
61	0x114b84b5	1.605477e-28
62	0x2a4974ed	1.7892953e-13
63	0x29b2a7e8	7.933915e-14

predict.predict.4.weight f4 [1, 64]
0	0x2caba5d2	4.878522e-12
1	0x3be4550b	0.0069681457
2	0xbb122e59	-0.0022305457
3	0x35d37529	1.5754823e-06
4	0xb22120d0	-9.378894e-09
5	0xae6086a8	-5.1051302e-11
6	0x2f38668b	1.6771133e-10
7	0x32be1b10	2.2131218e-08
8	0xaa8b6ac7	-2.4765452e-13
9	0x3936e091	0.0001744053
10	0x3f73dff3	0.95263594
11	0xadc69dff	-2.2580158e-11
12	0x3893cadc	7.047292e-05
13	0xb91ee809	-0.00015154494
14	0xbc91aa90	-0.017781526
15	0x31f69b91	7.177228e-09
16	0x32103a63	8.395179e-09
17	0x3b6fa6a3	0.003656783
18	0x37e1b291	2.6905242e-05
19	0xb05acbc7	-7.9597523e-10
20	0x2f884291	2.4785554e-10
21	0xb61d915a	-2.3479429e-06
22	0x2de9b9d5	2.657156e-11
23	0xb8317fa4	-4.2318963e-05
24	0xb31fd735	-3.7215802e-08
25	0xae51b334	-4.7680263e-11
26	0x3ed8c97c	0.4234122
27	0x3102d908	1.9040858e-09
28	0x3cd5a3ea	0.026079137
29	0xbb2f9f68	-0.0026797894
30	0xb2a021a8	-1.8641757e-08
31	0xbc898bcf	-0.016790299
32	0x3b65adf2	0.0035046306
33	0x3cfd2cab	0.030905088
34	0x3dc48702	0.09596063
35	0x33b5db7f	8.4683954e-08
36	0x3a8a7a32	0.0010564981
37	0xb8d790c3	-0.00010278963
38	0xbbe56180	-0.0070001483
39	0xaea20f84	-7.369663e-11
40	0xbbab711f	-0.005231991
41	0xb6d01501	-6.2013282e-06
42	0xb7eba41f	-2.8090608e-05
43	0xb06e6cd1	-8.6738533e-10
44	0xbd78ef79	-0.060775254
45	0xbbb74aa3	-0.005593614
46	0x3af378c1	0.0018575416
47	0xb8386a0d	-4.3967786e-05
48	0x3b001638	0.0019544493
49	0x34857b1d	2.4862757e-07
50	0xbef9500b	-0.4869388
51	0x2f7f9810	2.3246138e-10
52	0x2e823189	5.920515e-11
53	0x31c2603b	5.6570832e-09
54	0x35c09b62	1.4350337e-06
55	0x3c28d7c6	0.010305351
56	0xbcc4dda9	-0.024031477
57	0xb087e649	-9.887994e-10
58	0xb1af2401	-5.0972635e-09
59	0xb9725887	-0.00023111897
60	0xba93105d	-0.0011220087
61	0x2f47c85f	1.817013e-10
62	0x2f4c7e14	1.8598484e-10
63	0xaf76b6cb	-2.2438511e-10
