1-GNNs/result/6108_AR_NURA_GAT_0920/43/model.pth (torch, 83254 bytes, 12 tensors)

gnn.gnn_layers.0.gat_conv.attn_l f4 [1, 6, 32]
0	0xbd2f0e92	-0.042738505
1	0x3e01500a	0.12628189
2	0x3dbbe2d9	0.09174127
3	0xbeee56e9	-0.46550682
4	0xbda86d71	-0.08223999
5	0x3e33b10b	0.17548005
6	0x3e989383	0.29800043
7	0x3d12ecd5	0.035870392
8	0x3e0f6008	0.14001477
9	0xbd976abb	-0.07393404
10	0x3e118543	0.14210992
11	0x3e00ebe5	0.12589987
12	0xbd88bb58	-0.06676358
13	0x3db19635	0.08671228
14	0x3e01e150	0.12683606
15	0xbe312212	-0.17298153
16	0x3dbdea0b	0.09273156
17	0xbe48e3e8	-0.1961819
18	0xbe01888a	-0.12649742
19	0xbead96ac	-0.33904016
20	0x3db660ea	0.08905204
21	0xbf101463	-0.5628111
22	0xbdb7d3e0	-0.08975959
23	0x3e31018e	0.1728575
24	0xbd528689	-0.051397834
25	0xbe2b62c9	-0.16736902
26	0xbb93560b	-0.004496341
27	0xba6fcdb6	-0.000914778
28	0xbd21c20d	-0.039491702
29	0x3d7465ba	0.059667327
30	0xbd943298	-0.072362125
31	0xbdc61b78	-0.09673208
32	0x3d45dec2	0.04830814
33	0xbe1be9ac	-0.15225857
34	0x3ebf8019	0.37402418
35	0xbec49944	-0.38398182
36	0xbddc87c3	-0.10768082
37	0xbbccdad5	-0.0062516727
38	0x3e38b763	0.18038706
39	0xbcd5bb4b	-0.026090285
40	0x3d320e4a	0.04347066
41	0x3c7c653f	0.015404998
42	0x3d226d23	0.039654862
43	0x3e1a00ff	0.15039442
44	0xbe0d70e5	-0.13812597
45	0x3eb9d350	0.3629403
46	0x3ef1a75f	0.47198007
47	0x3eed44c8	0.46341538
48	0x3d3bb913	0.045830797
49	0xbd620892	-0.055183955
50	0x3e726b8a	0.23673835
51	0xbca9538f	-0.020669727
52	0x3e213d51	0.15746047
53	0x3e80f54e	0.25187153
54	0xbca5abca	-0.020223517
55	0xbe8c86b1	-0.2744651
56	0x3e111719	0.14168967
57	0x3f4f065c	0.8086908
58	0x3ecba855	0.39776865
59	0x3d2c554d	0.042073537
60	0x3f1e6bab	0.6188304
61	0x3d65aae5	0.05607118
62	0x3e3195dc	0.17342323
63	0x3ce41675	0.02784274
64	0xbe288539	-0.1645707
65	0x3e0402b8	0.12891662
66	0xbd1a240a	-0.037632026
67	0xbbab0109	-0.0052186293
68	0x3da38283	0.079838775
69	0x3c128b62	0.008944364
70	0x3c2bb389	0.010479816
71	0xbdb5c032	-0.08874549
72	0xbdc5ff05	-0.09667782
73	0xbdb7ce4e	-0.08974896
74	0x3e3d7856	0.18502936
75	0x3e8d7012	0.27624565
76	0x3b173695	0.0023073305
77	0xbd49c929	-0.049264107
78	0xbdc71918	-0.09721583
79	0xbe8e701a	-0.27819902
80	0xbcad3ced	-0.021147216
81	0xbd903aba	-0.07042451
82	0xbe05d556	-0.13069662
83	0xbde96f8d	-0.1139823
84	0x3d3d4728	0.046210438
85	0xbe7487fe	-0.23880002
86	0xbd3ca220	-0.046053052
87	0x3ea14cdc	0.31503952
88	0xbda197c1	-0.07890273
89	0x3b7725ec	0.0037711812
90	0x3d7d330c	0.06181626
91	0x3d4ad692	0.049521036
92	0x3e75d21e	0.24005935
93	0x3e15d266	0.14631042
94	0x3c2acc0f	0.010424628
95	0xbea48532	-0.3213287
96	0x3dffbd35	0.1248726
97	0xbd31a30e	-0.04336839
98	0x3bbe7b09	0.005813007
99	0xbee3394c	-0.44379652
100	0xbd8978c9	-0.06712491
101	0x3d15c5d2	0.03656561
102	0x3ea732df	0.32656
103	0x3d970b89	0.07375247
104	0x3ec08f3b	0.37609276
105	0x3d109f8c	0.035308406
106	0xbd7aced0	-0.061232388
107	0xbe2006fe	-0.15627667
108	0xbd45277c	-0.04813336
109	0x3ea0898d	0.31354943
110	0xbe2548ab	-0.16141002
111	0xbe2fd89d	-0.17172475
112	0x3c0e5324	0.008686814
113	0x3d73473c	0.059394106
114	0xbd8a0c8d	-0.06740675
115	0xbe85467f	-0.26030347
116	0x3e11ef42	0.14251426
117	0xbe56ec0b	-0.20988481
118	0xbe6c7d9f	-0.23094796
119	0x3e62fd85	0.22167023
120	0xbc9a098c	-0.01880338
121	0xbd330807	-0.043708827
122	0xbd2e0f27	-0.04249492
123	0x3beab617	0.00716282
124	0x3dc9c293	0.09851565
125	0xbd363405	-0.044483203
126	0x3cb92e66	0.022605132
127	0xbb619633	-0.00344218
128	0x3d6624db	0.056187492
129	0x3bbbc2b2	0.0057299966
130	0xbed0981d	-0.40741053
131	0xbdc48187	-0.09595018
132	0x3d63218d	0.05545192
133	0x3de082bf	0.10962438
134	0x3eb277cf	0.34857032
135	0xbd297934	-0.041375354
136	0x3e861dbe	0.26194566
137	0xbe166008	-0.1468507
138	0x3e26beaf	0.16283678
139	0xbeaf01e5	-0.34181133
140	0x3d5d85e1	0.054082755
141	0x3eafffcc	0.34374845
142	0x3e4ae729	0.19814743
143	0xbe15aa50	-0.1461575
144	0x3bcc0fd6	0.0062274737
145	0x3d90c05b	0.07067939
146	0xbcf1d8e3	-0.029522365
147	0xbe865698	-0.2623794
148	0x3cb1aaec	0.021687947
149	0xbe0718a3	-0.13192992
150	0xbe3668b6	-0.17813382
151	0x3e0961e7	0.13416253
152	0x3bdc9fd1	0.006732919
153	0x3e770a45	0.24125011
154	0xbd1ba796	-0.03800162
155	0xbcb3f09b	-0.021965316
156	0xbe0f1499	-0.13972701
157	0x3dd4af7b	0.10385033
158	0x3d7e6524	0.062108174
159	0xbe85a177	-0.2609975
160	0x3bf60d47	0.007508907
161	0xbe813133	-0.2523285
162	0xbd8fce15	-0.07021729
163	0x3f8eb70e	1.1149614
164	0x3d1a9f01	0.037749294
165	0xbe30086e	-0.17190716
166	0xbdddeca2	-0.1083615
167	0x3e47449b	0.19459765
168	0x3d02b91c	0.031914815
169	0xbe18eeab	-0.14934795
170	0xbdfe0424	-0.124031335
171	0x3f197f7e	0.5996016
172	0xbdc34dcd	-0.09536324
173	0xbdb4d558	-0.088297546
174	0x3ee049b2	0.43806225
175	0xbe674fd5	-0.22589047
176	0x3e4ef089	0.20208944
177	0x3e696ce7	0.22795449
178	0xbc164464	-0.009171579
179	0xbd824043	-0.06359913
180	0xbe8c611c	-0.2741784
181	0x3e0db79e	0.13839576
182	0x3e81de61	0.25364974
183	0x3d01ceeb	0.031691473
184	0xbd5a9ffd	-0.053375233
185	0xbc1a20fa	-0.009407276
186	0x3dc0352d	0.093851425
187	0xbc50e3c5	-0.012749617
188	0xba9630de	-0.0011458655
189	0x3e0f3311	0.13984324
190	0xbdc19fc8	-0.09454304
191	0x3e4a2ddc	0.19744056

gnn.gnn_layers.0.gat_conv.attn_r f4 [1, 6, 32]
0	0xbd2756ab	-0.040854137
1	0x3d66d994	0.056359842
2	0x3d9ea5bd	0.07746456
3	0x3d994b7f	0.07485103
4	0x3dc570ad	0.09640632
5	0x3d0a74d7	0.033802833
6	0x3c94e9de	0.018177923
7	0x3d0196d7	0.031637993
8	0x3cbefc47	0.023313655
9	0xbcd2459e	-0.025667962
10	0x3c445c51	0.011984901
11	0x3d8c09e5	0.06837825
12	0x3c2d4a35	0.010576774
13	0x3c55074f	0.013002231
14	0x3c135773	0.0089930175
15	0xbb704ac8	-0.0036665667
16	0xbd50a5e0	-0.05093944
17	0xbd3ad72f	-0.04561537
18	0x3d4d46e6	0.050116442
19	0x3ca3e9c6	0.020008933
20	0xbca011cb	-0.019539734
21	0x3dd2d8bd	0.10295246
22	0xbdef28b8	-0.11677688
23	0x3d8bca48	0.068256915
24	0x3c928deb	0.017889937
25	0x3d2562e1	0.0403775
26	0x3d15b753	0.036551785
27	0x3d0d677f	0.03452253
28	0x3cc1844c	0.023622654
29	0x3d715d02	0.05892659
30	0x3d182b3f	0.037150618
31	0x3c3a03af	0.011353417
32	0x3d5842c8	0.052798063
33	0xbd3b07ae	-0.04566162
34	0xbcb07d21	-0.021544041
35	0xbbb39eab	-0.005481561
36	0x3dc29188	0.09500414
37	0x3d89054e	0.06690465
38	0xbdab2ba6	-0.08357935
39	0x3deb028a	0.11475094
40	0xbcd6f8f6	-0.02624176
41	0x3c9b99fd	0.018994326
42	0xbccac6d0	-0.024753004
43	0x3d3683ba	0.044559218
44	0xbd1afbfe	-0.037837975
45	0xbb89ec4f	-0.0042090784
46	0x3d44b52f	0.048024353
47	0xbd8fc985	-0.07020859
48	0x3d4c2649	0.0498412
49	0x3c0c9b33	0.008581924
50	0xbd2e2ce0	-0.042523265
51	0xbe115662	-0.14193109
52	0xbd466cae	-0.04844349
53	0xbd059188	-0.032609493
54	0xbd6d3f9e	-0.057922
55	0xbbaf9134	-0.0053578857
56	0xbd287fae	-0.04113739
57	0xbdeb8042	-0.114990726
58	0x3c85345c	0.016260318
59	0xbc8cb706	-0.017177116
60	0xbd8b0f4d	-0.06790028
61	0x398e4c68	0.00027141278
62	0xbd0427e1	-0.032264594
63	0xbdabe988	-0.08394152
64	0xbd88bcf2	-0.066766635
65	0xbd050981	-0.032479767
66	0x3d3ba95e	0.045815818
67	0xbd2a46bb	-0.04157136
68	0x3d5e4ad8	0.054270595
69	0x3cabc915	0.020969907
70	0x3b4e48e6	0.0031476556
71	0x3d7e3a8f	0.062067565
72	0xbd1a3ce2	-0.03765572
73	0x3d08a070	0.03335613
74	0xbd271ee2	-0.040800937
75	0xb2955624	-1.7385055e-08
76	0xbc4e4de7	-0.012591816
77	0x3d3ddf33	0.046355437
78	0xbcb0ed87	-0.021597637
79	0xbdb8ab8c	-0.09017095
80	0xbd22e4a7	-0.03976884
81	0x3ced3cf8	0.028959736
82	0xbcc02fbe	-0.023460265
83	0x3c8f6856	0.017505806
84	0xbd6d5f5c	-0.05795227
85	0x3d56d908	0.05245307
86	0xbd32a147	-0.043610837
87	0x3aea2ddd	0.0017866452
88	0x3c992d5b	0.018698385
89	0xbb9ebbd7	-0.0048441696
90	0x3ce1b664	0.027552791
91	0xbce88032	-0.02838144
92	0x3a00fcb1	0.00049204665
93	0xbd22aa37	-0.03971311
94	0xbceb6074	-0.028732516
95	0x3cfa2edd	0.030539924
96	0xbcb8c3b7	-0.022554262
97	0x3cc2c0ca	0.02377357
98	0x3d8dcd7d	0.069239594
99	0x3c1438e5	0.009046768
100	0x3db9f55b	0.09080001
101	0x3d20704d	0.0391696
102	0x3da6c672	0.08143319
103	0x3c9a3940	0.018826127
104	0xbe32b138	-0.17450416
105	0xbd4f612f	-0.05062979
106	0xbb292563	-0.0025809638
107	0x3de33fcb	0.11096152
108	0x3a2b6c89	0.00065393053
109	0xbd0b3fba	-0.03399632
110	0x3d6ee3d2	0.058322735
111	0xbd125830	-0.035728633
112	0x3b995962	0.0046798447
113	0x3d3e38d9	0.046440933
114	0x3daa6a3b	0.08321043
115	0xbd119ad3	-0.035548043
116	0x3d5c4563	0.05377711
117	0x3dc04cb0	0.09389627
118	0x3c106b17	0.008814595
119	0x3da5db3a	0.08098455
120	0x3c9c76c1	0.019099595
121	0x3d74f4a9	0.05980364
122	0x3d053c54	0.032528237
123	0xbbdfa41e	-0.006824984
124	0xbc8ed50a	-0.01743557
125	0x3da609f5	0.08107368
126	0x3cb22459	0.021745848
127	0x3e0f742d	0.14009161
128	0xbd5f041d	-0.054447282
129	0x3dcdfbb2	0.10057773
130	0x3c5de2a7	0.013542808
131	0x3d01d74c	0.031699464
132	0x3dd21350	0.1025759
133	0x3c357cd4	0.011077125
134	0x3d8f188a	0.06987102
135	0xbd0f83d9	-0.03503785
136	0x3cc78a06	0.024357807
137	0x3ce0e735	0.027453998
138	0xbd62bf10	-0.055357993
139	0xbccb04b8	-0.024782524
140	0x3d72a39d	0.059238065
141	0xbc1282f5	-0.008942355
142	0xbd624a97	-0.055246916
143	0x3db635e3	0.08896997
144	0x3d39a080	0.04531908
145	0xbdc71837	-0.097214155
146	0x3c844877	0.016147835
147	0xbc6327e2	-0.013864489
148	0x3cd23551	0.025660189
149	0x3d2de582	0.042455204
150	0xbdc1c28f	-0.09460937
151	0x3d68073a	0.056647517
152	0xbc115536	-0.0088704135
153	0x3e11dfa3	0.14245467
154	0x3d3e16d9	0.046408508
155	0x3d3eb986	0.046563648
156	0x3e05eae5	0.13077886
157	0x3ce9eea4	0.028556176
158	0x3d5b6ddd	0.05357157
159	0xbdda2eac	-0.10653433
160	0x3d17833e	0.036990397
161	0xbdd4ca0b	-0.10390099
162	0xbdc1e999	-0.09468383
163	0xbd0614a1	-0.032734517
164	0xbcf4e8da	-0.029896189
165	0x3d8d1e04	0.06890491
166	0xbdc7730b	-0.097387396
167	0x3db1a77a	0.08674522
168	0x3cf2f887	0.029659523
169	0xbc476adb	-0.012171472
170	0xbc91cd7d	-0.01779818
171	0xbd9b42bc	-0.07581088
172	0xbdbf51fa	-0.09341808
173	0x3d5cc141	0.05389524
174	0xbe1c11a4	-0.15241104
175	0xbdb72cc9	-0.08944089
176	0xbd54dee8	-0.051970392
177	0xbd8d929f	-0.069127314
178	0xbda4f5f5	-0.08054725
179	0xbd0aaa53	-0.03385384
180	0xbd38471f	-0.0449897
181	0xbcc40118	-0.023926303
182	0xbda02659	-0.07819814
183	0xbcd393f8	-0.025827393
184	0xbcd1e699	-0.025622653
185	0xbd14a3b8	-0.036288947
186	0xbd967908	-0.07347304
187	0xbd9ff2ba	-0.07809968
188	0xbd509c30	-0.050930202
189	0xbd8f9818	-0.070114315
190	0xbd4babe2	-0.049724467
191	0xbdc34324	-0.095342904

gnn.gnn_layers.0.gat_conv.bias f4 [192]
0	0x3db9c793	0.09071269
1	0xbe04ef23	-0.12981848
2	0xbe430155	-0.19043477
3	0xbe50524e	-0.20343897
4	0xbd8aa0d3	-0.06768956
5	0x3d50d1e0	0.050981402
6	0xbe588f03	-0.21148305
7	0x3e12c9c7	0.14334784
8	0xbe5dae93	-0.21648626
9	0x3baccd50	0.0052734986
10	0x3d5109c4	0.051034704
11	0xbcaac444	-0.02084554
12	0xbe65c0b8	-0.22436798
13	0x3da5e3c8	0.081000865
14	0xbe0753a0	-0.13215494
15	0xbe82b2ff	-0.25527188
16	0xbcade037	-0.021225078
17	0x3a67025e	0.00088123034
18	0xbe1601f3	-0.14649181
19	0x3d20da93	0.03927095
20	0xbe124a24	-0.14286095
21	0xbe12a64d	-0.14321251
22	0x3e262d3a	0.1622819
23	0xbc144cb9	-0.009051495
24	0xbd4eac69	-0.050457392
25	0xbebdfc51	-0.37106565
26	0xbe4bfd8e	-0.19920942
27	0xbd9189cd	-0.071063615
28	0xbe5a13cb	-0.21296613
29	0xbdb604ec	-0.088876575
30	0xbe442252	-0.19153717
31	0xbdf22728	-0.11823875
32	0x3db9c793	0.09071269
33	0xbe04ef23	-0.12981848
34	0xbe430155	-0.19043477
35	0xbe50524e	-0.20343897
36	0xbd8aa0d3	-0.06768956
37	0x3d50d1e0	0.050981402
38	0xbe588f03	-0.21148305
39	0x3e12c9c7	0.14334784
40	0xbe5dae93	-0.21648626
41	0x3baccd50	0.0052734986
42	0x3d5109c4	0.051034704
43	0xbcaac444	-0.02084554
44	0xbe65c0b8	-0.22436798
45	0x3da5e3c8	0.081000865
46	0xbe0753a0	-0.13215494
47	0xbe82b2ff	-0.25527188
48	0xbcade037	-0.021225078
49	0x3a67025e	0.00088123034
50	0xbe1601f3	-0.14649181
51	0x3d20da93	0.03927095
52	0xbe124a24	-0.14286095
53	0xbe12a64d	-0.14321251
54	0x3e262d3a	0.1622819
55	0xbc144cb9	-0.009051495
56	0xbd4eac69	-0.050457392
57	0xbebdfc51	-0.37106565
58	0xbe4bfd8e	-0.19920942
59	0xbd9189cd	-0.071063615
60	0xbe5a13cb	-0.21296613
61	0xbdb604ec	-0.088876575
62	0xbe442252	-0.19153717
63	0xbdf22728	-0.11823875
64	0x3db9c793	0.09071269
65	0xbe04ef23	-0.12981848
66	0xbe430155	-0.19043477
67	0xbe50524e	-0.20343897
68	0xbd8aa0d3	-0.06768956
69	0x3d50d1e0	0.050981402
70	0xbe588f03	-0.21148305
71	0x3e12c9c7	0.14334784
72	0xbe5dae93	-0.21648626
73	0x3baccd50	0.0052734986
74	0x3d5109c4	0.051034704
75	0xbcaac444	-0.02084554
76	0xbe65c0b8	-0.22436798
77	0x3da5e3c8	0.081000865
78	0xbe0753a0	-0.13215494
79	0xbe82b2ff	-0.25527188
80	0xbcade037	-0.021225078
81	0x3a67025e	0.00088123034
82	0xbe1601f3	-0.14649181
83	0x3d20da93	0.03927095
84	0xbe124a24	-0.14286095
85	0xbe12a64d	-0.14321251
86	0x3e262d3a	0.1622819
87	0xbc144cb9	-0.009051495
88	0xbd4eac69	-0.050457392
89	0xbebdfc51	-0.37106565
90	0xbe4bfd8e	-0.19920942
91	0xbd9189cd	-0.071063615
92	0xbe5a13cb	-0.21296613
93	0xbdb604ec	-0.088876575
94	0xbe442252	-0.19153717
95	0xbdf22728	-0.11823875
96	0x3db9c793	0.09071269
97	0xbe04ef23	-0.12981848
98	0xbe430155	-0.19043477
99	0xbe50524e	-0.20343897
100	0xbd8aa0d3	-0.06768956
101	0x3d50d1e0	0.050981402
102	0xbe588f03	-0.21148305
103	0x3e12c9c7	0.14334784
104	0xbe5dae93	-0.21648626
105	0x3baccd50	0.0052734986
106	0x3d5109c4	0.051034704
107	0xbcaac444	-0.02084554
108	0xbe65c0b8	-0.22436798
109	0x3da5e3c8	0.081000865
110	0xbe0753a0	-0.13215494
111	0xbe82b2ff	-0.25527188
112	0xbcade037	-0.021225078
113	0x3a67025e	0.00088123034
114	0xbe1601f3	-0.14649181
115	0x3d20da93	0.03927095
116	0xbe124a24	-0.14286095
117	0xbe12a64d	-0.14321251
118	0x3e262d3a	0.1622819
119	0xbc144cb9	-0.009051495
120	0xbd4eac69	-0.050457392
121	0xbebdfc51	-0.37106565
122	0xbe4bfd8e	-0.19920942
123	0xbd9189cd	-0.071063615
124	0xbe5a13cb	-0.21296613
125	0xbdb604ec	-0.088876575
126	0xbe442252	-0.19153717
127	0xbdf22728	-0.11823875
128	0x3db9c793	0.09071269
129	0xbe04ef23	-0.12981848
130	0xbe430155	-0.19043477
131	0xbe50524e	-0.20343897
132	0xbd8aa0d3	-0.06768956
133	0x3d50d1e0	0.050981402
134	0xbe588f03	-0.21148305
135	0x3e12c9c7	0.14334784
136	0xbe5dae93	-0.21648626
137	0x3baccd50	0.0052734986
138	0x3d5109c4	0.051034704
139	0xbcaac444	-0.02084554
140	0xbe65c0b8	-0.22436798
141	0x3da5e3c8	0.081000865
142	0xbe0753a0	-0.13215494
143	0xbe82b2ff	-0.25527188
144	0xbcade037	-0.021225078
145	0x3a67025e	0.00088123034
146	0xbe1601f3	-0.14649181
147	0x3d20da93	0.03927095
148	0xbe124a24	-0.14286095
149	0xbe12a64d	-0.14321251
150	0x3e262d3a	0.1622819
151	0xbc144cb9	-0.009051495
152	0xbd4eac69	-0.050457392
153	0xbebdfc51	-0.37106565
154	0xbe4bfd8e	-0.19920942
155	0xbd9189cd	-0.071063615
156	0xbe5a13cb	-0.21296613
157	0xbdb604ec	-0.088876575
158	0xbe442252	-0.19153717
159	0xbdf22728	-0.11823875
160	0x3db9c793	0.09071269
161	0xbe04ef23	-0.12981848
162	0xbe430155	-0.19043477
163	0xbe50524e	-0.20343897
164	0xbd8aa0d3	-0.06768956
165	0x3d50d1e0	0.050981402
166	0xbe588f03	-0.21148305
167	0x3e12c9c7	0.14334784
168	0xbe5dae93	-0.21648626
169	0x3baccd50	0.0052734986
170	0x3d5109c4	0.051034704
171	0xbcaac444	-0.02084554
172	0xbe65c0b8	-0.22436798
173	0x3da5e3c8	0.081000865
174	0xbe0753a0	-0.13215494
175	0xbe82b2ff	-0.25527188
176	0xbcade037	-0.021225078
177	0x3a67025e	0.00088123034
178	0xbe1601f3	-0.14649181
179	0x3d20da93	0.03927095
180	0xbe124a24	-0.14286095
181	0xbe12a64d	-0.14321251
182	0x3e262d3a	0.1622819
183	0xbc144cb9	-0.009051495
184	0xbd4eac69	-0.050457392
185	0xbebdfc51	-0.37106565
186	0xbe4bfd8e	-0.19920942
187	0xbd9189cd	-0.071063615
188	0xbe5a13cb	-0.21296613
189	0xbdb604ec	-0.088876575
190	0xbe442252	-0.19153717
191	0xbdf22728	-0.11823875

gnn.gnn_layers.0.gat_conv.fc.weight f4 [192, 74]
0	0x3d3218be	0.043480627
1	0x3e2d849f	0.16945122
2	0x3ddca5e9	0.10773832
3	0xbd64fba6	-0.055904053
4	0xba646a87	-0.00087133836
5	0xaf50287a	-1.893187e-10
6	0x3bbabc63	0.005698727
7	0xbc7444da	-0.014908994
8	0x3a189657	0.0005820742
9	0x301d2fa2	5.718396e-10
10	0xad9b1838	-1.7632215e-11
11	0xae85831a	-6.071428e-11
12	0xaffc5bf2	-4.5903864e-10
13	0xb01b25a4	-5.644216e-10
14	0xafb2d6e3	-3.2530698e-10
15	0xbc022107	-0.007942445
16	0x30032d12	4.772157e-10
17	0xb033beab	-6.5390776e-10
18	0xaeeadb64	-1.06800596e-10
19	0x2fcb7bdf	3.70135e-10
20	0x2e24b086	3.7446067e-11
21	0xaf956095	-2.7171568e-10
22	0xafcb9559	-3.7031603e-10
23	0xb01a961b	-5.6238186e-10
24	0x2f414f81	1.7581493e-10
25	0xb0719cf6	-8.7898344e-10
26	0x2c1eb1da	2.2551878e-12
27	0xaf0371eb	-1.1954852e-10
28	0x2e9645d4	6.833614e-11
29	0x2f883220	2.4773872e-10
30	0x2ed36cd6	9.614502e-11
31	0xae87e7f1	-6.18029e-11
32	0x2fb269f8	3.2453307e-10
33	0x2bc61177	1.4073594e-12
34	0x2fbeae31	3.468457e-10
35	0xafe2b8e2	-4.1240528e-10
36	0xafe0e740	-4.0909676e-10
37	0x2f5b1ce3	1.9928197e-10
38	0x2f89c447	2.5059618e-10
39	0xaff216d7	-4.4035772e-10
40	0x300af351	5.054988e-10
41	0xafe3da63	-4.1446233e-10
42	0xb02d4104	-6.3029426e-10
43	0x2ed6b5ee	9.7639105e-11
44	0xbdef9e34	-0.11700097
45	0x3d42a461	0.047520045
46	0x3e3379ea	0.17526975
47	0xbd823304	-0.06357387
48	0x2f7b6c07	2.2866696e-10
49	0x2fa285fb	2.9562827e-10
50	0x2f5f526c	2.0311014e-10
51	0x2ff97a24	4.5379622e-10
52	0xb0372e78	-6.664105e-10
53	0x30690813	8.477638e-10
54	0x3d5ed499	0.054401968
55	0x3b2ed0fc	0.0026674857
56	0xbd7bf2d0	-0.06151086
57	0xbe9f00eb	-0.31055388
58	0x2fce23fa	3.7496745e-10
59	0xafa10bfe	-2.929425e-10
60	0x2ef9a664	1.1352766e-10
61	0x3d84ac3d	0.06478164
62	0x38015d83	3.0843086e-05
63	0xbd905f24	-0.07049397
64	0x3e11b815	0.14230378
65	0xbe6c4b97	-0.2307571
66	0xaf3dcbad	-1.726181e-10
67	0x2f087623	1.2411099e-10
68	0x3dec5d9c	0.11541292
69	0x3de041cb	0.10950049
70	0x3dea3b14	0.114370495
71	0x3beba908	0.007191781
72	0xbde99477	-0.114052705
73	0x2fc41665	3.5668105e-10
74	0xbddca639	-0.10773892
75	0x3d907f8c	0.07055578
76	0x3d56960f	0.0523892
77	0xbb899172	-0.0041982466
78	0xbbe73ad4	-0.0070565734
79	0xb0746e76	-8.892366e-10
80	0xbc8c094a	-0.017094273
81	0xbdaf6248	-0.085636675
82	0xbc0b48e5	-0.008501266
83	0x2fcd3066	3.7323672e-10
84	0x2eca1dd8	9.191198e-11
85	0xb00835b2	-4.955282e-10
86	0xafe25c1a	-4.1174603e-10
87	0x2f9abfa2	2.81486e-10
88	0xae91c8f2	-6.6295316e-11
89	0x3c86cb98	0.016454503
90	0x300a3399	5.027743e-10
91	0xb036685a	-6.6359507e-10
92	0x2f8d1031	2.5659255e-10
93	0xafb46fa9	-3.2821149e-10
94	0xafe5094c	-4.1661463e-10
95	0xb001262c	-4.698417e-10
96	0xafe2779f	-4.1194156e-10
97	0x2f4bc5f2	1.8533067e-10
98	0xb011be4f	-5.302114e-10
99	0x2e5d66fb	5.0341047e-11
100	0x306fc031	8.7220814e-10
101	0x30096b47	4.999276e-10
102	0x2ed9a2da	9.896946e-11
103	0x2fe8218a	4.2224385e-10
104	0xaf9bd7ea	-2.8347752e-10
105	0x2fa46d9e	2.9909314e-10
106	0x2ffe78d4	4.6288184e-10
107	0x2e0b9460	3.1736724e-11
108	0x302d83a5	6.312411e-10
109	0xb017c9e5	-5.522039e-10
110	0xafe28e73	-4.1210377e-10
111	0xaf97e127	-2.762672e-10
112	0xafe50168	-4.1655857e-10
113	0xb01482b9	-5.4027854e-10
114	0xb008ab71	-4.9720145e-10
115	0xafdd2f57	-4.0233303e-10
116	0xaee84bdf	-1.0563616e-10
117	0x2ff79f3c	4.504218e-10
118	0xbd87551f	-0.066080324
119	0x3d14c7a4	0.036323205
120	0xbbcb089a	-0.0061960937
121	0xbcdb7c01	-0.026792528
122	0x2fad385b	3.150856e-10
123	0xaf0bca44	-1.2713836e-10
124	0x2f87bda5	2.4691107e-10
125	0xaff5bc3e	-4.4698995e-10
126	0xadf456e8	-2.7778183e-11
127	0xaff45621	-4.444454e-10
128	0xbcb0138c	-0.021493696
129	0x3dc58dd5	0.09646193
130	0xbcc20d97	-0.02368812
131	0x3dfaa041	0.12237597
132	0x2ff76936	4.5003795e-10
133	0x2f68b323	2.1163919e-10
134	0xaffc2659	-4.586578e-10
135	0x3c823eb4	0.01589904
136	0x3b27254b	0.0025504406
137	0xbb6358d7	-0.0034690404
138	0xbd477863	-0.048698794
139	0xbd7e72da	-0.06212125
140	0xb00051a6	-4.668216e-10
141	0xaf4581d4	-1.796317e-10
142	0x3d682206	0.056673072
143	0xbd8c142b	-0.06839784
144	0x3ba3b862	0.0049963454
145	0xbd30786c	-0.043083593
146	0x3d9eb31e	0.07749008
147	0xaca8b8f4	-4.795381e-12
148	0xbe134f12	-0.14385632
149	0xbdb9efd8	-0.0907895
150	0xbd0d926b	-0.034563463
151	0xbde9c4d1	-0.11414493
152	0xbe56f5f5	-0.20992263
153	0xaeae3f4d	-7.9238484e-11
154	0x3d2bed5c	0.04197441
155	0x3da93691	0.08262361
156	0x3b058dd4	0.0020378726
157	0xaf113773	-1.3207373e-10
158	0x2ec358cf	8.883349e-11
159	0x2ed9f81e	9.912092e-11
160	0x302b2c01	6.227197e-10
161	0x302c81b4	6.2757555e-10
162	0xb021a25c	-5.8802185e-10
163	0xbc0d199d	-0.008612064
164	0x2fe06d49	4.0823014e-10
165	0xb00efbf5	-5.201735e-10
166	0xaeece6ae	-1.07730144e-10
167	0xb03696e7	-6.642566e-10
168	0xad766a8f	-1.4007142e-11
169	0xafee3fa3	-4.3337164e-10
170	0xafdcc09c	-4.0154624e-10
171	0xaf22e444	-1.481491e-10
172	0xb00e0633	-5.166811e-10
173	0xafc959cb	-3.662549e-10
174	0x305e004d	8.0763557e-10
175	0x2f0c454e	1.2757548e-10
176	0x2fd6aff9	3.905141e-10
177	0xaf7b5c67	-2.2861145e-10
178	0x3003e83e	4.798756e-10
179	0xb07cc583	-9.1957747e-10
180	0xafd9fc85	-3.9651496e-10
181	0x2fd1177c	3.8033565e-10
182	0xb0472da0	-7.2460615e-10
183	0xb015e91e	-5.4537164e-10
184	0x30097f7f	5.002149e-10
185	0xaf106ecc	-1.3136087e-10
186	0xaef40ea5	-1.1098437e-10
187	0xb021f04c	-5.891294e-10
188	0x30033371	4.7730625e-10
189	0xaff5fade	-4.4743492e-10
190	0xb04f8ebf	-7.5509016e-10
191	0xb02d8102	-6.3120364e-10
192	0xbdfd6286	-0.123723075
193	0xbe9afba5	-0.30270115
194	0x3e057550	0.13033032
195	0xbe237881	-0.15963937
196	0xadd0b868	-2.3728755e-11
197	0x2f250163	1.5007155e-10
198	0x2e460526	4.502456e-11
199	0x2fb69cc3	3.3216993e-10
200	0x2fd21a1d	3.8217332e-10
201	0x301c6da2	5.6908267e-10
202	0xbe6659ba	-0.22495165
203	0xbe5287e6	-0.20559654
204	0x3d380911	0.04493052
205	0xbb2548a4	-0.00252203
206	0xae8deb94	-6.453785e-11
207	0x2fa3918f	2.9752953e-10
208	0xaff366d3	-4.4274504e-10
209	0xbdb0a22c	-0.08624682
210	0xbaa6a7d4	-0.0012714812
211	0xbdb0d8fc	-0.086351365
212	0x3e5fedda	0.21868077
213	0xbe8715e0	-0.26383877
214	0x2fcd94d0	3.739502e-10
215	0xae922bca	-6.64709e-11
216	0x3c58c6eb	0.0132310195
217	0xbe306c74	-0.17228872
218	0xbdc87542	-0.0978799
219	0xbc929070	-0.017891139
220	0xbe02376f	-0.12716459
221	0xafcbdfa0	-3.708438e-10
222	0x3eb275ec	0.34855592
223	0x3e88c2b7	0.26711056
224	0xbf1d0234	-0.61331487
225	0xbea5063b	-0.32231316
226	0x3e8c4a9a	0.27400666
227	0x2fc07475	3.5007344e-10
228	0xbd63a1db	-0.05557428
229	0xbcb6317c	-0.022240393
230	0x3df83bb0	0.121207595
231	0xaecf8268	-9.436435e-11
232	0x30120185	5.311665e-10
233	0xaf9fc1e6	-2.9059705e-10
234	0x2feba1d6	4.2861242e-10
235	0x2e90dc89	6.587537e-11
236	0x2f7b3e9d	2.2850562e-10
237	0xbd542bdf	-0.05179965
238	0xafe36d75	-4.1368833e-10
239	0x306bcf98	8.578751e-10
240	0xb01ecaa8	-5.7768057e-10
241	0x2ef95f7f	1.13401726e-10
242	0x3019c703	5.594389e-10
243	0xb024036a	-5.9667704e-10
244	0x2ea6a141	7.5774505e-11
245	0x2d97f06c	1.7273481e-11
246	0xafdbf4d2	-4.0009823e-10
247	0x2fdf8fca	4.0665632e-10
248	0x300d5aad	5.142436e-10
249	0x2fc24131	3.5334716e-10
250	0x2f8693f0	2.4479574e-10
251	0x2f6962cf	2.122633e-10
252	0xaf1c9edd	-1.4244557e-10
253	0xafeff801	-4.3650064e-10
254	0xafa5c198	-3.0150882e-10
255	0xafe8a966	-4.232092e-10

readout.weight_and_sum.atom_weighting.0.weight f4 [1, 32]
0	0xbdefd9e9	-0.11711485
1	0x3e116f12	0.14202526
2	0x3e8fd4b6	0.28091973
3	0x3fdc8237	1.7227238
4	0x3e51d21f	0.20490311
5	0x3e85141f	0.25991914
6	0x3e135d5e	0.14391086
7	0xbcb220df	-0.02174419
8	0x3dc798f5	0.09745971
9	0xbd7185a8	-0.058965355
10	0x3a9824c3	0.0011607636
11	0x3e8b1a64	0.27168572
12	0x3ce17247	0.027520312
13	0xbe04a2cd	-0.12952729
14	0x3ea739f5	0.32661405
15	0x3d182a5e	0.03714978
16	0x3e526b00	0.2054863
17	0xbde71b09	-0.112844534
18	0x3e0a4f1a	0.13506737
19	0xbe3b1e45	-0.18273266
20	0x3e635f44	0.2220431
21	0x3d843ec4	0.06457284
22	0x3e479d3f	0.19493578
23	0x3e7eacdf	0.24870633
24	0xbc9bf614	-0.019038238
25	0x3d01fd0b	0.03173546
26	0x3dae059b	0.08497163
27	0x3cedf18a	0.029045839
28	0xbdbbf7bb	-0.0917811
29	0x3e0fbc8c	0.14036769
30	0x3c9789b5	0.018498281
31	0x3d993729	0.07481224

predict.predict.1.weight f4 [64, 64]
0	0x34cef91f	3.855175e-07
1	0xb65d6d16	-3.2995063e-06
2	0x35b5dada	1.3549245e-06
3	0x334b387a	4.7315986e-08
4	0xb5f529db	-1.8266104e-06
5	0x343a092b	1.7325935e-07
6	0x355a9fe8	8.144402e-07
7	0x3556291b	7.978103e-07
8	0x352716b7	6.22454e-07
9	0x363a32c9	2.774572e-06
10	0x348add09	2.5865327e-07
11	0xb5491a60	-7.4916716e-07
12	0xb612625e	-2.1812953e-06
13	0x354292f5	7.248448e-07
14	0xb5599ee8	-8.107004e-07
15	0x349fbc08	2.975287e-07
16	0x351824cf	5.6677976e-07
17	0xb349293f	-4.6836472e-08
18	0x35bbe42e	1.3998995e-06
19	0xb69fc10d	-4.7610433e-06
20	0x345e8c51	2.0726408e-07
21	0xb59381b0	-1.0990098e-06
22	0x3541ca06	7.2192086e-07
23	0xb68e84a9	-4.2473735e-06
24	0xb443717b	-1.8202074e-07
25	0x345bbd66	2.0464867e-07
26	0x35bce300	1.4073157e-06
27	0xb5c834b9	-1.4916506e-06
28	0x34c0f52b	3.594117e-07
29	0xb587bfd7	-1.0114117e-06
30	0x32f08425	2.799977e-08
31	0xb66038a5	-3.3411573e-06
32	0xb51fec33	-5.957583e-07
33	0x35a83eb2	1.2535222e-06
34	0xb54746af	-7.4236135e-07
35	0x3604649f	1.9728102e-06
36	0x35c0fbbd	1.437838e-06
37	0xb6814488	-3.8524777e-06
38	0x367dff65	3.7848597e-06
39	0x363c6b30	2.8076574e-06
40	0x346d1e52	2.2083375e-07
41	0xb540f6e6	-7.188486e-07
42	0x35f4e92a	1.8247276e-06
43	0xb602beb7	-1.948252e-06
44	0xb5ec29b6	-1.759551e-06
45	0x35f901ac	1.8552432e-06
46	0xb594c155	-1.1083126e-06
47	0x353ce8c8	7.03742e-07
48	0x35d7f622	1.6090382e-06
49	0x35508714	7.76826e-07
50	0xb69e375a	-4.7152107e-06
51	0xb61c694b	-2.33071e-06
52	0xb67a38e9	-3.728603e-06
53	0x36352b68	2.6996368e-06
54	0x3722ec86	9.711022e-06
55	0x36e1b3a0	6.7264336e-06
56	0x369e428b	4.7165136e-06
57	0xb623a7c7	-2.4386552e-06
58	0xb5ac3f1b	-1.2833365e-06
59	0xb5ba9c92	-1.3903648e-06
60	0xb63c7a2f	-2.8085303e-06
61	0x363a0940	2.7721544e-06
62	0xb5e64082	-1.715511e-06
63	0xb4f37927	-4.5350427e-07
64	0xbbc531de	-0.0060179075
65	0xbc65f0b3	-0.014034438
66	0x3a50366d	0.00079426804
67	0x3c09dc01	0.008414269
68	0x3a8f674f	0.0010940823
69	0xbad55522	-0.0016275982
70	0xbb922fef	-0.0044612805
71	0xbb1bb093	-0.002375637
72	0xb9ddd102	-0.00042308128
73	0xb7e23383	-2.6965286e-05
74	0x39276910	0.000159655
75	0xba284390	-0.0006418759
76	0x3ad3b1ea	0.0016151045
77	0x3add942b	0.0016905119
78	0x3b772936	0.0037713773
79	0x3a87f761	0.0010373407
80	0xbb33ec14	-0.0027453946
81	0xb9a95a37	-0.00032301407
82	0xba57ef17	-0.0008237226
83	0xba24b4b6	-0.00062830315
84	0xbaa81306	-0.0012823052
85	0x3ada751f	0.0016666985
86	0xbb3783f5	-0.0028002237
87	0xbbb7009c	-0.0055847894
88	0x3a9ea154	0.0012102523
89	0xbb5aa392	-0.0033361656
90	0xba7b1cec	-0.00095792
91	0x39d4f091	0.00040615027
92	0x3b64c140	0.0034905225
93	0xbbd741f1	-0.00656914
94	0x3a8912c4	0.0010457863
95	0x3b2b67ff	0.0026154516
96	0xbcb0aa43	-0.021565562
97	0xbad38501	-0.0016137661
98	0x3bdc277c	0.006718574
99	0x3c0a87c3	0.00845522
100	0x3bd1a6a3	0.0063980385
101	0x3b0363b8	0.002004845
102	0x3c1c7ada	0.0095507745
103	0x3c2000e9	0.009765842
104	0x3ba2637a	0.004955706
105	0xbaac1422	-0.0013128559
106	0x3b8e476c	0.0043420102
107	0xbca3e6fd	-0.020007605
108	0x3b160d58	0.0022896137
109	0xbaf2449c	-0.0018483582
110	0x3bece453	0.007229367
111	0xba9b1af9	-0.00118336
112	0xbb2eab52	-0.0026652408
113	0xbb9539bc	-0.0045540016
114	0xbb9eed04	-0.004850032
115	0xbc3dfbd3	-0.011595684
116	0xbabb39a7	-0.001428415
117	0xbc171ed4	-0.009223659
118	0xbb8bc2f3	-0.004265183
119	0xbc097355	-0.008389314
120	0x3bd3c628	0.006462831
121	0xbbc49845	-0.0059995973
122	0xbbb7c6b7	-0.0056084055
123	0xbb9a1ae9	-0.004702915
124	0x3c1d80c3	0.009613219
125	0xbb0273e6	-0.0019905507
126	0xbb33e7f2	-0.0027451483
127	0x3a37babf	0.00070087233
128	0xbd3ea455	-0.046543438
129	0x3d6b920b	0.057512324
130	0x3dbe0591	0.092784055
131	0x3ceb2aeb	0.028706988
132	0x3c40cb32	0.011767196
133	0xbdf176e5	-0.117902555
134	0x3d9d3ec6	0.07677989
135	0xbcffb00b	-0.031211874
136	0x3d9eea12	0.07759489
137	0x3d43796f	0.04772323
138	0xbb0578cc	-0.002036619
139	0x3d17b8b6	0.03704139
140	0x3ca39050	0.019966274
141	0x3b8a0214	0.0042116735
142	0x3cd99f88	0.026565328
143	0x3d9a759d	0.07541964
144	0xbc444a3a	-0.011980588
145	0xbd2baf3d	-0.041915167
146	0x3d23dcb9	0.04000542
147	0xbd436837	-0.04770681
148	0x3d3ba588	0.04581216
149	0xbd008b7b	-0.03138302
150	0xbcf39845	-0.029735694
151	0xbbd45ff0	-0.006481163
152	0xbcb7d23c	-0.022439115
153	0x3d33b8e8	0.043877512
154	0x3d203055	0.039108593
155	0x3d1a4952	0.03766758
156	0x37d9af05	2.5949916e-05
157	0x3d04d087	0.03242543
158	0x3cd8ba4f	0.026456026
159	0xbd2a3a59	-0.04155955
160	0xbda6ab05	-0.08138088
161	0x3d96ae48	0.0735746
162	0xbdd68209	-0.10474021
163	0x3cfdd9d5	0.03098766
164	0xbdb262ae	-0.08710228
165	0xbde5dcbc	-0.11223742
166	0x3dada2a3	0.08478286
167	0xbe4a0086	-0.19726762
168	0x3d2c245c	0.042026863
169	0xbc6c6656	-0.014428696
170	0xbba17be3	-0.0049280985
171	0xbc12a289	-0.008949884
172	0x3c063692	0.0081917215
173	0xbe0e7a7a	-0.13913909
174	0x3e154b02	0.14579394
175	0x3e63b6a1	0.22237636
176	0xbd0eae63	-0.034834277
177	0xbc7ddfd6	-0.015495261
178	0x3baf71ed	0.005354157
179	0x3c3867ed	0.011255247
180	0x3c9040a1	0.017608942
181	0xbe50faa9	-0.2040812
182	0xbd567e3a	-0.052366473
183	0x3cf08857	0.029361887
184	0x3cb312c3	0.021859532
185	0x3d09a453	0.033603977
186	0xbda1a563	-0.07892873
187	0x3c8de102	0.017319206
188	0x3bbc5356	0.005747239
189	0x3dac012c	0.08398661
190	0x3c839c39	0.016065704
191	0xbdbc1b4b	-0.09184893
192	0xba5160b3	-0.00079871266
193	0x3b241498	0.002503669
194	0xbb2353fd	-0.0024921887
195	0xbb5f7375	-0.0034095917
196	0x3a77c997	0.00094523415
197	0xbb0d6bc0	-0.0021579117
198	0xbc0c4d5e	-0.008563368
199	0x3b927ea7	0.0044706645
200	0x3a75fc4a	0.00093836023
201	0xbb2cf0d4	-0.0026388662
202	0xba1e1384	-0.000603013
203	0xbbb068f7	-0.0053836065
204	0xbb525a51	-0.003209729
205	0x3bcd8910	0.0062724426
206	0x3a13b1b1	0.0005634083
207	0xbc7fa56a	-0.015603403
208	0x3af7bb2c	0.0018900386
209	0x3b80bece	0.0039289957
210	0xbb010ab6	-0.0019690222
211	0xbb90ab4e	-0.0044149524
212	0x3aaa6fac	0.0013003252
213	0xbb1682a2	-0.0022966047
214	0xbad85e28	-0.0016507553
215	0x3bd82025	0.006595629
216	0xbb3d5a62	-0.0028892984
217	0xbbbf85c8	-0.0058448054
218	0x3abf8de7	0.0014614434
219	0xba9f9596	-0.0012175317
220	0xbbe383c7	-0.0069431993
221	0x394d5766	0.00019582882
222	0x3b1bce83	0.0023774214
223	0xbb0d7414	-0.002158408
224	0x3b08bdd3	0.0020865097
225	0x3a0357e1	0.00050103484
226	0x39957087	0.00028503334
227	0xbb57d649	-0.003293412
228	0x3bfb2016	0.007663737
229	0xb95c87cf	-0.00021031428
230	0xba02323d	-0.00049665925
231	0xb9ff7416	-0.0004872388
232	0xbaa16ac4	-0.0012315144
233	0xba228fff	-0.00062012667
234	0xbbecfd54	-0.0072323475
235	0xbbc4ff27	-0.006011862
236	0x3b60a224	0.003427633
237	0xbb7197b8	-0.0036864113
238	0x3a5bd4e0	0.0008385908
239	0xbc610011	-0.013732926
240	0x3aedcfc7	0.0018143588
241	0xbb5ea0b3	-0.0033970296
242	0xba97126a	-0.0011525874
243	0xbcafff8f	-0.021484165
244	0xba8cf625	-0.0010754509
245	0xba80cb75	-0.000982626
246	0x3b80d17c	0.0039312225
247	0x3b3ac297	0.0028497332
248	0xbbce1e8b	-0.006290262
249	0x3b99eba0	0.004697278
250	0x3b865b9e	0.004100277
251	0xba0dc799	-0.00054084655
252	0xbb7710a7	-0.0037699135
253	0x3a97214a	0.0011530307
254	0x3b55b68d	0.003261003
255	0x3b6a88d7	0.003578713

predict.predict.1.bias f4 [64]
0	0x340dbd53	1.3200524e-07
1	0x3934ffc8	0.00017261424
2	0xbdbd77fa	-0.09251399
3	0x3b9eb7e6	0.0048436997
4	0xb8181641	-3.626035e-05
5	0xbb470104	-0.0030365596
6	0x3b1d6ed4	0.0024022358
7	0xbd6bccdc	-0.057568416
8	0x3d4b4714	0.049628332
9	0xb405e7ac	-1.2470872e-07
10	0xbe2f0494	-0.1709159
11	0x36a23605	4.834265e-06
12	0xb84729e2	-4.7484304e-05
13	0x3d189454	0.03725083
14	0xb4be1aa3	-3.540964e-07
15	0xbc1ebec5	-0.009689038
16	0xba5345f6	-0.0008059436
17	0x3c0e1e35	0.008674194
18	0xba6b31ba	-0.00089719484
19	0x3ad28144	0.0016060253
20	0x343736da	1.7063158e-07
21	0xba3217a7	-0.00067936856
22	0xbed8119f	-0.42200944
23	0x33b7c4f2	8.557426e-08
24	0xb967796b	-0.00022075108
25	0xb6282848	-2.5057398e-06
26	0x361279c9	2.1826584e-06
27	0xb2e3b293	-2.6507484e-08
28	0xbb30e149	-0.002698975
29	0x3bd74b53	0.0065702586
30	0x340e1feb	1.3236392e-07
31	0xb6cea597	-6.1585556e-06
32	0xbd1e8d73	-0.038709115
33	0x348fb987	2.6770815e-07
34	0x3d331ab7	0.04372665
35	0x3d9e9ec2	0.077451244
36	0xbbe6ac5f	-0.007039591
37	0x3afbdc96	0.001921552
38	0x334e6e28	4.80633e-08
39	0x330dfe55	3.3060434e-08
40	0x3d963507	0.07334333
41	0x3ce6e927	0.028187348
42	0x360c921d	2.0946675e-06
43	0x33f353d7	1.133082e-07
44	0x34a445af	3.0598082e-07
45	0xbcf9ceb0	-0.030494064
46	0x3f3aca7f	0.72965235
47	0x3abf3802	0.0014588835
48	0xba40360f	-0.0007332274
49	0xba285c50	-0.0006422447
50	0xb428e9c3	-1.5731261e-07
51	0xb2aec97a	-2.0347887e-08
52	0x3b1fec61	0.0024402367
53	0xbc305ff5	-0.010765065
54	0x3eca6e41	0.39537242
55	0xb3d94711	-1.0117777e-07
56	0x3bbe242b	0.0058026514
57	0x3da47ba2	0.080313936
58	0xb89a7066	-7.364228e-05
59	0xb699f9fb	-4.588857e-06
60	0x3b278a10	0.002556447
61	0x330434d6	3.07817e-08
62	0x362efa4e	2.6073717e-06
63	0x3d9593f6	0.07303612

predict.predict.3.weight f4 [64]
0	0xb632fcc8	-2.6671205e-06
1	0x3b91fb36	0.0044549955
2	0x3cca8f5e	0.024726566
3	0x3c09dfc2	0.008415164
4	0xb70fc580	-8.569448e-06
5	0x3d24b1aa	0.040208496
6	0x3b772ff8	0.00377178
7	0x3e21f402	0.15815738
8	0xbdf59d8b	-0.119929396
9	0x340c2cd4	1.3054824e-07
10	0x3e0ed983	0.13950162
11	0xb7b7db79	-2.19175e-05
12	0x3855ecc9	5.100368e-05
13	0x3dd7dca3	0.1054013
14	0xb6f5ae1b	-7.3218375e-06
15	0xbdbbbb43	-0.09166577
16	0xba98e7f2	-0.0011665805
17	0x3d7d1135	0.061783988
18	0x3a0db3de	0.00054055254
19	0xbc30c5e3	-0.010789367
20	0x33e67234	1.0730983e-07
21	0x3ba61a92	0.0050690854
22	0x3e740a51	0.2383206
23	0xb5c69f1d	-1.4798458e-06
24	0x378dde4a	1.6912021e-05
25	0xb8ca828d	-9.6564276e-05
26	0x37133ee8	8.776529e-06
27	0xb0882fd4	-9.908896e-10
28	0xbc2053c6	-0.009785598
29	0xb9ea12bb	-0.00044645913
30	0x345a5161	2.0332438e-07
31	0xb4aa564d	-3.172776e-07
32	0x3e3424a7	0.17592107
33	0x364c3bc6	3.0433162e-06
34	0x3db1ded7	0.086850815
35	0x3e418019	0.18896522
36	0x3cb3b606	0.021937381
37	0x3b07e45f	0.0020735485
38	0xb429f30f	-1.5827776e-07
39	0xb257e849	-1.2567463e-08
40	0x3d13ea62	0.036112197
41	0x3d94d7ef	0.072677486
42	0x36181c92	2.2666395e-06
43	0x34977ab0	2.821521e-07
44	0xb3a20fea	-7.5466076e-08
45	0x3e0abd83	0.13548855
46	0x3f15d9f4	0.58535695
47	0x38d07345	9.9396835e-05
48	0xbb58b3e6	-0.0033066212
49	0xbaf871f8	-0.0018954864
50	0x35a5c4f1	1.2350775e-06
51	0x33527e43	4.900927e-08
52	0xba55b1ec	-0.00081518176
53	0xbba972a7	-0.0051711383
54	0x3f8e5dc3	1.1122364
55	0xb4410c57	-1.7979015e-07
56	0x3aa67f0c	0.0012702658
57	0x3d8732e9	0.06601507
58	0x39176431	0.00014437806
59	0x35af0d87	1.3042453e-06
60	0xbbf66f61	-0.0075206016
61	0x32da8b91	2.5442008e-08
62	0xb6d1021f	-6.2289323e-06
63	0x3f10d09f	0.5656833

predict.predict.3.bias f4 [64]
0	0xb707ab4b	-8.086509e-06
1	0xbbd025c7	-0.0063521597
2	0x3b9eb423	0.0048432513
3	0x3a0d453b	0.0005389039
4	0x3845b6e9	4.713881e-05
5	0x3af9a00d	0.0019044891
6	0xbaf3838d	-0.0018578634
7	0xbd8597ac	-0.0652307
8	0xbc86d52a	-0.016459066
9	0xb5777f0b	-9.219954e-07
10	0xbca9798b	-0.020687839
11	0xb7125726	-8.722569e-06
12	0x3748f7e3	1.1978645e-05
13	0x3d8602b6	0.06543486
14	0x385bc438	5.239641e-05
15	0x3c0bcf61	0.00853333
16	0xb9a47e42	-0.00031374587
17	0x3c07e697	0.008294723
18	0x3a054de2	0.0005085153
19	0x3be5e4ba	0.0070157917
20	0x35f7964d	1.8446677e-06
21	0x3ab6bc75	0.0013941663
22	0xbd5ea227	-0.05435386
23	0xb48e57f7	-2.6513564e-07
24	0xb91b8c29	-0.00014834166
25	0x38aadcb5	8.1473416e-05
26	0x37bcec72	2.252145e-05
27	0xb4334cb8	-1.6698584e-07
28	0xbbc3230d	-0.005955106
29	0xbbaa281e	-0.0051927706
30	0xb49c7928	-2.9145417e-07
31	0xb5f6af10	-1.8379378e-06
32	0xbe1218c9	-0.14267267
33	0x368a2082	4.116505e-06
34	0x3d22ea4a	0.039774217
35	0xbdb2da53	-0.08733048
36	0x3b703b71	0.0036656524
37	0x396bfac4	0.00022504764
38	0xb25343e6	-1.2297255e-08
39	0x33b3ef07	8.378816e-08
40	0xbd6f6318	-0.058444113
41	0xbd7fa888	-0.062416583
42	0x35aec5d9	1.3021591e-06
43	0xb4754737	-2.2843311e-07
44	0x360c6aee	2.0923867e-06
45	0xbb72f854	-0.0037074285
46	0x3e948c25	0.29013172
47	0xb94b1d97	-0.00019370612
48	0x3bcc4d5d	0.0062348084
49	0xba1a8328	-0.00058941776
50	0x34985f25	2.8381433e-07
51	0x33473cf7	4.6388745e-08
52	0xba875896	-0.0010326083
53	0xb873b222	-5.8101614e-05
54	0xbf26ee70	-0.65207577
55	0x348267da	2.428995e-07
56	0x3aeb8327	0.0017968164
57	0xbcbbb0c1	-0.022911431
58	0x39927068	0.0002793104
59	0xb6bd923f	-5.649664e-06
60	0xbba5773a	-0.0050496133
61	0xb3a61c89	-7.735168e-08
62	0xb5c6ef2b	-1.4821757e-06
63	0xbe0d4239	-0.13794793

predict.predict.3.running_mean f4 [64]
0	0x37191dfd	9.126493e-06
1	0x3cb03f32	0.021514509
2	0x3be937e5	0.007117259
3	0x3cd993d8	0.026559755
4	0x3953a779	0.00020184917
5	0x3dff43dd	0.12464116
6	0x3c0181b5	0.00790446
7	0x3e7d9deb	0.24767272
8	0x3df64c4b	0.120262705
9	0x35018c66	4.826055e-07
10	0x3d85b05f	0.06527781
11	0x379d5abe	1.8758114e-05
12	0x39a41803	0.00031298408
13	0x3e6facb8	0.2340573
14	0x382441e1	3.9162e-05
15	0x3d35034e	0.044192605
16	0x3bc25548	0.0059305765
17	0x3f0718a4	0.52771974
18	0x3b64cf55	0.0034913619
19	0x3c036dc9	0.00802178
20	0x35c9dc24	1.5039736e-06
21	0x3cea9ada	0.028638292
22	0x3df39572	0.11893739
23	0x365632e5	3.191811e-06
24	0x3a5ef509	0.0008505141
25	0x395f53ff	0.00021298228
26	0x381ca034	3.73425e-05
27	0x344a3786	1.8832915e-07
28	0x3cb73438	0.022363767
29	0x3e3947a1	0.1809373
30	0x353d697a	7.0561475e-07
31	0x3829c958	4.0480256e-05
32	0x3f087552	0.53304017
33	0x36edd600	7.0880633e-06
34	0x3e5d7633	0.2162712
35	0x3f118a50	0.56851673
36	0x3daf16ae	0.08549248
37	0x3b824b67	0.003976274
38	0x3484ba7d	2.4722604e-07
39	0x338708e4	6.2880446e-08
40	0x3e182912	0.14859417
41	0x3f22331c	0.63359237
42	0x37178efe	9.033594e-06
43	0x35fbce1f	1.8760946e-06
44	0x35a547f1	1.2314396e-06
45	0x3ed8d084	0.42346585
46	0x3e940e4e	0.28917164
47	0x3c108b4c	0.008822273
48	0x3bdb36c3	0.0066898777
49	0x3c2eebfd	0.010676381
50	0x3650f5f3	3.1137577e-06
51	0x33cc490f	9.5127795e-08
52	0x3ce93a65	0.028470227
53	0x3c1cc01c	0.009567287
54	0x4090489c	4.5088634
55	0x354765df	7.428152e-07
56	0x3ba3dfb4	0.0050010327
57	0x3dfa7154	0.12228647
58	0x395e44cd	0.000211972
59	0x374fb8c9	1.2381185e-05
60	0x3c1e92ca	0.009678552
61	0x33beaa3d	8.8785306e-08
62	0x3736b5a3	1.0890336e-05
63	0x3edde168	0.43336034

predict.predict.3.running_var f4 [64]
0	0x2fe679fe	4.1923437e-10
1	0x39e17b5c	0.00043007254
2	0x3a2b60ce	0.00065375573
3	0x3a0bb9c8	0.0005330113
4	0x3438ce5a	1.7211406e-07
5	0x3c9686d3	0.018374836
6	0x38926177	6.979977e-05
7	0x3d6bafea	0.05754081
8	0x3c64aa4f	0.01395662
9	0x2cbe8869	5.4152694e-12
10	0x3ce7b346	0.028283726
11	0x31663042	3.3496836e-09
12	0x3448d4f8	1.8703929e-07
13	0x3da2a37a	0.07941337
14	0x328d8508	1.6475056e-08
15	0x3b76aaa7	0.0037638338
16	0x38357ab5	4.3268043e-05
17	0x3e9d91cf	0.30775306
18	0x374678ea	1.1829872e-05
19	0x39f178e9	0.00046057187
20	0x2de8c3e0	2.6462332e-11
21	0x3a381bcc	0.0007023185
22	0x3cfd2b14	0.03090433
23	0x2e78aa5d	5.6539984e-11
24	0x357b49cd	9.361218e-07
25	0x34100fa3	1.3416734e-07
26	0x31b70715	5.326806e-09
27	0x2c2e203d	2.4744783e-12
28	0x3a71755e	0.00092109095
29	0x3cce840a	0.025209446
30	0x2c66a05e	3.2773988e-12
31	0x31c34b44	5.6838036e-09
32	0x3e703c73	0.2346056
33	0x2f9b1b13	2.8213573e-10
34	0x3d4aa387	0.049472358
35	0x3ea51273	0.32240638
36	0x3bf49f59	0.007465285
37	0x3734450d	1.0744913e-05
38	0x2b5abb0b	7.770873e-13
39	0x2ba6134d	1.1800366e-12
40	0x3cf1c8ce	0.029514696
41	0x3f46ca93	0.77652854
42	0x2f997164	2.7911107e-10
43	0x2e158155	3.3993548e-11
44	0x2d3805b3	1.04604546e-11
45	0x3e6d1f3c	0.23156446
46	0x3ecd195b	0.40058407
47	0x3885d9f3	6.3825304e-05
48	0x3934b61e	0.00017233982
49	0x38f70b2d	0.000117799595
50	0x2eb9a93e	8.4428894e-11
51	0x2bc4e094	1.3988971e-12
52	0x3a811324	0.0009847623
53	0x3925d732	0.00015815793
54	0x414da4bb	12.852717
55	0x2c7efc45	3.6235609e-12
56	0x3821bf35	3.8563467e-05
57	0x3c8ccd1a	0.017187644
58	0x34ecb2ed	4.408861e-07
59	0x3041b749	7.0473455e-10
60	0x399d0b56	0.0002995382
61	0x2c1e4d86	2.2496185e-12
62	0x30043429	4.8095444e-10
63	0x3ea46167	0.32105562

predict.predict.4.weight f4 [1, 64]
0	0xb3d1cd68	-9.769684e-08
1	0xbbb93555	-0.0056521096
2	0xbcea17af	-0.028575746
3	0x3b5fcf45	0.0034150642
4	0x37430dfb	1.1626161e-05
5	0xbd01cc7a	-0.031689145
6	0xbb122043	-0.0022297062
7	0xbdb796b5	-0.08964292
8	0xbd30e017	-0.04318246
9	0x35d7768d	1.6053251e-06
10	0x3d739b0c	0.059474036
11	0x376f7f18	1.4275101e-05
12	0x384630b7	4.7252248e-05
13	0x3d5c8a7d	0.05384301
14	0x37c137e5	2.303342e-05
15	0x3c264790	0.010148898
16	0xba129142	-0.0005591103
17	0x3b07e7b5	0.0020737473
18	0x38aa4756	8.119519e-05
19	0x3be00cb7	0.006837453
20	0xb60759a4	-2.0168745e-06
21	0xbb171159	-0.0023051111
22	0x3dd23525	0.10264043
23	0x34376e89	1.7083416e-07
24	0xb95de4a9	-0.00021161385
25	0xb8df8529	-0.00010658272
26	0xb759d4f1	-1.2983787e-05
27	0x32f8dc42	2.8971161e-08
28	0xbb9cd23d	-0.0047858045
29	0x3bbcb5cd	0.005758977
30	0xb3d08637	-9.710168e-08
31	0xb53cca24	-7.032961e-07
32	0x3d282bf6	0.04105755
33	0xb610c883	-2.1574385e-06
34	0x3d41c41e	0.047306173
35	0x3d440359	0.047854755
36	0xbb904ad1	-0.00440345
37	0xba8be95b	-0.0010674404
38	0xb2e11123	-2.620124e-08
39	0x32d1e1e3	2.4433524e-08
40	0xbdb98de5	-0.09060267
41	0xbdf1f35c	-0.11813995
42	0xb4bd149a	-3.5218983e-07
43	0x35d4533c	1.5819455e-06
44	0xb537d5e3	-6.848406e-07
45	0xbd9fdd2e	-0.078058586
46	0xbf06524c	-0.52469325
47	0xba4c0a18	-0.00077834865
48	0x3a82da7a	0.0009983324
49	0x3af2fa2e	0.0018537694
50	0xb51d1bb6	-5.852738e-07
51	0xb33c3f19	-4.3829548e-08
52	0x3af1560a	0.0018412482
53	0x3b4c1659	0.003114125
54	0x3f6b5eca	0.9194151
55	0xb46ceb7c	-2.2064881e-07
56	0xbb01ea08	-0.0019823331
57	0xbd64458b	-0.055730384
58	0x38ab0924	8.155618e-05
59	0xb6cc77b8	-6.093611e-06
60	0xbb187426	-0.002326259
61	0x33628dab	5.274857e-08
62	0x368e51a9	4.2414363e-06
63	0xbe9d5254	-0.30726874
