1-GNNs/result/6108_AR_NURA_GAT_0920/41/model.pth (torch, 158902 bytes, 12 tensors)

gnn.gnn_layers.0.gat_conv.attn_l f4 [1, 6, 64]
0	0x3e1e75ba	0.15474597
1	0x3e996ea2	0.2996722
2	0xbd9deba0	-0.077109575
3	0xbcb3ae1f	-0.021933613
4	0xbd1311b9	-0.035905574
5	0xbeb69c38	-0.3566606
6	0x3d8a9a18	0.06767672
7	0xbe89619f	-0.2683229
8	0x3d8bbee3	0.06823518
9	0x3d5b0a02	0.05347634
10	0xbe897a0f	-0.26850936
11	0xbdea4653	-0.114391945
12	0xbc4e75b4	-0.012601305
13	0xbd8e7b4b	-0.0695711
14	0x3ccf7a9d	0.025327021
15	0xbdb0d8d9	-0.086351104
16	0x3ecf7126	0.40516013
17	0x3ec04ff5	0.37561002
18	0x3ee6b961	0.45063308
19	0x3ead52bc	0.33852184
20	0x3e1dc0f1	0.15405633
21	0x3ed7869a	0.4209488
22	0xbe8ed1ff	-0.2789459
23	0xbe066d83	-0.13127713
24	0xbed4c9ac	-0.41560113
25	0xbcab371e	-0.020900305
26	0x3e0588d0	0.13040471
27	0x3cd5aabf	0.026082395
28	0x3c8c1eb5	0.017104486
29	0x3ebdbff9	0.37060526
30	0x3e406653	0.18789034
31	0xbd1e01bf	-0.038575884
32	0xbd830d97	-0.063990764
33	0x3d951da5	0.07281045
34	0x3f06d3f0	0.5266714
35	0x3ee1fedf	0.44139764
36	0x3ea0f44c	0.31436384
37	0x3c9790da	0.018501688
38	0x3e9082c1	0.28224757
39	0xbd350986	-0.044198535
40	0xbd311ca8	-0.04324022
41	0xbbfadae6	-0.0076554893
42	0xbe403050	-0.1876843
43	0xbd986696	-0.07441442
44	0x3d55c565	0.052190203
45	0xbe04ff33	-0.12987976
46	0xbb2d44de	-0.0026438753
47	0x3acfba0d	0.0015848294
48	0x3e3bcfbc	0.18340963
49	0xbe7a5647	-0.24446975
50	0x3e5e0f9b	0.2168564
51	0x3e79f234	0.244088
52	0xbda18cec	-0.07888207
53	0xbede56e7	-0.43425676
54	0x3d117716	0.03551396
55	0x3dd8fbf2	0.1059493
56	0xbe6f275f	-0.23354863
57	0x3e14e9ff	0.14542387
58	0xbd93fe55	-0.07226244
59	0xbd0a99bf	-0.03383803
60	0x3def712f	0.1169151
61	0xbeaaf145	-0.333872
62	0x3e21a97f	0.15787314
63	0x3e5eb62a	0.21749178
64	0xbd06fd5a	-0.03295646
65	0xbef9bcdd	-0.48776904
66	0x3ebcf238	0.36903548
67	0x3d4f77d7	0.050651398
68	0x3e1220c4	0.14270312
69	0x3e3d7587	0.18501864
70	0xbdf31032	-0.118683234
71	0xbcc87745	-0.024470935
72	0xbd9beb15	-0.07613198
73	0xbe811458	-0.25210834
74	0x3e7e573e	0.24837968
75	0x3d2cf191	0.042222563
76	0x3c536479	0.0129023725
77	0xbe001278	-0.12507045
78	0xbe3e6f97	-0.18597256
79	0xbac9a020	-0.0015382804
80	0xbe47e653	-0.19521455
81	0xbe334d00	-0.17509842
82	0xbd0b58a7	-0.034020092
83	0xbe697149	-0.22797121
84	0xbe8b1de1	-0.27171233
85	0xbdff9456	-0.12479465
86	0x3e9a7aa8	0.30171704
87	0x3dbce5c7	0.09223514
88	0x3e92a497	0.28641197
89	0xbc9c843d	-0.019106025
90	0xbe3b1711	-0.18270518
91	0xbe356b65	-0.17716749
92	0xbe311132	-0.17291716
93	0xbeb182a2	-0.34669977
94	0xbe112e2d	-0.14177771
95	0x3e217ad5	0.15769513
96	0x3d88664b	0.06660136
97	0xbd7d9837	-0.06191274
98	0xbe97c46d	-0.29642048
99	0xbe30de4e	-0.17272303
100	0xbe894ab3	-0.26814803
101	0x3c20ac46	0.009806698
102	0x3e6a5dff	0.22887419
103	0x3d06c8f6	0.032906495
104	0x3b233fdd	0.0024909892
105	0x3e86d78f	0.26336333
106	0x3ea63613	0.3246313
107	0xbb2cfe6b	-0.0026396762
108	0xbdf0bb88	-0.11754519
109	0x3e924c75	0.28573957
110	0x3e497a2d	0.19675513
111	0x3e2aabf1	0.16667153
112	0xbda1ddd1	-0.07903636
113	0x3d46c1ae	0.04852455
114	0xbd8e0eed	-0.069364406
115	0xbe4e68a2	-0.20157102
116	0x3e1e751e	0.15474364
117	0xbccde971	-0.025135728
118	0xbd8e6a7d	-0.06953905
119	0xbe3d03c3	-0.18458466
120	0x3e2d8261	0.16944267
121	0xbcc197f1	-0.023632022
122	0xbcfd41ad	-0.030915106
123	0x3de81aac	0.11333212
124	0xbee3428a	-0.44386703
125	0x3dc0de07	0.09417348
126	0xbe53b1bf	-0.20673274
127	0xbe6291e8	-0.22125971
128	0x3e10d416	0.14143404
129	0x3e6a18b1	0.22860982
130	0xbe8d4f24	-0.27599442
131	0xbd8d7004	-0.06906131
132	0xbed6c47d	-0.41946784
133	0xbe5c4b21	-0.21513034
134	0x3e3e51d4	0.18585902
135	0xbe7d0ee7	-0.24712716
136	0x3d90c731	0.07069243
137	0x3e64f9d7	0.22360931
138	0x3c578c9f	0.013156085
139	0x3ca7b51a	0.020472098
140	0xbd1e606c	-0.038666174
141	0x3e3d70d6	0.18500075
142	0xbd31c74f	-0.043402966
143	0x3acdc558	0.0015699072
144	0x3d6f0519	0.05835447
145	0xbe2162bd	-0.15760322
146	0x3d1f72de	0.038927905
147	0x3e4a95d7	0.19783722
148	0x3e982be1	0.29720977
149	0x3e0ddce9	0.13853802
150	0x3de4866e	0.11158453
151	0x3ce8f0df	0.028435169
152	0xbec59386	-0.38589114
153	0xbc074c26	-0.008257901
154	0xbe1ae86f	-0.15127729
155	0x3e305fc1	0.17224027
156	0x3e33c805	0.1755677
157	0xbdd2b543	-0.10288479
158	0x3e1a6224	0.150765
159	0x3d2c89da	0.042123653
160	0xbe2aa202	-0.16663364
161	0xbe52d435	-0.20588763
162	0xbd66840c	-0.056278273
163	0x3e916398	0.28396297
164	0x3def0963	0.11671712
165	0xbdafcc49	-0.08583886
166	0xbd4ed4c9	-0.050495896
167	0xbcc22b19	-0.023702191
168	0x3df80bc3	0.12111618
169	0x3e1fdf7d	0.15612598
170	0xbead068a	-0.3379405
171	0xbc8c6b08	-0.01714088
172	0x3d630da8	0.055432945
173	0xbe37842f	-0.17921518
174	0x3d2cf7a5	0.04222836
175	0xbe9a4785	-0.3013269
176	0xbe20ff91	-0.15722491
177	0x3e29b668	0.16573489
178	0xbda86d10	-0.08223927
179	0x3cad13e6	0.021127652
180	0xbcce5535	-0.025187114
181	0x3e29d916	0.16586718
182	0x3d282a39	0.04105589
183	0x3e31f3d3	0.17378168
184	0xbdbd7cb8	-0.09252304
185	0x3de49438	0.11161083
186	0xbdd62f2a	-0.104582146
187	0xbe2e9600	-0.17049408
188	0x3eaf8891	0.3428388
189	0x3c94847d	0.018129582
190	0xbc9c34d3	-0.019068157
191	0xbd38dd9b	-0.045133214
192	0x3e73ba47	0.23801528
193	0x3eaeaa85	0.3411447
194	0x3d39fd6e	0.045407705
195	0xbcc62cc4	-0.024191268
196	0xbedd9629	-0.43278626
197	0xbea2131d	-0.31655207
198	0x3bc807b2	0.006104433
199	0xbe5f7fda	-0.21826115
200	0x3e0d2b97	0.1378616
201	0xbeb91ad7	-0.3615329
202	0xbee735a6	-0.45158118
203	0x3dda2468	0.10651475
204	0x3d943d57	0.07238262
205	0xbe9b96fa	-0.30388623
206	0x3e2481e1	0.1606517
207	0xbb63d4d2	-0.0034764302
208	0x3ea155ea	0.3151086
209	0x3f20a66f	0.6275396
210	0x3e6d6541	0.23183157
211	0x3e46f6fa	0.19430152
212	0x3eaf61c4	0.34254277
213	0x3e68fb23	0.22752051
214	0xbeb84de4	-0.35996926
215	0xbc0e025a	-0.008667553
216	0xbed90107	-0.42383596
217	0xbc86cca3	-0.016455
218	0x3deaf3ee	0.11472307
219	0x3cef1997	0.029187007
220	0x3d211055	0.039322216
221	0x3e042b53	0.12907152
222	0x3e9c7a14	0.30561888
223	0xbd1a9b02	-0.037745483
224	0xbe78cb5a	-0.24296322
225	0x3e49de3e	0.19713685
226	0x3dfa1f81	0.1221304
227	0x3f0e0d40	0.5548897
228	0x3e92f910	0.28705645
229	0x3d1af957	0.037835445
230	0x3e1b4149	0.15161623
231	0x3d85e00e	0.06536876
232	0x3d3e5276	0.04646536
233	0x3e8995c8	0.26872087
234	0xbe8aa8fa	-0.27082044
235	0xbce6292b	-0.028095802
236	0x3e234fa4	0.15948349
237	0xbe9209ed	-0.28523198
238	0x3d1a1620	0.037618756
239	0x3bc5a829	0.006032009
240	0x3eaecbcc	0.3413986
241	0xbeb7d38d	-0.35903588
242	0x3dea6153	0.11444344
243	0x3e9762a7	0.29567453
244	0x3dcfcb55	0.101462044
245	0xbec7348f	-0.38907287
246	0xbcaafc3a	-0.020872224
247	0x3d04678c	0.032325312
248	0xbd8b2a4e	-0.06795178
249	0x3ea90f61	0.33019546
250	0xbc504a58	-0.012713037
251	0xbe294381	-0.16529657
252	0x3e036d35	0.12834628
253	0xbd3b85d0	-0.04578191
254	0x3e3b002b	0.18261783
255	0x3ee2c7c4	0.44293034

gnn.gnn_layers.0.gat_conv.attn_r f4 [1, 6, 64]
0	0xbbeb93d7	-0.0071892547
1	0xbc13418a	-0.008987794
2	0x3c480ee0	0.012210578
3	0x3ba514b6	0.0050378693
4	0x3b93c619	0.004509699
5	0x3c28cc64	0.010302637
6	0xbc94ea1d	-0.01817804
7	0x3c195cc9	0.009360501
8	0xbc554783	-0.013017538
9	0xbb261283	-0.0025340624
10	0x3c7009d5	0.014650782
11	0xbb689ae0	-0.0035492703
12	0x3b57a50f	0.003290478
13	0xbbad60b8	-0.005291071
14	0xbc83777c	-0.016048186
15	0x3ad844f6	0.0016500044
16	0xbc7d7c27	-0.015471495
17	0xbcdd3435	-0.027002433
18	0xbb948b96	-0.0045332415
19	0xbc693bc9	-0.014235445
20	0xbc59c4c4	-0.0132915415
21	0xbc5ccdfe	-0.013476847
22	0x3cabc709	0.02096893
23	0x3b857fbc	0.004074065
24	0x3a77a6c5	0.0009447153
25	0xbab7984c	-0.001400718
26	0xbc4a2207	-0.012337214
27	0xbc1bd662	-0.009511562
28	0xbbe1eb09	-0.0068944735
29	0xbb733b61	-0.003711425
30	0xbc4b68a9	-0.01241509
31	0x3c8d3e60	0.017241657
32	0x3caa41c5	0.020783314
33	0xba31adce	-0.0006777913
34	0xbc9e5a4b	-0.019330164
35	0xbc33abef	-0.010966285
36	0x3c84f77d	0.016231293
37	0x3a0878cb	0.0005205988
38	0x3c6ee417	0.014580748
39	0x3bac9a84	0.005267443
40	0x3b431202	0.0029765372
41	0xbb3a6337	-0.0028440484
42	0x3c3c8b9b	0.011507894
43	0x3af7f8c3	0.0018918741
44	0xbc1b8ebe	-0.009494482
45	0x3c5f186d	0.013616663
46	0xbbad2ed7	-0.0052851248
47	0x3c0992d8	0.008396827
48	0xb8a34dd8	-7.786945e-05
49	0x3b3b14d3	0.0028546348
50	0xbc84eccd	-0.016226197
51	0xbbe40577	-0.0069586593
52	0x3b8f2d7d	0.0043694363
53	0x3c23ec9c	0.010005143
54	0xbc084fe3	-0.008319828
55	0xbbc99143	-0.0061513497
56	0x3c918c5c	0.017767124
57	0xbc8b6b9d	-0.017019087
58	0xbb3e93b9	-0.0029079749
59	0x3c514d10	0.012774721
60	0xbb81ba58	-0.0039589815
61	0x3bfd1fd1	0.00772474
62	0xbc00ac85	-0.007853632
63	0xbbcc6b52	-0.0062383795
64	0xbd08b5f0	-0.033376634
65	0x3ce09ec7	0.027419461
66	0xbbbdb915	-0.0057898858
67	0x3d05afc6	0.032638334
68	0x3b3324de	0.0027335207
69	0x3b808a36	0.003922726
70	0x3dff5d5a	0.12468977
71	0xbdea747e	-0.11448
72	0xbb8a16cc	-0.0042141434
73	0xbdb6836d	-0.08911786
74	0x3d8eae74	0.06966868
75	0xbdd64351	-0.10462058
76	0x3c7e4253	0.015518743
77	0xbcde78a7	-0.02715714
78	0x3c6c316d	0.014416081
79	0xbcb32041	-0.021865966
80	0x3cfe5dfb	0.031050673
81	0x3ccb2d73	0.024801945
82	0xbc45498b	-0.01204146
83	0x3d0b55f2	0.03401751
84	0xbd86c63f	-0.06580781
85	0x3c85863f	0.016299365
86	0x3d758843	0.059944402
87	0x3d0b8c7d	0.034069527
88	0x3db17c30	0.08666265
89	0xbc2c83f0	-0.010529503
90	0x3b6d8209	0.0036240837
91	0xbd3d8af7	-0.046275105
92	0xbd9490a8	-0.072541535
93	0x3da691d4	0.08133283
94	0xbcd4ed0c	-0.025991939
95	0x3d46aa96	0.048502527
96	0xbdb3a947	-0.087725215
97	0x3d30a8a7	0.04312959
98	0xbdd9ee80	-0.106411934
99	0x3b95ee21	0.0045755063
100	0x3ba27d70	0.004958801
101	0x3cd5142d	0.026010597
102	0xbd979164	-0.07400778
103	0x3c1f470c	0.009721529
104	0xbd17a5c8	-0.037023336
105	0xbd0d6f99	-0.034530256
106	0xbc6617e2	-0.01404378
107	0xbd171bd6	-0.03689178
108	0x3d3a4dd5	0.045484383
109	0xbcaf7604	-0.021418579
110	0x3dc8376d	0.09776197
111	0x3d319340	0.04335332
112	0x3dbe2772	0.09284867
113	0xbd093b77	-0.033503976
114	0x3e322cfc	0.17399973
115	0x3c84994b	0.016186377
116	0x3c6ba72f	0.014383121
117	0xbdeeda16	-0.1166269
118	0xbadd51ea	-0.0016885374
119	0x3c60ac3c	0.013712939
120	0xbd5ed66f	-0.05440372
121	0xbd62abd7	-0.05533966
122	0xbd797aac	-0.060908005
123	0x3c940f97	0.01807384
124	0xbd8ba7f3	-0.06819143
125	0x3e1a0fb8	0.15045059
126	0x3c3712df	0.011173933
127	0x3caf0823	0.021366185
128	0x3cd1d390	0.025613576
129	0xbd11faa6	-0.035639428
130	0xbd222032	-0.039581485
131	0x3ce7254f	0.028216032
132	0xbd36b9ff	-0.044610973
133	0xbbf35bc0	-0.007426709
134	0xbcb8c995	-0.02255706
135	0xbdb3bc10	-0.087761045
136	0x3c96d441	0.018411757
137	0xbe2cac53	-0.16862611
138	0xbd8c19e3	-0.06840875
139	0xbce8b718	-0.028407618
140	0xbbbea7d0	-0.0058183447
141	0xbd108caa	-0.035290398
142	0x3ddbbdea	0.107295826
143	0x3c28b6e8	0.0102975145
144	0x3da559e1	0.08073784
145	0x3d9e2dad	0.07723556
146	0x3db0f4a4	0.086404115
147	0xba197fa5	-0.00058555073
148	0x3c65e4a6	0.014031565
149	0x3dcfd3ad	0.10147796
150	0xbccfba87	-0.025357498
151	0xbd4c10a9	-0.049820576
152	0xbdc5c0af	-0.09655892
153	0x3c8ab88c	0.016933702
154	0xbdebc0a3	-0.11511352
155	0x3d1e57c0	0.038657904
156	0x3cad093d	0.02112257
157	0xbd5c756f	-0.05382293
158	0xbc81d5cd	-0.015849018
159	0xbd92b498	-0.07163352
160	0xbddc6eb9	-0.10763306
161	0xbd242321	-0.040072564
162	0xbd816f6e	-0.06320082
163	0x3e0b5bce	0.1360924
164	0x3db6d68f	0.089276426
165	0xbcab5270	-0.020913333
166	0x3dd606ef	0.10450541
167	0xbc6c2ffe	-0.014415739
168	0x3cf8577e	0.030315157
169	0x3d31f1bf	0.043443438
170	0xbd8134f4	-0.06308928
171	0x3cbd372b	0.023097595
172	0x3caca98d	0.021076942
173	0x3bfd648c	0.0077329334
174	0x3e5b9367	0.21442948
175	0xbc357478	-0.011075132
176	0x3d52c997	0.051461782
177	0xbb2b4739	-0.0026134981
178	0x3d145ef1	0.036223356
179	0x3b16644a	0.002294796
180	0x3d8d655d	0.06904099
181	0x3cd9b3ec	0.026575051
182	0xbdb0653d	-0.0861306
183	0xbdcfea74	-0.1015214
184	0xbd8205f0	-0.06348789
185	0xbcf9d0e3	-0.030495113
186	0xbd3c0010	-0.045898497
187	0x3ca8939d	0.0205782
188	0x3d307fa7	0.04309049
189	0xbcd7173b	-0.026256194
190	0x3c2b968a	0.010472903
191	0x3e028435	0.12745745
192	0x3c33fb68	0.010985233
193	0x3cc399ee	0.02387711
194	0x3c3ce606	0.011529451
195	0xbb3f139b	-0.0029155973
196	0xbd56a381	-0.052402023
197	0xbbe68f61	-0.007036135
198	0xbd09e38c	-0.03366427
199	0x3c59fac1	0.013304413
200	0xbb2addf1	-0.0026072229
201	0xbc89d1be	-0.016823646
202	0xbd19d270	-0.037554204
203	0x3b9c9be1	0.0047793244
204	0x3b40f3ee	0.0029442268
205	0xbc000f49	-0.007816144
206	0x3b683777	0.003543345
207	0x3baa543d	0.0051980303
208	0x3c633d89	0.013869652
209	0x3cfbe48f	0.030748634
210	0x3cbaecd0	0.022818
211	0x3b86d2f0	0.004114501
212	0x3b5485e1	0.003242843
213	0x3c4a1ef0	0.012336478
214	0xbbe0ef3f	-0.006864458
215	0x3bc41100	0.005983472
216	0xbcf8ebef	-0.03038594
217	0xbab0f565	-0.0013500868
218	0x3cb33de0	0.02188009
219	0xbbd6b5d0	-0.0065524355
220	0xbb8d971b	-0.0043209917
221	0x3d1ed984	0.038781658
222	0x3cb664a2	0.022264782
223	0x3c0c10f4	0.008548964
224	0x3a6a48e5	0.0008937254
225	0x3b5cb34a	0.00336762
226	0xbaec4fa2	-0.0018029104
227	0x3cb499c6	0.022045981
228	0x3d279599	0.04091415
229	0x3b97219e	0.004612162
230	0x39b17936	0.0003385038
231	0x3c1745d2	0.009232955
232	0x3bb7569c	0.0055950414
233	0x3cb7ccd2	0.022436533
234	0x3b8904b7	0.0041814703
235	0xbc0bea09	-0.008539685
236	0x3b9caa9d	0.004781081
237	0xbcb5d269	-0.022195058
238	0xbca73499	-0.020410823
239	0xbb32e323	-0.0027296029
240	0x3c146b3c	0.00905877
241	0xbcc52559	-0.02406566
242	0x3c006814	0.007837314
243	0x3b4c475e	0.0031170468
244	0x3a7d0ebc	0.00096533797
245	0xbc65d6ef	-0.014028295
246	0x3bac21cb	0.005253052
247	0x3c6a1fe4	0.01428983
248	0x3bcea56a	0.00630634
249	0x3c966453	0.018358385
250	0x3c6a6990	0.014307395
251	0xbbe67920	-0.007033482
252	0xbbbdccdd	-0.005792244
253	0xbc0e0d2f	-0.008670135
254	0xbb9eeb01	-0.004849792
255	0x3d025672	0.031820722

gnn.gnn_layers.0.gat_conv.bias f4 [384]
0	0x3d9ecbd8	0.07753724
1	0x3da8518a	0.08218677
2	0xbdfdcf92	-0.123931065
3	0xbbc5c612	-0.0060355747
4	0xbc93b339	-0.018029796
5	0xbdffbf68	-0.1248768
6	0x3f31b527	0.6941704
7	0xbf03785e	-0.5135554
8	0x3dd9a71d	0.106275775
9	0xbec34530	-0.38138723
10	0xbdf0838b	-0.1174384
11	0xbe531853	-0.20614748
12	0x3cea6918	0.028614566
13	0xbd2e34ed	-0.042530943
14	0x3e1f93f0	0.15583777
15	0xbd5d6df5	-0.05405994
16	0x3db66d61	0.08907581
17	0x3e38cf63	0.18047862
18	0x3dc6a125	0.09698705
19	0x3e7cd763	0.24691539
20	0x3e14985f	0.1451125
21	0x3e8a9c4f	0.2707238
22	0xbe27700d	-0.16351338
23	0xbde4f0b4	-0.11178723
24	0x3e4addeb	0.19811217
25	0x3c81a529	0.015825825
26	0xbd7b4967	-0.0613493
27	0x3d82ce50	0.06387007
28	0xbc7266f1	-0.014795051
29	0x3dd98e40	0.10622835
30	0x3c8ba1d0	0.017044932
31	0xbe65788f	-0.2240927
32	0xbeed9cab	-0.4640859
33	0x3db3038b	0.0874091
34	0x3e20fe16	0.15721926
35	0x3eb3af7b	0.35094818
36	0xbcf7ae8f	-0.030234603
37	0x3d298b7c	0.04139279
38	0x3e7539c1	0.23947813
39	0xbe44913c	-0.19196028
40	0xbdc1a1aa	-0.09454663
41	0xbd7c4eb7	-0.061598506
42	0xbda95591	-0.082682736
43	0xbc3f4c8c	-0.011675965
44	0x3e3e5d65	0.18590315
45	0xbda89b9d	-0.08232806
46	0x3ecada1a	0.39619523
47	0x3d46f81c	0.04857646
48	0x3e1e5896	0.1546348
49	0xbdb39f6a	-0.0877064
50	0x3ea43bc8	0.3207686
51	0x3e5c3d3e	0.21507737
52	0xbca0dab1	-0.01963553
53	0xbed4aef5	-0.41539732
54	0xbca09fcf	-0.019607453
55	0xbd7b0629	-0.06128517
56	0xbe88d38a	-0.26723891
57	0xbdd96d45	-0.10616545
58	0xbe4d2464	-0.20033413
59	0xbd43227f	-0.04764032
60	0x3de6066a	0.11231692
61	0xbd16618e	-0.03671413
62	0x3e31d569	0.17366566
63	0x3de35f0e	0.111021146
64	0x3d9ecbd8	0.07753724
65	0x3da8518a	0.08218677
66	0xbdfdcf92	-0.123931065
67	0xbbc5c612	-0.0060355747
68	0xbc93b339	-0.018029796
69	0xbdffbf68	-0.1248768
70	0x3f31b527	0.6941704
71	0xbf03785e	-0.5135554
72	0x3dd9a71d	0.106275775
73	0xbec34530	-0.38138723
74	0xbdf0838b	-0.1174384
75	0xbe531853	-0.20614748
76	0x3cea6918	0.028614566
77	0xbd2e34ed	-0.042530943
78	0x3e1f93f0	0.15583777
79	0xbd5d6df5	-0.05405994
80	0x3db66d61	0.08907581
81	0x3e38cf63	0.18047862
82	0x3dc6a125	0.09698705
83	0x3e7cd763	0.24691539
84	0x3e14985f	0.1451125
85	0x3e8a9c4f	0.2707238
86	0xbe27700d	-0.16351338
87	0xbde4f0b4	-0.11178723
88	0x3e4addeb	0.19811217
89	0x3c81a529	0.015825825
90	0xbd7b4967	-0.0613493
91	0x3d82ce50	0.06387007
92	0xbc7266f1	-0.014795051
93	0x3dd98e40	0.10622835
94	0x3c8ba1d0	0.017044932
95	0xbe65788f	-0.2240927
96	0xbeed9cab	-0.4640859
97	0x3db3038b	0.0874091
98	0x3e20fe16	0.15721926
99	0x3eb3af7b	0.35094818
100	0xbcf7ae8f	-0.030234603
101	0x3d298b7c	0.04139279
102	0x3e7539c1	0.23947813
103	0xbe44913c	-0.19196028
104	0xbdc1a1aa	-0.09454663
105	0xbd7c4eb7	-0.061598506
106	0xbda95591	-0.082682736
107	0xbc3f4c8c	-0.011675965
108	0x3e3e5d65	0.18590315
109	0xbda89b9d	-0.08232806
110	0x3ecada1a	0.39619523
111	0x3d46f81c	0.04857646
112	0x3e1e5896	0.1546348
113	0xbdb39f6a	-0.0877064
114	0x3ea43bc8	0.3207686
115	0x3e5c3d3e	0.21507737
116	0xbca0dab1	-0.01963553
117	0xbed4aef5	-0.41539732
118	0xbca09fcf	-0.019607453
119	0xbd7b0629	-0.06128517
120	0xbe88d38a	-0.26723891
121	0xbdd96d45	-0.10616545
122	0xbe4d2464	-0.20033413
123	0xbd43227f	-0.04764032
124	0x3de6066a	0.11231692
125	0xbd16618e	-0.03671413
126	0x3e31d569	0.17366566
127	0x3de35f0e	0.111021146
128	0x3d9ecbd8	0.07753724
129	0x3da8518a	0.08218677
130	0xbdfdcf92	-0.123931065
131	0xbbc5c612	-0.0060355747
132	0xbc93b339	-0.018029796
133	0xbdffbf68	-0.1248768
134	0x3f31b527	0.6941704
135	0xbf03785e	-0.5135554
136	0x3dd9a71d	0.106275775
137	0xbec34530	-0.38138723
138	0xbdf0838b	-0.1174384
139	0xbe531853	-0.20614748
140	0x3cea6918	0.028614566
141	0xbd2e34ed	-0.042530943
142	0x3e1f93f0	0.15583777
143	0xbd5d6df5	-0.05405994
144	0x3db66d61	0.08907581
145	0x3e38cf63	0.18047862
146	0x3dc6a125	0.09698705
147	0x3e7cd763	0.24691539
148	0x3e14985f	0.1451125
149	0x3e8a9c4f	0.2707238
150	0xbe27700d	-0.16351338
151	0xbde4f0b4	-0.11178723
152	0x3e4addeb	0.19811217
153	0x3c81a529	0.015825825
154	0xbd7b4967	-0.0613493
155	0x3d82ce50	0.06387007
156	0xbc7266f1	-0.014795051
157	0x3dd98e40	0.10622835
158	0x3c8ba1d0	0.017044932
159	0xbe65788f	-0.2240927
160	0xbeed9cab	-0.4640859
161	0x3db3038b	0.0874091
162	0x3e20fe16	0.15721926
163	0x3eb3af7b	0.35094818
164	0xbcf7ae8f	-0.030234603
165	0x3d298b7c	0.04139279
166	0x3e7539c1	0.23947813
167	0xbe44913c	-0.19196028
168	0xbdc1a1aa	-0.09454663
169	0xbd7c4eb7	-0.061598506
170	0xbda95591	-0.082682736
171	0xbc3f4c8c	-0.011675965
172	0x3e3e5d65	0.18590315
173	0xbda89b9d	-0.08232806
174	0x3ecada1a	0.39619523
175	0x3d46f81c	0.04857646
176	0x3e1e5896	0.1546348
177	0xbdb39f6a	-0.0877064
178	0x3ea43bc8	0.3207686
179	0x3e5c3d3e	0.21507737
180	0xbca0dab1	-0.01963553
181	0xbed4aef5	-0.41539732
182	0xbca09fcf	-0.019607453
183	0xbd7b0629	-0.06128517
184	0xbe88d38a	-0.26723891
185	0xbdd96d45	-0.10616545
186	0xbe4d2464	-0.20033413
187	0xbd43227f	-0.04764032
188	0x3de6066a	0.11231692
189	0xbd16618e	-0.03671413
190	0x3e31d569	0.17366566
191	0x3de35f0e	0.111021146
192	0x3d9ecbd8	0.07753724
193	0x3da8518a	0.08218677
194	0xbdfdcf92	-0.123931065
195	0xbbc5c612	-0.0060355747
196	0xbc93b339	-0.018029796
197	0xbdffbf68	-0.1248768
198	0x3f31b527	0.6941704
199	0xbf03785e	-0.5135554
200	0x3dd9a71d	0.106275775
201	0xbec34530	-0.38138723
202	0xbdf0838b	-0.1174384
203	0xbe531853	-0.20614748
204	0x3cea6918	0.028614566
205	0xbd2e34ed	-0.042530943
206	0x3e1f93f0	0.15583777
207	0xbd5d6df5	-0.05405994
208	0x3db66d61	0.08907581
209	0x3e38cf63	0.18047862
210	0x3dc6a125	0.09698705
211	0x3e7cd763	0.24691539
212	0x3e14985f	0.1451125
213	0x3e8a9c4f	0.2707238
214	0xbe27700d	-0.16351338
215	0xbde4f0b4	-0.11178723
216	0x3e4addeb	0.19811217
217	0x3c81a529	0.015825825
218	0xbd7b4967	-0.0613493
219	0x3d82ce50	0.06387007
220	0xbc7266f1	-0.014795051
221	0x3dd98e40	0.10622835
222	0x3c8ba1d0	0.017044932
223	0xbe65788f	-0.2240927
224	0xbeed9cab	-0.4640859
225	0x3db3038b	0.0874091
226	0x3e20fe16	0.15721926
227	0x3eb3af7b	0.35094818
228	0xbcf7ae8f	-0.030234603
229	0x3d298b7c	0.04139279
230	0x3e7539c1	0.23947813
231	0xbe44913c	-0.19196028
232	0xbdc1a1aa	-0.09454663
233	0xbd7c4eb7	-0.061598506
234	0xbda95591	-0.082682736
235	0xbc3f4c8c	-0.011675965
236	0x3e3e5d65	0.18590315
237	0xbda89b9d	-0.08232806
238	0x3ecada1a	0.39619523
239	0x3d46f81c	0.04857646
240	0x3e1e5896	0.1546348
241	0xbdb39f6a	-0.0877064
242	0x3ea43bc8	0.3207686
243	0x3e5c3d3e	0.21507737
244	0xbca0dab1	-0.01963553
245	0xbed4aef5	-0.41539732
246	0xbca09fcf	-0.019607453
247	0xbd7b0629	-0.06128517
248	0xbe88d38a	-0.26723891
249	0xbdd96d45	-0.10616545
250	0xbe4d2464	-0.20033413
251	0xbd43227f	-0.04764032
252	0x3de6066a	0.11231692
253	0xbd16618e	-0.03671413
254	0x3e31d569	0.17366566
255	0x3de35f0e	0.111021146

gnn.gnn_layers.0.gat_conv.fc.weight f4 [384, 74]
0	0x3dbabedb	0.09118434
1	0xbd08ffcd	-0.033447076
2	0xbd848f1e	-0.0647261
3	0x3cc7146c	0.02430173
4	0x3c7f5b9e	0.015585808
5	0x340c1cf0	1.3049043e-07
6	0xbc91f6ce	-0.017817881
7	0xbc2c209e	-0.010505823
8	0xbbf79d6b	-0.0075566075
9	0xad1d2109	-8.931752e-12
10	0xba1fa385	-0.0006089735
11	0xbc02ddb2	-0.007987427
12	0x36453834	2.9388002e-06
13	0x358f881a	1.0693941e-06
14	0xb95a328f	-0.00020808935
15	0xba7c2fdd	-0.00096201693
16	0xb035d2e4	-6.614711e-10
17	0xbb52b31f	-0.0032150222
18	0xb9e5ee02	-0.00043855613
19	0xb380e183	-6.001485e-08
20	0x383f1496	4.555712e-05
21	0xae43c791	-4.4515117e-11
22	0xb003833c	-4.784402e-10
23	0xb992bc09	-0.00027987387
24	0xb43272d0	-1.661931e-07
25	0x34bd29a6	3.5234297e-07
26	0x32e10343	2.619493e-08
27	0xb691c2f2	-4.3440314e-06
28	0x3969f107	0.00022310401
29	0x344acf0a	1.8888036e-07
30	0xb8058919	-3.1837353e-05
31	0xadb4f5c8	-2.057278e-11
32	0x34f8d950	4.6351715e-07
33	0xb359fddd	-5.0755137e-08
34	0x3a8f1634	0.0010916651
35	0xba8673a4	-0.0010257852
36	0xaf1a4b1c	-1.4032903e-10
37	0x2b9627d4	1.0669196e-12
38	0x39d2fffd	0.00040245047
39	0xab973930	-1.0745068e-12
40	0xb84ac096	-4.8339913e-05
41	0xb8b2dfcf	-8.529389e-05
42	0x3b1f65ce	0.0024322155
43	0xba8df12e	-0.0010829323
44	0x3d0629c0	0.03275466
45	0xbe004c9f	-0.12529229
46	0xbd123bf0	-0.035701692
47	0x3e0f773a	0.14010325
48	0x3679e9f4	3.724007e-06
49	0xac2923b4	-2.4036164e-12
50	0x36f12461	7.1865948e-06
51	0x2df2d2c3	2.7605812e-11
52	0xb17bb3e8	-3.6627572e-09
53	0xb9ebafc4	-0.00044953648
54	0x3e49d16e	0.19708797
55	0xbdb6b0f0	-0.08920467
56	0x3bc6560d	0.0060527385
57	0xbd8d7b47	-0.06908279
58	0x34942dfc	2.7600606e-07
59	0x36df5bdd	6.656612e-06
60	0xb02811d8	-6.11434e-10
61	0x3c9fd0d9	0.019508766
62	0xb53e157a	-7.081177e-07
63	0x3ddf9c24	0.10918453
64	0xbe089f29	-0.13341965
65	0xbda17bde	-0.07884954
66	0x2f1d4999	1.4305214e-10
67	0xb5894607	-1.0227676e-06
68	0x3e63c906	0.22244653
69	0x3de5c7e5	0.112197675
70	0xbdf6aed0	-0.120450616
71	0xbd5e869d	-0.054327596
72	0xbd04ad0c	-0.032391593
73	0xb4af95b9	-3.2705228e-07
74	0x3e879c9f	0.2648668
75	0xbe31872c	-0.1733672
76	0xbca1b448	-0.019739285
77	0xbd1abc17	-0.037777033
78	0x3cd6863b	0.026187053
79	0xb7123d02	-8.716483e-06
80	0x3d173bbc	0.0369222
81	0xbcce26d9	-0.025165008
82	0xbbc12af2	-0.005895012
83	0x36afaa67	5.235244e-06
84	0x3abac6fb	0.0014249975
85	0xbc41a6f4	-0.01181959
86	0xac4395d6	-2.7794342e-12
87	0x2e9043ad	6.5603835e-11
88	0x36b8ce61	5.507653e-06
89	0xbaf85827	-0.001894717
90	0x2fe392bd	4.1395323e-10
91	0xb23ce46e	-1.0994979e-08
92	0x321402d2	8.615375e-09
93	0x2f8578c4	2.4278368e-10
94	0xb8bd226f	-9.018636e-05
95	0xaf17af16	-1.3795573e-10
96	0x2ede7ae6	1.0117222e-10
97	0x36adbba2	5.177645e-06
98	0x342dbb27	1.6179966e-07
99	0xb531fb30	-6.6303164e-07
100	0xb9bf05f6	-0.000364348
101	0xb6c689d5	-5.9169056e-06
102	0x2fca051b	3.6747214e-10
103	0x2c668f74	3.2764598e-12
104	0xb790697e	-1.7215261e-05
105	0x32f0ad93	2.801861e-08
106	0xb265bdb8	-1.3372691e-08
107	0xafe47e56	-4.1562725e-10
108	0xae29503e	-3.849742e-11
109	0x399ad73d	0.00029533534
110	0xb5821ff6	-9.695057e-07
111	0x2dce736e	2.347075e-11
112	0xba332d20	-0.0006835032
113	0xb02b4430	-6.230634e-10
114	0xaff6bac0	-4.4879833e-10
115	0xada68d18	-1.8934673e-11
116	0x36105b4d	2.1510816e-06
117	0x360d4f15	2.105667e-06
118	0x3dfdfadf	0.124013655
119	0xbdaf8087	-0.085694365
120	0xbdceaa37	-0.1009106
121	0x3ecb771b	0.39739308
122	0x30241c8a	5.970341e-10
123	0x335180d8	4.8778787e-08
124	0x2eb875fb	8.388309e-11
125	0xb313fdd4	-3.445696e-08
126	0xae0bf3a5	-3.182134e-11
127	0x2e902e83	6.556624e-11
128	0x3eced37d	0.40395728
129	0xbe6540a8	-0.22387946
130	0x3e427555	0.18990071
131	0xbdfbdf61	-0.122984655
132	0x2e1fcfdc	3.633703e-11
133	0x2d236860	9.288653e-12
134	0x2f3cad3f	1.716005e-10
135	0xbd2759f7	-0.04085728
136	0x344881cb	1.867367e-07
137	0x3e23896e	0.15970394
138	0xbe9c1689	-0.30485943
139	0x3d9b11df	0.07571768
140	0x31ecd6ef	6.892939e-09
141	0xba645a27	-0.00087109435
142	0x3e91b347	0.2845709
143	0x3e904989	0.28181103
144	0xbe2bd6c8	-0.16781151
145	0xbc6988bc	-0.014253791
146	0xbdd18751	-0.10230888
147	0x2f87e491	2.4718763e-10
148	0xbeb2c621	-0.34916785
149	0x3da1da2b	0.0790294
150	0xbd9a8bd4	-0.07546201
151	0x3cdee2c3	0.027207738
152	0xbc16e431	-0.0092096785
153	0xaf980b48	-2.7656655e-10
154	0x3d0e39d4	0.034723118
155	0x3d00effb	0.031478863
156	0xbaddf201	-0.0016933085
157	0xb0e6cc23	-1.6792722e-09
158	0xb1b2e898	-5.2069247e-09
159	0x2ef2a013	1.1033321e-10
160	0xb9d80d0b	-0.00041208448
161	0x309a7f1e	1.1241104e-09
162	0xb1083a22	-1.982365e-09
163	0x3a329dcb	0.0006813674
164	0xb00a26bb	-5.0259147e-10
165	0xb6c7654c	-5.9424547e-06
166	0xb6b1e7b8	-5.3019867e-06
167	0x30b0130a	1.2811097e-09
168	0x35aea244	1.3011236e-06
169	0xb8baaa6e	-8.900916e-05
170	0xb0b294a6	-1.2993453e-09
171	0xb75956c4	-1.295441e-05
172	0x2b4655d5	7.0462847e-13
173	0xb26aa3d8	-1.3657846e-08
174	0x2eac7d04	7.843862e-11
175	0xb220b054	-9.353318e-09
176	0xb09e8ca9	-1.1535991e-09
177	0xab805158	-9.117524e-13
178	0x3a92db0c	0.0011204197
179	0x36d274e3	6.272095e-06
180	0xb3ca67ee	-9.425263e-08
181	0x33b66a98	8.494425e-08
182	0x33d16a19	9.75162e-08
183	0xbb965322	-0.004587547
184	0xb22d5a17	-1.0090409e-08
185	0xbaadf7a2	-0.0013272653
186	0x3a9f5363	0.0012155588
187	0xb508e7b7	-5.100114e-07
188	0x24bf8f7f	8.307614e-17
189	0x362488c1	2.4517506e-06
190	0x2e4201f2	4.411222e-11
191	0x2ce6aec8	6.556398e-12
192	0xbe157c5a	-0.14598218
193	0x3d20c3ad	0.03924911
194	0x3d552fdf	0.052047607
195	0xbd1c9601	-0.038228992
196	0x3470f70a	2.2441614e-07
197	0x3256ab57	1.2495398e-08
198	0x3973f075	0.00023263863
199	0xb02d6c30	-6.3090777e-10
200	0xb788387a	-1.6238762e-05
201	0xad9a4ecb	-1.7542764e-11
202	0xbe923a3e	-0.2856006
203	0x3da5d9b3	0.080981635
204	0xbe0f7933	-0.14011078
205	0x3d65949b	0.056049924
206	0x32823135	1.5156369e-08
207	0x2f395cad	1.6858577e-10
208	0x328452d8	1.5404495e-08
209	0xbd11ff53	-0.035643887
210	0x35dfd31f	1.6676239e-06
211	0xbdce1bcc	-0.100638956
212	0x3e135bbe	0.14390466
213	0xbdc65d9a	-0.09685822
214	0xb78b154e	-1.6580012e-05
215	0x3659d268	3.2457992e-06
216	0xbe7c00a8	-0.24609625
217	0xbe50c67a	-0.20388213
218	0x3d81660e	0.063182935
219	0xbd506cfb	-0.050885182
220	0x3d8be774	0.068312556
221	0x2e855767	6.0636655e-11
222	0xbd306d29	-0.043072853
223	0x3c768969	0.01504741
224	0xbd655ff3	-0.055999707
225	0x3cbc260a	0.022967357
226	0xbc0134db	-0.007886137
227	0x33d2e105	9.819818e-08
228	0xbc165f6d	-0.009178025
229	0x3b2b6378	0.0026151817
230	0xba170b95	-0.0005761919
231	0x348fdfd1	2.6798674e-07
232	0xafa65890	-3.0258152e-10
233	0xad28d099	-9.596012e-12
234	0xba8342dd	-0.0010014434
235	0x38b9d8f4	8.861898e-05
236	0x308c0eb3	1.0190518e-09
237	0x3b0fbd56	0.0021932921
238	0xac6c3073	-3.3564512e-12
239	0x2ff6997b	4.4856194e-10
240	0x31d97131	6.3283996e-09
241	0xbb1cbc22	-0.0023915847
242	0xaefaa0dc	-1.1397258e-10
243	0xb79e8742	-1.8898052e-05
244	0xba3f83bc	-0.0007305702
245	0x27ac9825	4.7904545e-15
246	0x374deff0	1.2274817e-05
247	0x2bfab04b	1.78125e-12
248	0xb82a4602	-4.059636e-05
249	0x33f4b70d	1.1395432e-07
250	0xb825a358	-3.949119e-05
251	0xb47491a9	-2.2777262e-07
252	0x398fcdb6	0.00027428352
253	0x2eb07a28	8.025253e-11
254	0x32d77ba3	2.5085518e-08
255	0xb44d1dbf	-1.9102934e-07

readout.weight_and_sum.atom_weighting.0.weight f4 [1, 64]
0	0x3ec4e44c	0.38455427
1	0x3f5292df	0.8225536
2	0xbf43c6df	-0.7647533
3	0xbe539494	-0.20662147
4	0xbda9d6cd	-0.08292923
5	0xbf28b62c	-0.6590297
6	0x3ddc78c0	0.10765219
7	0x3e300fbe	0.17193505
8	0x3ee42111	0.44556478
9	0x3ec97e7d	0.39354315
10	0xbf53032d	-0.8242672
11	0x3e6b897b	0.23001663
12	0xbe04ba7b	-0.12961762
13	0x3cd95153	0.026528036
14	0x3d77b546	0.06047561
15	0x3dd1ecf5	0.10250274
16	0x3f1bc060	0.60840416
17	0x3ef7ac68	0.48373723
18	0x3ebeedeb	0.37290892
19	0x3f0116a6	0.50425184
20	0x3f3e49eb	0.7433154
21	0x3e9db255	0.3080012
22	0xbecf19f1	-0.4044948
23	0xbe807351	-0.2508798
24	0xbf88bedb	-1.0683244
25	0x3c79d138	0.015247636
26	0x3edebe3a	0.43504506
27	0x3edf1f83	0.4357873
28	0x3edd94b2	0.43277508
29	0x3f1762aa	0.59134924
30	0x3f358802	0.70910656
31	0xbe5ebcc8	-0.21751702
32	0xbcb852cc	-0.022500418
33	0x3e484478	0.19557369
34	0x3ea47231	0.3211837
35	0x3f8a388a	1.0798504
36	0x3e119546	0.142171
37	0xbdb620c9	-0.08892972
38	0xbebb9598	-0.36637568
39	0xbe539512	-0.20662335
40	0x3dd10a88	0.10207087
41	0x3e8a5ea5	0.27025333
42	0xbf541026	-0.8283714
43	0xbbf3864f	-0.0074317823
44	0x3e7da1cc	0.24768752
45	0xbee46a05	-0.44612136
46	0xbe4a1b91	-0.19737078
47	0xbf3594c5	-0.7093013
48	0xbb78fd63	-0.0037992827
49	0xbe829275	-0.25502363
50	0x3e3a6889	0.1820394
51	0x3eeb0db0	0.4590888
52	0xbe74c964	-0.2390495
53	0xbec9334e	-0.39296955
54	0x3ef0be71	0.47020295
55	0x3ebc4d16	0.36777562
56	0xbedac072	-0.4272495
57	0x3f58fc5a	0.8476006
58	0x3d17a97d	0.03702687
59	0xbed34602	-0.4126435
60	0x3f932916	1.1496913
61	0xbefaf323	-0.49013624
62	0x3ec94e37	0.39317486
63	0x3d62262a	0.055212177

predict.predict.1.weight f4 [64, 128]
0	0xbe4e7003	-0.20159917
1	0xbf4aeb11	-0.7926493
2	0x3ed004a4	0.4062854
3	0x3d93d98f	0.072192304
4	0x3eb585f9	0.35453776
5	0x3f99c18c	1.2012191
6	0x3f39cd4c	0.72578883
7	0xbe7a9d6a	-0.24474111
8	0xbf4e934b	-0.806935
9	0x3f051c7e	0.519966
10	0x3f2f8c64	0.68573594
11	0x3f86afc8	1.0522394
12	0x3e9deeb1	0.3084617
13	0x3f816e04	1.0111699
14	0xbf8fba2b	-1.1228689
15	0x3f4891c1	0.783474
16	0x3f4279ce	0.7596711
17	0xbf13add9	-0.57687145
18	0xbca50ce5	-0.02014775
19	0xbea3edac	-0.32017267
20	0x3e91a050	0.2844262
21	0x3f2c7807	0.6737065
22	0x3fc3cad8	1.5296278
23	0xbe43d0a6	-0.19122562
24	0xbf9e8ca7	-1.2386674
25	0x3e18e1ca	0.14929882
26	0xbe241117	-0.16022144
27	0xbecee7f4	-0.4041134
28	0x3f3fc0f2	0.74903786
29	0x3cb14ea3	0.021643942
30	0xbe08f3ca	-0.13374248
31	0xbf8a7659	-1.0817367
32	0xbf62cd84	-0.8859484
33	0xbf242e51	-0.64133173
34	0xbf424276	-0.7588266
35	0xbebbcb4e	-0.36678547
36	0xbea8b1b0	-0.32948065
37	0x3e855ffe	0.260498
38	0xbf5ae1ea	-0.8550097
39	0xbeed4590	-0.46342134
40	0x3f2a5a9d	0.66544515
41	0x3f9b4003	1.212891
42	0xbf3e9bfd	-0.7445677
43	0x3e45568b	0.19271295
44	0xbf951511	-1.1647054
45	0xbf28590a	-0.6576086
46	0x3dca69cc	0.098834604
47	0xbe93264a	-0.2874015
48	0xbfade4ad	-1.3585411
49	0xbd8f1ea7	-0.06988268
50	0xbfc4233f	-1.5323256
51	0xbf8a4dc8	-1.0804987
52	0xbe050292	-0.12989262
53	0x3fee82f4	1.8633714
54	0x3f0c396b	0.5477511
55	0x3f0161a8	0.50539637
56	0x4002838d	2.0392792
57	0x3ee39218	0.44447398
58	0x3ed5205e	0.41626257
59	0x3f2ae757	0.66759247
60	0x3f41335c	0.75468993
61	0xbe9e1ebf	-0.30882832
62	0x3f593ed4	0.84861493
63	0x3fe6e796	1.8039424
64	0xbd43a486	-0.047764324
65	0x3d5e920f	0.05433851
66	0x3e4541f1	0.19263436
67	0x3c4ad8e2	0.01238081
68	0xbdab6d97	-0.08370512
69	0xbd80baa8	-0.06285602
70	0x3e81a8e0	0.25324154
71	0xbc95c650	-0.01828304
72	0xbd838cea	-0.064233616
73	0x3e1f2d85	0.15544708
74	0xbe13e9f6	-0.14444718
75	0x3b82dac6	0.003993365
76	0xbcbe4c37	-0.023229701
77	0x3c35e59e	0.011102108
78	0xbd33a457	-0.0438579
79	0xbb7aca91	-0.0038267712
80	0xbd8af5d6	-0.06785171
81	0xbe50cf22	-0.20391515
82	0xbd821cc8	-0.06353146
83	0xbe106e4d	-0.14104576
84	0x3bb47b60	0.0055078715
85	0xbcfeef1a	-0.031119872
86	0xbcfb5dfb	-0.030684462
87	0x3c55198c	0.013006579
88	0xbdb7ee94	-0.08981052
89	0x3b923029	0.0044613075
90	0xbc7c0ff5	-0.015384664
91	0x3d99d6e4	0.0751169
92	0xbd29eb28	-0.041484028
93	0x3da59c96	0.08086507
94	0xbcefb3fc	-0.029260628
95	0xbd1eb937	-0.038750853
96	0xbc6c3c83	-0.014418724
97	0xbd8fe577	-0.07026189
98	0xbe294148	-0.16528809
99	0xbe029262	-0.12751153
100	0xbdd57df3	-0.104244135
101	0x3c94d881	0.018169643
102	0xbefcb3c4	-0.493559
103	0x3ad30796	0.0016100283
104	0x3a2d9002	0.0006620885
105	0xbb87c49a	-0.00414331
106	0xbce26c84	-0.027639635
107	0x3d1dd0a4	0.038529053
108	0xbd3b705d	-0.045761455
109	0x3d443b41	0.04790807
110	0x3e8a80f1	0.270515
111	0x3d5bf8ed	0.05370419
112	0xbcdcdb00	-0.026959896
113	0x3d18ce32	0.03730602
114	0x3d54a5cd	0.051915932
115	0xbd54e522	-0.05197633
116	0xbd436adf	-0.047709342
117	0x3c82a1a7	0.015946222
118	0x3cd1f289	0.025628345
119	0x3c2f970e	0.010717167
120	0x3bfeb745	0.0077733123
121	0x3d8c2f12	0.068449154
122	0x3c1b2b1c	0.009470727
123	0xbcc8796c	-0.024471961
124	0x3db1dfd0	0.08685267
125	0xbdb8ead4	-0.09029165
126	0xbdfeb5ab	-0.12436994
127	0xbc8a0b94	-0.016851224
128	0xb8fa608b	-0.000119389115
129	0xbbb356f3	-0.0054730116
130	0x3ac60e3d	0.0015110445
131	0xb996c559	-0.00028757265
132	0xbab1e4d0	-0.001357222
133	0x3b804c48	0.0039153434
134	0xbc932431	-0.017961593
135	0x3b4082a9	0.0029374755
136	0xb925ca13	-0.00015810905
137	0x3bddb85c	0.006766362
138	0x3b0fd34b	0.0021946009
139	0x39e20a97	0.0004311397
140	0xb8243599	-3.9150564e-05
141	0xb811f10e	-3.4795194e-05
142	0xbac4ba35	-0.0015009107
143	0xb98e3fea	-0.0002713197
144	0xbb0f994f	-0.0021911447
145	0xbc504a16	-0.012712976
146	0x3a2d570f	0.0006612399
147	0xbc0845d4	-0.00831743
148	0xbba43be8	-0.005012024
149	0x3b7e7ece	0.0038832906
150	0x3b00014d	0.0019532025
151	0xb942c9d8	-0.00018576474
152	0xbbbd3936	-0.0057746423
153	0x36b15abb	5.2855735e-06
154	0xba185bbd	-0.000581201
155	0xb9a9e56e	-0.0003240513
156	0x397e2cb4	0.00024239981
157	0xbb815dd7	-0.003947954
158	0xbba5d40a	-0.0050606774
159	0x3b9845cc	0.0046469923
160	0xb9f117a0	-0.00045984704
161	0xbb1d7b90	-0.0024029948
162	0xbba61ac7	-0.00506911
163	0xbb8da3d8	-0.00432251
164	0xba19d233	-0.0005867809
165	0xb88e287f	-6.7786306e-05
166	0xbbdcea13	-0.006741771
167	0xb97c07f9	-0.00024035563
168	0x3a9b65ae	0.0011855864
169	0x3a946a2c	0.0011323146
170	0x3bca76f9	0.0061787334
171	0x3913a389	0.00014079934
172	0x39649c5e	0.00021802026
173	0x3c66dfed	0.014091474
174	0xbb289792	-0.0025725109
175	0xb923d03b	-0.00015622463
176	0xbb64ca75	-0.0034910713
177	0x3869fa71	5.578477e-05
178	0xbaef694b	-0.0018265633
179	0xbac8a635	-0.0015308323
180	0xb997cb74	-0.0002895255
181	0x3af0626f	0.0018339882
182	0x3917dc48	0.00014482543
183	0x3b17529c	0.002309001
184	0x3b21a8e8	0.0024667326
185	0x3a7c75c3	0.0009630585
186	0x3b50d78d	0.003186676
187	0x3a00c45c	0.00049120723
188	0x3a79c01d	0.00095272233
189	0xbb5388b0	-0.0032277517
190	0xbba6a8e6	-0.005086052
191	0xbb11935d	-0.002221308
192	0x3943558a	0.00018628515
193	0xb953ab36	-0.00020186309
194	0xbaa01d7a	-0.0012215816
195	0xb8c8b2d3	-9.570052e-05
196	0xb993b3e3	-0.0002817205
197	0xb9fe8064	-0.00048542314
198	0x39f8e6a9	0.000474741
199	0x38a54f97	7.882638e-05
200	0xb6e9148c	-6.946333e-06
201	0xb91008fe	-0.0001373626
202	0xbb6d7f94	-0.0036239373
203	0x385eb20d	5.3094747e-05
204	0x38c1eeeb	9.247459e-05
205	0x39b5163d	0.0003453958
206	0xbb005a0d	-0.0019584924
207	0xb78b2cee	-1.6591013e-05
208	0x39c3901d	0.0003730067
209	0x397fcda4	0.00024395302
210	0x3951a8d8	0.00019994692
211	0x39841927	0.00025195742
212	0xb9897f54	-0.00026225543
213	0xb921b33b	-0.00015420925
214	0x3984f633	0.00025360435
215	0x381a5389	3.679426e-05
216	0xb780f421	-1.537247e-05
217	0x37ee668e	2.8419567e-05
218	0xb948c5e1	-0.00019147202
219	0x381f9d68	3.805515e-05
220	0xba6e82a4	-0.00090984465
221	0xb94de7b9	-0.00019636647
222	0x36b701d4	5.454038e-06
223	0x3a4bfafa	0.0007781234
224	0x38da9f47	0.00010424718
225	0x39347f32	0.00017213522
226	0xba5fbe2f	-0.00085351145
227	0xb76853d8	-1.3847799e-05
228	0xb85fcfd3	-5.3360895e-05
229	0xba8d8444	-0.0010796865
230	0xbb215da4	-0.0024622465
231	0x38ae2634	8.3040824e-05
232	0xb79cb207	-1.867955e-05
233	0x38b8137e	8.7774344e-05
234	0x39896619	0.00026206745
235	0x384792bd	4.7581958e-05
236	0xba7895a1	-0.00094827457
237	0x37b5fb42	2.1693882e-05
238	0x3a93085e	0.0011217704
239	0xbb323869	-0.0027194268
240	0xbb8691ad	-0.0041067214
241	0xba62212d	-0.00086261594
242	0xbbcb99ab	-0.006213387
243	0x3994dc89	0.0002839307
244	0xbabe8aab	-0.0014537176
245	0xb72f40ed	-1.044593e-05
246	0xb7512e3b	-1.2468135e-05
247	0xb8bb2f8b	-8.9257104e-05
248	0x38a2e8eb	7.768146e-05
249	0xb7b7d56c	-2.1914682e-05
250	0x3a00002e	0.0004882839
251	0xba52b5db	-0.0008037963
252	0xbb0399c8	-0.0020080674
253	0xbb3a7b44	-0.002845482
254	0xbb457021	-0.0030126648
255	0xba1f42db	-0.0006075331

predict.predict.1.bias f4 [64]
0	0xbd577a08	-0.052606612
1	0xbaa62060	-0.0012674443
2	0xb9d1de10	-0.00040029036
3	0x3809bf1b	3.2841326e-05
4	0x3a991003	0.0011677745
5	0xbcfde131	-0.030991169
6	0x3a6c3126	0.0009010009
7	0xbceb7ab5	-0.028745035
8	0x39c817ff	0.0003816485
9	0xb68ea916	-4.251614e-06
10	0x3ad01f90	0.0015878547
11	0x39b487ff	0.000344336
12	0x37d0ad2f	2.4876177e-05
13	0x33211768	3.750702e-08
14	0x334a2f5c	4.7074863e-08
15	0x361048bb	2.1500007e-06
16	0xbc4e14a1	-0.0125781605
17	0xbb4d52f2	-0.0031329957
18	0x39d07632	0.00039760914
19	0xb733e0ba	-1.0721555e-05
20	0xb9a13d77	-0.00030754108
21	0x39bbc8b7	0.00035816964
22	0x39aca455	0.00032928833
23	0xb951df59	-0.00020014997
24	0x3c4f5fb4	0.012657095
25	0x398765ba	0.00025825
26	0x3937b1ea	0.00017518518
27	0x390785f9	0.00012924512
28	0x3b0ef746	0.0021814867
29	0x3977dadf	0.00023637291
30	0xb96f1ae0	-0.00022802828
31	0xb79d4ffc	-1.8753104e-05
32	0xba8a0633	-0.0010530412
33	0x3a024145	0.00049688324
34	0xbb59854b	-0.003319102
35	0x3b762533	0.0037558794
36	0xbc9b9cc7	-0.018995656
37	0xa1d69ca9	-1.4542672e-18
38	0x39f3e755	0.00046520928
39	0x38af1908	8.349313e-05
40	0x3b52e3b0	0.003217917
41	0xbc1c7a6d	-0.009550673
42	0x3a56f285	0.00081995904
43	0xb2977cc9	-1.763546e-08
44	0x39fbc9b7	0.0004802474
45	0x3862a265	5.403384e-05
46	0xaf8df022	-2.5818375e-10
47	0xbaa83dde	-0.0012835821
48	0x399cdb14	0.00029917865
49	0xbbaab4e2	-0.005209551
50	0xbb4b4620	-0.003101714
51	0x3bd78130	0.0065766796
52	0xb9d7b687	-0.0004114399
53	0xba1e43eb	-0.0006037342
54	0xb9aef6bc	-0.00033371698
55	0x3c0aa4c6	0.008462137
56	0xbc2c831e	-0.010529308
57	0x3cec5920	0.028851092
58	0x9b5e462b	-1.8386082e-22
59	0x3a316498	0.0006767004
60	0x3bc367a2	0.0059632817
61	0x3c006daf	0.007838651
62	0x38b793bd	8.7536384e-05
63	0x391a5d7e	0.00014721413

predict.predict.3.weight f4 [64]
0	0xbee46c1d	-0.44613734
1	0xbba3534e	-0.004984296
2	0xbe4d4cbe	-0.20048806
3	0x392fac46	0.00016753477
4	0xbd9956ee	-0.07487284
5	0xbd2c8aa0	-0.04212439
6	0xbe158c91	-0.14604403
7	0xbd121e34	-0.035673335
8	0xbb148127	-0.0022659989
9	0x3b2e8d55	0.0026634533
10	0x3dc5bf4d	0.09655628
11	0x3f79500a	0.97387755
12	0xbc2008c5	-0.009767716
13	0x399f5faa	0.00030398119
14	0xb84b444b	-4.8462574e-05
15	0x39872c7c	0.0002578235
16	0x3e933994	0.28754866
17	0xbdf16168	-0.11786157
18	0x3b39594c	0.0028281985
19	0x39915f36	0.00027727493
20	0x3cb5f1a5	0.022209952
21	0xbe01048a	-0.12599388
22	0xbb090ad3	-0.0020910993
23	0xbc5e51cc	-0.013569307
24	0xbdb876b3	-0.09007015
25	0x3cb5995f	0.02216786
26	0xbaca9578	-0.0015455922
27	0x3ca965c3	0.020678407
28	0x3f783fb0	0.9697218
29	0x3914edab	0.00014202918
30	0x3a04aacc	0.0005060851
31	0xba5a418d	-0.0008325808
32	0xbad87c04	-0.0016516452
33	0xbcc924eb	-0.024553737
34	0xbf4ce873	-0.8004219
35	0x3d9506b5	0.0727667
36	0x3ac0d55c	0.0014712024
37	0xb5175a9d	-5.6383743e-07
38	0xbba31388	-0.0049766935
39	0x3c89e0f3	0.016830897
40	0xbd3741e5	-0.044740576
41	0x3c7b8259	0.0153509015
42	0xbe709915	-0.23495896
43	0x34922d00	2.722736e-07
44	0x3c0d4607	0.008622653
45	0x3de77307	0.113012366
46	0xb7158d4f	-8.913993e-06
47	0xb8271704	-3.9837338e-05
48	0xb9340dd6	-0.00017171292
49	0xbc3ba4b1	-0.01145284
50	0xbcee8bfe	-0.029119488
51	0x3e9e5e70	0.30931425
52	0x3cc73e7d	0.024321789
53	0x3f08cd5c	0.53438354
54	0x3d332824	0.043739453
55	0xbd10af70	-0.03532356
56	0x3c9cb637	0.019129856
57	0x3e0de5f2	0.13857248
58	0x33b0cd9c	8.233039e-08
59	0x3e8f913b	0.2804049
60	0x3dd0de87	0.10198694
61	0x3dfb73dc	0.12277958
62	0x3ce8183e	0.028331872
63	0xbe0aecb4	-0.13566858

predict.predict.3.bias f4 [64]
0	0xbd9bcdba	-0.076075986
1	0xba128b31	-0.0005590199
2	0xbd0a58e7	-0.03377619
3	0xbaf41e1f	-0.00186247
4	0x3c796fee	0.01522444
5	0x3c80fe76	0.015746336
6	0x3d92d071	0.07168663
7	0x3c2c27c2	0.010507526
8	0xbacb706d	-0.0015521176
9	0x3a9801c2	0.0011597204
10	0xbdae26c9	-0.085034914
11	0xbf233d15	-0.6376508
12	0x39a91aeb	0.00032254247
13	0xb8ed59c4	-0.00011317761
14	0xb611721f	-2.167311e-06
15	0x3a146822	0.0005661269
16	0x396d24ba	0.00022615763
17	0x3db84a0f	0.089985006
18	0xbb441403	-0.0029919154
19	0x395a3e23	0.00020813248
20	0x3d3ecb4f	0.04658061
21	0x3d4cac94	0.04996927
22	0x38f5db01	0.00011723303
23	0xbb81fabd	-0.003966658
24	0xbd1a27eb	-0.037635725
25	0xbbba54bb	-0.00568637
26	0xb960a5e2	-0.00021424101
27	0x3b0af231	0.0021201486
28	0xbebf3437	-0.37344524
29	0xbb8f5abd	-0.0043748305
30	0xbc02f327	-0.007992542
31	0xb9b518ed	-0.0003454158
32	0xbb0eb2d7	-0.0021774077
33	0xbb5f8715	-0.0034107615
34	0xbd2d39a9	-0.042291317
35	0xb8f0d39a	-0.00011483506
36	0x3b44e266	0.003004217
37	0xa5d2af8a	-3.6548143e-16
38	0xbbc9b26b	-0.0061553023
39	0xbb06fbf8	-0.0020596962
40	0x3d04014e	0.032227807
41	0x3cc00192	0.023438249
42	0x3df91e34	0.12163964
43	0x372c2476	1.0260488e-05
44	0x3d1b82e0	0.03796661
45	0xbcabd7b8	-0.020976886
46	0xb1a1b80a	-4.7066395e-09
47	0xbc4b1b24	-0.012396608
48	0x39675e1e	0.00022064938
49	0x3b358a0c	0.002770069
50	0xbd8903ce	-0.06690179
51	0x3ddb9728	0.1072219
52	0xbbc5922e	-0.006029389
53	0x3ac6a3dd	0.0015155036
54	0x3c02361e	0.007947473
55	0x3ccc5590	0.024943143
56	0x3c0c5a57	0.008566461
57	0xbd8fe59a	-0.07026215
58	0xa082466d	-2.206946e-19
59	0xbc9d5933	-0.019207573
60	0xbb129267	-0.0022365095
61	0xbd31cea4	-0.04340996
62	0x3c2a4d57	0.010394416
63	0x3db1b6d9	0.086774535

predict.predict.3.running_mean f4 [64]
0	0x410d16dd	8.818082
1	0x3ca58f18	0.020209834
2	0x42e6c13d	115.37742
3	0x403eab55	2.9792073
4	0x4048fda8	3.140482
5	0x416430c6	14.261908
6	0x42736776	60.851036
7	0x3dbef265	0.09323577
8	0x40ba2f32	5.818261
9	0x40580bda	3.3757234
10	0x42c0b6c4	96.356964
11	0x4373dc01	243.85939
12	0x40163855	2.3471882
13	0x41310dae	11.06584
14	0x35de34aa	1.6555616e-06
15	0x3ec3a685	0.38212982
16	0x3a54eeea	0.0008122759
17	0x3a7a8237	0.00095561467
18	0x3f31fefa	0.6952969
19	0x3de2f10b	0.110811315
20	0x41d8f02d	27.117273
21	0x4287a431	67.82069
22	0x3f3f33c3	0.7468836
23	0x408b1632	4.3464594
24	0x3b7f680d	0.0038971931
25	0x40444f94	3.067357
26	0x3fad9245	1.3560263
27	0x3ff20430	1.8907528
28	0x4396a00e	301.25043
29	0x3ff5ed98	1.9213133
30	0x3cfbbd2d	0.030729854
31	0x37f1debc	2.8833158e-05
32	0x405ec945	3.4810345
33	0x413753e6	11.457983
34	0x3a86aa7c	0.0010274197
35	0x400734a3	2.1125877
36	0x3edf1bca	0.4357589
37	0x2818dffa	8.486262e-15
38	0x418c1ffc	17.515617
39	0x3d109b4f	0.035304364
40	0x423bd586	46.95852
41	0x3f9780ff	1.1836241
42	0x42ea8a17	117.26971
43	0x38a79499	7.990859e-05
44	0x415653bb	13.395442
45	0x3abe10c3	0.0014500845
46	0x3159450f	3.1616911e-09
47	0x39bf990c	0.00036544388
48	0x3cd00821	0.025394501
49	0x38e9dc09	0.000111512905
50	0x41942e7f	18.522703
51	0x42988b63	76.27224
52	0x3df3912e	0.11892925
53	0x374ef859	1.233638e-05
54	0x3ada6a22	0.001666371
55	0x429b6809	77.70319
56	0x3eaf6c5a	0.34262353
57	0x404605e3	3.0941093
58	0x205dbce5	1.8781928e-19
59	0x3998884d	0.0002909325
60	0x3dc1f763	0.094710134
61	0x3db60032	0.08886756
62	0x415bffed	13.749982
63	0x4297a8e7	75.82989

predict.predict.3.running_var f4 [64]
0	0x43a6c857	333.56516
1	0x3c7e78d3	0.015531736
2	0x46088b27	8738.788
3	0x4106e38e	8.430555
4	0x420d5cec	35.340744
5	0x43e9335e	466.4013
6	0x458bb7a8	4470.957
7	0x3f162c81	0.5866166
8	0x42a7c58a	83.88582
9	0x412fac8d	10.979627
10	0x46282bcb	10762.948
11	0x4708d74d	35031.3
12	0x41037a7b	8.217402
13	0x433e71b1	190.4441
14	0x30283853	6.1198085e-10
15	0x3e85c36b	0.26125655
16	0x3de1ef6b	0.110319935
17	0x3bba9cd0	0.005694963
18	0x40340d6a	2.8133187
19	0x3c87eb41	0.01659167
20	0x442e7c3e	697.9413
21	0x452e5952	2789.5825
22	0x3f0c8fbb	0.54906815
23	0x41537551	13.216142
24	0x3b84d5e4	0.004053818
25	0x411fff85	9.999883
26	0x40207fa5	2.5077908
27	0x4083e583	4.1217666
28	0x474a8456	51844.336
29	0x410de4e5	8.868382
30	0x3e055eae	0.13024399
31	0x36749048	3.6442816e-06
32	0x410578f3	8.342029
33	0x42f6c75a	123.38936
34	0x3d139be0	0.036037326
35	0x4179d4d1	15.614457
36	0x3f96caa7	1.1780595
37	0x11bbcb50	2.96287e-28
38	0x43610abd	225.04195
39	0x3de5a45c	0.1121299
40	0x44ba20a3	1489.0199
41	0x42b2dff6	89.43742
42	0x45fed1a8	8154.207
43	0x320bfc6b	8.148258e-09
44	0x432b6f84	171.43561
45	0x3cacd918	0.021099612
46	0x286e2d2d	1.322145e-14
47	0x39a4509f	0.00031340585
48	0x3ab9f634	0.0014187754
49	0x39b1d9fe	0.00033922488
50	0x4379c729	249.77797
51	0x459ac34c	4952.412
52	0x3f21703a	0.6306187
53	0x3a50fc03	0.0007972123
54	0x3cb7ec7b	0.02245163
55	0x46000016	8192.021
56	0x40231345	2.548051
57	0x434d4fdd	205.31197
58	0x019d9fe9	5.790215e-38
59	0x3b9bdf17	0.004756819
60	0x3e74dce8	0.23912394
61	0x3f9a9b9d	1.207874
62	0x433d3b35	189.23128
63	0x455933fb	3475.2488

predict.predict.4.weight f4 [1, 64]
0	0xbed3130d	-0.41225472
1	0xbb31ff95	-0.0027160395
2	0xbdc3e562	-0.09565236
3	0xbaa8d5f7	-0.0012881149
4	0xbd2b7238	-0.041856974
5	0xbdb94dee	-0.09048067
6	0xbd91bdf7	-0.07116311
7	0x3cb63c4e	0.022245552
8	0xbb1162f4	-0.0022184225
9	0x3b1a014a	0.0023499303
10	0x3dbd56af	0.09245049
11	0x3f098e7a	0.53733027
12	0xbbcb42f0	-0.006203048
13	0x393a11e7	0.00017745011
14	0xb5c03cf2	-1.4322852e-06
15	0x392ffbd6	0.00016783117
16	0xb728d34a	-1.0062775e-05
17	0xbd197bf5	-0.03747173
18	0xbad8393f	-0.0016496553
19	0x39569a56	0.00020466125
20	0x3cbbd1a1	0.022927107
21	0xbd7b1d23	-0.061307084
22	0xba9638e2	-0.0011461044
23	0xbc205486	-0.009785777
24	0xbc91b88d	-0.017788196
25	0x3c40f59c	0.011777308
26	0xbb1f9053	-0.0024347499
27	0x3c63af44	0.013896767
28	0x3f1492e1	0.5803662
29	0xbab5e425	-0.0013877196
30	0xbbf8c032	-0.007591271
31	0xb986ce83	-0.00025712335
32	0xb9d35a53	-0.00040312353
33	0xbc9c87eb	-0.01910778
34	0x3d4733fe	0.048633568
35	0x3d4d395c	0.05010353
36	0xbba04c37	-0.004891898
37	0xa4e9e1d3	-1.01430204e-16
38	0xbc38997c	-0.011267062
39	0xbac1a5c1	-0.001477413
40	0xbcbcd563	-0.02305097
41	0xbc2c1f23	-0.01050547
42	0xbdec20c1	-0.11529685
43	0x36fb530c	7.490051e-06
44	0x3b6149c3	0.003437624
45	0xbc5e19f1	-0.01355599
46	0x3068366b	8.447844e-10
47	0xbbbba77a	-0.005726752
48	0x39649d0f	0.00021802283
49	0x3ba61462	0.005068348
50	0xbd3dbae6	-0.04632082
51	0x3e6d24d1	0.23158576
52	0xbc7b5108	-0.015339144
53	0xb8b835a8	-8.783798e-05
54	0x3bb781c5	0.0056001865
55	0xbd04bcd1	-0.03240663
56	0x3cbee5ab	0.023302874
57	0xbd5bb958	-0.053643554
58	0xa05ace17	-1.8533508e-19
59	0xbc9c7d02	-0.019102577
60	0xbca9b8ef	-0.020718066
61	0xbd0d16ca	-0.03444556
62	0xbcc0ca0c	-0.023533843
63	0xbd59db2a	-0.053187527
