1-GNNs/result/6108_AR_NURA_MPNN_0920/14/model.pth (torch, 369134 bytes, 18 tensors)

gnn.project_node_feats.0.weight f4 [32, 74]
0	0xb30969d2	-3.199404e-08
1	0x230306e4	7.102983e-18
2	0xa42269ca	-3.5217757e-17
3	0xa39a2f19	-1.671666e-17
4	0xa3ceaaec	-2.2406953e-17
5	0x2ccfc519	5.905176e-12
6	0xa44e7060	-4.4764315e-17
7	0x22167706	2.0391801e-18
8	0xa429ca49	-3.6817376e-17
9	0xbc49af11	-0.0123098055
10	0x2e148132	3.3766052e-11
11	0xbcbfb46f	-0.023401467
12	0x3114c65c	2.1649589e-09
13	0xbc9fc6ad	-0.019503916
14	0x376fd41e	1.42948975e-05
15	0x24067704	2.915743e-17
16	0xb71e4a54	-9.43484e-06
17	0xbce90a07	-0.028447164
18	0x2f44c832	1.789722e-10
19	0x393e18fa	0.00018129117
20	0xb5f3fa14	-1.8177693e-06
21	0xb780026f	-1.5259922e-05
22	0xb5a1a11c	-1.2042324e-06
23	0x37e56abd	2.7348631e-05
24	0x35086f8b	5.0826264e-07
25	0x30492680	7.3178086e-10
26	0xb0ab0163	-1.2442282e-09
27	0x305705b1	7.822463e-10
28	0x3901144a	0.00012309957
29	0x308504db	9.678404e-10
30	0xb890b49e	-6.900098e-05
31	0xb788ba7c	-1.6299302e-05
32	0x2e2efdc0	3.9788395e-11
33	0xb52db59a	-6.471179e-07
34	0x359d1f48	1.1706516e-06
35	0x3308948f	3.180008e-08
36	0xb05ba440	-7.990515e-10
37	0x3792183d	1.7415843e-05
38	0xb5e8097f	-1.7288111e-06
39	0xb750f840	-1.2455566e-05
40	0xb5053748	-4.9626806e-07
41	0x3d052623	0.032507073
42	0x37868744	1.6037033e-05
43	0xb05a75dd	-7.947543e-10
44	0xa3bf575b	-2.0745258e-17
45	0xb1f55c93	-7.140963e-09
46	0x248f01c4	6.2019355e-17
47	0xa3905178	-1.5647015e-17
48	0xace1f855	-6.422455e-12
49	0x376ce179	1.4119193e-05
50	0x371c8d92	9.3312865e-06
51	0xb64ed77c	-3.082182e-06
52	0xb4a74a3e	-3.1160192e-07
53	0xb3e2d07a	-1.0561867e-07
54	0xa3230a65	-8.838449e-18
55	0xb1c4a7b3	-5.723416e-09
56	0xa3419a37	-1.0495207e-17
57	0x22d8221d	5.8583036e-18
58	0xb94bb4f7	-0.00019427003
59	0xae77e339	-5.6363112e-11
60	0xb285d7ef	-1.5581433e-08
61	0x23f45139	2.6488932e-17
62	0xb45bebee	-2.0481795e-07
63	0x233c1332	1.0195565e-17
64	0xb38f96e1	-6.686401e-08
65	0xa2d88fd8	-5.8699218e-18
66	0x2da12bbe	1.8323006e-11
67	0xb0a678a3	-1.2112377e-09
68	0xaf10581e	-1.3128029e-10
69	0xa311ad44	-7.897156e-18
70	0xb1c2afdc	-5.666136e-09
71	0xa3419a37	-1.0495207e-17
72	0x22d82016	5.858089e-18
73	0x32e59d87	2.6730744e-08
74	0xbb4ddf5f	-0.0031413657
75	0x39ae1be5	0.0003320865
76	0xba1100e5	-0.00055314443
77	0xb9edb200	-0.00045336783
78	0x3b3a317a	0.0028410838
79	0x34dd9472	4.1272466e-07
80	0xb9977b3b	-0.00028892778
81	0x3a17d1a3	0.0005791431
82	0x3a15f887	0.00057209324
83	0x3432eebd	1.6664394e-07
84	0x3883d596	6.28635e-05
85	0xbbcbf04b	-0.0062237135
86	0x2ce440bc	6.4873367e-12
87	0xb463e1e6	-2.1223204e-07
88	0x2e91b1c8	6.625417e-11
89	0x39a9f327	0.00032415355
90	0xae4210ec	-4.4125523e-11
91	0x345ab4e6	2.0368643e-07
92	0x383dcccf	4.5251854e-05
93	0x2ef236f5	1.1014648e-10
94	0x3cf763ef	0.03019902
95	0xb23b2f11	-1.0895534e-08
96	0xb09721c0	-1.0996288e-09
97	0x2edaf875	9.957627e-11
98	0x2f435d07	1.7768197e-10
99	0x322ab29c	9.935913e-09
100	0xb8285409	-4.0132585e-05
101	0xb3ead1b6	-1.093462e-07
102	0x2ccc3843	5.804275e-12
103	0xb0906f46	-1.0509005e-09
104	0xbbc0eb57	-0.0058874297
105	0xb6bfe02f	-5.718342e-06
106	0xbba521d6	-0.005039434
107	0xb1861c72	-3.903147e-09
108	0xbc00a527	-0.007851875
109	0x3c6fb432	0.014630364
110	0x3a698a35	0.0008908839
111	0x3be8cac0	0.007104248
112	0xb782eee0	-1.5608442e-05
113	0xbb8adb77	-0.004237588
114	0x2fa1d95c	2.9440173e-10
115	0xb1ed8433	-6.912637e-09
116	0xb0d22b60	-1.5291839e-09
117	0x30fad6dd	1.8250962e-09
118	0xba614e25	-0.0008594713
119	0xb8730503	-5.7940382e-05
120	0xbb99aeda	-0.0046900334
121	0xbb43891d	-0.0029836365
122	0xb5e3d0de	-1.6973606e-06
123	0xb124ff5e	-2.40103e-09
124	0x333edaf3	4.4436955e-08
125	0xb9d9666a	-0.0004146577
126	0x390cfaa4	0.00013444811
127	0xb527642e	-6.235813e-07
128	0xbbefbc72	-0.0073161656
129	0xb97a3b10	-0.0002386386
130	0xba45c10b	-0.0007543719
131	0x3925cec8	0.00015812658
132	0xb164a847	-3.3274021e-09
133	0x308cf560	1.025608e-09
134	0xb7bac699	-2.2265407e-05
135	0xb9d4db53	-0.000405992
136	0xb6e65aa4	-6.865086e-06
137	0xba1d3aa6	-0.0005997814
138	0xbb86238d	-0.0040935935
139	0xbb09dbda	-0.0021035583
140	0xb4b48a6f	-3.3628336e-07
141	0x30858400	9.71454e-10
142	0xbb092ef1	-0.002093252
143	0xbbecec02	-0.0072302828
144	0xb98ffe36	-0.00027464487
145	0xba45c10b	-0.0007543719
146	0x3925cead	0.00015812619
147	0xb20b352e	-8.1029565e-09
148	0xb56914cd	-8.6829533e-07
149	0xb6757fe6	-3.6582292e-06
150	0xb5ec81ce	-1.7621148e-06
151	0xb5319d3c	-6.6166444e-07
152	0xb64ca941	-3.0496888e-06
153	0xb02c83c9	-6.2760513e-10
154	0xb5327d93	-6.64929e-07
155	0xb5b2cacd	-1.3321056e-06
156	0xb5abb458	-1.279298e-06
157	0xb9f5a368	-0.0004685179
158	0xbcbf9264	-0.023385234
159	0x3b524c69	0.0032089
160	0x31824b12	3.7920325e-09
161	0x345e5cf0	2.0709172e-07
162	0x2fbb62cf	3.408531e-10
163	0x33bf80e7	8.917578e-08
164	0x3c21f537	0.009885124
165	0x370a1416	8.230118e-06
166	0x377865a1	1.4805614e-05
167	0xb2f8c1c6	-2.8959118e-08
168	0xb263d7a1	-1.3262167e-08
169	0x3585eab5	9.977581e-07
170	0xb6bdce31	-5.6566428e-06
171	0xb8320a09	-4.2447853e-05
172	0x308bdb75	1.0175955e-09
173	0x32e0a557	2.615222e-08
174	0x3bc7cd9e	0.0060975095
175	0x2e41bead	4.4052473e-11
176	0x30185302	5.541524e-10
177	0x3817f241	3.6226822e-05
178	0x351443a6	5.523274e-07
179	0x3ab5922c	0.0013852767
180	0xb0af42c6	-1.2751904e-09
181	0xb37d6bfa	-5.9004357e-08
182	0xb4e54a2f	-4.270855e-07
183	0xb10af674	-2.0221735e-09
184	0x39a0fea5	0.00030707303
185	0x39850d18	0.00025377492
186	0x314880d3	2.9177059e-09
187	0x2e64fbbc	5.2064783e-11
188	0x36e884ef	6.9296143e-06
189	0x34fab4f6	4.6697795e-07
190	0x391c2759	0.00014891977
191	0xb68b327e	-4.148401e-06
192	0x33fce341	1.1776002e-07
193	0xb1f183fb	-7.0290276e-09
194	0xb6cf9d5c	-6.1874e-06
195	0xb64354d6	-2.9106645e-06
196	0xba71558c	-0.0009206168
197	0xb90fd709	-0.0001371765
198	0x3a0b801d	0.00053215196
199	0xb360a57c	-5.230457e-08
200	0x2d2d1a8f	9.839809e-12
201	0x310e2f34	2.0690551e-09
202	0xb6eec541	-7.115916e-06
203	0xb5e4733a	-1.7020859e-06
204	0x35ac527b	1.2839004e-06
205	0x34a04ba8	2.985737e-07
206	0xbd0573e0	-0.03258121
207	0xb80e313f	-3.3901302e-05
208	0x39050c7b	0.00012688518
209	0xb4a0b2d0	-2.9932426e-07
210	0x3b8d5b38	0.0043138526
211	0xb4182a19	-1.4171418e-07
212	0xb676bc5c	-3.6766496e-06
213	0x351d8d31	5.869252e-07
214	0xb9592dca	-0.0002071179
215	0xae3986ad	-4.2183746e-11
216	0xb63dfb63	-2.830952e-06
217	0xb6ec39a0	-7.0400565e-06
218	0xb5f05348	-1.7905631e-06
219	0x35ac5273	1.2838995e-06
220	0x34a04ba8	2.985737e-07
221	0xaf7e0bfa	-2.310542e-10
222	0x3a60be05	0.0008573237
223	0x380e646f	3.3948974e-05
224	0xb81ec135	-3.7850074e-05
225	0x390ce70b	0.0001343751
226	0x39f40a76	0.000465471
227	0xb3aa586b	-7.932325e-08
228	0x388526b6	6.349145e-05
229	0xb86230b6	-5.3927964e-05
230	0xb9c4eb9e	-0.00037559582
231	0x304d451a	7.4676765e-10
232	0x3c3f178b	0.011663328
233	0x37e86b7c	2.7706606e-05
234	0xbc3627f2	-0.011117922
235	0x3b493114	0.003069942
236	0x2fb93f41	3.3696249e-10
237	0xb86c3702	-5.6318015e-05
238	0x3a3651ac	0.0006954919
239	0xb0582191	-7.8628043e-10
240	0xb50240df	-4.8523174e-07
241	0x34922ad9	2.7225795e-07
242	0xbb20bfcd	-0.0024528385
243	0x360fd94f	2.143515e-06
244	0xbc150ae9	-0.009096839
245	0x391e8542	0.00015117697
246	0x3aadf08a	0.0013270539
247	0xb6e59cde	-6.8429936e-06
248	0x3449833f	1.8767331e-07
249	0x2db22ead	2.0256985e-11
250	0x39040445	0.00012590092
251	0xb504cc3e	-4.9471043e-07
252	0xbb3b2344	-0.0028554955
253	0xbaf46d52	-0.0018648303
254	0xb091d0bd	-1.0609466e-09
255	0x3880d9b5	6.144067e-05

gnn.project_node_feats.0.bias f4 [32]
0	0xb32e60ff	-4.060075e-08
1	0xbb4f3d7c	-0.003162234
2	0xb6b8f51f	-5.512163e-06
3	0x3aa2ff63	0.001243573
4	0xbb852c3f	-0.0040641124
5	0xb5c94b12	-1.4997515e-06
6	0xb4e5ab4a	-4.2779203e-07
7	0x3b7c6fed	0.0038518861
8	0x3a1b4f16	0.00059245655
9	0xb916b739	-0.0001437337
10	0xba596f28	-0.00082944566
11	0x3a331fc1	0.000683304
12	0xb895a1c0	-7.135002e-05
13	0x3ba96888	0.005169932
14	0xbaf44a9a	-0.0018637956
15	0xbabb9073	-0.0014310017
16	0xbcdf818f	-0.027283458
17	0xb80d46fd	-3.3683133e-05
18	0xb8899ec1	-6.562239e-05
19	0xbb2b8b93	-0.0026175722
20	0xaf464518	-1.8032542e-10
21	0x3c256116	0.010093948
22	0x3ca1c21b	0.019745877
23	0x9aa79571	-6.9311017e-23
24	0xb725fc86	-9.893562e-06
25	0xbac7e183	-0.0015249703
26	0xbafe96ea	-0.0019423638
27	0xb97899a7	-0.00023708363
28	0xba5c1bb6	-0.0008396463
29	0xbb110b1e	-0.002213187
30	0xa83cac68	-1.0473481e-14
31	0xa719cde5	-2.134463e-15

gnn.gnn_layer.bias f4 [32]
0	0xbd8159d0	-0.063159585
1	0x3e0318b0	0.12802386
2	0x3d3ad985	0.0456176
3	0x3b3a0035	0.002838147
4	0x3d4e06af	0.050299343
5	0xbcdc2a28	-0.02687557
6	0x399c54bf	0.0002981778
7	0x3bce6e5f	0.0062997784
8	0xb63656ab	-2.717056e-06
9	0xbbfbb0f1	-0.007681005
10	0xb8af791e	-8.36721e-05
11	0x39ca7a1b	0.00038619418
12	0xbb8963b5	-0.004192794
13	0x37a61f83	1.9803416e-05
14	0xb7e36430	-2.7107162e-05
15	0x3cf8ac01	0.030355455
16	0xbb906545	-0.0044066035
17	0x3c421a18	0.011847042
18	0x3a8cfb89	0.0010756116
19	0xbd2137cf	-0.039359864
20	0xbbf9c1c5	-0.007621976
21	0xbbba0051	-0.0056763072
22	0x3b8301f0	0.0039980337
23	0xbc5d7a3e	-0.013517914
24	0xb8013789	-3.0807718e-05
25	0xbca5c122	-0.020233694
26	0xbbfc2f0d	-0.0076960386
27	0xbb68b283	-0.0035506792
28	0x3e576e2a	0.21038118
29	0x3a1f43a2	0.0006075447
30	0xbf2c702b	-0.67358655
31	0xbc821f69	-0.015884118

gnn.gnn_layer.edge_func.0.weight f4 [64, 13]
0	0xb78aa326	-1.6526854e-05
1	0x36c1ee6a	5.7796033e-06
2	0x35ddcaf2	1.6524848e-06
3	0xb7a636e3	-1.98143e-05
4	0xb75f2520	-1.330048e-05
5	0xb7ac2482	-2.0520998e-05
6	0xb7929f65	-1.747878e-05
7	0xb8a2de68	-7.766188e-05
8	0xba65f4a3	-0.00087721105
9	0xb2095216	-7.993114e-09
10	0x3246f28a	1.1580264e-08
11	0xb4537906	-1.9694934e-07
12	0xb6b87cbc	-5.4981483e-06
13	0xb65b29c1	-3.2657847e-06
14	0xb2e3296a	-2.6445111e-08
15	0x36080377	2.0267596e-06
16	0xb847e71d	-4.766054e-05
17	0xb8850556	-6.342928e-05
18	0xb84fe9fb	-4.9570557e-05
19	0xb843234e	-4.6524503e-05
20	0xb0b90ebd	-1.346471e-09
21	0x358b534a	1.0380547e-06
22	0x33693572	5.4298148e-08
23	0xb6e2c777	-6.7585456e-06
24	0x3026db83	6.0702393e-10
25	0x36721b50	3.6076708e-06
26	0xb9df6049	-0.00042605613
27	0x39d696d4	0.00040929636
28	0x3aa0dae2	0.0012272263
29	0xb92f713b	-0.00016731482
30	0xbaf52b1f	-0.0018704868
31	0xbab03329	-0.0013442981
32	0xbb059ef5	-0.0020388935
33	0x39f70306	0.00047113764
34	0xb1a31cd9	-4.747204e-09
35	0xb1f5c204	-7.1524955e-09
36	0x3390b750	6.738867e-08
37	0xad0aae82	-7.88314e-12
38	0xba2a4a0b	-0.00064960186
39	0xb52fe145	-6.552039e-07
40	0x3381add6	6.038651e-08
41	0xb2b8ade4	-2.1499496e-08
42	0x344e6e45	1.9225361e-07
43	0x34620ea2	2.1053214e-07
44	0x34db92d3	4.0898757e-07
45	0xb4b540ef	-3.3761123e-07
46	0x34f8b424	4.632467e-07
47	0x376d37d9	1.4139304e-05
48	0x35592e21	8.0905926e-07
49	0x3885f832	6.388164e-05
50	0x2fae9b06	3.1760566e-10
51	0xb5759a56	-9.14942e-07
52	0x38920019	6.961841e-05
53	0x3634ad3e	2.692293e-06
54	0xb66c4fec	-3.521326e-06
55	0xb8a5c2af	-7.904076e-05
56	0xb881839e	-6.175715e-05
57	0xb86708a6	-5.5082746e-05
58	0xb7bf4e2f	-2.2805381e-05
59	0x2f0559fb	1.2128247e-10
60	0x36f7cdf1	7.3851484e-06
61	0xb671fa9f	-3.605768e-06
62	0xba05eeed	-0.000510915
63	0x3886fd19	6.436761e-05
64	0x37d822bb	2.576538e-05
65	0x37d2f049	2.5145842e-05
66	0xb826f09d	-3.9801573e-05
67	0x37187602	9.087382e-06
68	0xb9acb28b	-0.0003293942
69	0xb98902f2	-0.0002613287
70	0xb9bea135	-0.00036359733
71	0xb7322974	-1.0619278e-05
72	0xb671ff79	-3.6060503e-06
73	0x3670adb1	3.5863889e-06
74	0xbac87ded	-0.0015296318
75	0x3a1b5c79	0.000592656
76	0x36cdecf1	6.1370597e-06
77	0xb9031787	-0.00012501898
78	0x27bb7bef	5.2037295e-15
79	0x2618345e	5.2806564e-16
80	0x27490bba	2.790071e-15
81	0xb4e6694e	-4.2917458e-07
82	0xb552b370	-7.849221e-07
83	0xb5386107	-6.8686535e-07
84	0xb5827a5b	-9.721365e-07
85	0x35e76b12	1.7242003e-06
86	0xb547bd63	-7.440887e-07
87	0x3a0616e6	0.00051151065
88	0x358eb3f4	1.0632198e-06
89	0xb42e50ba	-1.6234381e-07
90	0xa83e9698	-1.05797735e-14
91	0xb6925102	-4.3605696e-06
92	0xb012a038	-5.3342175e-10
93	0x29037ef4	2.9197958e-14
94	0x30eef2ab	1.738575e-09
95	0xb5a4bd69	-1.2274078e-06
96	0xb688b5e9	-4.074293e-06
97	0xb60de137	-2.114173e-06
98	0x37768568	1.4693804e-05
99	0x37d0a072	2.4870245e-05
100	0x35edab65	1.7707758e-06
101	0x3ccbf038	0.024894819
102	0x35a9c1a9	1.2647844e-06
103	0xacfbe417	-7.159172e-12
104	0x37fda6e8	3.0237672e-05
105	0x36b0ca11	5.2687324e-06
106	0x378cc03e	1.677882e-05
107	0x38242d44	3.9142804e-05
108	0x37b7c810	2.1908461e-05
109	0x386e0de0	5.6756544e-05
110	0x37e3057f	2.7063068e-05
111	0xb1ebb7ad	-6.8602817e-09
112	0x37100048	8.583134e-06
113	0x3c8c5905	0.017132292
114	0x38b6204f	8.684454e-05
115	0xb3bf3cc9	-8.905187e-08
116	0x360ee718	2.1294163e-06
117	0x3821506f	3.84603e-05
118	0x38015b57	3.0841064e-05
119	0x36a0542c	4.7781705e-06
120	0x388584e5	6.366688e-05
121	0x38baa200	8.899346e-05
122	0x38b7a475	8.7567525e-05
123	0x38d4ced1	0.0001014747
124	0xb6c345ad	-5.819564e-06
125	0x39e4f34a	0.00043668813
126	0x3251868c	1.21959935e-08
127	0x37454716	1.1758666e-05
128	0xb9827cd8	-0.00024888548
129	0x388fe365	6.861127e-05
130	0x3ab2f352	0.0013652837
131	0x3981fcd4	0.0002479317
132	0x39adf771	0.0003318149
133	0x3a605e7d	0.0008559002
134	0x3a9f71b4	0.0012164623
135	0x3ad80665	0.0016481398
136	0x3b021f8d	0.0019855232
137	0xae68a302	-5.2895473e-11
138	0x36e265da	6.747182e-06
139	0xb27774b0	-1.4403824e-08
140	0x358ac23f	1.0338334e-06
141	0xb09369ca	-1.0725725e-09
142	0x3a7ca26b	0.0009637239
143	0xb640eb6c	-2.8747263e-06
144	0xb5c38fe0	-1.4570505e-06
145	0xb3c79807	-9.294313e-08
146	0xb76b9a62	-1.4043037e-05
147	0xb73c1b4c	-1.1212029e-05
148	0xb75fbef2	-1.3336294e-05
149	0xb6f5e769	-7.3285087e-06
150	0xb4e1103c	-4.1921328e-07
151	0x34f62d2e	4.5853943e-07
152	0xb1f4016e	-7.101497e-09
153	0xb35b313f	-5.10347e-08
154	0xb5139068	-5.4971906e-07
155	0xb456bc5b	-1.9998826e-07
156	0x2b62ed86	8.062096e-13
157	0xab08e61a	-4.8636236e-13
158	0xa9e9bff7	-1.0380579e-13
159	0xaf9b9a36	-2.830391e-10
160	0x2f90aed6	2.6317676e-10
161	0xad402d8c	-1.092405e-11
162	0xae085e5b	-3.1006624e-11
163	0x30481bfd	7.279935e-10
164	0x3a05210c	0.0005078472
165	0x2e66cc40	5.2477356e-11
166	0xbcfaf3c4	-0.030633815
167	0x32eea50f	2.7781907e-08
168	0xb5f0621d	-1.7909948e-06
169	0x8e0906b4	-1.6889781e-30
170	0x0930ee82	2.1297375e-33
171	0x0b395f8f	3.5701594e-32
172	0x0b3f3a68	3.6829202e-32
173	0x8c156f7b	-1.151209e-31
174	0x8c089a78	-1.0523543e-31
175	0xa1856c50	-9.041101e-19
176	0x2f9f9fe8	2.9035552e-10
177	0xb80d5ff3	-3.370638e-05
178	0x36d4b719	6.3394077e-06
179	0xb0c67a27	-1.4441114e-09
180	0x31730538	3.536412e-09
181	0x8ceb6a09	-3.62713e-31
182	0x330a5bee	3.221424e-08
183	0xb1c11b5f	-5.620151e-09
184	0x31dc2134	6.4066175e-09
185	0xb30c13e8	-3.2614395e-08
186	0xb34c9761	-4.763513e-08
187	0xb33e6fad	-4.433939e-08
188	0xb27ba00c	-1.4646513e-08
189	0xb76a586f	-1.3968077e-05
190	0xbcf89375	-0.03034375
191	0xb8965fd4	-7.170407e-05
192	0x3bdbd55a	0.006708783
193	0x35cfa2df	1.5470104e-06
194	0xb171d198	-3.5189256e-09
195	0xb841deb3	-4.622219e-05
196	0x3726f6e5	9.951856e-06
197	0xb80aec05	-3.3121574e-05
198	0xb833ecac	-4.2897344e-05
199	0xb8924986	-6.975517e-05
200	0xb898653b	-7.2667804e-05
201	0xb897e229	-7.242367e-05
202	0x2dc06239	2.1871492e-11
203	0x3abd767b	0.0014454866
204	0xb730c318	-1.0535841e-05
205	0x310edde3	2.0789848e-09
206	0x301c75a1	5.691963e-10
207	0xb82bcf30	-4.0962535e-05
208	0x3579a24f	9.299592e-07
209	0x36aefe14	5.2151827e-06
210	0xb0160337	-5.457425e-10
211	0x383f4605	4.560316e-05
212	0x377809fd	1.47842775e-05
213	0x36135323	2.19531e-06
214	0xb82e2c74	-4.1526233e-05
215	0xb58f0c39	-1.0657888e-06
216	0x3643dfa1	2.9187433e-06
217	0xb05d6cc3	-8.055389e-10
218	0x39894319	0.00026180668
219	0xb99e0983	-0.00030143195
220	0xafbb5942	-3.4078523e-10
221	0xb6e9d3fd	-6.96862e-06
222	0xb414bfa8	-1.3853298e-07
223	0xb352dfd3	-4.9098002e-08
224	0xb923485b	-0.00015571846
225	0xb8b7d13f	-8.765095e-05
226	0xb8e825f1	-0.00011069689
227	0xb80a1ddb	-3.292957e-05
228	0x345c5c22	2.0522614e-07
229	0x386e7bd6	5.6858953e-05
230	0x2ffcb79e	4.5969e-10
231	0x3a7b9256	0.0009596696
232	0x3a2f102b	0.00066781294
233	0x3543a320	7.288054e-07
234	0x35dbd8ec	1.6379904e-06
235	0x378425ca	1.5753223e-05
236	0x3686538e	4.0032382e-06
237	0xb88011f0	-6.106857e-05
238	0xb86b0969	-5.603713e-05
239	0xb8739aeb	-5.8079993e-05
240	0xb8369c17	-4.353755e-05
241	0xae86b10e	-6.125066e-11
242	0xb248d0a3	-1.1688971e-08
243	0xb185a58a	-3.889629e-09
244	0x37706005	1.4327471e-05
245	0x31ddc351	6.4541514e-09
246	0x36d46fb1	6.331095e-06
247	0x353aab60	6.9539783e-07
248	0x32e94789	2.71573e-08
249	0xb3d15afe	-9.748872e-08
250	0x346cc299	2.2050007e-07
251	0x345760aa	2.0058602e-07
252	0xb483708b	-2.4482537e-07
253	0xb556ea42	-8.00621e-07
254	0x38511eff	4.985835e-05
255	0x3bb5e5fe	0.005551099

gnn.gnn_layer.edge_func.0.bias f4 [64]
0	0xb73e18dd	-1.1330671e-05
1	0xb7ed9616	-2.832249e-05
2	0xbb24fe75	-0.0025176082
3	0xb53a8a1b	-6.949137e-07
4	0xb853a62e	-5.0461087e-05
5	0xb8732c3d	-5.7976915e-05
6	0xb56ef909	-8.9024303e-07
7	0xb5ca5fb9	-1.5078032e-06
8	0x3778144b	1.4786677e-05
9	0x3901c9f0	0.00012377626
10	0x3b054c63	0.002033972
11	0xb6afeca2	-5.242954e-06
12	0xb573c20f	-9.0806947e-07
13	0xae2b863c	-3.9000123e-11
14	0xb3b957fa	-8.630737e-08
15	0xb89fa187	-7.6117976e-05
16	0xb85892c8	-5.1635114e-05
17	0xb7c34ac6	-2.328063e-05
18	0xb818f9af	-3.647216e-05
19	0xb5b07015	-1.3145642e-06
20	0xb9068104	-0.00012827298
21	0xb80f63c9	-3.418679e-05
22	0xbac30f9a	-0.0014881969
23	0xb79a7870	-1.8414314e-05
24	0x34120a6d	1.3601102e-07
25	0xb2596376	-1.2653677e-08
26	0x3a75be22	0.00093743403
27	0x3503a43a	4.9040284e-07
28	0xbab9178f	-0.0014121401
29	0xb4f54aeb	-4.5689316e-07
30	0x37b6afe4	2.1777996e-05
31	0xb9614483	-0.00021483195
32	0xb9ef2037	-0.00045609634
33	0x3212231f	8.506304e-09
34	0xb39a7807	-7.193017e-08
35	0x320b605f	8.112777e-09
36	0x381735d5	3.605134e-05
37	0xb84ba8c9	-4.8556165e-05
38	0xb43f406d	-1.7811699e-07
39	0xb6447980	-2.9276998e-06
40	0x3abf05fe	0.0014573929
41	0xb6bb024a	-5.5733008e-06
42	0xb7b28d32	-2.1285003e-05
43	0xa7ba09e0	-5.1636077e-15
44	0xb9b5a457	-0.00034645453
45	0xb26d80e1	-1.3824519e-08
46	0xb304a3d4	-3.0882646e-08
47	0xb77919f9	-1.4847604e-05
48	0xb8853fe1	-6.3538326e-05
49	0xb8a1f0b7	-7.721915e-05
50	0xb8f21138	-0.000115426665
51	0x3686d9f5	4.0188847e-06
52	0x3a93b4a1	0.0011269042
53	0x397bcc37	0.00024013301
54	0xb408d5c4	-1.2743754e-07
55	0xaf879c44	-2.466739e-10
56	0xb826f62c	-3.980675e-05
57	0xb666cb96	-3.4391173e-06
58	0xb887dc31	-6.4783155e-05
59	0xb793ab53	-1.7603545e-05
60	0xa69f9761	-1.1073873e-15
61	0x3a8ecb34	0.00108943
62	0x34fac360	4.6708283e-07
63	0xb7f15228	-2.8767696e-05

gnn.gnn_layer.edge_func.2.weight f4 [1024, 64]
0	0x34ce1d42	3.8391778e-07
1	0x35806bbf	9.568101e-07
2	0x390fe822	0.00013724019
3	0x3425b6fe	1.5433395e-07
4	0x36119ed7	2.169914e-06
5	0xb614d034	-2.2174909e-06
6	0xaf4b1b5b	-1.8472461e-10
7	0xae26895e	-3.7866037e-11
8	0xb4804aa5	-2.389617e-07
9	0xb64ccfd9	-3.0519352e-06
10	0x3859b92d	5.190929e-05
11	0xb1875fe9	-3.939921e-09
12	0xb24617d3	-1.1530534e-08
13	0x86da621f	-8.214666e-35
14	0x2e7b1f18	5.709841e-11
15	0x35ff9693	1.9042803e-06
16	0xac0fb212	-2.0420371e-12
17	0x33a7d387	7.81502e-08
18	0x348e182f	2.6467157e-07
19	0x3288ff7b	1.5948663e-08
20	0xb4e7c61c	-4.3171246e-07
21	0x3580c334	9.593555e-07
22	0xb78fb346	-1.713041e-05
23	0xb39034d0	-6.715129e-08
24	0xb1c5e4cb	-5.7594653e-09
25	0xab1519e2	-5.2971353e-13
26	0x37126bde	8.727393e-06
27	0x3394e9fe	6.93435e-08
28	0xb856c478	-5.120455e-05
29	0x1e9a7fde	1.6358269e-20
30	0xb6f1edf8	-7.210063e-06
31	0xb90ce305	-0.00013436012
32	0xb7ba371d	-2.2198592e-05
33	0x3422687f	1.5125441e-07
34	0xacb66e1b	-5.1849753e-12
35	0xafdcfe81	-4.0198603e-10
36	0x36f25a77	7.2226935e-06
37	0x322dc531	1.01147615e-08
38	0xb0ea306f	-1.7039506e-09
39	0xad4c9af9	-1.1630468e-11
40	0xb6261d99	-2.4753156e-06
41	0x2fa47be4	2.9919456e-10
42	0x3553ec63	7.8947613e-07
43	0x80000327	-1.131e-42
44	0x35d1e970	1.5639653e-06
45	0x3139fc5f	2.70645e-09
46	0xb10ff22e	-2.0946902e-09
47	0xb47261ea	-2.2573627e-07
48	0xb5e656a6	-1.7161553e-06
49	0x37113693	8.65538e-06
50	0xb7478eb4	-1.189455e-05
51	0xb21ffaad	-9.312015e-09
52	0xb554e935	-7.9315515e-07
53	0x36f91622	7.423355e-06
54	0xa328ec8a	-9.157387e-18
55	0x2dc0d9c2	2.1924577e-11
56	0xb6e42fea	-6.8005074e-06
57	0xb2c6e584	-2.3154605e-08
58	0xb6f137a3	-7.1888367e-06
59	0x34279cbe	1.561011e-07
60	0x13286763	2.1255555e-27
61	0xb719657f	-9.143142e-06
62	0x35c82086	1.4910627e-06
63	0x3421b962	1.5061735e-07
64	0x355ce3cb	8.228787e-07
65	0x33c467c1	9.145834e-08
66	0xb48a20a0	-2.572824e-07
67	0xb42053e6	-1.4931683e-07
68	0x2e3c5ff4	4.2831474e-11
69	0xb63ec154	-2.8424738e-06
70	0xa6ee42c0	-1.653266e-15
71	0x2e5820c7	4.9141826e-11
72	0x33fae200	1.1682641e-07
73	0x36fd93f4	7.5572116e-06
74	0x38a05119	7.6445e-05
75	0xb415c52a	-1.3948434e-07
76	0xa9683431	-5.1559617e-14
77	0x8bf95c02	-9.604975e-32
78	0xb0f330b6	-1.7694421e-09
79	0xb1f09a99	-7.002495e-09
80	0x2b691466	8.2806537e-13
81	0x32a32075	1.8990457e-08
82	0x2f3feed4	1.7456198e-10
83	0x326c3ba8	1.3750572e-08
84	0x3513e778	5.50986e-07
85	0xb0a1781e	-1.1748431e-09
86	0xba06d9b1	-0.0005144133
87	0x351483fa	5.532635e-07
88	0x323ab9da	1.0868883e-08
89	0xa735f3a8	-2.5250882e-15
90	0x390eedd3	0.00013630772
91	0x33953505	6.9479974e-08
92	0x385ea257	5.3080115e-05
93	0x1ef9a063	2.6430235e-20
94	0x37373866	1.0920781e-05
95	0x371bd0be	9.2873215e-06
96	0x368d2f0b	4.207604e-06
97	0x33318512	4.133205e-08
98	0x2da8496a	1.9131991e-11
99	0x308f55b2	1.0428975e-09
100	0x37a0b839	1.9159272e-05
101	0x33c66853	9.23907e-08
102	0x317c6596	3.6728571e-09
103	0x25dc57be	3.8223373e-16
104	0x39bb83d4	0.0003576564
105	0x349a567f	2.874767e-07
106	0xb587f02b	-1.0128182e-06
107	0x0000050d	1.812e-42
108	0x3802e7e3	3.1210377e-05
109	0x300ae81b	5.053395e-10
110	0xb20cd649	-8.197795e-09
111	0x359756d6	1.1275649e-06
112	0xa9cf62d2	-9.209789e-14
113	0x37025125	7.767497e-06
114	0x3412bbab	1.3665583e-07
115	0x34142f80	1.3800855e-07
116	0x38ccd551	9.767211e-05
117	0x3791768c	1.734055e-05
118	0xa362c994	-1.229417e-17
119	0xad4a3927	-1.1495061e-11
120	0xb485a81f	-2.4895505e-07
121	0xb274cd85	-1.4249399e-08
122	0x38d2f1dd	0.00010058631
123	0xb46a4758	-2.1818903e-07
124	0x96406746	-1.5542224e-25
125	0x396b7ef7	0.00022458645
126	0x3483dba6	2.4560467e-07
127	0xaa8e404a	-2.5268877e-13
128	0x33afccfc	8.186359e-08
129	0x35162662	5.593521e-07
130	0xb7ea8621	-2.7957432e-05
131	0xb3a22a27	-7.55138e-08
132	0x3538c57f	6.8832736e-07
133	0xb25fc6b4	-1.3025488e-08
134	0x266122c9	7.81097e-16
135	0xae8b427e	-6.3327996e-11
136	0x3315acc6	3.4848902e-08
137	0x36273eb9	2.4921449e-06
138	0xb8324992	-4.2507025e-05
139	0xaeedaa1e	-1.0807731e-10
140	0x31917bc6	4.234127e-09
141	0x846a9838	-2.7576463e-36
142	0xaeaaf006	-7.773342e-11
143	0x35706870	8.9558944e-07
144	0xacf19a0f	-6.866736e-12
145	0xb5c4458a	-1.4623377e-06
146	0x33229b9e	3.7860097e-08
147	0x30aa3261	1.2383446e-09
148	0x35be192d	1.416343e-06
149	0xb5a63d20	-1.2385754e-06
150	0x38b009ce	8.39416e-05
151	0xb57ec04b	-9.4902197e-07
152	0xb070546d	-8.743147e-10
153	0x2b3fa4f4	6.808575e-13
154	0xb6e97edd	-6.95871e-06
155	0xb2297520	-9.863726e-09
156	0xb4b3a80d	-3.346362e-07
157	0x1fa3b63e	6.933468e-20
158	0xb3e98725	-1.08744906e-07
159	0xb705b9db	-7.970691e-06
160	0xb7b59214	-2.1644904e-05
161	0xb5036a1e	-4.8955724e-07
162	0xa2e899f1	-6.3046718e-18
163	0xad6a272e	-1.331006e-11
164	0xb654db4c	-3.171811e-06
165	0xb4410c72	-1.7979053e-07
166	0xb140401f	-2.7976126e-09
167	0x302dd2a1	6.3236355e-10
168	0xb8aa32b3	-8.115675e-05
169	0xb1f4bfb1	-7.1231274e-09
170	0xb58fbd96	-1.0709507e-06
171	0x00000210	7.4e-43
172	0xb45ddc89	-2.0662459e-07
173	0xadec42d0	-2.6859764e-11
174	0xaf0d5ee5	-1.2857589e-10
175	0x33a646d0	7.742858e-08
176	0xb48375e3	-2.4486425e-07
177	0xb57be11e	-9.3832375e-07
178	0x35d8abb8	1.6143231e-06
179	0x2f410fd2	1.7558868e-10
180	0x35a455c1	1.224391e-06
181	0xb401d538	-1.209163e-07
182	0x23482e23	1.08517916e-17
183	0xad442b4e	-1.1150926e-11
184	0xb57b6bb1	-9.36615e-07
185	0x31e9ee09	6.808254e-09
186	0xb4900065	-2.6822377e-07
187	0x319b3742	4.517376e-09
188	0x150a4af2	2.7928e-26
189	0x35a1aee6	1.2046337e-06
190	0x36554dfa	3.1784862e-06
191	0x33711725	5.6133235e-08
192	0x2e750dcb	5.57188e-11
193	0x34b25895	3.3219536e-07
194	0x3303341d	3.054821e-08
195	0xb21cd4a2	-9.128742e-09
196	0xaf972e2e	-2.7499553e-10
197	0xb4b761cd	-3.4157566e-07
198	0xa509c5fc	-1.1949936e-16
199	0xab48f1ad	-7.1389666e-13
200	0x378b4f07	1.6606891e-05
201	0x392115e4	0.00015362311
202	0x398164c9	0.00024679888
203	0x33ede2f9	1.10774586e-07
204	0xaa1ca2bb	-1.3912042e-13
205	0x06739dd4	4.5819174e-35
206	0xadf3fdd6	-2.7738627e-11
207	0xaea95a57	-7.701278e-11
208	0xab6c1496	-8.387261e-13
209	0x3288144d	1.5841715e-08
210	0xb20c0f76	-8.152588e-09
211	0xb043abc1	-7.1184664e-10
212	0x3294f1ab	1.7339365e-08
213	0x3040b496	7.010582e-10
214	0xb8a353d1	-7.788058e-05
215	0x367249b9	3.6103722e-06
216	0x3301167d	3.0055606e-08
217	0x2af8fef3	4.4230556e-13
218	0x398d9067	0.00027001204
219	0x33f6c2e3	1.14907174e-07
220	0x361c0155	2.3246587e-06
221	0x2e939b40	6.712364e-11
222	0xb4e819e2	-4.32322e-07
223	0x3879d5aa	5.9565216e-05
224	0x37a87d74	2.008558e-05
225	0x3462a4eb	2.1107887e-07
226	0xaa94b908	-2.6418472e-13
227	0x30f56285	1.7854097e-09
228	0x375f8683	1.3323154e-05
229	0x35d1ecc9	1.5640627e-06
230	0x3023e13e	5.9619143e-10
231	0xa439561f	-4.0188428e-17
232	0x3b0ef58f	0.0021813845
233	0x2f4be6a6	1.8544685e-10
234	0x3459d642	2.0287646e-07
235	0x00000426	1.488e-42
236	0x398ddb5a	0.00027057045
237	0x313ba29e	2.7304519e-09
238	0x333838c9	4.2892484e-08
239	0x32649e7e	1.3307384e-08
240	0xaa1b0556	-1.3768617e-13
241	0x3819425a	3.6539837e-05
242	0xb2544120	-1.2354832e-08
243	0x378af5b1	1.6565291e-05
244	0x3a801683	0.0009772334
245	0x37c47cb2	2.3423087e-05
246	0xa1e9ad52	-1.5834572e-18
247	0xac135df4	-2.094211e-12
248	0xb3e036a8	-1.0440755e-07
249	0xb1a2746a	-4.7280553e-09
250	0xb6ad6243	-5.167241e-06
251	0x34ce9949	3.848202e-07
252	0x148c26dd	1.4151716e-26
253	0x3a5e0118	0.0008468791
254	0x366f2f42	3.5641283e-06
255	0xafa04745	-2.915447e-10

gnn.gnn_layer.edge_func.2.bias f4 [1024]
0	0xbd3d5c7a	-0.04623077
1	0x3bf90402	0.0075993547
2	0xbae6371c	-0.0017564031
3	0x3c9b0419	0.018922852
4	0x394782ee	0.00019026894
5	0xbea16a93	-0.31526622
6	0xba488910	-0.00076498184
7	0x3c178f1e	0.00925043
8	0xb63ab6f6	-2.7822657e-06
9	0xbb5dd5ff	-0.0033849475
10	0x382a00f6	4.0532053e-05
11	0xb9b7078c	-0.00034910103
12	0xbd0777a7	-0.033073094
13	0x36369d90	2.7211827e-06
14	0xb554a594	-7.92171e-07
15	0xbcb4c1c3	-0.022065049
16	0xbbd80158	-0.006591957
17	0xbaeef03d	-0.0018229556
18	0xbb79cfd7	-0.0038118267
19	0xbc481a44	-0.012213293
20	0xbb53864f	-0.00322761
21	0xbc71a455	-0.014748652
22	0xbcce0440	-0.025148511
23	0xbce6dbd6	-0.028180998
24	0xb831d092	-4.2394335e-05
25	0xbc335108	-0.010944612
26	0xbb2c3ebe	-0.0026282514
27	0xb7acd893	-2.0604848e-05
28	0x3ce3cc86	0.027807485
29	0xb97f0048	-0.000243188
30	0xbe1ade89	-0.15123953
31	0xbc698c09	-0.014254578
32	0x3c614981	0.013750435
33	0xbafd6e4a	-0.0019335237
34	0x39478c07	0.00019030283
35	0xba0deee5	-0.0005414321
36	0xb9861d5f	-0.00025580355
37	0xbd82ab27	-0.06380301
38	0xb7d6aac3	-2.5590305e-05
39	0x3a81e665	0.0009910582
40	0x33efbd36	1.1163722e-07
41	0xb9dabad6	-0.00041719404
42	0xb6af0bb1	-5.2167675e-06
43	0x3a056ae4	0.00050894753
44	0x3aee6184	0.0018187021
45	0x34165ae4	1.4002904e-07
46	0x361635c4	2.2383038e-06
47	0xbb6561aa	-0.003500084
48	0x3814fbcb	3.552045e-05
49	0x39a6b392	0.00031795778
50	0xb9cadbb2	-0.00038692128
51	0xbab4e9bc	-0.0013802568
52	0xba147320	-0.0005662907
53	0xba01b8f3	-0.0004948519
54	0xbadab000	-0.0016684532
55	0xba8250c4	-0.0009942283
56	0xb6da5384	-6.506629e-06
57	0x3b1685e4	0.0022967989
58	0xbb665437	-0.003514541
59	0x36a5da05	4.942764e-06
60	0xbc412378	-0.011788242
61	0x38877492	6.4590145e-05
62	0x3c751e05	0.0149607705
63	0xba5e7593	-0.0008486148
64	0xb84c7a8b	-4.8751517e-05
65	0xb70c17ad	-8.350163e-06
66	0x369c4276	4.6568994e-06
67	0xb3a79ab9	-7.8046874e-08
68	0xb5d3b811	-1.5774295e-06
69	0xb7319d37	-1.0586627e-05
70	0x3665b6b2	3.4230002e-06
71	0xb7ecd895	-2.8234246e-05
72	0x31059271	1.943729e-09
73	0x364e18d7	3.071085e-06
74	0x341d3d67	1.4644102e-07
75	0x3569a0e7	8.703341e-07
76	0xb46beb10	-2.1971596e-07
77	0x31ef534c	6.9652852e-09
78	0xb090187f	-1.0484341e-09
79	0xb832eb91	-4.2657895e-05
80	0xae2e10c4	-3.957791e-11
81	0x368e1478	4.2343127e-06
82	0x368591ef	3.980698e-06
83	0xb72aa2d1	-1.0170698e-05
84	0x36dc62b9	6.5680038e-06
85	0x35c4f33a	1.4673926e-06
86	0xb5bf8f25	-1.427227e-06
87	0xb7308ec8	-1.0523661e-05
88	0xb3398ad1	-4.3199922e-08
89	0x3792ada6	1.7485418e-05
90	0x3798ed2c	1.8230254e-05
91	0xb41d762f	-1.466476e-07
92	0xb89339f8	-7.020304e-05
93	0xb426b5c6	-1.5526084e-07
94	0x382249fd	3.8692717e-05
95	0x379dcf5c	1.8812418e-05
96	0x3bbc2496	0.005741666
97	0xbadf80a5	-0.0017051889
98	0x3b14a2ab	0.0022679965
99	0xbbf3ce51	-0.0074403663
100	0xbb7f5483	-0.0038960285
101	0xb88b77f5	-6.65038e-05
102	0x39fba017	0.00047993727
103	0x3a4c5ccc	0.000779581
104	0x35e887ca	1.7324867e-06
105	0xb8992362	-7.302199e-05
106	0xb875e7fb	-5.86286e-05
107	0xb6f2eca0	-7.239709e-06
108	0x3c4d7c04	0.012541775
109	0xb3dcb5db	-1.02776276e-07
110	0x35fff460	1.9070103e-06
111	0x3730c9e4	1.0537424e-05
112	0x33bd428b	8.8131024e-08
113	0x3a358f9c	0.00069260015
114	0x3990249e	0.00027493102
115	0x39a32a1c	0.00031121157
116	0x374f7d44	1.2367327e-05
117	0xb6a6a18b	-4.9659916e-06
118	0xb9ba9ee0	-0.00035595056
119	0x39997ec2	0.00029276876
120	0x354966ae	7.5027754e-07
121	0x3a489845	0.00076520845
122	0x3af74a9b	0.0018866839
123	0xb876bd7d	-5.8827445e-05
124	0xbbb13f51	-0.005409159
125	0x367a871e	3.7331552e-06
126	0x3c19916b	0.009373049
127	0x3a594ba3	0.0008289164
128	0xbc4b69ea	-0.012415389
129	0x3b8eb483	0.004355015
130	0xbaa361d7	-0.0012465072
131	0x398a9b98	0.00026437338
132	0x39036f6e	0.00012534644
133	0x3e504ba8	0.2034136
134	0x380a8ef2	3.3034892e-05
135	0xb8919163	-6.941219e-05
136	0x34b44233	3.357578e-07
137	0x39ed9d63	0.00045321425
138	0xb6eb29f5	-7.00843e-06
139	0xb856f689	-5.125118e-05
140	0xbbfcdc1f	-0.00771667
141	0xb633d405	-2.679649e-06
142	0x354ca01a	7.62289e-07
143	0xb681d11f	-3.8688445e-06
144	0x3a8ef7c0	0.0010907575
145	0xba1a9eda	-0.00058983045
146	0xba8aeaad	-0.0010598503
147	0xba303ba9	-0.0006722757
148	0xba88ea30	-0.001044577
149	0x3bb02048	0.005374942
150	0xba35f5ec	-0.0006941247
151	0x39f5907b	0.00046837688
152	0xb5813a5d	-9.628235e-07
153	0xbac456d0	-0.0014979485
154	0x3ab0fe1d	0.0013503466
155	0x37a99d42	2.0219599e-05
156	0x3c29ca27	0.010363138
157	0xb8a61172	-7.918746e-05
158	0xbc045215	-0.0080762105
159	0x3a8271f8	0.0009952178
160	0xbb7cf79f	-0.0038599742
161	0x3cfa7ecf	0.030578045
162	0xbbc9f292	-0.00616295
163	0xbb6f1767	-0.0036482455
164	0x3b39f1bb	0.0028372842
165	0xbb5a5d4a	-0.0033319765
166	0x391cc67b	0.00014951259
167	0xbbe3330f	-0.006933577
168	0x37362b10	1.0858072e-05
169	0xbb0bf9c5	-0.002135859
170	0xb87f7aa7	-6.0910967e-05
171	0x3a25b8c7	0.00063217845
172	0xbd68fc31	-0.056881133
173	0xb51b4887	-5.784754e-07
174	0xb53deecf	-7.07555e-07
175	0x3c3dea1c	0.011591461
176	0xbb5b80f1	-0.0033493603
177	0xbb8d1387	-0.0043053064
178	0x3a555bf7	0.0008139009
179	0x3c5e64d1	0.013573841
180	0x3f139c8b	0.5766074
181	0xbcbc2f97	-0.022971911
182	0x3bdc2e2a	0.0067193704
183	0x3cb28585	0.021792183
184	0x34b4dd7e	3.368877e-07
185	0xba361000	-0.0006945133
186	0xbac6bdae	-0.001516273
187	0xb8fd4d9a	-0.000120784345
188	0x3d80f89d	0.06297419
189	0x37d877ed	2.5805051e-05
190	0x3e1b7f5e	0.15185305
191	0x3d5b1e89	0.053495917
192	0xb6d05d0d	-6.2097156e-06
193	0x37533cf7	1.25907745e-05
194	0xb7183527	-9.0722815e-06
195	0xb6641f3f	-3.3992835e-06
196	0xb7e66c5f	-2.74686e-05
197	0x328939c3	1.5975166e-08
198	0xb60cc718	-2.0977513e-06
199	0x36c14f62	5.7610896e-06
200	0x30b6779f	1.3276241e-09
201	0x358f17b1	1.0661225e-06
202	0xb56471f1	-8.5102425e-07
203	0xb45cffd3	-2.0582165e-07
204	0xb6d1f02a	-6.256644e-06
205	0xb093dcd8	-1.0758425e-09
206	0x31046690	1.9266828e-09
207	0x35131bd8	5.4802285e-07
208	0xaf6c7d92	-2.1508686e-10
209	0xb525281b	-6.152565e-07
210	0xb3e48bf6	-1.0642536e-07
211	0xb616c875	-2.2468423e-06
212	0xb5a4d126	-1.2279822e-06
213	0xb3a9ca5d	-7.9064854e-08
214	0x36b95825	5.523691e-06
215	0x36bb23d4	5.5772052e-06
216	0x31259402	2.4094793e-09
217	0xb6f8f7e7	-7.4198356e-06
218	0xb5759226	-9.1482286e-07
219	0xb182175f	-3.786155e-09
220	0xb7d2b4c5	-2.5118128e-05
221	0x342808ef	1.5649469e-07
222	0x3846cf58	4.7399983e-05
223	0x36175c89	2.2554616e-06
224	0xbbbb22a8	-0.0057109185
225	0x3b6775c7	0.0035318004
226	0x3a73c957	0.00092997163
227	0x3ac84efe	0.001528233
228	0x3aac8c2c	0.0013164333
229	0x3d77b1ed	0.060472418
230	0xb81ecae2	-3.7859085e-05
231	0x3a068451	0.0005131411
232	0xb49b78ab	-2.8958797e-07
233	0x39c33272	0.00037230883
234	0x36891d0c	4.0862997e-06
235	0x37e6dc92	2.7520848e-05
236	0xbc7b9881	-0.015356184
237	0x3592ae35	1.0928549e-06
238	0xb5bb68a9	-1.3963046e-06
239	0x39d67a30	0.00040908298
240	0xba1e3c7f	-0.00060362363
241	0x39cfdb12	0.00039645337
242	0xba5c42fc	-0.00084023154
243	0xba0beda7	-0.0005337842
244	0x3999cedb	0.00029336553
245	0xba37643d	-0.00069958327
246	0xb9912aa2	-0.0002768832
247	0xb94c873c	-0.00019505335
248	0xb610ea7d	-2.1594162e-06
249	0xbb0733ee	-0.0020630318
250	0x379569d8	1.7811471e-05
251	0xbaf815a1	-0.0018927344
252	0x3cb01934	0.021496393
253	0x37eb10f9	2.8022087e-05
254	0xbbb4b270	-0.0055144355
255	0xba804a67	-0.0009787799

gnn.gru.weight_ih_l0 f4 [96, 32]
0	0xba0babe3	-0.00053280423
1	0x3a76c5f9	0.00094136555
2	0x393ab0ad	0.00017804159
3	0xb4e9464c	-4.345078e-07
4	0x38268869	3.9704526e-05
5	0xba07eae8	-0.0005184845
6	0xb6c45367	-5.8509645e-06
7	0x390060c6	0.00012243082
8	0x34374bb9	1.7070751e-07
9	0xb603b06c	-1.9623212e-06
10	0xb594dfec	-1.1092029e-06
11	0x3713cc20	8.809409e-06
12	0xb91258b1	-0.00013956685
13	0xb3f1ef9f	-1.1266024e-07
14	0x34d8df22	4.0395486e-07
15	0xb9a4be73	-0.00031422413
16	0xb0db8457	-1.597196e-09
17	0xb6e7c024	-6.9067046e-06
18	0xb712d4fe	-8.751869e-06
19	0xb818c9cb	-3.642756e-05
20	0x371bc240	9.283947e-06
21	0xb659e78e	-3.2470302e-06
22	0x39577ce4	0.00020550523
23	0xb7c1c007	-2.3096813e-05
24	0xb3f8cee8	-1.1586036e-07
25	0xb7eead97	-2.8452645e-05
26	0x38ba8350	8.89363e-05
27	0xb44a1240	-1.8819355e-07
28	0x393a8bda	0.00017790441
29	0xb68ea592	-4.2512047e-06
30	0xb98e9405	-0.00027194634
31	0x39c5997f	0.00037689132
32	0x3a00aa95	0.0004908231
33	0xb890700d	-6.887326e-05
34	0x3924e4e1	0.00015725523
35	0x343c5f40	1.7543516e-07
36	0xb8a32a00	-7.780269e-05
37	0x36c0f24e	5.750254e-06
38	0xb3bcaf7b	-8.786352e-08
39	0x39c29cb7	0.00037119325
40	0xb1e6233a	-6.697886e-09
41	0xb3754442	-5.7105588e-08
42	0xb413d22c	-1.3766902e-07
43	0xb50560a6	-4.9687003e-07
44	0x382dbc3e	4.142173e-05
45	0x3209a774	8.012524e-09
46	0xbc5298cd	-0.012853813
47	0xb5d3e86c	-1.5788369e-06
48	0x2e6ea9cf	5.4265755e-11
49	0xb78e466d	-1.6960514e-05
50	0x34d1fd7d	3.911372e-07
51	0x381dbc98	3.760736e-05
52	0xb65886ed	-3.2265045e-06
53	0xb1bc4852	-5.479742e-09
54	0xb865ea3f	-5.4816013e-05
55	0x39725972	0.0002311224
56	0x3316f328	3.5145746e-08
57	0xb4643a36	-2.1255332e-07
58	0xb8f47d83	-0.00011658205
59	0xb0976286	-1.1014698e-09
60	0xb9932689	-0.00028066736
61	0x35e167da	1.6794031e-06
62	0x38d17d95	9.989288e-05
63	0xb694ff9a	-4.4404997e-06
64	0x31ec7e34	6.8828516e-09
65	0xb14bb43f	-2.9642846e-09
66	0xb81df49c	-3.7659527e-05
67	0xad0c174b	-7.963251e-12
68	0xb1e7acfd	-6.7426513e-09
69	0xba890322	-0.0010453204
70	0xbb6f5dd3	-0.003652443
71	0xb325c7af	-3.8598667e-08
72	0xac407727	-2.7350984e-12
73	0xa9947c3e	-6.594073e-14
74	0xac3ac44b	-2.6541154e-12
75	0x2ed9ab0d	9.898402e-11
76	0xb0acd5ab	-1.2575375e-09
77	0x2bd58d37	1.5173755e-12
78	0x3a722881	0.0009237603
79	0x2f8e3c36	2.5872432e-10
80	0x2717f6ef	2.1089323e-15
81	0xaf6e9780	-2.1699798e-10
82	0xac834940	-3.7313763e-12
83	0xb064360d	-8.302273e-10
84	0x2fb7447e	3.3336173e-10
85	0x2c231bac	2.3179054e-12
86	0x3228557b	9.798323e-09
87	0x31ff26f2	7.4259043e-09
88	0xbae54c51	-0.0017494058
89	0x2baa3c08	1.2095889e-12
90	0x3aabc728	0.0013105618
91	0x29da774b	9.701839e-14
92	0xb2dc0e5f	-2.5617906e-08
93	0xad0ac6f9	-7.888573e-12
94	0xb3d60f2c	-9.967911e-08
95	0x300e712d	5.182013e-10
96	0xb3d9e4be	-1.0146458e-07
97	0xb4ce1f9e	-3.8393495e-07
98	0x2eaab37e	7.762589e-11
99	0xaf8ecdc0	-2.5975844e-10
100	0xb50eebc1	-5.324219e-07
101	0x328aa281	1.6139213e-08
102	0xaf01c33b	-1.1801841e-10
103	0x338b681e	6.491631e-08
104	0xaf01bb01	-1.1798919e-10
105	0x2de0d44e	2.5560134e-11
106	0xad97ced9	-1.7258571e-11
107	0x2fb3a7e5	3.2679207e-10
108	0x34870f42	2.515681e-07
109	0x2dce4daa	2.3453978e-11
110	0xaee7011e	-1.0504862e-10
111	0x31b545da	5.2757345e-09
112	0xa78e429a	-3.9485127e-15
113	0xafd3c7c1	-3.852261e-10
114	0x30aa56b2	1.2393768e-09
115	0xb226d728	-9.711393e-09
116	0x340fdb68	1.3397732e-07
117	0xb31146f1	-3.3824964e-08
118	0xb280cc9f	-1.4994212e-08
119	0x33f61195	1.1458466e-07
120	0x30a50631	1.200709e-09
121	0xafcb8623	-3.7020795e-10
122	0xb482d73b	-2.4370988e-07
123	0x2ea8a4de	7.669042e-11
124	0xb864c8e4	-5.454653e-05
125	0xb1583c52	-3.1466425e-09
126	0xb5a91479	-1.259744e-06
127	0x32ce866f	2.404269e-08
128	0x3b0bd915	0.0021339108
129	0xb742dc92	-1.1614657e-05
130	0x385b3b20	5.2268733e-05
131	0x35ce37a3	1.5364388e-06
132	0x35e22af2	1.6850811e-06
133	0x374b7934	1.2127963e-05
134	0xb509e3c9	-5.136795e-07
135	0x3913e448	0.00014104054
136	0x3392d136	6.83671e-08
137	0x3387f5ec	6.33116e-08
138	0x32ceb5c4	2.4064214e-08
139	0xb64a12ce	-3.0111291e-06
140	0xb7bbc149	-2.2382143e-05
141	0x33000eae	2.9815673e-08
142	0x331cf612	3.654538e-08
143	0x35624ac5	8.4300365e-07
144	0x31053494	1.9383934e-09
145	0x34129d34	1.36545e-07
146	0xb53bfdc6	-7.003222e-07
147	0x3710a480	8.6213695e-06
148	0x38eeb232	0.00011381916
149	0xafa32528	-2.9675928e-10
150	0xb72de624	-1.0365187e-05
151	0xb3ffd9cc	-1.191398e-07
152	0xb353525a	-4.9202164e-08
153	0xb6a54d72	-4.926399e-06
154	0xba107fd2	-0.0005512211
155	0xb16e58d8	-3.468406e-09
156	0x39279f0f	0.00015985615
157	0x35a0ba21	1.19751e-06
158	0x389dd2ce	7.525609e-05
159	0xb511963a	-5.423532e-07
160	0xbb247f9a	-0.002510047
161	0x3c86b9c0	0.016445994
162	0xba8d5060	-0.00107814
163	0x39283495	0.00016041317
164	0xb6bee21b	-5.6887634e-06
165	0x37c43522	2.3389763e-05
166	0x367b4fa2	3.7448267e-06
167	0xba917a17	-0.0011099008
168	0xb66fbff8	-3.5725516e-06
169	0xb46729a0	-2.1528695e-07
170	0xb44ab109	-1.8877121e-07
171	0x339bf8ff	7.263042e-08
172	0x3b84b72e	0.004050157
173	0xb6dc204f	-6.560272e-06
174	0xb5e53b8b	-1.7079159e-06
175	0xb7cbbc25	-2.4287097e-05
176	0x3389dddf	6.419918e-08
177	0xba066ea5	-0.00051281817
178	0x373da5da	1.1303893e-05
179	0x3ac06bc0	0.001468055
180	0x3b338764	0.0027393932
181	0x37491469	1.1985286e-05
182	0xb95e5d83	-0.00021206406
183	0x3a4920c2	0.0007672423
184	0x359b653a	1.1577861e-06
185	0xb78d8fbb	-1.687544e-05
186	0x3b42003f	0.0029602197
187	0x332a0992	3.9589914e-08
188	0xbd0ee797	-0.03488883
189	0xb6adac35	-5.1758493e-06
190	0x3dd4e831	0.103958495
191	0x3941bd24	0.00018476375
192	0xad4e0f78	-1.1713179e-11
193	0xb108cea9	-1.9908077e-09
194	0xad803ea0	-1.4579726e-11
195	0xaca38a72	-4.648109e-12
196	0xb0203869	-5.8287825e-10
197	0xab1d2533	-5.582923e-13
198	0x2bceaac8	1.4684582e-12
199	0x2f42c92c	1.7715668e-10
200	0xaa6247de	-2.0097766e-13
201	0x28791d48	1.3828626e-14
202	0xaa580b96	-1.9188674e-13
203	0xad11ffdf	-8.2991105e-12
204	0x3018ae10	5.5544636e-10
205	0x2a4d50c2	1.8235676e-13
206	0xab18f9bd	-5.434783e-13
207	0xad2a6621	-9.686058e-12
208	0xa848ab50	-1.1139378e-14
209	0x2d7e6e84	1.4462768e-11
210	0xab37b6b7	-6.526823e-13
211	0x2ec35814	8.883219e-11
212	0x2f1ce771	1.4270342e-10
213	0xa7d71132	-5.969313e-15
214	0xaf8cea75	-2.5632443e-10
215	0xae49797a	-4.581e-11
216	0x2bd200c7	1.4921613e-12
217	0x2bd36c1a	1.5022456e-12
218	0xaf142c2c	-1.3476215e-10
219	0x278b6571	3.8690233e-15
220	0x2f2d0c89	1.5738712e-10
221	0x2b95a28a	1.06322e-12
222	0x30d675f3	1.5604072e-09
223	0xac9ddfc5	-4.487052e-12
224	0xb7c9984a	-2.4031982e-05
225	0x3a2a5f3e	0.00064991775
226	0xb882884c	-6.22427e-05
227	0x34241005	1.5279518e-07
228	0xb9b48e8f	-0.0003443849
229	0xb5733bcb	-9.0611564e-07
230	0xbc106ec2	-0.008815469
231	0x365a1e49	3.250216e-06
232	0xb2c31216	-2.2709212e-08
233	0xb15f9c24	-3.2539527e-09
234	0xb42e3958	-1.6225874e-07
235	0x3453b0fa	1.971529e-07
236	0xb901c72b	-0.00012376595
237	0xb3026e3f	-3.0368252e-08
238	0xb3940d6a	-6.894227e-08
239	0xb51cbfba	-5.839353e-07
240	0x2e49efee	4.591521e-11
241	0x347414b5	2.2731804e-07
242	0xb5beebdb	-1.4224746e-06
243	0xb6bc79d9	-5.6170215e-06
244	0x3831c28c	4.2381274e-05
245	0x310bfcbd	2.0370827e-09
246	0xb6867d89	-4.0081254e-06
247	0x3593ba27	1.1006531e-06
248	0xb1f45024	-7.1104456e-09
249	0x33bc1395	8.757994e-08
250	0x388cecfe	6.7198634e-05
251	0x327f85a2	1.4873338e-08
252	0xb990007b	-0.00027466178
253	0x34eb4ad5	4.3826608e-07
254	0xb8ec0774	-0.00011254745
255	0x35b80795	1.3711275e-06

gnn.gru.weight_hh_l0 f4 [96, 32]
0	0x3a292728	0.0006452673
1	0xba21cfcb	-0.0006172626
2	0xb3278444	-3.9003012e-08
3	0x381110ba	3.458627e-05
4	0xb941a9c9	-0.00018469164
5	0x38dbbad9	0.00010477537
6	0xb472e238	-2.2620304e-07
7	0xb90dd5c2	-0.00013526439
8	0xb9c1bcd2	-0.0003695251
9	0x39029491	0.00012453111
10	0xb96b8f20	-0.00022464665
11	0xb7991670	-1.824947e-05
12	0xb7178832	-9.032012e-06
13	0xb9e87ed8	-0.00044344994
14	0xb88e5786	-6.78739e-05
15	0x39272c8e	0.00015942959
16	0x3a555e0a	0.0008139318
17	0x375489d3	1.2668274e-05
18	0xb9872c74	-0.00025782327
19	0x3a6e3fe5	0.00090885005
20	0x388ff706	6.864783e-05
21	0x3a1f46f7	0.0006075943
22	0x3b064c32	0.0020492193
23	0xb9cd1ce4	-0.00039122172
24	0x3549e007	7.520434e-07
25	0xb9fb87a7	-0.0004797552
26	0xba90c664	-0.0011045453
27	0xb9e8365a	-0.00044290983
28	0xb880181f	-6.1080085e-05
29	0xb9c16d30	-0.0003689318
30	0x3b05681b	0.002035624
31	0xb85397bc	-5.0447634e-05
32	0x39ed6bd6	0.00045284507
33	0x38fb0186	0.000119688964
34	0xb48ad8a2	-2.5862124e-07
35	0x38124fd8	3.4883473e-05
36	0x37dee5cb	2.6571468e-05
37	0x38415dae	4.610203e-05
38	0x332c84db	4.0167702e-08
39	0xb4a0c9b3	-2.9949078e-07
40	0xb91df226	-0.00015062894
41	0x38f75f7c	0.00011795663
42	0x376c58bb	1.4087355e-05
43	0xb8bfeebc	-9.1520575e-05
44	0x36f638f3	7.338001e-06
45	0xb7a8f1aa	-2.0139694e-05
46	0x3868a73d	5.5468863e-05
47	0x37b8e1a8	2.2039589e-05
48	0x381b02ad	3.695737e-05
49	0x349823b0	2.8338172e-07
50	0x37d95652	2.5908612e-05
51	0x36f7ad41	7.381343e-06
52	0x38c00399	9.1559436e-05
53	0xb9531743	-0.00020131194
54	0xb9108122	-0.00013781016
55	0x38596716	5.1832838e-05
56	0x358fa8d3	1.0703465e-06
57	0x38ff169d	0.000121635596
58	0x39f3962a	0.00046460453
59	0xb950cf02	-0.00019913542
60	0x394fae83	0.00019806069
61	0x3a18fe39	0.0005836222
62	0x397cc591	0.00024106192
63	0xb8c6fed0	-9.488838e-05
64	0xb24e4961	-1.2007463e-08
65	0x3682e4bc	3.90093e-06
66	0xac26062c	-2.3593445e-12
67	0x2dfaeaef	2.8526041e-11
68	0xba3a7755	-0.0007113119
69	0xb49f6fb4	-2.9697333e-07
70	0x2a18ac53	1.3560099e-13
71	0xbc2b4a65	-0.010454749
72	0xb079f61f	-9.093543e-10
73	0xb3ae7ba7	-8.1249986e-08
74	0xafa70e1a	-3.0387143e-10
75	0x369e8b7b	4.7250046e-06
76	0xba0097bb	-0.0004905422
77	0xb05c6b88	-8.0188345e-10
78	0x378c6a8e	1.6738919e-05
79	0xbb999de3	-0.004688011
80	0x2dc2e8b1	2.2158582e-11
81	0x34ddfe24	4.134937e-07
82	0x3900d54f	0.00012286495
83	0x2fa67a9a	3.0282338e-10
84	0xb41ad52f	-1.4419923e-07
85	0xb1b8dd09	-5.3802336e-09
86	0xb54b3256	-7.569664e-07
87	0xaf64caa0	-2.0808466e-10
88	0x2c38ad3d	2.624414e-12
89	0xb0a595c7	-1.2047899e-09
90	0x3a8fa2fd	0.0010958608
91	0xb0f9fd86	-1.818919e-09
92	0xb1676e32	-3.3677563e-09
93	0xb8da7591	-0.000104169485
94	0xba38e0ff	-0.000705257
95	0xaf8942f3	-2.4967725e-10
96	0xb3deb66c	-1.0370863e-07
97	0x33ee2aa2	1.10904935e-07
98	0xaf3066d9	-1.6043646e-10
99	0x33d74413	1.00241e-07
100	0xb31f7deb	-3.7134594e-08
101	0x3523f548	6.1079163e-07
102	0x2e3b9b57	4.2656847e-11
103	0xb2a4e5a1	-1.9196536e-08
104	0xb4b079aa	-3.2871077e-07
105	0x33f9e1c2	1.1636031e-07
106	0x32224ad3	9.446654e-09
107	0xb49044ce	-2.6872152e-07
108	0x315e5113	3.2351337e-09
109	0xb406fd44	-1.257186e-07
110	0x311d60f8	2.2901627e-09
111	0xb30d7c3e	-3.294212e-08
112	0x33875f11	6.30372e-08
113	0x300c7669	5.1099974e-10
114	0x32c443c1	2.2848214e-08
115	0x33b8505e	8.5827864e-08
116	0x359678e5	1.1211056e-06
117	0xb4d9b8d9	-4.0553894e-07
118	0xb4a70bed	-3.111485e-07
119	0x32733b5b	1.41579575e-08
120	0x311a8d2e	2.24902e-09
121	0xb40aea09	-1.2937393e-07
122	0xb493c6a9	-2.7525428e-07
123	0xb439655f	-1.7266346e-07
124	0x3485e83b	2.494215e-07
125	0xb4ebf4a0	-4.395015e-07
126	0x34bc0274	3.5019514e-07
127	0xb351d784	-4.8857615e-08
128	0x39121077	0.00013929779
129	0x38201d9e	3.8174556e-05
130	0xb4f3dac4	-4.542145e-07
131	0x36a7dca4	5.002674e-06
132	0x376f443f	1.42614e-05
133	0x35f3824a	1.814283e-06
134	0xb83239c3	-4.2492302e-05
135	0x37bb0375	2.2293747e-05
136	0x393b48ef	0.0001786088
137	0x3900871a	0.0001225736
138	0x3757c2a7	1.286032e-05
139	0x369436fb	4.4171443e-06
140	0x34eacf0a	4.3736537e-07
141	0x3889992f	6.561202e-05
142	0x3695884a	4.456412e-06
143	0xb836efbd	-4.3615455e-05
144	0x380c7ead	3.3496577e-05
145	0xb5231528	-6.075302e-07
146	0xb6a08930	-4.7843423e-06
147	0xb67d8b4e	-3.7781024e-06
148	0x3a772ee2	0.00094292883
149	0xb8a3e2cf	-7.814692e-05
150	0xb6f11ab2	-7.1854674e-06
151	0xb78649c5	-1.6008396e-05
152	0xb4e1d04e	-4.2061077e-07
153	0xb85c1233	-5.2469037e-05
154	0xb958046a	-0.0002060101
155	0x37465840	1.1822267e-05
156	0xb84c717d	-4.8743084e-05
157	0x3904f7fc	0.00012680882
158	0xb84d9183	-4.9011327e-05
159	0x37e56763	2.734707e-05
160	0xbc1ad92f	-0.009451195
161	0x3b047796	0.002021288
162	0x37497b5a	1.2009254e-05
163	0x3b2cc4b1	0.0026362354
164	0xba61acc1	-0.0008608811
165	0xbccaa756	-0.024737995
166	0xb5ee3125	-1.7746685e-06
167	0xb9c40b40	-0.00037392415
168	0x3b4490b7	0.0029993483
169	0xbbd8a6f0	-0.0066116974
170	0xb946a8f9	-0.00018945699
171	0x3a52546a	0.0008023443
172	0x38b62cfa	8.686814e-05
173	0xbbab4f52	-0.0052279616
174	0xb7f66a5f	-2.9375018e-05
175	0x3aaab62a	0.001302426
176	0x391b1fd1	0.00014793804
177	0x37ae8e93	2.0808808e-05
178	0x3ac8e416	0.0015326764
179	0x3a9e244e	0.0012065263
180	0x3cd64f9a	0.026161004
181	0x3b380fdf	0.0028085632
182	0x3b189293	0.0023280724
183	0x38d36c24	0.00010081407
184	0x383fe153	4.5747798e-05
185	0x3c13c6b0	0.009019539
186	0xbccdd135	-0.025124172
187	0xbb668b23	-0.0035178147
188	0x3c54ad4a	0.012980768
189	0x3c944d7f	0.01810336
190	0xbad80e00	-0.0016483665
191	0xb9cf075d	-0.00039487603
192	0xae148748	-3.3771458e-11
193	0x2f213072	1.4660076e-10
194	0xa96ca203	-5.254305e-14
195	0x2e2bf979	3.9102475e-11
196	0xae82c766	-5.947136e-11
197	0x306b12af	8.5519053e-10
198	0x2975faaa	5.4618345e-14
199	0xaf11aef0	-1.3249823e-10
200	0xb0eaa296	-1.707195e-09
201	0x2f53e337	1.9271061e-10
202	0x2cff64fc	7.2587474e-12
203	0xb0c65ec5	-1.4433331e-09
204	0x2dcc45a7	2.3223047e-11
205	0x2dd914b2	2.4679234e-11
206	0xad1fa21e	-9.074101e-12
207	0xadceb01a	-2.3497693e-11
208	0x2f11adae	1.3249377e-10
209	0x2c4121f5	2.74458e-12
210	0xacfa39d2	-7.1118467e-12
211	0xad1b7bf6	-8.838255e-12
212	0x311d2452	2.2867153e-09
213	0xb02885c1	-6.130812e-10
214	0xb0400d25	-6.986787e-10
215	0x2dbcecd0	2.1478291e-11
216	0x2bac22e1	1.2231016e-12
217	0xadb3b805	-2.0431665e-11
218	0x31167a33	2.1897335e-09
219	0xb00626f6	-4.8804283e-10
220	0xad7cadaa	-1.4363103e-11
221	0xbaa2cb33	-0.0012420177
222	0x30a0b7ec	1.1693806e-09
223	0xae8e4aac	-6.470677e-11
224	0xb934d1e5	-0.0001724433
225	0x36b9dd42	5.5391874e-06
226	0xb2234a57	-9.504752e-09
227	0x37a8ebed	2.0137022e-05
228	0xb72790d2	-9.987694e-06
229	0x3862ee05	5.4104272e-05
230	0x31aedbb5	5.0890443e-09
231	0xb5086bdf	-5.082092e-07
232	0xb927f8d2	-0.00016019054
233	0x381b044d	3.6958885e-05
234	0x35882758	1.014424e-06
235	0xb90af890	-0.00013253302
236	0x363153e8	2.6423895e-06
237	0xb6f9cb03	-7.444412e-06
238	0x363a7861	2.778623e-06
239	0xb7158403	-8.911828e-06
240	0x379461e6	1.7688562e-05
241	0x3456301e	1.9947808e-07
242	0xb78e6533	-1.6974844e-05
243	0x353aea67	6.96315e-07
244	0x3930fd2e	0.00016878985
245	0xb93bea36	-0.0001792096
246	0xb88c6a0e	-6.6954744e-05
247	0x366910f0	3.4729565e-06
248	0x3524060e	6.110357e-07
249	0x36be2fec	5.66802e-06
250	0x39640a73	0.00021747667
251	0xb914c706	-0.00014188522
252	0xb801079d	-3.0763087e-05
253	0x39b7e8cb	0.00035077924
254	0x39417e1b	0.00018452892
255	0xb8be6ce9	-9.080192e-05

gnn.gru.bias_ih_l0 f4 [96]
0	0xbbf94e24	-0.007608192
1	0x39ee485b	0.00045448806
2	0x31b9b310	5.4045657e-09
3	0xb41d5b70	-1.4655029e-07
4	0xba5a01ac	-0.0008316289
5	0xbbb0c48d	-0.0053945244
6	0xad378d34	-1.0433699e-11
7	0xb9679b4f	-0.00022087734
8	0xbab75ceb	-0.0013989484
9	0xbd045b37	-0.03231355
10	0x3836e22a	4.3602813e-05
11	0x38e0521f	0.000106964486
12	0x35f07fe9	1.791862e-06
13	0x3a5dcb21	0.00084607495
14	0x391e7533	0.00015111714
15	0xbb3386b2	-0.0027393517
16	0xba105c77	-0.00055069424
17	0xb55f0a0a	-8.308858e-07
18	0x39955a77	0.00028486896
19	0xba6e370a	-0.0009087181
20	0xbf03a581	-0.51424414
21	0xbb9647ce	-0.0045861965
22	0x3ba98829	0.0051737023
23	0xb9ebfa99	-0.00045009403
24	0xb39ea520	-7.3874844e-08
25	0xba81c1e6	-0.0009899705
26	0x3a984e8f	0.0011620092
27	0x3c4edd49	0.012626001
28	0x39125d1c	0.00013958331
29	0x39475840	0.00019010995
30	0x39bb9672	0.0003577951
31	0xbb1c55cf	-0.0023854857
32	0x3c69fe9a	0.014281893
33	0x3a4fba2e	0.0007924166
34	0x324bac53	1.1855337e-08
35	0x388b575c	6.6443085e-05
36	0x38f7836a	0.000118023556
37	0x3ce66932	0.028126333
38	0xb02f65e6	-6.3809436e-10
39	0x39286c21	0.0001606201
40	0x3bd8fb43	0.0066217496
41	0x3c1b2f1f	0.009471684
42	0x38bf8306	9.131995e-05
43	0x39242e14	0.00015657424
44	0x35788746	9.258405e-07
45	0x3afff06a	0.0019526605
46	0xb8bfdce9	-9.1487374e-05
47	0xb82f5396	-4.1801097e-05
48	0xb8df3cb5	-0.00010644776
49	0xb51b6b4b	-5.789813e-07
50	0xba8ca0e4	-0.0010729101
51	0x38a19cce	7.7062854e-05
52	0xbe296a4e	-0.16544458
53	0xbd4b2f85	-0.049605865
54	0xbb527c1e	-0.0032117437
55	0x3a8b346c	0.0010620481
56	0x34c268c4	3.6211543e-07
57	0x3c4e363a	0.012586171
58	0x3c42aff1	0.011882768
59	0xbada5a36	-0.0016658965
60	0x3c91a208	0.017777458
61	0x3d228b23	0.039683472
62	0xbbce64dd	-0.006298645
63	0xb93ae786	-0.00017824591
64	0x3d8167e2	0.06318642
65	0xbc983b0b	-0.018582841
66	0xb6f41e75	-7.2753123e-06
67	0x3a00d040	0.0004913844
68	0x3bbb0bd4	0.005708197
69	0x3e978e1f	0.29600617
70	0xb7a8c17b	-2.0117257e-05
71	0x3b96d2e9	0.004602779
72	0x3b802df3	0.0039117276
73	0xbdf51705	-0.11967281
74	0x3b138845	0.0022511643
75	0x3b3b74b5	0.0028603498
76	0xbb803b50	-0.0039133206
77	0x3d007987	0.031365898
78	0xbb3288c6	-0.0027242168
79	0x3c232cde	0.009959428
80	0x3ac9d9d1	0.0015399997
81	0xb902ea6c	-0.00012485095
82	0x3c4fa78f	0.012674226
83	0xbb482520	-0.0030539706
84	0xbfc0fabd	-1.5076519
85	0x3d392509	0.045201335
86	0x3c80ce0e	0.015723255
87	0xbc49d1d5	-0.012318094
88	0xb9514832	-0.00019958688
89	0x3d0329bf	0.032022234
90	0xbd910f55	-0.070830025
91	0x3c9d91a4	0.019234486
92	0xbc964537	-0.018343551
93	0x3c53797c	0.012907382
94	0xbd2b7ca3	-0.04186691
95	0x3cb955c3	0.022623902
