1-GNNs/result/6108_AR_NURA_GCN_0920/30/model.pth (torch, 233562 bytes, 16 tensors)

gnn.gnn_layers.0.graph_conv.weight f4 [74, 128]
-1.9121688e-05 -1.7705464e-06 -0.044789102 -0.006289777 -2.3220959e-05 -2.315946e-07 -8.913035e-11 -7.955369e-07
-0.019084275 -0.123476416 -2.91084e-06 -0.0069269123 -0.0014801988 -0.00092395116 -0.08011865 -0.43625915
-0.00020796624 -4.0748368e-05 -0.8081851 -6.81037e-05 -2.683682e-05 -2.7533247e-06 -0.3604705 -0.21225189
-0.0014541225 1.0636007e-05 -8.927701e-07 -0.08748989 -0.02040082 -0.019060927 -8.936722e-05 -0.00045004423
-0.08672383 -0.00045900155 -0.063787416 -0.0020351922 -0.03691823 0.011884042 0.9122943 -3.0329053e-05
-4.1906446e-06 -0.05382312 -2.9539904e-06 -2.5935458e-06 -0.15867476 -0.0012061261 -1.965543e-06 -0.00034823356
-0.015525282 -0.0005218844 -0.12859163 -0.31588003 -0.012701618 -0.005330447 -0.00019319184 -0.54263324
-0.007387473 -8.593733e-05 -0.04289131 -0.31949446 -0.0014625468 -0.11937643 -0.15282917 -3.3812183e-05
-0.00939866 -8.006536e-06 -0.13231781 -0.0041954857 -9.0103674e-07 -4.633588e-05 -0.021609899 -2.7852924e-08
0.0007544673 -6.6877966e-08 -5.1246626e-08 -9.767758e-05 -3.4917304e-14 0.28688747 -0.0015294106 -3.700785e-05
-0.016593603 -0.011669987 -0.010762115 -0.007477788 -2.7517286e-08 -1.157443e-05 -0.041721925 -0.046599735
-0.02001621 0.74385244 -0.18422693 -0.2884997 -0.003928747 0.0020094286 -0.78943217 -0.07007384
-8.516542e-06 -5.54515e-05 -8.752353e-06 -2.9297962e-05 -1.0335423e-05 -0.0024800953 -0.012331119 0.0017733305
-0.011650597 -0.00034496616 1.3875745e-05 -5.909988e-05 -0.09787916 -0.00993354 0.028015025 3.3913024e-05
-2.2939485e-05 -5.387301e-06 -5.7491054e-11 -0.008767474 -0.005540259 -0.0017244315 -0.019442935 -0.04640117
-0.05776921 -0.03703662 0.03803462 -0.09007596 -4.2666372e-05 -2.0351323e-05 -0.00016992958 -0.0006989045
3.976643e-07 4.2515282e-07 0.0034750856 0.00044842495 -3.5714642e-05 5.402452e-08 5.885703e-11 -6.81076e-07
-0.001844198 -0.022823226 -2.2573838e-06 7.436835e-05 -0.00012374696 0.0020107517 -0.011528813 0.01807681
8.4978856e-05 1.3146572e-06 0.35548213 -1.1902896e-05 5.2213204e-06 -1.8982964e-06 0.020183062 -0.018454462
0.00017837578 5.512982e-06 -1.1207878e-06 0.002054717 -0.0032409485 -0.00079609134 -1.0853614e-06 -3.7667465e-05
0.011008583 0.00017230662 0.009362586 -0.00019634415 -0.023055337 0.007495115 0.067845 7.2103876e-06
-2.7483338e-06 -0.0066720624 -1.7360436e-06 -2.9276146e-06 0.00039134963 -3.3815038e-12 -2.979871e-07 9.074065e-05
-0.0018646857 0.00072836166 0.022887036 0.016788535 -0.0006663926 9.6846044e-05 -3.5194065e-05 0.34923676
0.0021371767 5.1405586e-05 0.013311098 0.02188303 0.0017924708 0.008749889 -0.024842987 2.6508899e-06
0.006395747 2.275119e-06 -0.061853383 -0.00024797808 -1.18672936e-07 -2.2730834e-05 0.0003223637 -1.7653572e-09
-0.0010284777 -7.3596063e-09 -1.1869145e-08 3.446148e-05 -1.0523639e-14 -0.030931776 0.00051270716 -3.1155005e-06
-0.0020252364 0.0008153285 -0.013066825 -0.0031413166 2.9096691e-08 3.0619915e-07 -0.0005414343 -0.029517036
-0.0007488867 0.089817815 -0.03247872 0.007995917 0.0032627054 0.0051057967 -0.07659421 0.16125312
-3.659283e-06 1.06314355e-05 1.2422473e-06 -1.34584825e-05 2.6988081e-07 -0.0010321648 0.0005530058 -0.00032001382
-0.0048136557 5.87616e-05 3.9183265e-05 -1.8706994e-07 0.0069659967 0.006877794 0.0023461445 -6.79378e-06
4.362009e-06 -1.9387825e-07 5.2500008e-11 -0.0057829623 -0.0036534946 -0.0016115383 0.0076126894 0.037123423
0.0028484021 -0.0013223488 -0.0030169024 0.013465971 -0.00022981675 -6.947102e-07 0.00034214297 5.4617987e-05
00000000: 8367 a0b7 83a3 edb5 c774 37bd 791a cebb
00000010: a1ca c2b7 3dac 78b4 edff c3ae e18c 55b5
00000020: a056 9cbc 34e1 fcbd da57 43b6 27fb e2bb
00000030: 3b03 c2ba 5035 72ba 3f15 a4bd 5c5d dfbe
00000040: 8311 5ab9 3ae9 2ab8 38e5 4ebf e5d2 8eb8
00000050: a21f e1b7 c2c5 38b6 978f b8be 8f58 59be
00000060: 4198 beba 4d71 3237 b2a6 6fb5 e62d b3bd
00000070: 9f1f a7bc a925 9cbc a96a bbb8 eaf3 ebb9
00000080: 439c b1bd 25a6 f0b9 faa2 82bd dc60 05bb
00000090: 9237 17bd 49b5 423c 1f8c 693f 256b feb7
000000a0: 5d9d 8cb6 a275 5cbd 2b3d 46b6 c70c 2eb6
000000b0: a37b 22be e016 9eba c6e7 03b6 1e93 b6b9
000000c0: c15d 7ebc 12cf 08ba 86ad 03be 07bb a1be
000000d0: 721a 50bc 08ab aebb 8a93 4ab9 03ea 0abf
000000e0: 9d12 f2bb 4139 b4b8 ccae 2fbd c794 a3be
000000f0: edb2 bfba a17b f4bd 407f 1cbe 8ed1 0db8
00000100: d6fc 19bc cf53 06b7 527e 07be 497a 89bb
00000110: c6de 71b5 c658 42b8 3e07 b1bc 3a41 efb2
00000120: 72c7 453a 8d9e 8fb3 431a 5cb3 40d8 ccb8
00000130: e940 1da9 eae2 923e 8176 c8ba e038 1bb8
00000140: 4fef 87bc 7933 3fbc 9553 30bc 3b08 f5bb
00000150: 275f ecb2 cc2f 42b7 9ce4 2abd 5ddf 3ebd
00000160: 09f9 a3bc 1d6d 3e3f fca5 3cbe 3cb6 93be
00000170: b8bc 80bb 9eb0 033b 3a18 4abf e082 8fbd
00000180: 45e2 0eb7 9894 68b8 12d7 12b7 e5c4 f5b7
00000190: 4e66 2db7 1889 22bb 7608 4abc 196f e83a
000001a0: 25e2 3ebc 93dc b4b9 dfcb 6837 03e2 77b8
000001b0: de74 c8bd 49c0 22bc c47f e53c d53d 0e38
000001c0: 2b6e c0b7 90c4 b4b6 2cd9 7cae 74a5 0fbc
000001d0: 108b b5bb 5206 e2ba ca46 9fbc 270f 3ebd
000001e0: 689f 6cbd b6b3 17bd 31ca 1b3d bf79 b8bd
000001f0: abf4 32b8 22b8 aab7 202f 32b9 b036 37ba
00000200: 917e d534 8f40 e434 43be 633b 941a eb39
00000210: 4ecc 15b8 9708 6833 906d 812e 30d3 36b5
00000220: 04b9 f1ba c6f7 babc 8f7d 17b6 34f6 9b38
00000230: 12c2 01b9 d1c6 033b 59e3 3cbc d115 943c
00000240: ad36 b238 4773 b035 c101 b63e 8db2 47b7
00000250: cd32 af36 f8c8 feb5 f356 a53c d02d 97bc
00000260: 620a 3b39 28fc b836 fa6d 96b5 6ea8 063b
00000270: 1866 54bb c9b0 50ba bcac 91b5 22fd 1db8
00000280: 585d 343c 35ad 3439 8865 193c bbe1 4db9
00000290: 8cde bcbc 9599 f53b 52f2 8a3d c2f0 f136
000002a0: 0470 38b6 51a1 dabb 0102 e9b5 0978 44b6
000002b0: 0f2e cd39 c2f3 6dac 09fb 9fb4 044c be38
000002c0: 7868 f4ba 86ef 3e3a 987d bb3c 1c88 893c
000002d0: dab0 2eba d319 cb38 579d 13b8 29cf b23e
000002e0: e00f 0c3b 549c 5738 cb16 5a3c 0a44 b33c
000002f0: 57f1 ea3a b25b 0f3c 8583 cbbc f1e5 3136
00000300: 6a93 d13b 3fae 1836 f959 7dbd 0e03 82b9
00000310: 23d9 feb3 18ae beb7 ec02 a939 fca0 f2b0
00000320: fccd 86ba c8df fcb1 0de9 4bb2 bb8a 1038
00000330: b893 3da8 a364 fdbc 3267 063a e413 51b6
00000340: d4b9 04bb c5bb 553a 3d16 56bc 8cde 4dbb
00000350: 4df0 f932 b163 a434 0aef 0dba b6cd f1bc
00000360: f050 44ba 67f2 b73d 6808 05bd 4f01 033c
00000370: 1dd3 553b 874e a73b 6ddd 9cbd 8a1f 253e
00000380: 0192 75b6 ab5d 3237 4bbb a635 becb 61b7
00000390: 23e4 9034 b449 87ba 97f7 103a 87c7 a7b9
000003a0: dfbb 9dbb ca76 7638 b658 2438 65dd 48b4
000003b0: 0443 e43b 1e5f e13b c6c1 193b 20f6 e3b6
000003c0: 5f5d 9236 d92c 50b4 c1e5 662e 017f bdbb
000003d0: 786f 6fbb 413a d3ba de73 f93b bb0e 183d
000003e0: 42ac 3a3b aa52 adba 39b7 45bb 60a0 5c3c
000003f0: f7fa 70b9 1f7c 3ab5 a761 b339 9e15 6538

gnn.gnn_layers.0.graph_conv.bias f4 [128]
2.047726e-06 -9.908545e-07 -0.02160793 -3.8805763e-05 -2.22465e-06 -1.2723028e-07 -2.7351966e-11 -2.130606e-07
-0.009666148 0.036083512 -1.1063943e-06 0.004685711 0.0003330249 -0.0006206826 -0.018187035 -0.17704737
-5.7413672e-05 -4.8307265e-05 0.12351066 -8.983185e-06 8.015516e-06 -1.174502e-06 -0.1822994 -0.22199734
-0.0012542913 2.7325636e-05 -5.1692473e-07 0.045937296 -0.013704882 0.0021804236 -7.7892844e-05 0.00045841734
-0.053942133 -0.0001134081 0.0009037952 -0.0008718818 0.01842746 0.0022824123 0.012171107 -2.873246e-05
3.206689e-06 -0.018310724 -9.0830525e-07 -2.1146095e-06 -0.08312439 -7.0527213e-12 1.0011562e-06 -1.3560575e-06
0.0027903626 -0.0001623473 0.059602965 -0.34761077 0.009916429 -0.0012833206 -0.0001182581 -0.38627216
-0.0038800603 -4.34023e-05 -0.04403743 -0.06384878 -0.00020337326 0.052421257 0.05340566 -5.4572376e-07
-0.009821918 -3.710913e-06 0.15609299 -0.0007923558 4.06625e-07 -4.7820107e-05 -0.008495903 5.8073857e-09
-0.00031249 1.3777658e-08 -1.4946282e-08 -9.287293e-05 4.414847e-15 0.22333679 -0.0015082066 -4.379259e-05
0.006882936 -0.007065885 -0.009486598 -0.005214563 9.3400665e-09 3.1475624e-06 -0.004184288 -0.0021991797
-0.020201871 0.0747845 -0.018475639 0.047919072 0.0020994768 0.0030187983 -0.5912939 -0.13095778
-4.088015e-06 -2.7737221e-06 -1.2328726e-05 -3.3066535e-05 -1.1270401e-05 -0.0014409979 -0.0019488892 0.001911278
-0.0035006301 -2.2734204e-05 2.5051979e-05 -2.4304754e-05 0.033292316 0.010530679 0.025137918 3.162983e-05
-1.3131996e-05 -2.6830576e-06 -1.8654684e-11 -0.0075242743 -0.0009764501 -8.868605e-05 -0.0097365035 -0.047984216
-0.07563042 -0.031736843 0.027521105 -0.007234877 2.094538e-05 -1.563234e-06 -4.172824e-05 -0.0008072346
00000000: aa6b 0936 80fd 84b5 1d03 b1bc 5fc3 22b8
00000010: 324b 15b6 cb9c 08b4 2797 f0ad a7c5 64b4
00000020: c35e 1ebc 4ecc 133d 6b7f 94b5 988a 993b
00000030: d899 ae39 4eb5 22ba fafc 94bc e84b 35be
00000040: 76cf 70b8 889d 4ab8 28f3 fc3d 7cb6 16b7
00000050: 617a 0637 95a3 9db5 b2ac 3abe 4553 63be
00000060: 0867 a4ba 5b39 e537 ccc2 0ab5 bf28 3c3d
00000070: 718a 60bc 70e5 0e3b 675a a3b8 bc57 f039
00000080: 6df2 5cbd 83d5 edb8 abec 6c3a ff8e 64ba
00000090: 2ff5 963c 8694 153b 5369 473c 7d06 f1b7
000000a0: 7f32 5736 5f00 96bc 43d2 73b5 b7e8 0db6
000000b0: 1f3d aabd 4425 f8ac 775f 8635 c801 b6b5
000000c0: 84de 363b c63b 2ab9 3d22 743d 0afa b1be
000000d0: 8578 223c 1835 a8ba 5601 f8b8 77c5 c5be
000000e0: 9c48 7ebb dd0a 36b8 9860 34bd 26c3 82bd
000000f0: 9840 55b9 acb7 563d e5bf 5a3d da7d 12b5
00000100: 1cec 20bc 0009 79b6 d7d6 1f3e 19b6 4fba
00000110: 1d4e da34 7392 48b8 6632 0bbc 4e8a c731
00000120: b3d5 a3b9 c8b2 6c32 3963 80b2 c6c4 c2b8
00000130: c70f 9f27 66b2 643e 04af c5ba efad 37b8
00000140: 418a e13b f088 e7bb ad6d 1bbc edde aabb
00000150: 0c76 2032 b63a 5336 5a1c 89bb 1d20 10bb
00000160: 657e a5bc 9e28 993d 395a 97bc ca46 443d
00000170: 6097 093b 08d7 453b 095f 17bf cc19 06be
00000180: c82b 89b6 2f24 3ab6 7ad7 4eb7 ecb0 0ab8
00000190: 0116 3db7 dedf bcba df71 ffba d983 fa3a
000001a0: d46a 65bb 55b5 beb7 b726 d237 10e2 cbb7
000001b0: 865d 083d de88 2c3c 09ee cd3c 45aa 0438
000001c0: 7e51 5cb7 940e 34b6 9d16 a4ad 308e f6bb
000001d0: 75f8 7fba f6fc b9b8 db85 1fbc 198b 44bd
000001e0: 1fe4 9abd 7efe 01bd f173 e13c 8c12 edbb
000001f0: dcb3 af37 50d0 d1b5 5b05 2fb8 999c 53ba

gnn.gnn_layers.0.res_connection.weight f4 [128, 74]
-2.608555e-06 -3.52677e-06 -1.970564e-06 1.0972606e-06 -1.1849148e-06 -1.5905925e-08 -3.245219e-07 -1.9672898e-07
-1.9359702e-07 -7.471906e-05 -2.0699826e-08 -1.3186803e-07 -0.00015525424 -2.998125e-11 -3.3886663e-05 4.595016e-07
-8.444703e-11 2.9404134e-07 5.535275e-08 3.9641336e-07 5.777763e-12 6.6905807e-13 -6.7844635e-10 5.6834077e-12
3.3475404e-05 1.7101341e-12 1.1869986e-10 -9.160644e-09 9.929781e-09 -1.0688376e-08 -7.062668e-13 -2.646716e-05
-1.0546859e-06 -1.4396438e-06 -3.8435923e-05 4.4387e-10 3.8773627e-11 1.1211019e-11 -1.6807731e-05 -0.0003133677
5.998484e-07 0.00023677663 7.871725e-06 1.0901031e-11 -1.781572e-06 1.4924034e-06 1.4821526e-06 -1.2281002e-06
-0.00047207467 -5.9088354e-08 -5.42833e-09 3.2094113e-07 -3.2129673e-08 7.675222e-13 2.4135534e-06 1.3872642e-06
4.6130464e-07 -1.2221314e-07 -0.0076978374 4.7916016e-12 -2.1116218e-11 -3.0020254e-07 2.34254e-10 -2.1467692e-06
-2.7827307e-06 3.1997977e-06 -1.9839266e-10 8.850949e-12 -1.5287843e-06 2.0177106e-06 1.5828592e-06 4.6130464e-07
-1.2221327e-07 2.3573607e-11 -1.2352795e-05 -5.3158084e-07 -1.3714915e-05 -1.2883324e-07 -2.439884e-06 3.7360405e-08
-2.5393992e-06 -1.0636304e-06 1.0547532e-06 0.00014100739 1.4248093e-11 5.7169746e-12 1.0644939e-05 -9.0754937e-10
-1.2041127e-11 9.817462e-07 -1.0187683e-08 -7.207314e-07 -2.3661312e-11 -9.225111e-12 1.3667857e-06 -4.261625e-08
2.965345e-07 -7.398331e-08 4.6193618e-12 4.4981266e-07 -5.670023e-08 0.0024931505 -0.00012739244 1.5223634e-08
-5.159434e-10 -0.00010215994 1.0840109e-10 9.0853644e-11 1.4469207e-06 2.3404043e-11 -6.3164903e-12 -4.1862198e-13
-9.495736e-05 -3.3372004e-08 -1.4302683e-05 6.6219477e-06 9.953268e-09 4.0218766e-09 -1.3297177e-05 -9.918716e-06
-1.1356051e-05 6.5504764e-07 5.8622823e-10 8.61859e-05 4.707318e-14 4.5031137e-10 2.3129995e-05 -8.4912915e-07
-4.7176777e-06 -1.9332601e-05 -9.804544e-06 -7.675382e-07 -3.884847e-08 4.164978e-07 -1.9186743e-08 -1.5052002e-06
5.1539416e-07 2.7429207e-06 -6.9838784e-06 -1.6635051e-05 1.1743444e-08 -4.1302725e-11 -5.154629e-07 -4.8271004e-06
-1.9330217e-05 -9.804544e-06 -7.675382e-07 -2.38191e-10 0.017426467 -0.019754287 0.0043669157 0.021784935
0.015832195 -8.093864e-06 0.007168309 -0.013500779 -0.011575052 -1.7123614e-09 2.8839169e-09 -7.0829316e-05
-1.3720077e-09 6.80281e-05 -4.3135105e-06 0.005919324 -1.0515909e-09 -0.0010768588 -6.562733e-05 0.0003382275
-4.8244804e-09 -6.046417e-08 -1.1508856e-08 -0.00020171296 -5.5180262e-08 9.964868e-08 -5.7512304e-11 4.584495e-05
0.00469635 -0.0004087949 1.1422055e-08 -0.0008696995 -2.8417438e-05 -9.1968997e-07 -4.8855057e-08 -4.3037468e-10
2.0899433e-08 4.164772e-12 1.2412741e-07 0.00017380965 -1.2107377e-05 -0.000277125 2.523622e-06 -2.5610036e-10
0.008087525 -0.013525566 -0.023763655 0.055472147 -3.9630005e-12 -1.7686354e-05 0.00085927517 -2.9738548e-10
1.2192979e-06 1.0163707e-12 0.044293255 -0.025303137 -0.027324468 0.03998699 4.177431e-11 2.2376545e-12
1.0216957e-06 -0.0002885854 0.0014497843 0.031728145 -0.0013163117 0.0112100225 3.948596e-11 -0.00014233118
0.011455924 0.044256367 -0.02526279 -0.027324468 0.03998703 1.4740954e-07 0.0031487562 -0.0007196562
-0.015749581 0.0050826883 0.011948988 6.940046e-12 0.005292165 -0.014201605 -0.019622814 -6.450651e-12
-2.4619225e-11 4.666656e-06 -3.0257055e-10 7.370884e-07 -1.0914914e-06 -0.006172398 1.8386214e-11 0.002305686
-0.00014135549 -0.009446014 5.153201e-11 7.340054e-09 2.1964026e-10 -9.918613e-10 -1.472983e-07 4.0254176e-06
2.152059e-09 -2.218394e-08 1.9664863e-05 -0.0007747553 -1.30226665e-08 3.3538718e-06 1.9541494e-05 7.3016706e-12
00000000: a20e 2fb6 72ad 6cb6 083e 04b6 9645 9335
00000010: 5d09 9fb5 80a1 88b2 f339 aeb4 733c 53b4
00000020: 8bdf 4fb4 7db2 9cb8 66cf b1b2 9c97 0db4
00000030: becb 22b9 e3db 03ae 8721 0eb8 6bb1 f634
00000040: 74b3 b9ae bcdc 9d34 febc 6d33 a3d2 d434
00000050: 7649 cb2c b752 3c2b 6b7d 3ab0 96f7 c72c
00000060: f167 0c38 13ae f02b 0a83 022f f060 1db2
00000070: a497 2a32 fa9f 37b2 e3cb 46ab cb05 deb7
00000080: bb8e 8db5 c939 c1b5 4236 21b8 2605 f42f
00000090: 3987 2a2e f139 452d 54fe 8cb7 804b a4b9
000000a0: 4505 2135 3e47 7839 cd10 0437 e1c5 3f2d
000000b0: 591e efb5 974e c835 60ee c635 34d5 a4b5
000000c0: ca80 f7b9 55c8 7db3 1884 bab1 d04d ac34
000000d0: f3fe 09b3 ce09 582b 88f8 2136 0932 ba35
000000e0: 3aa9 f734 b139 03b4 243e fcbb e996 a82c
000000f0: 7fbd b9ad 862b a1b4 52c8 802f 3711 10b6
00000100: f3be 3ab6 1bbc 5636 9222 5aaf 21b5 1b2d
00000110: a130 cdb5 0168 0736 a172 d435 3aa9 f734
00000120: ba39 03b4 0b5b cf2d da3e 4fb7 f5b1 0eb5
00000130: 1d19 66b7 6955 0ab4 e3bc 23b6 3376 2033
00000140: 8c6a 2ab6 10c2 8eb5 0b91 8d35 62db 1339
00000150: b5a7 7a2d ee25 c92c aa97 3237 1c77 79b0
00000160: 6ad4 53ad 8bc4 8335 e705 2fb2 4978 41b5
00000170: 8a20 d0ad 354a 22ad 6672 b735 1009 37b3
00000180: 6433 9f34 c1e0 9eb3 8387 a22c c87d f134
00000190: 9086 73b3 2064 233b a694 05b9 20c5 8232
000001a0: 4ad2 0db0 b33e d6b8 6360 ee2e 0eca c72e
000001b0: d133 c235 38dd cd2d e33d deac c9a9 ebaa
000001c0: d823 c7b8 e854 0fb3 8ef5 6fb7 1932 de36
000001d0: f0fe 2a32 cd30 8a31 f116 5fb7 9068 26b7
000001e0: de85 3eb7 88d6 2f35 2524 2130 b4be b438
000001f0: aeff 5329 b18f f72f 4907 c237 b6ef 63b5
00000200: 8b4c 9eb6 722c a2b7 327e 24b7 d308 4eb5
00000210: 58da 26b3 069b df34 18d0 a4b2 4906 cab5
00000220: 9e59 0a35 0513 3836 0f57 eab6 808b 8bb7
00000230: 37c0 4932 bca6 35ae 575e 0ab5 7af8 a1b6
00000240: 5327 a2b7 327e 24b7 d308 4eb5 67f2 82af
00000250: f3c1 8e3c bed3 a1bc 5818 8f3b 5276 b23c
00000260: 85b2 813c e2ca 07b7 22e4 ea3b 5f32 5dbc
00000270: 49a5 3dbc 5c58 ebb0 672e 4631 338a 94b8
00000280: 3b91 bcb0 4faa 8e38 c6bc 90b6 e3f6 c13b
00000290: 9187 90b0 6325 8dba 68a1 89b8 2054 b139
000002a0: 94c4 a5b1 87d8 81b3 7cb8 45b2 e982 53b9
000002b0: 57ff 6cb3 71fe d533 19f1 7cae a449 4038
000002c0: d7e3 993b 8653 d6b9 bb3a 4432 8cfc 63ba
000002d0: fc61 eeb7 9de0 76b5 b4d4 51b3 da99 ecaf
000002e0: 5786 b332 ee88 922c e247 0534 ac40 3639
000002f0: ca20 4bb7 164b 91b9 7f5b 2936 ecca 8caf
00000300: 8a81 043c 569a 5dbc ffab c2bc c336 633d
00000310: 896f 8bac 285d 94b7 fb40 613a 497d a3af
00000320: c2a6 a335 9d0a 8f2b d86c 353d 8648 cfbc
00000330: 90d7 dfbc 66c9 233d b1b9 372e 0076 1d2c
00000340: 3221 8935 474d 97b9 b006 be3a 5ff5 013d
00000350: 1788 acba 3eaa 373c 3da9 2d2e bc3e 15b9
00000360: a1b1 3b3c 2a46 353d e9f3 cebc 90d7 dfbc
00000370: 71c9 233d a047 1e34 5d5b 4e3b 4fa7 3cba
00000380: 4405 81bc ae8c a63b b0c5 433c 612e f42c
00000390: e669 ad3b d9ad 68bc 06c0 a0bc 4df6 e2ac
000003a0: 918d d8ad 4596 9c36 0557 a6af 54dc 4535
000003b0: 5c7f 92b5 d441 cabb 13ba a12d fe1a 173b
000003c0: d338 14b9 74c3 1abc e3a3 622e cc33 fc31
000003d0: 3d7f 712f 0452 88b0 0c29 1eb4 1312 8736
000003e0: 6ce3 1331 008f beb2 f9f5 a437 f318 4bba
000003f0: 4bba 5fb2 1413 6136 0aed a337 cd73 002d

gnn.gnn_layers.0.res_connection.bias f4 [128]
-4.5674724e-06 -1.5977415e-05 0.00882159 0.0032810445 -0.010877835 1.098519e-06 -3.089762e-07 -5.238015e-05
-0.016546084 -0.06589751 -2.0643938e-06 -0.022886924 0.000638977 0.0050862846 -0.0048140185 -0.2375112
-3.073704e-05 -0.0003636032 -0.054051112 -0.00017170332 -1.8179473e-06 -0.0001815174 -0.16705033 -0.24480554
-0.00013916972 -1.8018045e-05 -0.00012655475 -0.0112751825 -0.004084752 -0.035892237 -2.3812629e-05 0.0063361716
-0.21433812 -0.0042993445 0.043334886 0.0016050736 -0.016125944 0.0099264 -0.0015205363 -3.5787914e-05
1.511615e-05 -0.004708738 -0.0003119191 -0.0012536106 -0.036924645 -7.1977097e-06 3.1804456e-07 1.7247292e-05
-0.06181179 0.0021689895 -0.07060241 -0.2912997 0.001239577 -0.003748888 -1.2748751e-06 -0.11009596
-0.032786425 -0.0011238572 -0.001457403 -0.40816584 -0.008956504 -0.01101103 -0.012294646 -0.00042885073
-0.04170709 4.138665e-06 -0.9605533 -0.12870851 -0.002355856 -1.9905323e-05 0.0044400864 -1.1222546e-07
-0.008215486 -1.9568816e-07 -1.17886444e-07 -8.469157e-05 7.8050034e-14 0.20756203 -0.015979748 -0.0006406612
-0.0014731914 -0.0007316509 0.00480296 -0.0026432332 -7.391511e-09 -0.0011389623 -0.019806178 -0.27073228
-0.034987476 -0.5818163 -0.43775323 -0.106683336 -0.04311145 0.005030972 -0.42575184 -0.075711206
-0.00011510426 -0.00034726463 -0.0026619954 -0.00011447808 -1.6505957e-05 -0.005732951 -0.002693872 0.0033148758
-0.09773266 -0.0005018615 4.118181e-05 0.000183956 -0.003254544 0.0034792654 -0.104088664 -8.524757e-06
6.853434e-07 -1.1429034e-06 -7.3881534e-10 -0.0020658793 -0.04052692 -0.0052617835 0.0015375369 -0.018690314
-0.048544068 -0.023782609 -0.006562503 -0.0016109362 -0.00032296107 -0.002766608 -0.0023542051 -0.019301437
00000000: 4a42 99b6 3d07 86b7 6e88 103c cb06 573b
00000010: f238 32bc d370 9335 5ee1 a5b4 c2b2 5bb8
00000020: a78b 87bc 46f5 86bd 048a 0ab6 5c7d bbbc
00000030: 0581 273a d9aa a63b eabe 9dbb 2336 73be
00000040: a5eb 00b8 ffa1 beb9 b364 5dbd 420b 34b9
00000050: 3200 f4b5 b555 3eb9 3e0f 2bbe 4eae 7abe
00000060: 16ee 11b9 7525 97b7 c8b3 04b9 8bbb 38bc
00000070: 62d9 85bb bd03 13bd 3bc1 c7b7 a99f cf3b
00000080: 747b 5bbe 84e1 8cbb ec7f 313d 5561 d23a
00000090: 8e1a 84bc 57a2 223c bb4c c7ba fb1a 16b8
000000a0: 5f9b 7d37 c24b 9abb 1389 a3b9 3150 a4ba
000000b0: 4c3e 17bd db83 f1b6 b6bf aa34 47ae 9037
000000c0: 5c2e 7dbd 9b25 0e3b ff97 90bd 3c25 95be
000000d0: 4d79 a23a e7af 75bb 601c abb5 fe79 e1bd
000000e0: 0f4b 06bd 644e 93ba 5406 bfba 1dfb d0be
000000f0: 4dbe 12bc 9b67 34bc 7c6f 49bc 5fd7 e0b9
00000100: 0ed5 2abd ddde 8a36 d2e6 75bf 2acc 03be
00000110: b464 1abb 5bfa a6b7 257e 913b 9900 f1b3
00000120: 3f9a 06bc 5a1e 52b4 c228 fdb3 719c b1b8
00000130: c8c0 af29 248b 543e f6e7 82bc 0cf2 27ba
00000140: 1a18 c1ba 43cc 3fba 2662 9d3b 183a 2dbb
00000150: 6bf8 fdb1 3c49 95ba 9140 a2bc 6c9d 8abe
00000160: 074f 0fbd eaf1 14bf 3121 e0be cb7c dabd
00000170: a295 30bd dada a43b 25fc d9be 7a0e 9bbd
00000180: 2164 f1b8 1211 b6b9 df74 2ebb f413 f0b8
00000190: 4676 8ab7 7bdb bbbb ac8b 30bb 633e 593b
000001a0: 1028 c8bd 5b8f 03ba a2ba 2c38 50e4 4039
000001b0: 304a 55bb 6304 643b 702c d5bd 8d05 0fb7
000001c0: 71f8 3735 dd65 99b5 8215 4bb0 b463 07bb
000001d0: 8eff 25bd 0a6b acbb 2d87 c93a 6e1c 99bc
000001e0: 25d6 46bd bfd3 c2bc 440a d7bb 0d26 d3ba
000001f0: 1a53 a9b9 fb4f 35bb 0249 1abb 0c1e 9ebc

gnn.gnn_layers.1.graph_conv.weight f4 [128, 128]
1.3507893e-07 1.4685747e-07 -1.4999532e-07 2.8291672e-07 -2.6793215e-10 5.232207e-07 -1.8274003e-09 6.793168e-07
1.964519e-11 -1.0523018e-09 2.7217712e-07 -4.195821e-11 4.778002e-10 -3.0499894e-10 2.1255668e-10 -2.4944898e-08
-5.5073756e-06 3.8893704e-11 6.8882833e-09 -7.3634735e-12 -1.7255279e-07 -1.1875396e-09 -8.0682e-07 4.73576e-10
-8.433365e-09 1.7514311e-09 7.404082e-09 3.6765752e-10 -3.089091e-07 -1.6650816e-07 -6.7742256e-08 -1.3135771e-08
-2.8758386e-06 2.2780739e-08 -5.1501807e-08 9.76339e-07 -9.4824784e-08 -1.0862265e-11 -2.1264421e-09 -2.3598508e-08
-3.8277796e-07 -3.9839925e-08 -1.7522174e-06 -4.8832134e-09 3.5013933e-08 -3.4156417e-06 5.8256475e-16 2.4138467e-06
9.187938e-11 4.551266e-08 -7.619041e-09 -2.8688913e-07 -3.4166288e-08 -6.001197e-08 -5.5824283e-09 1.1188184e-06
-5.333239e-07 -1.7575864e-08 2.2291673e-08 6.6266995e-07 1.6697352e-07 3.1365385e-08 -1.0065907e-08 7.7657853e-07
2.120951e-09 -2.8905628e-08 -9.697922e-10 -1.203322e-12 1.3058906e-08 -4.1814868e-11 3.2909335e-07 1.9903005e-08
5.149877e-07 1.5771795e-08 -1.4618392e-06 -2.2352632e-08 -6.0022856e-08 1.034453e-08 4.5380442e-11 -8.540395e-07
3.8595584e-07 -2.766247e-10 -1.5284718e-09 3.5406316e-08 -2.2759117e-08 -3.0248535e-09 1.4577145e-07 -2.304467e-06
2.3573192e-07 -2.2134227e-06 4.794506e-07 -3.845815e-06 -5.9390186e-07 -6.8568053e-09 3.8949055e-10 2.4179633e-08
-1.7249805e-08 -4.0846295e-09 -1.1516262e-09 8.75297e-08 4.742235e-06 3.7362393e-09 -1.1044998e-06 -1.1035289e-07
1.60746e-08 6.658899e-07 3.6661443e-06 2.1765391e-10 -1.9884008e-07 3.4628123e-08 -5.278833e-07 -7.6455154e-07
-3.9682965e-07 -1.923512e-08 -3.270633e-09 -8.699801e-08 3.2888806e-10 -3.2046216e-07 -1.7149166e-06 9.0023775e-07
-3.2888432e-09 -1.6280624e-09 -5.143723e-11 6.4469725e-07 2.0707938e-08 8.2589247e-07 -8.0392016e-07 7.608682e-08
8.285963e-07 2.2889802e-07 -6.697937e-07 -5.075225e-09 -1.3579497e-08 -3.8992084e-06 -2.8255792e-10 -5.732925e-06
4.243443e-11 -3.922602e-10 9.40303e-08 -2.8687306e-11 -9.0710855e-11 -1.5203568e-11 6.017269e-10 1.3912334e-07
2.2217428e-06 -2.1471127e-11 5.8867977e-09 1.9163842e-11 -1.9801653e-06 -2.5956783e-08 5.083613e-06 -4.234239e-12
-5.8680487e-09 -1.0602506e-09 -7.840026e-09 1.9105606e-09 3.9394124e-07 -9.5274095e-07 5.8472683e-06 5.961985e-10
-1.2639366e-07 1.6410516e-08 -6.193496e-07 -2.100118e-06 -2.597308e-07 -3.283997e-11 -1.559863e-11 7.579411e-08
1.01447796e-07 -7.0833565e-08 9.796772e-07 5.622035e-09 5.3450783e-08 3.372195e-06 -1.1158268e-14 1.0185667e-05
1.2020265e-10 -1.3973383e-08 -5.421792e-08 1.0390503e-06 -1.1299594e-07 8.900924e-09 -4.3076334e-09 -2.9646678e-08
3.95822e-07 6.84143e-08 -3.797183e-07 2.62685e-07 4.1640874e-06 1.5579849e-08 1.9621847e-07 2.0125335e-06
8.8006246e-08 1.3434497e-07 3.2610598e-10 -3.0739168e-11 6.3866146e-08 -1.1489505e-11 -1.1218964e-06 6.8241864e-11
-8.1487215e-08 -2.499289e-08 -3.5963535e-06 -6.266117e-06 -6.4553944e-07 -1.8843487e-08 -6.233919e-11 1.00625755e-07
3.7501309e-06 -6.931801e-10 -5.0510407e-10 -9.058249e-09 5.751768e-07 -4.0362536e-08 -1.888726e-08 3.037852e-06
-2.5372637e-07 -7.676061e-06 -4.449257e-08 -3.3877802e-07 1.915551e-06 2.2512306e-07 3.6513248e-09 2.3064846e-08
3.7169312e-07 -9.811702e-09 8.404519e-10 -9.0075423e-07 5.9714216e-06 4.8872863e-07 -2.0385785e-06 -7.17932e-07
2.477203e-09 2.3131659e-07 -1.3864775e-06 -2.2470105e-10 2.8995215e-08 9.199498e-08 5.0703075e-06 -1.9758218e-06
9.676993e-07 -3.2732893e-07 2.0642103e-08 -1.6134427e-07 2.7258001e-10 -1.2399606e-08 4.36142e-06 -1.1064701e-05
-8.0548425e-08 4.1665327e-10 -3.929166e-11 1.7122433e-07 -7.6320146e-07 -1.196273e-06 -2.2661597e-07 -1.02723035e-07
00000000: 370a 1134 e0af 1d34 660e 21b4 c7e3 9734
00000010: 194c 93af 7473 0c35 ef27 fbb0 4c5a 3635
00000020: 09cd ac2d 94a0 90b0 bd1f 9234 bf88 38ae
00000030: 3356 0330 c9ac a7af 63b5 692f 6946 d6b2
00000040: ffcb b8b6 6b0e 2b2e fbad ec31 238a 01ad
00000050: f346 39b4 d636 a3b0 4094 58b5 f32c 0230
00000060: 55e2 10b2 01b7 f030 fe66 fe31 321f ca2f
00000070: 25d8 a5b4 6ac9 32b4 b379 91b3 bbab 61b2
00000080: 88fe 40b6 60af c332 d632 5db3 c10a 8335
00000090: 7aa2 cbb3 4b17 3fad c420 12b1 abb5 cab2
000000a0: 9a80 cdb4 761c 2bb3 bb2d ebb5 33c9 a7b1
000000b0: 3a62 1633 4738 65b6 b1e9 2726 92fd 2136
000000c0: 7e0b ca2e b379 4333 e6e4 02b2 be05 9ab4
000000d0: 3bbe 12b3 eedf 80b3 8fcf bfb1 4f2a 9635
000000e0: bd29 0fb5 bcf9 96b2 e87b bf32 55e2 3135
000000f0: 5549 3334 9bb6 0633 54ee 2cb2 1276 5035
00000100: 2ac0 1131 264c f8b2 8849 85b0 3e5a a9ab
00000110: ad59 6032 5be7 37ae 3fae b034 2cf7 aa32
00000120: af3d 0a35 8b7a 8732 6a34 c4b5 f501 c0b2
00000130: eae5 80b3 b9b7 3132 d695 472e 2641 65b5
00000140: 5e35 cf34 7713 98af 5212 d2b0 a811 1833
00000150: d47f c3b2 c9dd 4fb1 5a85 1c34 71a6 1ab6
00000160: 7f1d 7d34 508a 14b6 98b3 0035 4d0b 81b6
00000170: a06c 1fb5 1999 ebb1 ec1f d62f 93b3 cf32
00000180: b92c 94b2 c858 8cb1 3f47 9eb0 f6f7 bb33
00000190: 7d1f 9f36 4f60 8031 533e 94b5 25fb ecb3
000001a0: 6b14 8a32 9bbf 3235 e107 7636 2150 6f2f
000001b0: bf80 55b4 06ba 1433 ddb3 0db5 953b 4db5
000001c0: da0b d5b4 7a3a a5b2 96c1 60b1 a9d3 bab3
000001d0: e1ce b42f fc0b acb4 162c e6b5 dea7 7135
000001e0: f101 62b1 5ac2 dfb0 2c39 62ae 420f 2d35
000001f0: 3de1 b132 e6b2 5d35 f9cc 57b5 2c65 a333
00000200: b46c 5e35 02c7 7534 dfcb 33b5 2762 aeb1
00000210: 424b 69b2 f2d5 82b6 7e56 9baf 735d c0b6
00000220: eca0 3a2e b7a5 d7af b4ed c933 1256 fcad
00000230: ac79 c7ae 64bb 85ad c466 2530 ef61 1534
00000240: 4019 1536 aedc bcad d244 ca31 2391 a82d
00000250: fbe2 04b6 92f7 deb2 e793 aa36 a2fa 94ac
00000260: e79f c9b1 40b8 91b0 cdb0 06b2 f04a 0331
00000270: df7e d334 dcbf 7fb5 a733 c436 bde1 2330
00000280: d3b6 07b4 1bf7 8c32 6141 26b5 c1ef 0cb6
00000290: 2171 8bb4 856e 10ae fe34 89ad 41c4 a233
000002a0: 84db d933 2a1d 98b3 747d 8335 f12b c131
000002b0: c291 6533 de4d 6236 6e02 49a8 1be3 2a37
000002c0: 0a2a 042f 970f 70b2 3cdd 68b3 7f75 8b35
000002d0: 2da8 f2b3 aeea 1832 5802 94b1 bca9 feb2
000002e0: 5d81 d434 29eb 9233 16dc cbb4 2707 8d34
000002f0: 3db9 8b36 73d4 8532 1fb0 5234 100f 0736
00000300: f2fd bc33 7740 1034 5647 b32f 3a31 07ae
00000310: c926 8933 2120 4aad 1194 96b5 c110 962e
00000320: 12fe aeb3 f2af d6b2 e258 71b6 8941 d2b6
00000330: 2249 2db5 44dd a1b2 d815 89ae 9817 d833
00000340: c2aa 7b36 378a 3eb0 8ad7 0ab0 9a9e 1bb2
00000350: d965 1a35 145b 2db3 863d a2b2 e6dd 4b36
00000360: e337 88b4 6ec8 00b7 1918 3fb3 4ce1 b5b4
00000370: ea8c 0036 5bb9 7134 c9ea 7a31 2220 c632
00000380: 1d8d c734 5290 28b2 8b05 6730 5ccb 71b5
00000390: 1f5e c836 2d31 0335 83ce 08b6 e9b7 40b5
000003a0: 6b3b 2a31 d25f 7834 0117 bab5 b90f 77af
000003b0: 2711 f932 c68e c533 9c21 aa36 5c98 04b6
000003c0: e5e1 8135 bfbb afb4 7750 b132 fa3d 2db4
000003d0: 3ada 952f 0b06 55b2 5058 9236 87a2 39b7
000003e0: f7f9 acb3 bc0e e52f 7ace 2cae c9d9 3734
000003f0: cede 4cb5 a18f a0b5 b953 73b4 9698 dcb3

gnn.gnn_layers.1.graph_conv.bias f4 [128]
-0.18763039 0.104116015 0.01531292 -0.0003223525 0.0011357379 -0.0070166104 1.2971835e-05 -0.046301678
1.4233302e-06 8.49925e-05 -0.007964863 -5.8219334e-06 -2.1075377e-05 -9.546643e-06 7.993437e-05 0.029219666
-0.011486137 -1.2627022e-06 0.00022705579 8.9897225e-07 0.044044755 -0.0022783433 0.031679653 -1.9780386e-05
-0.00048300144 -6.5333894e-05 -0.0014511864 -2.9908074e-06 0.0005709142 -0.01986854 0.02459421 -1.9530939e-05
-0.055218354 0.07065974 -0.024578039 0.075586565 -0.019564092 -2.1763828e-06 -4.97407e-05 0.0009929773
-0.025759166 0.0059275487 -0.06032829 1.4915626e-06 -0.0017629914 -0.005933822 7.5681666e-10 -0.040598057
8.2523724e-07 -0.0007661899 -0.0004155876 -0.013591687 0.0015264812 -0.019357884 -0.0016137073 -0.0009693472
-0.0031753075 0.0035264348 -0.006677804 -0.012324225 0.021638248 -6.779042e-05 0.0048668487 0.08268301
-0.007443289 -0.008852628 -0.00033822525 6.2138577e-07 -0.003211872 -4.133895e-06 0.021952271 -0.0003380169
0.0012421539 -9.5421994e-05 -0.052755773 0.030831555 0.0059423135 0.00012791024 2.9953821e-06 0.00047009074
0.07206591 -4.4324624e-05 1.8846884e-05 0.0019262781 -0.00086608005 6.92238e-05 -0.0040936973 0.123931274
0.06610527 -0.10250927 0.00010094358 -0.013621792 -0.13631 0.005484985 -1.181483e-05 -0.00070707395
-0.0013573703 -0.0010378329 4.852283e-05 0.0061470517 -0.010478412 -0.0033181328 0.047504075 -0.041639302
0.0015249538 0.042833652 0.027462885 1.08442755e-05 -0.0024363622 -0.0050901594 0.019255243 -0.07340272
0.0025957667 0.00080433977 -0.016527796 -0.014031673 2.1897817e-05 -0.015982436 0.06384598 0.011132074
0.0009114547 -1.1364377e-05 -2.5135437e-06 0.064154856 -0.0020774924 -0.073217824 -0.0020733022 -0.0018706049
00000000: 2e22 40be c73a d53d 0be3 7a3c 6c01 a9b9
00000010: 0add 943a 98eb e5bb 9ba1 5937 d4a6 3dbd
00000020: 4109 bf35 003e b238 0f7f 02bc 075a c3b6
00000030: 07cb b0b7 852a 20b7 70a2 a738 155e ef3c
00000040: 5a30 3cbc 1e7a a9b5 d315 6e39 e750 7135
00000050: 4668 343d 4250 15bb 86c2 013d 0eee a5b7
00000060: 5b3b fdb9 de03 89b8 bc35 beba aeb5 48b6
00000070: 67a9 153a 59c3 a2bc cc79 c93c 5fd6 a3b7
00000080: a42c 62bd 0eb6 903d e257 c9bc 21cd 9a3d
00000090: e044 a0bc f90d 12b6 aca0 50b8 ca26 823a
000000a0: e304 d3bc e23b c23b cc1a 77bd b331 c835
000000b0: 2d14 e7ba 8270 c2bb 3d08 5030 264a 26bd
000000c0: df85 5d35 22da 48ba 39e3 d9b9 abaf 5ebc
000000d0: 3614 c83a 6d94 9ebc 0883 d3ba ca1b 7eba
000000e0: d218 50bb c21b 673b 7bd1 dabb 8ceb 49bc
000000f0: b242 b13c b42a 8eb8 167a 9f3b b655 a93d
00000100: d5e6 f3bb 9d0a 11bc d353 b1b9 4ecd 2635
00000110: 457e 52bb e3b5 8ab6 40d5 b33c dc37 b1b9
00000120: c5cf a23a 4b1d c8b8 7016 58bd 7592 fc3c
00000130: bdb7 c23b a51f 0639 4604 4936 8376 f639
00000140: 4b97 933d 34e9 39b8 6019 9e37 2b7b fc3a
00000150: a609 63ba 3f2c 9138 6c24 86bb aecf fd3d
00000160: 3362 873d 61f0 d1bd acb1 d338 f02d 5fbc
00000170: d994 0bbe 64bb b33b 4f38 46b7 ee5a 39ba
00000180: cae9 b1ba e507 88ba fe84 4b38 356d c93b
00000190: a5ad 2bbc 0875 59bb a293 423d f98d 2abd
000001a0: f5e0 c73a 5772 2f3d d8f9 e03c cfef 3537
000001b0: 60ab 1fbb 5acb a6bb 2cbd 9d3c 2a54 96bd
000001c0: bd1d 2a3b 54da 523a 4d65 87bc 1ae5 65bc
000001d0: 34b1 b737 99ed 82bc aec1 823d 4d63 363c
000001e0: b1ee 6e3a a1a9 3eb7 5aae 28b6 9f63 833d
000001f0: 8a26 08bb 3af3 95bd 3de0 07bb 162f f5ba

gnn.gnn_layers.1.res_connection.weight f4 [128, 128]
-5.61277e-07 -9.233154e-09 -9.1080736e-05 -0.00041957086 0.0005646177 -4.8386323e-07 4.0602126e-09 1.125633e-05
-0.0013018503 -0.04363055 -1.07305546e-07 0.00065272034 0.00030346538 -0.0008083483 -0.010606241 0.012067044
-8.881639e-06 7.916639e-06 -0.0116968565 -1.3111899e-05 -3.5723156e-07 -4.0927375e-06 0.00460161 -0.00032556197
2.8185592e-05 -5.7775014e-07 4.076238e-06 0.00769107 -0.001173469 -0.007277194 -1.5564452e-05 -0.00078998436
-0.0067444043 -0.0003035042 -0.0028841363 -0.0009380689 0.01840994 0.00060320296 -0.0036767044 7.813108e-08
-8.491901e-11 -0.0027156333 -3.847327e-05 5.9702943e-05 -0.009216917 -8.471352e-07 4.8469207e-07 -4.312418e-05
-0.0017847754 2.2813048e-05 0.010191224 0.014476719 2.7667122e-05 -0.00017801012 3.822317e-06 -0.007542084
0.0015871562 7.52198e-05 -0.0023357212 -0.046533074 -8.378407e-05 -0.03053045 -0.012151424 -0.000120481476
-0.0020597165 3.6138663e-06 0.018922448 0.00021459947 -0.00010977649 -2.8673187e-06 -0.0017523692 -3.0373124e-09
0.00019708196 -1.2752737e-08 -1.6541136e-08 1.0448176e-06 9.752843e-15 0.0036341113 -0.0003109999 0.00019548874
0.00020677087 0.00018377257 0.0013524857 0.00043373308 6.2960344e-09 0.00011245478 0.0035586935 0.07495931
-0.006754564 0.0036790422 -0.034214824 0.010641998 -0.0055603967 0.0015124088 0.014360554 -0.0035425117
-2.796242e-06 -1.1006541e-05 -9.1888374e-05 2.0308285e-06 1.9692234e-06 6.2979285e-05 0.0001852397 9.416131e-06
0.008656847 -6.70742e-07 -4.9020593e-07 2.3846671e-05 0.0049577695 -0.00014011412 0.0054450664 1.5109888e-06
2.627265e-06 2.3555235e-07 3.3218126e-11 9.5729156e-05 0.0026829662 0.0016526359 -0.0063448967 0.000262405
-0.00050405925 0.00026628154 0.0006976437 0.004150741 -0.0016561438 -0.00027343436 -2.448136e-05 -0.001277303
1.7503564e-07 -4.7738895e-06 0.0043611685 0.017841455 -0.0029254607 -3.9694614e-06 -1.3155565e-07 9.166693e-05
-0.022771962 -0.058335226 -1.7856983e-06 -0.016872551 -0.001628715 -0.025868395 -0.08833241 0.018083954
7.911264e-06 -3.571831e-05 0.12931056 1.2211751e-05 1.7220299e-07 2.0624659e-05 -0.16218606 -0.1520101
-2.3183014e-05 -9.011956e-05 7.587149e-05 -0.07986992 -7.3095354e-05 0.008350937 1.1071184e-05 0.0012800453
0.10809375 -8.505731e-05 -0.07411517 0.010099833 -0.13967776 -0.011300861 0.18503211 1.9410107e-05
-2.6946225e-05 -0.018278033 1.871481e-06 -9.225901e-06 0.07937252 -1.6447066e-07 -3.764395e-07 -0.00051360513
-0.07235216 -0.01794414 -0.011210684 -0.3111216 -0.00716349 -0.00065490906 2.1708409e-05 -0.24292429
-0.010830223 -0.00014164274 -0.0034964436 0.13497719 -0.01024325 -0.025550712 -0.0014437698 -2.7050071e-05
0.013698265 2.4612254e-06 -0.009668668 -0.09442891 -0.0018570662 -1.100892e-06 -0.037998546 -3.1920802e-08
-0.0064261644 5.8206588e-08 -6.0893274e-07 4.7771147e-05 -2.6374427e-13 -0.2942368 0.013842133 -0.00031368592
-0.0013766835 0.00056081644 -0.017251458 -0.0013912503 -1.6144982e-07 -0.00013502676 0.005009774 0.001050241
-0.0036316325 0.32924044 -0.13094074 0.03721529 -0.009813493 -0.0013609013 0.053985007 0.011327966
-5.752331e-06 0.000101679616 -0.0012609623 -1.4225371e-05 -1.9080553e-06 -0.00089060917 -0.0007498086 -0.009050022
-0.024927234 -0.0003486711 -6.005319e-05 0.00028219435 -0.007689391 -0.008176806 -0.0072602453 -3.3767043e-05
1.9497115e-06 8.495366e-07 -4.214133e-10 0.0028127772 0.012159417 0.00445709 -0.017192854 0.0102710435
-0.06772158 -0.024892122 -0.11616532 -0.016213672 -0.008191733 -0.00011690574 -0.00024174167 -0.020978637
00000000: a9aa 16b5 d79f 1eb2 9902 bfb8 d9f9 dbb9
00000010: da02 143a d4e2 01b5 0282 8b31 92d9 3c37
00000020: d9a2 aaba f3b5 32bd d96f e6b3 521b 2b3a
00000030: 6f1a 9f39 56e7 53ba cdc5 2dbc dab4 453c
00000040: 5902 15b7 b5d1 0437 2ca4 3fbc 2dfb 5bb7
00000050: 88c9 bfb4 5954 89b6 1ac9 963b 30b0 aab9
00000060: 1970 ec37 b016 1bb5 9ec6 8836 5f05 fc3b
00000070: 16cf 99ba 8775 eebb 6890 82b7 f416 4fba
00000080: 2a00 ddbb a51f 9fb9 c703 3dbb bde8 75ba
00000090: 71d0 963c 4420 1e3a ddf4 70bb 04c9 a733
000000a0: 27bd baae c4f8 31bb 5c5e 21b8 8c69 7a38
000000b0: 8d02 17bc b066 63b5 c91b 0235 3ce0 34b8
000000c0: 20ef e9ba a65e bf37 17f9 263c c32f 6d3c
000000d0: b116 e837 3aa8 3ab9 7441 8036 9623 f7bb
000000e0: 2008 d03a 53bf 9d38 e612 19bb 7799 3ebd
000000f0: 3bb5 afb8 ff1a fabc c416 47bc 00ab fcb8
00000100: 4ffc 06bb c085 7236 4003 9b3c 1b06 6139
00000110: ce37 e6b8 296c 40b6 c1af e5ba f7b8 50b1
00000120: c9a7 4e39 2117 5bb2 5816 8eb2 a93b 8c35
00000130: 0db1 2f28 452a 6e3b b30d a3b9 1cfc 4c39
00000140: a2d0 5839 13b3 4039 e445 b13a ab66 e339
00000150: 8154 d831 b3d5 eb38 f838 693b 4484 993d
00000160: 6455 ddbb 161c 713b d824 0cbd c65b 2e3c
00000170: fd33 b6bb 053c c63a 8748 6b3c 7c29 68bb
00000180: 12a7 3bb6 bca8 38b7 32b4 c0b8 5e49 0836
00000190: 0027 0436 bf13 8438 e73c 4239 faf9 1d37
000001a0: 73d5 0d3c 0a0d 34b5 b296 03b5 560a c837
000001b0: c974 a23b 99eb 12b9 876c b23b 2ecd ca35
000001c0: 1250 3036 23ec 7c34 4918 122e 33c2 c838
000001d0: b4d4 2f3b 429d d83a dae8 cfbb 6793 8939
000001e0: d822 04ba b49b 8b39 14e2 363a f002 883b
000001f0: f712 d9ba bd5b 8fb9 525d cdb7 2d6b a7ba
00000200: 6ef1 3b34 662f a0b6 22e8 8e3b 3e28 923c
00000210: 16b9 3fbb 6a31 85b6 be41 0db4 4f3d c038
00000220: 448c babc ebf0 6ebd 20ac efb5 4e38 8abc
00000230: 9b7a d5ba f5e9 d3bc 9fe7 b4bd cd24 943c
00000240: 9fba 0437 3ed0 15b8 fd69 043e 12e1 4c37
00000250: cce6 3834 1e03 ad37 1a14 26be 89a8 1bbe
00000260: 2579 c2b7 92fe bcb8 321d 9f38 d792 a3bd
00000270: c54a 99b8 5ed2 083c 60be 3937 31c7 a73a
00000280: 4260 dd3d cc60 b2b8 b2c9 97bd c579 253c
00000290: b007 0fbe 3f27 39bc 0f79 3d3e e3d2 a237
000002a0: 940a e2b7 d0bb 95bc 992f fb35 f1c8 1ab7
000002b0: 0f8e a23d 5a99 30b4 7319 cab4 75a3 06ba
000002c0: 5f2d 94bd 97ff 92bc 04ad 37bc 554b 9fbe
000002d0: b6bb eabb 34ae 2bba 741a b637 25c1 78be
000002e0: 3f71 31bc ef85 14b9 9724 65bb 7637 0a3e
000002f0: 4ed3 27bc ba4f d1bc e03c bdba 96e9 e2b7
00000300: b06e 603c 882b 2536 5569 1ebc f263 c1bd
00000310: cd68 f3ba 5cc2 93b5 5da4 1bbd 4b19 09b3
00000320: 9392 d2bb d2fe 7933 8a75 23b5 e15d 4838
00000330: 8e79 94aa 35a6 96be 1dca 623c 3676 a4b9
00000340: d571 b4ba c103 133a ee52 8dbc 9d5a b6ba
00000350: fd5a 2db4 f895 0db9 0829 a43b 3da8 893a
00000360: af00 6ebb 3492 a83e 5415 06be 0f6f 183d
00000370: c6c8 20bc 4560 b2ba 621f 5d3d ef98 393c
00000380: 2604 c1b6 d43c d538 e046 a5ba 81a9 6eb7
00000390: 240c 00b6 c577 69ba ce8e 44ba 8b46 14bc
000003a0: 3334 ccbc d8cd b6b9 9fe1 7bb8 7cf3 9339
000003b0: 49f7 fbbb 03f8 05bc 5ae7 edbb 16a1 0db8
000003c0: cad7 0236 b60b 6435 a6ac e7af 9256 383b
000003d0: 4b38 473c c80c 923b 07d8 8cbc e147 283c
000003e0: 9db1 8abd 90ea cbbc 15e8 edbd 89d2 84bc
000003f0: 9e36 06bc 4b2b f5b8 097c 7db9 64db abbc

gnn.gnn_layers.1.res_connection.bias f4 [128]
-0.12706411 0.11768907 0.017745305 0.00040106528 0.00037506942 -0.016175343 -3.6687203e-07 -0.013382819
-6.996313e-07 -7.2255694e-05 -0.015871765 2.0745451e-06 -2.4169623e-05 -2.9260813e-05 0.00013480768 -0.016227685
-0.019624444 -3.5004487e-06 0.000112298425 1.5774991e-06 -0.0017478559 0.004817115 -0.031705674 -2.645891e-05
-0.0020945573 1.2061345e-05 0.0004521641 -3.2426462e-05 -0.012227133 0.028618209 -0.025421023 2.8815834e-05
-0.046392072 0.05907098 -0.018914444 0.0042376714 -0.027396493 3.4957216e-06 -1.6117754e-05 -0.0019508473
-0.011314961 0.0045299814 0.0044622174 0.0011854267 -0.0061615314 -0.015812967 -1.1351137e-09 0.018006882
3.1027753e-06 -0.003352834 0.00012552227 -0.00338669 0.00048353095 0.0033694254 -0.0018501458 -0.0013460602
-0.01018568 -0.0050129443 -0.0059546656 0.0041050036 -0.032109294 -0.0002934776 -0.020368593 -0.019140227
-0.0010716513 0.00028759998 -0.00077007577 -9.617487e-08 -0.00094052014 -2.8916295e-06 -0.030056704 -0.00015493688
-0.00426928 -0.00020501416 -0.018596346 -0.110554844 0.009135147 -0.00023603035 -3.035549e-06 0.0065387585
0.05759114 -3.4474702e-05 -5.0239898e-05 -0.0016819566 0.014514067 -0.00034345823 -0.01271511 -0.14582448
0.04706742 -0.2014321 -0.0002745807 0.006637657 0.12190966 0.0017661533 -0.00019668874 -0.0023045812
-0.0067784116 -0.0005787319 -1.3393938e-05 -0.0018802206 0.0015313372 0.02465196 -0.006079731 -0.0052768327
0.0014025193 0.02347307 0.034310654 -5.6974596e-07 -0.0047756587 -0.0013779682 0.054868586 -0.114785954
-0.008579336 -0.00016599368 0.0201208 -0.002653001 -2.4007328e-05 -0.01767457 0.024064153 -0.034326825
-0.00041348193 -0.00010489371 1.7883074e-06 0.0033757768 -0.023629125 -0.025481777 0.014162322 0.0074008545
00000000: 181d 02be f806 f13d 9a5e 913c 1246 d239
00000010: f7a4 c439 2782 84bc 82f6 c4b4 9c43 5bbc
00000020: 4cce 3bb5 fb87 97b8 8105 82bc 6a38 0b36
00000030: dfbf cab7 1e75 f5b7 295b 0d39 ecef 84bc
00000040: 71c3 a0bc 40e9 6ab6 c281 eb38 75ba d335
00000050: 5018 e5ba e4d8 9d3b cfdd 01bd 14f4 ddb7
00000060: d744 09bb 155b 4a37 7010 ed39 a601 08b8
00000070: 5054 48bc bc70 ea3c c03f d0bc 88b9 f137
00000080: 9d05 3ebd 69f4 713d 77f2 9abc 2adc 8a3b
00000090: 9c6e e0bc 0a98 6a36 9d34 87b7 93b3 ffba
000000a0: 6362 39bc 3d70 943b cb37 923b 5260 9b3a
000000b0: ace6 c9bb 328a 81bc 4302 9cb0 2b83 933c
000000c0: 4639 5036 38bb 5bbb a19e 0339 3bf3 5dbb
000000d0: 6d82 fd39 94d1 5c3b 9780 f2ba 496e b0ba
000000e0: d7e1 26bc a043 a4bb 5b1f c3bb 4483 863b
000000f0: 0985 03bd e6dd 99b9 09dc a6bc f7cb 9cbc
00000100: a776 8cba 04c9 9639 e9de 49ba b288 ceb3
00000110: 3d8d 76ba d10d 42b6 7a39 f6bc 8d76 22b9
00000120: 51e5 8bbb 12f9 56b9 5d57 98bc 946a e2bd
00000130: 95ab 153c ea7e 77b9 56b6 4bb6 1543 d63b
00000140: b0e4 6b3d ee98 10b8 aeb8 52b8 1975 dcba
00000150: 69cc 6d3c 2f12 b4b9 0953 50bc 0353 15be
00000160: c4c9 403d 3744 4ebe 99f5 8fb9 b480 d93b
00000170: c6ab f93d 457e e73a 3b3e 4eb9 7508 17bb
00000180: 701d debb 0ab6 17ba 87b6 60b7 bc71 f6ba
00000190: 26b7 c83a e8f2 c93c 7b38 c7bb 48e9 acbb
000001a0: bdd4 b73a 984a c03c 5489 0c3d a5f0 18b5
000001b0: 217d 9cbb f19c b4ba e2bd 603d e614 ebbd
000001c0: 5890 0cbc 970e 2eb9 60d4 a43c f9dd 2dbb
000001d0: 5863 c9b7 43ca 90bc 3022 c53c 499a 0cbd
000001e0: 9bc8 d8b9 62fa dbb8 c605 f035 233c 5d3b
000001f0: de91 c1bc 29bf d0bc 1509 683c de82 f23b

readout.weight_and_sum.atom_weighting.0.weight f4 [1, 128]
0.028702917 -0.02417275 0.027408466 4.9252798e-05 -0.0006013924 -0.036785148 1.7487744e-05 0.24554151
2.2796848e-06 -0.00012503284 -0.0015954475 1.3189983e-05 -1.817755e-05 -2.1377604e-05 0.0001370299 0.024519807
-0.0067288005 -1.5614556e-06 6.486605e-06 -1.5766569e-06 0.5797237 -0.0025620782 -0.012307644 4.0265448e-05
0.0049086274 0.00020543238 0.008943341 -1.3219264e-05 0.63919383 0.0016912587 -0.02885491 -1.0438053e-05
0.12807387 0.0011230217 0.14835234 0.29785326 0.026814044 -1.3348919e-05 9.878153e-06 0.004987506
0.09728613 0.14236508 0.05331889 0.000826608 0.07880682 0.45710582 -5.758667e-10 0.4624198
4.2222426e-05 0.00077041565 0.010715594 0.45009163 -3.730585e-05 -0.002069614 0.016714906 0.038777743
-0.0062280335 0.009652271 -0.00086074375 0.036196884 -0.032041464 0.001970962 0.103072226 0.15054773
0.0004282432 0.07770532 -0.0005015652 2.7204308e-08 0.0005796246 4.1980766e-06 0.54761213 0.0023162155
0.16444233 -0.00029204367 0.10739547 -0.02300306 0.1628324 -1.7253293e-05 -1.7530398e-07 0.018959006
0.5042029 0.000318932 0.0009918367 0.0050889296 -0.002685637 0.0014093285 -0.004414691 -0.0023738688
-0.013630524 0.52844757 -3.5492987e-05 -0.0030105163 0.39225006 -0.018489094 -0.00018708193 0.006095564
-0.00029126255 0.0054526837 0.00033065415 0.0030266384 0.2805507 0.00058578 0.35349283 0.005072622
-0.00011937712 -0.0032014258 0.12238184 5.137685e-05 -0.00044489434 0.01833578 0.7430564 0.1659934
-0.0069491863 -0.0021071064 0.016731977 -0.005483476 8.778731e-05 0.0039676265 0.049425762 0.2631051
-0.0015289491 -8.384624e-06 -4.261614e-06 0.01571189 -0.0046623307 0.43535435 0.016225783 -0.025909983
00000000: 6122 eb3c ee05 c6bc b887 e03c ca94 4e38
00000010: c3a6 1dba 06ac 16bd a5b2 9237 3c6f 7b3e
00000020: b0fc 1836 3f1b 03b9 561e d1ba 8c4a 5d37
00000030: fe7b 98b7 0e54 b3b7 afaf 0f39 c3dd c83c
00000040: 457d dcbb 3593 d1b5 83a7 d936 859d d3b5
00000050: c668 143f 8ae8 27bb 00a6 49bc b2e2 2838
00000060: 8dd8 a03b 5669 5739 1787 123c 4ec8 5db7
00000070: 35a2 233f 3aad dd3a 2261 ecbc 191f 2fb7
00000080: cc25 033e 5b32 933a ade9 173e 3980 983e
00000090: 20a9 db3c 2cf5 5fb7 58ba 2537 3c6e a33b
000000a0: f33d c73d 27c8 113e e964 5a3d b9b0 583a
000000b0: 7865 a13d c609 ea3e 044b 1eb0 4ac2 ec3e
000000c0: fc17 3138 b8f5 493a 7590 2f3c 6972 e63e
000000d0: da78 1cb8 5ca2 07bb b3ed 883c 69d5 1e3d
000000e0: 8814 ccbb 8f24 1e3c 89a3 61ba 2f43 143d
000000f0: e93d 03bd 412b 013b 8817 d33d 2f29 1a3e
00000100: d485 e039 f823 9f3d 797b 03ba e8ae e932
00000110: f3f1 173a 34dd 8c36 4f30 0c3f a6cb 173b
00000120: 9263 283e 701d 99b9 28f2 db3d ea70 bcbc
00000130: 89bd 263e 2abb 90b7 313b 3cb4 eb4f 9b3c
00000140: 7113 013f 5436 a739 8400 823a 09c1 a63b
00000150: 8301 30bb 38b9 b83a 1da9 90bb e992 1bbb
00000160: 9052 5fbc 5748 073f 4ede 14b8 154c 45bb
00000170: 00d5 c83e 7176 97bc 6c2b 44b9 4cbd c73b
00000180: 99b4 98b9 6dac b23b a65b ad39 915a 463b
00000190: 57a4 8f3e 088f 193a 03fd b43e 3d38 a63b
000001a0: 1a5a fab8 03cf 51bb 55a3 fa3d 797d 5738
000001b0: b540 e9b9 eb34 963c f238 3e3f 2dfa 293e
000001c0: 00b6 e3bb 6117 0abb 8011 893c bbae b3bb
000001d0: 741a b838 dd02 823b ab72 4a3d b6b5 863e
000001e0: 0567 c8ba b0ab 0cb7 fcfe 8eb6 39b6 803c
000001f0: 77c6 98bb c4e6 de3e efeb 843c 2c41 d4bc
