1-GNNs/result/6108_AR_NURA_AFP_0920/23/model.pth (torch, 67981 bytes, 40 tensors)

gnn.init_context.project_node.0.weight f4 [16, 74]
0.034183525 0.07797942 -0.09934117 -0.016078176 0.27674276 -1.14579e-40 0.027031068 -0.34588665
-0.06924325 1.46474e-40 -2.519e-41 -2.67041e-40 -1.74107e-40 3.62414e-40 -3.4409e-41 -0.33602786
1.92492e-40 -1.90788e-40 -2.58464e-40 -2.12145e-40 -1.58853e-40 -1.026e-41 1.75754e-40 7.7776e-41
-8.244e-41 5.0347e-41 9.022e-41 -6.7031e-41 1.03651e-40 2.56296e-40 1.55984e-40 -2.00307e-40
2.49371e-40 -1.63935e-40 -1.76697e-40 -2.3704e-41 2.01518e-40 -8.1638e-41 -2.40973e-40 1.14693e-40
6.0051e-41 -4.95171e-40 1.67199e-40 -7.768e-41 0.18717544 -0.06631122 0.14019117 0.22724047
-5.6105e-41 6.1101e-41 -1.65638e-40 -8.2323e-41 1.5488e-40 1.46919e-40 0.17118038 0.29756433
-0.07338761 -0.08813832 1.22038e-40 1.37323e-40 -4.96658e-40 0.42771572 -0.002387982 0.6802658
-0.1057487 0.108022116 -5.8855e-41 1.43464e-40 -0.25257418 0.14742109 0.1103409 -0.028068522
-0.09135524 -8.8865e-41 -0.061625108 0.773822 0.04723907 -0.070172235 0.27110568 -8.5809e-41
-0.081048146 -0.29724964 0.08098763 -1.91186e-40 3.11436e-40 2.23053e-40 2.15534e-40 6.2571e-41
3.17775e-40 -0.071229406 -4.9599e-41 -1.84213e-40 -1.20627e-40 2.85858e-40 3.706e-42 1.92446e-40
-1.87673e-40 -4.024e-40 3.84549e-40 4.7892e-40 -2.2967e-41 5.76765e-40 4.503e-40 -1.1126e-41
-2.08903e-40 1.65638e-40 2.5002e-41 -3.0981e-41 -9.2657e-41 1.63107e-40 -2.23871e-40 8.1684e-41
2.46319e-40 -2.52253e-40 1.07565e-40 -4.21897e-40 1.94738e-40 -2.78455e-40 0.06755081 0.15313457
0.10209229 -0.09696973 1.5177e-41 -3.1521e-41 -1.7408e-40 1.83018e-40 -3.2474e-41 -2.78701e-40
0.12502725 -0.04881458 -0.036294557 0.0901316 -4.5531e-41 2.02828e-40 1.92117e-40 0.32483217
0.0021457444 0.17410274 0.058808956 0.19220856 3.21204e-40 2.58234e-40 -0.000736497 0.016190851
-0.12935239 0.11426084 0.061935265 -1.49083e-40 0.06272371 0.19578572 0.020274945 1.515309
0.12459629 -1.19906e-40 0.7984192 0.050276715 0.18987425 -3.43149e-40 -1.81243e-40 -6.7568e-41
-1.75347e-40 1.87882e-40 8.751e-42 -0.08864879 2.132e-40 1.9386e-41 -3.23862e-40 -8.1256e-41
1.56135e-40 2.00471e-40 4.0939e-41 -1.64894e-40 3.58912e-40 1.47358e-40 1.63286e-40 -4.0533e-41
1.02694e-40 -3.124e-41 -1.45578e-40 2.0088e-41 2.60103e-40 -2.85422e-40 3.8599e-41 -2.85855e-40
-6.8e-41 -1.68014e-40 -8.9292e-41 -1.61973e-40 -1.46373e-40 -5.2644e-41 2.04605e-40 1.05962e-40
-0.14274035 0.26456746 0.46248043 -0.32145014 -9.534e-42 5.5753e-41 -1.04534e-40 4.6358e-41
2.06694e-40 -1.14018e-40 0.34929138 0.08695505 0.14649959 -0.18049188 3.5372e-41 4.05655e-40
-1.5237e-40 -0.15061948 -0.005251894 -0.03315375 0.27105436 0.21107037 -1.10127e-40 -4.45243e-40
0.4780319 0.25358608 0.0876147 0.064548925 -0.08629159 2.37625e-40 0.15123712 -0.33792812
-0.12416727 0.32621828 -0.095653854 -3.6357e-41 0.08404059 0.38859951 0.011963074 2.04797e-40
-3.64472e-40 -7.2464e-41 -1.62776e-40 1.31693e-40 1.60807e-40 0.05159027 2.6654e-40 7.1608e-41
3.6763e-41 1.9106e-40 2.76238e-40 8.2804e-41 -1.59209e-40 -9.1063e-41 -4.1882e-41 9.8762e-41
3.956e-42 -2.766e-40 8.799e-42 6.0288e-40 -2.00442e-40 6.0487e-41 -1.95897e-40 1.39397e-40
00000000: 0604 0c3d adb3 9f3d 6273 cbbd 61b6 83bc
00000010: 3ab1 8d3e 663f 0180 4270 dd3c 0e18 b1be
00000020: 68cf 8dbd 4f98 0100 3846 0080 67e8 0280
00000030: 57e5 0180 43f2 0300 eb5f 0080 d80b acbe
00000040: 9718 0200 d713 0280 7ed0 0280 604f 0280
00000050: d1ba 0180 9a1c 0080 eee9 0100 cfd8 0000
00000060: cfe5 0080 598c 0000 7ffb 0000 dbba 0080
00000070: f020 0100 73ca 0200 d2b2 0100 602e 0280
00000080: 25b7 0200 fcc8 0180 8fec 0180 1442 0080
00000090: c031 0200 93e3 0080 bc9f 0280 b83f 0100
000000a0: 66a7 0000 5664 0580 15d2 0100 8ad8 0080
000000b0: ebaa 3f3e 2dce 87bd 468e 0f3e bab1 683e
000000c0: 669c 0080 53aa 0000 bbcd 0180 7ce5 0080
000000d0: beaf 0100 8d99 0100 e949 2f3e 5a5a 983e
000000e0: 3e4c 96bd dd81 b4bd 3154 0100 cd7e 0100
000000f0: 7b68 0580 8efd da3e b17f 1cbb e625 2e3f
00000100: c692 d8bd b33a dd3d 10a4 0080 eb8f 0100
00000110: 6751 81be 8ef5 163e 69fa e13d f5ef e5bc
00000120: 7518 bbbd b8f7 0080 9c6a 7cbd 3319 463f
00000130: c17d 413d 76b6 8fbd 5dce 8a3e 33ef 0080
00000140: 92fc a5bd 1b31 98be d8dc a53d f314 0280
00000150: 2864 0300 c86d 0200 d258 0200 6cae 0000
00000160: d475 0300 b9e0 91bd 438a 0080 8301 0280
00000170: 4250 0180 db1c 0300 550a 0000 7618 0200
00000180: 280b 0280 ba61 0480 f72f 0400 0937 0500
00000190: 0640 0080 c947 0600 41e7 0400 041f 0080
000001a0: 5646 0280 bbcd 0100 b245 0000 5d56 0080
000001b0: 4a02 0180 adc6 0100 1070 0280 b4e3 0000
000001c0: a3ae 0200 2ebf 0280 d92b 0100 1498 0480
000001d0: da1e 0200 3808 0380 1458 8a3d 4fcf 1c3e
000001e0: c315 d13d 1198 c6bd 4f2a 0000 de57 0080
000001f0: 44e5 0180 2efe 0100 865a 0080 e808 0380
00000200: 2507 003e ccf1 47bd 9aa9 14bd eb96 b83d
00000210: ec7e 0080 6735 0200 8b17 0200 6750 a63e
00000220: 9e9f 0c3b fd47 323e a9e1 703d 52d2 443e
00000230: 637f 0300 dacf 0200 7a11 41ba ada2 843c
00000240: f474 04be 9601 ea3d d5af 7d3d 959f 0180
00000250: 4a75 803d 0d7c 483e a417 a63c a5f5 c13f
00000260: 572c ff3d 404e 0180 3365 4c3f f5ee 4d3d
00000270: 656e 423e 8fbc 0380 3bf9 0180 5abc 0080
00000280: cce8 0180 bd0b 0200 6518 0000 7f8d b5bd
00000290: 5152 0200 0a36 0000 cc86 0380 82e2 0080
000002a0: 3eb3 0100 d52e 0200 1f72 0000 a8cb 0180
000002b0: 80e8 0300 c69a 0100 2dc7 0100 fd70 0080
000002c0: 451e 0100 1657 0080 d095 0180 ff37 0000
000002d0: 10d5 0200 a41b 0380 996b 0000 d91c 0380
000002e0: 8ebd 0080 5bd4 0180 e9f8 0080 84c3 0180
000002f0: 0798 0180 c092 0080 5b3a 0200 6127 0100
00000300: 872a 12be 6375 873e 3cca ec3e 1d95 a4be
00000310: 941a 0080 6b9b 0000 6623 0180 3a81 0000
00000320: 2e40 0200 d63d 0180 52d6 b23e 7d15 b23d
00000330: fd03 163e ddd2 38be 9a62 0000 cd6a 0400
00000340: bfa8 0180 fe3b 1abe 1418 acbb 3acc 07bd
00000350: a3c7 8a3e d522 583e fd32 0180 28d9 0480
00000360: 99c0 f43e 09d6 813e 566f b33d 3a32 843d
00000370: a5b9 b0bd 6796 0200 e7dd 1a3e ea04 adbe
00000380: 694b febd 1506 a73e 2be6 c3bd 5965 0080
00000390: 791d ac3d 84f6 c63e c500 443c e43a 0200
000003a0: 00f8 0380 00ca 0080 c1c5 0180 1b6f 0100
000003b0: 44c0 0100 5250 533d 01e7 0200 9dc7 0000
000003c0: 7b66 0000 9914 0200 0a02 0300 d3e6 0000
000003d0: cfbb 0180 d9fd 0080 c074 0080 4f13 0100
000003e0: 070b 0000 0c03 0380 8718 0000 9690 0600
000003f0: c02e 0280 9da8 0000 1522 0280 9584 0100

gnn.init_context.project_node.0.bias f4 [16]
0.010757001 0.10980419 0.12748949 0.14132676 0.098069124 0.18157965 -0.018089525 0.055471074
0.050431628 0.014074807 0.090817854 0.018729005 -0.011235519 -0.05278172 -0.06592971 0.11131546
00000000: 223e 303c 05e1 e03d 9b8c 023e f6b7 103e
00000010: 77d8 c83d 04f0 393e 7c30 94bc a335 633d
00000020: 6591 4e3d 059a 663c b6fe b93d 926d 993c
00000030: 2f15 38bc a531 58bd 2806 87bd 5cf9 e33d

gnn.init_context.project_edge1.0.weight f4 [16, 87]
0.10802244 -0.036905468 0.018519552 -0.25843784 0.50165576 -5.834e-42 0.03659569 -0.24196072
-0.04699108 1.41765e-40 2.63367e-40 2.85897e-40 3.41502e-40 7.3294e-41 -1.913e-40 -0.07296864
-9.896e-42 -2.05362e-40 3.17481e-40 1.4674e-41 -1.47363e-40 -1.3531e-40 2.61873e-40 1.56894e-40
-1.87302e-40 -1.78356e-40 9.9627e-41 8.97e-41 -2.26252e-40 -3.5248e-41 1.35885e-40 1.57342e-40
1.74492e-40 -9.462e-42 2.51668e-40 9.185e-41 1.69438e-40 -1.311e-41 2.80788e-40 -4.6552e-40
3.13388e-40 -1.23715e-40 -1.84906e-40 -1.8939e-40 0.017743643 0.1814493 0.03209216 -0.11136545
-7.3621e-41 4.36664e-40 -2.0036e-41 -3.5081e-40 -1.93711e-40 4.22971e-40 0.06129749 0.21652263
0.086934544 -0.26475382 -1.95909e-40 1.55426e-40 -1.86517e-40 -0.27628633 0.0014706987 0.14857194
0.001796086 0.043712858 -1.2622e-40 1.15424e-40 -0.4781861 -0.0863159 0.1712489 0.061331414
-0.1706405 2.0966e-40 0.060139038 0.12357564 -0.12685089 -0.103069074 0.10567789 -0.25652725
0.07556145 -1.8939e-40 -2.12826e-40 -2.27597e-40 1.10232e-40 2.1625e-40 0.19212294 0.068054646
0.042263795 0.2558028 -0.000547428 -0.13972709 -1.45389e-40 -0.040226817 0.030793974 0.09854606
3.42631e-40 1.45757e-40 -2.827e-41 -1.30164e-40 -3.1278e-41 -1.53118e-40 -0.016058233 -1.35728e-40
2.3605e-41 3.05812e-40 4.61501e-40 -9.7704e-41 1.71862e-40 -1.1918e-40 -3.90923e-40 -2.27172e-40
4.95915e-40 -1.39708e-40 1.39028e-40 -3.37038e-40 -4.38252e-40 -6.003e-42 -4.6805e-41 4.7037e-41
-2.06331e-40 5.9884e-41 6.394e-41 3.576e-41 -1.66016e-40 -1.95212e-40 -1.27012e-40 2.00422e-40
3.95344e-40 1.41198e-40 -3.91963e-40 0.25748008 -0.010185652 -0.18591924 0.05080519 1.76373e-40
2.86588e-40 1.78436e-40 -3.09927e-40 1.42258e-40 -1.2757e-40 -0.11340513 0.04959813 0.09430683
0.14866306 8.4256e-41 -1.19728e-40 1.61846e-40 0.2861398 0.00024137965 -0.10133081 -0.029387703
0.086377464 1.57639e-40 7.20918e-40 0.040074386 -0.121133074 0.04268964 0.08114023 0.0053298413
4.37148e-40 -0.0034579872 0.16652595 -0.022249809 0.08624707 0.0600603 -0.077596314 -0.0032062258
2.69599e-40 -8.8887e-41 4.7574e-41 1.43228e-40 -3.55948e-40 0.0021288416 0.061201997 -0.4073424
0.13280359 -0.23105271 -0.16891445 1.05528e-40 -0.016227754 -0.13849562 0.0021051716 2.09654e-40
-3.336e-42 1.25069e-40 -5.9485e-41 5.87007e-40 2.34908e-40 0.020292774 -6.8955e-41 -2.0416e-41
-3.46035e-40 -1.82526e-40 -1.10616e-40 -8.8896e-41 4.39747e-40 -1.1813e-41 2.00041e-40 3.69063e-40
-2.94235e-40 1.8492e-40 -1.42795e-40 1.10446e-40 1.0113e-40 4.90609e-40 2.19403e-40 -2.12864e-40
4.2277e-41 4.3353e-41 1.5042e-40 1.9156e-40 -1.80507e-40 -2.89451e-40 2.51582e-40 -9.9572e-41
-4.7996e-40 -6.7353e-41 0.09467139 -0.20042302 0.06115862 -0.21142463 1.00201e-40 -3.88975e-40
2.0856e-41 3.34735e-40 2.09134e-40 1.26717e-40 0.06970867 0.0961125 -0.2438589 -0.06813805
3.5176e-40 -1.58372e-40 -1.68498e-40 -0.16316947 -0.0008148263 -0.3050846 0.11932917 -0.11482524
1.23774e-40 1.62223e-40 -0.62543213 0.0984072 0.11199485 -0.30628863 -0.06466574 6.056e-42
-0.07667846 0.18837245 -0.14581624 -0.02483924 -0.13264142 -0.37575385 0.07822343 1.80874e-40
00000000: de3a dd3d 302a 17bd 51b6 973c f751 84be
00000010: 836c 003f 4310 0080 5de5 153d 8dc4 77be
00000020: b879 40bd 2f8b 0100 29de 0200 f71c 0300
00000030: f8b7 0300 50cc 0000 4415 0280 9570 95bd
00000040: 961b 0080 773c 0280 0275 0300 e828 0000
00000050: ca9a 0180 3079 0180 ffd9 0200 5bb5 0100
00000060: 1f0a 0280 2ff1 0180 b815 0100 0cfa 0000
00000070: b376 0280 4262 0080 cb7a 0100 9bb6 0100
00000080: 6ae6 0100 601a 0080 8cbd 0200 0a00 0100
00000090: 53d8 0100 8c24 0080 b90e 0300 ae11 0580
000000a0: 9969 0300 de58 0180 7103 0280 f10f 0280
000000b0: 1e5b 913c d8cd 393e 1273 033d 9213 e4bd
000000c0: 3acd 0080 3ec1 0400 da37 0080 ead1 0380
000000d0: fd1b 0280 129b 0400 1413 7b3d 1cb8 5d3e
000000e0: bd0a b23d d08d 87be 1d22 0280 44b1 0100
000000f0: ef07 0280 6775 8dbe 76c4 c03a 3e23 183e
00000100: a56a eb3a 410c 333d da5f 0180 c141 0100
00000110: cfd4 f4be 64c6 b0bd df5b 2f3e a636 7b3d
00000120: 62bc 2ebe 7248 0200 5a54 763d 3a15 fd3d
00000130: 33e5 01be e115 d3bd a66d d83d 8a57 83be
00000140: f6bf 9a3d f10f 0280 4651 0280 737a 0280
00000150: 4833 0100 d15a 0200 e0bb 443e 3c60 8b3d
00000160: cd1c 2d3d 96f8 823e 4581 0fba 9e14 0fbe
00000170: 4995 0180 e0c4 24bd a543 fc3c 84d2 c93d
00000180: 1ebb 0300 5096 0100 ce4e 0080 d86a 0180
00000190: 3157 0080 d5aa 0180 8e8c 83bc 5b7a 0180
000001a0: cd41 0000 7b54 0300 7a06 0500 5c10 0180
000001b0: 15df 0100 3a4c 0180 bc41 0480 4379 0280
000001c0: 6966 0500 7385 0180 8e83 0100 86ab 0380
000001d0: abc5 0480 bc10 0080 7982 0080 1f83 0000
000001e0: 2b3f 0280 efa6 0000 3db2 0000 af63 0000
000001f0: c9ce 0180 2c20 0280 0f62 0180 b22e 0200
00000200: 0f4e 0400 9a89 0100 a244 0480 6ed4 833e
00000210: b9e1 26bc 9d61 3ebe 1a19 503d a8eb 0100
00000220: e41e 0300 68f1 0100 f35f 0380 8f8c 0100
00000230: 9d63 0180 f340 e8bd 6927 4b3d f023 c13d
00000240: 213b 183e dfea 0000 c14d 0180 29c3 0100
00000250: ea80 923e db1a 7d39 8786 cfbd 7bbe f0bc
00000260: abe6 b03d 6fb7 0100 a0d9 0700 0a25 243d
00000270: 9e14 f8bd 55db 2e3d d92c a63d f3a5 ae3b
00000280: 97c2 0400 669f 62bb c785 2a3e 3b45 b6bc
00000290: 4ea2 b03d ca01 763d d1ea 9ebd 8b1f 52bb
000002a0: 88ef 0200 c8f7 0080 9e84 0000 438f 0100
000002b0: 3de0 0380 0984 0b3b f2ae 7a3d 2f8f d0be
000002c0: aafd 073e 1599 6cbe e9f7 2cbe 2b26 0100
000002d0: 11f0 84bc ccd1 0dbe ebf6 093b 6e48 0200
000002e0: 4d09 0080 a45c 0100 d2a5 0080 5664 0600
000002f0: d48e 0200 083d a63c 38c0 0080 e938 0080
00000300: 9bc4 0380 cffc 0180 5a34 0180 cef7 0080
00000310: d6c9 0400 ee20 0080 a22d 0200 cc04 0400
00000320: 3534 0380 7b03 0200 0e8e 0180 e133 0100
00000330: e919 0100 9e57 0500 9b63 0200 6151 0280
00000340: da75 0000 da78 0000 4fa3 0100 fe15 0200
00000350: 2ef7 0180 df26 0380 4fbd 0200 9115 0180
00000360: ef39 0580 c1bb 0080 13e3 c13d b13b 4dbe
00000370: 7681 7a3d b37f 58be 5217 0100 4e3c 0480
00000380: 233a 0000 1ba5 0300 fb46 0200 3c61 0100
00000390: 6bc3 8e3d a1d6 c43d 26b6 79be f68b 8bbd
000003a0: 90d4 0300 7ab9 0180 b4d5 0180 e615 27be
000003b0: 119a 55ba 0c34 9cbe da62 f43d 7f29 ebbd
000003c0: 0859 0100 36c4 0100 521c 20bf b789 c93d
000003d0: 8e5d e53d ddd1 9cbe 796f 84bd e210 0000
000003e0: 9909 9dbd b5e4 403e da50 15be a97b cbbc
000003f0: 27d3 07be cf62 c0be 9b33 a03d 34f8 0100

gnn.init_context.project_edge1.0.bias f4 [16]
0.051310025 0.021914842 0.043284345 0.092311546 -0.027376883 0.042238425 0.028466629 0.052657958
0.0751034 0.09256894 0.017467089 -0.009826862 -0.02039699 0.10444002 0.053617388 0.08218402
00000000: 762a 523d c186 b33c ed4a 313d d60d bd3d
00000010: 7c45 e0bc 3302 2d3d d932 e93c dfaf 573d
00000020: d0cf 993d c994 bd3d 2417 8f3c d900 21bc
00000030: 9717 a7bc a6e4 d53d e89d 5b3d 1850 a83d

gnn.init_context.project_edge2.1.weight f4 [1, 32]
0.0847792 0.015307989 0.056576204 -0.01181572 0.070989996 0.032966968 0.0018738398 0.012686787
0.016592594 0.032754302 0.093112074 0.063509546 0.06844751 -0.035441324 0.00042065408 0.09635692
-0.41274184 0.019803869 -0.052267108 -0.18625161 0.1187525 -0.25345775 -0.2614593 0.60772264
-0.25547308 -0.04798116 0.30651748 0.5657975 -0.06831746 0.085430086 0.30217856 0.2528837
00000000: b8a0 ad3d 5cce 7a3c 73bc 673d b996 41bc
00000010: 3463 913d 5f08 073d a19b f53a 3edc 4f3c
00000020: 31ed 873c 6029 063d 8bb1 be3d 4b11 823d
00000030: 352e 8c3d ec2a 11bd 3c8b dc39 c756 c53d
00000040: e652 d3be b93b a23c 0916 56bd beb8 3ebe
00000050: 8334 f33d 37c5 81be fedd 85be b693 1b3f
00000060: 5ecd 82be e587 44bd dcef 9c3e 1bd8 103f
00000070: 06ea 8bbd f8f5 ae3d 26b7 9a3e f979 813e

gnn.init_context.attentive_gru.edge_transform.1.weight f4 [16, 16]
-0.012764791 0.023819398 -0.2928479 -0.08214925 -0.16967817 0.032315966 -0.21242736 0.45261613
0.19730072 -0.2998328 0.055827226 0.4342311 0.0019311591 -0.06780087 0.020693297 0.022779983
0.21642536 -0.104547486 0.33323476 0.18207036 0.010005946 -0.16828914 0.08314616 -0.25152963
-0.1738761 -0.021637887 -0.20264141 -0.45287016 0.02482348 -0.033711325 -0.057851117 0.17042427
0.08335961 0.17864232 -0.111481816 0.25572595 0.060436726 0.12957406 -0.14112481 -0.29013824
0.38869807 0.24588509 -0.05469224 -0.22333552 0.09338908 -0.05039962 -0.083856285 0.15320018
0.30649322 -0.071058504 0.13381687 0.15725169 0.1665688 0.0102677 0.08702591 -0.337911
0.03230894 0.14971176 0.0342903 -0.49918032 0.016664436 0.23134668 0.17879789 0.063874036
-0.003240618 -0.3090774 -0.45844528 0.101858325 -0.22396965 -0.002297159 -0.34961516 0.26370645
-0.08076236 -0.28963113 0.2564039 0.5354105 -0.20795302 -0.29670998 0.20416065 0.2162081
0.211912 0.18183108 0.025199322 0.106439225 0.28500095 0.28126818 0.11501013 -0.49015588
-0.12440218 0.04876856 -0.04298363 -0.59365755 0.073549576 0.2128704 0.13970205 -0.03622455
0.20808929 -0.22850712 -0.041633565 -0.24059121 -0.1843871 0.1383219 0.0075418204 -0.025472494
0.24520977 -0.13097972 0.14492354 0.13792568 -0.049383603 0.063595675 0.2821752 0.32109034
-0.121730916 -0.13351211 -0.16232955 -0.05765711 -0.029929053 0.11131685 -0.17610244 0.4443772
-0.10228662 -0.2311448 0.100832745 0.47768328 -0.15920106 -0.18828613 -0.05217186 0.09580226
-0.28092876 -0.10557536 -0.29806823 -0.056121662 -0.190927 0.049031988 -0.32985616 0.48420846
-0.017111711 -0.21868701 0.22927445 0.55197316 -0.03468799 -0.26632908 0.01718871 -0.19099468
0.057669412 -0.05580749 -0.19359082 0.021783646 -0.13724257 -0.121643394 -0.34514508 0.41741702
0.24609664 -0.22745581 0.35159785 0.28128526 -0.23872107 0.18403405 0.11803559 0.07026147
-0.18346705 -0.24882394 -0.33026075 -0.012269189 0.059902284 -0.07232202 -0.26755634 0.20154211
0.119286634 -0.10224007 -0.12650001 0.5012243 -0.2441994 -0.15412214 0.074076064 0.0021047886
0.08618984 -0.16612485 0.028418992 -0.08636598 -0.03250328 0.08866111 0.28694537 -0.31060138
-0.1841634 0.114203334 0.07242671 -0.5207765 0.1697821 -0.16993825 0.01676247 -0.04765608
0.017223435 0.35923752 0.2824903 0.2514768 0.36563733 0.11071217 0.1829301 -0.25158748
0.067227386 0.3691467 -0.32496879 -0.27619222 -0.012832298 0.07916708 -0.2199692 -0.20831831
-0.041856464 -0.013665641 -0.3790633 -0.1692484 -0.13067228 -0.055831954 -0.12617716 0.46542263
0.12799752 -0.035014473 0.10857798 0.5322344 -0.24859694 0.017334415 0.15895933 0.07124766
0.23274523 0.14269121 -0.47521996 -0.1731899 -0.14747143 -0.089305095 -0.22273397 0.5067641
0.122051805 0.20639735 0.23947056 0.6031932 -0.28049308 -0.17496903 -0.14404729 0.2098768
-0.009082125 0.2434276 0.36683887 0.16918314 0.07122086 0.06573302 0.1396027 -0.23089842
0.18182343 -0.06827741 0.008166173 -0.37331757 -0.09949924 -0.14074564 -0.13153341 0.19819069
00000000: 6a23 51bc e620 c33c 29f0 95be de3d a8bd
00000010: 1dc0 2dbe bf5d 043d 8f86 59be 4dbd e73e
00000020: 3309 4a3e af83 99be 17ab 643d 8a53 de3e
00000030: f21e fd3a 2fdb 8abd fd84 a93c 169d ba3c
00000040: 9c9e 5d3e fe1c d6bd bf9d aa3e a770 3a3e
00000050: fbef 233c fd53 2cbe 8948 aa3d 7ec8 80be
00000060: 940c 32be f041 b1bc 3b81 4fbe 99de e7be
00000070: 9c5a cb3c e314 0abd 4bf5 6cbd b383 2e3e
00000080: 71b8 aa3d 03ee 363e 9450 e4bd 83ee 823e
00000090: 808c 773d 10af 043e 0683 10be 008d 94be
000000a0: 6f03 c73e 4dc9 7b3e f804 60bd 11b2 64be
000000b0: c642 bf3d d56f 4ebd d8bc abbd 82e0 1c3e
000000c0: aeec 9c3e 1f87 91bd 4a07 093e 9606 213e
000000d0: 0391 2a3e db39 283c a43a b23d ac02 adbe
000000e0: 6156 043d 0a4e 193e fc73 0c3d 9094 ffbe
000000f0: db83 883c 25e6 6c3e cb16 373e 64d0 823d
00000100: 8c60 54bb 653f 9ebe 57b9 eabe 199b d03d
00000110: 4d58 65be ef8b 16bb c200 b3be 8804 873e
00000120: bc66 a5bd 884a 94be 5f47 833e aa10 093f
00000130: a3f1 54be 5fea 97be 7d0f 513e a865 5d3e
00000140: 76ff 583e ed31 3a3e cf6e ce3c cffc d93d
00000150: a5eb 913e 6202 903e 6e8a eb3d b6f5 fabe
00000160: 92c6 febd 8bc1 473d 9a0f 30bd f1f9 17bf
00000170: 29a1 963d b3fa 593e 0e0e 0f3e 3260 14bd
00000180: 5c15 553e c5fd 69be f587 2abd 8b5d 76be
00000190: f9cf 3cbe 42a4 0d3e 6021 f73b b1ab d0bc
000001a0: 4518 7b3e 8c1f 06be d666 143e 643c 0d3e
000001b0: 7646 4abd 733e 823d 4579 903e f465 a43e
000001c0: 0f4e f9bd 66b7 08be b839 26be dd29 6cbd
000001d0: c62d f5bc 17fa e33d 3354 34be 6985 e33e
000001e0: a67b d1bd 39b1 6cbe 6681 ce3d e792 f43e
000001f0: 9a05 23be 14ce 40be 29b2 55bd fa33 c43d
00000200: e5d5 8fbe e537 d8bd 669c 98be d4df 65bd
00000210: 5e82 43be c4d5 483d e8e2 a8be 2cea f73e
00000220: dc2d 8cbc 7def 5fbe ecc6 6a3e 1d4e 0d3f
00000230: fe14 0ebd 495c 88be 56cf 8c3c 1c94 43be
00000240: c336 6c3d 6596 64bd ac3c 46be 9e73 b23c
00000250: 5189 0cbe 2c20 f9bd dbb6 b0be afb7 d53e
00000260: c200 7c3e 2dea 68be a204 b43e 9f04 903e
00000270: 4c73 74be 6c73 3c3e a5bc f13d 3fe5 8f3d
00000280: c9de 3bbe b4cb 7ebe f017 a9be b504 49bc
00000290: 195c 753d 911d 94bd 25fd 88be 0e61 4e3e
000002a0: 8d4c f43d 3e63 d1bd 3889 01be 3c50 003f
000002b0: 680f 7abe 32d2 1dbe 31b5 973d 7ef0 093b
000002c0: 4d84 b03d a21c 2abe f2ce e83c a6e0 b0bd
000002d0: 2922 05bd f593 b53d 81ea 923e 2507 9fbe
000002e0: 5595 3cbe 70e3 e93d 7454 943d 9c51 05bf
000002f0: 5cdb 2d3e 4b04 2ebe 7351 893c 0633 43bd
00000300: 2918 8d3c fbed b73e 92a2 903e 91c1 803e
00000310: d134 bb3e 10bd e23d 0752 3b3e 13d0 80be
00000320: 83ae 893d cc00 bd3e 4f62 a6be 1169 8dbe
00000330: 8f3e 52bc 5a22 a23d 9b3f 61be 6551 55be
00000340: af71 2bbd dae5 5fbc 9614 c2be 744f 2dbe
00000350: f4ce 05be 0cb0 64bd 9634 01be e04b ee3e
00000360: c811 033e 566b 0fbd 225e de3d 8340 083f
00000370: 3290 7ebe e700 8e3c 3cc6 223e 4bea 913d
00000380: c454 6e3e a51d 123e 0850 f3be b158 31be
00000390: c002 17be 97e5 b6bd 6014 64be 4bbb 013f
000003a0: 4cf6 f93d d459 533e c537 753e df6a 1a3f
000003b0: ca9c 8fbe 152b 33be 2281 13be f2e9 563e
000003c0: 31cd 14bc 1645 793e 4ed2 bb3e 583e 2d3e
000003d0: 3edc 913d 099f 863d 03f4 0e3e a370 6cbe
000003e0: ec2f 3a3e 07d5 8bbd 69cb 053c 7b23 bfbe
000003f0: 42c6 cbbd a01f 10be b2b0 06be 80f2 4a3e

gnn.init_context.attentive_gru.edge_transform.1.bias f4 [16]
-0.20182383 0.1880147 0.2435488 -0.061915196 0.004025999 0.2266387 -0.0113393 -0.07246778
-0.26172295 -0.08520876 0.043086886 0.24550281 -0.022290071 -0.09011441 -0.16525008 0.19377074
00000000: e8aa 4ebe ed86 403e db64 793e ca9a 7dbd
00000010: 87ec 833b fa13 683e 79c8 39bc fd69 94bd
00000020: 8d00 86be ee81 aebd e07b 303d 1765 7b3e
00000030: ab99 b6bc e78d b8bd 5137 29be d66b 463e

gnn.init_context.attentive_gru.gru.weight_ih f4 [48, 16]
0.06599386 -0.08468319 -0.09544823 -0.038671248 0.04214433 -0.09337292 -0.07094412 0.08037541
0.08245791 -0.043435592 0.041325748 -0.029597767 -0.007906741 0.028056571 0.014947868 -0.013594506
0.041518975 0.051881015 0.13983648 -0.054268863 0.14006077 -0.0037814833 0.12546524 0.01711038
-0.06607403 0.14786723 0.06260693 -0.012788292 -0.122680284 0.1013903 0.10863348 -0.014317215
-0.01233667 -0.0069628726 0.038160063 -0.002059799 -0.008779896 0.07066642 0.06469146 0.019449254
-0.08199416 -0.03021297 0.033840366 -0.0074389623 -0.01437396 -0.045848284 -0.007378428 0.028386107
-0.19270654 0.0046382304 0.20838147 0.17949156 -0.21113919 0.12257627 -0.036177494 -0.16080368
-0.18713753 -0.08585974 -0.13662432 0.031988036 0.13243167 -0.2178451 -0.1105911 0.11217321
-0.039407413 0.023667334 0.20098253 -0.016199252 0.0042614182 -0.022522839 0.055129435 -0.031402126
0.103326306 0.08343014 0.041838277 0.00072621176 0.01721332 0.042473372 0.054548576 0.13053612
-0.059575763 -0.011047104 0.041909628 0.020868983 -0.06360236 0.0033423179 0.07864889 -0.03265216
-0.061874557 0.041747782 -0.044945393 0.0016647899 0.010170742 -0.06773824 -0.071602985 0.055069618
0.0047867345 -0.0045667137 -0.0035589158 -0.0053459713 0.0027174028 -0.0054881074 -0.00073761167 0.004817828
0.0058753365 0.0030106343 0.0043123625 -0.004759511 -0.0018787547 0.004207127 0.0040996647 -0.0053040786
-0.07156603 0.07519381 0.24188177 0.13604048 -0.027179627 0.14751115 0.10543775 -0.09817279
-0.15378071 0.06674693 -0.04992294 0.044112787 0.041086305 -0.014888368 0.07641364 0.16972357
-0.010590188 0.0099829845 0.049158063 0.008373864 -0.029898731 0.019647611 0.018707095 -0.019828796
-0.032698438 0.011987496 -0.0011002503 -0.0021980351 0.031019185 0.0034055097 0.014241617 0.022330832
-0.026570112 0.011907702 -0.0098330695 -0.033218004 0.23332165 -0.09942201 0.19519502 -0.07039118
0.08459654 0.13262287 0.1018256 0.06512025 -0.38325766 0.14954291 -0.097923264 -0.032187875
0.0119518805 -0.008529635 0.036348272 -0.002892274 0.026083522 0.0023062928 0.035631586 0.0018653868
0.00021543936 0.026195567 0.016337197 0.0031391743 -0.017964043 0.021107286 0.020427769 0.018340366
0.049496993 -0.057583977 -0.0110066 -0.053827394 0.12806644 -0.024231343 0.066872545 0.067492954
0.018218193 0.096711904 0.10117792 -0.0229154 -0.11364312 0.1388735 0.07117692 -0.04192365
0.051098414 0.12937227 -0.10566277 -0.059420023 0.0054609273 0.10114955 0.18159062 -0.16052547
-0.16788083 0.050895475 -0.031521786 0.057096828 -0.024793396 -0.011664872 -0.051310703 0.13876761
-0.076892406 0.0723112 0.17074212 0.11269182 -0.063608184 0.051349383 0.0978373 -0.10592425
-0.15398331 0.02366984 -0.049300652 0.0721105 0.10841389 -0.03545949 0.07678871 0.06632904
-0.048086956 0.029025177 0.1725012 0.08611173 0.112903096 -0.0018345229 0.177116 -0.004428953
-0.041476194 0.13736516 0.023350265 -0.002582054 -0.097057134 0.06661908 0.16649471 0.10066288
-0.004851861 0.009671889 0.012461791 -0.007691189 0.07825815 0.010530846 0.08726876 0.016616728
-0.03822015 0.046472922 0.023982631 0.029689949 -0.058276847 0.027287276 0.011076133 0.04171074
00000000: ca27 873d 616e adbd 5d7a c3bd be65 1ebd
00000010: 889f 2c3d 4d3a bfbd 274b 91bd dd9b a43d
00000020: b1df a83d 85e9 31bd 3045 293d 0477 f2bc
00000030: 478b 01bc e5d6 e53c e7e7 743c 7ebb 5ebc
00000040: cd0f 2a3d 3081 543d 4b31 0f3e 0749 5ebd
00000050: 176c 0f3e c3d2 77bb f679 003e 112b 8c3c
00000060: d251 87bd 826a 173e 1038 803d fc85 51bc
00000070: cd3f fbbd b8a5 cf3d 3b7b de3d c192 6abc
00000080: bf1f 4abc cf28 e4bb ba4d 1c3d b1fd 06bb
00000090: 8ed9 0fbc 8eb9 903d f57c 843d 0b54 9f3c
000000a0: 8eec a7bd 3181 f7bc 329c 0a3d 8ac2 f3bb
000000b0: c280 6bbc 69cb 3bbd bdc6 f1bb fb89 e83c
000000c0: dd54 45be 4cfc 973b f461 553e a3cc 373e
000000d0: df34 58be 4409 fb3d da2e 14bd b8a9 24be
000000e0: fba0 3fbe 3bd7 afbd 3fe7 0bbe e305 033d
000000f0: 2b9c 073e c912 5fbe 967d e2bd 11bb e53d
00000100: ab69 21bd ffe1 c13c 5dce 4d3e 4bb4 84bc
00000110: 5ea3 8b3b d181 b8bc 67cf 613d 849f 00bd
00000120: be9c d33d 6cdd aa3d 9d5e 2b3d 3f5f 3e3a
00000130: f302 8d3c 8ff8 2d3d 546e 5f3d 43ab 053e
00000140: b705 74bd eafe 34bc 6ea9 2b3d 6ef5 aa3c
00000150: f441 82bd ca0a 5b3b ab12 a13d 45be 05bd
00000160: 2d70 7dbd b9ff 2a3d a918 38bd 1435 da3a
00000170: 2fa3 263c 59ba 8abd 96a4 92bd ae90 613d
00000180: 0ada 9c3b 5fa4 95bb b33c 69bb 422d afbb
00000190: 7416 323b 95d5 b3bb 485c 41ba dfde 9d3b
000001a0: e585 c03b 104e 453b b84e 8d3b acf5 9bbb
000001b0: 8c40 f6ba f0db 893b 7b56 863b d6cd adbb
000001c0: 3691 92bd 36ff 993d dbaf 773e 324e 0b3e
000001d0: cfa7 debc 2a0d 173e bfef d73d d10e c9bd
000001e0: b178 1dbe 9db2 883d ff7b 4cbd 9caf 343d
000001f0: 1d4a 283d 57ee 73bc c17e 9c3d 04cc 2d3e
00000200: 7882 2dbc ac8f 233c f759 493d 8832 093c
00000210: 2fee f4bc 07f4 a03c 9f3f 993c 0070 a2bc
00000220: ccee 05bd 3467 443c 4636 90ba e90c 10bb
00000230: f21b fe3c f92e 5f3b ac55 693c 26ef b63c
00000240: 90a9 d9bc 8618 433c e21a 21bc 9a0f 08bd
00000250: dfeb 6e3e c49d cbbd 34e1 473e 4029 90bd
00000260: f340 ad3d 4ace 073e f189 d03d c45d 853d
00000270: 593a c4be c721 193e fe8b c8bd 6fd7 03bd
00000280: d2d1 433c e2bf 0bbc ede1 143d 4e8c 3dbb
00000290: 1cad d53c 2c25 173b 6df2 113d ff7f f43a
000002a0: 90e7 6139 1698 d63c 96d5 853c 9bba 4d3b
000002b0: 5429 93bc 30e9 ac3c 2358 a73c 893e 963c
000002c0: 5cbd 4a3d 2ddd 6bbd 0755 34bc 1d7a 5cbd
000002d0: d923 033e cf80 c6bc 79f4 883d bf39 8a3d
000002e0: 523e 953c e410 c63d 5f36 cf3d 14b9 bbbc
000002f0: b9bd e8bd db34 0e3e 34c5 913d 22b8 2bbd
00000300: 924c 513d 2a7a 043e b965 d8bd 6962 73bd
00000310: 94f1 b23b 7f27 cf3d e4f2 393e ca60 24be
00000320: f4e8 2bbe c677 503d fd1c 01bd 5dde 693d
00000330: 851b cbbc 051e 3fbc 2c2b 52bd 1919 0e3e
00000340: c479 9dbd e517 943d 06d7 2e3e f8ca e63d
00000350: 0245 82bd bb53 523d ec5e c83d d0ee d8bd
00000360: cdad 1dbe 41e7 c13c 7bef 49bd abae 933d
00000370: 1a08 de3d f83d 11bd 6643 9d3d 85d7 873d
00000380: d4f6 44bd 35c6 ed3c 28a4 303e 595b b03d
00000390: bd39 e73d 6074 f0ba e65d 353e c020 91bb
000003a0: f1e2 29bd 74a9 0c3e 0e49 bf3c ad37 29bb
000003b0: e4c5 c6bd 966f 883d 977d 2a3e 5728 ce3d
000003c0: 5cfc 9ebb d876 1e3c 8a2c 4c3c 5f06 fcbb
000003d0: cf45 a03d 9289 2c3c f7b9 b23d ce1f 883c
000003e0: bb8c 1cbd 645a 3e3d 3977 c43c 5638 f33c
000003f0: b4b3 6ebd 9189 df3c ab78 353c e2d8 2a3d

gnn.init_context.attentive_gru.gru.weight_hh f4 [48, 16]
-0.02548435 -9.6445285e-05 -0.011624029 -0.10564771 -0.008682483 -0.06360722 0.0003110843 -0.029147362
-0.016626496 0.10079027 0.04219076 -0.03401027 -0.008366363 0.0024638998 -0.06885578 0.048560478
0.17183772 0.17235117 0.13854769 0.08391677 -0.08965219 0.028760627 -0.0008158513 -0.028157996
0.004262651 0.061318737 0.1094254 0.040625118 0.16370337 0.0078101866 0.07624518 0.21571313
-0.04220505 -0.04462596 0.122572705 0.08176369 -0.0535878 -0.031525984 -0.00021026681 0.008489776
-0.0009130624 -0.038697846 0.08565372 -0.08746673 0.0035323123 0.020439995 0.01258232 0.079517454
0.16011836 0.05534299 -0.0113832215 -0.093993664 0.19682239 -0.00495839 0.00036681656 0.036247227
0.15195964 -0.03197542 0.19961509 -0.06340341 0.039247636 -0.020928055 -0.007894388 -0.12382514
0.121763185 0.112540685 0.047906816 0.0032204583 0.14371549 0.011761179 -0.00018930799 -0.06040535
0.11205813 0.110894956 -0.025854254 0.06164829 0.010743055 -0.038555432 -0.028497674 -0.052116536
0.08370505 -0.0294096 -0.17277537 -0.023599869 0.04816544 0.06983565 5.2124586e-05 -0.0040439474
0.08574481 0.046961956 0.028574578 -0.10327874 -0.05246219 -0.0061789006 0.03612495 -0.095568374
-0.0017994223 0.002438291 0.00053988694 0.00022628113 -0.0012063314 -0.0011466406 -6.4868673e-06 -0.0006893499
-0.0015399924 0.0015754204 0.0013702848 -0.0027513413 0.001593063 0.00044660375 0.0014700147 0.0032144017
0.15588973 0.1919679 0.2105409 0.06529365 0.09966828 0.10672865 -0.00093798415 0.035532877
0.09146962 0.17220308 0.086867705 -0.26878324 0.18973944 0.063587464 0.009155342 0.1113951
0.092426315 0.040003583 0.13132337 0.04040667 -0.0110097835 0.056894936 0.00096180645 -0.012508934
0.031808894 0.0047151325 -0.04591393 0.015128646 0.043845735 -0.004982575 0.012142644 0.062102947
-0.028574081 0.103148766 0.14098938 0.051419478 -0.08367142 0.035746895 -0.0005234646 -0.055483934
-0.014226539 0.22109686 0.10733908 0.1978849 0.10781371 -0.05033525 0.04080753 0.22570856
0.011392197 0.035362422 0.07960484 0.031777542 0.035218004 0.044606756 3.2671596e-05 0.0005060327
0.045421954 0.018395659 0.052686103 0.0143844895 0.014216271 0.002240054 0.0002766977 0.032753464
0.081555136 0.07984828 0.0016769706 0.038978614 0.026363194 0.031057334 -0.0003921464 0.15996855
0.025140025 0.109148644 -0.021131324 0.123078175 0.063411385 0.103524245 0.015537199 0.024967676
0.04453664 0.18248765 -0.061772503 0.052085266 -0.050263837 -0.034852624 -9.482223e-05 0.008582302
-0.07573122 0.23475441 -0.03019952 -0.09211501 0.18781239 0.020047668 0.0090995915 0.027319063
0.09625051 0.07591255 0.024930986 0.03548335 0.13670756 0.06801172 4.8226586e-05 -0.014031276
0.02677776 0.038601805 0.14504014 -0.22393197 0.16126497 0.039264526 0.03628656 0.09789558
0.2702589 0.22809844 0.4264744 0.106273144 -0.06999355 0.14637218 0.00024892087 -0.07591372
0.0154964505 0.1553893 0.19036268 -0.0030713843 0.27759114 0.014788435 0.011166784 0.121512055
0.042874537 0.032649096 0.062171225 0.07008689 0.04200069 -0.009589262 5.346506e-06 -0.007107374
-0.011026005 0.014480964 0.006314241 0.0032539794 0.05919733 0.009845603 0.027786555 0.11735471
00000000: 8ec4 d0bc ab42 cab8 b672 3ebc d45d d8bd
00000010: f940 0ebc 8144 82bd 0719 a339 73c6 eebc
00000020: 4a34 88bc 216b ce3d 38d0 2c3d 5a4e 0bbd
00000030: 1213 09bc 6179 213b 4204 8dbd 5ae7 463d
00000040: 3af6 2f3e d37c 303e 72df 0d3e 8edc ab3d
00000050: 919b b7bd 689b eb3c dbde 55ba 99ab e6bc
00000060: b5ad 8b3b 5b29 7b3d 6d1a e03d 8666 263d
00000070: dba1 273e 98ec ff3b 6f26 9c3d e7e3 5c3e
00000080: 34df 2cbd b6c9 36bd 6607 fb3d b973 a73d
00000090: e27e 5bbd 6421 01bd 117b 5cb9 b418 0b3c
000000a0: 955a 6fba a281 1ebd 386b af3d c221 b3bd
000000b0: 5e7e 673b c771 a73c 1326 4e3c 0cda a23d
000000c0: 11f6 233e 55af 623d b180 3abc c07f c0bd
000000d0: cf8b 493e fd79 a2bb 4951 c039 f977 143d
000000e0: 4f9b 1b3e a8f8 02bd e667 4c3e a6d9 81bd
000000f0: 21c2 203d 5071 abbc 7757 01bc 0998 fdbd
00000100: fa5e f93d bb7b e63d f039 443d 530e 533b
00000110: 272a 133e f6b1 403c fa80 46b9 9a6b 77bd
00000120: bc7e e53d e51c e33d 4dcc d3bc eb82 7c3d
00000130: a303 303c 4dec 1dbd f473 e9bc 2678 55bd
00000140: 8e6d ab3d 67ec f0bc 07ec 30be 8354 c1bc
00000150: 2049 453d fe05 8f3d 59a0 5a38 1783 84bb
00000160: fa9a af3d 2e5b 403d 3c15 ea3c ce83 d3bd
00000170: 98e2 56bd 6078 cabb c1f7 133d 5ab9 c3bd
00000180: 98da ebba bccb 1f3b 3387 0d3a e145 6d39
00000190: c41d 9eba e04a 96ba c4a9 d9b6 7db5 34ba
000001a0: 92d9 c9ba 567e ce3a 219b b33a d94f 34bb
000001b0: 53ce d03a 2426 ea39 82ad c03a b6a8 523b
000001c0: 8fa1 1f3e 3c93 443e 0998 573e adb8 853d
000001d0: e21e cc3d 8d94 da3d 0de3 75ba ec8a 113d
000001e0: 6d54 bb3d 0156 303e b2e7 b13d f59d 89be
000001f0: 0e4b 423e 253a 823d 4a00 163c 1d23 e43d
00000200: 024a bd3d ccda 233d a279 063e 7781 253d
00000210: 6162 34bc aa0a 693d bd21 7c3a 46f2 4cbc
00000220: 0b4a 023d 6681 9a3b 3f10 3cbd 24de 773c
00000230: 9697 333d de44 a3bb f1f1 463c a95f 7e3d
00000240: 3114 eabc a93f d33d 855f 103e 3b9d 523d
00000250: ec5b abbd 566b 123d 1d39 09ba 1f43 63bd
00000260: 6e16 69bc 3767 623e 97d4 db3d 57a2 4a3e
00000270: 6fcd dc3d 562c 4ebd cc25 273d 2520 673e
00000280: 56a6 3a3c 30d8 103d dd07 a33d 2b29 023d
00000290: c140 103d 93b5 363d dc08 0938 48a7 043a
000002a0: 5f0c 3a3d 7eb2 963c 62cd 573d ecac 6b3c
000002b0: 5deb 683c dfcd 123b bd11 9139 7f28 063d
000002c0: 6106 a73d 7f87 a33d cccd db3a 0aa8 1f3d
000002d0: a0f7 d73c f36b fe3c 0099 cdb9 ccce 233e
000002e0: 74f2 cd3c 5389 df3d 991b adbc 6910 fc3d
000002f0: d4dd 813d 8504 d43d bc8f 7e3c 0389 cc3c
00000300: 0d6c 363d 0bde 3a3e 2a05 7dbd 5c57 553d
00000310: 74e1 4dbd a0c1 0ebd 4cdb c6b8 c99c 0c3c
00000320: f818 9bbd 7663 703e fc64 f7bc cba6 bcbd
00000330: e451 403e 023b a43c 7416 153c 3acc df3c
00000340: fd1e c53d 0a78 9b3d 113c cc3c fd56 113d
00000350: 11fd 0b3e bb49 8b3d e746 4a38 70e3 65bc
00000360: 085d db3c ed1c 1e3d 6785 143e 6c4e 65be
00000370: a522 253e d7d3 203d 37a1 143d 7a7d c83d
00000380: 605f 8a3e a392 693e da5a da3e bca5 d93d
00000390: c758 8fbd 97e2 153e 9881 8239 a778 9bbd
000003a0: d3e4 7d3c 5f1e 1f3e 6fee 423e 4749 49bb
000003b0: 6d20 8e3e 314b 723c e3f4 363c 50db f83d
000003c0: 369d 2f3d 0fbb 053d 41a7 7e3d b789 8f3d
000003d0: ea08 2c3d 481c 1dbc 2366 b336 f9e4 e8bb
000003e0: 6ba6 34bc 9141 6d3c b1e7 ce3b b740 553b
000003f0: e678 723d 744f 213c a1a0 e33c ab57 f03d

gnn.init_context.attentive_gru.gru.bias_ih f4 [48]
-0.11584405 -0.008824652 0.0033026808 -0.108793214 0.1705121 0.17971727 0.00025712917 0.22601268
0.06494391 0.16105306 0.05968131 0.07534238 -0.12856662 0.15785539 0.11843183 0.11836753
0.3104545 -0.058289144 0.11387621 0.10720006 0.20969525 0.05550724 -0.005422836 -0.058768317
-0.007679312 -0.12941311 0.33311898 0.054983534 0.0856119 -0.18017222 -0.27462828 0.20948902
0.106157675 -0.12903008 0.11621936 0.29320776 0.23415232 -0.133744 -0.0055381777 0.021153308
0.088595204 0.06560402 -0.20568655 -0.029449318 -0.012760174 -0.12305494 0.1716766 0.12940338
00000000: a53f edbd 4695 10bc ca71 583b face debd
00000010: b99a 2e3e ce07 383e 4bcf 8639 de6f 673e
00000020: 5001 853d 18eb 243e 6474 743d 1b4d 9a3d
00000030: f8a6 03be d8a4 213e 638c f23d ad6a f23d
00000040: e4f3 9e3e 99c0 6ebd ee37 e93d b48b db3d
00000050: 5aba 563e 8f5b 633d 0cb2 b1bb 0cb7 70bd
00000060: bda2 fbbb df84 04be 928e aa3e 6a36 613d
00000070: 4b55 af3d 117f 38be 149c 8cbe 4a84 563e
00000080: 3269 d93d 7620 04be 6a04 ee3d 541f 963e
00000090: a0c5 6f3e 30f4 08be 9a79 b5bb b449 ad3c
000000a0: 6771 b53d 675b 863d 7f9f 52be b23f f1bc
000000b0: 0d10 51bc 3a04 fcbd fecb 2f3e 5282 043e

gnn.init_context.attentive_gru.gru.bias_hh f4 [48]
0.022715421 0.013937269 -0.021938523 0.007005 0.23923331 -0.09953326 0.00025690833 0.1916588
0.06570123 0.1487601 0.0720363 0.052562766 0.21412627 0.20075434 0.06236324 0.0036822513
0.30781022 -0.04170222 0.2513361 0.099792555 0.19350865 0.05509902 -0.0054337773 0.011098288
0.0050465367 0.06827557 0.3519727 0.012880256 -0.30156913 -0.14383315 0.10984249 0.08545329
0.09149015 -0.20448141 0.18243885 0.23000503 0.2599631 0.15893926 -0.0055037336 -0.08712924
-0.040752288 0.14370991 -0.17046456 0.080447234 0.112094454 0.16777727 -0.022906039 -0.03921491
00000000: b115 ba3c 2559 643c 6bb8 b3bc 338a e53b
00000010: 94f9 743e 18d8 cbbd a7b1 8639 3442 443e
00000020: 5e8e 863d 9154 183e c587 933d 0e4c 573d
00000030: eb43 5b3e 8c92 4d3e 9970 7f3d ed51 713b
00000040: 4d99 9d3e f2cf 2abd 20af 803e 0a60 cc3d
00000050: 2227 463e 83af 613d d40d b2bb 98d5 353c
00000060: 6b5d a53b 10d4 8b3d c435 b43e b607 533c
00000070: 4567 9abe ff48 13be 19f5 e03d 2202 af3d
00000080: 305f bb3d 9363 51be 40d1 3a3e 7086 6b3e
00000090: e219 853e f9c0 223e aa58 b4bb d170 b2bd
000000a0: dfeb 26bd b128 133e 438e 2ebe 85c1 a43d
000000b0: c791 e53d cecd 2b3e 72a5 bbbc d09f 20bd

gnn.gnn_layers.0.project_edge.1.weight f4 [1, 32]
0.100839965 0.049543936 -0.011235498 -0.009974963 -0.005552084 0.04247985 -0.033370517 0.041231234
0.10252995 -0.08329869 -0.0532317 0.11142369 -0.1659818 -0.087081164 -0.10832011 0.035304863
0.18828379 0.4902021 0.320485 -0.13793273 -0.3486501 -0.17680457 0.026195273 0.24882193
-0.21308057 -0.01869616 -0.22729011 -0.09670688 0.13952786 0.21917011 0.41528252 0.627592
00000000: 2f85 ce3d 95ee 4a3d 1815 38bc 076e 23bc
00000010: 42ee b5bb 5aff 2d3d 86af 08bd 15e2 283d
00000020: 39fb d13d 8198 aabd 7c09 5abd 1b32 e43d
00000030: 22f7 29be 9c57 b2bd efd6 ddbd d59b 103d
00000040: 77cd 403e c5fb fa3e 9c16 a43e 3d3e 0dbe
00000050: 4482 b2be 420c 35be 7897 d63c 2dcb 7e3e
00000060: cb31 5abe b028 99bc bdbe 68be 420e c6bd
00000070: 64e0 0e3e 216e 603e e99f d43e dfa9 203f

gnn.gnn_layers.0.attentive_gru.project_node.1.weight f4 [16, 16]
0.11307013 0.33650336 0.17572814 -0.11117197 -0.23928061 -0.26824716 0.017613947 0.2295604
-0.14723429 0.11108154 0.02464472 0.13407393 0.09697415 0.24258204 -0.096595176 0.13002938
0.2118486 0.0014376808 0.21623603 0.011800324 -0.19397686 0.248431 0.018594855 0.2663844
-0.0714677 0.028491965 -0.038329564 -0.059158262 -0.059327386 0.28871349 0.2757499 0.218314
0.16216256 -0.056260727 -0.1857658 0.19724591 0.23889808 0.076569475 0.014321591 -0.114089236
0.22493993 -0.29554227 -0.3380254 -0.076763116 -0.18423612 -0.3852564 0.19903237 0.028974844
0.04744291 0.09376765 0.07589455 -0.005897479 -0.20543379 -0.18793617 0.0074152695 0.33822694
-0.04680269 0.18290862 -0.33077833 -0.16788164 0.25797293 -0.02738809 0.002380709 0.0054934234
-0.017075423 -0.20143175 -0.21487558 0.13798034 0.10357603 -0.001611078 -0.026819164 -0.3262425
0.045275107 -0.1340985 -0.082272425 0.14822958 -0.032933775 -0.16438048 -0.08275679 -0.28922844
-0.22185431 0.22255294 -0.1266541 -0.055839982 -0.040484075 -0.22218527 -0.014707305 0.44374725
-0.2815904 0.08931575 0.22790809 0.01966894 0.10732727 0.18699606 0.21930464 -0.1654475
0.19053333 -0.29753152 0.17593312 0.17505626 0.33871934 0.32586828 -0.050424956 -0.44367254
0.41702098 -0.0046226773 -0.031703666 -0.21833041 -0.25542137 -0.30395815 0.021032695 -0.31495085
0.30785426 0.00703297 0.11881629 -0.13709946 0.09885785 0.019889269 0.047548346 -0.13474272
0.08640488 -0.28783122 -0.20645003 0.1589415 -0.17479472 -0.13151576 0.0884315 0.13288398
0.2547205 0.24017674 -0.105070576 -0.18075581 -0.33401003 -0.04956036 -0.007329392 0.37061727
-0.06482544 0.11768258 -0.04563692 -0.3155876 0.17533715 0.041701637 0.11017956 -0.124911964
-0.25081724 -0.3710056 0.017801024 0.18296614 0.26357943 0.10776343 -0.019769762 -0.078659624
-0.10929645 0.36668196 0.37365457 0.08398595 0.14247136 0.23775773 -0.17827049 -0.1036428
0.010887783 0.21770245 0.028324295 0.08361596 -0.09043651 -0.29463622 -0.00068284426 0.4056865
-0.09371147 0.07485372 -0.07963491 0.0862134 0.06773258 0.17031805 0.08768253 -0.13032183
-0.1250432 -0.20309132 0.14865899 0.18814944 0.0841652 0.21701217 -0.01509289 -0.3736171
0.068724774 0.12040539 -0.08758031 0.0590244 -0.06611771 0.07768074 0.07275272 -0.22763947
-0.10275662 0.05577227 0.20142734 0.002507976 0.005993427 0.026877502 0.07971713 0.46149722
-0.30959642 0.053291574 -0.18233775 0.24648872 -0.117296346 -0.21195936 0.09739279 0.32633045
0.08635683 -0.18328732 0.16127183 0.17048025 0.1456684 0.13664277 -0.0030473361 -0.30606467
0.08229555 -0.24526067 0.32988852 0.15535206 -0.006695917 -0.21128465 0.012440614 -0.023040054
-0.1816491 0.031221831 0.11692773 -0.2205867 -0.081201985 -0.2609386 0.030964773 -0.007140385
-0.038601972 -0.20752029 0.24246623 0.1893772 0.012466173 0.0035364854 -0.19696076 0.035079073
0.029603686 0.14978543 -0.00963227 -0.06570835 -0.055314217 -0.1786597 -0.015225342 0.27240208
0.06275336 0.24107403 -0.2569092 -0.066814885 0.1160899 -0.20792629 0.029604008 0.06033926
00000000: 5091 e73d 2b4a ac3e 14f2 333e 21ae e3bd
00000010: fa05 75be b157 89be 204b 903c e211 6b3e
00000020: 96c4 16be b87e e33d b9e3 c93c ad4a 093e
00000030: 629a c63d 6d67 783e b1d3 c5bd 6c26 053e
00000040: d7ee 583e 9070 bc3a fa6c 5d3e 2556 413c
00000050: dfa1 46be b264 7e3e 3d54 983c 8963 883e
00000060: a85d 92bd fb67 e93c 76ff 1cbd ef4f 72bd
00000070: 4601 73bd 41d2 933e 172f 8d3e b58d 5f3e
00000080: f10d 263e a671 66bd 6439 3ebe d5fa 493e
00000090: b3a1 743e 75d0 9c3d 1ba5 6a3c 9ea7 e9bd
000000a0: a756 663e 5151 97be aa11 adbe fb35 9dbd
000000b0: 65a8 3cbe 5440 c5be 24cf 4b3e a75c ed3c
000000c0: 7f53 423d 4109 c03d 9a6e 9b3d a43f c1bb
000000d0: 3c5d 52be 5772 40be cafb f23b 152c ad3e
000000e0: 2db4 3fbd 664c 3b3e c75b a9be 2ae9 2bbe
000000f0: 0715 843e fd5c e0bc ab05 1c3b 2d02 b43b
00000100: c2e1 8bbc 2044 4ebe 5808 5cbe b84a 0d3e
00000110: ab1f d43d cf2a d3ba ddb3 dbbc 4209 a7be
00000120: 6472 393d 1e51 09be 727e a8bd 7fc9 173e
00000130: 91e5 06bd 5b53 28be 647c a9bd c015 94be
00000140: c72d 63be ebe4 633e 9db1 01be 77b8 64bd
00000150: a1d2 25bd 8984 63be e8f6 70bc d732 e33e
00000160: 9e2c 90be 2deb b63d bd60 693e c220 a13c
00000170: 66ce db3d e57b 3f3e 6591 603e 126b 29be
00000180: 2b1b 433e 0d56 98be d027 343e f341 333e
00000190: 9f6c ad3e 35d8 a63e 668a 4ebd 0c29 e3be
000001a0: c683 d53e d479 97bb b4db 01bd 0292 5fbe
000001b0: 97c6 82be 67a0 9bbe c24c ac3c 3d41 a1be
000001c0: 139f 9d3e d474 e63b f455 f33d cd63 0cbe
000001d0: fc75 ca3d d2ee a23c 0ec2 423d fff9 09be
000001e0: 0bf5 b03d 9d5e 93be a367 53be 90c1 223e
000001f0: 63fd 32be 11ac 06be 931b b53d bd12 083e
00000200: ba6a 823e e4f0 753e 3e2f d7bd 0d18 39be
00000210: 5d03 abbe ceff 4abd 652b f0bb 8cc1 bd3e
00000220: 33c3 84bd 9103 f13d c7ed 3abd b394 a1be
00000230: 958b 333e 56cf 2a3d d2a5 e13d d8d1 ffbd
00000240: 1e6b 80be 72f4 bdbe 74d3 913c 7a5b 3b3e
00000250: e2f3 863e 13b3 dc3d 32f4 a1bc 4c18 a1bd
00000260: d1d6 dfbd bdbd bb3e a74f bf3e d300 ac3d
00000270: 03e4 113e c376 733e 8a8c 36be ad42 d4bd
00000280: ac62 323c 64ed 5e3e 5a08 e83c d83e ab3d
00000290: c736 b9bd 8fda 96be e700 33ba 24b6 cf3e
000002a0: cdeb bfbd e84c 993d a117 a3bd a790 b03d
000002b0: 61b7 8a3d db67 2e3e e692 b33d 1673 05be
000002c0: 530b 00be 2cf7 4fbe 103a 183e 3faa 403e
000002d0: ce5e ac3d 7038 5e3e 2b48 77bc be4a bfbe
000002e0: 93bf 8c3d 1a97 f63d 4e5d b3bd 92c3 713d
000002f0: b968 87bd 1417 9f3d 61ff 943d 521a 69be
00000300: 1072 d2bd 7771 643d f842 4e3e db5c 243b
00000310: 8264 c43b 352e dc3c bc42 a33d 5d49 ec3e
00000320: 6c83 9ebe 4448 5a3d bfb6 3abe 8a67 7c3e
00000330: 1139 f0bd e00b 59be df75 c73d c914 a73e
00000340: dadb b03d acaf 3bbe 7124 253e 6092 2e3e
00000350: 192a 153e 15ec 0b3e d1b5 47bb 82b4 9cbe
00000360: 928a a83d 9d25 7bbe 26e7 a83e 9c14 1f3e
00000370: 6c69 dbbb 015b 58be b8d3 4b3c 7fbe bcbc
00000380: 3902 3abe edc4 ff3c ce77 ef3d 7be1 61be
00000390: 3a4d a6bd bf99 85be d6a9 fd3c e4f9 e9bb
000003a0: 1a1d 1ebd 3380 54be 1149 783e 19ec 413e
000003b0: eb3e 4c3c 61c4 673b 15b0 49be 13af 0f3d
000003c0: 6e83 f23c 5a61 193e abd0 1dbc 1992 86bd
000003d0: 2991 62bd 92f2 36be b673 79bc 4978 8b3e
000003e0: d584 803d 1cdc 763e 9a89 83be 3ed6 88bd
000003f0: 8bc0 ed3d a1ea 54be 1b84 f23c 4d26 773d

gnn.gnn_layers.0.attentive_gru.project_node.1.bias f4 [16]
-0.13398252 0.051625453 -0.12506078 -0.099067405 -0.14109257 0.12682751 0.012231136 -0.11898432
0.063785926 0.22685416 -0.16252439 0.18736972 -0.026012052 0.019499484 0.033843905 0.06020023
00000000: b732 09be 3675 533d ef0f 00be dae3 cabd
00000010: 927a 10be 12df 013e 1a65 483c 0dae f3bd
00000020: 32a2 823d 754c 683e cb6c 26be d9dd 3f3e
00000030: 3a17 d5bc 62bd 9f3c e89f 0a3d 8494 763d

gnn.gnn_layers.0.attentive_gru.gru.weight_ih f4 [48, 16]
-0.046633556 0.11434432 -0.027493648 -0.12793636 -0.10491014 -0.014700448 0.08379235 0.019116096
-0.13666178 0.15692863 -0.023467945 0.08525692 0.064807616 0.10189719 -0.056969736 -0.061903708
0.031132462 0.1484493 -0.023377763 -0.058627486 -0.025878945 0.01476638 0.04614991 0.026396876
-0.025153635 -0.032816064 0.013750759 0.12186038 0.049058557 0.08627265 -0.03131797 0.020838257
-0.037101574 -0.032879286 0.02875483 -0.009829005 0.032693382 -0.031634074 0.011988931 0.01743057
-0.013470489 -0.0032142268 -0.011998018 -0.004337619 -0.02833822 0.0004855505 0.005208464 -0.005516415
-0.07107533 -0.07626448 0.022840645 -0.0007115401 0.048473332 -0.00464611 0.23890099 -0.040176675
-0.05639439 0.022238092 0.01570385 0.039817404 -0.030291146 0.14990792 -0.021673424 -0.12572734
-0.11898407 0.12713867 0.05245612 0.027960934 -0.039327934 0.0018690167 0.19334337 -0.072020255
0.06497415 0.15402809 -0.03699274 0.16601291 -0.04918681 0.026906215 -0.17501089 0.013344092
-0.055580325 -0.049072653 0.07501665 -0.025212692 0.038354527 -0.04125777 0.031834684 0.021785792
0.011382808 -0.003023398 -0.027568111 -0.01948759 -0.044459242 0.03946807 0.0044741356 -0.016163392
-0.03249632 0.027049648 -0.037283868 -0.054698773 -0.035684824 -0.011531937 0.10646398 -0.023959331
-0.049924754 0.11174392 -0.047792085 0.02489806 -0.004086364 0.07275582 -0.012920959 -0.056490093
-0.07290478 0.05018764 -0.022392977 -0.028580133 -0.032487832 -0.007743293 0.04095495 -0.033751674
-0.026094293 0.08384017 -0.045450747 0.113601185 -0.01122752 0.024264842 -0.055053536 -0.044104684
-0.052694526 0.07172155 0.111446165 -0.02625501 -0.044814654 -0.042029366 0.109714 0.031582788
0.022146685 -0.022435125 -0.033000454 0.06491464 -0.025131954 0.019093309 -0.124670245 0.025604984
0.02136865 -0.0038487506 -0.021069331 -0.00187351 -0.019524993 0.039050117 -0.029091438 0.0013066556
0.0041257003 0.016150396 0.01366047 -0.014178078 0.018623598 -0.0061624353 0.0074888673 0.010671291
0.0040772096 0.048816506 -0.018498164 -0.033136055 -0.037585832 0.00036153736 0.03214906 0.0017386166
-0.015625976 0.0083709145 -0.008978381 0.03592994 0.010071798 0.0026318557 0.009672926 -0.0036830439
0.0530099 0.053134665 -0.033648368 -0.016954534 -0.0472051 0.00041432507 -0.012032862 0.03333849
-0.025231142 0.0206006 0.00045363366 0.015224327 0.061066832 0.033838585 0.01784864 0.006854846
-0.073561855 -0.030327488 -0.15229505 0.05010609 -0.02473736 0.13990504 -0.1474966 -0.047004137
0.21869886 -0.17115676 -0.14083849 -0.10856085 -0.1642099 0.1962653 0.0763018 0.14009014
-0.004353165 0.023830317 0.000113680304 0.014907104 0.016769756 -0.00725772 0.031933915 -0.00043892188
0.0060433587 0.010489575 -0.00823146 0.019448718 -0.012297482 -0.017125534 -0.006123324 0.013599539
-0.021912994 -0.0437684 -0.09745149 -0.16478954 0.05877407 -0.08271574 0.23290668 0.02216775
-0.15401053 0.24490385 -0.052360475 0.0043232664 -0.04220639 0.04887303 0.076499075 -0.011830101
-0.043565553 0.0044658436 -0.0017705985 -0.030234847 -0.008097664 0.00087102916 0.040463682 -0.026875384
-0.03129557 0.049477104 -0.026651723 0.052673563 -0.016913606 0.023045046 -0.0067761447 -0.02706965
00000000: d402 3fbd 5b2d ea3d 5c3a e1bc c001 03be
00000010: 21db d6bd 26da 70bc 539b ab3d 5c99 9c3c
00000020: 11f1 0bbe e6b1 203e d93f c0bc 2e9b ae3d
00000030: dbb9 843d 79af d03d 1959 69bd be8e 7dbd
00000040: 8109 ff3c 1803 183e b982 bfbc 6023 70bd
00000050: 1500 d4bc b0ee 713c b007 3d3d 433e d83c
00000060: ff0e cebc 236a 06bd dd4a 613c ef91 f93d
00000070: a0f1 483d b7af b03d 4647 00bd feb4 aa3c
00000080: d2f7 17bd 6eac 06bd 408f eb3c d609 21bc
00000090: 7fe9 053d bb92 01bd 396d 443c 8eca 8e3c
000000a0: 53b3 5cbc c7a5 52bb 5693 44bc 9622 8ebb
000000b0: 8e25 e8bc 7c91 fe39 c3ab aa3b 0bc3 b4bb
000000c0: f18f 91bd 8d30 9cbd 4e1c bb3c a686 3aba
000000d0: f98b 463d 653e 98bb 76a2 743e 4c90 24bd
000000e0: cefd 66bd a92c b63c 5ca5 803c 9317 233d
000000f0: 2325 f8bc 7681 193e 778c b1bc abbe 00be
00000100: ecad f3bd a430 023e 3adc 563d 540e e53c
00000110: 5416 21bd cbf9 f43a cefb 453e 5b7f 93bd
00000120: 2b11 853d 8ab9 1d3e b385 17bd 4aff 293e
00000130: 1c78 49bd 6c6a dc3c 0e36 33be 2ea1 5a3c
00000140: 32a8 63bd 6800 49bd 54a2 993d d98a cebc
00000150: a319 1d3d e8fd 28bd 1665 023d 1e78 b23c
00000160: f57e 3a3c 3424 46bb 85d6 e1bc 70a4 9fbc
00000170: e51a 36bd 45a9 213d c59b 923b 1769 84bc
00000180: dc1a 05bd 3997 dd3c f8b6 18bd d20b 60bd
00000190: 402a 12bd 73f0 3cbc ca09 da3d 5c46 c4bc
000001a0: e67d 4cbd ffd9 e43d a2c1 43bd 04f7 cb3c
000001b0: e8e6 85bb 0101 953d 6eb2 53bc 2862 67bd
000001c0: 1a4f 95bd 8e91 4d3d 7a71 b7bc e220 eabc
000001d0: f611 05bd 73bb fdbb 61c0 273d 323f 0abd
000001e0: b3c3 d5bc 65b4 ab3d 902a 3abd bda7 e83d
000001f0: a2f3 37bc 10c7 c63c d17f 61bd 1da7 34bd
00000200: 37d6 57bd bfe2 923d e33d e43d bf14 d7bc
00000210: 928f 37bd fc26 2cbd bcb1 e03d f45c 013d
00000220: f76c b53c dec9 b7bc 7c2b 07bd f7f1 843d
00000230: 87e1 cdbc 9269 9c3c 1d53 ffbd 8bc1 d13c
00000240: 4f0d af3c 523b 7cbb 9799 acbc 9090 f5ba
00000250: e1f2 9fbc 04f3 1f3d 2b51 eebc 1644 ab3a
00000260: e230 873b d64d 843c 2ad0 5f3c 2b4b 68bc
00000270: 8490 983c 41ee c9bb 2c65 f53b a3d6 2e3c
00000280: 1d9a 853b d1f3 473d 7689 97bc acb9 07bd
00000290: 9af3 19bd b98c bd39 bcae 033d 4be2 e33a
000002a0: 0c02 80bc 2926 093c 0f1a 13bc 462b 133d
000002b0: 2f04 253c 367b 2c3b 317b 1e3c 395f 71bb
000002c0: e920 593d bca3 593d dfd2 09bd 3ce4 8abc
000002d0: 235a 41bd c539 d939 7b25 45bc f18d 083d
000002e0: 8ab1 cebc 97c2 a83c aed5 ed39 756f 793c
000002f0: 3721 7a3d 549a 0a3d 5037 923c 9e9e e03b
00000300: 99a7 96bd 5a71 f8bc 3cf3 1bbe 0b3c 4d3d
00000310: 01a6 cabc 4443 0f3e 5909 17be 6987 40bd
00000320: 98f2 5f3e b843 2fbe f737 10be 2755 debd
00000330: a426 28be c5f9 483e 1e44 9c3d ca73 0f3e
00000340: ffa4 8ebb cc37 c33c a667 ee38 ed3c 743c
00000350: ba60 893c 2bd2 edbb 23cd 023d 191f e6b9
00000360: 5e07 c63b 77dc 2b3c 3fdd 06bc eb52 9f3c
00000370: 617b 49bc d94a 8cbc 2aa6 c8bb 9ad0 5e3c
00000380: e182 b3bc 7e46 33bd a694 c7bd 97be 28be
00000390: 14bd 703d df66 a9bd 177f 6e3e 2499 b53c
000003a0: f0b4 1dbe 13c8 7a3e f077 56bd 30aa 8d3b
000003b0: 9ce0 2cbd 162f 483d 8cab 9c3d 0ad3 41bc
000003c0: cb71 32bd 3656 923b 6d13 e8ba 12af f7bc
000003d0: 11ac 04bc c755 643a 3fbd 253d c429 dcbc
000003e0: c92f 00bd 81a8 4a3d b754 dabc 3cc0 573d
000003f0: 678e 8abc f7c8 bc3c 6c0a debb 2cc1 ddbc
