1-GNNs/result/6108_AR_NURA_MPNN_0920/22/model.pth (torch, 437616 bytes, 26 tensors)

gnn.project_node_feats.0.weight f4 [32, 74]
000000 a2 70 4d bf ec 7b 0f bf 38 f5 72 bf 12 7e a0 be
       -0.8024999 -0.56048465 -0.94905424 -0.31346184
000010 0e 91 0f 3e 83 1e 41 1c 37 66 2e 3e a6 17 a9 be
       0.14020178 6.389778e-22 0.1703118 -0.33025855
000020 0a 58 50 3e f0 6b 8e 9b ef eb 12 9c c3 2d 0f 1c
       0.20346084 -2.3561682e-22 -4.8612285e-22 4.7373877e-22
000030 bf 0a e8 9b 34 a1 15 1c 12 b8 98 1c b4 9f 68 bd
       -3.8388125e-22 4.9508315e-22 1.0106097e-21 -0.05679293
000040 59 7c 9c 1c 8f b8 fb 9a f9 51 04 9b 8c fb 60 1a
       1.0355357e-21 -1.0410934e-22 -1.0945271e-22 4.6525312e-23
000050 32 4c 4b 9a 87 39 f8 9b 72 27 bb 9b 4f 31 2f 1b
       -4.2040966e-23 -4.1065335e-22 -3.0962046e-22 1.4491593e-22
000060 fa b9 21 1c 6a ee d3 1b a8 6e 14 9a 32 d4 48 9c
       5.35108e-22 3.5061093e-22 -3.069507e-23 -6.6448705e-22
000070 9a 23 55 9a de 0d 4d 9c 24 a6 4c 1c 07 30 83 99
       -4.4076126e-23 -6.7846733e-22 6.771267e-22 -1.356448e-23
000080 4d 5e f2 9b 13 e0 39 9c 0a a2 21 1c 4f 89 31 9c
       -4.0096482e-22 -6.1500974e-22 5.347986e-22 -5.8741855e-22
000090 03 2c 0f 1c 8b cf 2b 9c b5 ca 99 1c 12 c1 3b 1c
       4.7371615e-22 -5.6847397e-22 1.0177089e-21 6.2122647e-22
0000a0 33 a2 5e 9c c7 06 59 1c 9f 67 9f 1b 72 4d cf 99
       -7.3663276e-22 7.1808037e-22 2.6371307e-22 -2.1434578e-23
0000b0 8c 97 59 bf ed 9f 6d bf d2 dc 14 bf 5b 35 d6 be
       -0.8499687 -0.9282215 -0.58149445 -0.41837582
0000c0 e0 a8 bf 1b 5d 56 a8 1b 4f 84 08 9b d2 c8 2c 9c
       3.1707432e-22 2.784908e-22 -1.1292408e-22 -5.716958e-22
0000d0 10 5f 7c 1b a4 45 05 9a 09 3e 0c bf 3a e2 61 bf
       2.0875668e-22 -2.756001e-23 -0.5478216 -0.8823582
0000e0 33 06 6e bf 8d 95 2f bf f4 12 7d 19 e9 d2 24 1c
       -0.9297821 -0.6858757 1.3083621e-23 5.4535643e-22
0000f0 f1 50 2d 1c 7d 02 23 be cd 04 95 b5 c6 e7 27 be
       5.7345513e-22 -0.15918918 -1.1102762e-06 -0.16397008
000100 00 81 22 bf 7e 9d 66 bf 56 e5 0e 1c 3c 46 f0 99
       -0.6347809 -0.90084064 4.728027e-22 -2.4843786e-23
000110 27 5b 15 bf cc 23 0d bf e7 e8 5f bf f1 06 6e bf
       -0.5834221 -0.55132747 -0.87464756 -0.9297934
000120 31 9a 2f bf ff 6d 15 9c 24 81 20 bb 90 c4 25 23
       -0.6859465 -4.944213e-22 -0.0024491036 8.986292e-18
000130 6f 49 66 b3 a4 ef 07 22 ec bc 6f a2 26 e2 01 9c
       -5.3617836e-08 1.8422776e-18 -3.2490554e-18 -4.297481e-22
000140 cc 8f 1b 20 f6 e2 62 22 fd 20 b1 a1 23 af 3c 1c
       1.3176589e-19 3.0748863e-18 -1.2002718e-18 6.243034e-22
000150 cd ed 3d 9c 1d 79 1c 1c 5a 82 0d 9c 4f 91 f4 9b
       -6.2842205e-22 5.1772605e-22 -4.682146e-22 -4.0460317e-22
000160 5f f5 19 1c 60 e8 60 21 f2 0e d5 9a 39 44 d8 1b
       5.094059e-22 7.62017e-19 -8.811888e-23 3.577829e-22
000170 3e 5a d4 9b 39 d6 ff 9b c1 15 2a 9c 84 63 aa 1a
       -3.5130776e-22 -4.232465e-22 -5.62764e-22 7.047113e-23
000180 72 5d 50 1c 64 46 54 9c 29 d3 b7 9b ca e4 87 1a
       6.89422e-22 -7.0235894e-22 -3.041127e-22 5.620432e-23
000190 e9 9d 3a 1a cb 6b 8e 9c 5f 7f c2 9b e9 b9 36 1c
       3.8591457e-23 -9.424636e-22 -3.217692e-22 6.045903e-22
0001a0 79 35 59 9c 90 b6 b4 9b c8 c1 93 1c 21 da 92 9c
       -7.186839e-22 -2.989648e-22 9.777735e-22 -9.717855e-22
0001b0 9d ed 99 98 78 a8 ff 9b be 94 72 9b 85 5f 70 9c
       -3.97895e-24 -4.2295082e-22 -2.0065832e-22 -7.9532795e-22
0001c0 f4 21 cb 9b c9 8c b4 1b 17 b0 ee 1b 66 55 e7 19
       -3.3605475e-22 2.9869482e-22 3.9487593e-22 2.3919332e-23
0001d0 70 5a 15 1c 1e f1 00 1c 46 4d db b8 85 11 21 b3
       4.941685e-22 4.2663284e-22 -0.00010457127 -3.7501668e-08
0001e0 42 ac 2f bb e7 43 33 21 5f 3d 0e 9c 8f ee 15 9c
       -0.0026805555 6.0737427e-19 -4.706318e-22 -4.9608294e-22
0001f0 b1 1c 4d 98 7a d5 51 1c 73 4c 8f 1a 7f 61 dc 9b
       -2.6510114e-24 6.942821e-22 5.9266924e-23 -3.6458952e-22
000200 30 55 21 bb 19 d2 a7 2c 5f a0 05 22 5a b4 81 28
       -0.0024617426 4.769751e-12 1.810976e-18 1.4400092e-14
000210 f3 17 b4 9b 7e da 88 1c cb 74 06 1c b8 c6 6a a2
       -2.979398e-22 9.056204e-22 4.448783e-22 -3.1818114e-18
000220 57 f0 17 1f 57 90 93 21 1c c2 d2 ba 17 37 60 b5
       3.2174298e-20 9.999314e-19 -0.0016079578 -8.352667e-07
000230 cc ab 0a 1c e7 79 b4 9a 57 8f b5 b8 41 f1 22 bb
       4.588241e-22 -7.46432e-23 -8.657452e-05 -0.0024863037
000240 08 e2 4a ae e1 55 06 22 84 07 82 28 2d 6b d3 1b
       -4.613024e-11 1.820585e-18 1.4436159e-14 3.4976283e-22
000250 41 72 30 bf e8 4a b4 bd 45 39 0f 3d 1b 48 04 bb
       -0.6892434 -0.0880335 0.034966726 -0.002018458
000260 70 07 94 3d 9a 35 02 9c a3 fa 8f 3a eb 04 5c 3c
       0.07227981 -4.308267e-22 0.001098473 0.013428907
000270 6a 2b 2e 3a 53 c2 e2 1b 00 1c 52 1b c8 6e e5 1b
       0.00066440424 3.7514143e-22 1.737984e-22 3.7956463e-22
000280 35 fc ff 1b 85 d3 21 9c ac 54 3c 1c b5 c8 99 3b
       4.2349196e-22 -5.3543814e-22 6.231342e-22 0.0046931156
000290 28 ca 47 9c 59 10 1d 1c bc 74 a0 1a 42 95 6d 1c
       -6.610486e-22 5.196807e-22 6.6363044e-23 7.8609633e-22
0002a0 17 ee 83 9c e6 17 52 9a fa 76 a4 9b 90 f8 4f 9b
       -8.730398e-22 -4.3446287e-23 -2.720841e-22 -1.7202954e-22
0002b0 51 3c 77 9c 7d df 74 1c e5 2f 1e 9b 7c 0a 21 9c
       -8.18034e-22 8.102168e-22 -1.3084929e-22 -5.328398e-22
0002c0 13 f4 94 9b ed 77 f6 1b bb 86 37 1b 94 96 f2 9b
       -2.4642275e-22 4.0774786e-22 1.5180939e-22 -4.013285e-22
0002d0 47 bb 90 9c c0 c7 dc 1a 5b 7e 6c 1c 8e ed 1b 1b
       -9.577531e-22 9.131258e-23 7.824916e-22 1.2898058e-22
0002e0 af 2b 1d 1c 9c 43 20 9c 84 62 c3 9b 28 4f 5d 1b
       5.20034e-22 -5.302694e-22 -3.2323708e-22 1.8306268e-22
0002f0 87 eb ff 1b 95 b7 a3 1b 71 a6 c6 1b 76 e6 d8 1a
       4.2338417e-22 2.7084725e-22 3.2863912e-22 8.9707836e-23
000300 6c c1 ca be 3f c0 de bd b5 0d f9 be 13 a6 b0 bd
       -0.39600694 -0.10876512 -0.4864327 -0.08625426
000310 ab ea 9c 9a 19 aa af 9b a4 95 48 1b 79 d0 02 1c
       -6.4899214e-23 -2.9061244e-22 1.6591964e-22 4.3282836e-22
000320 49 4b 64 9c d5 d2 86 1b 15 9c 44 bf 4d 7f ae bc
       -7.5536176e-22 2.2304687e-22 -0.7680066 -0.021300936
000330 a4 38 09 3d 31 a2 67 3d 1b 4c 06 9c 74 2c a1 1b
       0.033501282 0.056551162 -4.4435245e-22 2.6663943e-22
000340 c6 57 c1 9a d0 b3 42 bc f5 35 78 25 25 d3 e6 ba
       -7.9964735e-23 -0.011883691 2.1528852e-16 -0.0017610533
000350 de b3 25 bf 6a b9 08 bf a4 cc 09 1c d0 1b 4c 9c
       -0.6472758 -0.5340792 4.559399e-22 -6.7533885e-22
000360 a4 ad b5 be bd e8 43 bf e8 b2 fc bc 34 35 09 3d
       -0.3548404 -0.76527005 -0.030847028 0.033498004
000370 74 a8 67 3d 2b dc 89 9c 1b 29 cb b7 bf d7 03 aa
       0.056557134 -9.122812e-22 -2.4218627e-05 -1.1709989e-13
000380 d6 3a 71 b4 3e 99 5f a8 1d 54 15 a7 b6 39 8b 9c
       -2.2466278e-07 -1.2412216e-14 -2.0723502e-15 -9.213166e-22
000390 0e 40 e3 a8 a8 00 ac 29 e7 24 91 28 91 01 d8 1b
       -2.5229842e-14 7.638448e-14 1.6114238e-14 3.5735215e-22
0003a0 4c 5d d6 9b fb 88 1f 9c b9 b7 27 1c 81 64 13 1c
       -3.5463622e-22 -5.278573e-22 5.549312e-22 4.876812e-22
0003b0 a5 94 90 1c bf 50 f2 28 e9 e0 35 9b 2d b5 58 9b
       9.567544e-22 2.6902415e-14 -1.5044641e-22 -1.7925642e-22
0003c0 63 36 8e 9c 38 a2 fa 9a b4 2d ed 1b 68 9f 07 9c
       -9.41083e-22 -1.03659655e-22 3.9237896e-22 -4.487378e-22
0003d0 8a 6a 98 9a 95 fe 37 1c f1 3f d7 1b f2 6e a9 1a
       -6.303785e-23 6.087866e-22 3.5610088e-22 7.0076004e-23
0003e0 c8 4f 5b 9b 82 50 82 1c b2 8c 38 9c 80 f1 2b 1c
       -1.8141034e-22 8.623489e-22 -6.106234e-22 5.6891285e-22
0003f0 60 10 66 1c 20 52 1a 1c 61 90 83 1c 2c 1f d2 9b
       7.612178e-22 5.106047e-22 8.706174e-22 -3.476173e-22

gnn.project_node_feats.0.bias f4 [32]
000000 1b 44 4a bf 6d 7d 1c bc cc 72 6d bf 2c 0f 5a bb
       -0.7901017 -0.009551388 -0.9275329 -0.0033273203
000010 43 38 af 3d 1d 46 d7 3e fd 07 a0 3f 2e ad 0f bf
       0.08555653 0.4204568 1.2502438 -0.56123626
000020 20 39 c7 3e 85 34 a6 bf 23 2b 13 bf 40 11 06 b5
       0.3891077 -1.2984778 -0.57487696 -4.994399e-07
000030 53 54 f9 3e 3f 81 8c 3e cd 6f 71 b5 06 51 c1 b6
       0.48697147 0.27442357 -8.994219e-07 -5.7612806e-06
000040 a7 3a cd b4 01 fc de 3e d1 17 1f bd 3e c4 91 be
       -3.82269e-07 0.4355164 -0.038841072 -0.28470033
000050 e1 5c 19 bf 52 70 76 bc 8d ed b2 ab a2 d5 77 bd
       -0.59907347 -0.015041428 -1.2713594e-12 -0.06050647
000060 ee 87 31 bd 18 32 86 bf f9 31 d9 b2 3a ce 30 be
       -0.043342523 -1.0484037 -2.528485e-08 -0.17266169
000070 66 ee a3 b9 ff c1 30 bf cf 0e 80 b3 44 64 8d af
       -0.00031267403 -0.69046015 -5.963158e-08 -2.5718994e-10

gnn.gnn_layer.bias f4 [32]
000000 0b a1 27 3a ab 08 f7 26 6d d1 35 bf 10 3e 96 ba
       0.00063945417 1.7141417e-15 -0.71022683 -0.0011462588
000010 3c 92 97 3f cc 9a dc aa 64 75 a3 b3 18 d0 88 bd
       1.1841502 -3.9187262e-13 -7.611632e-08 -0.06680316
000020 a2 25 31 33 f3 cd 84 ae cc aa c2 b4 41 6b f3 b4
       4.124525e-08 -6.039249e-11 -3.6259587e-07 -4.5340315e-07
000030 bb e2 5b bf 34 d6 27 b1 00 ec c9 b9 8a c7 1d 36
       -0.8589284 -2.4423459e-09 -0.0003851354 2.351097e-06
000040 b9 01 51 bb 57 af 1d b8 2f 5a 25 b5 2b b7 73 27
       -0.0031891896 -3.7595015e-05 -6.1598524e-07 3.382232e-15
000050 bc bd 31 2a b6 ef ce 3a bb e7 92 39 34 fc 9c bb
       1.5786585e-13 0.0015787992 0.00028019943 -0.004790807
000060 06 e0 f5 ba ab 2a 17 bc 3c 6d 8b 2f f1 6e 8f 3f
       -0.0018758781 -0.009226481 2.5361568e-10 1.1205732
000070 46 31 5c b5 34 fc d4 b9 d9 2e 96 bc c3 83 7a 3f
       -8.202809e-07 -0.00040623697 -0.018332886 0.978573

gnn.gnn_layer.edge_func.0.weight f4 [64, 13]
000000 db 01 e0 bb be 94 33 3c da fe df b7 ab 8c 0c 3b
       -0.0068361587 0.010960756 -2.6702346e-05 0.002144615
000010 e3 58 45 bc 31 08 67 bb b6 ce 7f bc df 93 ac 1c
       -0.012045118 -0.0035252685 -0.015613249 1.1420229e-21
000020 a4 21 0d 1c f3 13 a0 9c e4 a8 0f 9c 18 4d 8f 1c
       4.6696466e-22 -1.0593069e-21 -4.7533017e-22 9.482874e-22
000030 f0 9c 8a 3c ad 14 34 37 bc ef e1 b5 80 9c dd 35
       0.016920537 1.073365e-05 -1.6833578e-06 1.6511331e-06
000040 fb 9b 52 35 fc f7 a1 b6 ef 58 4b 38 d6 6c 49 39
       7.845808e-07 -4.827043e-06 4.8481797e-05 0.00019209398
000050 56 e5 7f 1b 8f e3 a7 1c 1b 8b 1d 9d 7a c0 2b 9c
       2.1167208e-22 1.1109956e-21 -2.0850693e-21 -5.6827924e-22
000060 23 bb 24 1d e9 16 a5 b8 c5 93 ed 2e f1 aa 34 b0
       2.1801967e-21 -7.8720805e-05 1.08037614e-10 -6.572654e-10
000070 ac bd 99 ad a7 96 6a 30 18 4d 10 30 05 25 1e 30
       -1.7478317e-11 8.5342794e-10 5.249645e-10 5.7532673e-10
000080 1e e5 6f b0 9c 74 4b 1c ef 55 24 1d 64 6e f5 1c
       -8.727329e-10 6.731778e-22 2.1749646e-21 1.6241275e-21
000090 90 af 02 1c 50 ff ee 9c 5b 4c e6 b0 11 d6 8b 3a
       4.32403e-22 -1.5815516e-21 -1.6756404e-09 0.0010668655
0000a0 be 0b 58 bb ab de a2 b8 65 af 13 bb a9 2d 2b bb
       -0.0032965983 -7.766237e-05 -0.0022534963 -0.0026119745
0000b0 88 5a 8e bb d3 c3 6c 3b 13 d2 5c 1c bb b6 ed 9b
       -0.0043442883 0.0036127463 7.306341e-22 -3.9326448e-22
0000c0 97 34 85 9c 48 50 ab 1c 97 ec 32 9c 72 a7 19 3b
       -8.814796e-22 1.1336583e-21 -5.9201045e-22 0.0023445752
0000d0 6d 50 5b af 3e ea c3 b0 e0 80 00 af 4c 09 45 32
       -1.9946507e-10 -1.4254693e-09 -1.1687318e-10 1.1469023e-08
0000e0 e8 5b 9e 31 85 e2 10 b2 7a 92 65 32 55 25 9a 9b
       4.6088537e-09 -8.433408e-09 1.3362859e-08 -2.5501288e-22
0000f0 22 c5 90 1c 7a e8 97 9c 36 98 4c 1c 48 97 58 9c
       9.580078e-22 -1.0052436e-21 6.7694666e-22 -7.166393e-22
000100 70 25 2a b1 77 b2 51 bd e9 f1 d7 3d c3 d3 5d b9
       -2.4759537e-09 -0.051195588 0.105441876 -0.0002115509
000110 0a 67 00 bd 9e 5f 1e 3e 4d ca 71 3d ad c3 17 be
       -0.031348266 0.15466163 0.05903082 -0.14820738
000120 92 7a 5f 1c 96 cc e1 9b d9 62 83 1c dd 6c 45 1c
       7.394293e-22 -3.7355338e-22 8.694404e-22 6.5322535e-22
000130 a5 7c 14 9c 3b 2e 31 be eb f4 83 ae 46 2b 6e af
       -4.913019e-22 -0.17302792 -6.0006965e-11 -2.1661348e-10
000140 6a 3a 5d 2f 06 cb 72 2f 38 2d 59 b0 7e 2f 3c b0
       2.0120586e-10 2.20819e-10 -7.90084e-10 -6.846149e-10
000150 10 b8 1e 32 da 49 0e 1c df fe b5 1b 04 85 fc 1b
       9.238661e-09 4.707931e-22 3.0108645e-22 4.1775862e-22
000160 d3 5e f9 9c 9b 6a c2 9b a3 c2 03 32 70 e8 9c 3f
       -1.6501949e-21 -3.21635e-22 7.669459e-09 1.2258434
000170 57 7f 9e 3f 2e 80 7c 3d 5f 52 8d bf 4b f4 82 3f
       1.2382611 0.06164568 -1.1040763 1.0230802
000180 93 13 97 bf af 97 8e 3f 81 b5 5e 1c 8d db 23 9d
       -1.1802849 1.114004 7.3688227e-22 -2.1686375e-21
000190 46 e4 a0 1c 40 46 b5 9a 01 e6 a0 18 cc 9a f5 3f
       1.0646919e-21 -7.497334e-23 4.1591275e-24 1.9187865
0001a0 76 c4 af b5 56 4b 27 33 b7 dd c7 b3 90 14 72 34
       -1.3095694e-06 3.8951235e-08 -9.306989e-08 2.2545487e-07
0001b0 2c c4 40 35 b1 70 6c 35 1a 8c 83 35 a7 55 f4 9b
       7.181104e-07 8.808084e-07 9.801036e-07 -4.0421765e-22
0001c0 1f c1 b2 1b 43 76 f5 1a 1e 43 ca 1c ac 9a 3a 1c
       2.9572431e-22 1.0152069e-22 1.3384588e-21 6.1742146e-22
0001d0 ae 66 1c 35 0a 2a cf b1 e3 2e c0 32 9d 07 56 2f
       5.826395e-07 -6.029272e-09 2.2373063e-08 1.9465891e-10
0001e0 2b bb df 31 43 23 b0 b2 7a 31 5f 31 5e 48 20 b3
       6.5114327e-09 -2.0505132e-08 3.2478895e-09 -3.731872e-08
0001f0 20 1f 2a 9d 68 60 12 1a b2 23 c0 1b 8c f2 37 9c
       -2.2515404e-21 3.026997e-23 3.1786803e-22 -6.0863105e-22
000200 a5 ec 19 1c f6 45 d8 b2 7c 3a 93 2b e0 80 30 2c
       5.092931e-22 -2.5177524e-08 1.0461211e-12 2.5082644e-12
000210 0c 68 8c ac 19 b3 81 ad 80 9a d3 ad 2e 55 b1 ad
       -3.990591e-12 -1.4745137e-11 -2.4056535e-11 -2.0160398e-11
000220 e9 75 3e ad fc 06 ac 1b f8 af df 1a 47 8b b5 9b
       -1.0826431e-11 2.8459527e-22 9.251493e-23 -3.0033944e-22
000230 11 36 2b 1c 27 bf 10 9c 5c fc 4b af 0f 15 3f 3b
       5.6649033e-22 -4.789266e-22 -1.8552399e-10 0.002915684
000240 9f 1d 93 3a f8 97 91 3a c4 24 14 bc 4c 24 bd bb
       0.0011224038 0.0011107912 -0.009041969 -0.005772149
000250 db fe 9b 3b 47 4a 47 3b e3 2c 12 9c 36 ec d9 9c
       0.0047606057 0.0030409263 -4.836536e-22 -1.4420915e-21
000260 05 92 ae 9c 61 46 30 1c b6 58 56 1c d2 2c b6 3a
       -1.1552099e-21 5.832448e-22 7.0921317e-22 0.0013898856
000270 a0 2a c6 af eb 40 d2 b1 89 e3 04 ae 21 13 31 b0
       -3.6046277e-10 -6.1191847e-09 -3.0215417e-11 -6.441941e-10
000280 50 0a 2c 31 5e 1d c0 31 83 9c a7 2e 80 32 fb 9c
       2.5035156e-09 5.591274e-09 7.622083e-11 -1.6622841e-21
000290 e0 87 52 9c 8e bb 08 1d 3e 2c 8e 1a 82 96 8a 9c
       -6.9658786e-22 1.8096414e-21 5.88013e-23 -9.170979e-22
0002a0 87 45 01 32 6d 40 cf 33 17 b3 28 34 d4 65 24 b1
       7.524597e-09 9.6509076e-08 1.5711372e-07 -2.3923024e-09
0002b0 d1 cf 97 34 70 83 a4 b5 d8 bf 08 36 89 68 04 36
       2.8277148e-07 -1.2257206e-06 2.0377247e-06 1.973038e-06
0002c0 6b 65 21 1c 53 f8 53 1a 48 88 0d 1c 96 4b b4 1c
       5.340151e-22 4.3834372e-23 4.6829126e-22 1.1930939e-21
0002d0 97 a3 b2 9c 57 11 52 b8 ff 18 38 b2 56 e2 83 b0
       -1.1821339e-21 -5.008405e-05 -1.0715893e-08 -9.595833e-10
0002e0 cf 5c 17 2f 4b 84 c4 b3 7c 48 bc b1 7e a0 a9 b2
       1.3766342e-10 -9.151025e-08 -5.4797606e-09 -1.9747173e-08
0002f0 7b f8 8d b3 b4 1d 9b 9c 07 14 05 9c 3d b7 b9 9b
       -6.6110225e-08 -1.0264718e-21 -4.4031893e-22 -3.0724098e-22
000300 3c 0e bc 1c d6 0d 87 9c 68 0f 80 32 dc 69 3d be
       1.2444476e-21 -8.937127e-22 1.4908167e-08 -0.18497413
000310 2a 1a 1a 3e 98 38 93 bd 67 7a e7 be 5b 74 0d bf
       0.15049043 -0.07188529 -0.45210573 -0.5525567
000320 75 e0 0c bf c9 fb 45 bf 2e 9b 26 1c 88 c8 95 1c
       -0.55029994 -0.7733732 5.512536e-22 9.911829e-22
000330 67 3c ef 9c 73 66 41 98 ec 8e c7 9c 4f 53 c7 3d
       -1.5831307e-21 -2.4996389e-24 -1.320566e-21 0.09732687
000340 ed 44 02 3e 5c 82 f3 3c f9 bf d0 bd e2 04 af be
       0.12721606 0.029725246 -0.10192866 -0.34183413
000350 54 6f 66 be 1f 3f 7c be eb 51 ce be 50 de 11 1d
       -0.22503406 -0.24633454 -0.40296873 1.9305523e-21
000360 f7 78 44 1c f4 1c 30 1c 71 5e bc 9b 55 d7 19 9c
       6.5007303e-22 5.8270936e-22 -3.1163022e-22 -5.0901764e-22
000370 ec 53 36 be a8 8b f5 ae 2a 07 a8 2f f4 4c 1b 2d
       -0.17805451 -1.1166118e-10 3.0564112e-10 8.827817e-12
000380 b3 9d a6 af a1 91 98 af 6c 49 a3 b0 81 d7 af 2c
       -3.0307276e-10 -2.7752114e-10 -1.1880679e-09 4.997725e-12
000390 06 47 8b 9a 0d 96 06 9d 46 f2 08 1c 14 1d eb 1c
       -5.76038e-23 -1.7812327e-21 4.5311756e-22 1.5558512e-21
0003a0 f5 28 c9 1c 4a ba 21 2f 90 78 3c bc 65 6f c9 3a
       1.3311651e-21 1.4709048e-10 -0.011503354 0.0015368281
0003b0 38 56 2a bb 83 01 ec 38 ea e6 5e ba 4f cb a1 ba
       -0.0025991332 0.000112536385 -0.0008503037 -0.0012343916
0003c0 5d 62 2e bc 56 08 ee 1b 1d b2 66 1b 70 13 36 1c
       -0.010643569 3.9379184e-22 1.9082706e-22 6.024387e-22
0003d0 1f cf 08 1d f4 a1 41 1c ad f8 b2 bb 22 0a 4d be
       1.810653e-21 6.4067663e-22 -0.0054617734 -0.20023397
0003e0 b7 58 12 bd 2b 3b d2 bd 30 25 d0 be e5 a1 f3 be
       -0.035729136 -0.10265192 -0.40653372 -0.47584453
0003f0 2a df 01 bf ed 58 20 bf bd df 79 9c 0d 0a 0e 9d
       -0.50731146 -0.6263569 -8.2676364e-22 -1.879874e-21

gnn.gnn_layer.edge_func.0.bias f4 [64]
000000 c4 a1 f5 bc 8f 31 6f bc 79 76 01 b1 c9 e1 d1 3a
       -0.029984362 -0.014599218 -1.8839315e-09 0.0016012724
000010 cd 3f 4b b2 79 b9 a5 be f1 6a e9 b2 4a b7 03 40
       -1.1830662e-08 -0.32368067 -2.7173401e-08 2.058062
000020 6b 2f 18 b6 c8 60 9b b3 77 5a 2f 2f 64 19 d5 ba
       -2.2677366e-06 -7.2353544e-08 1.5948297e-10 -0.0016258177
000030 2e ee b8 b1 a5 4e 08 37 30 1c a2 b3 bd 68 4e bf
       -5.3821827e-09 8.124543e-06 -7.54884e-08 -0.8062857
000040 41 ce 12 bf 42 ba 94 30 1e fd 29 bc 40 6d 29 bf
       -0.5734597 1.0821355e-09 -0.010375289 -0.6618233
000050 32 78 28 bf 7f a5 92 ac ec 14 05 36 06 bc 05 3d
       -0.65808403 -4.1679433e-12 1.9830723e-06 0.032650016
000060 86 38 dc b7 42 51 96 b8 88 08 8a 30 40 f0 43 38
       -2.6252364e-05 -7.167693e-05 1.0043246e-09 4.6715373e-05
000070 15 54 fc aa 88 f9 24 ba 9f 80 6c b9 df f4 d4 b3
       -4.4822536e-13 -0.00062932866 -0.00022554629 -9.916561e-08
000080 28 fc 2c b6 8e 92 96 bf 04 45 83 ba ef ad 4f bf
       -2.5776772e-06 -1.1763475 -0.0010015075 -0.81124777
000090 0f 2a 12 b3 16 47 7e be 0a b9 85 bf d2 2d 6b 32
       -3.4031526e-08 -0.24831805 -1.0447094 1.3689219e-08
0000a0 67 e1 e4 aa 3b ec 44 b9 f1 ae 4f bc 54 59 85 bf
       -4.065734e-13 -0.0001878002 -0.012675987 -1.0417886
0000b0 2b 86 a6 b8 9b 3c 93 b2 61 6a 4a 34 6c 29 f6 b7
       -7.9404876e-05 -1.7140612e-08 1.8851416e-07 -2.9344774e-05
0000c0 4b ec b8 b2 98 92 7e b9 ce 4f 5b 29 f2 14 14 b5
       -2.1527873e-08 -0.00024277938 4.8696988e-14 -5.5164776e-07
0000d0 8b 6a a8 b0 89 06 81 bb 8d eb 1e bf ad c2 1f b8
       -1.225389e-09 -0.0039375466 -0.6207817 -3.808986e-05
0000e0 0e c6 b6 35 59 8f 62 38 d2 d7 8b b2 22 01 21 b5
       1.3617698e-06 5.40161e-05 -1.6279873e-08 -5.997882e-07
0000f0 7c 72 8e 33 32 90 bd 3a 54 a1 51 33 7e 4f f0 2e
       6.633215e-08 0.0014462529 4.880833e-08 1.0928057e-10

gnn.gnn_layer.edge_func.2.weight f4 [1024, 64]
000000 d1 5e be b6 d1 9e 14 31 19 f2 e5 a9 7d 10 6b b4
       -5.6734793e-06 2.1627111e-09 -1.021164e-13 -2.1892079e-07
000010 0b 94 13 ab da 15 3f 39 a5 6a 8e a9 d4 15 43 3c
       -5.243034e-13 0.0001822332 -6.3245667e-14 0.01190706
000020 42 bf 2b ad ae 77 80 ae c8 31 86 29 d5 f4 3c b5
       -9.762692e-12 -5.8420255e-11 5.959431e-14 -7.0391735e-07
000030 d9 fb f3 2a 5b de 00 32 e0 d9 6d 2e 29 b6 0d 3a
       4.3340226e-13 7.501138e-09 5.4081073e-11 0.0005405867
000040 55 a6 11 39 69 a1 77 2c dc 64 80 34 8f ad 54 b8
       0.00013890241 3.5190412e-12 2.3915243e-07 -5.0706378e-05
000050 cc 52 89 3d 02 34 c9 a1 bb db bb b0 a5 4d e0 b6
       0.067052454 -1.3634056e-18 -1.3668492e-09 -6.6847592e-06
000060 25 d2 74 31 85 e0 22 b3 c2 bc fc ab 1e c2 c8 30
       3.5626126e-09 -3.7922764e-08 -1.7958068e-12 1.4607087e-09
000070 c4 70 c9 26 78 10 be b5 46 47 08 b2 d3 a1 d7 2d
       1.3977742e-15 -1.4160896e-06 -7.932448e-09 2.4514534e-11
000080 1c b6 0a b1 b9 e8 e7 3c ec 03 16 b7 7f 2a 3b bb
       -2.018516e-09 0.028309213 -8.94161e-06 -0.0028559265
000090 cc df 9b aa f5 40 a9 2f cb 33 96 3b e8 39 3b ac
       -2.768882e-13 3.0787076e-10 0.004583811 -2.6606443e-12
0000a0 c2 dc 88 21 d9 b0 fb b2 13 c1 2f 31 e4 4b ad 3b
       9.274153e-19 -2.9300667e-08 2.5575602e-09 0.005288588
0000b0 5a 52 19 b4 4b f7 35 ac 2a 8d 66 2e 5b a5 20 32
       -1.4279195e-07 -2.5858922e-12 5.2421324e-11 9.350823e-09
0000c0 18 e4 b7 2d 02 34 3e b4 fc 3d 90 a3 8a 51 3a 2c
       2.0905985e-11 -1.7714049e-07 -1.5638763e-17 2.6477453e-12
0000d0 9a 92 c7 29 81 b2 fc 35 f4 2c 5a b2 ac 7d e5 b2
       8.8628066e-14 1.8827415e-06 -1.2699491e-08 -2.6716258e-08
0000e0 3a e5 77 ad aa 24 bc 32 ea 52 a1 2e 42 33 23 2d
       -1.4091223e-11 2.1902753e-08 7.336161e-11 9.276859e-12
0000f0 06 00 f2 2d 16 b6 2e 37 80 f3 24 2d b8 eb bd 28
       2.7512225e-11 1.0413603e-05 9.3763886e-12 2.1085442e-14
000100 f6 41 24 23 66 a0 ed 26 fe e8 a0 a5 cc d1 8e 25
       8.9044256e-18 1.6488655e-15 -2.7913457e-16 2.4775237e-16
000110 13 a4 62 a3 8c e4 11 20 ce c7 2c a7 77 db ce 33
       -1.2286229e-17 1.2357598e-19 -2.397811e-15 9.632543e-08
000120 35 2c ed 25 57 ca f1 a0 4a 7c 77 23 5c d1 c1 20
       4.1142902e-16 -4.0960885e-19 1.3416216e-17 3.2834014e-19
000130 5f 36 07 20 52 be 56 a1 9a e0 8b 25 23 05 d0 a0
       1.1452935e-19 -7.2757907e-19 2.4264852e-16 -3.523997e-19
000140 fd 0e 39 22 5d db 2d 24 7e 55 13 a4 13 8c 60 a1
       2.508011e-18 3.7699203e-17 -3.194796e-17 -7.607954e-19
000150 6e ef c8 a2 99 35 18 9f 69 16 46 a3 dd 65 a6 a3
       -5.4463615e-18 -3.2231587e-20 -1.0738347e-17 -1.8040897e-17
000160 ee b2 bb 20 df 47 8b 1e d7 02 6b 9f 61 25 24 a2
       3.1797438e-19 1.4746923e-20 -4.9765535e-20 -2.2245933e-18
000170 6c 68 91 24 cc e7 a3 a2 31 65 36 9d 8e 84 cd a0
       6.3060624e-17 -4.4426663e-18 -2.4139814e-21 -3.4816068e-19
000180 3a 21 3f a3 90 14 a0 a3 ce d2 dd a3 3b 78 f5 21
       -1.0361167e-17 -1.7355943e-17 -2.4050147e-17 1.663367e-18
000190 db 36 25 1d a2 46 37 a3 0d 8d 39 22 fd 05 17 a6
       2.1865928e-21 -9.935407e-18 2.5146847e-18 -5.2396765e-16
0001a0 96 2f bc 21 33 5d fb 24 f5 e5 0a a9 c5 d9 6d 9f
       1.2751971e-18 1.09011784e-16 -3.084161e-14 -5.0366837e-20
0001b0 91 62 74 20 7d 3d 21 21 b0 90 15 a2 e1 93 f9 26
       2.0700217e-19 5.46303e-19 -2.0269862e-18 1.7317928e-15
0001c0 47 f5 16 1f 5e 57 3b a2 98 59 76 9d e7 53 77 26
       3.1966624e-20 -2.5389478e-18 -3.2604148e-21 8.580905e-16
0001d0 a2 04 ac 9c 3f b8 e8 23 13 d3 12 a4 d1 83 87 a5
       -1.1383203e-21 2.5231522e-17 -3.183749e-17 -2.350809e-16
0001e0 d2 f1 7d a5 c8 0d be 22 c0 78 d4 a1 79 10 ef 23
       -2.2026184e-16 5.1514195e-18 -1.4397641e-18 2.5919408e-17
0001f0 94 e0 8e a1 54 37 5a 21 0b bd 48 1d 21 2f 40 a1
       -9.68174e-19 7.39345e-19 2.6567513e-21 -6.5114505e-19
000200 07 49 a4 3c a3 fe 4a 37 fd e4 38 b0 68 df c1 3a
       0.020054353 1.20994255e-05 -6.726422e-10 0.0014791312
000210 a6 d2 b0 af 77 9e a8 3c 72 4a 4f 30 b4 55 88 bf
       -3.2163888e-10 0.020583374 7.5411954e-10 -1.0651155
000220 3d a4 a6 34 01 a1 ed 32 43 9c fe 2e 44 90 03 ba
       3.1039409e-07 2.7663647e-08 1.15783404e-10 -0.00050187507
000230 83 73 77 31 dd 4c f6 b6 2f b6 04 32 83 92 45 3d
       3.6008891e-09 -7.3403194e-06 7.724835e-09 0.048235428
000240 33 99 c1 3d b2 2b fb 30 8b 8f 53 b9 aa 08 e4 bc
       0.094530486 1.8275073e-09 -0.00020176002 -0.027836163
000250 36 60 a6 bf da da 13 2a de b5 d0 b4 be 58 4b 3b
       -1.2998111 1.3132152e-13 -3.8875345e-07 0.0031028236
000260 64 8d ed 35 83 2c e2 37 59 c1 98 2e 06 0c 75 36
       1.7699026e-06 2.6962027e-05 6.946505e-11 3.6514843e-06
000270 72 68 93 2b e4 a6 d2 b9 57 98 1c 39 27 75 4d 34
       1.0473968e-12 -0.00040178664 0.0001493407 1.9134733e-07
000280 a2 f8 6b 35 72 80 82 bf 64 ea f3 3c 32 ff a1 bf
       8.790613e-07 -1.0195448 0.029774852 -1.2656004
000290 4e e6 f1 31 d3 cb 47 bd 75 09 35 bf dd 69 71 31
       7.0402058e-09 -0.048778366 -0.70717555 3.5130292e-09
0002a0 48 11 00 ab 42 36 ff 38 3a 47 f6 b6 2e 79 2b bf
       -4.549872e-13 0.00012169454 -7.339663e-06 -0.6698178
0002b0 5c 60 47 39 31 51 76 32 47 83 f9 31 a6 11 16 32
       0.00019014016 1.4337545e-08 7.2617783e-09 8.735162e-09
0002c0 a2 6c 85 b2 7c e7 e2 37 9d 1d 1a 29 16 a3 28 33
       -1.5532638e-08 2.7049093e-05 3.4220555e-14 3.9263874e-08
0002d0 a2 f8 20 b0 81 77 bf 3a 97 a0 a3 bb e5 a9 11 37
       -5.856099e-10 0.0014607758 -0.004993509 8.68223e-06
0002e0 c7 6b b2 b4 e5 1b 45 b8 d8 a4 40 34 9a ba 01 37
       -3.3233502e-07 -4.699444e-05 1.7941363e-07 7.732446e-06
0002f0 d6 92 81 b0 89 e7 5d bb 6c 36 5d b2 f7 f3 21 2b
       -9.427719e-10 -0.003385993 -1.2876267e-08 5.753726e-13
000300 30 16 56 af a0 a8 e5 b0 0e 65 4b 28 cc 48 7a b2
       -1.9471069e-10 -1.6709869e-09 1.12906764e-14 -1.4568467e-08
000310 b6 ca aa a8 01 d4 ae 33 b0 11 28 2a 28 8a 21 ba
       -1.8961703e-14 8.14107e-08 1.4927534e-13 -0.00061622495
000320 ab 20 a5 2d 13 82 93 29 6f 7b 07 a6 2a 2c b5 31
       1.8772836e-11 6.550676e-14 -4.700482e-16 5.272814e-09
000330 2a 0e c3 2b 01 ba 0f 2e ae f0 05 ae 5a 4f b1 ba
       1.3859515e-12 3.267964e-11 -3.0454465e-11 -0.0013527677
000340 7b 84 84 ba 71 ec 07 ab 29 f0 b1 b6 9d 99 5d 39
       -0.0010110283 -4.8289763e-13 -5.3029694e-06 0.00021133428
000350 d3 f5 9d b7 f1 36 11 a4 01 13 98 2b 1f 03 db b7
       -1.883033e-05 -3.14884e-17 1.0805524e-12 -2.6108288e-05
000360 6b ab a9 ad 15 78 ee 2e 35 6e a6 aa e1 84 84 2f
       -1.92892e-11 1.0844318e-10 -2.9563995e-13 2.4105076e-10
000370 7d c7 98 25 64 b3 72 b1 72 be 35 30 21 95 a0 2b
       2.6502975e-16 -3.5317607e-09 6.6118055e-10 1.1410075e-12
000380 4d a1 b4 2c 49 c3 29 bc 13 e0 7d 34 f3 ed 7e 39
       5.1338157e-12 -0.010361501 2.3643979e-07 0.0002431197
000390 55 37 43 aa ce 13 18 b5 d2 64 e4 b5 f6 1e b9 a9
       -1.7338676e-13 -5.665323e-07 -1.7016666e-06 -8.221021e-14
0003a0 ce 86 9f a2 46 db 70 2f 60 7b 8b 30 19 a3 04 b7
       -4.3239766e-18 2.1905774e-10 1.0148646e-09 -7.905787e-06
0003b0 b5 0e ca 2f 17 83 a3 a9 bb 94 0c ae d2 13 f8 2e
       3.6754036e-10 -7.2613946e-14 -3.1964414e-11 1.1281255e-10
0003c0 c9 b1 df a8 d9 d2 84 2c 7d 47 30 21 8f 86 f5 2c
       -2.4835075e-14 3.7750744e-12 5.9725733e-19 6.978258e-12
0003d0 74 60 36 27 16 5d b1 30 95 bf ca 31 49 16 1e 2f
       2.5309861e-15 1.2904902e-09 5.900754e-09 1.4377934e-10
0003e0 b5 e2 e8 2d 2e ab af 30 5c 39 93 ab 28 27 45 32
       2.6476024e-11 1.2781578e-09 -1.0460899e-12 1.1475812e-08
0003f0 e6 7f 10 29 55 b2 f3 ad e3 32 c3 a9 cb 49 0b 26
       3.2085357e-14 -2.7705097e-11 -8.668567e-14 4.832532e-16

gnn.gnn_layer.edge_func.2.bias f4 [1024]
000000 e1 f6 1f 3c 54 78 9a 31 0c 23 98 bf 99 07 ce b9
       0.00976345 4.4956696e-09 -1.1885695 -0.00039297043
000010 bc 76 40 3f 93 a8 cc a9 a8 b2 a5 b4 9d 32 78 be
       0.75181174 -9.088663e-14 -3.0863634e-07 -0.24238057
000020 c8 90 8b b3 28 ed 59 2e 3e db 01 35 ba 29 22 36
       -6.4990274e-08 4.9550725e-11 4.8375284e-07 2.416417e-06
000030 66 86 8e bf ce 9f 55 31 59 78 48 3a cb 58 34 37
       -1.1134765 3.1086418e-09 0.0007647328 1.074951e-05
000040 60 26 19 bc cb 0b bd 37 31 21 57 b7 a4 02 34 38
       -0.009347528 2.2536047e-05 -1.2822727e-05 4.2917804e-05
000050 d8 b5 a4 3a c8 66 6c b9 31 cb e7 ba d3 ae 62 3c
       0.0012566401 -0.00022545003 -0.0017684457 0.013835627
000060 d1 28 0c bb 9f c0 85 bd cd 95 86 b1 45 cc 86 3f
       -0.0021386633 -0.0653088 -3.9169437e-09 1.0531088
000070 b4 46 00 9e 09 5c 87 ba d6 9b b1 bd 29 f5 80 3f
       -6.790885e-21 -0.0010327111 -0.086723015 1.0074817
000080 96 44 19 b9 b2 64 46 21 7f ce 7b 3e 3b 36 ac 37
       -0.00014616767 6.721828e-19 0.24590491 2.052925e-05
000090 df 95 50 be 0f 2d 6e a8 47 af 5e b4 3d 95 f9 bd
       -0.20369671 -1.32214245e-14 -2.0739127e-07 -0.12186668
0000a0 39 79 d0 31 9b de 9a 2f b9 1f 3f b5 7d 2b 36 b6
       6.067378e-09 2.8170608e-10 -7.119921e-07 -2.7145427e-06
0000b0 51 a4 37 3b e9 81 9f 32 3a ec ca 34 20 4b 82 35
       0.0028021524 1.8569112e-08 3.779731e-07 9.707619e-07
0000c0 a2 ab 05 b9 7f ff 82 35 51 b3 c4 b4 02 f9 71 20
       -0.00012747807 9.760114e-07 -3.6638315e-07 2.0495884e-19
0000d0 06 2c ce 9f 24 60 09 ba fa fe 0b bb e1 88 35 3a
       -8.7317224e-20 -0.00052404613 -0.0021361695 0.00069249986
0000e0 b5 57 08 b8 9e db e8 b8 d8 4d ac b0 7e 20 1b 3d
       -3.250661e-05 -0.00011103529 -1.2536772e-09 0.037872784
0000f0 44 98 aa a9 f1 56 92 ba 3d 51 ab 3a d8 94 03 3d
       -7.5759304e-14 -0.0011164827 0.0013070476 0.03212437
000100 64 59 c4 35 7b 94 c1 a6 a1 e5 bf 38 31 a8 45 2f
       1.4629154e-06 -1.3432311e-15 9.1503614e-05 1.7976799e-10
000110 07 21 12 b9 80 f5 de 27 98 38 33 af bb 92 74 34
       -0.00013935949 6.188355e-15 -1.6300061e-10 2.2777651e-07
000120 5d fe f4 31 d7 80 55 ac fd 00 8b 31 ba 1f a7 2d
       7.1302524e-09 -3.034064e-12 4.045545e-09 1.8999791e-11
000130 0f f2 d6 b8 df 8e 93 af 6f 21 0f 37 f2 e2 80 34
       -0.00010249402 -2.684066e-10 8.531249e-06 2.4006982e-07
000140 f2 2e c7 b4 b8 b5 0c b3 66 3f d3 af e2 97 5c 25
       -3.7100796e-07 -3.2761562e-08 -3.8425724e-10 1.9133418e-16
000150 a1 f4 c3 a4 7f 5e 09 32 cc 05 06 b8 5a 4f 4f af
       -8.498219e-17 7.9959355e-09 -3.195349e-05 -1.8854732e-10
000160 b7 8a 5b 35 6d f3 89 35 4f 2b 08 27 7b 3f 22 ba
       8.1785714e-07 1.0278142e-06 1.889727e-15 -0.0006189269
000170 82 88 20 1e 80 fb 88 b7 6d ca 03 b7 d6 be f8 38
       8.498559e-21 -1.6329577e-05 -7.855339e-06 0.000118611075
000180 70 54 43 b9 ec 4f b0 a4 38 72 52 be 3f a9 97 b8
       -0.00018628105 -7.6463226e-17 -0.20551383 -7.2317656e-05
000190 78 1a 72 be 39 ec 28 ac 5f 52 df 34 bf 22 e0 3c
       -0.2364291 -2.4005366e-12 4.159692e-07 0.027360318
0001a0 d0 50 5b 32 cb ab c4 ad cb df cd 34 7e aa 81 b6
       1.2765852e-08 -2.2358912e-11 3.8347056e-07 -3.8643475e-06
0001b0 0e 25 cc be d0 1b a6 32 12 d1 02 3a 79 c9 ff b4
       -0.3987202 1.9337591e-08 0.00049902603 -4.7644042e-07
0001c0 6d 2b 21 39 29 42 10 b6 d8 a8 4b b3 4b a6 16 a5
       0.00015370334 -2.1496182e-06 -4.7418183e-08 -1.3066768e-16
0001d0 3a 7a 80 a5 a8 db f9 36 32 c0 e4 ba 8b 9b a3 ba
       -2.2287284e-16 7.4463496e-06 -0.0017452298 -0.0012482269
0001e0 fc 1a 0b 3b e4 53 04 39 5e fa cd b0 c6 04 2f be
       0.00212258 0.00012619753 -1.4986872e-09 -0.17091665
0001f0 00 f9 02 9f f1 50 6d ba ad 00 b0 38 53 0e d9 bd
       -2.773454e-20 -0.0009052894 8.39246e-05 -0.10598435
000200 77 f4 32 3b cd c4 86 30 22 be 8b bf 6b 6f b7 b8
       0.0027306357 9.805717e-10 -1.0917399 -8.746873e-05
000210 97 a6 b5 3f 53 5c d8 2c cb 66 16 b3 f5 f0 36 bb
       1.4191464 6.1493393e-12 -3.5018086e-08 -0.0027914618
000220 81 ed 07 b4 88 d1 80 2e d9 a5 0a 35 e5 a1 24 36
       -1.2659258e-07 5.857986e-11 5.1650346e-07 2.453214e-06
000230 dd 38 9b bf e2 59 57 31 a8 b9 7c b3 d0 22 5c 36
       -1.2126728 3.133771e-09 -5.8842176e-08 3.2802818e-06
000240 ba 90 d1 bb 14 8b 51 b8 68 3c f2 b5 4b be f5 37
       -0.0063954266 -4.995901e-05 -1.8047986e-06 2.9294888e-05
000250 a8 40 84 3a 26 41 af ba a4 97 6b ba d4 04 4d bb
       0.001009007 -0.0013370856 -0.0008987135 -0.0031283395
000260 ef 78 55 3b 05 b0 b8 bc f7 be 7f 31 8d 30 81 3f
       0.0032573303 -0.02254487 3.7215935e-09 1.0092942
000270 7c 12 66 2c 0a 1b d5 37 14 e6 fe bc 89 70 7b 3f
       3.2695227e-12 2.540417e-05 -0.03111557 0.9821859
000280 1b 60 ba 3b 3c 33 0c b9 0b 75 66 be 89 8e 48 bc
       0.005687726 -0.00013370527 -0.22505586 -0.012241014
000290 07 e9 ec 3f f9 1b 94 2d c2 93 d6 b4 6c 5c 10 bf
       1.8508614 1.6838074e-11 -3.9968114e-07 -0.56391025
0002a0 6d ba 7e bc f5 a4 ac af ac 8e e1 b4 56 fb 80 b6
       -0.015547377 -3.1403827e-10 -4.2013323e-07 -3.8439566e-06
0002b0 21 be 3d be f1 5b 77 b8 eb 67 a6 bc 87 dc f5 bb
       -0.1852956 -5.8975016e-05 -0.020313224 -0.0075030955
0002c0 4d a5 bb bb ef 0b 4f b9 f4 60 d3 b6 45 36 61 bb
       -0.0057264925 -0.00019745504 -6.299577e-06 -0.0034364623
0002d0 18 a3 db bc 8d e1 1e bb 4b 0e 9c bb 6e 54 83 bd
       -0.026811168 -0.0024243325 -0.004762446 -0.06412588
0002e0 40 0e 8b bc 59 3a 0c bd 52 8e bc b1 dc 8f bb 3f
       -0.016974568 -0.034235332 -5.4877e-09 1.4653277
0002f0 12 74 ec 27 d3 c3 74 bb 2d 50 24 bd 19 a1 70 3f
       6.5629002e-15 -0.0037348166 -0.040115524 0.93995816
000300 4c 21 43 3b 67 16 7e b1 e7 70 90 bf 34 2e cf b8
       0.0029774485 -3.69746e-09 -1.1284455 -9.879135e-05
000310 9a c4 b3 3f 6c a6 67 2c bb 30 80 b2 ad 01 68 bd
       1.4044373 3.2919457e-12 -1.4923321e-08 -0.056642223
000320 a5 d4 1d 34 25 a9 c1 2e b5 77 22 35 ba 0b 0b 36
       1.4699124e-07 8.80667e-11 6.05239e-07 2.071944e-06
000330 02 73 a2 bf 82 7b 6b 31 37 71 7f ba 7b 09 5e 36
       -1.2691348 3.4267207e-09 -0.00097443484 3.3086096e-06
000340 1b 9f b8 bb 78 fb 72 b8 6b 44 86 b6 58 49 26 b8
       -0.005634201 -5.7931495e-05 -4.001476e-06 -3.964579e-05
000350 6e 7b a6 ba 5a 3e bf ba 06 a0 80 b9 a5 24 2b bb
       -0.001270158 -0.0014590726 -0.0002453329 -0.002611437
000360 7b 26 82 3b c1 8c ca bc 9d 40 7d 31 ec 4a 81 3f
       0.0039718724 -0.02472532 3.6853074e-09 1.0100989
000370 d6 1d 6b a5 89 8c 9a ba 63 6b 02 bd e6 24 83 3f
       -2.039311e-16 -0.001179115 -0.031840693 1.0245636
000380 b0 4f f9 38 74 fb 6c b1 6f f1 c7 39 62 6e c4 32
       0.00011888088 -3.4485454e-09 0.0003813612 2.28676e-08
000390 06 64 12 bc 0b c6 00 ad 75 e3 96 32 c1 9e cf 37
       -0.00893498 -7.319932e-12 1.7565734e-08 2.4750248e-05
0003a0 f6 d3 9e 33 b2 86 5d 2e 3d 58 e2 34 2b 6b 15 32
       7.396004e-08 5.0369216e-11 4.2159982e-07 8.697309e-09
0003b0 c9 dc 1c 3b 20 2c 11 31 2c 04 e7 b7 0d d4 4e 34
       0.002393531 2.112536e-09 -2.7539289e-05 1.9262389e-07
0003c0 1c e9 3f b7 7c 84 47 33 85 c1 02 33 ed 6e 31 b8
       -1.1438762e-05 4.6453792e-08 3.044399e-08 -4.2303396e-05
0003d0 af 43 a4 ba 35 a8 8b b1 2f 9f 68 ba db f4 bb b1
       -0.0012532378 -4.0645554e-09 -0.0008873818 -5.470253e-09
0003e0 35 19 b8 37 e6 ee d2 37 5b e1 16 ad a8 c3 91 bd
       2.1946247e-05 2.5145197e-05 -8.576552e-12 -0.071173966
0003f0 d5 d0 54 9e 55 d2 4d b7 7c 44 95 39 ad 1c 80 3c
       -1.1266372e-20 -1.2267924e-05 0.0002847052 0.015638674

gnn.gru.weight_ih_l0 f4 [96, 32]
000000 d3 22 2b 3b fb c8 27 20 ea 6e 32 be 6a c9 fc 39
       0.0026113286 1.4211949e-19 -0.17425123 0.0004821525
000010 72 61 99 37 dd 68 35 2c ec a5 fe 2c bd 03 20 bb
       1.8284398e-05 2.5779858e-12 7.2375352e-12 -0.002441629
000020 57 58 d7 b1 01 75 37 2c ad 5e 2b ac b0 32 58 a6
       -6.2673666e-09 2.6070814e-12 -2.4353117e-12 -7.500875e-16
000030 43 fa 54 be 14 1c f6 2c a9 f5 93 b1 36 6a 94 b4
       -0.20798592 6.994858e-12 -4.3061914e-09 -2.7644427e-07
000040 50 39 42 3b 14 fb 9f b1 3a 4b 8b b8 8a 2e 3b 9e
       0.0029636212 -4.6560533e-09 -6.6420485e-05 -9.909322e-21
000050 4b 66 45 20 e2 24 a1 2c 3e b7 5d af 6d 43 b9 2e
       1.6720395e-19 4.57999e-12 -2.0164934e-10 8.424803e-11
000060 9b ff bc 37 a9 59 33 3b b7 27 79 2d 6c 64 c0 38
       2.2530372e-05 0.0027366674 1.416283e-11 9.1739785e-05
000070 88 19 86 1c 00 60 a4 ad f3 79 35 3c e8 a4 8c 3a
       8.873976e-22 -1.8687274e-11 0.011076438 0.0010730298
000080 c3 2a 1a bc f8 9b b4 9d d3 4e cc be cc d1 a8 b7
       -0.009409609 -4.780687e-21 -0.39903888 -2.0124855e-05
000090 60 44 66 bf e4 b3 6f a6 78 54 70 b1 59 6e a4 bb
       -0.8994808 -8.316358e-16 -3.4972611e-09 -0.0050180373
0000a0 6a 23 ad ae 0b 7c 2f a7 49 1a c5 2a 78 58 0e b9
       -7.87342e-11 -2.4353372e-15 3.501247e-13 -0.00013575132
0000b0 46 be 39 be 5b 95 6a 27 a8 d5 0c b5 85 d8 89 b0
       -0.1813899 3.255499e-15 -5.2464975e-07 -1.00296e-09
0000c0 4f be d8 b4 bb 9c bc b8 be c0 70 b8 df f9 9d 9b
       -4.0371603e-07 -8.993732e-05 -5.7399964e-05 -2.6134947e-22
0000d0 db 06 86 9f 1f 64 f1 37 91 8e 37 34 95 a6 13 ad
       -5.676255e-20 2.8776061e-05 1.7095068e-07 -8.392971e-12
0000e0 ba cd 20 34 c8 f1 a9 3a c3 bb 76 32 65 9e 39 bf
       1.4976004e-07 0.0012965733 1.4361777e-08 -0.72507316
0000f0 11 e2 f0 1c bf d3 5b 38 c0 0e 8d ba 50 9e 4c 3e
       1.5940305e-21 5.2410873e-05 -0.0010761842 0.19982266
000100 db a3 eb b5 73 14 4a 9e d5 a9 0c ba 10 20 de b0
       -1.7556553e-06 -1.069802e-20 -0.0005365883 -1.6161739e-09
000110 f3 7b 0e b9 b2 cb dd a4 70 06 29 a9 73 31 fc 38
       -0.0001358835 -9.6188545e-17 -3.7531122e-14 0.00012025507
000120 1d c9 8e af c2 63 5c a5 ec fc db 2b 57 ee 22 ae
       -2.597255e-10 -1.9115757e-16 1.5631086e-12 -3.7046224e-11
000130 d5 49 a0 ba c0 a0 3a a5 48 31 a3 b6 b9 ea 86 2c
       -0.0012229035 -1.6187393e-16 -4.8635156e-06 3.8345685e-12
000140 60 5d ff b1 02 d2 7b b0 7d d1 b0 34 31 f2 d9 9f
       -7.4320923e-09 -9.1611707e-10 3.2934977e-07 -9.230375e-20
000150 0b 9e e1 21 d5 f5 ff 31 62 85 97 34 e1 79 c0 2f
       1.5288427e-18 7.4494246e-09 2.822299e-07 3.5011197e-10
000160 07 39 9b b4 14 60 59 36 5f 40 13 ac d9 2c f8 37
       -2.8912493e-07 3.2391445e-06 -2.092569e-12 2.9584788e-05
000170 15 14 8f 9c 41 62 45 b5 99 78 0b 37 a5 2e e6 37
       -9.468137e-22 -7.3531197e-07 8.313124e-06 2.7439857e-05
000180 5e 57 b8 af 02 6a 13 a1 33 42 04 b8 36 5e a0 34
       -3.3531483e-10 -4.994584e-19 -3.1532905e-05 2.987087e-07
000190 58 91 3f 37 90 ce fb a6 11 0e 1a ae ae 3a c4 32
       1.1418328e-05 -1.7472613e-15 -3.502804e-11 2.2844088e-08
0001a0 6b 9b 01 ad 1c 35 2f 27 17 3d 44 2d a4 78 b0 aa
       -7.367311e-12 2.431492e-15 1.1154875e-11 -3.1347592e-13
0001b0 a7 df 1f 34 a5 9d 9d a8 45 a1 0c b8 f9 8d 93 32
       1.4889393e-07 -1.7498869e-14 -3.3528795e-05 1.7177614e-08
0001c0 a6 b7 61 b5 f7 29 8a 30 22 8c 00 af cb c7 0c a1
       -8.4086275e-07 1.0052749e-09 -1.1691317e-10 -4.769827e-19
0001d0 4d a2 f2 22 6e c2 27 32 97 7d 31 b8 10 e3 9c b0
       6.5766074e-18 9.764888e-09 -4.2317053e-05 -1.1415029e-09
0001e0 8a 18 b9 b0 f8 82 a2 b3 21 14 61 a9 4e d8 20 b8
       -1.3467496e-09 -7.567536e-08 -4.9977495e-14 -3.8348422e-05
0001f0 7b d1 ac 9c b1 f6 29 b7 7a c3 12 b5 ce da d3 b2
       -1.1436155e-21 -1.0130622e-05 -5.4673694e-07 -2.4663134e-08
000200 13 b0 d8 2c f5 83 ee a0 09 e5 0a bc 76 4b 81 33
       6.1586374e-12 -4.040609e-19 -0.008477458 6.020757e-08
000210 34 cf 0c bc 72 7b ac ad 5c 2a 8f 30 e0 81 0e bc
       -0.008594323 -1.9608957e-11 1.0416659e-09 -0.008697957
000220 b7 c4 4d b0 a9 ec 00 22 1a 16 a7 2c 8f 44 03 ae
       -7.4858114e-10 1.7472522e-18 4.7488792e-12 -2.9846844e-11
000230 9a 6b 26 3c 04 11 a5 23 5e 70 18 35 cc d3 20 af
       0.01015749 1.7896542e-17 5.678793e-07 -1.462716e-10
000240 23 9d 13 b5 39 f6 e3 b7 4f 64 a2 2f 5c 53 fe 22
       -5.499043e-07 -2.7175165e-05 2.9538902e-10 6.89351e-18
000250 08 35 47 24 c8 11 6b ba 6b 80 29 35 8f 00 7d 31
       4.3196166e-17 -0.0008967188 6.314428e-07 3.6816663e-09
000260 2a 0e a0 35 ec dc 53 31 b9 a6 13 aa 96 a8 ea bb
       1.1925051e-06 3.083012e-09 -1.3114066e-13 -0.0071612103
000270 83 8a c5 9c a0 9a 19 b6 cc 23 ad b7 ae 89 78 3c
       -1.3072171e-21 -2.288878e-06 -2.0639876e-05 0.015169544
000280 64 bf 64 b1 ea 4a 5c a4 f4 d7 e2 35 ab 60 f9 2d
       -3.328716e-09 -4.776835e-17 1.6901163e-06 2.8350952e-11
000290 3f c1 8d 32 44 d9 7b 24 69 ed 0b 29 c5 d0 7f b2
       1.6502439e-08 5.461098e-17 3.107012e-14 -1.4890422e-08
0002a0 04 17 00 32 14 21 a8 a5 aa 94 c8 29 3c 3c 86 24
       7.455814e-09 -2.916577e-16 8.907573e-14 5.821528e-17
0002b0 71 65 35 b6 9a b3 d4 a4 bf fc ac b1 6e 65 64 31
       -2.7030148e-06 -9.22446e-17 -5.0345927e-09 3.3236023e-09
0002c0 12 4d 73 b2 98 f6 16 ad c4 b5 04 af c5 68 20 a3
       -1.4161985e-08 -8.581268e-12 -1.2069906e-10 -8.695803e-18
0002d0 a3 43 25 a5 58 2d 33 ac ee 46 8e af bd 3d 07 2e
       -1.4334385e-16 -2.54626e-12 -2.5880048e-10 3.075028e-11
0002e0 24 b4 32 af 2e ec 54 b2 a9 c2 7c 26 82 a9 09 30
       -1.6253004e-10 -1.2393725e-08 8.7693877e-16 5.0081195e-10
0002f0 18 dd 56 9d ee 01 5c 30 e5 b2 da b3 4e 6d 5e b4
       -2.8436967e-21 8.0038276e-10 -1.0183957e-07 -2.0715126e-07
000300 ca 8c 8a af 2c 2d 63 a1 a0 11 c4 39 0a 3b bc b3
       -2.520209e-10 -7.6970376e-19 0.00037397165 -8.765171e-08
000310 a2 51 16 bb ac 75 1d aa 4a 2c fd b2 5f 7a b8 3a
       -0.002293684 -1.3985227e-13 -2.9473217e-08 0.0014074555
000320 95 89 cc ae bc b4 2a a8 bb 86 5f ab 8d 46 22 ad
       -9.3012854e-11 -9.476086e-15 -7.941249e-13 -9.224299e-12
000330 1b f6 ba ba c1 57 96 29 8b 07 c5 b6 cc 91 46 2f
       -0.0014264019 6.676561e-14 -5.8719356e-06 1.8059793e-10
000340 34 1f a1 b3 d4 60 3a b3 d1 68 33 ae 90 02 85 21
       -7.5028225e-08 -4.3394564e-08 -4.0792984e-11 9.013109e-19
000350 a2 2c df a1 1c 11 9e 39 1d eb 13 34 5a 45 05 30
       -1.5122882e-18 0.00030148856 1.3775976e-07 4.848367e-10
000360 4b d1 48 36 e3 56 f3 b1 e7 e0 4d 2b 73 b0 50 ba
       2.9924147e-06 -7.0821087e-09 7.3142745e-13 -0.00079608633
000370 24 59 14 1d 66 3e 29 35 d4 58 0d b6 d2 df d0 ba
       1.9633722e-21 6.304821e-07 -2.1062342e-06 -0.0015935844
000380 33 f9 e4 35 70 a4 55 a2 96 1e 77 b9 fe 1a 8c b5
       1.705985e-06 -2.8953935e-18 -0.0002356715 -1.0438669e-06
000390 03 9d 0a b4 51 49 92 b0 64 ab 8b 2c 20 26 c3 37
       -1.2909372e-07 -1.0643736e-09 3.969646e-12 2.3263565e-05
0003a0 4e c7 4e b1 e1 56 38 b0 f3 23 35 ab e9 d4 01 2d
       -3.0090237e-09 -6.706227e-10 -6.4354007e-13 7.380077e-12
0003b0 71 19 c4 3a bd ba 52 b1 86 ab 50 36 31 74 96 b1
       0.0014961195 -3.066517e-09 3.1094255e-06 -4.378784e-09
0003c0 b1 87 da b6 06 d8 14 b2 35 51 b6 b3 cd 39 81 20
       -6.512703e-06 -8.663852e-09 -8.489807e-08 2.18917e-19
0003d0 94 42 5b 9d 67 cb 83 2c 44 65 b8 33 44 bb 21 31
       -2.9018829e-21 3.745826e-12 8.586588e-08 2.3535032e-09
0003e0 37 54 6d 34 5f a8 82 b5 12 df 84 a9 df 94 ce 37
       2.2102982e-07 -9.734757e-07 -5.900674e-14 2.4626437e-05
0003f0 4a 16 93 9c d6 c3 09 34 8a 2a 8a b7 41 e9 05 ba
       -9.733406e-22 1.2830364e-07 -1.647069e-05 -0.0005108305

gnn.gru.weight_hh_l0 f4 [96, 32]
000000 dd cb 22 3c 2b 00 e1 30 d9 76 85 b0 f9 74 48 31
       0.0099363 1.6370952e-09 -9.710802e-10 2.9170322e-09
000010 ef 97 09 3b f3 8f c3 3a 1e 41 0c 3b f8 5d 64 31
       0.00209951 0.001492022 0.0021401118 3.3231782e-09
000020 d6 89 b1 b9 ce 02 cf 31 39 b2 19 39 7c 93 c2 31
       -0.00033862767 6.0248118e-09 0.0001465761 5.66291e-09
000030 f9 de f7 bb 2e 76 f7 b8 ae fa 7e 30 62 3a e9 ae
       -0.007564422 -0.000117998905 9.27609e-10 -1.0605984e-10
000040 0d 3c 08 b1 84 02 1c 3c 43 cb 2c 37 b7 0c d1 bb
       -1.982474e-09 0.009522084 1.02993245e-05 -0.0063796896
000050 2d d5 d4 3a 21 e3 1b b1 f6 cc ea b1 54 35 e6 31
       0.0016237848 -2.2684576e-09 -6.8335977e-09 6.6999437e-09
000060 63 da 8b 31 29 ee 1d 37 03 4d 81 b1 cb 13 82 3b
       4.07026e-09 9.41338e-06 -3.7631493e-09 0.0039696447
000070 60 72 c0 2f 2a 4e 5d 31 62 d7 80 30 dc 05 3b 30
       3.5005865e-10 3.2204164e-09 9.374441e-10 6.803853e-10
000080 3f 7a bd 3d 2a 5f 46 3d 38 dc 37 b3 11 25 c2 3d
       0.09251832 0.0484306 -4.2808296e-08 0.09479726
000090 5e 46 a7 3d fe 51 5e ba 33 35 c0 3d c8 23 ca b8
       0.08167718 -0.0008480846 0.09385147 -9.6387754e-05
0000a0 83 c3 5c bc 3b 5d cb 3d f6 a3 7c 3c c7 5a cc bd
       -0.013474348 0.09929892 0.015419951 -0.09978252
0000b0 df f4 56 3e f2 81 c1 bd 6f 2f 69 b9 f5 af 4f b6
       0.20991848 -0.09448613 -0.00022238282 -3.0947824e-06
0000c0 87 93 ca 3d 9a 64 31 3e 42 fb a3 3d 5e a4 b8 bd
       0.0989142 0.17323533 0.08006908 -0.090157256
0000d0 69 bf ac bd 30 26 bb bd 8d be bb 3d d3 6d ba bd
       -0.08434946 -0.09138143 0.09167204 -0.091029786
0000e0 7d 97 c0 b7 f1 a2 cd 3d 60 cd b6 3d 88 8a 4a 3c
       -2.2958726e-05 0.10040844 0.08925891 0.01236213
0000f0 b1 d0 c4 34 96 6a 6f ba 4b 98 21 b5 fb bd 6d b3
       3.6659688e-07 -0.0009133009 -6.019879e-07 -5.535365e-08
000100 a4 dc b1 b7 11 56 80 32 21 2e 91 32 6c 65 9b b5
       -2.1202788e-05 1.49403e-08 1.6901199e-08 -1.1577918e-06
000110 8c d2 94 37 0d 41 0f 37 64 a6 2e b8 9d 9f b5 b3
       1.7741018e-05 8.53861e-06 -4.1639796e-05 -8.457503e-08
000120 71 66 da b8 62 e0 ae 33 34 3e b6 34 f3 a8 85 b5
       -0.00010414131 8.1433214e-08 3.39454e-07 -9.958443e-07
000130 18 fe 07 b9 1d 0f 88 38 28 ec 51 35 90 0c b6 b6
       -0.0001296926 6.4878004e-05 7.820222e-07 -5.425485e-06
000140 34 93 cd 34 a7 56 2a b7 c5 a4 8d b4 65 f9 61 b7
       3.829133e-07 -1.0152965e-05 -2.6383182e-07 -1.3469112e-05
000150 d9 13 8e b7 26 c8 39 b5 7d a9 49 34 93 c5 c4 b5
       -1.6936961e-05 -6.9209125e-07 1.8781243e-07 -1.466064e-06
000160 82 ec 6e 2e 5f f0 68 34 48 15 77 34 2d 12 c2 b5
       5.4324996e-11 2.169413e-07 2.301141e-07 -1.4459416e-06
000170 2a 82 f7 b3 57 78 9d b1 86 1d cf b4 d6 c0 41 33
       -1.15255105e-07 -4.5829824e-09 -3.8578236e-07 4.5111697e-08
000180 4e 28 95 32 2c 09 97 31 7b b9 27 2e 2e d2 3a b2
       1.7364211e-08 4.395721e-09 3.8136144e-11 -1.0874414e-08
000190 99 97 34 31 d9 ca 21 b3 15 45 ee b4 99 02 a6 b2
       2.627962e-09 -3.7670222e-08 -4.4381218e-07 -1.9326125e-08
0001a0 f7 d8 93 b3 82 48 b5 ae c2 f4 de 30 27 09 ef 34
       -6.8846866e-08 -8.243807e-11 1.622219e-09 4.4523878e-07
0001b0 06 0b 12 b6 fc 89 9e b4 91 bb f0 b4 ce 77 cc b4
       -2.1762112e-06 -2.953019e-07 -4.4839956e-07 -3.808513e-07
0001c0 b5 99 6a 2f 97 2d cd b5 0b 7b 40 34 5e e5 06 35
       2.1336784e-10 -1.5286959e-06 1.7926156e-07 5.0252663e-07
0001d0 02 89 9a b4 08 1f 96 b3 02 63 80 32 89 cd 1d 35
       -2.8784422e-07 -6.990564e-08 1.4946185e-08 5.878615e-07
0001e0 48 ed 6d b2 78 13 74 34 51 bd 82 ac f2 05 b7 33
       -1.3849167e-08 2.2731354e-07 -3.7158406e-12 8.522683e-08
0001f0 47 ee 54 2f 35 8d 9d af 1b 7f 47 b4 a3 ab 56 32
       1.9365941e-10 -2.8658467e-10 -1.857956e-07 1.2495465e-08
000200 fa ba a1 39 c0 e2 a5 b3 20 7f 3a 34 8c a3 64 39
       0.0003084762 -7.724657e-08 1.7368848e-07 0.000218047
000210 0d e5 f6 b9 c5 5a 46 b8 92 06 50 3a 47 af 26 33
       -0.00047091432 -4.7291414e-05 0.00079355494 3.88093e-08
000220 19 98 31 3b 31 12 24 ba 01 4d 73 b7 e5 89 87 ba
       0.0027098714 -0.0006258814 -1.4501858e-05 -0.0010340778
000230 39 a7 43 3a b2 25 3f ba ff 21 41 b8 4a 00 3a 36
       0.0007463578 -0.0007291689 -4.6046447e-05 2.7716328e-06
000240 d8 55 2d 3a 04 cf 05 ba ed e3 44 3a 73 d1 30 3a
       0.0006612218 -0.0005104395 0.000751077 0.00067450776
000250 57 26 c2 b9 7a 97 58 ba a4 4f 27 36 a8 60 60 ba
       -0.0003703113 -0.0008262318 2.4931296e-06 -0.0008559325
000260 8e f2 9b 34 dd 3e 73 39 81 86 47 3a 3a e3 31 b8
       2.9047482e-07 0.00023197704 0.000761129 -4.241171e-05
000270 ff e6 18 b4 a5 cf 5d 33 9d f8 86 ba d7 e9 d0 32
       -1.4240139e-07 5.1644424e-08 -0.0010297481 2.4320725e-08
000280 bd 20 ca b3 16 d9 7a ae c9 48 7d 2f 28 80 2c ae
       -9.412313e-08 -5.703623e-11 2.3036074e-10 -3.9222098e-11
000290 76 1f a4 31 d6 a5 af b0 e6 ed 07 b2 52 62 32 b1
       4.776605e-09 -1.2780059e-09 -7.912126e-09 -2.5958298e-09
0002a0 31 91 a7 b2 d2 e9 fb 2f 95 cb b2 30 b1 89 a2 b0
       -1.9507384e-08 4.5822773e-10 1.3009066e-09 -1.1826186e-09
0002b0 8f 64 24 33 b6 98 22 b2 fb cd ef 2e a9 b1 6d 2f
       3.8275683e-08 -9.4643635e-09 1.0905051e-10 2.1618142e-10
0002c0 87 d6 1d 2e 15 29 f4 b2 a2 b1 b9 b0 e7 2e 96 b2
       3.5888206e-11 -2.842402e-08 -1.3511008e-09 -1.7483627e-08
0002d0 c8 bc 47 b2 45 73 0a b1 19 5f de 30 df d5 96 b0
       -1.1626248e-08 -2.0147166e-09 1.6179654e-09 -1.0974722e-09
0002e0 5b 0d 4f 2f 00 7c 76 31 d4 25 74 2f 39 08 73 32
       1.8831285e-10 3.5868197e-09 2.220511e-10 1.4146331e-08
0002f0 91 1d 54 ae 4f 74 e3 ae 8f ad bb 2e c2 d1 f4 b0
       -4.822948e-11 -1.03434254e-10 8.534606e-11 -1.7812953e-09
000300 e6 6e 4c b8 54 e4 35 b9 75 e9 93 33 78 62 6e 39
       -4.8740672e-05 -0.00017346564 6.8876865e-08 0.00022734131
000310 5a 63 08 39 7e 9f a0 ba 52 12 b8 b8 94 a2 8e b5
       0.00013006982 -0.0012254564 -8.777216e-05 -1.0627141e-06
000320 0d 3e 3e 38 75 b9 06 b8 c6 67 a4 b8 07 72 e9 b8
       4.535732e-05 -3.212081e-05 -7.839459e-05 -0.00011131545
000330 1b f4 ee 3a f6 db c4 b7 04 b2 22 b9 7f e7 9f 38
       0.0018230708 -2.3467448e-05 -0.0001551584 7.62483e-05
000340 f4 2d e4 38 88 22 65 ba 81 52 88 38 b9 81 9b b9
       0.00010880447 -0.00087408023 6.500353e-05 -0.00029660555
000350 d1 70 29 39 f8 d3 39 38 2d ff 82 38 aa b3 76 b8
       0.00016159123 4.430485e-05 6.246413e-05 -5.8818296e-05
000360 bd 79 10 35 65 02 4e b9 9b 38 e4 b6 76 53 dc b9
       5.382133e-07 -0.00019646583 -6.8015192e-06 -0.00042023853
000370 ad 0f b6 b6 71 11 86 b5 11 7e 08 b8 91 90 52 35
       -5.4258476e-06 -9.988854e-07 -3.2542335e-05 7.844147e-07
000380 22 cc 80 33 0e f1 50 b6 a7 31 2b 33 f1 09 01 b7
       5.997596e-08 -3.1134728e-06 3.98592e-08 -7.691314e-06
000390 9e e2 e5 b5 e0 6c 35 37 d2 4a 29 35 79 96 18 35
       -1.7127784e-06 1.081379e-05 6.3066284e-07 5.684338e-07
0003a0 93 ec b8 b5 dd 6f cf 36 77 49 1c 34 7e 02 6c 34
       -1.377792e-06 6.1821033e-06 1.4555359e-07 2.198012e-07
0003b0 21 71 94 35 ca ee 76 b6 b9 a9 9e b3 8b d0 ce 32
       1.1059784e-06 -3.679585e-06 -7.388321e-08 2.407639e-08
0003c0 7d 8d 70 36 49 d8 b4 37 25 a0 01 34 f5 c1 34 b7
       3.5845144e-06 2.1558388e-05 1.2072321e-07 -1.0773995e-05
0003d0 9e f2 dd b4 e5 2e 6b 36 af ed 83 b3 64 4f f9 32
       -4.1340985e-07 3.5045025e-06 -6.143397e-08 2.9023518e-08
0003e0 89 4c b1 b1 e2 92 3e b6 c5 14 01 b7 a7 bd 0d 37
       -5.160079e-09 -2.8397703e-06 -7.693835e-06 8.448412e-06
0003f0 6f fa b5 b3 46 15 81 3a 3a 0f b4 b1 5f 19 a7 b2
       -8.474023e-08 0.0009848259 -5.2404205e-09 -1.9452896e-08
