1-GNNs/result/6108_AR_NURA_GCN_0920/33/model.pth (torch, 233562 bytes, 16 tensors)

gnn.gnn_layers.0.graph_conv.weight f4 [74, 128]
00000000: b673 b3bc a4e3 17be 61d5 d0be 707f eabc
00000010: 7e26 1c3d f0e1 20bc 85e1 afb5 c6aa ecb9
00000020: 6887 08bb aba1 eaba 8d98 9834 d661 26bd
00000030: 40b5 22bc b5ba b53b 7313 8abe 4241 0abe
00000040: 3aa4 21bd a40a fab8 40af 7ab5 2c6e 90b4
00000050: 0bbe 57b9 943b 44bb de95 aebf d225 caba
00000060: dcac 9bbd 8427 dabe 8544 c9bc c147 0bbb
00000070: 9fea 65be dfa9 0e3e 2bfa 78b9 8a5b 8fbc
00000080: 180e 443c b647 3ab8 3525 69ba de95 71b8
00000090: 9d3e 4fbc 4759 dcbd 1c8e 1ebb 726a f0bc
000000a0: 8eaf 83b8 6945 bdb3 7512 c3bc 8fcc 9cba
000000b0: 86c5 2dbc 9a16 56b9 c0ce d6bb b2be 07be
000000c0: 1b34 03bc c145 d0bc adec e9bd b41b ddbc
000000d0: d23a d3be 63d1 31b9 b074 09bc 8fdf 603a
000000e0: 7e63 443b 2877 77bd 397f 47bf 4481 05af
000000f0: 723e baba 7a95 8fba 0ecd e3b9 9ef0 06bb
00000100: f584 fcbc b966 9ebb a20c b832 71b8 a4b8
00000110: a767 e6bb 44b7 28b3 3146 41bb f069 2dbc
00000120: ab65 cdbb 9dca ccbe ba56 4cbd 332b 47b7
00000130: c602 b8bc dbf7 5ebf 9775 50ba 8d97 06b6
00000140: 400c 1ebd 02c8 36ba 01e0 f3bb 41eb 053a
00000150: bfaf 96ba 3581 e3ba a308 3cb7 ac26 ffbc
00000160: 1b78 b4bb 6767 acbb 2579 f5bd b342 ceb9
00000170: a095 e3bc f0ff 1ebc 6c1c 4dbf 0345 9cbd
00000180: 702a 36bb 75a2 2abe 9897 3bb8 0fdf a9ba
00000190: 4209 883c 84f5 c2b7 66a9 a9bb db67 b0bd
000001a0: 2312 f832 f900 4ebe 0c63 ccbc 78ed b8bd
000001b0: 5903 4b3f 095c 9fbc cb66 c8bd f6a4 4439
000001c0: 42b1 5c37 2833 07b7 3758 42bc 2b58 e3bd
000001d0: 65ca 88be 67a2 21bf 2fb0 a7be 3044 c63e
000001e0: 56dd 14b9 e631 9dbb 8a71 6ebc 3f2a b7bc
000001f0: 396c 33b7 0d32 4bb8 eb6c e0ba a067 28ba
00000200: a34d febc 6102 8e3d 140b 44be 4f9a 863c
00000210: 37f4 933d a23f be3a cbe3 ca35 e7be 1a38
00000220: 92e1 cf3b 1426 e23a 6973 96b4 9dcd e63b
00000230: 4908 a639 a37e e1bb b847 1abc b9fb a8bd
00000240: 6d8b 4ebc 9811 e037 d573 85b4 96a2 9833
00000250: e54b 9fb7 d7ca 0c3b 2982 0c3e 1d03 a6ba
00000260: 00d8 f43c 226a b4be b953 d5bb 6c39 88ba
00000270: 1f96 5fbb d31d 853e 43fe 8db9 3c61 cdbc
00000280: 324f 1cbd d87b e5b9 8e13 1a3a af62 f036
00000290: ca87 41bb 2162 963d f7b5 173a a8a1 433d
000002a0: 1773 4937 df49 cbb1 13e9 a9b9 b853 ec3a
000002b0: 340e c3b9 1b79 18b8 0dac 0a3a c28a a23c
000002c0: c0ed 483c fa0e 1a3b 402e 203d bca7 02bc
000002d0: 1bef 9d3c 845e 3939 e2c1 ad3b d0ee 4fbc
000002e0: 1c67 ac3c bdf6 d0bd ddcb 0d3e 7aab 12b1
000002f0: e4ad 04bb 1d8e a3ba 2356 cd36 9564 f5ba
00000300: be5a 683b 098e 453b bdfa 5ab5 97c8 9436
00000310: 0f64 8bbc 04b4 49b2 a285 65ba 7bd3 9e3b
00000320: cd5a 8bb8 30fa 42bc a59c ec38 6346 a1a9
00000330: b3dc c03c ee1f 3e3e 5923 2039 c58c 0037
00000340: 7183 3f3d 0d33 2cbb 9cd7 8c3b f450 5b3c
00000350: 137e 4ab9 a2cc 8b39 ccea 1138 31fb e9bb
00000360: e908 b5bb cfe3 be3a e8b2 473c a8bc 8eb9
00000370: 5cfc c73b 8713 083c ff9a cabe e576 99bd
00000380: a404 7439 03e8 ef3e f214 86b5 c183 3d39
00000390: 8ccb 0fbd cbb4 c6b5 2086 13bb cda8 55bd
000003a0: 93cd 6db3 bb18 8cbb 92c4 5abb 8028 543d
000003b0: 5b39 10bf 76cd a63c 327e b1bd 0e7a d5b9
000003c0: 8190 c2b9 7109 ec36 ba32 a73a d1f2 35bc
000003d0: 47bb 0a3e 0d8a 403e 20d9 343d 3bbf 9c3d
000003e0: a435 80b7 c68a 273b 2d65 0e3d 4df7 093c
000003f0: f99e 07b7 36c3 8cb7 c7ec 2dba 0991 10ba
-0.021905761 -0.14832932 -0.40787795 -0.02862522 0.038122647 -0.009819493 -1.3104151e-06 -0.00045140664
-0.0020832662 -0.0017900964 2.8423202e-07 -0.040620647 -0.009930909 0.005545939 -0.26967964 -0.13501456
-0.03946326 -0.00011922911 -9.338728e-07 -2.690225e-07 -0.00020574794 -0.0029942738 -1.3639486 -0.0015422648
-0.0760133 -0.42608273 -0.024568805 -0.0021252485 -0.22452782 0.13931988 -0.00023744318 -0.017499704
0.011966251 -4.441264e-05 -0.0008893789 -5.7598452e-05 -0.0126492055 -0.10759216 -0.002419359 -0.029347632
-6.2792664e-05 -8.813624e-08 -0.023812512 -0.0011962819 -0.010606175 -0.0002041705 -0.0065554082 -0.13256338
-0.008008028 -0.025423886 -0.114220954 -0.026990749 -0.41255814 -0.00016958038 -0.008389637 0.00085782347
0.0029966529 -0.06041637 -0.779285 -1.2142204e-10 -0.0014209284 -0.0010954582 -0.00043449592 -0.0020590196
-0.030825118 -0.004834023 2.1426164e-08 -7.854484e-05 -0.0070313993 -3.9282227e-08 -0.00294913 -0.0105843395
-0.0062682233 -0.39998332 -0.049887396 -1.1871382e-05 -0.02246226 -0.8709695 -0.00079520926 -2.005577e-06
-0.0385859 -0.00069725525 -0.007442475 0.0005108603 -0.0011496468 -0.0017357232 -1.1207684e-05 -0.03114637
-0.0055074818 -0.00526135 -0.11985997 -0.00039341077 -0.027781308 -0.009704575 -0.80121493 -0.076303504
-0.002779629 -0.16663535 -4.4725457e-05 -0.0012960153 0.016605977 -2.324093e-05 -0.0051776646 -0.08613559
2.8879247e-08 -0.20117559 -0.024949573 -0.090296686 0.79301983 -0.019453065 -0.09785231 0.0001875347
1.3154293e-05 -8.058538e-06 -0.011861852 -0.11100801 -0.26716915 -0.6313843 -0.32751605 0.38723898
-0.00014196834 -0.004797208 -0.014553437 -0.022359012 -1.0694429e-05 -4.8445585e-05 -0.0017122304 -0.0006424133
-0.03104288 0.069340475 -0.19144851 0.016431002 0.07224315 0.0014514814 1.5116469e-06 3.6894253e-05
0.0063440287 0.001725378 -2.802365e-07 0.007043554 0.0003166816 -0.0068815514 -0.009416513 -0.08251137
-0.012606484 2.6711074e-05 -2.485746e-07 7.107626e-08 -1.8989618e-05 0.0021483207 0.13721527 -0.0012665723
0.029888153 -0.35237223 -0.0065102247 -0.001039309 -0.0034116579 0.25999317 -0.00027083055 -0.025070779
-0.038161464 -0.00043770554 0.00058775477 7.1640457e-06 -0.00295304 0.07342935 0.0005787308 0.04776159
1.200733e-05 -5.9164758e-09 -0.00032407846 0.0018030321 -0.0003720388 -3.6352412e-05 0.000528992 0.019841556
0.012263715 0.0023507462 0.039106607 -0.007974561 0.019279053 0.00017678185 0.0053026536 -0.012691215
0.02104526 -0.102033116 0.13847299 -2.134327e-09 -0.0020245248 -0.0012478266 6.1195037e-06 -0.0018721992
0.0035454477 0.0030144474 -8.15762e-07 4.4340954e-06 -0.017015485 -1.1740671e-08 -0.00087555696 0.004846988
-6.6449495e-05 -0.01190047 0.00011282534 -7.1620464e-14 0.023542738 0.18566868 0.00015271957 7.66217e-06
0.04675621 -0.0026275546 0.0042981636 0.013386 -0.00019311187 0.0002666461 3.4789366e-05 -0.00714054
-0.005524744 0.0014563742 0.012188651 -0.0002722491 0.0061030816 0.008305437 -0.39571378 -0.074933805
0.00023271382 0.46856698 -9.989874e-07 0.00018073527 -0.035106227 -1.4804767e-06 -0.0022510365 -0.052162934
-5.536783e-08 -0.004275409 -0.0033381325 0.051796436 -0.5633752 0.020361643 -0.08666648 -0.00040717464
-0.00037110227 7.034447e-06 0.0012756207 -0.011105255 0.13548003 0.18802662 0.04415238 0.07653662
-1.5283767e-05 0.0025564893 0.034764457 0.0084207775 -8.083641e-06 -1.6780203e-05 -0.0006634709 -0.0005514776

gnn.gnn_layers.0.graph_conv.bias f4 [128]
00000000: 8dc0 bebc 0ae5 30be 96a1 babe 8e3d 5bbc
00000010: 8900 85bd a469 a83b 7fd8 5337 b2cc e038
00000020: bdd3 e8ba da91 bcba e2b1 3f34 6616 e9bd
00000030: bb15 f0b9 4931 e23b 50ac 36be b30a d6bd
00000040: ffe1 afbc 20dd 9136 951b a133 7862 89b4
00000050: f77c 09b9 60a7 02bc 55b6 2fbf cf51 5fbb
00000060: ca9a 773d 1ecc 01bf 9d74 f53c 1217 84ba
00000070: 814e 813d 32a7 e3bd 212b 13ba 64c8 06ba
00000080: 284e 9e3c 1e7d 68b9 6ff4 013a 2a4c 52b8
00000090: afa4 ce3a ac0a acbd 0b30 5fbb 8344 04bd
000000a0: fb73 5238 29e0 d7b1 2c47 893b 59e0 93ba
000000b0: 94c4 96bb 8fc5 51b8 bba4 9ebb fe9d 7c3d
000000c0: 5450 35ba 4eca 83bc 9deb 813d aa07 73bd
000000d0: b9eb 263d ca4b 02b8 e6e6 8dbb 3045 cdbc
000000e0: e4dc 063d be8b 4abe 95b7 f4be 7747 eab0
000000f0: c9a1 e2ba df96 79bb c6fe 1fb9 13a7 ee3a
00000100: c530 2fbd 209c b3bb 8c0b d2b3 858b 1f37
00000110: c559 4a3c 01cf fbb2 ccc3 e0ba 4ac2 813b
00000120: aa13 ceba 685a 1ebc 722f a23a f33e 8aa9
00000130: 1871 25bc d6ae dcbc 1573 31ba d0fa b636
00000140: ded4 81bd 2e52 dabb ab69 7037 8503 12bc
00000150: 9457 4a38 df79 86b9 60af 2eb7 301b 74bc
00000160: 2470 65bb f411 983b 43bf 16be d6a6 2839
00000170: 5d9a b93c 4e30 cebb 27ce 40bf caad 063d
00000180: e721 8438 60ef 98bd 2beb 2537 a7a9 39ba
00000190: ce72 203c 8c4f ba35 2392 ddba 0e43 03bd
000001a0: 9e3a bd34 cade b1bd 05bb aabc 509e acbc
000001b0: c88e 10bd d296 293c 71d6 e7bd 3009 023a
000001c0: 16c9 e8b9 7ad8 98b7 01c7 a63b c773 3abc
000001d0: 3154 c7bd 47b1 ab3c 3918 303e ef7a afbd
000001e0: a94a 94b8 5904 97b9 369c d1bc ba4b f23b
000001f0: 6a0e 5fb6 cfb2 1b38 cf1c 8c39 b2d6 a0b9
-0.023285175 -0.17274871 -0.36451405 -0.013381375 -0.06494243 0.0051395465 1.2626987e-05 0.0001071928
-0.0017763298 -0.0014386729 1.7852975e-07 -0.11381225 -0.00045792558 0.006902848 -0.1783917 -0.104512595
-0.021470068 4.347079e-06 7.502164e-08 -2.5589884e-07 -0.00013111891 -0.007974476 -0.6863759 -0.0034075861
0.060450353 -0.50702083 0.029962832 -0.0010077676 0.063138016 -0.11115874 -0.00056140317 -0.0005141555
0.019324377 -0.00022171854 0.0004957383 -5.0138835e-05 0.0015765632 -0.08400473 -0.0034055735 -0.0322919
5.0175917e-05 -6.2828076e-09 0.0041893926 -0.0011282071 -0.0046010707 -5.0013474e-05 -0.0048414147 0.06167411
-0.0006916572 -0.016087677 0.06343768 -0.05933348 0.040752146 -3.1065e-05 -0.0043305038 -0.025057405
0.0329255 -0.1977987 -0.47796312 -1.7046052e-09 -0.0017290647 -0.003808431 -0.00015258332 0.0018207751
-0.04277112 -0.005481258 -9.7809874e-08 9.509623e-06 0.012350504 -2.931438e-08 -0.0017148196 0.0039599286
-0.0015722413 -0.009665109 0.0012373759 -6.139351e-14 -0.010097764 -0.026938837 -0.0006769163 5.453221e-06
-0.06339429 -0.0066626286 1.43297175e-05 -0.008911972 4.8242116e-05 -0.00025649273 -1.0412041e-05 -0.01489906
-0.0035009468 0.004640812 -0.14721398 0.0001608388 0.022656614 -0.0062923795 -0.75314564 0.032880582
6.300565e-05 -0.07467532 9.889521e-06 -0.000708247 0.009792997 1.3881231e-06 -0.0016904514 -0.03204637
3.5246643e-07 -0.08685072 -0.020841131 -0.021071583 -0.035292417 0.0103509 -0.11320198 0.00049604755
-0.0004440031 -1.8220617e-05 0.005089641 -0.0113801425 -0.09732855 0.020958556 0.1719674 -0.085683696
-7.0710965e-05 -0.00028804204 -0.025587182 0.007394281 -3.323798e-06 3.712141e-05 0.00026724345 -0.0003067754

gnn.gnn_layers.0.res_connection.weight f4 [128, 74]
00000000: 9664 43bc a097 81bb e13d e3ba 4923 34b9
00000010: 6de9 343a 2667 059b 4da0 a13a 95c9 44ba
00000020: 1415 94ba 5d2a 16ae 2304 42bb 9983 5228
00000030: 9502 e0b8 dffc c7ac 1f2b 241f fa7c 6939
00000040: 5076 08bc 9d31 45af ab63 dc1d e586 90b4
00000050: b381 2a26 7f6f d1a1 a934 bc25 3e44 133c
00000060: 4525 3d98 b43f 0e98 e20a 0536 5524 7fab
00000070: dbf8 d137 9b99 5c1c 81e4 81a6 0ea2 d9af
00000080: 03f8 b218 3807 2f38 2ca3 3c9b ca84 0327
00000090: 0a71 fc1f ece7 43ad 685e 80a1 2de6 d61c
000000a0: 45ce a4a4 b7fc b720 6080 a626 43da 72a8
000000b0: 23a8 2bbb 6a17 45bc a636 f6bb 8b4e cab9
000000c0: 6cb2 3818 69b1 829d 3519 a9b8 60ac 8f23
000000d0: 04cf 7e3c c667 1cb9 2c49 1bbc 391e 7cbb
000000e0: 6539 85bc 2a98 9c3a 23ee 1524 cdd2 572a
000000f0: 10ad 17ad 9d39 b13a a294 45b9 287c d2b9
00000100: ac47 bfbb 4703 7fbc adb4 a22f 75b7 11b2
00000110: a85e 0a3b d80e 0dbc 7cd5 9cbb 6239 85bc
00000120: 8982 9c3a f49e 8334 5db0 603e b9e5 98be
00000130: 2e98 55bd 5d40 973d 3e78 92be 3cff 26b7
00000140: 8893 10be e23e 043c 0ad5 ce3d 4d5c f3ae
00000150: 6158 f0b4 ae80 df26 d8c1 4cbb a144 81b7
00000160: 7c15 70a4 209a 54bc 1344 ce29 793e 1b3a
00000170: e688 0d24 231c bf30 4a9b b029 8879 681c
00000180: 441d a6ad 0edd a039 55c4 1e9b 69f3 0032
00000190: 42c0 70ac dba6 769e 4b4c 183b 032d a822
000001a0: 0543 042d e895 a4ae 2e7f fcb4 6720 511c
000001b0: c0df 9f1a 5fc9 1aa5 c122 8298 1014 0427
000001c0: c935 a1a8 89ac 56a9 abf0 1c3a 4714 14b2
000001d0: aa12 9f39 0ae5 de2e 8853 c7be d89b d4bc
000001e0: b280 5d3e f114 5bbd c8cf cb18 1226 16b3
000001f0: 7254 4327 a087 aa9e fa24 d0a6 dad8 b836
00000200: b6d0 febb be8f 913e 3dec a6be b4d4 b43b
00000210: a16a 06b2 da5f e099 f8f8 e9b8 16fc 9d3d
00000220: 7403 90ba a31a 483c 6d79 103e 116c 23be
00000230: 65ba d919 4bfa 9a34 dcc0 903e 3888 3a3d
00000240: 2778 5e3e 95ec a6be 77d4 b43b c946 f917
00000250: 5506 613c 94df cebd 4d46 373d cf1f 663d
00000260: a4dc 443c 5cbe fb39 c160 263c 4d31 453d
00000270: 3d84 16bd 8fe4 4b3b ef9e 8bb4 ff10 c69c
00000280: 8e19 7e35 1a06 4b9d 57d0 ce3b b9f9 d43b
00000290: a715 03a8 5fce 251d b62d a6b9 4eb6 621f
000002a0: 71f9 8535 2733 90b6 e426 ec9c d8df 039e
000002b0: 487f 112e b7fa 74b9 306f ee1a 49c7 9033
000002c0: 3423 00b0 8064 2e19 549a 2e25 9da8 e025
000002d0: 31c4 1db1 476d 8ea5 b2ab b69e 58b0 a7aa
000002e0: b8f8 2238 d716 0826 2f90 f42a d77a cd24
000002f0: 2853 a525 fac5 5aaf d6ea 4c38 3e9c a729
00000300: d631 093d 3ed7 2b3c b99d acbc 3c4f be3a
00000310: 42f0 cd38 352a 71a8 5a51 14b7 c90c 1530
00000320: 8189 ae1f 8392 7898 6d45 423d a436 103d
00000330: 5d8d 27bd 4536 91bd 0ec2 d9a3 45c5 aea9
00000340: 0876 0126 025b 293c 42d7 30ba 6d05 30bc
00000350: 998e b93d 5f4f 77bd 83c2 9931 39c6 e339
00000360: 8548 e23c 4deb 7f3d f224 743c f48f 27bd
00000370: 4536 91bd a69d cf26 8258 deb9 7c9c 373b
00000380: eb69 6abb 41f7 b5ba eac4 20b9 9c41 8fb4
00000390: ed3c f739 b009 303a 86e2 09b7 049e 4aac
000003a0: cbba 2a1a 2588 8a21 d290 559e ec40 1231
000003b0: 6521 e7b3 3266 ce38 23f5 25aa b22e c599
000003c0: 2e31 b431 f038 efac 0f59 e1b6 8858 251c
000003d0: 2b26 5532 c1e5 2530 5180 ca27 ece4 51b8
000003e0: 1c0d e635 353a 25a7 2e1c 341f a767 78ac
000003f0: a88b 5f3c 1b76 5618 0e42 82af 8270 a82a
-0.011925837 -0.0039548427 -0.0017337167 -0.00017179282 0.0006901238 -1.1034831e-22 0.0012331099 -0.00075068447
-0.0011297786 -3.4143677e-11 -0.0029604516 1.16858775e-14 -0.00010681633 -5.6839945e-12 3.476402e-20 0.00022267169
-0.008328989 -1.7934672e-10 5.833657e-21 -2.692024e-07 5.9156373e-16 -1.4191904e-18 3.2648485e-16 0.008988438
-2.4446494e-24 -1.8385232e-24 1.982488e-06 -9.064462e-13 2.5030624e-05 7.2990424e-22 -9.013109e-16 -3.9587217e-10
4.626235e-24 4.1729974e-05 -1.5603719e-22 1.8251887e-15 1.0691316e-19 -1.1135964e-11 -8.698607e-19 1.4220831e-21
-7.14731e-17 3.1168639e-19 1.155336e-15 -1.34810266e-14 -0.0026192747 -0.012029508 -0.007513839 -0.0003858696
2.3871523e-24 -3.459415e-21 -8.063243e-05 1.5577095e-17 0.015552286 -0.00014915978 -0.009477895 -0.0038470163
-0.01626272 0.0011947204 3.2510934e-17 1.9168972e-13 -8.621784e-12 0.0013521198 -0.00018842754 -0.00040146825
-0.0058374014 -0.015564746 2.9596006e-10 -8.481824e-09 0.0021113548 -0.008609496 -0.0047861915 -0.016262714
0.0011940758 2.4516305e-07 0.21942277 -0.29862764 -0.052147083 0.07385323 -0.28607363 -9.953797e-06
-0.14118779 0.008071633 0.10099228 -1.10667565e-10 -4.4767788e-07 1.5508612e-15 -0.003124347 -1.5409956e-05
-5.2059902e-17 -0.012976199 9.160047e-14 0.000592209 3.069046e-17 1.3905076e-09 7.8429085e-14 7.6919436e-22
-1.8885012e-11 0.00030682277 -1.3132892e-22 7.505926e-09 -3.4212776e-12 -1.30576365e-20 0.0023238834 4.558415e-18
7.518213e-12 -7.484485e-11 -4.7031193e-07 6.919418e-22 6.6122346e-23 -1.3425598e-16 -3.3639305e-24 1.8329556e-15
-1.7897916e-14 -4.7667196e-14 0.000598679 -8.619344e-09 0.0003034075 1.0136077e-10 -0.38930917 -0.025953218
0.21631125 -0.05348677 5.2684076e-24 -3.495922e-08 2.7107464e-15 -1.8055543e-20 -1.4442922e-15 5.508872e-06
-0.007776345 0.2842998 -0.3260211 0.0055185203 -7.824071e-09 -2.3199771e-23 -0.0001115668 0.07714097
-0.0010987357 0.012213382 0.1410882 -0.15959193 2.2512558e-23 2.8866847e-07 0.2827214 0.045540065
0.21725522 -0.32602373 0.005518492 1.6109117e-24 0.01373442 -0.10101238 0.04474478 0.05618268
0.012015495 0.0004801628 0.010154904 0.04814272 -0.036747206 0.0031111573 -2.6006407e-07 -1.3106934e-21
9.465956e-07 -2.686998e-21 0.006311457 0.006499496 -7.276656e-15 2.194426e-21 -0.00031696045 4.800816e-20
9.981869e-07 -4.2974893e-06 -1.5627223e-21 -6.981372e-21 3.308223e-11 -0.00023363052 9.8614126e-23 6.741772e-08
-4.6616155e-10 9.015885e-24 1.5144383e-16 3.8972063e-16 -2.2958029e-09 -2.4707123e-16 -1.9341011e-20 -2.9787522e-13
3.8855447e-05 4.721543e-16 4.3443154e-13 8.911268e-17 2.8679286e-16 -1.989732e-10 4.8856098e-05 7.4433935e-14
0.033494793 0.010488329 -0.021071302 0.0014519463 9.819913e-05 -1.338734e-14 -8.840429e-06 5.4224053e-10
7.391935e-20 -3.2127218e-24 0.04742949 0.03520836 -0.0409063 -0.07090429 -2.3609372e-17 -7.761373e-14
4.491583e-16 0.010336639 -0.0006745943 -0.010743481 0.090604015 -0.06037843 4.4749995e-09 0.000434445
0.02762247 0.06248026 0.014901387 -0.04090877 -0.07090429 1.4406241e-15 -0.00042409083 0.0028016856
-0.0035768698 -0.0013882892 -0.00015332145 -2.6683563e-07 0.00047156904 0.0006715311 -8.218578e-06 -2.8793643e-12
3.5306066e-23 9.387281e-19 -1.1306074e-20 2.12827e-09 -1.076285e-07 9.841881e-05 -1.4739993e-13 -2.0388183e-23
5.2442806e-09 -6.79911e-12 -6.7158903e-06 5.4708344e-22 1.240691e-08 6.035315e-10 5.6205384e-15 -5.0042683e-05
1.7140151e-06 -2.2929904e-15 3.8139792e-20 -3.5300458e-12 0.0136441365 2.771848e-24 -2.3693797e-10 2.9920863e-13

gnn.gnn_layers.0.res_connection.bias f4 [128]
00000000: 78ac 8abc 8eb1 d6bc 5902 af3c 0486 7fbb
00000010: 95fe 44bd 887e 8bbc 3915 e334 72e8 a9ba
00000020: ccfc 313a d8bd 5bba d29e 00b5 9d06 fbbc
00000030: c8f9 d4b9 2b1c 3a3b e409 dabd 0cf0 08bc
00000040: a08d 20bd e702 eab7 3af1 2cb6 2d3e 42b5
00000050: d395 1cb9 9260 b8bb c181 79bd 4306 5bbc
00000060: 82cf 87bb 299a 98bd c0b4 a7bc bedd 9ebb
00000070: b557 483e 94bf 24bd 2249 f1bb 44a0 313a
00000080: c164 bd38 ad78 4eba e0d8 81ba 25d3 90b8
00000090: c366 10bd 524c 39be 1f67 58bc deee 53bc
000000a0: 0429 ee37 caf6 f5b4 0fc8 283c 92a6 13ba
000000b0: c5bc 7aba 2822 9ab7 e7cf 4bba 9f92 62bd
000000c0: 4675 62bc a6bc 1dbc 2614 eabc b276 ae3c
000000d0: 4e60 9b3d 19c9 4ab8 3f94 ffbc a7f9 e6ba
000000e0: 5fc2 b6bd 09cb 7ebc eb56 bebe 453f e9b4
000000f0: 2a72 0cbb 73ad 4bbb aacd 5fb9 51a3 fdbc
00000100: 7590 79bc 15c7 a93c abbd b8b3 92f7 2eb9
00000110: e3c1 12be 91e8 e233 7920 22bc bdc3 323c
00000120: 927b c6ba c9c9 b3bc 9f92 d4bd af36 d32d
00000130: ffc8 25bc f398 f1bc 182a a2bb 1fe9 0c37
00000140: 9199 a7bc fa04 ed3d 4116 4fbc 4fcd 81bc
00000150: 2fce 6ab9 8417 adb9 cd85 9bb7 5049 acbb
00000160: 1718 64bc ed2b 1dba c327 8cbc 006d 2838
00000170: 34f3 53bd 90a1 2e3c caa5 1f3d e68c 90bc
00000180: 1739 7139 d394 a1be 8705 bb37 f65d 74bb
00000190: 55ca fdbb 27a9 77b7 82ad c8bb a93d 21be
000001a0: 1b4f 3733 e1e3 fabd b25e 923b 90fc 30bd
000001b0: 365e cf3d 5348 153b 3e68 e8bd 4962 89ba
000001c0: bd4c aabb 0274 beb9 17ed d9b8 e439 d23d
000001d0: d818 51be e025 7bbd 95b2 b4be c1ab e33d
000001e0: d2dc 85b9 b6e1 2fbc a83d 14bd cfc6 82bd
000001f0: d351 beb8 b823 d8b7 e008 09ba 097d 07ba
-0.016927943 -0.026207712 0.021363424 -0.0038989792 -0.04809435 -0.017028108 4.2297486e-07 -0.0012962951
0.0006789684 -0.0008382476 -4.791483e-07 -0.030642802 -0.00040621893 0.0028398137 -0.10646418 -0.008358013
-0.039197564 -2.7896325e-05 -2.577041e-06 -7.236111e-07 -0.00014933133 -0.0056267465 -0.06091476 -0.013368192
-0.00414461 -0.07451279 -0.02047193 -0.004848211 0.19564708 -0.040221766 -0.0073634544 0.00067758956
9.030989e-05 -0.00078762585 -0.0009906553 -6.905784e-05 -0.03525425 -0.1809552 -0.01320818 -0.012935368
2.839091e-05 -4.581437e-07 0.010301604 -0.0005632426 -0.0009564872 -1.8374136e-05 -0.00077748153 -0.05531561
-0.0138219055 -0.009627497 -0.02857406 0.021296833 0.07586728 -4.834784e-05 -0.031198619 -0.001762201
-0.08923792 -0.015551337 -0.37175688 -4.3445667e-07 -0.0021430352 -0.0031078726 -0.00021343553 -0.030961664
-0.015232195 0.020724813 -8.602668e-08 -0.0001668616 -0.14331774 1.0566249e-07 -0.009895437 0.010910925
-0.0015143028 -0.021946805 -0.10379528 2.4012207e-11 -0.010118722 -0.029491877 -0.0049488656 8.398928e-06
-0.020458968 0.11573215 -0.012639583 -0.01584497 -0.00022392788 -0.00033014652 -1.8539746e-05 -0.005257763
-0.013921759 -0.000599562 -0.017108804 4.0155835e-05 -0.05174561 0.010658637 0.03897647 -0.01764531
0.00023004819 -0.31558856 2.2294711e-05 -0.003728745 -0.007745067 -1.4761731e-05 -0.0061241994 -0.15746178
4.2679954e-08 -0.12250496 0.004466855 -0.043209612 0.10125391 0.0022778704 -0.113480076 -0.0010481562
-0.005197136 -0.00036326057 -0.00010391528 0.10264948 -0.20419633 -0.061315417 -0.35292497 0.11116744
-0.0002553226 -0.010734966 -0.036191612 -0.06385576 -9.075147e-05 -2.576584e-05 -0.0005227458 -0.0005168473

gnn.gnn_layers.1.graph_conv.weight f4 [128, 128]
00000000: 2ab0 c037 6c3d 8538 2eea 5f3a 91c8 07bb
00000010: a53d 2cba 584d dab7 9565 6bbb 2b90 9039
00000020: a46a 8639 d3d4 f6ba d5ea 8b39 ef7c 81bc
00000030: 7f87 58b7 bb58 24bd b2e3 f233 1e3d ecba
00000040: f0a7 af3a f472 273b 284a 1339 29ad 37bb
00000050: 9265 f1b9 c45e e5bb b39d d5b9 8ac0 0ebc
00000060: e9b1 31b5 6c96 72ba 4a90 0cb9 bda1 d0ba
00000070: 0c6f 4bbb 093b 99b9 5b30 47ba cb3f 0fb9
00000080: 94c6 0a37 92c9 cab9 ec5e a337 fca4 8bb9
00000090: 58bd c038 31f9 d23b a747 1e39 1bd7 663b
000000a0: 2c1c 22b9 ceeb 39bb f70d 12b7 1e37 f739
000000b0: 2a61 ee36 3303 a338 f4be b139 85fb 453a
000000c0: b9be 2eb9 0bf1 11bb fd6b bdbc 3662 19b8
000000d0: c262 0cb7 679c 17bb 4107 21bb 8d56 ca39
000000e0: 4864 9d39 67a0 50b9 8998 6ab9 4ddb 03b9
000000f0: f1d6 b739 69f2 bb34 b127 8c3a a503 fa38
00000100: 35aa 04bb 7c70 ddb8 0080 07ba 9ff3 19b5
00000110: cb54 a33a cba7 4b3a 7bba 6539 ba32 03b9
00000120: 78ac 84bc 3973 26b9 07b8 10b7 f2f6 6cbc
00000130: 6292 b039 b001 f5b8 8c5b f0b6 ec93 4f3a
00000140: c25d 4fbc 8e85 0d3a 0120 34b9 6622 52bb
00000150: ef06 58ba a2f8 a5b7 2368 0abb bb04 39bc
00000160: 0188 fabb 9260 e5b9 e572 99bb 9592 373a
00000170: 117e 75b9 ceb8 1fb8 9f29 40bb cf48 23bc
00000180: 3a00 b7ba 23ec 0db9 01b4 1b3b 1a4b 1237
00000190: 1202 6abb 192f 88ba a3c2 2aba 43d9 8937
000001a0: d73a 0f3c aa1d 1739 37ea 81bc fceb 863a
000001b0: 680f 0b39 351d cabb 5ae7 9fbb 1b1d a33b
000001c0: fcf1 073a c403 32b6 f8d8 b5ba 9a68 8e39
000001d0: a1bc 73bc ba84 ccbb 8469 9639 761c 1e3c
000001e0: 6c20 40bc 64e4 ca34 6c04 e839 5d0e 9fbc
000001f0: 5653 8f38 dffe 80b7 c57f ff39 d23f 1837
00000200: a68b d9bb d325 10bb d09e 0f3b f8c1 f8bb
00000210: 544b ad3b f5d9 db3b a44e 63be 9692 f2bc
00000220: d81d 2abc 1479 b03d 494f 67bc 3c13 e23d
00000230: 4094 8f3a 459b ff3d 2c30 64b8 e309 cf3d
00000240: c973 95bd b795 bfbc 64f1 203c b96d 143c
00000250: ff93 ecbb 4cd3 623d 232c e3bc 010c 433d
00000260: 6f71 0db9 abc9 b0bb 8946 10bc cfd0 443d
00000270: 6130 85bd 5ac2 2d3d aa19 d13b 9e4b 3e3a
00000280: 0c1c 20ba 7df5 44bb 2034 f939 ee61 bdbd
00000290: 176f 16bc 0c84 b5bd c718 75be bb34 d03d
000002a0: 9bf8 9cbb c531 83bd fa65 10b7 109e 823b
000002b0: 9619 293c 48b1 483b 934e 053d f1b4 12be
000002c0: 6fa9 343b 24a7 85bc 0124 083e e8d5 d837
000002d0: 1700 593b 4292 88be 2348 63bd de2b 133e
000002e0: e17c 84ba 6c37 b5bd 262c 5739 ff6d 5b3b
000002f0: fbcf 873b 28da 33b9 0c6e 11bc a943 d5bb
00000300: 0baa 54ba 1cd2 3bbb c89c 753d 28b1 4239
00000310: 93c0 b5bb e816 02bd 51e3 02bc 5d22 3bbd
00000320: 52ef 133d 495f 06bc 7e04 a1ba 065b 6e3b
00000330: 7390 903b 34c8 f63c ee42 ffb7 a67d c9bc
00000340: 1535 ac3e 4ffa a43d 5946 0f3d 0353 8a3d
00000350: 0446 f03b 26b5 3f3c d725 a63d 1d41 f43b
00000360: 9170 66bd bd92 433b 705d ccbd e644 fe39
00000370: 1ea5 f1bd 4a6b 8c3b c319 8b3e 654c fcbe
00000380: 0977 e8b9 c2bf 003a b95f 883c 140c 87bc
00000390: 84ad ae3c eecc 1dba e1aa 6f3e c91e 4139
000003a0: a647 c0bd cbb9 8cbc bb4a 28be 9c29 0a3e
000003b0: 23c7 02ba 0b23 99bd d87e 34be e14f 5bbe
000003c0: 4951 0b3c a038 5aba ccef 57bc 78ac 0dbd
000003d0: c6ce 2f3e 9620 cebb 4d86 943b 7f50 cebb
000003e0: 0246 523e 15ff 8cb6 7a7f 91bb 75d3 383e
000003f0: 5583 0fbb 2a48 62ba 3386 0a3c 9e0b a7b7
2.2970216e-05 6.353375e-05 0.00085416704 -0.0020718912 -0.0006570465 -2.6023641e-05 -0.0035918702 0.00027573234
0.00025637925 -0.0018831737 0.0002668711 -0.015806643 -1.2906151e-05 -0.040123682 1.1310421e-07 -0.0018023585
0.001340149 0.0025550695 0.00014046638 -0.0028026795 -0.00046042778 -0.0069998223 -0.0004074402 -0.008712897
-6.619653e-07 -0.0009253982 -0.00013405192 -0.0015917342 -0.003104153 -0.0002922642 -0.0007598453 -0.00013661307
8.271676e-06 -0.00038678624 1.9475316e-05 -0.0002663507 9.1905415e-05 0.0064383973 0.00015094747 0.0035223428
-0.00015460019 -0.002836931 -8.70553e-06 0.00047152577 7.104264e-06 7.7730416e-05 0.00033902342 0.0007552433
-0.00016664983 -0.0022268917 -0.023122782 -3.656951e-05 -8.367644e-06 -0.0023133995 -0.0024570974 0.00038592928
0.0003002009 -0.0001989618 -0.00022372803 -0.0001257483 0.00035064624 3.500784e-07 0.0010692981 0.00011921608
-0.0020243053 -0.00010559053 -0.0005168915 -5.7351457e-07 0.0012461183 0.00077688385 0.00021908611 -0.0001251203
-0.01619552 -0.00015873917 -8.625916e-06 -0.014463173 0.000336784 -0.00011682825 -7.163215e-06 0.00079184654
-0.012656631 0.00053986243 -0.0001717806 -0.003206396 -0.0008240779 -1.9785311e-05 -0.00211192 -0.011292632
-0.0076456075 -0.00043750234 -0.004682886 0.00070027384 -0.00023411984 -3.8080667e-05 -0.0029321683 -0.009966089
-0.001396186 -0.00013534776 0.0023758414 8.719764e-06 -0.00357068 -0.0010390013 -0.00065139885 1.6432843e-05
0.008742056 0.00014411533 -0.015858753 0.0010293717 0.00013261812 -0.0061680325 -0.004879874 0.004977835
0.00051859 -2.6526259e-06 -0.0013873866 0.00027162285 -0.014876516 -0.006241408 0.00028688845 0.00965034
-0.01172648 3.7791608e-07 0.00044253783 -0.019416029 6.834294e-05 -1.5377473e-05 0.00048732586 9.074765e-06
-0.006638962 -0.0021995201 0.0021914728 -0.0075914823 0.005288521 0.006709332 -0.22197968 -0.029610913
-0.010383092 0.08616844 -0.014118024 0.11038825 0.0010954216 0.12480787 -5.44043e-05 0.101093076
-0.07297475 -0.02338682 0.009823177 0.009059363 -0.007219791 0.05537729 -0.027731007 0.04761887
-0.00013489065 -0.0053951344 -0.008805879 0.048050698 -0.06503368 0.042421676 0.006381233 0.00072591926
-0.0006107695 -0.003005355 0.00047531817 -0.09247194 -0.009181759 -0.088630766 -0.23935233 0.101663075
-0.0047903783 -0.06405977 -8.606812e-06 0.0039861277 0.010321042 0.0030623246 0.032545637 -0.14326836
0.002756681 -0.01631505 0.13294984 2.5848814e-05 0.0033111626 -0.26674086 -0.055488717 0.14372203
-0.0010108018 -0.088484615 0.00020520444 0.003348231 0.0041446663 -0.0001715204 -0.008876335 -0.00650831
-0.00081124966 -0.002865917 0.05996397 0.00018567278 -0.0055466383 -0.031760126 -0.007988767 -0.04568707
0.036116906 -0.008201429 -0.0012284664 0.0036370172 0.004411751 0.030124761 -3.0429535e-05 -0.024596047
0.33634248 0.08055555 0.034979198 0.067541145 0.0073325653 0.011700904 0.08112686 0.007454051
-0.056259695 0.0029842102 -0.09978759 0.0004849799 -0.11799072 0.004285251 0.27168092 -0.49277034
-0.00044339176 0.00049113866 0.016647207 -0.016485251 0.021322973 -0.00060196116 0.23405029 0.00018417383
-0.09388666 -0.017178437 -0.16434757 0.13492435 -0.000498878 -0.07477387 -0.17626512 -0.2141719
0.008503267 -0.0008324478 -0.013179731 -0.034588307 0.17168722 -0.0062905056 0.0045326115 -0.006296217
0.20534518 -4.2020206e-06 -0.004440245 0.18049414 -0.0021898348 -0.0008631969 0.008454847 -1.9913361e-05

gnn.gnn_layers.1.graph_conv.bias f4 [128]
00000000: 4d7a 8d3b ae77 c6bb 98ab 2abc 6e96 8e3b
00000010: f0e8 6839 5934 5f3a 39bf a1bd ecd2 26bc
00000020: 615a 8cbd 84a2 bc3a 1dae 1abc bc89 183d
00000030: 79f4 3db9 9e39 66bc 7749 1cb6 75df ea3d
00000040: 6359 03bd 4dd0 003c 657e 28ba 594c 2fbc
00000050: 32bd 9dbb ac16 57bd 3ced 80bd 0e62 aabc
00000060: ec9b aa37 edd4 00ba ea18 f83a eff9 4a3d
00000070: d73d c6bc b914 13bc ce14 3fbc bac3 d4b9
00000080: 474f 0239 144a 83bb f074 99b9 79b4 43bd
00000090: f12b 87bb c665 f0bd 2ddc 72bc be6a 303e
000000a0: 4686 d2bb 8acd 97bb dd12 1fb7 57d7 d93a
000000b0: d989 273b e263 483b f724 bebb acbf 09bd
000000c0: 20ff 2d3b ab2f 423d ae1f d2bc c13e b438
000000d0: 6d0b 803b afee 02be f045 84bc 2a75 f9bc
000000e0: 6cfa 113b a2ed 8e3b 6dc1 8e3a 317f 1c3b
000000f0: f3c2 7bbc 78ab 40b8 7432 663c abbc 833b
00000100: 7724 5dbb 64f1 25bb e50f d33c 2d1f 2339
00000110: 8c5b edbb 8391 51bc f2ff e93a 148f b0bc
00000120: b22c 77bb f3b5 aeba 2c2e c6bb 253d 37bd
00000130: 71ee b33b 012b 3cba 2cfb 0238 20cf 1c3c
00000140: f0d8 313d d31d ec3c dfe2 c0bb 6485 013d
00000150: dfb6 9dbb 9c59 d2bc b273 d83a 6a61 e93c
00000160: 3991 91bc 9c7d b6b9 b0b3 c7bd 846e fe3a
00000170: bea7 a63b 3d84 0b3a c225 073d 214f 81bd
00000180: f684 f33a 8001 14bb 7abf 2cbb 47fd 493b
00000190: 1707 b0bc 7fcf 7e3c 0495 263d ef80 9339
000001a0: fbf2 91bc 2af4 2eba 6872 29be 4e53 dc3b
000001b0: a26d 203a 7f35 06bd 18e3 43b7 6c56 eebd
000001c0: 729e 0fbc 5b16 c7ba fffe eebb d8cf 123a
000001d0: 5b56 b7bd a766 08bc 7d04 efba c832 d4bc
000001e0: f73b 743c fb56 d939 a3ae 903c fbf8 83bd
000001f0: 9231 0e37 fc27 3aba 88a4 34bc 0a37 edb7
0.004317558 -0.0060567474 -0.010416888 0.0043514287 0.0002221202 0.00085145753 -0.07897801 -0.010182124
-0.06853176 0.0014391695 -0.009440926 0.03724073 -0.00018115518 -0.014051823 -2.3288574e-06 0.11468402
-0.032067668 0.007862163 -0.00064275257 -0.010699355 -0.0048138136 -0.052511856 -0.06295249 -0.02079871
2.0338186e-05 -0.0004914541 0.0018928323 0.04955476 -0.02419941 -0.008977109 -0.011662675 -0.0004058162
0.00012427299 -0.0040066335 -0.0002926956 -0.047779534 -0.0041251113 -0.11738162 -0.014823002 0.17228219
-0.006424698 -0.0046326565 -9.4815305e-06 0.0016619962 0.0025564341 0.0030577113 -0.0058027464 -0.03363006
0.0026549771 0.04740874 -0.025649872 8.594758e-05 0.003907612 -0.12786363 -0.01614663 -0.030451376
0.0022274507 0.004361824 0.0010891386 0.0023879523 -0.015366304 -4.593606e-05 0.014050115 0.0040202937
-0.0033743659 -0.0025320882 0.025764415 0.00015556505 -0.0072435793 -0.01279104 0.0017852767 -0.0215526
-0.003771585 -0.0013329372 -0.0060479846 -0.044736046 0.005491071 -0.0007178039 3.1228337e-05 0.009570867
0.04341978 0.028822815 -0.00588642 0.03162135 -0.0048130597 -0.025677495 0.0016513972 0.028488833
-0.017769443 -0.0003480733 -0.097510695 0.0019411598 0.0050859144 0.0005322134 0.032994993 -0.06313921
0.0018579054 -0.0022583902 -0.0026359246 0.003082113 -0.021487756 0.015552401 0.040669456 0.00028134088
-0.017816057 -0.00066739565 -0.16547549 0.006723798 0.0006119852 -0.03276586 -1.167578e-05 -0.116375774
-0.008765804 -0.0015189158 -0.0072935815 0.0005600429 -0.08952018 -0.0083252555 -0.001823559 -0.02590312
0.014906875 0.0004145427 0.017661398 -0.06443974 8.475401e-06 -0.0007101295 -0.011025555 -2.8278231e-05

gnn.gnn_layers.1.res_connection.weight f4 [128, 128]
00000000: 06ee 5d3a 48e9 1b3d 7f7e a43b 42f7 25b9
00000010: ee10 ff3c fba3 17ba 4d6d f632 b976 173a
00000020: ec37 90b9 aa6c ab39 f392 9c33 4d5e fc3b
00000030: bf3a bbb8 797b 653b bf0d 1a3c 7570 433b
00000040: c09e 35bb 6513 dd34 445b 7f34 77ab b9b3
00000050: 3325 50b9 81cb 88ba 4d02 b33b da85 71b9
00000060: b9da b0ba b6aa f63b 8a7c 783b 5a03 2c38
00000070: 8c02 12bc 0155 8b3a a0cc deb9 b875 f4b7
00000080: 8dac 1a3b 16c0 8139 b797 1cb9 60e1 8db6
00000090: 1c9b f1b9 c982 c43b 764f 643a d232 773a
000000a0: e00b 6736 b5da 6832 00fa 923b 4f60 f0b7
000000b0: 8013 063b ce91 bab6 64bd 8e39 3d4f 2e3a
000000c0: 6e08 183a 7064 a4ba f553 2c3b 7da7 4c3b
000000d0: 59b4 fe3b 0d2a ed37 19de 143b 045d 393b
000000e0: e5b1 b23a 7bbe 3e3a a39a 8abc fc69 0bb1
000000f0: 878f 7b37 1cf3 633a 886b 2db8 f508 5dbb
00000100: ea88 0dbb 8136 7c3b faf2 4232 648d 2436
00000110: 03dd 7b3b 5bd7 83b2 ab2d 7fb7 2ee0 d5b9
00000120: 2b02 95b8 0627 18bb f229 81b9 7aca b72c
00000130: 4b1a 68b9 39e6 323c b6da 2a39 821b e1b1
00000140: e1ba 0b3c e5de d83a 03a5 4fba c2f6 ac3a
00000150: 1e2c 31b8 f82f 7eb6 0882 47b6 2ab6 373c
00000160: cc6a 1fbb 982a 2d3a e8f6 9d3b 5256 1b37
00000170: c73c f639 83a0 f4b9 08e6 cb3c 27c9 bcbb
00000180: 4300 b13a 542a d7bb 151c 4a34 b6a9 4338
00000190: b755 afbb 6ecd c035 4161 c939 cba5 14bb
000001a0: 1675 a5b2 c740 963b de56 dc39 443f a13b
000001b0: 9dae e23c 9990 8db9 6125 24bb 39fb aab7
000001c0: 0fc1 eb39 9e09 5337 4315 50b8 944d 4cbc
000001d0: 9e89 83bc e447 d6bb 687b c1bb 31c5 08bc
000001e0: f6fa b537 15c3 12bb 3324 66bb d691 963b
000001f0: 2049 e8b6 35c1 b6b5 cb64 ca37 8348 feb6
00000200: a8c9 8b39 fcab 633d 3f3b ae3c a3c2 6339
00000210: 4baa 733d 1939 cbb9 d952 3b36 1daf 0139
00000220: b711 3939 5caa 9dba 9069 c0b3 3574 073c
00000230: 16d3 9939 4abc 433b 8e0f fcbb 29eb ca3c
00000240: addf 243b 1aca 9ab5 9822 ab33 64a0 e6b4
00000250: 3806 43b8 be87 3f3a f7c6 473d 15ff 913b
00000260: cecc d83c e903 bc3c 1657 2dbc 7ff7 f038
00000270: 8439 223c f62f 88bd 774b 053a 33d6 2b3b
00000280: 5842 023c db5d 4338 b626 94b9 af00 9337
00000290: 8339 db39 17ba 6d3b 83e8 a63a fc35 54bb
000002a0: f483 4837 3b84 0132 daad fc3b 24a6 77b9
000002b0: 233a a53a 115a d837 6a10 e939 1b13 9f3c
000002c0: 8084 bbba f29b ad3a 28ad 653c c6ac 3cbc
000002d0: 1c8e 4b3c cf79 e437 d63d 103b a5a2 a43b
000002e0: 1c8f 433c c38a 403d 7cd6 3fbd 36c4 4b32
000002f0: f01e d9b8 f0e9 463a 0fd1 1337 2c85 a33b
00000300: caf5 b9bb 2be8 8bbb df8b ca33 b817 0bb8
00000310: 647f 8cbc 54fe 1033 362c 74ba 0811 d639
00000320: 24a0 1a3a 3188 983b d6c1 16bb f7fa 872d
00000330: 56c6 06bc 1125 a13c 32a9 28b8 a718 1136
00000340: d87c 5dbc c593 073c 718d 0d37 d238 413b
00000350: 6fbe fdb6 f63b 24b8 a8af 16b6 3c7b 1d3c
00000360: b236 183b 8e5e 3d3a 5d93 37bb 8e5e e738
00000370: b596 a2bb 0bf3 c0ba 53f3 153d d9fd cc3b
00000380: 9919 fb39 41be 3a3d 61c1 9d35 d132 5538
00000390: bfb6 8c3a 2146 da36 ceb2 233a 098f 83ba
000003a0: 9bd5 d232 7ce0 5c3c d690 8e3a c3fb fc3b
000003b0: f313 21bd ac96 0fbb 8af5 463a c2ae 07ba
000003c0: f2ea 9139 bd6e 21b7 1d1f b6b7 7bcf 733a
000003d0: 64b6 b5bc 0d91 f23c c56c 843c 3608 82bd
000003e0: 73da 73b8 794e 6fba 16ed abbb 071f 60bb
000003f0: d3e8 9f35 ff79 cab3 72e9 7d37 db7a 62b8
0.0008465949 0.03806427 0.0050199623 -0.00015827737 0.031136002 -0.0005784628 2.8687873e-08 0.0005777884
-0.00027507485 0.00032696623 7.291046e-08 0.007701671 -8.927797e-05 0.0035016222 0.009402691 0.0029821668
-0.002771303 4.117857e-07 2.3781928e-07 -8.645923e-08 -0.00019850284 -0.0010436625 0.0054629208 -0.00023033415
-0.0013492919 0.0075276745 0.0037916028 4.1011117e-05 -0.00891174 0.0010630192 -0.00042495597 -2.9141884e-05
0.0023601383 0.00024747913 -0.00014933838 -4.2283646e-06 -0.00046082668 0.005997036 0.00087093504 0.0009429875
3.4428595e-06 1.35539056e-08 0.0044853687 -2.8655077e-05 0.00204584 -5.560206e-06 0.00027225458 0.00066493807
0.0005799596 -0.001254214 0.002629516 0.003122776 0.007772964 2.8272183e-05 0.0022715388 0.0028284201
0.0013633339 0.00072763086 -0.01691944 -2.0287407e-09 1.4994183e-05 0.0008695589 -4.134656e-05 -0.0033727263
-0.00215965 0.0038484635 1.1347533e-08 2.4520205e-06 0.0038431294 -1.534834e-08 -1.5209817e-05 -0.00040793553
-7.1052775e-05 -0.002321662 -0.0002463605 5.2236522e-12 -0.00022135039 0.010919147 0.0001629394 -6.551489e-09
0.008528442 0.001654592 -0.0007921012 0.0013196098 -4.2241176e-05 -3.787687e-06 -2.9729e-06 0.011212865
-0.002432513 0.0006605773 0.0048206933 9.258818e-06 0.0004696606 -0.00046658897 0.02488996 -0.005761284
0.0013504106 -0.006566325 1.8822932e-07 4.664968e-05 -0.005350794 1.4364903e-06 0.00038410167 -0.0022681828
-1.9261773e-08 0.004585359 0.0004202639 0.004920872 0.027671153 -0.0002700135 -0.0025046694 -2.0382564e-05
0.00044966533 1.2578819e-05 -4.9610866e-05 -0.012469668 -0.016056832 -0.0065393317 -0.0059046037 -0.008347795
2.1693744e-05 -0.002239411 -0.0035116791 0.0045950217 -6.9226517e-06 -1.3616287e-06 2.4127212e-05 -7.5782314e-06
0.00026662392 0.05558394 0.021268485 0.00021720915 0.059488576 -0.00038761718 2.7913395e-06 0.00012367633
0.00017649574 -0.001202892 -8.9598984e-08 0.008267452 0.00029339705 0.0029866868 -0.007692284 0.024770336
0.0025157735 -1.1532713e-06 7.9691006e-08 -4.2957538e-07 -4.6497415e-05 0.0007306299 0.048773732 0.004455457
0.026464846 0.022951083 -0.010579845 0.000114901915 0.009901408 -0.06649773 0.00050847925 0.0026220202
0.007950388 4.6579033e-05 -0.00028257602 1.7524084e-05 0.00041813785 0.0036274248 0.0012734089 -0.003238081
1.1951652e-05 7.538854e-09 0.0077111544 -0.00023617648 0.0012605827 2.5791147e-05 0.00044453453 0.01941829
-0.0014306456 0.0013245328 0.014018334 -0.011515802 0.012424018 2.723644e-05 0.0022009513 0.0050242716
0.011935975 0.047007333 -0.046835408 1.1860768e-08 -0.00010353129 0.000758796 8.810558e-06 0.0049902406
-0.0056750523 -0.00426962 9.4318004e-08 -3.3162272e-05 -0.017150588 3.3758923e-08 -0.0009314449 0.0004082995
0.00058984966 0.004654907 -0.0023003719 1.5459174e-11 -0.008225998 0.019670995 -4.0211897e-05 2.1621033e-06
-0.013518535 0.008274977 8.437187e-06 0.002948333 -7.562157e-06 -3.915649e-05 -2.2453987e-06 0.009611901
0.002322596 0.00072238676 -0.002801142 0.000110325505 -0.0049618133 -0.001472087 0.036609005 0.006255847
0.00047893522 0.045591597 1.1753692e-06 5.0830484e-05 0.0010735615 6.5050704e-06 0.00062446005 -0.0010037135
2.4544354e-08 0.013481256 0.0010876905 0.007720442 -0.039325666 -0.0021909876 0.0007589689 -0.0005175882
0.00027831603 -9.622131e-06 -2.1710579e-05 0.00093006314 -0.022181697 0.029610181 0.016165147 -0.06349222
-5.813916e-05 -0.000912882 -0.0052467687 -0.0034198181 1.1914184e-06 -9.428549e-08 1.5134328e-05 -5.3997017e-05

gnn.gnn_layers.1.res_connection.bias f4 [128]
00000000: 1168 153c 0d7b 5a3d 5661 343d 3d36 febb
00000010: 1c9c f2bb 9d1d 92b8 06f1 d6bc 7c8c 403c
00000020: 5529 033e 8edb 70bc 5cce 093d d9f4 9fbc
00000030: 48d7 0c3a 85d2 2f3c 8be9 3036 0e44 c6bc
00000040: fdc9 0b3d 2ea7 2fbd 56b9 963c 06a5 83bc
00000050: a231 78bc 988c c7bc 0d4e e4bd d302 b83d
00000060: 4626 e638 a7aa 593c c99f d03b a508 1d3d
00000070: 2432 643c fbab 8f3c 268e 973c 8113 11bb
00000080: 7673 4b39 06a0 893c 6f3f a8b8 6206 f13c
00000090: 380d a6bb 6369 e43b eabd 8c3d b0af 87bd
000000a0: 86e7 f5bd bfd5 f6bc db1d 9bb8 9c72 2c3c
000000b0: 5b08 6aba 9dda 71bc f267 5dbd e4f5 b43a
000000c0: 71e3 843b 4d5b 073e 3f56 87bd 7ca0 2aba
000000d0: cfde 573b 7d7b 9abd 71aa 433a 0348 c6bc
000000e0: ea11 c3bb 62e8 66bc ff08 6339 65e6 a93a
000000f0: f0a4 56bc e755 a2ba 1605 383b 776e b33b
00000100: c316 663b bcb5 5f3b e340 e63b 08dd 1cb8
00000110: bce6 b6bc 910d b4ba 762d 623b 3e4f 223d
00000120: 43f7 543d 1a9b 953b eed4 74bc 8ca5 073c
00000130: b559 24bb d876 943a 69eb c539 8a4d e4bb
00000140: ee09 283d 3168 83bc 768a 2fbd 5eb3 e3bc
00000150: 72c8 fd3c a3b3 bf3b 0ed2 083c 95c9 51bd
00000160: 6ab5 97bd 0363 62ba 9098 54bd ed15 9abd
00000170: 9113 98bc d932 dd39 5971 2abd 4af4 31bc
00000180: b3b2 4cb9 31b6 4abe 4638 14bc 6414 3abb
00000190: a62d 083d ae4f f8ba d8bb 62bc 3560 b239
000001a0: f83c a9bc 2fef 953b ef7b 29bc bbd7 17bd
000001b0: 88f4 60bb a896 d7bb 0952 cbbd b34d 303e
000001c0: 3675 003c b078 e2b8 1f00 9c3b 26fd 5e3d
000001d0: 18b7 1cbe 9393 45bc 4000 803c 37af 973d
000001e0: 79ac 5f3d 5d6c 0c3b ad0b 17bc 6a2c 86be
000001f0: 804b 323b 504a e1ba 0408 69bc 0790 0b39
0.00911905 0.053340007 0.04403814 -0.0077579306 -0.0074038636 -6.9673384e-05 -0.026237976 0.011752244
0.12808736 -0.014700783 0.033644065 -0.019525932 0.00053726556 0.010731344 2.6361984e-06 -0.024202373
0.034128178 -0.042884044 0.018398922 -0.0160699 -0.015148552 -0.024359033 -0.111476995 0.08984914
0.000109743836 0.013285316 0.006366704 0.038338322 0.01392797 0.017538061 0.018500399 -0.002213687
0.00019402601 0.016799938 -8.02268e-05 0.029421989 -0.0050674938 0.006970571 0.06872161 -0.066253066
-0.1200705 -0.030131219 -7.396537e-05 0.010525372 -0.00089276367 -0.014761594 -0.054054208 0.0013806191
0.0040554334 0.13218422 -0.06608247 -0.00065088994 0.00329392 -0.07543085 0.00074640574 -0.02420426
-0.0059530633 -0.01409349 0.00021651758 0.001296234 -0.013100848 -0.001238522 0.0028079203 0.005475815
0.0035108782 0.0034135422 0.007026778 -3.739915e-05 -0.02232682 -0.0013736953 0.003451196 0.039626352
0.05199362 0.0045656087 -0.0149433445 0.008279216 -0.0025077884 0.0011326922 0.00037750162 -0.006967251
0.041025095 -0.016040893 -0.042856656 -0.02779549 0.030979369 0.005850272 0.008350862 -0.051217634
-0.07407649 -0.000863597 -0.051903307 -0.07523713 -0.018564017 0.0004219029 -0.041612003 -0.010861466
-0.00019521527 -0.19796063 -0.00904662 -0.0028393501 0.03324666 -0.0018944645 -0.013838731 0.00034022485
-0.020658955 0.004575632 -0.0103444895 -0.03707097 -0.003432544 -0.006579239 -0.09927756 0.1721714
0.007840445 -0.000107989996 0.0047607566 0.05444064 -0.1530422 -0.01205911 0.01562512 0.074064665
0.054607842 0.0021426894 -0.009219092 -0.2620576 0.0027205646 -0.0017188285 -0.0142231025 0.00013309727

readout.weight_and_sum.atom_weighting.0.weight f4 [1, 128]
00000000: 25c6 98bc 4123 1539 5867 853b 5453 f6b8
00000010: 55d2 3abb 9a47 9237 7f6b a4bc 220d c4bb
00000020: c019 96bc c0f3 0bbd 7fe7 cabc 57f2 53be
00000030: 0b53 63ba f21c 39be 1bdf e3b7 524b 8cbd
00000040: b226 57bd 53c3 b83b b659 773b 0c98 93bd
00000050: 3c04 bbbc 2c34 c0bd 1a55 c8bc a23e 92bd
00000060: 0086 52b9 67fb ccba 7034 b8bc 6bea 3bbe
00000070: ca5b 15be b3d3 1dbd 3909 633b ebaf 6bbb
00000080: 2702 a6b7 f0be 8cbb 502e 003a bc68 de3b
00000090: 3361 6cba 530a 983b b5e3 12bd 475f fe3b
000000a0: e73d ebbc 4ab3 a6bd 7649 48b9 1244 82bd
000000b0: 72fc 153b 8d34 cc3c 96a0 6abb 61a1 123c
000000c0: 0e78 1cbc 56de 3cbe 860c b3ba 4bf4 393a
000000d0: 81b8 40bc c796 87bd 0005 e4bc 82c4 01be
000000e0: 394d 013c 85c1 203d 6833 09ba 4315 22bb
000000f0: ac3f 533b b21a 7eb8 25d6 35bd 2933 7cbc
00000100: 171d 91bb e844 7cbb cca6 f63c c39d 8638
00000110: 77d1 b0bc aa4d bebc 2190 02bc ff57 71bd
00000120: 7046 2bbc cbda cabc 2237 d0bc c44a 76bb
00000130: 2307 57bc 958d 27bd e770 a3ba 6bd3 86bd
00000140: da73 a2bb 2e0b 17be 53d5 09be 881b 40be
00000150: 8d3d 96bd 3887 7dbc b175 84bd b8c7 b5bd
00000160: 01fa 86be df3a 323a c8e2 f8be c0d3 56bd
00000170: 89c9 d03b 102b 18bb dcb9 c3bb 402d 033d
00000180: 2ffb b3b9 f70c 09bd b75d a7bb dcfe 2ebc
00000190: e58c e2be c197 71bc 15a1 48be 04dc ebbb
000001a0: f32e 1f3d 6c07 b13a f625 a3bc ee3d e5be
000001b0: c71a 9e38 b234 97bd 7103 1cbe c0e0 92bd
000001c0: 4d9e 3cbc bed3 293c d753 98bd 7b03 d0be
000001d0: a185 57bd 2e00 bb3a 8bbe ed3b b157 60bd
000001e0: 80ac 04be 8cad 6dbb 25b4 41be 3755 98bd
000001f0: 6a6a 093a cc8e c139 2c24 bf3b f905 b7b9
-0.01864917 0.0001422288 0.0040711574 -0.00011745715 -0.0028506715 1.7437898e-05 -0.02007079 -0.005983011
-0.018322825 -0.034168005 -0.024768589 -0.20697914 -0.0008671737 -0.18077448 -2.71644e-05 -0.06850304
-0.052527137 0.005638519 0.003774268 -0.07206735 -0.022829168 -0.09384951 -0.024454642 -0.071408525
-0.0002007708 -0.0015638889 -0.022485942 -0.18351142 -0.14585796 -0.03853197 0.0034642948 -0.003596301
-1.9789744e-05 -0.0042952225 0.00048897136 0.0067873877 -0.00090171694 0.0046399026 -0.03586169 0.007762823
-0.02871604 -0.081396654 -0.00019100853 -0.0636064 0.0022886065 0.024927402 -0.0035801283 0.008949609
-0.009550108 -0.1844419 -0.0013660348 0.00070935924 -0.011762739 -0.06620555 -0.027834415 -0.12672618
0.0078919465 0.039247055 -0.00052337954 -0.0024731911 0.0032233996 -6.058318e-05 -0.044393677 -0.015393057
-0.0044285166 -0.003849322 0.030108832 6.419003e-05 -0.021584256 -0.023230392 -0.007968933 -0.05892181
-0.010453805 -0.024762532 -0.025416914 -0.0037581185 -0.01312426 -0.040906508 -0.0012469561 -0.065832935
-0.0049576582 -0.14750358 -0.13460283 -0.18760502 -0.07335959 -0.015474133 -0.0646776 -0.08875984
-0.26362613 0.00067989336 -0.4861052 -0.052448034 0.006371681 -0.0023219027 -0.005973084 0.032025576
-0.00034328687 -0.03345963 -0.005107607 -0.01068088 -0.4424812 -0.014745654 -0.19592698 -0.0071978588
0.038863134 0.001350624 -0.019915562 -0.4477381 7.539015e-05 -0.07383098 -0.15235688 -0.07171774
-0.011512351 0.010365425 -0.07437866 -0.40627655 -0.052617673 0.0014267021 0.0072553805 -0.05477113
-0.12956429 -0.0036266772 -0.18916376 -0.074381284 0.0005241992 0.0003691822 0.0058331694 -0.0003490893

predict.predict.1.weight f4 [16, 256]
00000000: cf06 0000 d31d 0000 211f 0000 bd17 0000
00000010: 4734 0000 1529 0000 7512 0000 7f32 0080
00000020: a318 0000 4f39 0000 a50c 0000 140e 0080
00000030: 850f 0080 8e2d 0000 3005 0080 3424 0000
00000040: 3a15 0000 7f00 0080 a107 0080 422c 0080
00000050: 1907 0000 b807 0080 ea24 0000 062a 0080
00000060: 0e12 0080 4f31 0000 0316 0000 d113 0080
00000070: 4122 0080 1c1a 0080 0406 0000 9912 0000
00000080: 2719 0080 d00f 0000 e922 0000 7e18 0080
00000090: 431d 0000 7117 0000 9318 0080 0325 0080
000000a0: e711 0000 fd06 0000 6e2d 0000 f336 0000
000000b0: f507 0080 2909 0000 a430 0080 4e27 0000
000000c0: d303 0080 600b 0000 640f 0000 643d 0000
000000d0: 700f 0080 5b02 0080 3413 0000 8e17 0000
000000e0: 8b3f 0000 a516 0000 1405 0080 2e18 0080
000000f0: 1900 0080 8e16 0000 0718 0080 4c27 0080
00000100: 9d15 0000 d256 0080 3a57 0000 5c10 0080
00000110: 481c 0080 d72a 0000 d102 0080 4f19 0080
00000120: 6a21 0000 5409 0080 2411 0000 cc10 0000
00000130: 1512 0080 6906 0000 fc23 0080 7001 0000
00000140: 271b 0000 5805 0080 6418 0000 770d 0000
00000150: 850f 0080 f223 0000 8223 0000 5922 0080
00000160: 1a06 0080 7c21 0080 570a 0080 4324 0080
00000170: 242a 0000 7621 0000 e032 0080 db0e 0000
00000180: be15 0000 8f0e 0080 c91b 0080 3c18 0080
00000190: 641f 0080 fe21 0000 9014 0080 b10c 0000
000001a0: b332 0000 cc21 0000 af11 0080 8e04 0000
000001b0: d41b 0080 9a0a 0000 c911 0080 d21d 0080
000001c0: 8200 0080 3620 0080 e804 0080 5a0b 0080
000001d0: 8c11 0080 f01a 0000 0a03 0080 760f 0080
000001e0: d700 0000 9857 0080 3f01 0080 7e0c 0080
000001f0: 6611 0000 b618 0000 8612 0000 7901 0080
00000200: fb29 0000 641a 0080 cf43 0080 9125 0080
00000210: adbd 0000 412f 0836 dc21 0000 0c16 0000
00000220: f73b 0080 c445 0000 7140 0000 b239 0080
00000230: 3b31 0000 a132 0000 2531 0080 565e 0000
00000240: 8827 0000 9721 0000 bf23 0000 7937 0000
00000250: 9f0f 0000 c216 0080 4519 0000 2c22 0000
00000260: 091f 0000 546b 0000 8a30 0000 8255 0080
00000270: fa02 0000 a022 0000 5433 0080 f819 0000
00000280: e548 0000 2d29 0080 df48 0000 9a89 0080
00000290: 8b33 0080 9c42 0000 3416 0080 d37e 0080
000002a0: 780d 0000 7218 0080 005c 0000 e30e 0000
000002b0: a026 0080 2122 0080 716f 0080 fc5d 0000
000002c0: fb51 0080 4e23 0080 a833 0080 093a 0080
000002d0: 6730 0000 3f0c 0080 4310 0080 f722 0000
000002e0: 8053 0080 5147 0080 f938 0000 e811 0080
000002f0: b210 0080 ce39 0080 9f0b 0000 0463 0000
00000300: be18 0000 ba52 0080 1b1d 0000 da10 0080
00000310: b70b 0000 6e1b 0000 3a11 0000 d432 0000
00000320: 146d 0080 4d23 0080 f44e 0000 6306 0080
00000330: c435 0080 d22e 0080 7c15 0080 165c 0080
00000340: 6f17 0080 f254 0080 4a1b 0080 ae6f 0000
00000350: 953f 0000 0731 0080 981f 0000 9281 0000
00000360: be2f 0080 7d12 0080 9e1e 0000 ff3b 0080
00000370: 6155 0080 5e81 0080 8752 0000 2601 0080
00000380: 6c32 0080 702f 0080 7d25 0080 fa06 0000
00000390: 503b 0000 2324 0080 6e26 0000 3e44 0080
000003a0: 1d3f 0000 5f16 0080 e50b 0080 c335 0080
000003b0: a724 0080 a706 0000 5e3e 0080 2b25 0080
000003c0: e70a 0080 3548 0080 a523 0000 501c 0080
000003d0: c60b 0000 b45d 0080 ff12 0000 0102 0080
000003e0: 8b27 0000 f98d 0080 ad4f 0000 943c 0080
000003f0: 640c 0000 9e2a 0080 fc0d 0000 d930 0000
2.442e-42 1.0699e-41 1.1167e-41 8.516e-42 1.8754e-41 1.4737e-41 6.621e-42 -1.8115e-41
8.838e-42 2.0558e-41 4.536e-42 -5.05e-42 -5.567e-42 1.6342e-41 -1.861e-42 1.2987e-41
7.615e-42 -1.78e-43 -2.737e-42 -1.5877e-41 2.546e-42 -2.769e-42 1.3242e-41 -1.5075e-41
-6.477e-42 1.7689e-41 7.896e-42 -7.109e-42 -1.2288e-41 -9.366e-42 2.158e-42 6.672e-42
-9.023e-42 5.672e-42 1.2523e-41 -8.786e-42 1.0497e-41 8.409e-42 -8.816e-42 -1.3277e-41
6.422e-42 2.507e-42 1.6297e-41 1.9712e-41 -2.854e-42 3.286e-42 -1.7449e-41 1.41e-41
-1.372e-42 4.08e-42 5.521e-42 2.2023e-41 -5.538e-42 -8.45e-43 6.889e-42 8.45e-42
2.2795e-41 8.123e-42 -1.822e-42 -8.674e-42 -3.5e-44 8.091e-42 -8.62e-42 -1.4097e-41
7.753e-42 -3.1145e-41 3.1291e-41 -5.869e-42 -1.0145e-41 1.5368e-41 -1.01e-42 -9.079e-42
1.1987e-41 -3.346e-42 6.149e-42 6.026e-42 -6.487e-42 2.3e-42 -1.2909e-41 5.16e-43
9.74e-42 -1.917e-42 8.75e-42 4.83e-42 -5.567e-42 1.2895e-41 1.2738e-41 -1.2322e-41
-2.189e-42 -1.2012e-41 -3.709e-42 -1.3008e-41 1.5117e-41 1.2004e-41 -1.825e-41 5.329e-42
7.8e-42 -5.223e-42 -9.967e-42 -8.694e-42 -1.1261e-41 1.2194e-41 -7.376e-42 4.553e-42
1.8187e-41 1.2124e-41 -6.344e-42 1.634e-42 -9.983e-42 3.803e-42 -6.38e-42 -1.0698e-41
-1.82e-43 -1.1555e-41 -1.76e-42 -4.072e-42 -6.295e-42 9.663e-42 -1.09e-42 -5.546e-42
3.01e-43 -3.1423e-41 -4.47e-43 -4.481e-42 6.241e-42 8.865e-42 6.645e-42 -5.28e-43
1.506e-41 -9.467e-42 -2.4325e-41 -1.3476e-41 6.8043e-41 2.0293085e-06 1.2146e-41 7.909e-42
-2.1511e-41 2.5027e-41 2.3117e-41 -2.0697e-41 1.766e-41 1.8162e-41 -1.763e-41 3.3841e-41
1.4181e-41 1.205e-41 1.2823e-41 1.99e-41 5.604e-42 -8.164e-42 9.065e-42 1.2259e-41
1.1133e-41 3.8502e-41 1.7413e-41 -3.0674e-41 1.068e-42 1.2421e-41 -1.8413e-41 9.316e-42
2.615e-41 -1.4771e-41 2.6141e-41 -4.9362e-41 -1.849e-41 2.3895e-41 -7.965e-42 -4.5496e-41
4.832e-42 -8.77e-42 3.3003e-41 5.34e-42 -1.3856e-41 -1.2243e-41 -3.9978e-41 3.3715e-41
-2.9409e-41 -1.2665e-41 -1.8531e-41 -2.0819e-41 1.7363e-41 -4.393e-42 -5.834e-42 1.2543e-41
-2.9954e-41 -2.5584e-41 2.0438e-41 -6.424e-42 -5.989e-42 -2.0736e-41 4.169e-42 3.552e-41
8.876e-42 -2.9677e-41 1.0441e-41 -6.045e-42 4.202e-42 9.84e-42 6.18e-42 1.8234e-41
-3.913e-41 -1.2664e-41 2.8323e-41 -2.291e-42 -1.9287e-41 -1.6796e-41 -7.707e-42 -3.3034e-41
-8.406e-42 -3.0473e-41 -9.79e-42 4.0063e-41 2.2809e-41 -1.7588e-41 1.1334e-41 4.6481e-41
-1.7127e-41 -6.632e-42 1.0983e-41 -2.1523e-41 -3.0628e-41 -4.6408e-41 2.9605e-41 -4.12e-43
-1.8088e-41 -1.7017e-41 -1.3448e-41 2.503e-42 2.1277e-41 -1.2963e-41 1.3786e-41 -2.448e-41
2.2641e-41 -8.025e-42 -4.267e-42 -1.9286e-41 -1.3148e-41 2.386e-42 -2.2373e-41 -1.3333e-41
-3.911e-42 -2.5903e-41 1.2787e-41 -1.0157e-41 4.224e-42 -3.3614e-41 6.815e-42 -7.19e-43
1.4185e-41 -5.093e-41 2.8582e-41 -2.1731e-41 4.445e-42 -1.5288e-41 5.017e-42 1.7523e-41

predict.predict.1.bias f4 [16]
00000000: 9d39 0080 979a 1480 5167 0000 c96c c43c
00000010: 1fcc c135 501e 0000 5157 2105 6248 0080
00000020: d914 0080 e743 7c37 60e4 d7ac 8217 933c
00000030: f008 c638 f562 0080 8e3f 0080 0c23 0809
-2.0668e-41 -1.892166e-39 3.7063e-41 0.023977654 1.4439028e-06 1.0874e-41 7.586221e-36 -2.5966e-41
-7.479e-42 1.503618e-05 -6.1360222e-12 0.017955545 9.4430405e-05 -3.5499e-41 -2.2799e-41 1.6386883e-33

predict.predict.3.weight f4 [16]
00000000: dee9 c991 a2e7 0802 6309 0000 2d54 9b3c
00000010: 58e4 0839 eb0b 0080 06f4 8187 766d f182
00000020: 040d 0080 3fe6 a93f c9b6 162f 1820 983c
00000030: 59cb 86bc 0ce6 8290 2d13 0080 8f21 7f09
-3.185634e-28 1.0058177e-37 3.367e-42 0.018961037 0.00013055035 -4.275e-42 -1.9553187e-34 -3.5474595e-37
-4.669e-42 1.327339 1.3707359e-10 0.018569991 -0.016454386 -5.16304e-29 -6.879e-42 3.0710288e-33

predict.predict.3.bias f4 [16]
00000000: 0cc2 6399 cdbe e9bb 3c1a 1814 cfab 853c
00000010: f650 41b7 fb78 ac93 49ac b3bc c038 9c01
00000020: c70b 5a85 5e1c 83bf 622d af34 3e99 1a3d
00000030: 8b9b 04bb afde c11f 79ef 6233 4c1b a423
-1.17748124e-23 -0.007133341 7.679213e-27 0.016317276 -1.1522547e-05 -4.35382e-27 -0.021932738 5.738678e-38
-1.0252474e-35 -1.0243032 3.262931e-07 0.0377438 -0.0020234312 8.210708e-20 5.2837525e-08 1.7792476e-17
