1-GNNs/result/6108_AR_NURA_GAT_0920/28/model.pth (torch, 309731 bytes, 17 tensors)

gnn.gnn_layers.0.gat_conv.attn_l f4 [1, 6, 32]
0.023841674 -0.009560991 0.026965285 0.017909413 -0.00040300752 0.015894882 0.0038722856 -0.027462186
0.06419941 -0.0047130217 -0.03674956 -0.0085593965 -0.019265821 0.006313513 0.016235685 -0.015597197
0.05257505 0.0018820899 0.016696863 -0.00037000288 0.010323454 -0.01636209 -0.0066596675 0.031331856
-0.04125579 0.017949212 -0.019914951 -0.0039792974 -0.0007369854 0.005091308 0.017046954 -0.0006489431
0.112910375 -0.23214419 -0.033809315 -0.05883234 -0.21740384 0.21411645 0.06419018 -0.15798321
0.07442252 0.027909553 0.34186235 -0.24116737 -0.25258055 0.33416063 -0.11584552 0.45153543
-0.066477805 0.31641817 0.021304017 -0.011841153 -0.28305897 0.22400554 -0.06254451 -0.03831317
0.06530644 -0.23148087 0.15926942 -0.01664407 0.005441463 -0.06658614 0.020572219 0.5670716
0.01693498 -0.1376945 0.2509809 -0.010673202 -0.060463235 0.120808855 -0.009757021 0.06042448
0.14640623 0.056838825 -0.16490012 -0.042375896 -0.10621176 -0.0062099234 -0.04906244 -0.17397061
0.02087376 -0.0085796835 0.0042268923 -0.05371687 0.048444394 -0.052916467 -0.1048889 0.009319344
-0.110247925 0.014891861 -0.04198534 0.08347629 -0.110295326 -0.05890015 0.06415382 0.06103479
0.05490031 0.026364882 0.05941583 0.0044730697 0.08632243 -0.0724825 0.05374663 0.0034354555
-0.012071513 0.0009562812 0.018138565 0.024661135 -0.0043237098 0.015513717 0.10648533 0.01874814
0.004453572 0.1282092 0.021775106 0.0070758495 0.003352014 0.011125682 0.036628395 0.0047434173
-0.017325167 -0.028903658 -0.023488164 0.16855472 0.056028806 -0.031092564 -0.037250176 -0.0016847199
0.12224499 -0.08839594 0.03322137 -0.00022193968 0.17382029 -0.013843526 -0.0009036894 0.01235912
0.046265967 0.11162381 -0.06888586 0.07090988 0.004643057 0.005573424 -0.05595118 -0.1307039
-0.04449966 -0.12818347 1.0542105 -0.11331762 -0.036223035 0.009698506 -0.10340561 0.25668395
-0.11004814 0.069169305 -0.058837745 0.008918345 -0.04965167 -0.047939196 -0.02511721 0.04958765
0.044152874 0.0038225031 0.119708024 0.02495725 -0.026947642 -0.016099907 0.01525922 0.08192809
0.03907437 -0.045679547 0.039599992 0.00457412 0.09799072 -0.053996477 -0.065065764 0.012919495
-0.107248195 -0.028915703 0.009215958 0.049523607 0.008867544 0.033837546 0.0027539593 0.005153061
0.038574647 0.062319778 0.052148942 -0.044679627 0.006063473 0.018963391 0.017524332 -0.056518354
00000000: 9d4f c33c b4a5 1cbc 4de6 dc3c c3b6 923c
00000010: c14a d3b9 fc35 823c 2cc6 7d3b 61f8 e0bc
00000020: fb7a 833d b16f 9abb b586 16bd b63c 0cbc
00000030: 5bd3 9dbc 96e1 ce3b b300 853c 638b 7fbc
00000040: f058 573d 75b0 f63a dcc7 883c f2fc c1b9
00000050: b423 293c ca09 86bc 5739 dabb d555 003d
00000060: d5fb 28bd 3a0a 933c ae24 a3bc c464 82bb
00000070: 4132 41ba fdd4 a63b 0ea6 8b3c d61d 2aba
00000080: 8e3d e73d 35b7 6dbe a37b 0abd 2efa 70bd
00000090: 1d9f 5ebe 5841 5b3e 2476 833d 5ac6 21be
000000a0: d66a 983d 93a2 e43c 9508 af3e 94f4 76be
000000b0: 3d52 81be 1a17 ab3e 6a40 edbd a72f e73e
000000c0: 8425 88bd 9001 a23e c385 ae3c 6501 42bc
000000d0: 1bed 90be b561 653e 5617 80bd 45ee 1cbd
000000e0: 62bf 853d 5209 6dbe 8617 233e 2559 88bc
000000f0: 4d4e b23b 505e 88bd 1287 a83c 9b2b 113f
00000100: 3abb 8a3c c9ff 0cbe 9280 803e a7de 2ebc
00000110: 4ca8 77bd a26a f73d eadb 1fbc a97f 773d
00000120: 84eb 153e d4cf 683d 94db 28be 5992 2dbd
00000130: 8d85 d9bd 9d7c cbbb b2f5 48bd 5a25 32be
00000140: 73ff aa3c cd91 0cbc be81 8a3b 3806 5cbd
00000150: a16d 463d f0be 58bd fecf d6bd 29b0 183c
00000160: aac9 e1bd fefc 733c d2f8 2bbd 9ef5 aa3d
00000170: 84e2 e1bd 4941 71bd 1463 833d 9eff 793d
00000180: 26df 603d 2afb d73c 035e 733d d492 923b
00000190: d0c9 b03d b471 94bd 6d25 5c3d 6125 613b
000001a0: 98c7 45bc f2ae 7a3a 5497 943c 2606 ca3c
000001b0: e8ad 8dbb 3f2d 7e3c fb14 da3d b395 993c
000001c0: 45ef 913b 4649 033e b561 b23c 87dc e73b
000001d0: 77ad 5b3b 7e48 363c a807 163d ab6e 9b3b
000001e0: 82ed 8dbc 5dc7 ecbc 406a c0bc 9c99 2c3e
000001f0: 767e 653d d5b5 febc a493 18bd d2d1 dcba
00000200: 955b fa3d ee08 b5bd 2213 083d 7bb8 68b9
00000210: f2fd 313e f5cf 62bc 92e5 6cba e87d 4a3c
00000220: 6281 3d3d 069b e43d 0814 8dbd 3339 913d
00000230: c924 983b 45a1 b63b 112d 65bd 3ed7 05be
00000240: 4745 36bd 8742 03be 5ff0 863f 1113 e8bd
00000250: 9b5e 14bd 7ce6 1e3c 52c6 d3bd 146c 833e
00000260: eb60 e1bd a3a8 8d3d d9ff 70bd 401e 123c
00000270: 8d5f 4bbd e45b 44bd 9bc2 cdbc 6b1c 4b3d
00000280: a5d9 343d f682 7a3b 7b29 f53d 2673 cc3c
00000290: 4dc1 dcbc f4e3 83bc cf01 7a3c eac9 a73d
000002a0: 720c 203d 7a1a 3bbd 9a33 223d 80e2 953b
000002b0: 5caf c83d 692b 5dbd 3341 85bd 4aac 533c
000002c0: f1a4 dbbd a0e0 ecbc 88fe 163c 44d9 4a3d
000002d0: 2d49 113c 3d99 0a3d c57b 343b 02db a83b
000002e0: 7300 1e3d 0643 7f3d 219a 553d fc01 37bd
000002f0: 19b0 c63b 1d59 9b3c 308f 8f3c ca7f 67bd

gnn.gnn_layers.0.gat_conv.attn_r f4 [1, 6, 32]
-0.028898764 0.0025286432 -0.0017704807 -0.008966671 -0.008465941 0.009945932 0.0045533567 0.062452495
-0.0038249 -0.00730861 -0.0058952593 -0.010280059 -0.0024177406 0.0043317843 0.006844261 -0.011499703
0.005311637 0.01586239 0.021862358 -0.0051659327 0.005248731 -0.00025124598 -0.007357499 0.0017389128
-0.0077173915 -0.0029956293 -0.0063795783 0.004103016 -0.0074165678 0.017026754 0.013739895 -0.0067792283
0.033180926 -0.09318014 -0.09939374 -0.1033604 0.0009878943 0.28010288 0.119123645 0.009180431
-0.12616563 0.078331545 -0.014329108 -0.030449508 -0.10348202 -0.041760013 -0.093685634 0.027340034
-0.039354075 0.09680653 0.14751446 -0.0016852567 -0.27683213 -0.037343297 0.009647087 -0.04634516
-0.0581104 -0.12310007 0.029689334 -0.046160016 -0.028387873 0.2627232 0.19612134 0.1768763
-0.007327539 -0.08256402 0.022262054 -0.050180774 -0.000372945 0.010365094 -0.017693808 -0.013276371
-0.0007348631 -0.0058770794 -0.051765997 -0.059722953 -0.029844798 -0.022082653 -0.04236051 -0.07379714
-0.15282016 0.023447556 -0.006273252 -0.069006205 0.018439028 -0.02312878 -0.034485072 -0.0017833565
0.05277567 -0.029738437 0.0008332741 0.055345375 -0.010426771 -0.07737895 -0.044414874 0.05736723
0.05649869 -0.016243134 -0.023827393 -0.00849689 0.117966175 0.095134705 0.06837745 -0.03920823
-0.022084847 -0.003814685 -0.008070575 -0.1627862 -0.072285496 -0.063697875 0.09718367 -0.0061164265
0.0051404093 0.1370099 0.083778575 0.0048817997 -0.0007359171 0.01419448 -0.0753936 0.027372783
0.03650927 -0.064580046 -0.025279816 0.19051091 0.10935267 0.0037759475 -0.0015574252 -0.038508594
0.003919526 -0.05623177 0.01862597 0.068344 -0.1027624 -0.05043002 -0.067960516 0.012686115
-0.059560876 0.10642814 -0.13444214 0.014333322 0.0034740027 0.03730157 -0.038210176 0.01805633
-0.006889528 -0.13914242 0.11811222 -0.08275495 -0.04428356 -0.029500864 -0.063999385 0.093699574
-0.05098077 -0.022110464 -0.0064332867 -0.10108996 -0.018279113 0.093893394 0.0022820162 -0.032389708
0.056469433 -0.04595576 -0.014846809 0.07320593 -0.038956486 0.073580615 -0.016180053 -0.00595438
-0.075820714 0.07876692 -0.009057119 -0.16486482 0.0029883517 0.04948566 0.12662776 -0.067342326
-0.07964266 -0.077134505 -0.044469208 0.0075092395 -0.038739204 -0.04151812 -0.015035573 -0.26345757
-0.033411954 0.07256602 -0.07719128 -0.047193807 0.018926479 0.059425358 0.35894883 -0.050492413
00000000: 1abd ecbc 98b7 253b 790f e8ba f2e8 12bc
00000010: bbb4 0abc 43f4 223c 5334 953b 30ce 7f3d
00000020: 2cab 7abb 107d efbb 052d c1bb b16d 28bc
00000030: f572 1ebb a4f1 8d3b d345 e03b 4069 3cbc
00000040: 3e0d ae3b d8f1 813c b018 b33c fc46 a9bb
00000050: 8cfd ab3b aab9 83b9 2d17 f1bb 3bec e33a
00000060: 2ce2 fcbb 5252 44bb c80b d1bb 9872 863b
00000070: ae06 f3bb b17b 8b3c 4c1d 613c 4a24 debb
00000080: b9e8 073d 3bd5 bebd f28e cbbd 9eae d3bd
00000090: 3b7c 813a a569 8f3e 19f7 f33d 8569 163c
000000a0: 9031 01be 4a6c a03d a3c4 6abc 3f71 f9bc
000000b0: 62ee d3bd 8c0c 2bbd 41de bfbd 35f8 df3c
000000c0: bd31 21bd 8142 c63d 080e 173e d5e3 dcba
000000d0: f1bc 8dbe 49f5 18bd d10e 1e3c 6cd4 3dbd
000000e0: 2c05 6ebd e41b fcbd 0c37 f33c 4912 3dbd
000000f0: af8d e8bc a883 863e 08d4 483e 101f 353e
00000100: da1b f0bb 5317 a9bd e95e b63c 5b8a 4dbd
00000110: d587 c3b9 5bd2 293c 9bf2 90bc 2385 59bc
00000120: d4a3 40ba 8494 c0bb 9508 54bd 0ea0 74bd
00000130: 147d f4bc aee6 b4bc 3782 2dbd f422 97bd
00000140: e37c 1cbe 1715 c03c da8f cdbb 2053 8dbd
00000150: 720d 973c 9178 bdbc 3840 0dbd 84bf e9ba
00000160: 4d2b 583d 069e f3bc 1470 5a3a d5b1 623d
00000170: 0cd5 2abc db78 9ebd 5fec 35bd e7f9 6a3d
00000180: 2c6b 673d 5210 85bc aa31 c3bc 8a36 0bbc
00000190: 4098 f13d fcd5 c23d 7a09 8c3d cf98 20bd
000001a0: 48eb b4bc cbff 79bb 723a 04bc 6db1 26be
000001b0: 6b0a 94bd 0874 82bd 3b08 c73d 4e6c c8bb
000001c0: e170 a83b 534c 0c3e 1a94 ab3d 81f7 9f3b
000001d0: 90ea 40ba f78f 683c f667 9abd e33c e03c
000001e0: bf8a 153d 8b42 84bd 9e17 cfbc 4b15 433e
000001f0: 4bf4 df3d e375 773b 8522 ccba 30bb 1dbd
00000200: 5e6f 803b 4953 66bd 7e95 983c f0f7 8b3d
00000210: 1875 d2bd b58f 4ebd e22e 8bbd 6cd9 4f3c
00000220: 1bf6 73bd fff6 d93d 33ab 09be 4fd6 6a3c
00000230: 18ac 633b 88c9 183d 4682 1cbd deea 933c
00000240: 8dc1 e1bb 5a7b 0ebe d2e4 f13d 6d7b a9bd
00000250: ae62 35bd ccab f1bc 1c12 83bd 90e5 bf3d
00000260: 36d1 50bd 0121 b5bc 52ce d2bb 4108 cfbd
00000270: 14be 95bc 2e4b c03d e18d 153b 12ab 04bd
00000280: 7e4c 673d 1b3c 3cbd 0840 73bc feec 953d
00000290: d690 1fbd 6fb1 963d 088c 84bc f61c c3bb
000002a0: e447 9bbd 8d50 a13d 4f64 14bc 53d2 28be
000002b0: 39d8 433b 7ab1 4a3d b5aa 013e c6ea 89bd
000002c0: b11b a3bd b2f8 9dbd 5825 36bd 1110 f63b
000002d0: 00ad 1ebd e70e 2abd c457 76bc e9e3 86be
000002e0: f9da 08bd 7e9d 943d 7616 9ebd 4b4e 41bd
000002f0: b40b 9b3c 0168 733d 24c8 b73e 22d1 4ebd

gnn.gnn_layers.0.gat_conv.bias f4 [192]
0.012699178 -0.048498373 0.08111707 0.031409137 -0.024672966 0.06892584 -0.03541061 0.13504623
-0.032574296 0.006472518 -0.009592277 -0.07273427 0.00012270648 0.0018054743 0.018136576 0.005952104
0.022011952 -0.14895754 -0.021769872 -0.057335783 0.0008710199 -0.010903568 -0.019602831 -0.08050867
0.044275537 0.02511243 -0.066285275 -0.016524427 0.0069030486 -0.053716872 -0.0422098 0.047403134
-0.045198277 0.040583562 -0.08657733 -0.0564721 0.08197469 -0.19372472 0.2525333 0.32442018
-0.07676869 -0.0041199056 -0.04888079 0.024114337 -0.09001984 -0.07307053 0.055903394 -0.14567621
0.02235336 -0.1555246 0.049524877 0.0071240147 0.009547582 -0.06058735 -0.004985078 -0.08134678
0.11166503 -0.008898026 -0.06874821 0.045237597 -0.047367144 0.13557711 0.20316587 -0.09697582
0.03815488 -0.13863905 0.19295006 -0.0022872225 0.037951466 0.03168698 -0.025998551 -0.044179875
0.03386837 0.052765194 0.017971862 0.11572001 -0.25223675 -0.04371026 0.0621422 -0.0031485585
-0.22578105 -0.054215435 -0.08828032 -0.21414208 -0.0709975 -0.044531338 -0.101896085 -0.03707658
0.08016869 0.14806129 -0.11854564 -0.12528904 0.050806373 -0.037700996 -0.012499922 -0.0015958576
-0.0065296213 -0.105437845 -0.06786633 -0.012445592 -0.035214227 -0.2685167 0.025002541 -0.010337395
-0.016106794 0.042202372 0.018819584 0.087197684 -0.014381819 -0.09300735 -0.019230355 -0.012573347
-0.00019369759 -0.1163754 0.0774382 0.027354 -0.069830984 -0.03268368 -0.09341295 -0.0003166529
0.12579456 0.05604491 -0.061617542 -0.20763978 -0.021026108 0.0649368 0.009595058 -0.019100688
0.026512926 0.019805735 -0.04219028 -0.11917175 -0.001837704 0.00038372044 -0.095860995 0.0006658922
-0.039671037 0.0727862 -0.039790746 0.057011463 -0.07088739 -0.012263192 0.14992441 -0.0027784335
0.048801005 -0.014624825 0.3425254 -0.0055801347 0.020265235 -0.012578244 -0.036854763 0.12128607
0.05728897 0.029583296 -0.048129596 -0.021839747 -0.01964892 -0.080110066 0.04347879 0.035199672
-0.07128597 -0.0025016202 -0.04409559 -0.05199163 0.025668688 0.05220019 -0.016006421 -0.046392288
0.01744704 -0.18305387 -0.20147498 0.10427042 -0.0574996 0.025684254 0.021372152 -0.03214091
-0.0064221993 -0.048278615 -0.1645257 0.023982009 -0.010291538 -0.06461507 -0.0027044453 -0.36933586
-0.014418457 -0.09297496 -0.010394493 0.0019193216 -0.053423673 -0.04263455 0.1943308 -0.023103077
00000000: 3710 503c 3ba6 46bd b520 a63d dea6 003d
00000010: f61e cabc fe28 8d3d b70a 11bd 8f49 0a3e
00000020: a06c 05bd 6b17 d43b ed28 1dbc b4f5 94bd
00000030: c5aa 0039 aaa5 ec3a 2893 943c de09 c33b
00000040: 6952 b43c 5388 18be bb56 b2bc edd8 6abd
00000050: 2855 643a e1a4 32bc 1e96 a0bc bbe1 a4bd
00000060: 445a 353d 95b8 cd3c 93c0 87bd 3c5e 87bc
00000070: f832 e23b 3906 5cbd 2fe4 2cbd ca29 423d
00000080: d421 39bd f33a 263d 754f b1bd 4a4f 67bd
00000090: 59e2 a73d c65f 46be 0b4c 813e 671a a63e
000000a0: e738 9dbd 4600 87bb 3937 48bd 6e8b c53c
000000b0: 525c b8bd 01a6 95bd f5fa 643d 252c 15be
000000c0: 651e b73c d741 1fbe 99da 4a3d 9170 e93b
000000d0: 766d 1c3c 712a 78bd dd59 a3bb 2499 a6bd
000000e0: a3b0 e43d 07c9 11bc ddcb 8cbd 0f4b 393d
000000f0: 0d04 42bd bad4 0a3e b70a 503e 429b c6bd
00000100: 4b48 1c3d 65f7 0dbe b394 453e 3ae5 15bb
00000110: ff72 1b3d 35ca 013d eafa d4bc f5f5 34bd
00000120: 8fb9 0a3d 5120 583d ba39 933c 9dfe ec3d
00000130: 2d25 81be 8809 33bd d288 7e3d 0c58 4ebb
00000140: 2633 67be 0111 5ebd 50cc b4bd 1048 5bbe
00000150: 2367 91bd 7e66 36bd e5ae d0bd 9ddd 17bd
00000160: 7b2f a43d 619d 173e 0ec8 f2bd c54b 00be
00000170: 581a 503d 5c6c 1abd 79cc 4cbc 182c d1ba
00000180: 6ff6 d5bb ccef d7bd 81fd 8abd 99e8 4bbc
00000190: cb3c 10bd 057b 89be 21d2 cc3c 2d5e 29bc
000001a0: 65f2 83bc 65dc 2c3d 872b 9a3c b394 b23d
000001b0: b9a1 6bbc a37a bebd fa88 9dbc 7100 4ebc
000001c0: 4d1b 4bb9 3a56 eebd eb97 9e3d 7f15 e03c
000001d0: 8c03 8fbd 53df 05bd 4a4f bfbd 6f04 a6b9
000001e0: 4ad0 003e 598f 653d ad62 7cbd 869f 54be
000001f0: f23e acbc 96fd 843d 9734 1d3c 0c79 9cbc
00000200: a331 d93c a33f a23c b7cf 2cbd 5210 f4bd
00000210: 1ddf f0ba 162e c939 c552 c4bd 458f 2e3a
00000220: 197e 22bd ee10 953d 9ffb 22bd da84 693d
00000230: 682d 91bd 8eeb 48bc c985 193e 6116 36bb
00000240: 90e3 473d f69c 6fbc 7d5f af3e 90d9 b6bb
00000250: 4703 a63c fb14 4ebc 05f5 16bd d564 f83d
00000260: d7a7 6a3d ab58 f23c 8a23 45bd 45e9 b2bc
00000270: c6f6 a0bc bf10 a4bd d116 323d 882d 103d
00000280: 61fe 91bd 39f2 23bb 949d 34bd 2df5 54bd
00000290: 2447 d23c decf 553d e61f 83bc d705 3ebd
000002a0: 18ed 8e3c 7972 3bbe 754f 4ebe bb8b d53d
000002b0: b384 6bbd c967 d23c a714 af3c 30a6 03bd
000002c0: 5071 d2bb ccbf 45bd 6d79 28be eb75 c43c
000002d0: d79d 28bc e854 84bd 103d 31bb 9719 bdbe
000002e0: 643b 6cbc a869 bebd aa4d 2abc bf91 fb3a
000002f0: c8d2 5abd 91a1 2ebd a7fe 463e aa42 bdbc

gnn.gnn_layers.0.gat_conv.fc.weight f4 [192, 74]
0.0028784403 -0.008122609 -0.05698603 -0.07346494 0.05436276 1.5750054e-10 0.01672443 0.052599084
0.022408932 1.2701162e-10 -4.917516e-11 -1.6746671e-10 -9.858133e-11 -1.3045545e-10 -2.2764872e-11 -0.001643182
2.2878907e-10 -7.904472e-11 2.0057968e-10 -1.6653866e-10 1.8766275e-10 1.0265693e-10 -6.317573e-11 1.632698e-10
2.9933275e-10 -2.175515e-10 3.175173e-12 1.6470089e-10 -1.6688571e-10 -2.0121212e-11 -5.9510404e-11 2.8091632e-10
8.4668515e-11 -1.14791954e-10 8.868402e-11 2.9326463e-10 1.2934005e-10 -1.2403566e-10 2.6654514e-11 -1.3785799e-10
1.6872147e-10 -2.1887585e-10 -3.078585e-10 1.0574954e-10 -0.0011643311 -0.03799086 0.024476428 0.0524564
1.7795951e-10 1.5166517e-10 -9.141187e-11 1.646006e-10 1.9558248e-10 2.324996e-10 0.013517407 -0.029307762
0.015093468 -0.025793128 -4.623764e-11 1.9601773e-10 -4.3326693e-11 0.006468027 -0.0014457167 0.13657002
0.027475163 -0.03559457 4.8447052e-11 -1.848236e-10 0.024279697 0.02876054 -0.041235328 -0.0047698263
-0.014605566 1.7299452e-10 -0.060118973 -0.03766913 0.08944168 0.050857294 -0.06499598 -1.9792863e-10
-0.007939224 -0.029807365 0.013225207 -1.8903491e-10 -2.600132e-10 -4.742414e-10 6.5833554e-12 1.5986949e-10
-2.498599e-10 0.0020796591 -3.671984e-10 1.7633242e-10 -1.2242082e-10 3.2385407e-11 1.7111593e-10 -2.1907168e-10
5.8278415e-10 2.371396e-11 -1.8607217e-10 1.65459e-10 -2.2255961e-10 -1.290484e-10 -2.6333359e-11 -2.2974977e-10
-1.6246123e-10 6.440867e-11 1.0096346e-10 -1.3387573e-10 -1.3587749e-10 -1.8531143e-10 -2.3169712e-10 -2.1535247e-10
9.63272e-11 2.957204e-10 -9.336375e-11 1.3634692e-10 -4.3218072e-12 2.276759e-10 -0.025789447 -0.059285317
-0.058340285 -0.086532906 -2.3607005e-10 -7.070817e-11 -1.7206651e-10 1.3166229e-10 -3.5448883e-10 9.340053e-11
-0.010177729 0.080969386 -0.0703625 0.041493095 -2.1982743e-10 1.6674087e-10 2.1558647e-10 -0.026393991
-9.870223e-05 -0.039633643 -0.07503532 -0.054952126 -1.5742513e-10 1.7796824e-10 -0.049050093 -0.09245754
0.07336128 -0.10359136 -0.038951673 2.2626535e-10 0.05010262 0.085922256 -0.09218818 -0.016189443
0.07859141 4.665096e-11 0.023160528 0.040300827 -0.00064810825 8.6817865e-11 -1.959494e-10 1.7188401e-10
2.4956553e-10 1.3729458e-10 -5.157371e-10 0.00085081754 -2.8063538e-10 -1.86505e-10 2.224773e-10 4.1209228e-10
-2.739228e-10 -2.2437995e-10 1.8411526e-10 -3.95946e-11 -5.361177e-11 1.08883354e-10 -1.0044886e-10 3.774617e-10
-4.8764017e-11 2.5113298e-10 -1.3515937e-10 -3.52113e-10 -1.2169038e-10 -8.5597446e-11 -2.5419597e-11 -4.6310004e-11
3.6405e-11 -1.6388638e-10 -1.13738546e-10 2.3438917e-10 -5.5011257e-10 1.3791218e-10 2.9368752e-10 -1.6137576e-10
-0.019081721 0.0063771964 0.13918383 0.0087515665 -1.9526512e-10 -2.3088848e-10 2.5980953e-10 1.5178904e-10
-4.496648e-10 2.8790104e-10 0.19332907 0.00858982 -0.05716498 -0.13009545 1.9036471e-10 -9.898498e-11
-1.9384803e-10 -0.020217745 -0.0007334911 0.22230422 0.07149911 -0.054704275 -4.0912107e-10 -1.7514887e-10
0.059187237 0.17106542 -0.08501595 -0.06805589 -0.0793451 1.5607624e-10 -0.0049120598 0.11862187
-0.06812715 -0.021015631 0.16388518 1.2776512e-10 0.0022708946 0.054317232 0.017549656 1.6046821e-10
-2.9744043e-10 1.8617846e-10 -4.419775e-10 -2.394182e-11 -1.5723194e-10 0.016119359 2.0141207e-10 2.2730378e-11
-4.039786e-12 8.986596e-11 -1.4996149e-10 -6.0345264e-11 2.3807964e-10 5.0780356e-11 -2.0332251e-10 1.8703018e-10
-2.1224514e-10 -1.697118e-10 -1.6064204e-10 -1.2333028e-10 1.404445e-10 6.432805e-11 4.2706975e-12 1.5240278e-10
00000000: 37a4 3c3b b114 05bc 2f6a 69bd c974 96bd
00000010: 7cab 5e3d 762c 2d2f ac01 893c 2372 573d
00000020: f092 b73c 98a6 0b2f 4f46 58ae b021 38af
00000030: 5bc8 d8ae f26f 0faf ef3d c8ad 0a60 d7ba
00000040: 668e 7b2f 39d2 adae 298a 5c2f 771c 37af
00000050: 5e56 4e2f b7be e12e c6ec 8aae 5d84 332f
00000060: 578f a42f 4e33 6faf d56e 5f2c 2e17 352f
00000070: 277e 37af f1fc b0ad 61dd 82ae 756f 9a2f
00000080: 2330 ba2e 206e fcae aa04 c32e 5439 a12f
00000090: fd35 0e2f ef60 08af a174 ea2d 9393 17af
000000a0: df82 392f 13a8 70af 3b3f a9af b38b e82e
000000b0: 789c 98ba 4e9c 1bbd ca82 c83c 86dc 563d
000000c0: 26ab 432f f3c1 262f 4f04 c9ae f3fa 342f
000000d0: 930b 572f d2a2 7f2f 1d78 5d3c d516 f0bc
000000e0: 984a 773c 1c4c d3bc f45a 4bae 1686 572f
000000f0: 858d 3eae bef1 d33b 347e bdba 03d9 0b3e
00000100: 9813 e13c 9dcb 11bd 8812 552e 3837 4baf
00000110: 37e6 c63c 399b eb3c 60e6 28bd 344c 9cbb
00000120: 2f4c 6fbc a135 3e2f 503f 76bd f24a 1abd
00000130: 332d b73d bd4f 503d 9d1c 85bd f59f 59af
00000140: 8513 02bc 932e f4bc 8aae 583c 99d8 4faf
00000150: 9bf1 8eaf c65b 02b0 98a1 e72c 43c7 2f2f
00000160: a85c 89af e44a 083b 95de c9af 2ae1 412f
00000170: 669a 06af ba6e 0e2e da24 3c2f 32df 70af
00000180: ca31 2030 1797 d02d a996 4caf 91ec 352f
00000190: f6b4 74af e5e3 0daf 74a1 e7ad d09c 7caf
000001a0: c5a0 32af dca2 8d2e 6005 de2e ab32 13af
000001b0: 1d66 15af 88c0 4baf f1c0 7eaf 55c8 6caf
000001c0: 65d3 d32e f292 a22f 1e4f cdae 3fea 152f
000001d0: 610f 98ac 1255 7a2f 6444 d3bc 29d5 72bd
000001e0: 39f6 6ebd 2a38 b1bd e8c7 81af 297d 9bae
000001f0: 6b30 3daf a4c3 102f dee1 c2af d363 cd2e
00000200: 7dc0 26bc 47d3 a53d 371a 90bd aaf4 293d
00000210: ecb3 71af 6255 372f 320a 6d2f 3638 d8bc
00000220: 5bfe ceb8 e356 22bd 1eac 99bd 7b15 61bd
00000230: 3c17 2daf 9bad 432f c0e8 48bd 615a bdbd
00000240: 703e 963d b527 d4bd ca8b 1fbd 09c8 782f
00000250: 6838 4d3d 02f8 af3d 28cd bcbd b99f 84bc
00000260: 88f4 a03d 502c 4d2e 26bb bd3c 7b12 253d
00000270: cfe5 29ba 1dea be2e da72 57af 0cfd 3c2f
00000280: 3a33 892f fdf4 162f c6c3 0db0 6609 5f3a
00000290: eb47 9aaf 7e10 4daf cb9d 742f d58c e22f
000002a0: 3597 96af 57b5 76af d76f 4a2f 8e23 2eae
000002b0: 7dc9 6bae e16f ef2e aee3 dcae 0383 cf2f
000002c0: 6777 56ae d30f 8a2f fb9b 14af 8093 c1af
000002d0: cccc 05af 143b bcae d897 dfad 6eac 4bae
000002e0: 631c 202e ea31 34af 1c1d faae 58db 802f
000002f0: bb36 17b0 d4a2 172f d874 a12f 3d6f 31af
00000300: 4551 9cbc cdf7 d03b 3586 0e3e bb62 0f3c
00000310: 3fb2 56af 54dd 7daf f1d4 8e2f d1e4 262f
00000320: b234 f7af 7846 9e2f 0ef8 453e 51bc 0c3c
00000330: d325 6abd be37 05be e74e 512f 97ab d9ae
00000340: 5f23 55af af9f a5bc c147 40ba b8a3 633e
00000350: 206e 923d 9711 60bd acea e0af 0694 40af
00000360: 516e 723d c62b 2f3e d81c aebd e360 8bbd
00000370: af7f a2bd 8e9b 2b2f 58f5 a0bb 06f0 f23d
00000380: 3f86 8bbd f928 acbc 84d1 273e af7a 0c2f
00000390: 4ad3 143b bf7b 5e3d 4cc4 8f3c c96f 302f
000003a0: 0585 a3af 94b4 4c2f cefa f2af 3098 d2ad
000003b0: dbe0 2caf bf0c 843c 7574 5d2f 43f0 c72d
000003c0: 2823 8eac 0a9e c52e 68e2 24af 5db3 84ae
000003d0: bbe2 822f 9955 5f2e 338e 5faf 51a4 4d2f
000003e0: b25d 69af a099 3aaf b7a0 30af 639a 07af
000003f0: 9d6b 1a2f 7975 8d2e 0643 962c 9291 272f

gnn.gnn_layers.0.gat_conv.res_fc.weight f4 [192, 74]
0.03836241 0.014564537 -0.073751144 -0.028779987 0.0037540344 -4.4301435e-10 0.020952126 -0.007436178
-0.01455394 -2.0365216e-10 -1.6373483e-10 -8.518367e-11 2.8934805e-10 -1.6134291e-10 -3.343517e-10 -0.025777135
-1.4532206e-10 -1.8246105e-10 -1.8649707e-10 1.8338167e-10 -1.6430783e-10 -3.3313496e-10 -3.0010783e-10 1.8727059e-10
-2.2545303e-10 -4.5103202e-11 -2.1879219e-10 1.494995e-10 2.9487607e-11 6.2274706e-11 -4.603452e-11 -1.6540598e-10
-1.3678071e-10 -2.2730674e-10 2.3988264e-10 -2.6235705e-10 -1.3108695e-12 -3.077359e-10 2.5236335e-10 -1.9384223e-10
2.8158534e-10 1.6413006e-10 -1.0536584e-10 -2.3256633e-10 -0.027824359 -8.952434e-05 0.02481266 0.056359667
3.2294825e-10 -3.5319938e-11 4.0564965e-10 6.9875314e-11 -1.5646172e-10 8.186404e-12 0.02213136 -0.01456184
0.023775883 -0.02977514 -2.7114294e-10 -6.5383005e-11 -4.8007387e-10 -0.0035091613 0.0005388241 0.1290716
-0.0075631673 -0.045355465 1.8172534e-10 -4.2567702e-10 -0.0016426451 0.012057576 -0.012433188 0.007099952
-0.046926934 1.7213123e-10 -0.116543256 -0.012558072 0.1666498 0.0647763 -0.055001143 7.204991e-11
-0.04298062 -0.04730132 -0.00674862 -1.6017988e-10 1.1709463e-10 -1.6511313e-10 2.5003882e-10 1.8287219e-11
2.5148436e-10 0.01401269 2.509057e-10 3.5253903e-10 1.5715473e-10 2.1434383e-10 1.0849953e-10 -7.246006e-11
-5.5605392e-11 -1.8665874e-10 1.09762976e-10 -9.8223485e-11 1.5033878e-10 1.37029745e-11 -3.017048e-10 -1.835596e-10
1.7730036e-11 -1.7408976e-10 -9.605609e-11 1.3132595e-10 -1.4962201e-10 -1.9777746e-10 3.621067e-10 1.8386441e-10
1.4430092e-10 -1.6264647e-10 -1.5837714e-10 -1.5358408e-10 1.7515467e-10 -1.6856375e-10 0.038239256 -0.101610936
-0.10780233 -0.15862373 1.354152e-10 -2.511863e-10 3.029894e-10 1.5401204e-10 1.4916947e-10 -1.4032409e-10
-0.035307556 0.12341719 -0.15891737 0.10439266 -1.635065e-10 -1.9819549e-10 -2.2270857e-10 0.013060521
3.3889194e-06 -0.029810844 0.015549666 -0.025720473 7.513215e-11 -1.6765153e-10 -0.10083334 -0.07764678
0.08362123 -0.1826421 0.029800594 -1.8965672e-10 0.10868222 0.032616287 -0.09004495 -0.041314933
0.08466638 -7.872115e-11 0.046220038 0.017840466 -0.0065403744 -1.6465122e-10 -3.4551617e-10 -1.2335964e-10
2.495592e-10 -1.5659582e-10 1.09896856e-10 -0.0075063733 2.5341907e-11 8.6654184e-11 -3.9000633e-10 -3.0352006e-11
4.865018e-11 2.0917172e-10 -2.0360667e-10 -1.5201891e-10 1.7149641e-10 -1.9803055e-10 -2.7454365e-12 -2.8964015e-10
-1.7560732e-10 4.374014e-10 -2.2169408e-10 -1.6730588e-10 -1.6576876e-10 5.895234e-11 4.548062e-11 -4.9303933e-10
1.7652102e-10 1.13181485e-10 -4.565333e-11 -1.4762293e-10 -1.7390328e-10 1.0564475e-10 3.0970082e-10 -5.8360944e-10
-0.084230214 -0.00830303 0.16575184 0.06390222 1.04119e-10 -1.071048e-10 1.1120907e-10 2.758707e-10
3.8241377e-10 5.992149e-11 0.037770454 0.12510566 -0.01759443 -0.14921299 1.3698537e-11 1.4469402e-10
-1.5244986e-11 -0.019725133 -0.0007541557 0.20939079 0.017003486 -0.05825256 -1.5589839e-10 -1.7838489e-10
0.0718748 0.07354208 0.02340158 -0.025063982 -0.08492876 -9.342823e-11 0.01848313 0.09064045
-0.05756384 0.004078947 0.2499438 -3.8080348e-11 0.06331231 0.057423376 0.016989969 1.4355597e-11
3.2101324e-10 2.4405875e-10 -7.223674e-11 4.3344547e-11 -1.6428268e-10 -0.0040243114 2.4723185e-10 -1.859821e-10
-2.1932196e-10 -4.1215664e-10 -1.3950736e-10 -3.9657604e-11 2.0598258e-10 3.5133488e-10 -1.00246885e-11 -3.791193e-11
-1.5741312e-10 -2.96606e-10 -2.742761e-11 1.6146039e-10 -3.8053438e-10 -1.5717365e-10 2.3066772e-11 -1.4762258e-10
00000000: e721 1d3d 19a0 6e3c d70a 97bd 02c4 ebbc
00000010: 3f06 763b ba8c f3af cba3 ab3c 2fab f3bb
00000020: a673 6ebc fdea 5faf 4207 34af 2552 bbae
00000030: 1e12 9f2f fe65 31af d2cf b7af 922a d3bc
00000040: 86c8 1faf 389e 48af 420e 4daf 5aa1 492f
00000050: 8ba8 34af 9424 b7af 6cfc a4af fce7 4d2f
00000060: 63e3 77af b15d 46ae 8790 70af 5e60 242f
00000070: 18b0 012e 8bf1 882e 4376 4aae a5dd 35af
00000080: 5964 16af 29ed 79af 7be0 832f 793b 90af
00000090: 0d7d b8ab fa2d a9af fcbc 8a2f bd21 55af
000000a0: 9dcd 9a2f 8176 342f b2b3 e7ae 9ab5 7faf
000000b0: e9ef e3bc 04bf bbb8 eb43 cb3c 65d9 663d
000000c0: ed8a b12f b756 1bae 1d02 df2f 4ea8 992e
000000d0: 0f08 2caf 4904 102d d34c b53c c994 6ebc
000000e0: a4c5 c23c ffea f3bc fa0f 95af 5cc7 8fae
000000f0: 32f6 03b0 f5f9 65bb e03f 0d3a 582b 043e
00000100: 72d4 f7bb a7c6 39bd 23cf 472f b704 eaaf
00000110: 064e d7ba 248d 453c 92b4 4bbc b7a6 e83b
00000120: 7536 40bd a242 3d2f 3bae eebd 5fc0 4dbc
00000130: 3fa6 2a3e 70a9 843d e148 61bd 7e70 9e2e
00000140: 720c 30bd 07bf 41bd 8723 ddbb a11e 30af
00000150: 35bf 002f 378b 35af d675 892f 28db a02d
00000160: 4741 8a2f 7b95 653c d7ef 892f 75cf c12f
00000170: 20cb 2c2f 6dac 6b2f ce97 ee2e 6357 9fae
00000180: 1b8e 74ae c43b 4daf 105f f12e e8fe d7ae
00000190: 9b4c 252f b610 712d 2ddd a5af 6fd3 49af
000001a0: 7ef4 9b2d e969 3faf c53a d3ae f864 102f
000001b0: da82 24af 6875 59af fd11 c72f 3b29 4a2f
000001c0: 19a9 1e2f e9d4 32af 3423 2eaf 13de 28af
000001d0: a895 402f 7a56 39af c4a0 1c3d 6519 d0bd
000001e0: 78c7 dcbd 426e 22be fee3 142f 5417 8aaf
000001f0: f891 a62f 8956 292f 7903 242f b849 1aaf
00000200: a89e 10bd 27c2 fc3d 3cbb 22be d2cb d53d
00000210: fdc6 33af 12eb 59af e4de 74af ccfb 553c
00000220: 316d 6336 df35 f4bc 07c4 7e3c beb3 d2bc
00000230: a437 a52e b655 38af b681 cebd 4605 9fbd
00000240: 9c41 ab3d 8806 3bbe 6020 f43c 9f87 50af
00000250: c994 de3d a898 053d 7d69 b8bd d939 29bd
00000260: 9165 ad3d 111c adae 3951 3d3d 2b26 923c
00000270: a350 d6bb 3309 35af 14f3 bdaf a7a2 07af
00000280: 5632 892f ce2d 2caf 6eaa f12e 06f8 f5bb
00000290: e7e8 de2d f88d be2e 8368 d6af 527d 05ae
000002a0: 3cf7 552e 9bfc 652f 2fde 5faf 8525 27af
000002b0: f38f 3c2f a5bc 59af 6331 41ac 3a3b 9faf
000002c0: 1115 41af c676 f02f 56c1 73af 6bf4 37af
000002d0: c243 36af 38a3 812e a006 482e 8f86 07b0
000002e0: 4016 422f 83e3 f82e 14c9 48ae 2950 22af
000002f0: 6c35 3faf b550 e82e 8442 aa2f dd6b 20b0
00000300: e480 acbd 6f09 08bc daba 293e 2bdf 823d
00000310: c9f5 e42e a486 ebae 248d f42e 59a9 972f
00000320: f43b d22f cdc4 832e 31b5 1a3d b31b 003e
00000330: 3222 90bc 4acb 18be bafc 702d bf17 1f2f
00000340: a818 86ad 9a96 a1bc 88b2 45ba 8a6a 563e
00000350: e54a 8b3c 3d9a 6ebd 7f69 2baf e222 44af
00000360: 1833 933d 3b9d 963d acb4 bf3c fb52 cdbc
00000370: 21ef adbd 6b73 cdae ef69 973c b3a1 b93d
00000380: 10c8 6bbd b0a8 853b 44f1 7f3e a97a 27ae
00000390: e2a9 813d c634 6b3d 8c2e 8b3c dc8b 7c2d
000003a0: 997a b02f 372c 862f abd9 9eae 9fa1 3e2e
000003b0: 77a1 34af 5fde 83bb caea 872f 4f7d 4caf
000003c0: a525 71af e495 e2af d563 19af 7e6a 2eae
000003d0: f17a 622f fd25 c12f 2f5b 30ad 0abd 26ae
000003e0: db13 2daf 950f a3af 7d41 f1ad 0f87 312f
000003f0: 7433 d1af 73d0 2caf c1e5 ca2d 1050 22af

gnn.gnn_layers.1.gat_conv.attn_l f4 [1, 6, 32]
-0.022972941 0.03872829 -0.12442192 -0.10551783 0.10360216 -0.056199767 0.13526814 -0.06547106
0.08761788 -0.040538836 0.056754008 -0.10768705 -0.094757505 -0.053041976 -0.11060285 -0.08314046
0.07065144 -0.012256294 0.0336435 -0.0047961185 0.09331182 0.033264957 0.06944332 0.03525566
0.067843065 -0.08426916 -0.01394188 0.07562985 0.19237556 -0.07206489 -0.094589174 -0.04373047
-0.011964119 0.11731175 0.0030339519 -0.080661185 -0.059852365 -0.14986788 0.09327423 -0.09315515
0.05234613 -0.028608318 -0.008112712 -0.15131836 0.056824528 -0.16408537 -0.16482118 0.044964083
-0.113284014 0.12530462 0.10995623 -0.04820479 0.09926212 0.013310352 0.11974743 0.047483254
0.023086105 -0.05450007 0.12007126 0.030650416 0.1536812 -0.16590796 -0.027158586 -0.042415734
-0.18106316 0.36191154 -0.23186195 -0.04135129 0.011544306 -0.43207574 0.18233766 -0.23243521
0.054800447 -0.12480301 -0.056330524 0.11681225 0.041412074 -0.19702734 -0.10832008 0.10365943
-0.0047710184 0.14483024 0.14947364 -0.013075273 0.34863162 0.16182342 0.18334 0.17801133
-0.20531657 -0.24422698 0.14436807 0.24268569 -0.0630777 -0.3388953 -0.28938025 -0.21451057
0.07929746 0.060424346 0.36220267 -0.031007614 -0.10119982 -0.053787738 0.047535155 0.1244352
0.02155251 0.032703012 0.0051540243 0.042476095 0.13455184 -0.027371248 0.03464074 0.1967822
-0.03650798 -0.0155339455 -0.060474984 0.061641157 0.025849292 -0.043692134 0.060858198 0.06534498
0.10264737 0.055784017 -0.09499929 0.0026345633 0.09196701 -0.05284493 -0.06539606 0.11667968
0.018074274 -0.17239468 0.1750207 0.22125663 0.16614585 0.073438115 0.02202254 0.106723435
-0.12691297 0.002534585 -0.036549848 0.07061943 -0.18284123 0.14895241 0.11701701 -0.109215036
0.023073299 -0.112939276 -0.15628898 -0.096147105 -0.1510522 -0.013136549 -0.07224659 -0.007502293
-0.10287182 0.14902613 -0.06127889 -0.1035433 -0.08977964 -0.06587693 0.18226121 0.04951025
0.30170894 -0.18557866 0.16659012 0.1015944 -0.028127924 0.021753872 -0.008913239 0.12707415
0.013424893 0.0114906505 -0.09703941 0.05289048 0.082784496 -0.03747438 -0.072054684 0.22172615
0.35731006 0.011617424 -0.17803754 -0.057597756 -0.17048736 -0.018814512 0.06991941 0.068150915
0.007215999 0.12546702 -0.14783676 -0.1361051 0.04728313 -0.0023097668 0.07520636 0.23693043
00000000: c031 bcbc 8ea1 1e3d ebd0 febd bb19 d8bd
00000010: 5f2d d43d ba31 66bd bb83 0a3e b115 86bd
00000020: 0171 b33d 0d0c 26bd e476 683d 078b dcbd
00000030: 3910 c2bd 8b42 59bd bf83 e2bd 8c45 aabd
00000040: b4b1 903d 9fce 48bc c4cd 093d c228 9dbb
00000050: 441a bf3d d640 083d 4d38 8e3d 3d68 103d
00000060: 4ef1 8a3d 4f95 acbd 7c6c 64bc d3e3 9a3d
00000070: 19fe 443e c296 93bd f8b7 c1bd b91e 33bd
00000080: 2705 44bc 2541 f03d 44d5 463b b131 a5bd
00000090: c127 75bd f776 19be 8f06 bf3d 21c8 bebd
000000a0: e568 563d fe5b eabc 2eeb 04bc 33f3 1abe
000000b0: d6c0 683d ff05 28be e2c6 28be 422c 383d
000000c0: 7301 e8bd db4f 003e bb30 e13d 6372 45bd
000000d0: f049 cb3d aa13 5a3c 243e f53d cd7d 423d
000000e0: 121f bd3c 773b 5fbd ece7 f53d 9516 fb3c
000000f0: 9b5e 1d3e c7e3 29be af7b debc 1fbc 2dbd
00000100: 9f68 39be 784c b93e 386d 6dbe f85f 29bd
00000110: 5424 3d3c 0839 ddbe b9b6 3a3e 7f03 6ebe
00000120: 6f76 603d b898 ffbd d6ba 66bd 433b ef3d
00000130: b59f 293d 89c1 49be ebd6 ddbd 654b d43d
00000140: 3456 9cbb 614e 143e 9e0f 193e ab39 56bc
00000150: d87f b23e 0ab5 253e 7bbd 3b3e 9a48 363e
00000160: 823e 52be a316 7abe 39d5 133e 9982 783e
00000170: e22e 81bd af83 adbe a629 94be a9a8 5bbe
00000180: b566 a23d 857f 773d a172 b93e ae03 febc
00000190: da41 cfbd 8850 5cbd 39b4 423d e2d7 fe3d
000001a0: e48e b03c 98f3 053d 17e3 a83b 6afb 2d3d
000001b0: f5c7 093e ab39 e0bc 73e3 0d3d 4681 493e
000001c0: 6489 15bd 1782 7ebc 9eb4 77bd 707b 7c3d
000001d0: e5c1 d33c 86f6 32bd 7246 793d 97d3 853d
000001e0: c938 d23d c87d 643d fd8e c2bd a3a8 2c3b
000001f0: 3359 bc3d ed73 58bd 5fee 85bd c2f5 ee3d
00000200: 8010 943c 3b88 30be a038 333e 1991 623e
00000210: 2322 2a3e b966 963d 9d68 b43c d191 da3d
00000220: 79f5 01be 481b 263b 4bb5 15bd eba0 903d
00000230: bb3a 3bbe fb86 183e 9da6 ef3d 22ac dfbd
00000240: 3704 bd3c b54c e7bd 380a 20be c6e8 c4bd
00000250: 6ead 1abe ae3a 57bc 05f6 93bd ccd5 f5bb
00000260: 76ae d2bd 4e9a 183e 93ff 7abd 820e d4bd
00000270: 63de b7bd 7cea 86bd afa2 3a3e 43cb 4a3d
00000280: 9879 9a3e 5508 3ebe 9a96 2a3e ba10 d03d
00000290: 886c e6bc 2d35 b23c d608 12bc ba1f 023e
000002a0: 15f4 5b3c 4843 3c3c 99bc c6bd b0a3 583d
000002b0: eb8a a93d bc7e 19bd 6891 93bd 2e0c 633e
000002c0: 58f1 b63e 0257 3e3c 794f 36be a0eb 6bbd
000002d0: 3d94 2ebe e420 9abc e831 8f3d b592 8b3d
000002e0: 3074 ec3b 6d7a 003e 8562 17be 235f 0bbe
000002f0: f5ab 413d 755f 17bb cb05 9a3d e49d 723e

gnn.gnn_layers.1.gat_conv.attn_r f4 [1, 6, 32]
-0.04576147 0.07542527 -0.1765352 -0.06865228 0.103655055 -0.011424356 0.09998621 -0.13211574
0.07526469 -0.041123193 0.02818097 -0.040352248 -0.037941653 -0.07265748 -0.0108326785 -0.037500765
0.1669926 0.0105979545 -0.0003846725 -0.02114422 0.1300811 0.05081646 0.04282091 -0.0062693106
0.044041805 -0.058649242 0.04700204 0.057520844 0.053887986 0.010315197 -0.09067588 -0.00023295685
0.016124403 0.05623682 0.067177035 0.09189065 0.01707355 0.0013801373 0.054348223 0.0032859754
-0.0376623 -0.0026741894 -0.051089786 0.0044364333 -0.054675452 -0.009712705 -0.0048050373 -0.070673786
0.06229068 -0.0062282826 0.025131226 0.028522298 0.04784268 -0.006611186 0.028864259 0.0030940122
0.017250968 -0.009131033 0.013856551 -0.07941308 -0.046862464 -0.02052468 0.005260017 0.011774476
0.047265586 0.20833035 -0.09639681 0.18703584 -0.0010806798 -0.018960994 -0.030383648 -0.07060434
0.023915384 -0.015796553 -0.1383307 0.08618833 0.10437534 -0.04168718 -0.09924283 0.08546764
0.27020136 0.10639261 -0.02964327 0.059602946 0.11509895 0.06689015 0.06563494 -0.1024017
-0.040209778 -0.058535915 0.13065825 -0.012908786 -0.042573992 0.088165775 0.09392309 -0.031833384
0.08343368 -0.17306282 0.23722786 0.0810584 0.06840271 -0.03201724 -0.043283843 0.087258056
-0.07195617 0.014058441 0.063263796 -0.04887023 -0.058556736 0.017894192 0.009825123 0.050388284
-0.086550586 -0.15080664 -0.18947576 -0.094244346 -0.039786983 -0.10111753 -0.047679223 0.00058539584
0.12575342 0.050044097 -0.19116122 -0.029374098 0.14464085 -0.06356659 -0.058892798 0.12429637
-0.04374433 -0.17362966 0.080262214 0.1303634 0.05684658 -0.1346091 0.086751 0.0019426835
-0.07721349 -0.0012911094 -0.04042138 0.07207605 -0.09294077 0.034936056 -0.013400905 -0.05799451
0.0013000896 0.011640374 -0.1642039 -0.08434877 -0.0744181 0.007643962 -0.032161318 0.04769884
-0.08100517 0.12010508 0.008777121 -0.012535748 -0.0658016 -0.06196812 0.05672637 -0.03822878
0.08186988 -0.15958743 0.1596674 0.11547697 -0.1357797 0.13731463 -0.13110286 0.19832121
-0.025749473 0.027978906 -0.06407313 0.027681116 0.18175639 -0.0072503076 -0.03532603 0.07706946
0.120612584 0.13826552 -0.036973577 -0.032543983 -0.12949048 -0.049716145 -0.03280124 -0.0062256292
-0.0020425932 -0.039200738 -0.0712474 -0.101435415 -0.01217887 -0.042867184 0.16989827 0.09234216
00000000: 6170 3bbd 9078 9a3d a5c5 34be 9199 8cbd
00000010: 1a49 d43d 392d 3bbc 92c5 cc3d 5949 07be
00000020: 6024 9a3d cb70 28bd c7db e63c 6648 25bd
00000030: b568 1bbd 72cd 94bd 8c7b 31bc 679a 19bd
00000040: 1c00 2b3e 0ba3 2d3c dead c9b9 a536 adbc
00000050: fb33 053e ec24 503d fb64 2f3d ca6e cdbb
00000060: 2e65 343d 303a 70bd 3685 403d fa9a 6b3d
00000070: a6b9 5c3d 1201 293c 47b4 b9bd e145 74b9
00000080: 5317 843c 9458 663d 1d94 893d 2a31 bc3d
00000090: d4dd 8b3c b9e5 b43a 3e9c 5e3d 8559 573b
000000a0: c943 1abd 7441 2fbb 8643 51bd 805f 913b
000000b0: 5ef3 5fbd 0a22 1fbc 9373 9dbb 6bbd 90bd
000000c0: 8324 7f3d 9f16 ccbb 00e0 cd3c 98a7 e93c
000000d0: b0f6 433d a6a2 d8bb bd74 ec3c e9c4 4a3b
000000e0: e751 8d3c 549a 15bc 9606 633c 53a3 a2bd
000000f0: dbf2 3fbd 6023 a8bc 385c ac3b bbe9 403c
00000100: 8f99 413d 8d54 553e b16b c5bd 5386 3f3e
00000110: 99a5 8dba 1654 9bbc 21e7 f8bc 0299 90bd
00000120: 32ea c33c c667 81bc 90a6 0dbe 8283 b03d
00000130: bdc2 d53d 2dc0 2abd d33f cbbd a809 af3d
00000140: d557 8a3e 5ee4 d93d 71d6 f2bc 3822 743d
00000150: 00b9 eb3d b4fd 883d 9d6b 863d fcb7 d1bd
00000160: 02b3 24bd 5bc3 6fbd 47cb 053e 5f7f 53bc
00000170: 1162 2ebd 4290 b43d c05a c03d b963 02bd
00000180: 47df aa3d 6137 31be dceb 723e f201 a63d
00000190: b816 8c3d 8224 03bd 664a 31bd 5ab4 b23d
000001a0: c25d 93bd 6055 663c 7390 813d 262c 48bd
000001b0: 30d9 6fbd d796 923c 8df9 203c f263 4e3d
000001c0: 6f41 b1bd 0e6d 1abe ef05 42be 2e03 c1bd
000001d0: adf7 22bd b516 cfbd 4a4b 43bd 4075 193a
000001e0: 81c5 003e 0afb 4c3d c4bf 43be f3a1 f0bc
000001f0: bb1c 143e 332f 82bd 9339 71bd 188f fe3d
00000200: 412d 33bd f9cb 31be 8460 a43d fc7d 053e
00000210: f6d7 683d f8d6 09be 82aa b13d a4a1 fe3a
00000220: 1b22 9ebd 713a a9ba e490 25bd 9c9c 933d
00000230: bb57 bebd 1c19 0f3d 788f 5bbc a78b 6dbd
00000240: c567 aa3a 44b7 3e3c 1125 28be 0cbf acbd
00000250: 8468 98bd 337a fa3b 96bb 03bd dc5f 433d
00000260: 0ae6 a5bd a7f9 f53d eacd 0f3c bd62 4dbc
00000270: fdc2 86bd 49d2 7dbd e959 683d c895 1cbd
00000280: 65ab a73d e36a 23be da7f 233e 317f ec3d
00000290: d509 0bbe 359c 0c3e d43f 06be b714 4b3e
000002a0: 8ff0 d2bc 0534 e53c c638 83bd 82c3 e23c
000002b0: 591e 3a3e fd93 edbb 07b2 10bd 98d6 9d3d
000002c0: bb03 f73d 7a95 0d3e 9b71 17bd d74c 05bd
000002d0: 2799 04be 28a3 4bbd 985a 06bd 5d00 ccbb
000002e0: 07dd 05bb f490 20bd 28ea 91bd 5fbd cfbd
000002f0: e289 47bc 8095 2fbd d0f9 2d3e e31d bd3d

gnn.gnn_layers.1.gat_conv.bias f4 [192]
0.021027798 -0.045970824 -0.02319817 0.06022987 -0.008617827 -0.005384255 -0.035109006 0.04206791
0.055931944 0.05492987 0.04631254 0.0051974086 -0.033886936 0.049910396 0.114528924 0.008216584
-0.022201462 -0.10802074 -0.08309176 0.032956824 -0.024536705 -0.091445886 -0.06049687 -0.030324148
0.09469794 -0.0019423104 -0.08528834 -0.013870155 -0.032051917 0.0010039374 0.00830211 0.08085135
0.021027798 -0.045970824 -0.02319817 0.06022987 -0.008617827 -0.005384255 -0.035109006 0.04206791
0.055931944 0.05492987 0.04631254 0.0051974086 -0.033886936 0.049910396 0.114528924 0.008216584
-0.022201462 -0.10802074 -0.08309176 0.032956824 -0.024536705 -0.091445886 -0.06049687 -0.030324148
0.09469794 -0.0019423104 -0.08528834 -0.013870155 -0.032051917 0.0010039374 0.00830211 0.08085135
0.021027798 -0.045970824 -0.02319817 0.06022987 -0.008617827 -0.005384255 -0.035109006 0.04206791
0.055931944 0.05492987 0.04631254 0.0051974086 -0.033886936 0.049910396 0.114528924 0.008216584
-0.022201462 -0.10802074 -0.08309176 0.032956824 -0.024536705 -0.091445886 -0.06049687 -0.030324148
0.09469794 -0.0019423104 -0.08528834 -0.013870155 -0.032051917 0.0010039374 0.00830211 0.08085135
0.021027798 -0.045970824 -0.02319817 0.06022987 -0.008617827 -0.005384255 -0.035109006 0.04206791
0.055931944 0.05492987 0.04631254 0.0051974086 -0.033886936 0.049910396 0.114528924 0.008216584
-0.022201462 -0.10802074 -0.08309176 0.032956824 -0.024536705 -0.091445886 -0.06049687 -0.030324148
0.09469794 -0.0019423104 -0.08528834 -0.013870155 -0.032051917 0.0010039374 0.00830211 0.08085135
0.021027798 -0.045970824 -0.02319817 0.06022987 -0.008617827 -0.005384255 -0.035109006 0.04206791
0.055931944 0.05492987 0.04631254 0.0051974086 -0.033886936 0.049910396 0.114528924 0.008216584
-0.022201462 -0.10802074 -0.08309176 0.032956824 -0.024536705 -0.091445886 -0.06049687 -0.030324148
0.09469794 -0.0019423104 -0.08528834 -0.013870155 -0.032051917 0.0010039374 0.00830211 0.08085135
0.021027798 -0.045970824 -0.02319817 0.06022987 -0.008617827 -0.005384255 -0.035109006 0.04206791
0.055931944 0.05492987 0.04631254 0.0051974086 -0.033886936 0.049910396 0.114528924 0.008216584
-0.022201462 -0.10802074 -0.08309176 0.032956824 -0.024536705 -0.091445886 -0.06049687 -0.030324148
0.09469794 -0.0019423104 -0.08528834 -0.013870155 -0.032051917 0.0010039374 0.00830211 0.08085135
00000000: 7d42 ac3c e74b 3cbd 170a bebc 99b3 763d
00000010: c931 0dbc 686e b0bb 76ce 0fbd 674f 2c3d
00000020: e518 653d 25fe 603d 38b2 3d3d 064f aa3b
00000030: 07cd 0abd d86e 4c3d 248e ea3d da9e 063c
00000040: d7df b5bc fa39 ddbd 032c aabd bcfd 063d
00000050: 3301 c9bc fb47 bbbd 91cb 77bd 596a f8bc
00000060: fef0 c13d 1f95 feba a7ab aebd a63f 63bc
00000070: df48 03bd 8d96 833a 9305 083c 6595 a53d
00000080: 7d42 ac3c e74b 3cbd 170a bebc 99b3 763d
00000090: c931 0dbc 686e b0bb 76ce 0fbd 674f 2c3d
000000a0: e518 653d 25fe 603d 38b2 3d3d 064f aa3b
000000b0: 07cd 0abd d86e 4c3d 248e ea3d da9e 063c
000000c0: d7df b5bc fa39 ddbd 032c aabd bcfd 063d
000000d0: 3301 c9bc fb47 bbbd 91cb 77bd 596a f8bc
000000e0: fef0 c13d 1f95 feba a7ab aebd a63f 63bc
000000f0: df48 03bd 8d96 833a 9305 083c 6595 a53d
00000100: 7d42 ac3c e74b 3cbd 170a bebc 99b3 763d
00000110: c931 0dbc 686e b0bb 76ce 0fbd 674f 2c3d
00000120: e518 653d 25fe 603d 38b2 3d3d 064f aa3b
00000130: 07cd 0abd d86e 4c3d 248e ea3d da9e 063c
00000140: d7df b5bc fa39 ddbd 032c aabd bcfd 063d
00000150: 3301 c9bc fb47 bbbd 91cb 77bd 596a f8bc
00000160: fef0 c13d 1f95 feba a7ab aebd a63f 63bc
00000170: df48 03bd 8d96 833a 9305 083c 6595 a53d
00000180: 7d42 ac3c e74b 3cbd 170a bebc 99b3 763d
00000190: c931 0dbc 686e b0bb 76ce 0fbd 674f 2c3d
000001a0: e518 653d 25fe 603d 38b2 3d3d 064f aa3b
000001b0: 07cd 0abd d86e 4c3d 248e ea3d da9e 063c
000001c0: d7df b5bc fa39 ddbd 032c aabd bcfd 063d
000001d0: 3301 c9bc fb47 bbbd 91cb 77bd 596a f8bc
000001e0: fef0 c13d 1f95 feba a7ab aebd a63f 63bc
000001f0: df48 03bd 8d96 833a 9305 083c 6595 a53d
00000200: 7d42 ac3c e74b 3cbd 170a bebc 99b3 763d
00000210: c931 0dbc 686e b0bb 76ce 0fbd 674f 2c3d
00000220: e518 653d 25fe 603d 38b2 3d3d 064f aa3b
00000230: 07cd 0abd d86e 4c3d 248e ea3d da9e 063c
00000240: d7df b5bc fa39 ddbd 032c aabd bcfd 063d
00000250: 3301 c9bc fb47 bbbd 91cb 77bd 596a f8bc
00000260: fef0 c13d 1f95 feba a7ab aebd a63f 63bc
00000270: df48 03bd 8d96 833a 9305 083c 6595 a53d
00000280: 7d42 ac3c e74b 3cbd 170a bebc 99b3 763d
00000290: c931 0dbc 686e b0bb 76ce 0fbd 674f 2c3d
000002a0: e518 653d 25fe 603d 38b2 3d3d 064f aa3b
000002b0: 07cd 0abd d86e 4c3d 248e ea3d da9e 063c
000002c0: d7df b5bc fa39 ddbd 032c aabd bcfd 063d
000002d0: 3301 c9bc fb47 bbbd 91cb 77bd 596a f8bc
000002e0: fef0 c13d 1f95 feba a7ab aebd a63f 63bc
000002f0: df48 03bd 8d96 833a 9305 083c 6595 a53d

gnn.gnn_layers.1.gat_conv.fc.weight f4 [192, 192]
0.019496586 -0.035771195 0.004442206 -0.04505898 -0.019134933 0.031626564 -0.01071959 -0.009607294
-0.0064644953 -0.04030076 -0.003089412 -0.043397754 0.0039847144 0.0703546 0.007142855 -0.024635406
0.039744824 0.04325562 -0.0370329 0.034974758 -0.0076466026 -0.016727043 -0.03501604 -0.0012574531
-0.012617873 0.020589529 -0.017456757 -0.012078809 -0.00024626104 -0.018963559 -0.0011318459 0.0077951867
0.055744916 -0.014647686 -0.052778848 -0.06362913 0.011165416 0.017552044 0.074266806 0.100383125
-0.039201602 -0.0063184965 -0.0050491127 -0.021524876 -0.10794048 0.04929681 -0.04601949 -0.009895523
0.02510334 -0.08216134 0.0061618085 0.0016189987 -0.06572986 -0.011090627 -0.020991376 -0.003725855
0.0012478299 -0.067782804 -0.0024616811 -0.049884036 0.007263741 0.132443 0.15325657 -0.08833695
0.002723451 -0.06043519 0.06342225 0.037570864 0.0108602615 0.004351269 0.0016364615 0.012176901
0.04840146 0.052123137 -0.039002214 -0.031285606 0.011978649 0.0031714966 0.0104846535 -0.061802648
-0.060819823 -0.028313536 0.016862148 -0.089743435 -0.010700699 -0.0009183443 -0.008107054 -0.013780261
-0.0049507488 -0.006250059 -0.04022015 0.021375416 -0.05840494 -0.026675172 0.04273455 0.008074474
-0.0038377214 0.011460094 -0.024012376 -0.03664745 -0.025421968 0.05010503 0.03788814 -0.003423704
0.0034088618 -0.012926139 -0.004570677 -0.0124804685 -0.029431919 -0.0019937404 -0.04761886 -0.02281786
-0.006546625 -0.026660647 0.011986768 -0.0081296135 0.0023305311 -0.0028698924 0.05555437 0.022653354
0.0008410295 -0.012431374 -0.0027062388 -0.082598075 0.017215429 -0.020275878 -0.03453239 0.034056444
-0.008870347 -0.014763735 -0.00093052216 0.032308273 -0.06648221 0.01069832 -0.035125893 0.0048284256
-0.0796974 0.01700519 0.047356896 -0.018953504 0.019064223 0.021514658 -0.008492108 0.01652738
0.043990873 -0.014039528 -0.020696236 -0.0037415533 -0.008033208 0.0101394495 0.025816826 0.027890997
-0.001434753 -0.00464914 -0.0068687545 -0.0029677062 -0.0031691508 0.012323782 0.038662914 -0.011577913
0.046328604 0.0063737174 -0.01681749 -0.01671043 -0.036362823 0.018021792 0.056467026 0.01074385
-0.030329267 -0.009249823 -0.001316104 -0.121885166 -0.012694544 0.038875334 0.011723935 -0.015078307
-0.022185775 0.02153009 0.004785253 0.032562777 -0.008280682 -0.013168496 -0.036008436 -0.06699871
-0.011804669 0.014454803 -0.040649936 0.0014245972 0.05518096 -0.004065432 0.015822878 -0.008775631
-0.014899723 -0.024123862 -0.034905136 0.13628954 0.10189403 -0.027493758 -0.0101937065 0.030971404
-0.04044379 -0.024916569 0.0056790244 -0.08942733 -0.002759591 0.09990938 0.011547132 0.015194951
0.031723198 0.0066422424 0.022349583 0.06264091 0.004787115 0.027662806 -0.015084576 0.04767021
-0.011672143 0.027275074 0.0036256313 0.02673723 0.0149852885 -0.09308253 0.049691185 0.012106552
0.011725553 0.068932556 -0.028896032 0.02928752 0.018359896 -0.10730709 -0.06011379 -0.030931415
0.010669469 -0.008787515 -0.043794747 0.04671359 0.10644983 -0.0664087 0.06647686 -0.019279331
-0.01046272 0.032272484 -0.039909184 0.0022818744 0.099209785 0.014951694 0.028892424 0.02638533
-0.0006548198 0.05170081 0.014392968 0.056760393 -0.050842434 -0.13151665 -0.10963796 0.030793937
00000000: 4eb7 9f3c d184 12bd ed8f 913b c48f 38bd
00000010: ddc0 9cbc db8a 013d 38a1 2fbc e967 1dbc
00000020: 1ed4 d3bb 6912 25bd bc77 4abb d8c1 31bd
00000030: 3592 823b 1316 903d 9c0e ea3b 31d0 c9bc
00000040: 78cb 223d ce2c 313d cfaf 17bd b141 0f3d
00000050: 5a90 fabb 2707 89bc fb6c 0fbd 20d1 a4ba
00000060: 32bb 4ebc 5fab a83c 7901 8fbc 32e6 45bc
00000070: 991c 81b9 7759 9bbc 725a 94ba c46e ff3b
00000080: c854 643d d9fc 6fbc a22e 58bd fd4f 82bd
00000090: 26ef 363c 4ec9 8f3c 3219 983d ab95 cd3d
000000a0: dc91 20bd 640b cfbb 0773 a5bb f054 b0bc
000000b0: e60f ddbd 74eb 493d ef7e 3cbd d520 22bc
000000c0: 85a5 cd3c 3444 a8bd ffe8 c93b 9534 d43a
000000d0: 609d 86bd 76b5 35bc 1bf6 abbc 792d 74bb
000000e0: 398e a33a b6d1 8abd 2854 21bb 3453 4cbd
000000f0: ad04 ee3b 239f 073e 4aef 1c3e 01ea b4bd
00000100: ed7b 323b e48a 77bd 86e3 813d e8e3 193d
00000110: 3def 313c 1795 8e3b 897e d63a a081 473c
00000120: 9c40 463d 127f 553d c9c0 1fbd 5625 00bd
00000130: 1842 443c e2d8 4f3b d3c7 2b3c c624 7dbd
00000140: 351e 79bd caf1 e7bc 7d22 8a3c 68cb b7bd
00000150: fc51 2fbc 0bbd 70ba 73d3 04bc 9bc6 61bc
00000160: e439 a2bb 4ccd ccbb e2bd 24bd 7f1b af3c
00000170: 053a 6fbd e485 dabc 6c0a 2f3d cc4a 043c
00000180: 4882 7bbb 1ec3 3b3c 9ab5 c4bc a31b 16bd
00000190: bb41 d0bc ef3a 4d3d 9830 1b3d 3960 60bb
000001a0: 3667 5f3b 28c8 53bc 9ec5 95bb e17a 4cbc
000001b0: 351b f1bc 6aa9 02bb fe0b 43bd 85ec babc
000001c0: 1285 d6bb 6e67 dabc 2664 443c 1232 05bc
000001d0: d3bb 183b ce14 3cbb fb8c 633d 8793 b93c
000001e0: 8978 5c3a f6ac 4bbc 275b 31bb 2e29 a9bd
000001f0: 5f07 8d3c 9919 a6bc d671 0dbd c57e 0b3d
00000200: ef54 11bc 98e3 71bc 49ee 73ba ae55 043d
00000210: d327 88bd 0248 2f3c 2be0 0fbd c537 9e3b
00000220: 6438 a3bd 784e 8b3c 4ef9 413d 6144 9bbc
00000230: 932c 9c3c 823f b03c 7c22 0bbc 6e64 873c
00000240: c62f 343d 0c06 66bc 278b a9bc d934 75bb
00000250: b79d 03bc ef1f 263c cf7d d33c a97b e43c
00000260: 520e bcba d057 98bb 4a13 e1bb d97d 42bb
00000270: 87b1 4fbb b0e9 493c 015d 1e3d 49b1 3dbc
00000280: 10c3 3d3d 9eda d03b d5c4 89bc 50e4 88bc
00000290: 2ff1 14bd 70a2 933c f849 673d f906 303c
000002a0: 1575 f8bc 928c 17bc 1f81 acba ee9e f9bd
000002b0: c7fc 4fbc be3b 1f3d bf15 403c 010b 77bc
000002c0: f1be b5bc df5f b03c 9dcd 9c3b 8c60 053d
000002d0: b3ab 07bc adc0 57bc 957d 13bd 9f36 89bd
000002e0: 5f68 41bc d7d3 6c3c 8c80 26bd 8db9 ba3a
000002f0: 6e05 623d 5137 85bb fb9e 813c aac7 0fbc
00000300: f81d 74bc 689f c5bc b0f8 0ebd 7c8f 0b3e
00000310: d1ad d03d 973a e1bc 8103 27bc beb7 fd3c
00000320: 63a8 25bd d51d ccbc 1c17 ba3b ad25 b7bd
00000330: 41da 34bb 4a9d cc3d 2f30 3d3c 3ef4 783c
00000340: 2ff0 013d 2ba7 d93b 7916 b73c e149 803d
00000350: 3bdd 9c3b 1c9d e23c 4c25 77bc d741 433d
00000360: 843c 3fbc fa6f df3c 009c 6d3b 0908 db3c
00000370: db84 753c 0ea2 bebd fc88 4b3d 8f5a 463c
00000380: 891c 403c 832c 8d3d 5fb7 ecbc 62ec ef3c
00000390: 7e67 963c d2c3 dbbd e139 76bd e163 fdbc
000003a0: ffce 2e3c 82f9 0fbc 1f62 33bd c056 3f3d
000003b0: 5e02 da3d 4901 88bd 0525 883d b0ef 9dbc
000003c0: d46b 2bbc 2730 043d d077 23bd 808b 153b
000003d0: 802e cb3d f3f7 743c ceaf ec3c 0c26 d83c
000003e0: 37a8 2bba 3bc4 533d 7cd0 6b3c 967d 683d
000003f0: 2840 50bd 4dac 06be de89 e0bd 9143 fc3c

readout.weight_and_sum.atom_weighting.0.weight f4 [1, 32]
0.28701386 -0.28531736 0.11454695 0.4101281 -0.0013435447 0.5337217 -0.12954524 0.38806802
-0.14295411 0.023537837 -0.32467318 0.029722985 -0.12496 0.22607715 -0.11676001 -0.32637024
-0.00980223 -0.12651648 0.21299815 0.011854653 -0.050245482 -0.049533986 -0.12164468 -0.19101118
-0.22605549 0.2088339 -0.08359399 -0.27867097 -0.102030694 -0.05546731 0.38096884 -0.0035863495
00000000: 7bf3 923e 1e15 92be 9797 ea3d 4ffc d13e
00000010: e119 b0ba fca1 083f 82a7 04be dab0 c63e
00000020: 9062 12be 6cd2 c03c 903b a6be 9e7d f33c
00000030: 07eb ffbd c580 673e df1f efbd 001a a7be
00000040: 8899 20bc 898d 01be 301c 5a3e 053a 423c
00000050: 35ce 4dbd 26e4 4abd d920 f9bd 6f98 43be
00000060: 177b 67be 8ed8 553e 5333 abbd f6ad 8ebe
00000070: 78f5 d0bd b131 63bd 590e c33e f608 6bbb
