1-GNNs/result/6108_AR_NURA_AFP_0920/saved_model/AttentiveFP_bst_4.pth (torch, 34843 bytes, 19 tensors)

gnn.init_context.project_node.0.weight f4 [16, 74]
0.010722507 0.0014347145 0.00045215435 -9.23514e-06 -0.00068937236 1.15033e-40 6.16148e-05 1.2267859e-06
2.6827178e-05 -2.625e-40 -1.89879e-40 -1.31495e-40 2.04546e-40 -5.20456e-40 5.15419e-40 2.1055246e-05
9.07139e-40 -2.24728e-40 1.91543e-40 -1.25369e-40 -7.779e-41 1.87638e-40 -3.22313e-40 -2.11778e-40
1.49165e-40 -1.07296e-40 -9.2312e-41 1.85187e-40 -1.10229e-40 2.25472e-40 3.28815e-40 1.23059e-40
-5.7195e-41 -3.63379e-40 2.71443e-40 2.17793e-40 -3.09279e-40 -5.3688e-41 -2.87269e-40 -4.20965e-40
-1.67689e-40 -4.98813e-40 1.36252e-40 2.66081e-40 -0.008825288 0.0027123757 -0.036937337 -0.0027805674
-3.51821e-40 -4.584e-40 1.6782e-40 1.9163e-40 -5.20337e-40 -4.43696e-40 0.017848402 0.0015289786
0.00057859893 0.0011918187 -3.0214e-40 9.9254e-41 -6.8609e-41 3.029687e-05 4.6147008e-08 9.847087e-05
-0.027547281 -0.0083262995 -6.12e-42 -9.0136e-41 -0.015260993 0.020630859 0.0016775479 0.0005779582
0.00025708275 6.21734e-40 -0.14356259 0.5039636 0.6398015 1.1497155 -0.39795694 -2.38389e-40
1.0510714 -0.24013115 -0.11954947 4.21443e-40 1.22983e-39 -2.05897e-40 -3.56148e-40 -1.99294e-40
3.19818e-40 -0.18460871 4.20439e-40 1.09767e-40 6.0305e-41 3.40054e-40 -4.22096e-40 3.159e-40
-2.9902e-40 1.23192e-40 2.74474e-40 -5.6692e-41 9.0068e-41 6.8612e-41 -6.5895e-41 -1.74438e-40
-2.14613e-40 -1.79616e-40 1.04021e-40 -1.222e-41 2.32117e-40 -3.21015e-40 3.327e-40 2.08939e-40
9.2205e-41 -5.0409e-41 2.15559e-40 -1.10462e-40 1.37407e-40 2.65005e-40 0.15359344 0.18330121
-0.15870352 0.0012829632 1.94258e-40 -1.32655e-40 1.32222e-40 -1.84536e-40 1.2135e-41 -3.66784e-40
-0.1149404 0.119785435 0.18303011 -0.17984872 3.94716e-40 4.1251e-41 -2.66314e-40 -0.3846325
-0.008868024 -0.17802896 -0.013941497 0.101271704 7.7332e-41 -1.29409e-40 -0.18959354 0.0642845
-0.095403 0.24007538 -0.08626791 -3.73908e-40 -0.0400069 -0.027581364 -0.03906352 0.0011794895
-0.004233483 -9.18969e-40 6.385981e-05 -0.00028883453 -0.0003101398 -1.40211e-40 -1.44608e-40 -4.90425e-40
-1.39873e-40 -2.88307e-40 -4.68489e-40 -7.270444e-05 1.83249e-40 7.1559e-41 -1.50191e-40 2.55831e-40
8.3502e-41 -7.8478e-41 1.41552e-40 -1.86967e-40 5.8478e-41 -3.26016e-40 -8.7996e-41 4.25892e-40
1.7034e-40 -2.89211e-40 -7.04927e-40 4.05043e-40 4.2537e-40 -1.65273e-40 2.916e-42 -8.4794e-41
-3.36446e-40 -2.86114e-40 2.17068e-40 6.08746e-40 -1.658e-41 3.77714e-40 4.32614e-40 -6.2984e-41
-0.0347152 -0.081108995 0.04078087 -0.0015424363 5.72e-41 1.98406e-40 -3.12614e-40 5.0812e-40
1.7191e-40 -1.54873e-40 -0.00078466337 -0.015333135 -0.02883334 0.0060694376 2.08208e-40 1.88887e-40
2.57791e-40 0.0015732603 0.00017694142 0.0012450988 -0.02073372 -0.073575474 -5.04302e-40 2.23913e-40
-0.040100068 0.0033338908 -0.03046887 -0.029012632 0.0060688704 -3.2023e-40 -0.042138338 0.0023806614
0.00091547804 1.649235e-05 0.00064770563 2.01884e-40 -0.00022438032 0.000510652 -0.00025160096 -9.9056e-41
4.8299e-40 1.46654e-40 -9.6502e-41 2.55343e-40 2.2522e-41 8.0343154e-05 3.6058e-40 1.3913e-40
4.83671e-40 -3.1311e-40 -3.1705e-40 -2.44783e-40 -5.7075e-40 3.14757e-40 3.56091e-40 -1.2011e-40
1.68519e-40 -4.23502e-40 8.4568e-41 1.8382e-40 2.00949e-40 2.43623e-40 2.0298e-41 -3.1135e-40
00000000: 74ad 2f3c 080d bc3a 210f ed39 a0f0 1ab7
00000010: ffb6 34ba aa40 0100 3237 8138 0ba8 a435
00000020: ed0a e137 bedb 0280 4e11 0280 8e6e 0180
00000030: 313a 0200 d2aa 0580 c79c 0500 cc9f b037
00000040: bce0 0900 7372 0280 f215 0200 7a5d 0180
00000050: d9d8 0080 0f0b 0200 7a82 0380 5a4e 0280
00000060: d09f 0100 192b 0180 5401 0180 3a04 0200
00000070: 4633 0180 8674 0200 9a94 0300 0a57 0100
00000080: 709f 0080 f4f4 0380 acf4 0200 1e5f 0200
00000090: 255e 0380 a995 0080 ca20 0380 7b95 0480
000000a0: 73d3 0180 7d6e 0580 d17b 0100 bae5 0200
000000b0: f197 10bc 1dc2 313b 9b4b 17bd 2e3a 36bb
000000c0: bcd4 0380 d5fd 0480 d0d3 0100 3016 0200
000000d0: 7daa 0580 d8d4 0480 d036 923c 0268 c83a
000000e0: 1ead 173a cd36 9c3a 3e4a 0380 ae14 0100
000000f0: 41bf 0080 0826 fe37 2c33 4633 2582 ce38
00000100: d6aa e1bc 086b 08bc 0f11 0080 43fb 0080
00000110: 3e09 7abc 0c02 a93c 2be1 db3a 1e82 173a
00000120: 10c9 8639 24c5 0600 1202 13be c203 013f
00000130: 08ca 233f e129 933f 03c1 cbbe 8898 0280
00000140: 8289 863f f1e4 75be 5ad6 f4bd d096 0400
00000150: 4464 0d00 f53d 0280 cce0 0380 8d2b 0280
00000160: 867b 0300 110a 3dbe 0394 0400 fc31 0100
00000170: 1ba8 0000 efb3 0300 a298 0480 9a70 0300
00000180: 8c41 0380 6957 0100 1ffd 0200 099e 0080
00000190: 13fb 0000 43bf 0000 b0b7 0080 43e6 0180
000001a0: 4156 0280 b2f4 0180 f821 0100 1022 0080
000001b0: 0c87 0200 dc7e 0380 6f9f 0300 7046 0200
000001c0: 0801 0100 858c 0080 e458 0200 ec33 0180
000001d0: 097f 0100 bae2 0200 9947 1d3e 50b3 3b3e
000001e0: 2d83 22be 1a29 a83a 831d 0200 ca71 0180
000001f0: 9570 0100 6902 0280 d421 0000 72fe 0380
00000200: df65 ebbd 1152 f53d 3f6c 3b3e 432a 38be
00000210: 4f4c 0400 fe72 0000 60e6 0280 8dee c4be
00000220: 304b 11bc 394d 36be e06a 64bc 8a67 cf3d
00000230: 92d7 0000 bd68 0180 cf24 42be 98a7 833d
00000240: a662 c3bd 52d6 753e 3bad b0bd 4e12 0480
00000250: 46de 23bd 50f2 e1bc 1201 20bd 1a99 9a3a
00000260: 08b9 8abb b601 0a80 79ec 8538 b76e 97b9
00000270: 429a a2b9 da86 0180 1c93 0180 1b57 0580
00000280: e985 0180 af23 0380 f519 0580 e678 98b8
00000290: d3fe 0100 7ac7 0000 aca2 0180 27c9 0200
000002a0: c5e8 0000 c4da 0080 978a 0100 3009 0280
000002b0: 03a3 0000 cd8c 0380 4cf5 0080 37a3 0400
000002c0: d7da 0100 3426 0380 0dad 0780 1869 0400
000002d0: c2a1 0400 b7cc 0180 2108 0000 5fec 0080
000002e0: e0a9 0380 921d 0380 195d 0200 f0a0 0600
000002f0: 382e 0080 ea1c 0400 f4b5 0400 93af 0080
00000300: 8731 0ebd 791c a6bd d709 273d 932b caba
00000310: 739f 0000 1329 0200 7167 0380 6f88 0500
00000320: 37df 0100 b9af 0180 deb1 4dba d437 7bbc
00000330: e633 ecbc 22e2 c63b 6644 0200 8a0e 0200
00000340: 9ece 0200 db35 ce3a 5a89 3939 9532 a33a
00000350: c3d9 a9bc bdae 96bd ca7d 0580 2e70 0200
00000360: f83f 24bd 687d 5a3b da99 f9bc e6ab edbc
00000370: 60dd c63b ac7c 0380 4099 2cbd df04 1c3b
00000380: b1fc 6f3a 0d59 8a37 caca 293a c532 0200
00000390: a247 6bb9 47dd 053a 4fe9 83b9 2114 0180
000003a0: 6142 0500 d098 0100 020d 0180 cbc7 0200
000003b0: c83e 0000 e77d a838 26ed 0300 d683 0100
000003c0: 4744 0500 d368 0380 ce73 0380 5baa 0280
000003d0: 0537 0680 6a6d 0300 a3e0 0300 d14e 0180
000003e0: c3d5 0100 8d9c 0480 beeb 0000 6a00 0200
000003f0: 2a30 0200 1fa7 0200 9538 0000 eb63 0380

gnn.init_context.project_node.0.bias f4 [16]
-0.05220366 0.09137248 -0.13361488 -0.0679676 0.063643105 0.024218976 0.12758534 -0.0032067792
0.09913965 0.06189917 -0.040062167 0.03153671 -0.07637314 0.12519713 -0.035671428 0.039256442
00000000: 81d3 55bd 7f21 bb3d 57d2 08be 9932 8bbd
00000010: 5157 823d e066 c63c bba5 023e d428 52bb
00000020: bb09 cb3d fc89 7d3d 3a18 24bd a32c 013d
00000030: 8569 9cbd ad33 003e 341c 12bd 5dcb 203d

gnn.init_context.project_edge1.0.weight f4 [16, 87]
0.052308694 -0.83879405 0.41615412 -0.54225105 -0.11233669 1.73107e-40 -0.13241458 0.49150914
0.21606211 -1.068e-40 1.99357e-40 -1.404712e-39 2.54665e-40 3.04766e-40 6.918e-41 0.26448774
4.77715e-40 1.3744e-40 -1.89526e-40 7.2004e-41 1.41118e-40 -4.50813e-40 -7.01721e-40 2.10807e-40
-1.59703e-40 3.14964e-40 -3.57265e-40 5.8042e-41 2.6005e-41 -3.23181e-40 -5.37698e-40 -1.34443e-40
-2.75823e-40 -1.73998e-40 -3.64147e-40 5.9603e-41 2.59738e-40 -3.48249e-40 -2.6225e-40 -3.52855e-40
-4.0377e-40 -1.18763e-40 8.12043e-40 -4.55443e-40 -0.32059425 -0.14710985 0.038067624 0.33089387
1.38607e-40 3.81369e-40 3.34004e-40 -4.42213e-40 -1.33733e-40 4.45449e-40 0.01711374 -0.2212109
0.067877196 -0.064109705 3.12033e-40 1.9596e-40 -1.094166e-39 -0.2843776 -0.008748468 -0.009030172
-0.34292746 0.26775748 -2.29585e-40 -3.94523e-40 0.39794004 0.19004236 -0.1951904 0.066484906
-0.064104475 -5.9079e-41 0.023492374 -0.40804207 0.3176614 -0.11702183 0.23543915 0.2566181
0.09553803 1.111586e-39 2.69124e-40 -1.64015e-40 -1.42274e-40 5.8311e-41 0.02591778 -0.020882607
-0.00034623852 0.0056275167 -0.004663073 3.0108227e-05 -3.02292e-40 0.0010441024 -2.1930644e-05 -7.0531883e-06
-4.82265e-40 4.26251e-40 1.41448e-40 -7.0652e-41 1.24556e-40 1.78073e-40 3.195839e-05 7.7441e-41
1.07934e-40 -3.4179e-41 -3.43205e-40 1.1833e-41 -1.02019e-40 -3.51594e-40 8.75963e-40 -4.08432e-40
1.20419e-40 2.56774e-40 -3.95365e-40 4.66642e-40 4.7371e-40 3.06684e-40 -4.88306e-40 1.25943e-40
-7.44382e-40 -7.65424e-40 -3.78337e-40 6.01472e-40 -5.19865e-40 -1.6978e-40 2.94247e-40 8.9508e-41
-2.98943e-40 7.47352e-40 -3.63696e-40 -0.01290396 -0.00097619725 -0.0057289293 -0.0031229323 -7.0754e-41
7.7437e-41 -1.43782e-40 1.64028e-40 -2.27948e-40 -7.6725e-41 -0.008665207 -0.004553238 0.0007139823
0.00020919103 -4.74226e-40 -5.4504e-41 -2.83826e-40 0.00010930279 -9.980369e-07 -0.0005611467 -0.0029610402
0.0038099065 -4.86133e-40 -1.65444e-40 -0.00038822673 -0.00976798 -0.0049151527 0.00071394164 0.00040359964
4.82847e-40 -0.011283546 -0.0011628319 -0.0004085605 -0.0011299205 0.00066536333 -0.00015398367 0.0013639402
4.4601e-40 -2.20012e-40 2.51298e-40 -3.25073e-40 -1.8269e-40 -0.0075241034 -0.5070697 0.8321999
-0.7291357 0.13823931 0.1152105 -1.96887e-40 -0.0047091856 -0.29884553 -0.3302039 -5.3238e-41
-3.27951e-40 2.9115e-40 -1.28687e-40 -2.68677e-40 -5.56087e-40 -0.28270257 -9.31405e-40 -4.00296e-40
1.5051e-40 1.14454e-40 2.34559e-40 -2.00332e-40 -2.54259e-40 -2.49131e-40 1.15097e-40 1.6368e-40
-1.5278e-40 2.15033e-40 3.0084e-41 1.25823e-40 1.60924e-40 -1.34201e-40 -1.3371e-40 4.48739e-40
-2.20228e-40 -2.27976e-40 -2.44372e-40 7.6179e-41 -2.89189e-40 3.07757e-40 -6.50452e-40 -2.73301e-40
-1.05319e-40 -1.48322e-40 -0.14261621 0.29433924 0.061757345 -0.42318746 3.61458e-40 -5.2979e-41
3.219e-42 7.45433e-40 -2.9572e-41 -2.3529e-40 -0.005864225 -0.30413422 -0.31123474 -0.054081008
6.11898e-40 -5.88681e-40 -1.0808e-41 0.20919602 0.0003830144 0.38039672 -0.6532104 0.4158721
2.16781e-40 4.0358e-40 -0.39760652 0.14110403 -0.4509103 -0.4185486 -0.055980556 1.09535e-39
-0.11364156 0.2676831 0.4778104 -0.048377354 -0.8229143 0.62641084 -0.053242616 3.33142e-40
00000000: a441 563d 35bb 56bf 2712 d53e f7d0 0abf
00000010: c710 e6bd 8de2 0100 b097 07be 16a7 fb3e
00000020: 633f 5d3e b729 0180 ba2b 0200 c44b 0f80
00000030: e7c5 0200 9051 0300 d8c0 0000 f06a 873e
00000040: ad33 0500 207f 0100 5210 0280 b8c8 0000
00000050: 6189 0100 afe8 0480 1da4 0780 a54b 0200
00000060: 30bd 0180 fe6d 0300 e9e3 0380 cca1 0000
00000070: 7e48 0000 e684 0380 e2da 0580 c676 0180
00000080: e200 0380 09e5 0180 18f7 0380 26a6 0000
00000090: 0bd4 0200 c7ca 0380 0cdb 0280 9ed7 0380
000000a0: 8c65 0480 104b 0180 a5d7 0800 97f5 0480
000000b0: ee24 a4be f7a3 16be ccec 1b3d ec6a a93e
000000c0: 6182 0100 1a27 0400 11a3 0300 b6d0 0480
000000d0: cb74 0180 bbd9 0400 1d32 8c3c 1c85 62be
000000e0: 3303 8b3d f34b 83bd d265 0300 4222 0200
000000f0: 17ea 0b80 f199 91be bc55 0fbc 49f3 13bc
00000100: 3094 afbe 8217 893e fd7f 0280 c54b 0480
00000110: ccbe cb3e 779a 423e fedf 47be 3d29 883d
00000120: 3549 83bd b0a4 0080 1473 c03c e4ea d0be
00000130: 84a4 a23e 24a9 efbd f616 713e 7363 833e
00000140: 71a9 c33d a61a 0c00 35ee 0200 35c9 0180
00000150: 9a8c 0180 8ca2 0000 8651 d43c 0012 abbc
00000160: 5987 b5b9 0867 b83b b1cc 98bb ed90 fc37
00000170: ab4a 0380 43da 883a b3f7 b7b7 6daa ecb6
00000180: 5c40 0580 37a4 0400 4d8a 0100 f3c4 0080
00000190: 365b 0100 65f0 0100 0f0b 0638 e0d7 0000
000001a0: e02c 0100 475f 0080 b7bc 0380 fc20 0000
000001b0: 631c 0180 1ad4 0380 d489 0900 8b72 0480
000001c0: ae4f 0100 c8cb 0200 1e4e 0480 cf14 0500
000001d0: 8328 0500 e956 0300 3351 0580 145f 0100
000001e0: 091b 0880 b155 0880 a61e 0480 a98c 0600
000001f0: 2ca9 0580 47d9 0180 3e34 0300 83f9 0000
00000200: 5541 0380 5023 0800 d6f5 0380 226b 53bc
00000210: 7de7 7fba beb9 bbbb 1caa 4cbb 3cc5 0080
00000220: ddd7 0000 ce90 0180 3ec9 0100 6d7b 0280
00000230: e1d5 0080 83f8 0dbc 5433 95bb 8b2a 3b3a
00000240: 4a5a 5b39 f329 0580 ef97 0080 3117 0380
00000250: 7d39 e538 49f4 85b5 eb19 13ba 030e 42bb
00000260: a0af 793b 244b 0580 31cd 0180 e98a cbb9
00000270: e109 20bc 4a0f a1bb d027 3b3a 3a9a d339
00000280: fb41 0500 9fde 38bc 2a6a 98ba 1034 d6b9
00000290: d719 94ba c76b 2e3a ad76 21b9 3dc6 b23a
000002a0: 4bdb 0400 4e65 0280 84bc 0200 2c8a 0380
000002b0: 44fd 0180 c18c f6bb 52cf 01bf 0d0b 553f
000002c0: a3a8 3abf 9b8e 0d3e 7cf3 eb3d d724 0280
000002d0: 834f 9abb 4802 99be 7c10 a9be 6894 0080
000002e0: 3292 0380 9c2b 0300 ba66 0180 f6ec 0280
000002f0: 250e 0680 64be 90be 6124 0a80 dd5b 0480
00000300: 90a3 0100 0d3f 0100 db8d 0200 722e 0280
00000310: c5c4 0280 7ab6 0280 d840 0100 46c8 0100
00000320: e3a9 0180 6d57 0200 dd53 0000 be5e 0100
00000330: 97c0 0100 1976 0180 bb74 0180 e7e2 0400
00000340: e865 0280 817b 0280 36a9 0280 5bd4 0000
00000350: 2426 0380 e759 0300 3215 0780 daf9 0280
00000360: 9625 0180 769d 0180 fc09 12be a2b3 963e
00000370: 45f5 7c3d 07ac d8be 99ef 0300 af93 0080
00000380: f908 0000 f71d 0800 6f52 0080 e58f 0280
00000390: af28 c0bb 7bb7 9bbe 295a 9fbe 0c84 5dbd
000003a0: b9a9 0600 0169 0680 211e 0080 7b37 563e
000003b0: 53cf c839 5cc3 c23e cc38 27bf 30ed d43e
000003c0: 4c5c 0200 0465 0400 1593 cbbe 937d 103e
000003d0: b7dd e6be 014c d6be de4b 65bd 64ed 0b00
000003e0: e8bc e8bd c20d 893e 91a3 f43e 5527 46bd
000003f0: 83aa 52bf 765c 203f ee14 5abd aaa0 0300

gnn.init_context.project_edge1.0.bias f4 [16]
-0.072012946 0.013342882 -0.0170426 -0.02290565 -0.020987758 0.014391995 0.043356605 -0.008732169
-0.008502298 -0.048825197 0.046363913 0.0860614 -0.021856695 -0.010783547 0.11423242 0.0006846562
00000000: 867b 93bd 1a9c 5a3c ec9c 8bbc a1a4 bbbc
00000010: 85ee abbc 67cc 6b3c b296 313d 5f11 0fbc
00000020: 394d 0bbc eefc 47bd 16e8 3d3d f640 b03d
00000030: d00c b3bc 79ad 30bc b0f2 e93d 807a 333a

gnn.init_context.project_edge2.1.weight f4 [1, 32]
-0.003277219 -0.25958937 -0.0052418024 0.002063672 -0.055059537 -0.038153835 0.042779606 -0.121362664
0.11736426 -0.12688193 0.0014095521 -0.08480302 0.0075503243 -0.28119934 -0.2927162 0.20125309
0.16804558 0.0027205064 -0.71991783 0.0012303003 -0.0052563427 0.23715487 0.221567 0.2374847
-0.0004159328 0.1864782 0.042831 0.22906527 0.4242791 0.2531058 -0.61663085 0.21524884
00000000: 9cc6 56bb e6e8 84be 6dc3 abbb ac3e 073b
00000010: 1c86 61bd 3247 1cbd ab39 2f3d fd8c f8bd
00000020: ac5c f03d 56ed 01be b8c0 b83a 35ad adbd
00000030: b668 f73b 5cf9 8fbe e6de 95be 4a15 4e3e
00000040: 2414 2c3e 864a 323b 894c 38bf 0742 a13a
00000050: 663d acbb bad8 723e 76e2 623e 302f 733e
00000060: 8e11 dab9 24f4 3e3e 8f6f 2f3d 1690 6a3e
00000070: 1c3b d93e 1597 813e 85db 1dbf 316a 5c3e

gnn.init_context.attentive_gru.edge_transform.1.weight f4 [16, 16]
0.12808572 -0.0007039458 -0.19603507 -0.00028733962 -0.00047241463 -0.11300178 0.12965621 0.20434137
-0.0009898165 -0.052473754 -0.110708386 -0.114353076 -0.103252366 -0.040985722 -0.25945118 0.14028843
-0.14394113 0.0019035628 -0.44686094 -0.00013233253 -0.0008913054 0.11945898 0.18039472 0.10582964
-1.8583682e-05 -0.029766943 0.15372868 0.10173316 0.24611524 0.10661221 0.014746858 0.10258019
0.52400005 -0.001966008 -0.8809023 -4.8713762e-05 -0.02848634 0.39398903 0.5431058 0.35430148
-0.00053000473 0.27769628 0.3299052 0.31379598 0.075987615 0.2213752 -0.17564565 0.3644559
-0.26265445 -0.0014394479 0.4693072 0.00023761993 0.0097687235 -0.17705941 -0.3130885 -0.048204176
0.00016783993 0.027493231 0.021639721 -0.086224504 0.22108912 -0.16313657 0.25529253 -0.11098858
-0.18697701 0.0021141977 0.50189537 8.986623e-05 0.016879056 -0.112083614 -0.18518378 0.106141925
-0.0013875774 -0.35534415 0.09990635 0.11236853 0.21525577 0.03174467 0.04909525 -0.33588603
-0.08567592 0.007753521 -0.55548143 0.00010150664 0.0014166101 0.16006806 -0.17787395 0.20311797
-0.0012201086 0.35612258 0.59088993 0.2427193 -0.009584666 0.51466024 0.016694631 0.32106495
0.36465284 -0.0010659214 0.021957513 0.00015312778 -0.0013567851 -0.05403354 0.1751303 0.01793688
7.217411e-05 0.13710244 -0.23821618 -0.023627004 -0.11475335 -0.15031315 0.11360916 0.044323824
-0.0331257 0.0019971393 0.46848476 -0.00053647836 4.8474834e-05 0.17931704 0.20571487 0.11971776
-0.00033375112 -0.051113077 0.3507923 0.031160029 0.26887432 0.48252693 -0.3296157 -0.027490886
-0.48643997 0.005097608 0.43615612 7.2976385e-05 0.002348665 0.023597756 -0.32109007 -0.12826979
-0.00014132503 0.07734273 0.27968454 0.16126095 0.16072924 0.21569128 0.14892139 0.08888044
-0.34927136 -0.0013805592 1.0695941 0.00040584346 0.010801923 -0.31054592 -0.38266903 -0.2659613
-1.773201e-05 -0.38805047 -0.053832702 -0.07651398 -0.00016213495 -0.2590795 0.25617075 -0.27442327
-0.13776319 -0.00491648 1.0227807 -0.0010600621 -0.0022208309 -0.27327883 -0.097335145 -0.1668026
-0.00037289472 -0.2988417 -0.46618244 -0.2744909 0.16128051 -0.5424612 -0.20788947 -0.14069405
0.24190402 0.0010393179 -0.83973384 0.00021680912 0.0014104899 0.036400132 0.071778096 0.13010716
-0.0011446578 0.17012371 0.28431165 0.09628625 -0.2715527 0.24451977 0.28006303 0.23723732
0.1327271 0.0023404404 -0.5736107 0.00016561992 0.00033927406 0.0018461841 0.10154118 -0.062337223
6.77448e-05 0.17022139 -0.045911986 -0.00013810667 -0.112175345 0.22648564 -0.40189365 0.18020721
0.16809468 -0.00033715874 -0.3704068 -6.6171056e-06 -0.011601537 -0.00796399 0.28409222 0.23383637
3.1023977e-05 0.075728945 -0.025387269 0.023557087 -0.028009752 0.11930276 -0.18110608 -0.10810853
-0.41174752 -0.003920226 1.2162813 -0.00088597316 -0.002083416 -0.2314166 -0.41333702 -0.06522365
-0.000635368 -0.348415 0.04223332 -0.109171644 0.32891956 0.025170846 -0.04388993 -0.024355212
0.12048382 0.0017538329 -0.7472279 0.0005184287 -0.00010563694 0.20478223 0.22227013 -0.06481519
0.00036844178 0.19311824 0.07687742 0.07601049 -0.40251684 0.08368775 0.17833854 0.2919533
00000000: e728 033e 0189 38ba 6bbd 48be 12a6 96b9
00000010: 6bae f7b9 7a6d e7bd 99c4 043e dd3e 513e
00000020: bbbc 81ba b8ee 56bd 14bb e2bd f231 eabd
00000030: fa75 d3bd a5e0 27bd c9d6 84be c5a7 0f3e
00000040: 4e65 13be f880 f93a f5ca e4be bec2 0ab9
00000050: 7ea6 69ba e9a6 f43d 65b9 383e 36bd d83d
00000060: 27e4 9bb7 ced9 f3bc 0d6b 1d3e 7a59 d03d
00000070: a205 7c3e 8157 da3d ce9c 713c 9015 d23d
00000080: de24 063f 24d8 00bb d082 61bf 0152 4cb8
00000090: 2f5c e9bc eeb8 c93e fb08 0b3f 0167 b53e
000000a0: 04f0 0aba 352e 8e3e 56e9 a83e dea9 a03e
000000b0: 659f 9b3d 2eb0 623e 74dc 33be f799 ba3e
000000c0: a57a 86be dbab bcba 0949 f03e 9d29 7939
000000d0: ff0c 203c 104f 35be 234d a0be be71 45bd
000000e0: 30fe 2f39 7c39 e13c c945 b13c 7996 b0bd
000000f0: 3065 623e 460d 27be b4b5 823e fb4d e3bd
00000100: e776 3fbe 5a8e 0a3b 377c 003f 9176 bc38
00000110: f245 8a3c 188c e5bd d1a0 3dbe f060 d93d
00000120: 5fdf b5ba abef b5be b39b cc3d 7921 e63d
00000130: 026c 5c3e b306 023d 1a18 493d 41f9 abbe
00000140: db76 afbd 4011 fe3b 0834 0ebf f6df d438
00000150: 8cad b93a e2e8 233e 9724 36be 28fe 4f3e
00000160: 0dec 9fba b355 b63e 9044 173f 688b 783e
00000170: 0109 1dbc c6c0 033f 2ec3 883c a062 a43e
00000180: c7b3 ba3e 63b6 8bba 3ee0 b33c ed90 2039
00000190: 27d6 b1ba 4652 5dbd 5b55 333e 5df0 923c
000001a0: 2e5c 9738 9564 0c3e f1ee 73be 6b8d c1bc
000001b0: ce03 ebbd b1eb 19be ebab e83d e68c 353d
000001c0: d0ae 07bd 70e2 023b 3cdd ef3e 74a2 0cba
000001d0: 7551 4b38 e39e 373e eba6 523e 962e f53d
000001e0: 51fb aeb9 f25b 51bd 0c9b b33e 5143 ff3c
000001f0: e5a9 893e c50d f73e 64c3 a8be 9134 e1bc
00000200: a90e f9be d609 a73b db4f df3e e60a 9938
00000210: 0fec 193b 1550 c13c eb65 a4be 2859 03be
00000220: a630 14b9 dd65 9e3d d032 8f3e 9721 253e
00000230: 3596 243e 2dde 5c3e d97e 183e f306 b63d
00000240: b2d3 b2be e1f3 b4ba 76e8 883f 63c7 d439
00000250: 8dfa 303c e0ff 9ebe 32ed c3be 142c 88be
00000260: 34bf 94b7 8dae c6be ae7f 5cbd 5db3 9cbd
00000270: c502 2ab9 11a6 84be d028 833e 3581 8cbe
00000280: cb11 0dbe 6c1a a1bb 7aea 823f c8f1 8aba
00000290: 5c8b 11bb 34eb 8bbe a657 c7bd 4dce 2abe
000002a0: 1581 c3b9 c801 99be 77af eebe 128a 8cbe
000002b0: b826 253e bdde 0abf fae0 54be 1a12 10be
000002c0: b0b5 773e b939 883a ccf8 56bf 4157 6339
000002d0: 30e0 b83a 4e18 153d 6500 933d d03a 053e
000002e0: 5808 96ba e934 2e3e 4c91 913e ba31 c53d
000002f0: f508 8bbe 6463 7a3e 6c64 8f3e 57ee 723e
00000300: 9de9 073e 1362 193b 27d8 12bf 42aa 2d39
00000310: 98e0 b139 a9fb f13a d2f4 cf3d 5155 7fbd
00000320: 3612 8e38 844e 2e3e 350e 3cbd bad0 10b9
00000330: 30bc e5bd daeb 673e 01c5 cdbe 3d88 383e
00000340: 0321 2c3e aec4 b0b9 f6a5 bdbe 8108 deb6
00000350: 5f14 3ebc 657b 02bc 8974 913e cd72 6f3e
00000360: be1f 0238 c717 9b3d f6f8 cfbc cbfa c03c
00000370: b574 e5bc 0155 f43d df73 39be 0168 ddbd
00000380: 92d0 d2be 3d75 80bb 1baf 9b3f a740 68ba
00000390: ec89 08bb 79f8 6cbe e9a0 d3be fa93 85bd
000003a0: d38e 26ba 7363 b2be d9fc 2c3d 6295 dfbd
000003b0: 2568 a83e 1733 ce3c edc5 33bd 9584 c7bc
000003c0: 39c0 f63d dee0 e53a 544a 3fbf 29e7 073a
000003d0: 6689 ddb8 6fb2 513e c89a 633e d4bd 84bd
000003e0: 6b2b c139 cac0 453e e971 9d3d 63ab 9b3d
000003f0: b016 cebe 7c64 ab3d 619e 363e e77a 953e

gnn.init_context.attentive_gru.edge_transform.1.bias f4 [16]
0.01882085 0.056344323 -0.084404066 0.2642029 0.09781082 -0.10443694 -0.09143734 -0.16122721
0.0065229977 0.24501024 0.054754276 0.16701531 0.11840622 -0.16731884 0.025230754 -0.11078268
00000000: 2f2e 9a3c 4ec9 663d 0adc acbd 9a45 873e
00000010: 0a51 c83d 09e3 d5bd 8043 bbbd bf18 25be
00000020: dfbe d53b f7e3 7a3e 0546 603d 1006 2b3e
00000030: f67e f23d a155 2bbe bab0 ce3c 08e2 e2bd

gnn.init_context.attentive_gru.gru.weight_ih f4 [48, 16]
-3.9723738e-26 -1.6959459e-26 -2.8437376e-25 3.982351e-26 -1.0866198e-26 1.1138232e-26 6.822492e-26 -2.8379992e-26
4.3000802e-26 5.2073e-26 -3.0397122e-26 1.5157639e-25 -6.736372e-26 -3.055846e-26 -6.445866e-26 8.994584e-26
-0.008460954 0.0053105825 -0.10856899 0.077681065 0.053425964 -0.05367558 -0.008248705 -0.05803334
-0.0075869225 0.08448873 0.002772799 -0.06758746 -0.014278371 -0.025483323 0.040662758 -0.066198595
0.016047673 0.0057558096 -0.07630201 0.07162473 0.037076812 -0.09201852 0.04390364 -0.13917094
-0.08549764 0.06438259 0.035473187 0.02935421 -0.069713324 -0.01242235 -0.020782605 -0.0305618
-3.6128398e-08 -1.5009668e-07 -1.7386525e-07 8.280203e-07 1.3872844e-07 -2.1579369e-07 6.404685e-08 8.524291e-08
5.993926e-08 2.7388542e-05 9.280677e-07 -1.3954681e-07 -1.0020183e-07 -1.6457356e-07 8.127797e-06 -2.0834494e-07
-0.0014802222 0.0004216879 -0.058857106 0.04480036 0.031692293 -0.035545636 -0.02132089 -0.018119544
0.018247388 0.062670745 0.05006455 -0.023381492 -0.0009033981 -0.032445163 0.053127088 -0.04568441
0.0004741575 0.0008576339 0.0016720836 0.0021582092 -0.00095861347 0.0003420152 -0.0005698905 -0.0038524035
0.0010300532 0.0029174238 -0.00015819723 0.0020762875 0.0023377556 -0.0012580645 -0.00037339068 0.00035282463
0.009063486 0.0057236752 0.004561496 0.010399901 -0.028005468 -0.013311565 0.02277846 -0.057101887
-0.038171068 -0.020366808 -0.011140561 0.023498042 0.0042518363 -0.0032186517 -0.060141496 0.018968124
-0.0024962267 0.011990152 0.0504229 0.015894124 0.018733194 0.006885364 0.030267337 0.028108975
-0.015445311 0.0128299855 -0.012774139 0.03934306 -0.0037192772 0.0074889204 0.0013230798 0.008609182
0.033175025 0.020958759 -0.12921695 0.009995347 -0.021268716 -0.080525994 0.043320414 -0.11993756
-0.115540564 0.06111176 0.020235173 0.09040242 -0.03151543 0.011317113 -0.06395509 0.045380265
-0.052482076 0.0008868018 0.027207775 0.022925215 0.039787523 -0.0381792 -0.036718097 -0.07472564
0.03614819 0.023547659 -0.05501731 0.15984838 -0.026632635 -0.06740423 -0.062976345 0.013376005
0.01043114 -0.05609741 -0.13172579 0.034672376 -0.01059614 -0.11333985 0.01653938 -0.08419484
-0.024973318 0.09237531 0.09067117 -0.059467066 -0.026185509 -0.030586867 0.049065154 -0.017520199
-0.07562885 0.12911716 0.06282073 0.15061189 0.07821463 0.07883226 -0.16034105 0.029593991
0.18996483 0.061528113 -0.13401182 0.17758949 -0.037925947 -0.06892518 -0.08416769 0.059477776
0.12352334 0.18663757 0.4502838 -0.093525484 -0.21710308 0.18255137 0.035421558 -0.3197593
-0.24028637 -0.38161525 -0.39536223 0.5078293 0.24466473 0.063677885 -0.5705651 0.22630812
-0.058660623 0.012982967 0.0002597935 0.04304128 0.0010537343 0.036313046 0.0040727383 -0.027896343
0.062235042 0.027589396 -0.035690628 0.049147036 -0.06214267 -0.03156514 -0.0058879806 0.042468067
0.00428304 0.1153116 0.30182377 -0.06814996 -0.072873734 0.20840347 0.018159404 0.121812016
-0.0059575196 -0.14152583 -0.14653446 0.21415979 0.07255869 0.08182179 -0.12207249 0.15410933
0.0053659477 -0.12241941 0.014076014 0.10928429 0.10346003 0.1906421 -0.02605609 0.015302536
0.06298836 0.09800676 -0.1983892 -0.007945064 0.07378211 -0.08656658 -0.033061706 -0.10018434
00000000: d2b3 4495 56f5 a794 d204 b096 4c32 4515
00000010: 2b3a 5794 8c9d 5c14 aeea a815 ea87 0c95
00000020: feed 5415 2fed 8015 ee84 1695 7aa4 3b16
00000030: d4c8 a695 7351 1795 8897 9f95 f3b1 de15
00000040: d09f 0abc 6504 ae3b 6b59 debd 4017 9f3d
00000050: 2fd5 5a3d edda 5bbd 9425 07bc 5eb4 6dbd
00000060: b89b f8bb 6d08 ad3d d9b7 353b 4b6b 8abd
00000070: d4ef 69bc 67c2 d0bc fe8d 263d 2193 87bd
00000080: 6976 833c 3b9b bc3b 3a44 9cbd fdaf 923d
00000090: dbdd 173d 3574 bcbd 4ed4 333d d482 0ebe
000000a0: 6319 afbd 05db 833d 554c 113d 3d78 f03c
000000b0: dcc5 8ebd 1d87 4bbc 4840 aabc bd5c fabc
000000c0: 982b 1bb3 432a 21b4 b7af 3ab4 1f45 5e35
000000d0: 62f5 1434 ebb4 67b4 218a 8933 c90e b733
000000e0: f5b7 8033 72c0 e537 5420 7935 56d6 15b4
000000f0: 8a2e d7b3 a3b5 30b4 9f5c 0837 6cb5 5fb4
00000100: 0404 c2ba fe15 dd39 2614 71bd 9580 373d
00000110: c7cf 013d 4d98 11bd 26a9 aebc 706f 94bc
00000120: 8c7b 953c 8559 803d 7c10 4d3d 8b8a bfbc
00000130: 05d2 6cba 38e5 04bd ca9b 593d 931f 3bbd
00000140: 5898 f839 d6d2 603a d129 db3a be70 0d3b
00000150: 764b 7bba 8150 b339 b464 15ba 9b78 7cbb
00000160: da02 873a 4032 3f3b bfe1 25b9 5312 083b
00000170: 0835 193b a4e5 a4ba a6c3 c3b9 52fb b839
00000180: 047f 143c ab8d bb3b 9a78 953b 5964 2a3c
00000190: b96b e5bc c018 5abc e599 ba3c abe3 69bd
000001a0: 4459 1cbd 4bd8 a6bc e686 36bc f77e c03c
000001b0: fd52 8b3b 04f0 52bb ee56 76bd 0a63 9b3c
000001c0: bc97 23bb 5872 443c 3e88 4e3d 6534 823c
000001d0: 5b76 993c 9f9e e13b 35f3 f73c cb44 e63c
000001e0: 540e 7dbc dc34 523c 9f4a 51bc 3026 213d
000001f0: 1ebf 73bb 9e65 f53b 316b ad3a 870d 0d3c
00000200: 89e2 073d b4b1 ab3c 7351 04be 86c3 233c
00000210: bb3b aebc d0ea a4bd bf70 313d d3a1 f5bd
00000220: 88a0 ecbd 5350 7a3d 3cc4 a53c e724 b93d
00000230: 5316 01bd 6a6b 393c e3fa 82bd a8e0 393d
00000240: 72f7 56bd 4378 683a d7e2 de3c a9cd bb3c
00000250: 3ef8 223d cb61 1cbd b765 16bd c209 99bd
00000260: 2010 143d 05e7 c03c d559 61bd 4baf 233e
00000270: af2c dabc 3b0b 8abd bef9 80bd 0827 5b3c
00000280: 5fe7 2a3c 66c6 65bd 20e3 06be 9f04 0e3d
00000290: 6f9b 2dbc b91e e8bd 987d 873c 586e acbd
000002a0: d894 ccbc 442f bd3d ceb1 b93d bd93 73bd
000002b0: fe82 d6bc 4f91 fabc 8bf8 483d 8586 8fbc
000002c0: 4ce3 9abd 4a37 043e 28a8 803d 013a 1a3e
000002d0: fe2e a03d cf72 a13d 7230 24be 196f f23c
000002e0: 2486 423e e704 7c3d 653a 09be 05da 353e
000002f0: 3d58 1bbd a528 8dbd 1c60 acbd f89e 733d
00000300: cef9 fc3d eb1d 3f3e 998b e63e 4a8a bfbd
00000310: 4550 5ebe bfee 3a3e 3216 113d 7eb7 a3be
00000320: a10d 76be 1363 c3be eb6c cabe 1a01 023f
00000330: 6489 7a3e 8d69 823d 8e10 12bf 51bd 673e
00000340: 1f46 70bd 83b6 543c e534 8839 0e4c 303d
00000350: 751d 8a3a fdbc 143d 9b74 853b df86 e4bc
00000360: 2cea 7e3d 2803 e23c 5630 12bd 674e 493d
00000370: 5089 7ebd 734a 01bd f6ef c0bb fff2 2d3d
00000380: be58 8c3b 7d28 ec3d a588 9a3e 3592 8bbd
00000390: d33e 95bd b867 553e 08c3 943c 9478 f93d
000003a0: 4c37 c3bb 26ec 10be 210d 16be b44c 5b3e
000003b0: a799 943d 2f92 a73d 2401 fabd d6ce 1d3e
000003c0: d5d4 af3b 07b7 fabd 159f 663c 71d0 df3d
000003d0: dae2 d33d af37 433e 9573 d5bc 7db7 7a3c
000003e0: 0b00 813d c5b7 c83d 8a26 4bbe 042c 02bc
000003f0: 131b 973d d249 b1bd b66b 07bd 722d cdbd

gnn.init_context.attentive_gru.gru.weight_hh f4 [48, 16]
-1.7333073e-28 1.1553349e-25 3.4350446e-28 -4.4553833e-28 2.4005354e-28 2.0006907e-27 1.1399656e-25 4.8313455e-28
-2.3126784e-27 2.3646323e-26 -1.21082606e-29 1.6444066e-26 2.0140199e-28 -9.990144e-26 -8.945444e-28 -7.068487e-28
-0.00024436935 0.11570044 -0.0015421599 -0.00057958 0.009972016 0.0350867 0.028612839 -0.035380024
0.11114026 0.027381593 -0.0002478995 0.12601718 -0.0004956604 -0.02761707 -0.02146134 0.0036629934
-0.00021355326 -0.20757154 0.0023310538 0.00014596246 0.18984002 0.032512374 -0.08332769 -0.23658489
0.13319677 0.07118494 -0.0014938446 -0.16309999 0.00069772353 -0.31931728 0.12952434 0.13574438
-4.0880885e-10 -1.0105817e-05 8.295478e-10 -3.3800882e-10 -5.707389e-10 4.074307e-09 1.2183494e-07 6.890424e-05
-6.908668e-09 1.1712454e-07 -8.9249226e-11 1.4164628e-07 4.6146578e-10 0.00019319612 -4.0680237e-10 -3.3472498e-09
-0.0025369066 0.03698006 -0.0051191044 -0.0013693364 -0.025969377 0.020041468 -0.04109729 -0.00769514
0.0057298066 -0.014683279 -0.0008457786 0.04502238 -0.0012777211 -0.009611855 -0.00762917 -0.017749576
-3.1161257e-05 0.006002698 -0.00014319786 -8.896058e-05 -6.6362016e-05 0.007831298 0.00018895138 0.0023845616
0.002120955 0.0028233158 -8.837885e-05 0.013502111 -0.00037657958 0.0059239776 0.0035154242 0.008260323
-0.00064462813 -0.011993879 -0.00025018727 -0.0008121162 0.008969549 0.005225037 -0.05446332 -0.08962933
0.1130375 -0.018605258 -0.00025457656 -0.00081693404 -0.0014892918 -0.07610341 -0.0049222894 0.062304396
0.00016992033 0.0573766 0.0014543291 0.000451882 0.021783948 0.047619894 -0.012426821 0.055208407
0.04216823 0.010786676 0.0003527091 0.10233134 0.00078596896 0.103627205 0.04246523 0.014545669
0.00022415997 0.15914102 -0.0007763953 0.0012404522 -0.04842277 0.0031811562 0.031313963 0.13955517
0.0015631943 -0.01845344 0.00036100743 0.20712645 0.00032552727 0.004367453 0.07510433 0.008415766
-0.0001663448 0.131475 0.0012519384 -0.00011925912 0.006617823 -0.02070732 -0.02850202 0.10382841
0.036958426 0.052470114 -0.00023351559 -0.06465636 7.668684e-05 0.21384001 0.012380543 0.011573013
-5.334975e-05 -0.009600672 -0.0018524384 -0.00078199554 -0.008253585 -0.06314979 0.028268771 0.072577156
0.039534573 0.018929463 -6.3965286e-05 -0.054740097 -0.00019622118 0.091713496 0.048310135 0.080607295
0.0002753683 0.17989676 -0.0008024878 0.0007763071 -0.051583346 0.15745693 0.35330585 0.111082315
0.104810484 0.15938075 0.0009092951 0.42304373 0.0014833993 -0.06494273 0.2786595 0.03425727
-0.00012965505 -0.09046447 -0.00081948703 0.0021081544 -0.106430806 0.026480509 0.18396968 0.08920144
0.20833094 0.22244653 4.460784e-05 -0.092512175 0.0005910809 0.119920135 -0.34444886 0.006875087
-0.0004921772 0.04532076 -0.00038356954 0.00064518745 -0.01200096 0.04680623 -0.01721803 -0.06602503
0.05890315 -0.003370542 -0.0002426887 0.13459162 -0.00065378606 -0.09778381 0.042455018 -0.0118666785
3.7193062e-05 0.076553285 0.0012530393 0.002984322 0.005454681 -0.006329405 0.16044417 -0.053783536
0.06357371 0.08874555 0.00091808144 0.02154284 0.0034568557 -0.05906697 0.009839897 0.08270607
0.0006462805 0.21543883 -0.002409037 0.0015651169 -0.047381528 0.16267519 0.14971867 0.12770316
-0.02742453 -0.15257457 0.0009116464 0.18455899 0.0014397951 0.210007 0.25004613 0.046272647
00000000: 0ab9 5b91 0606 0f16 c9b8 d911 5d32 0d92
00000010: ea26 9811 d482 1e13 f41e 0d16 881c 1912
00000020: b13a 3793 8d2e ea14 af95 758f a9da a214
00000030: af4e 7f11 0f58 f795 08bf 8d92 6102 6092
00000040: b31e 80b9 5af4 ec3d 4d22 caba f5ee 17ba
00000050: ab61 233c 12b7 0f3d 7965 ea3c a5ea 10bd
00000060: 819d e33d 5d4f e03c 82f8 81b9 a60a 013e
00000070: 35ef 01ba 323d e2bc b1cf afbc d50e 703b
00000080: 44ed 5fb9 a28d 54be 98c4 183b 800d 1939
00000090: 6c65 423e b22b 053d b5a7 aabd 4f43 72be
000000a0: bc64 083e 69c9 913d 1bcd c3ba af03 27be
000000b0: 6fe7 363a 8e7d a3be 07a2 043e 9300 0b3e
000000c0: bbbe e0af 278c 29b7 3d06 6430 83d2 b9af
000000d0: 2ee2 1cb0 fcfd 8b31 bcd1 0234 af80 9038
000000e0: 4961 edb1 e685 fb33 d942 c4ae 6f17 1834
000000f0: 89b1 fd2f b094 4a39 58a4 dfaf 7105 66b1
00000100: 3b42 26bb 6778 173d 29be a7bb 4e7b b3ba
00000110: bbbd d4bc 012e a43c a255 28bd 8327 fcbb
00000120: 1ac1 bb3b 2392 70bc 3eb7 5dba 6369 383d
00000130: 3579 a7ba 0b7b 1dbc 1efe f9bb 8f67 91bc
00000140: 25b3 02b8 48b2 c43b 6227 16b9 5990 bab8
00000150: d62b 8bb8 d84e 003c 4021 4639 4e46 1c3b
00000160: b8ff 0a3b 6107 393b 0958 b9b8 f537 5d3c
00000170: a86f c5b9 ed1d c23b 0863 663b 4e56 073c
00000180: 43fc 28ba fa81 44bc 912b 83b9 32e4 54ba
00000190: 04f5 123c ca36 ab3b ee14 5fbd 958f b7bd
000001a0: 3480 e73d 0e6a 98bc b078 85b9 8427 56ba
000001b0: 5734 c3ba 1bdc 9bbd 284b a1bb e532 7f3d
000001c0: a42c 3239 ba03 6b3d 309f be3a 93ea ec39
000001d0: 4074 b23c 140d 433d dd99 4bbc 3622 623d
000001e0: 98b8 2c3d 99ba 303c d0eb b839 1893 d13d
000001f0: 7c09 4e3a 803a d43d 05f0 2d3d f550 6e3c
00000200: 7c0c 6b39 ddf5 223e 0287 4bba ab96 a23a
00000210: f456 46bd f27a 503b 1243 003d 8de7 0e3e
00000220: 19e4 cc3a ab2b 97bc 9945 bd39 f518 543e
00000230: 88ab aa39 da1c 8f3b 4dd0 993d 48e2 093c
00000240: d86c 2eb9 62a1 063e 1518 a43a c11a fab8
00000250: 53da d83b 66a2 a9bc 117d e9bc fda3 d43d
00000260: b861 173d e7ea 563d dddb 74b9 8e6a 84bd
00000270: efd2 a038 e0f8 5a3e c3d7 4a3c bc9c 3d3c
00000280: dcc3 5fb8 234c 1dbc 85cd f2ba d5fe 4cba
00000290: 0b3a 07bc ad54 81bd e993 e73c 55a3 943d
000002a0: 01ef 213d f611 9b3c 1a25 86b8 2737 60bd
000002b0: b9c0 4db9 49d4 bb3d d9e0 453d 7015 a53d
000002c0: 4f5f 9039 db36 383e 0b5e 52ba 1681 4b3a
000002d0: 0f49 53bd 643c 213e 81e4 b43e 207f e33d
000002e0: e1a6 d63d b534 233e c35d 6e3a 3099 d83e
000002f0: 9f6e c23a b200 85bd 75ac 8e3e 5a51 0c3d
00000300: 03f4 07b9 7045 b9bd d8d2 56ba f628 0a3b
00000310: 65f8 d9bd a7ed d83c 8c62 3c3e 3faf b63d
00000320: b554 553e 06c9 633e 4e19 3b38 0677 bdbd
00000330: c5f2 1a3a b098 f53d 9a5b b0be 6948 e13b
00000340: 7405 01ba 43a2 393d d519 c9b9 cc21 293a
00000350: ad9f 44bc e4b7 3f3d d30c 8dbc 2238 87bd
00000360: 6e44 713d 50e4 5cbb 407a 7eb9 63d2 093e
00000370: d762 2bba e142 c8bd 50e5 2d3d 756c 42bc
00000380: bfff 1b38 f8c7 9c3d 063d a43a 9d94 433b
00000390: 2ebd b23b e666 cfbb 7a4b 243e 204c 5cbd
000003a0: ef32 823d 3ac0 b53d 67ab 703a 9c7a b03c
000003b0: 6a8c 623b 35f0 71bd 8537 213c cd61 a93d
000003c0: 266b 293a ff9b 5c3e efe0 1dbb 9c24 cd3a
000003d0: 2213 42bd 5394 263e da4f 193e 9ec4 023e
000003e0: 68a9 e0bc 823c 1cbe 8efb 6e3a 08fd 3c3e
000003f0: 82b7 bc3a 130c 573e 0c06 803e 6388 3d3d

gnn.init_context.attentive_gru.gru.bias_ih f4 [48]
-8.17857e-26 0.056822177 -0.009583845 0.0008918895 0.0031870373 0.012555172 -0.017428845 0.08165989
-0.0015245473 -0.056877404 -0.0067187804 0.19102275 0.4087527 -0.011012762 0.19828066 0.22342488
0.00012198316 0.32123625 -0.31509513 0.026824871 -0.11594411 -0.10575807 0.029546484 0.11566965
0.20151262 0.042840764 -0.06266598 -0.06301397 -0.338606 0.226449 -0.15099682 0.03480455
-0.010157853 0.0938279 0.027843948 0.07073764 -0.10088919 -0.2189888 -0.005871121 -0.019832436
-0.0055793636 0.11257417 -0.016229667 0.09497708 0.025788628 0.0084731765 -0.0667786 0.116951376
00000000: d97d ca95 5fbe 683d 8f05 1dbc b1cd 693a
00000010: 9ddd 503b 35b4 4d3c f0c6 8ebc 4d3d a73d
00000020: 52d3 c7ba 48f8 68bd 3729 dcbb 789b 433e
00000030: 0948 d13e df6e 34bc 160a 4b3e 7ec9 643e
00000040: 36d1 ff38 1479 a43e 2654 a1be d5bf db3c
00000050: 1b74 edbd b097 d8bd 780b f23c 36e4 ec3d
00000060: 5359 4e3e cc79 2f3d 0557 80bd 780d 81bd
00000070: c45d adbe 3fe2 673e e99e 1abe 378f 0e3d
00000080: 206d 26bc d828 c03d fe18 e43c e5de 903d
00000090: fe9e cebd 9a3e 60be 8862 c0bb a277 a2bc
000000a0: 18d3 b6bb 498d e63d 14f4 84bc 5883 c23d
000000b0: ac42 d33c 14d3 0a3c 38c3 88bd 3484 ef3d

gnn.init_context.attentive_gru.gru.bias_hh f4 [48]
3.011285e-26 0.045357443 -0.009440588 0.00091154885 0.0031594064 0.012548004 -0.05848905 0.081328124
0.111603476 0.15199305 0.016567605 0.25761074 0.40500706 -0.010909367 0.14932895 0.16260304
0.00012237718 0.21543857 -0.3609726 0.026296495 -0.18560553 -0.08409053 0.29521888 0.13306554
0.2329282 -0.18021227 -0.07292278 0.060742494 -0.2620113 0.13533598 -0.1026531 -0.14505814
-0.014055953 0.18066688 0.102442525 -0.06480615 -0.10151284 -0.15552239 -0.02040983 -0.19689254
-0.068728544 0.08594068 -0.24031623 0.16579928 -0.3108465 -0.15904762 -0.1810512 -0.12392895
00000000: 931c 1515 bac8 393d b2ac 1abc 02f5 6e3a
00000010: 0b0e 4f3b 2596 4d3c 3792 6fbd 5c8f a63d
00000020: 5d90 e43d 11a4 1b3e c9b8 873c 8ee5 833e
00000030: 165d cf3e 34bd 32bc b0e9 183e 6981 263e
00000040: 6052 0039 ee9b 5c3e 67d1 b8be bf6b d73c
00000050: 600f 3ebe a837 acbd ee26 973e 5542 083e
00000060: bb84 6e3e 9189 38be 8a58 95bd 1fcd 783d
00000070: 5826 86be 8495 0a3e ca3b d2bd 1f8a 14be
00000080: f14a 66bc bd00 393e 63cd d13d 16b9 84bd
00000090: f7e5 cfbd 4341 1fbe 8432 a7bc 339e 49be
000000a0: 8dc1 8cbd ab01 b03d 7515 76be 49c7 293e
000000b0: 4627 9fbe 61dd 22be 7c65 39be 76ce fdbd

readout.readouts.0.compute_logits.0.weight f4 [1, 32]
1.264066e-33 0.07350876 -0.0069862483 -3.1307265e-13 0.0014490172 -2.7692781e-10 0.11690944 0.039787404
0.034783676 0.12583686 0.0034314205 0.035303958 6.584177e-05 0.051310476 0.00028804992 0.0391279
1.5554709e-27 0.26548976 0.08228659 2.831742e-07 -0.055604346 0.0010386026 -0.5087447 -0.14236334
0.708631 -0.5033128 -0.05464488 0.14979222 0.46539438 -0.08438985 -0.025510741 0.43128973
00000000: 6c07 d208 c38b 963d e6ec e4bb 863e b0aa
00000010: f3ec bd3a 203e 98af 376e ef3d 1ef8 223d
00000020: 5479 0e3d 61db 003e afe1 603b e29a 103d
00000030: 8814 8a38 ef2a 523d 6805 9739 9444 203d
00000040: 6579 f612 46ee 873e df85 a83d 2a07 9834
00000050: 62c1 63bd b821 883a 183d 02bf b2c7 11be
00000060: d768 353f 1cd9 00bf 4fd3 5fbd 2263 193e
00000070: 2c48 ee3e 96d4 acbd e7fb d0bc 02d2 dc3e

readout.readouts.0.project_nodes.1.weight f4 [16, 16]
1.02851704e-22 -0.16078267 -0.21770455 -7.0358276e-08 -0.0707997 1.6905688e-05 0.099771574 -0.16819312
0.045861 -0.20119575 -0.057386253 -0.35189644 -0.10488209 0.016127951 -0.101370156 -0.093883984
7.0641924e-27 0.13312668 0.1436885 7.8641534e-08 -0.018369941 0.0001296643 -0.17675146 -0.120441094
-0.29072353 -0.22371614 0.0019792267 0.46768263 -0.48838344 -0.42703637 -0.16120286 -0.30059883
-2.1030965e-26 0.1221613 0.3122417 2.358442e-07 -0.020156996 0.000114947536 -0.19954589 -0.18592909
0.022749098 -0.00945403 0.032728955 0.6759609 -0.5157275 -0.583309 -0.21683508 -0.43392655
3.5288085e-25 0.09105311 -0.033907168 -5.5650413e-09 -0.022032162 -7.622265e-06 -0.167038 -0.1414847
-0.1422794 -0.08243829 -0.027160918 0.09380362 -0.24911144 -0.1115727 -0.21194445 -0.1773987
-1.9753586e-26 0.063643724 0.07657083 -2.5252419e-08 -0.04434794 -9.78318e-06 -0.17721222 -0.15558816
-0.07102934 -0.30791605 -0.032634776 0.18416172 -0.3546543 -0.2301467 -0.19684258 -0.26276955
1.0324294e-25 -0.19312747 -0.15794247 8.185833e-08 -0.04086495 7.4748373e-06 -0.01843714 -0.1444632
-0.036015775 -0.113235794 -0.04191917 -0.28853136 -0.09326923 -0.13104491 -0.097061425 -0.05831031
3.7686918e-26 0.27443972 0.14114408 5.4112757e-08 0.008627157 8.685744e-05 -0.05232147 -0.1263741
-0.097241364 -0.20170145 0.015961029 0.5105177 -0.4549321 -0.41859743 -0.16567792 -0.29127073
-2.3675954e-25 -0.09719442 0.19104302 1.3061207e-07 0.10361882 1.8864215e-06 0.33389652 0.15507409
0.026624888 0.2902398 0.07496208 0.29207063 0.25083178 0.12509729 0.21634477 -0.045823116
8.4981964e-26 0.002954612 -0.041705392 1.5893592e-08 -0.02170875 -6.683953e-06 -0.18625419 -0.09775329
-0.11316806 -0.28124225 -0.019244367 -0.010216845 -0.19930732 -0.093102396 -0.12179986 -0.12645356
1.634821e-26 -0.14622608 -0.07221577 1.3388229e-08 0.025186375 1.9960153e-05 0.16333097 0.16150284
0.0643948 0.092044204 -0.009219135 -0.06436103 0.37574163 0.19182663 0.13450529 0.19751266
1.3051148e-25 0.07015732 -0.17390609 -4.6802803e-08 -0.04785485 -5.482747e-06 -0.075431146 -0.10465961
0.0007476271 -0.24064557 -0.035814494 -0.23952481 -0.099994406 0.024641305 -0.026150182 0.05122962
-5.571319e-25 -0.11707153 0.17409968 1.1828609e-07 0.034534123 1.2178468e-05 0.1719954 -0.06448781
-0.49456322 -0.13279018 0.0476841 0.21464893 -0.3015438 0.038643546 -0.14749363 -0.22691658
1.4440413e-26 0.20040713 0.024782399 5.476761e-09 -0.004559764 8.955816e-06 -0.21668269 -0.062000293
-0.1425159 -0.07876729 0.0012492795 0.27087986 -0.3437847 -0.27883303 -0.12279886 -0.17352659
-1.1341094e-24 -0.058626324 -0.031266555 -7.0793407e-09 -0.009818787 -9.32185e-06 -0.21935596 -0.19497807
-0.15726334 -0.2142286 -0.016491225 -0.09418647 -0.24622628 -0.3415753 -0.15888019 -0.18949197
-2.5125087e-25 0.24545355 0.07944286 4.435021e-08 0.016669959 8.783898e-06 0.24046569 0.16468666
0.31207022 0.04663416 0.014554553 0.021378314 0.47561675 0.26272318 0.20743981 0.18600297
1.434967e-25 0.11004707 0.020654222 -2.0015317e-08 0.018507797 4.5333127e-06 -0.0711103 0.13238183
0.14648567 0.19857284 0.0230564 0.023156388 0.31891325 -0.00022522768 0.14625718 0.0644869
00000000: 1fae f81a 36a4 24be f1ed 5ebe df17 97b3
00000010: 6fff 90bd b0d0 8d37 0a55 cc3d d13a 2cbe
00000020: bed8 3b3d 4206 4ebe d90d 6bbd c52b b4be
00000030: 6ccc d6bd c41e 843c 289b cfbd 3f46 c0bd
00000040: b6eb 0b14 5c52 083e 1423 133e a4e1 a833
00000050: 8f7c 96bc 7ff6 0739 56fe 34be d2a9 f6bd
00000060: b7d9 94be d815 65be eab5 013b 1974 ef3e
00000070: 650d fabe 83a4 dabe 5d12 25be 17e8 99be
00000080: d547 d094 b42f fa3d 25de 9f3e 5c3c 7d34
00000090: 4920 a5bc fd0f f138 c255 4cbe 3264 3ebe
000000a0: 515c ba3c 13e5 1abc cc0e 063d c60b 2d3f
000000b0: b806 04bf bd53 15bf 040a 5ebe 9f2b debe
000000c0: 346c da16 0e7a ba3d 3ee2 0abd 9f36 bfb1
000000d0: cb7c b4bc c2c2 ffb6 020c 2bbe 5de1 10be
000000e0: b1b1 11be 68d5 a8bd 9380 debc 1d1c c03d
000000f0: 1217 7fbe 3a80 e4bd f707 59be 01a8 35be
00000100: 4aa1 c394 a457 823d 2bd1 9c3d a8ea d8b2
00000110: 2fa6 35bd 7022 24b7 1f77 35be 8152 1fbe
00000120: d577 91bd 2ca7 9dbe 0bac 05bd e494 3c3e
00000130: 4095 b5be 94ab 6bbe 1a91 49be bb89 86be
00000140: fd9d ff15 35c3 45be acbb 21be 18ca af33
00000150: 0162 27bd 5dd0 fa36 7c09 97bc 29ee 13be
00000160: 4785 13bd 2be8 e7bd 70b3 2bbd 62ba 93be
00000170: f003 bfbd a330 06be 24c8 c6bd cbd6 6ebd
00000180: d89d 3a15 5d83 8c3e 1388 103e 9b69 6833
00000190: eb58 0d3c 3c27 b638 0a4f 56bd 3668 01be
000001a0: 7b26 c7bd d38a 4ebe b4c0 823c 4ab1 023f
000001b0: dcec e8be 6752 d6be 79a7 29be 7021 95be
000001c0: 0c8c 9296 de0d c7bd c8a0 433e 5f3e 0c34
000001d0: 1b36 d43d f330 fd35 7cf4 aa3e becb 1e3e
000001e0: 701c da3c 509a 943e b885 993d 488a 953e
000001f0: 066d 803e 8119 003e 7c89 5d3e 05b1 3bbd
00000200: b867 d215 2aa2 413b 46d3 2abd 6186 8832
00000210: 8cd6 b1bc b846 e0b6 6bb9 3ebe e032 c8bd
00000220: a8c4 e7bd fcfe 8fbe 5da6 9dbc 8e64 27bc
00000230: 3817 4cbe 78ac bebd 3472 f9bd 0b7d 01be
00000240: a3e7 a114 4abc 15be dde5 93bd 0e02 6632
00000250: a853 ce3c 1a70 a737 3c40 273e 0061 253e
00000260: 6ce1 833d ac81 bc3d db0b 17bc b7cf 83bd
00000270: 3561 c03e 336e 443e c1bb 093e c240 4a3e
00000280: bd90 2116 a4ae 8f3d 7014 32be 3a04 49b3
00000290: 7203 44bd 70f8 b7b6 a57b 9abd c757 d6bd
000002a0: 68fc 433a cb6b 76be 38b2 12bd fe45 75be
000002b0: dec9 ccbd 90dc c93c e838 d6bc 26d6 513d
000002c0: 896c 2c97 33c3 efbd 3047 323e 7704 fe33
000002d0: a773 0d3d 1f52 4c37 901f 303e 2f12 84bd
000002e0: 6437 fdbe 26fa 07be 6750 433d eecc 5b3e
000002f0: f363 9abe b248 1e3d 9208 17be d25c 68be
00000300: cc02 8f14 8737 4d3e 7504 cb3c 192e bc31
00000310: 136a 95bb f040 1637 11e2 5dbe 05f4 7dbd
00000320: b0ef 11be bf50 a1bd ddbe a33a c4b0 8a3e
00000330: 8c04 b0be 34c3 8ebe f87d fbbd f4b0 31be
00000340: b47e af97 2822 70bd 5c11 00bd 8a3e f3b1
00000350: fade 20bc 0a65 1cb7 d99e 60be 55a8 47be
00000360: a409 21be be5e 5bbe 9b18 87bc d6e4 c0bd
00000370: be22 7cbe f5e2 aebe 7db1 22be 2f0a 42be
00000380: 4a84 9b96 2d58 7b3e f0b2 a23d 927b 3e33
00000390: 708f 883c 8e5e 1337 a33c 763e 9fa3 283e
000003a0: abc7 9f3e 7603 3f3d 3876 6e3c 9321 af3c
000003b0: 0a84 f33e a783 863e 1a6b 543e 9077 3e3e
000003c0: eba3 3116 5c60 e13d 0b33 a93c 26ee abb2
000003d0: aa9d 973c dc1c 9836 47a2 91bd 1a8f 073e
000003e0: 5700 163e ae56 4b3e c6e0 bc3c 77b2 bd3c
000003f0: 9948 a33e 182b 6cb9 71c4 153e b511 843d

readout.readouts.0.project_nodes.1.bias f4 [16]
-0.29264882 -0.06747002 0.076289825 -0.3886345 -0.17435649 -0.35287762 -0.054548256 0.46260214
-0.28750983 0.14419746 -0.26270807 0.22305816 -0.31526873 -0.33031505 0.46004057 0.077995256
00000000: 11d6 95be b92d 8abd d73d 9c3d 1afb c6be
00000010: 828a 32be 60ac b4be fe6d 5fbd 30da ec3e
00000020: 7d34 93be 80a8 133e ac81 86be 5c69 643e
00000030: e76a a1be 0e1f a9be 708a eb3e fabb 9f3d

readout.readouts.0.gru.weight_ih f4 [48, 16]
0.021459162 0.16763602 0.18050362 0.117935844 0.12899528 0.07396721 0.15699865 -0.16397507
0.11790329 -0.13665882 0.07184519 -0.041563213 0.14725383 0.1406598 -0.1722879 -0.0133666685
-0.005794778 -0.009278336 -0.009554714 -0.00801372 -0.0077883755 -0.006452478 -0.009455772 0.006656397
-0.0060828794 0.007550008 -0.004409871 -0.0011975982 -0.006847269 -0.0065505104 0.011924426 0.00659131
-0.18615471 -0.4234111 -0.33216637 -0.34643096 -0.33806574 -0.27243483 -0.3459534 0.3580628
-0.3977188 0.23941141 -0.21674614 0.093066484 -0.37218693 -0.26021373 0.48252866 0.11575034
-0.012501263 -0.02105074 -0.0051193293 -0.017064271 -0.015151043 -0.013863231 -0.014184636 0.010759723
-0.01422234 0.014457312 -0.010180841 -0.00583762 -0.015443403 -0.012643253 0.030941078 0.016827213
-0.0055758767 -0.0029701595 -0.0003499735 -0.0048797294 -0.0039096274 -0.0066388296 -0.0010349283 0.011103417
-0.0053426754 0.0037632023 -0.0038900522 0.0010231558 -0.0041064667 -0.0067255115 0.012791988 0.0039438424
0.013043572 -0.034608074 -0.025506658 -0.00695371 -0.005120691 0.008351908 -0.032455362 -0.027210824
-0.0025804676 0.006648482 0.0116752675 -0.028157072 -0.017726481 0.0077066906 0.015831023 0.0087538175
-0.23262718 -0.15823607 0.00085889467 -0.21169662 -0.18144514 -0.22733338 -0.11863347 0.2844243
-0.24159487 0.17082155 -0.22000918 0.1300118 -0.18466961 -0.21434219 0.26577696 0.20226346
0.015287199 0.062372264 0.0023858869 0.024683049 0.033156745 0.0148865 0.044025518 -0.01936558
0.026918292 -0.037773404 0.011217909 0.054637652 0.028014813 0.01705672 -0.051697433 -0.043136045
-0.035239592 -0.008452446 0.0155629 -0.026723163 -0.019819511 -0.03678817 0.0013350494 0.044237826
-0.030029587 0.016618492 -0.027730426 0.009261854 -0.01731247 -0.033800412 0.04300653 0.02204547
-0.07067436 -0.25531754 -0.34786385 -0.18105537 -0.19452967 -0.10909702 -0.22132848 0.3272909
-0.20503837 0.17493874 -0.10085195 0.005725286 -0.23748213 -0.19303055 0.26979664 0.06413221
-0.00961085 -0.005940868 -0.00092876225 -0.0089938715 -0.007187699 -0.010755552 -0.0063864887 0.01450432
-0.008748585 0.0061904327 -0.00742489 0.0020836073 -0.006865856 -0.009707388 0.018066697 0.0067735906
-0.2068118 -0.2807494 0.004195945 -0.20310242 -0.25157708 -0.14210044 -0.15199031 0.44041964
-0.11264442 0.2030831 -0.31769213 0.15718353 -0.21778667 -0.27137172 0.24737674 0.1590438
-0.22136351 -0.27253166 -0.16360126 -0.24956149 -0.25230274 -0.24114989 -0.23907116 0.3310572
-0.25761762 0.22609898 -0.20068675 -0.14262101 -0.24509488 -0.27855992 0.3546535 0.22961819
0.07051308 0.12710449 -0.051177118 0.06838962 0.02749058 -0.031608254 -0.009123838 -0.198574
0.082426764 -0.007003704 0.034979463 0.11468708 0.05603813 0.13009109 -0.19455455 -0.12314517
-0.14974932 -0.14385523 -0.016113272 -0.116210945 -0.14016862 -0.16601284 -0.107028455 0.1986373
-0.11879549 0.11264961 -0.16453198 0.075315356 -0.1368801 -0.13120607 0.25253728 0.1398816
-0.0026896077 -0.0015118438 -0.00082566316 -0.002248654 -0.0017874722 -0.0030579648 -0.0010728023 0.004731375
-0.0025009986 0.001902063 -0.0017325642 -0.0005158683 -0.0017707881 -0.003139656 0.005478241 0.0020338057
00000000: 20cb af3c c7a8 2b3e f1d5 383e 5988 f13d
00000010: 5717 043e 1f7c 973d 41c4 203e 15e9 27be
00000020: 4877 f13d 4af0 0bbe 9223 933d 303e 2abd
00000030: b5c9 163e 1f09 103e 3d6c 30be dfff 5abc
00000040: 1fe2 bdbb 2904 18bc 608b 1cbc fa4b 03bc
00000050: a135 ffbb 4f6f d3bb 62ec 1abc e81d da3b
00000060: e452 c7bb 0f66 f73b ae80 90bb baf8 9cba
00000070: 0e5f e0bb aaa5 d6bb ab5e 433c eafb d73b
00000080: 579f 3ebe 57c9 d8be b611 aabe 665f b1be
00000090: f416 adbe 947c 8bbe ce20 b1be 0254 b73e
000000a0: cca1 cbbe 4428 753e b3f2 5dbe a499 be3d
000000b0: 498f bebe bc3a 85be ff0d f73e 840e ed3d
000000c0: 19d2 4cbc 9a72 acbc 0cc0 a7bb 5fca 8bbc
000000d0: 153c 78bc 9b22 63bc ad66 68bc 8d49 303c
000000e0: d104 69bc 5dde 6c3c 8bcd 26bc 8149 bfbb
000000f0: 5406 7dbc a625 4fbc 2578 fd3c 39d9 893c
00000100: d8b5 b6bb 02a7 42bb a67c b7b9 23e6 9fbb
00000110: 551c 80bb 8a8a d9bb 6ea6 87ba 1beb 353c
00000120: 9c11 afbb 0fa0 763b 3ff0 7ebb 691b 863a
00000130: 8a8f 86bb ae61 dcbb 7d95 513c 593b 813b
00000140: b5b4 553c 32c1 0dbd 57f3 d0bc f3db e3bb
00000150: 78cb a7bb 71d6 083c eaef 04bd 3ce9 debc
00000160: 101d 29bb 82db d93b 9f49 3f3c a9a9 e6bc
00000170: 2037 91bc 6888 fc3b 10b0 813c 2c6c 0f3c
00000180: d235 6ebe a308 22be 7227 613a 00c7 58be
00000190: c1cc 39be 15ca 68be 1bf6 f2bd 10a0 913e
000001a0: a564 77be d8eb 2e3e 164a 61be d021 053e
000001b0: 081a 3dbe 857c 5bbe eb13 883e 271e 4f3e
000001c0: 2977 7a3c 0f7a 7f3d 8a5c 1c3b 1b34 ca3c
000001d0: 5ecf 073d 82e6 733c 1a54 343d 91a4 9ebc
000001e0: c083 dc3c 49b8 1abd 52cb 373c bbcb 5f3d
000001f0: 527f e53c 89ba 8b3c b0c0 53bd 6caf 30bd
00000200: 6457 10bd 217c 0abc 89fb 7e3c 89ea dabc
00000210: 875c a2bc 31af 16bd d3fc ae3a b932 353d
00000220: 9c00 f6bc 8123 883c eb2a e3bc 08bf 173c
00000230: e2d2 8dbc 4d72 0abd 9d27 303d b498 b43c
00000240: b8bd 90bd fbb8 82be 361b b2be 9466 39be
00000250: c932 47be 426e dfbd efa3 62be ac92 a73e
00000260: 94f5 51be 2423 333e 788b cebd 2e9b bb3b
00000270: 842e 73be cda9 45be c922 8a3e c057 833d
00000280: d476 1dbc 9dab c2bb 2e78 73ba 085b 13bc
00000290: ca86 ebbb 0e38 30bc c045 d1bb 87a3 6d3c
000002a0: 3a56 0fbc 1dd9 ca3b 7e4c f3bb 218d 083b
000002b0: f9fa e0bb bc0b 1fbc 9c00 943c fff4 dd3b
000002c0: 79c6 53be 63be 8fbe 237e 893b 15fa 4fbe
000002d0: b6ce 80be c782 11be 59a3 1bbe af7e e13e
000002e0: 1eb2 e6bd 04f5 4f3e 8ba8 a2be b8f4 203e
000002f0: 7803 5fbe 3cf1 8abe 5450 7d3e 61dc 223e
00000300: 1ead 62be 4589 8bbe 1787 27be 0c8d 7fbe
00000310: d32d 81be ffef 76be 12cf 74be 5480 a93e
00000320: 75e6 83be 7e86 673e d480 4dbe 3e0b 12be
00000330: 27fa 7abe 689f 8ebe 2595 b53e 0821 6b3e
00000340: 2969 903d ae27 023e 199f 51bd db0f 8c3d
00000350: ed33 e13c a877 01bd 267c 15bc fc56 4bbe
00000360: 5dcf a83d 547f e5bb a046 0f3d 0fe1 ea3d
00000370: 3d88 653d 9936 053e 4f39 47be 8933 fcbd
00000380: e357 19be c94e 13be fbff 83bc 0100 eebd
00000390: 5d88 0fbe 45ff 29be bc31 dbbd 9467 4b3e
000003a0: 0d4b f3bd d7b4 e63d 127b 28be f03e 9a3d
000003b0: 4c2a 0cbe e25a 06be 914c 813e 1f3d 0f3e
000003c0: 2144 30bb 0f29 c6ba 5171 58ba 275e 13bb
000003d0: 9d49 eaba 2368 48bb 469d 8cba a609 9b3b
000003e0: cbe7 23bb a54e f93a 3517 e3ba 563b 07ba
000003f0: ca19 e8ba b0c2 4dbb d182 b33b 9949 053b
