1-GNNs/result/6108_AR_NURA_AFP_0920/saved_model/AttentiveFP_bst_9.pth (torch, 34842 bytes, 19 tensors)

gnn.init_context.project_node.0.weight f4 [16, 74]
0	0xbe11322b	-0.14179294
1	0x3c031913	0.008001584
2	0xbf108440	-0.564518
3	0x3e133442	0.14375404
4	0x3f0ad395	0.542291
5	0x00016b41	1.30311e-40
6	0xbe9abad6	-0.3022067
7	0x3f769a14	0.96328855
8	0xbe90936e	-0.2823748
9	0x8005d537	-5.35665e-40
10	0x80061c5b	-5.61185e-40
11	0x00033979	2.96124e-40
12	0x800255dd	-2.14473e-40
13	0x00024030	2.06697e-40
14	0x8003747d	-3.17295e-40
15	0x3e0dfc4b	0.13865773
16	0x80012325	-1.04443e-40
17	0x8003f15f	-3.62094e-40
18	0x8002307a	-2.01061e-40
19	0x0002620a	2.18841e-40
20	0x80084927	-7.60926e-40
21	0x80014fb0	-1.20422e-40
22	0x00018293	1.38677e-40
23	0x80019baf	-1.47684e-40
24	0x8001a65c	-1.51514e-40
25	0x8001d842	-1.69414e-40
26	0x0002eb7a	2.68144e-40
27	0x00082636	7.48391e-40
28	0x0002bcaa	2.51351e-40
29	0x0003a2f1	3.33959e-40
30	0x800798d8	-6.97678e-40
31	0x0001b71c	1.57523e-40
32	0x0001c7f8	1.63571e-40
33	0x800231b2	-2.01498e-40
34	0x00082eeb	7.51515e-40
35	0x8000c016	-6.8907e-41
36	0x80016f6b	-1.31805e-40
37	0x8001070a	-9.436e-41
38	0x0002a7c9	2.43861e-40
39	0x80016742	-1.28877e-40
40	0x800226f6	-1.97648e-40
41	0x800588bc	-5.08229e-40
42	0x000062c7	3.5435e-41
43	0x80011a0f	-1.01184e-40
44	0x3ed7aac2	0.42122465
45	0xbcfbb07c	-0.030723803
46	0xbe52fd1d	-0.20604368
47	0xbb441264	-0.0029918188
48	0x0002c332	2.53694e-40
49	0x80040138	-3.67779e-40
50	0x0004e270	4.48572e-40
51	0x000234ae	2.02569e-40
52	0x8003bea9	-3.43902e-40
53	0x80058ab5	-5.08936e-40
54	0x3dc06e54	0.093960434
55	0xbe005f0e	-0.1253626
56	0xbe3428f5	-0.17593749
57	0x3e584b91	0.21122576
58	0x000346d0	3.00909e-40
59	0x80077343	-6.84197e-40
60	0x8002754e	-2.25752e-40
61	0xbed0403a	-0.40674
62	0x3a944853	0.0011313058
63	0xbe9883b2	-0.29787976
64	0xbe131874	-0.14364797
65	0x3eac080e	0.33599895
66	0x0007d35d	7.18671e-40
67	0x00007371	4.1413e-41
68	0xbdfa2495	-0.12214009
69	0x3dc8be93	0.09801974
70	0xbdf6edbc	-0.12057063
71	0xbe1734f1	-0.1476629
72	0x3e8229a6	0.254224
73	0x8000682f	-3.7374e-41
74	0xba9a1a0c	-0.001175703
75	0x3ebb7d08	0.3661883
76	0x3e2b13b4	0.16706735
77	0xbebaf67f	-0.36516187
78	0xbdd047b4	-0.10169926
79	0x000558a9	4.90983e-40
80	0x3d48a854	0.048988655
81	0xbd46705c	-0.048446998
82	0xbe07c570	-0.1325891
83	0x800475b5	-4.09567e-40
84	0x000151ca	1.21176e-40
85	0x8005c360	-5.29265e-40
86	0x0005b800	5.25184e-40
87	0x80022924	-1.9843e-40
88	0x8005bad9	-5.26206e-40
89	0xbe141e2f	-0.14464639
90	0x800175c3	-1.3408e-40
91	0x00011542	9.9461e-41
92	0x0006d644	6.27877e-40
93	0x80026f05	-2.23497e-40
94	0x00022a59	1.98862e-40
95	0x000190e1	1.43808e-40
96	0x000352cc	3.05208e-40
97	0x80018c18	-1.42092e-40
98	0x0003b1d2	3.39296e-40
99	0x800086e8	-4.8395e-41
100	0x80012a7d	-1.07077e-40
101	0x800b2647	-1.023922e-39
102	0x80049808	-4.2188e-40
103	0x8008fa2c	-8.24429e-40
104	0x000337c5	2.95513e-40
105	0x00004268	2.3822e-41
106	0x000218ab	1.9252e-40
107	0x0000375d	1.986e-41
108	0x80026dbf	-2.2304e-40
109	0x8000a340	-5.8563e-41
110	0x80038f1e	-3.26847e-40
111	0x80041192	-3.73645e-40
112	0x800423b5	-3.80151e-40
113	0x0001f3bf	1.79275e-40
114	0x00021426	1.90899e-40
115	0x8000861d	-4.8111e-41
116	0x8001b5e8	-1.57091e-40
117	0x00009911	5.491e-41
118	0xbe86e4b0	-0.2634635
119	0x3eb09d7a	0.34495145
120	0x3dfca355	0.123358406
121	0xbe126631	-0.14296795
122	0x0005c448	5.2959e-40
123	0x800010d6	-6.04e-42
124	0x0005b888	5.25375e-40
125	0x0002b6e2	2.49277e-40
126	0x800954a8	-8.56888e-40
127	0x0001c95b	1.64068e-40
128	0x3e526280	0.20545387
129	0xbe171992	-0.14755848
130	0xbdfa9704	-0.12235835
131	0x3968a75e	0.00022187593
132	0x8006471c	-5.76522e-40
133	0x80020fdc	-1.8936e-40
134	0x000382bf	3.2241e-40
135	0x3e943ae7	0.2895119
136	0xb90c1835	-0.00013360458
137	0x3ea9f614	0.33195555
138	0xbd229c30	-0.039699733
139	0xbcb4e6d1	-0.022082718
140	0x0001e644	1.74439e-40
141	0x8001b8f9	-1.58191e-40
142	0xbee72850	-0.45147943
143	0x3e6bb474	0.23018056
144	0xbdda70a3	-0.10666015
145	0xbdfa59d5	-0.12224165
146	0x394616ac	0.00018891197
147	0x00003ac4	2.1081e-41
148	0x3dcf89a3	0.10133674
149	0xbe1f7193	-0.15570669
150	0xbe28db96	-0.16490015
151	0x3d11eb86	0.035625003
152	0x3e125ee4	0.1429401
153	0x0004b9ad	4.3395e-40
154	0x3ea3af3c	0.3196963
155	0xbc2d8f74	-0.010593284
156	0xbc39828c	-0.011322629
157	0x0003d592	3.52121e-40
158	0x8002201f	-1.95194e-40
159	0x80022f3b	-2.00614e-40
160	0x000048b9	2.6088e-41
161	0x8005da28	-5.37437e-40
162	0x0000414b	2.3423e-41
163	0x3a0bd4fb	0.0005334166
164	0x80015623	-1.22736e-40
165	0x80015aa0	-1.24346e-40
166	0x8001971e	-1.46046e-40
167	0x000178dc	1.35192e-40
168	0x00028458	2.31147e-40
169	0x0002de8d	2.63507e-40
170	0x80007370	-4.1411e-41
171	0x00027078	2.24017e-40
172	0x8000cde2	-7.3857e-41
173	0x00018119	1.38147e-40
174	0x8002fad5	-2.73653e-40
175	0x00009cdc	5.627e-41
176	0x80028c43	-2.33987e-40
177	0x80016a1d	-1.29902e-40
178	0x8000f0bd	-8.636e-41
179	0x00017bb9	1.36219e-40
180	0x00044e39	3.95403e-40
181	0x800406a6	-3.69727e-40
182	0x0002f8c0	2.72906e-40
183	0x0000b371	6.4371e-41
184	0x8009e263	-9.07732e-40
185	0x80032900	-2.90215e-40
186	0x0004623c	4.02582e-40
187	0x8003a929	-3.3619e-40
188	0x8002d541	-2.60172e-40
189	0x00039fa1	3.3277e-40
190	0x800074e4	-4.1932e-41
191	0x00002a92	1.5271e-41
192	0xbe02c6c4	-0.12771136
193	0xbe4fe58a	-0.20302406
194	0x3dac92e8	0.08426458
195	0x3db8f6c0	0.09031439
196	0x0003efa3	3.61472e-40
197	0x80035123	-3.04613e-40
198	0x80026cf2	-2.22753e-40
199	0x800206f1	-1.86161e-40
200	0x00031374	2.82485e-40
201	0x000218c4	1.92555e-40
202	0xbda14dea	-0.07876189
203	0x3d486e39	0.04893324
204	0xbda03629	-0.0782283
205	0x3c495ff3	0.0122909425
206	0x0007efb0	7.28832e-40
207	0x00055804	4.90752e-40
208	0x80021d81	-1.94255e-40
209	0x3e0afb36	0.13572392
210	0x3703b4ce	7.850305e-06
211	0x3f203c85	0.62592345
212	0xbe593d81	-0.21214868
213	0x3d486a9f	0.048929807
214	0x00004d2c	2.7684e-41
215	0x8001a90a	-1.52475e-40
216	0xbd97e27c	-0.07416245
217	0x3b6db77a	0.003627269
218	0x3e5b1151	0.21393324
219	0xbdae4c0d	-0.08510599
220	0x3c58a946	0.013223952
221	0x000aea35	1.002373e-39
222	0x3d9de8c8	0.07710415
223	0x3e55bde9	0.20873226
224	0xbe7eae05	-0.2487107
225	0x3e086607	0.1332017
226	0x3df9fdeb	0.12206634
227	0x800297b2	-2.38089e-40
228	0xbd546478	-0.051853627
229	0xbdd741fa	-0.10510631
230	0x3e29fad9	0.16599597
231	0x8001a1b2	-1.49841e-40
232	0x80009398	-5.2947e-41
233	0x8004340d	-3.86014e-40
234	0x8006617f	-5.85988e-40
235	0x8000afa6	-6.3011e-41
236	0x0002982d	2.38261e-40
237	0x3dae4692	0.08509554
238	0x80065317	-5.8082e-40
239	0x800173d1	-1.33383e-40
240	0x00020669	1.8597e-40
241	0x00029b78	2.39443e-40
242	0x8006a901	-6.1164e-40
243	0x000031fa	1.7928e-41
244	0x0008a0bb	7.92343e-40
245	0x8002b58f	-2.48802e-40
246	0x000056e7	3.1175e-41
247	0x8001df4e	-1.71942e-40
248	0x80016051	-1.26387e-40
249	0x80013399	-1.10345e-40
250	0x0004a722	4.27298e-40
251	0x80018a9f	-1.41563e-40
252	0x0001f2d6	1.78949e-40
253	0x00004c43	2.7358e-41
254	0x0001750b	1.33823e-40
255	0x8001d5c2	-1.68517e-40

gnn.init_context.project_node.0.bias f4 [16]
0	0x3da950ed	0.082673885
1	0x3dffd9dd	0.12492726
2	0x3d4e9d25	0.050442833
3	0x3d7dbda0	0.06194842
4	0x3ca8faac	0.020627342
5	0x3d8723bf	0.06598615
6	0x3dfad043	0.12246754
7	0x3c001a91	0.007818834
8	0xbb957184	-0.0045606513
9	0x3da47d63	0.08031728
10	0xbd9b8ef7	-0.07595628
11	0x3e3eb3d0	0.1862328
12	0x3e3f80eb	0.18701522
13	0xbda9edf3	-0.08297338
14	0x3e01516d	0.12628718
15	0x3df8bab3	0.12144985

gnn.init_context.project_edge1.0.weight f4 [16, 87]
0	0xbdb357d9	-0.0875699
1	0xbe7d279f	-0.24722145
2	0x3e8b45ea	0.27201778
3	0x3ebecc08	0.37265038
4	0xbe59fe72	-0.2128847
5	0x8002e755	-2.66657e-40
6	0x3e9dff60	0.30858898
7	0xbe48174e	-0.1954014
8	0xbd4b121e	-0.049577825
9	0x80086534	-7.70989e-40
10	0x00017d78	1.36845e-40
11	0x0002cedf	2.57882e-40
12	0x80029c4f	-2.39744e-40
13	0x0003cf44	3.4986e-40
14	0x80056651	-4.95882e-40
15	0x3d3df92d	0.04638021
16	0x8002918b	-2.35882e-40
17	0x80035b2e	-3.08216e-40
18	0x80017a59	-1.35726e-40
19	0x0002ceae	2.57814e-40
20	0x800784bc	-6.90465e-40
21	0x0005bab1	5.2615e-40
22	0x80002eb1	-1.675e-41
23	0x0005e9b7	5.43019e-40
24	0x800295a2	-2.37349e-40
25	0x00011ab6	1.01418e-40
26	0x80004d9a	-2.7838e-41
27	0x0003d922	3.53399e-40
28	0x80014e91	-1.2002e-40
29	0x00037289	3.16594e-40
30	0x0004fef7	4.58806e-40
31	0x800277a4	-2.2659e-40
32	0x0001f7cf	1.80732e-40
33	0x8001d3df	-1.6784e-40
34	0x0000e92d	8.3648e-41
35	0x80021f6f	-1.94947e-40
36	0x8002e739	-2.66618e-40
37	0x80003d8b	-2.2077e-41
38	0x8001cc71	-1.65175e-40
39	0x8006bfdf	-6.19843e-40
40	0x0004858f	4.15254e-40
41	0x8001ca97	-1.64511e-40
42	0x8003b056	-3.38764e-40
43	0x8002acab	-2.45613e-40
44	0x3e92d3b8	0.28677154
45	0x3e3ff3be	0.18745324
46	0xbddc6527	-0.10761481
47	0xbe651a32	-0.22373274
48	0x8001e4c1	-1.73897e-40
49	0x8005e173	-5.40053e-40
50	0x8003b687	-3.40985e-40
51	0x8000bb8a	-6.7276e-41
52	0x000324c8	2.88701e-40
53	0x8000fb3d	-9.0127e-41
54	0xbe21edaf	-0.15813325
55	0xbcae3759	-0.021266626
56	0x3e035c3f	0.12828158
57	0x3ebdef24	0.37096512
58	0x000b0a01	1.013779e-39
59	0x0003ae88	3.38117e-40
60	0x80012f6c	-1.08847e-40
61	0xbe6553ed	-0.22395296
62	0x3ab82fe3	0.0014052357
63	0xbd66630d	-0.056246806
64	0x3cdd3e85	0.02700735
65	0xbd811288	-0.06302363
66	0x8003351d	-2.9456e-40
67	0x80010f42	-9.7309e-41
68	0x3e89c824	0.26910508
69	0xbba6cba3	-0.0050901934
70	0x3b2c58d5	0.0026298065
71	0x3e078b96	0.13236842
72	0x3ed80e95	0.42198625
73	0x000225fd	1.97299e-40
74	0x3d9db426	0.07700376
75	0x3ec69f24	0.3879329
76	0x3db239d3	0.08702435
77	0xbda98cf8	-0.08278841
78	0xbf209c8f	-0.6273889
79	0xbe3a852a	-0.1821486
80	0x3e81ed56	0.25376385
81	0x8000903e	-5.1744e-41
82	0x8000f32b	-8.7232e-41
83	0x800390f4	-3.27506e-40
84	0x0000ea29	8.4001e-41
85	0x8000fb69	-9.0189e-41
86	0xbeb37004	-0.350464
87	0xbe3d7fc4	-0.1850577
88	0x3edecf77	0.43517658
89	0x3f242dc7	0.6413235
90	0xb9a8f854	-0.00032228476
91	0xbe110a3b	-0.14164059
92	0x8001b961	-1.58337e-40
93	0xbe8b5486	-0.27212924
94	0xbdd2ede0	-0.10299277
95	0xbe1eeb33	-0.15519409
96	0x0000a736	5.9984e-41
97	0x8007d361	-7.18677e-40
98	0x80053ab6	-4.80239e-40
99	0x0000d447	7.6151e-41
100	0x000a6e85	9.58002e-40
101	0x00029d68	2.40138e-40
102	0x3c713f57	0.014724574
103	0x80010c36	-9.6216e-41
104	0x0004a38c	4.26012e-40
105	0x0000f4d3	8.7826e-41
106	0x8001f303	-1.79012e-40
107	0x0006c03f	6.19978e-40
108	0x80076e7d	-6.82484e-40
109	0x0007ad51	7.05023e-40
110	0x0002f3ff	2.712e-40
111	0x0001925e	1.44342e-40
112	0x000307d8	2.7832e-40
113	0x8001a578	-1.51194e-40
114	0x80049c86	-4.23492e-40
115	0x800195b3	-1.45537e-40
116	0x00019bcb	1.47723e-40
117	0x8001fb16	-1.81908e-40
118	0x80024076	-2.06795e-40
119	0x00031a14	2.84862e-40
120	0x8002b9ab	-2.50276e-40
121	0x0000a38c	5.867e-41
122	0x000344d5	3.00199e-40
123	0x80000fab	-5.62e-42
124	0x00013d11	1.13742e-40
125	0x0001bc63	1.59416e-40
126	0x0006ddb6	6.30548e-40
127	0x00026116	2.18499e-40
128	0x8002c8dc	-2.55726e-40
129	0x80002a29	-1.5124e-41
130	0x0002da46	2.61973e-40
131	0x3dc02292	0.09381594
132	0x3ec928c5	0.39288917
133	0xbf442191	-0.7661372
134	0x3dc3a6ea	0.09553321
135	0x8002eaf5	-2.67958e-40
136	0x00006b46	3.8482e-41
137	0x00022d84	1.99999e-40
138	0x800295c0	-2.37391e-40
139	0x800172d2	-1.33025e-40
140	0x00029cb4	2.39885e-40
141	0xbb9825b5	-0.004643167
142	0x3eabd168	0.33558202
143	0xbea16c6b	-0.3152803
144	0xbe3af343	-0.1825686
145	0x00042b0b	3.82783e-40
146	0x80065cce	-5.84305e-40
147	0x0003149b	2.82898e-40
148	0xbe05255f	-0.13002537
149	0x3820f6d1	3.837684e-05
150	0x3e341719	0.17586936
151	0x3d9083fd	0.07056425
152	0x3ccba556	0.024859112
153	0x00016527	1.28122e-40
154	0x8006747d	-5.92801e-40
155	0x3e66801a	0.22509804
156	0x3d91f0db	0.07126018
157	0x3e9c9443	0.30581865
158	0xbe5fe299	-0.21863784
159	0xbe32e6bb	-0.17470829
160	0x00014af8	1.18729e-40
161	0x3d123596	0.035695635
162	0xbe72c081	-0.23706247
163	0xbecf2f03	-0.40465555
164	0x3e861cf7	0.26193973
165	0xbe786549	-0.24257387
166	0xbe6896d8	-0.22713792
167	0x3e094265	0.13404234
168	0x8001db11	-1.70422e-40
169	0x8002649e	-2.19766e-40
170	0x8006e145	-6.31824e-40
171	0x80050310	-4.60276e-40
172	0x000055bd	3.0757e-41
173	0xbe4ad769	-0.19808735
174	0x3e2c8d57	0.16850792
175	0xbf6cc67a	-0.9249035
176	0x3ec0292e	0.37531418
177	0xbef1ff22	-0.47264963
178	0x3e0e8477	0.13917719
179	0x800253f1	-2.13783e-40
180	0xbee50967	-0.44733736
181	0xbe9eebd3	-0.31039295
182	0xbde17d22	-0.11010195
183	0x800339b9	-2.96213e-40
184	0x000592ba	5.11813e-40
185	0x00036535	3.11813e-40
186	0x00034ebe	3.03754e-40
187	0x000296f7	2.37827e-40
188	0x8001c6da	-1.6317e-40
189	0x3c22e6b6	0.009942701
190	0x0003c7b4	3.47146e-40
191	0x8001fa16	-1.8155e-40
192	0x0009705d	8.66828e-40
193	0x8002e91e	-2.67298e-40
194	0x00038c1e	3.25771e-40
195	0x000146ee	1.1728e-40
196	0x8000187a	-8.78e-42
197	0x80072c60	-6.58767e-40
198	0x8003d92c	-3.53413e-40
199	0x0001d7c0	1.69232e-40
200	0x0006acd6	6.13015e-40
201	0x800150f0	-1.2087e-40
202	0x0009e64a	9.09132e-40
203	0x8003601c	-3.09984e-40
204	0x0004693f	4.05097e-40
205	0x80012868	-1.0633e-40
206	0x000100e8	9.216e-41
207	0x80027222	-2.24614e-40
208	0x0005a345	5.17748e-40
209	0x80004807	-2.5839e-41
210	0x800103b6	-9.3167e-41
211	0x8000e7d3	-8.3163e-41
212	0x80045d3b	-4.00787e-40
213	0x80079610	-6.96681e-40
214	0x80016484	-1.27894e-40
215	0x00026606	2.2027e-40
216	0x00024d52	2.11408e-40
217	0x0000f41d	8.7571e-41
218	0xbd6913b8	-0.05690357
219	0xbe86170f	-0.26189467
220	0x3e8a4b25	0.27010456
221	0xbd824847	-0.06361442
222	0x00001053	5.856e-42
223	0x00008e7c	5.1114e-41
224	0x0003f869	3.64619e-40
225	0x8000d707	-7.7137e-41
226	0x00043af8	3.88496e-40
227	0x800186aa	-1.40144e-40
228	0x3e4bef5e	0.1991553
229	0xbd898ccd	-0.06716309
230	0xbe9e0884	-0.30865872
231	0xbe8d68a2	-0.2761889
232	0x8000eb17	-8.4334e-41
233	0x8002a87f	-2.44116e-40
234	0x80002716	-1.4021e-41
235	0xbe557f14	-0.20849258
236	0xb98de371	-0.00027063073
237	0x3de6b002	0.112640396
238	0x3deaf687	0.114728026
239	0xbd18793a	-0.037224986
240	0x0003136d	2.82475e-40
241	0x8005faa8	-5.49096e-40
242	0xbf8bf332	-1.0933592
243	0x3e2330b6	0.1593655
244	0xbdd8ffae	-0.10595642
245	0xbe9e05ea	-0.30863887
246	0xbe806333	-0.25075683
247	0x8003181c	-2.84155e-40
248	0x3e0447c6	0.12918004
249	0x3e4a8f7d	0.19781299
250	0xbe983f28	-0.29735684
251	0xbcb4e088	-0.022079721
252	0xbddd8b63	-0.108176015
253	0xbf22bfda	-0.6357399
254	0xbb82242d	-0.0039715976
255	0x00016a21	1.29907e-40

gnn.init_context.project_edge1.0.bias f4 [16]
0	0x3dc0c96a	0.09413417
1	0x3d9d3dbf	0.07677793
2	0x3da42716	0.080152676
3	0xbd0c8b33	-0.03431244
4	0xbb216749	-0.0024628213
5	0x3deda66a	0.116040066
6	0x3d5729da	0.052530147
7	0xbdaf106c	-0.08548054
8	0xbcb32c6f	-0.021871774
9	0x3d858268	0.06519014
10	0xbd575ed4	-0.05258067
11	0x3c925e24	0.017867155
12	0x3cb630db	0.022240093
13	0xbbcda246	-0.006275448
14	0xbdc4587a	-0.09587188
15	0xbd8a68d1	-0.067582734

gnn.init_context.project_edge2.1.weight f4 [1, 32]
0	0x3e395d60	0.18102026
1	0x3c8fae1f	0.017539082
2	0x3d0b2c42	0.033977754
3	0x3e2336fa	0.1593894
4	0xbb87c4d5	-0.0041433373
5	0xbd38251f	-0.044957276
6	0x3db5f9c4	0.0888553
7	0x3e16316d	0.14667292
8	0xbe02c936	-0.12772068
9	0x3e4f85c8	0.20265877
10	0xbd81507d	-0.0631418
11	0xbd54f59a	-0.051992036
12	0x3e7283ba	0.23683062
13	0x3db81681	0.08988667
14	0x3dab7a8a	0.08372982
15	0xbc71055b	-0.0147107495
16	0x3ed1e172	0.40992314
17	0xbe73b7f3	-0.2380064
18	0xbfa398d8	-1.2781019
19	0x3eafb462	0.3431731
20	0x3ece7d72	0.40330082
21	0xbe251a52	-0.16123322
22	0x3e8ac655	0.2710444
23	0x3f05d06b	0.52271146
24	0xbe13de51	-0.14440276
25	0x3e9989e0	0.29988003
26	0xbe3d4214	-0.18482238
27	0x3f1a558a	0.6028677
28	0xb9a04f4f	-0.00030576668
29	0xbf168280	-0.5879288
30	0x3ec0fa73	0.37691078
31	0x3f457185	0.7712634

gnn.init_context.attentive_gru.edge_transform.1.weight f4 [16, 16]
0	0xbe703bb2	-0.23460272
1	0xbe579f1b	-0.21056788
2	0xbedb0789	-0.42779186
3	0x3ea709da	0.32624704
4	0x3e65b6e3	0.22433047
5	0xbd6d231c	-0.05789481
6	0xbebf03da	-0.37307626
7	0xb8421e91	-4.628167e-05
8	0xbf05ee5b	-0.52316827
9	0x3bb0f494	0.0054002497
10	0x3ebd1297	0.36928245
11	0x3e2919b0	0.16513705
12	0x3e92b57e	0.28654093
13	0xbd0c5e22	-0.03426946
14	0x3e5ca359	0.21546687
15	0x3ecf02f2	0.40431935
16	0xbe54d9ca	-0.20786205
17	0x3e626ce1	0.22111847
18	0xbd2670c4	-0.040634885
19	0xbe230f92	-0.15923908
20	0xbe5d949e	-0.21638724
21	0x3e1d8e1a	0.15386239
22	0xbcbf5436	-0.023355585
23	0x3f1dc964	0.6163542
24	0x3f036e84	0.5134051
25	0xbdb515d3	-0.08842053
26	0x3ca45ceb	0.020063838
27	0xbe59777a	-0.21236983
28	0x3e036fd3	0.12835626
29	0xbdb490bd	-0.08816669
30	0x3e5790fd	0.21051402
31	0xbd516dd3	-0.051130127
32	0x3db788ad	0.08961616
33	0xbf2f316e	-0.684348
34	0x3ddf5a5b	0.10905906
35	0x3e863ab7	0.2621667
36	0xbe048c52	-0.12944153
37	0xbeaca53b	-0.3371981
38	0x3cd7ea47	0.02635683
39	0xbeeed7a3	-0.46648893
40	0xbd7cb5d7	-0.061696853
41	0x3e924768	0.28570104
42	0x3e074bfb	0.13212578
43	0x3e54200e	0.20715353
44	0xbe590e3d	-0.21196838
45	0x3d4c4ddf	0.04987895
46	0xbd1d0704	-0.03833677
47	0x3d9e4c8f	0.07729446
48	0xbe0d750e	-0.13814184
49	0x3dd216e2	0.10258271
50	0x3e8bdc75	0.27316633
51	0x3d073531	0.03300971
52	0x3ed8fe83	0.42381677
53	0xbe34ab9b	-0.17643587
54	0xbe858151	-0.26075223
55	0x3f23aefc	0.6393888
56	0x3d914273	0.07092752
57	0x3d338bb6	0.04383441
58	0x3e8d75be	0.27628893
59	0xbe96a2aa	-0.29420978
60	0x3edae293	0.42750987
61	0x3e67601e	0.2259526
62	0x3c11225e	0.008858291
63	0xbe995e10	-0.29954576
64	0xbeae3f51	-0.34032682
65	0x3ec0d06f	0.37659022
66	0xbdd561d7	-0.10419052
67	0x3e0ebbb1	0.13938786
68	0x3e4ab121	0.19794132
69	0x3e47a7d4	0.19497615
70	0xbeb1d035	-0.34729162
71	0x3f4f57e4	0.80993485
72	0xbe8a23da	-0.26980478
73	0xbd31e96e	-0.043435507
74	0x3e941044	0.2891866
75	0x3e2bce90	0.16778016
76	0x3d816fe7	0.06320172
77	0xbdad794b	-0.084704004
78	0xbda46550	-0.08027136
79	0xbe2edd49	-0.17076601
80	0xbeeb74c8	-0.45987535
81	0x3d498b47	0.04920509
82	0xbec3382b	-0.3812879
83	0x3e9333fb	0.28750595
84	0x3e1b204d	0.1514904
85	0x3c573337	0.013134769
86	0xbeab48bc	-0.3345393
87	0x3e910d99	0.28330687
88	0xbef42504	-0.4768449
89	0x3e8e48fa	0.27790052
90	0x3e8c2967	0.27375337
91	0x3df592c0	0.11990881
92	0x3e9df16f	0.30848262
93	0xbe92d0e4	-0.28674996
94	0x3ec566ba	0.38554937
95	0x3d64e63f	0.055883642
96	0xbe9b281c	-0.3030404
97	0xbe5a3074	-0.21307546
98	0xbea44878	-0.3208654
99	0x3e8e147a	0.27749997
100	0x3e59c110	0.21265054
101	0xbd829774	-0.06376544
102	0xbeefaae6	-0.46810073
103	0x3eab7c1c	0.33493125
104	0xbe907fe0	-0.2822256
105	0x3e453118	0.19257009
106	0x3e83ab2d	0.25716534
107	0xbe09dbba	-0.13462725
108	0x3e9a31f6	0.30116242
109	0xbdbcd0e6	-0.09219532
110	0x3e82a8c3	0.2551938
111	0xbdef1ce5	-0.11675433
112	0x3de93bc8	0.113883555
113	0xbe86faf6	-0.26363343
114	0xbe3a18a7	-0.18173467
115	0x3e8a7a26	0.27046317
116	0xbe918605	-0.2842256
117	0xbe052277	-0.13001429
118	0xbcdc1c19	-0.026868867
119	0x3e60e58e	0.21962568
120	0x3c8b4881	0.017002346
121	0xbd68c965	-0.05683269
122	0x3bb84211	0.00562311
123	0x3d0133dc	0.031543598
124	0xbe8432ed	-0.25820103
125	0xbd06427f	-0.03277826
126	0x3e8b4ef4	0.27208674
127	0x3ce10007	0.027465833
128	0xbe9ca109	-0.3059161
129	0xbe8086ec	-0.25102937
130	0x3e1141c2	0.14185241
131	0x3dbf2b66	0.093344495
132	0x3ec82ab9	0.39095095
133	0x3dc79b39	0.09746403
134	0xbeac53a8	-0.33657575
135	0x3f63b7ad	0.8895214
136	0xbea8f754	-0.33001196
137	0xbe433731	-0.19064023
138	0x3e9b4793	0.30328044
139	0xbe11ce85	-0.14238937
140	0x3eedaef4	0.4642254
141	0x3df1d7a3	0.118087076
142	0x3cdc72dd	0.02691024
143	0xbc0531bf	-0.008129536
144	0xbedcf653	-0.4315668
145	0xbd9c17f6	-0.07621758
146	0x3d5b5f4f	0.05355769
147	0x3e8e76eb	0.27825102
148	0x3e4248ad	0.18973036
149	0xbe8be4f2	-0.2732311
150	0xbecdb55c	-0.4017743
151	0x3f0699b7	0.525783
152	0xbe86ce46	-0.2632925
153	0xbcd2617d	-0.025681252
154	0x3b6faa7b	0.003657012
155	0x3e2b8fdc	0.16754097
156	0x3e9aef34	0.30260623
157	0xbe9d495a	-0.30720025
158	0xbd162bf7	-0.036663022
159	0xbdbd5e59	-0.09246511
160	0x3ec60eac	0.3868307
161	0xbee37d78	-0.44431663
162	0xbf0a5003	-0.5402834
163	0x3e453487	0.19258319
164	0x3e0f2633	0.13979416
165	0xbea6ea70	-0.32600737
166	0x3d32624f	0.043550786
167	0xbf288833	-0.65832824
168	0xbf10eca6	-0.56611097
169	0x3e826ed3	0.25475177
170	0x3dddf6c4	0.108380824
171	0x3eee1508	0.4650042
172	0x3c908b57	0.017644567
173	0xbda63200	-0.081150055
174	0x3da56054	0.08075014
175	0x3ec68d75	0.38779798
176	0x3d8ad30a	0.06778534
177	0xbf2a91f6	-0.6662897
178	0xbecb1932	-0.3966766
179	0x3e3ea9b8	0.1861943
180	0x3e6a930e	0.2290766
181	0xbed4a0b9	-0.41528872
182	0xbd91c7cd	-0.07118187
183	0xbd5b4f30	-0.053542316
184	0xbf226c6a	-0.63446677
185	0x3ea2e486	0.31814975
186	0xbd6647e4	-0.056220904
187	0x3d16b53d	0.036793936
188	0x3e2e6fa1	0.1703477
189	0xbe61996d	-0.22031184
190	0x3e6bc37a	0.23023787
191	0x3e9c2b20	0.30501652
192	0x3e718ac9	0.23588099
193	0x3d481c4a	0.048855104
194	0xbddecbb9	-0.10878701
195	0x3dd88547	0.10572296
196	0xbf09add1	-0.5378085
197	0x3ddc1239	0.10745663
198	0x3ebcf34c	0.3690437
199	0xbf43c834	-0.7647736
200	0x3e273226	0.16327724
201	0xbe07203e	-0.13195893
202	0xbe4ff84a	-0.20309559
203	0x3e78696a	0.24258962
204	0xbec79c25	-0.38986316
205	0x3e35c7fa	0.17752066
206	0x3e045472	0.12922838
207	0x3e8b7bcf	0.27242896
208	0xbed6ff74	-0.4199177
209	0xbde5b2ed	-0.11215768
210	0x3ed2497b	0.41071686
211	0x3e8a1e81	0.26976398
212	0xbd6e849d	-0.05823194
213	0x3df9647a	0.121773675
214	0xbe533b96	-0.20628199
215	0x3f5cb73c	0.86217093
216	0x3d216f60	0.039412856
217	0xbb1e0c6b	-0.0024116288
218	0x3d1beb3d	0.038066138
219	0xbe7a4500	-0.24440384
220	0x3e0f0b61	0.13969184
221	0x3dd60bc6	0.10451464
222	0x3e977ce7	0.2958748
223	0xbd03359f	-0.03203356
224	0x3e4b63cb	0.19862287
225	0x3e9549b7	0.29157802
226	0x3f0564c0	0.5210686
227	0xbe9f7729	-0.311456
228	0xbec4093f	-0.38288304
229	0x3e7609c5	0.24027164
230	0x3e5e58f9	0.21713628
231	0x3e4b85f4	0.19875318
232	0x3f72f0be	0.94898593
233	0xbebf9658	-0.3741939
234	0xbd16a9f7	-0.036783185
235	0xbe7181e5	-0.23584707
236	0xbdf45493	-0.11930194
237	0x3ead9b4e	0.3390755
238	0xbead4c27	-0.33847162
239	0xbe133a5e	-0.14377734
240	0x3e8af9fa	0.27143842
241	0xbe806b7b	-0.25082
242	0xbe2ba5f6	-0.16762528
243	0x3e8d0391	0.27541783
244	0x3e2b535a	0.16731015
245	0xbe84451d	-0.2583398
246	0x3c35316b	0.011059145
247	0xbf292bd9	-0.6608253
248	0xbe5850de	-0.21124598
249	0x3f06f6df	0.52720445
250	0x3ebb86ee	0.3662638
251	0x3ee1b898	0.44086146
252	0x3e5171bb	0.20453541
253	0x3e0a8f00	0.13531113
254	0x3ee113b1	0.43960336
255	0x3f057681	0.5213395

gnn.init_context.attentive_gru.edge_transform.1.bias f4 [16]
0	0x3e0cceef	0.13750814
1	0xbde9a6d0	-0.1140877
2	0x3d92e15a	0.07171889
3	0xbe3c99d6	-0.18418059
4	0xbdeb7ad1	-0.11498035
5	0x3df685dc	0.120372504
6	0x3dc5f36d	0.096655704
7	0x3c09b989	0.008406051
8	0xbe4af794	-0.19821006
9	0x3df7d0da	0.12100382
10	0x3dd61133	0.10452499
11	0x3e373026	0.17889461
12	0x3ce25912	0.027630363
13	0xbdd5e677	-0.10444348
14	0xbe16f468	-0.14741671
15	0x3bd5406c	0.006507924

gnn.init_context.attentive_gru.gru.weight_ih f4 [48, 16]
0	0x3e01ad47	0.12663756
1	0x3e01c9ca	0.12674633
2	0xbe144aa0	-0.14481592
3	0xbc3e14b3	-0.011601615
4	0x3e3a0a2a	0.1816794
5	0x3e775057	0.24151741
6	0x3e217f58	0.15771234
7	0xbcb5abd8	-0.022176668
8	0x3cab976e	0.02094623
9	0x3df44ebb	0.11929079
10	0xbd7abfd3	-0.061218094
11	0xbc65a117	-0.014015458
12	0xbe01a490	-0.12660432
13	0xbd839d86	-0.064265296
14	0xbe217fd4	-0.15771419
15	0xbdde20b5	-0.10846082
16	0x3e9e08bf	0.30866048
17	0xbe2858c0	-0.16440105
18	0x3e81cd9f	0.2535219
19	0x3e334f18	0.1751064
20	0x3d171e41	0.036894087
21	0x3e601cee	0.21886036
22	0x3e9140af	0.28369662
23	0x3dca0c32	0.09865607
24	0x3e702fa6	0.23455676
25	0x3e4ad64b	0.19808309
26	0x3ec069f7	0.37580845
27	0x3ee9c689	0.45659283
28	0xbdd84a18	-0.10561007
29	0x3dcc718f	0.09982597
30	0xbeae5cf0	-0.3405528
31	0x3eba5769	0.36394814
32	0xbd8c9a26	-0.06865339
33	0x3db80de8	0.089870274
34	0xbdb0e40e	-0.08637248
35	0x3db01f85	0.08599762
36	0x3d978956	0.073992416
37	0x3c412651	0.0117889205
38	0x3d3d289f	0.046181317
39	0xbcad0345	-0.021119723
40	0x3da863ae	0.082221374
41	0x3ba516c7	0.0050381157
42	0xbe670dc6	-0.22563848
43	0xbe1e6a7a	-0.15470305
44	0xbd71c5f5	-0.059026677
45	0x3e390b03	0.18070607
46	0x3d801917	0.062547855
47	0xbe2a3f89	-0.16625799
48	0xbe10391a	-0.14084283
49	0x3d0244a5	0.031803746
50	0xbe10ec57	-0.14152656
51	0xbd364268	-0.044496924
52	0x3d15e88e	0.036598735
53	0xbdc5fd31	-0.09667433
54	0xbdc96c57	-0.09835117
55	0xbd5d9600	-0.05409813
56	0xbd1fcd83	-0.03901435
57	0xbd9d25f4	-0.076732546
58	0xbe3c7bac	-0.18406552
59	0xbe2bb8ca	-0.1676971
60	0x3d0e07df	0.034675475
61	0xba3bc12e	-0.000716227
62	0x3dfbd9c1	0.12297393
63	0xbe3db2f8	-0.18525302
64	0x3c2a8aa3	0.01040903
65	0x3c680bf0	0.014163002
66	0x3ca2d809	0.019878404
67	0xbe0db6dc	-0.13839287
68	0xbd07a4d0	-0.03311616
69	0x3d4953c7	0.049152162
70	0x3c1e1dc6	0.009650653
71	0x3e00eb1c	0.12589687
72	0xbdce3e3b	-0.10070463
73	0xbbae5d4e	-0.0053211814
74	0x3da0c6b8	0.078504026
75	0x3d980e64	0.0742462
76	0x3ddd9bba	0.10820718
77	0xbb924102	-0.004463316
78	0xbd950b4f	-0.072775476
79	0x3d86745d	0.06565163
80	0xbd091c16	-0.03347405
81	0x3c354c0f	0.011065497
82	0x3d597ab8	0.05309555
83	0xbc769dee	-0.015052302
84	0xbdc9f446	-0.098610446
85	0xbd607a12	-0.054803915
86	0xbd6e5ec3	-0.05819584
87	0x3d0f3d4d	0.03497057
88	0xbd513eb9	-0.051085208
89	0xbd518f3b	-0.051161986
90	0x3a8d4e0d	0.0010780707
91	0xbbdea0eb	-0.0067940853
92	0x3d67805a	0.05651889
93	0xbc0ca133	-0.008583355
94	0x3e0a3439	0.13496484
95	0xbcec7f56	-0.028869312
96	0xbd0805a4	-0.033208504
97	0xbcd3d8b2	-0.025860164
98	0x3d8c61f0	0.068546176
99	0xbcc9697d	-0.024586434
100	0xbd756d37	-0.05991861
101	0xbd34cc6e	-0.04414027
102	0xbd3c2fbd	-0.045943964
103	0x3d0fca1c	0.035104856
104	0xbcf34973	-0.02969811
105	0xbd4ab135	-0.049485404
106	0x3d5592eb	0.052142065
107	0x3d1a06da	0.03760419
108	0x3ce938ed	0.028469527
109	0xbd843ebf	-0.0645728
110	0xbac3ad41	-0.0014928953
111	0xbd06cc57	-0.032909717
112	0x3d7444f7	0.059636083
113	0xbd40ab21	-0.0470382
114	0x3d2075c3	0.039174806
115	0x3c12a07e	0.008949397
116	0xbd1d8851	-0.03846008
117	0x3cdc0dcc	0.026862048
118	0x3ca1bb02	0.019742493
119	0xbbfcbf49	-0.0077132327
120	0xbc2ba601	-0.01047659
121	0xbc3a1ad0	-0.011358932
122	0x3d5d91f8	0.054094285
123	0x3ce6bf94	0.028167523
124	0x3ca6ac7e	0.020345923
125	0xbc0ebcfe	-0.008712051
126	0xbc89dcf4	-0.016828991
127	0x3debfdb6	0.11523001
128	0x3d1d4d43	0.03840376
129	0x3dccf1d6	0.10007064
130	0xbe58acb3	-0.2115963
131	0x3e1bbc2e	0.15208504
132	0x3e776e13	0.24163084
133	0x3e2b855a	0.16750088
134	0x3d8d7241	0.06906558
135	0xbdc74080	-0.09729099
136	0x3e064e6e	0.13115856
137	0x3db59ba6	0.08867578
138	0xbe0d317c	-0.13788408
139	0xbe27a165	-0.16370161
140	0xbd276e16	-0.04087647
141	0x3e18167c	0.14852327
142	0x3d1eca13	0.03876693
143	0xbc54ab16	-0.012980243
144	0x398a7362	0.00026407378
145	0xbcd3a7fe	-0.02583694
146	0x3c9a5559	0.018839525
147	0xbd21c968	-0.039498717
148	0xbd2e0717	-0.04248723
149	0xbb9bb841	-0.0047521894
150	0xbd098062	-0.0335697
151	0xbbc67ff1	-0.0060577323
152	0xbd395aa7	-0.04525247
153	0xbd201cb7	-0.039089885
154	0x3d4d343e	0.05009865
155	0x3c78046b	0.015137772
156	0x3d01aa07	0.03165629
157	0xbd7db010	-0.061935484
158	0xbcf77c6c	-0.030210696
159	0x3d38b82c	0.045097515
160	0xbc90af7f	-0.017661808
161	0xbbc7ba2d	-0.006095192
162	0x3c7617ce	0.015020324
163	0x3c855818	0.016277358
164	0xbca8ba42	-0.020596627
165	0xbd2d3c61	-0.04229391
166	0xbc025db2	-0.007956909
167	0xba587891	-0.0008257712
168	0x3d05739e	0.032580964
169	0xbb30abd2	-0.0026957882
170	0xbc865b29	-0.01640089
171	0xbc20fe25	-0.009826218
172	0xbc82830f	-0.015931634
173	0x3c9be43d	0.01902973
174	0x3c2e7f7f	0.010650515
175	0xbd07d23b	-0.033159476
176	0x3dd02bd7	0.10164612
177	0x3d197abe	0.03747057
178	0xbd0797dc	-0.03310381
179	0x3df35275	0.11880962
180	0x3de281c8	0.1105991
181	0x3df82324	0.121160775
182	0x3de0a5b6	0.10969107
183	0x3bd9955b	0.006640119
184	0x3e0de822	0.13858083
185	0x3dc03170	0.093844295
186	0x3cd9b68d	0.026576305
187	0x3db54282	0.08850576
188	0xbdb20bb3	-0.08693638
189	0x3dbcdcba	0.09221788
190	0xbd302a78	-0.04300925
191	0x3d841ea8	0.0645116
192	0x3bc850d6	0.006113152
193	0x3d8972ca	0.067113474
194	0x3d15e9c7	0.0365999
195	0x3b01d0e1	0.001980834
196	0xbcb251cd	-0.021767521
197	0x3cc6e0cc	0.024277113
198	0xbbe1a880	-0.006886542
199	0x3d331273	0.043718766
200	0x3d0360d2	0.032074757
201	0x3c8ac07e	0.01693749
202	0xbc9709cc	-0.018437289
203	0x3d348bca	0.044078626
204	0x3ce03e53	0.027373469
205	0x3cd7b7a1	0.026332678
206	0xbd87b90f	-0.06627094
207	0x3cad2899	0.021137523
208	0x39884d86	0.000259977
209	0xbcd18546	-0.025576245
210	0x3d301efd	0.042998303
211	0xbd80db19	-0.062917896
212	0xbd964827	-0.07337981
213	0xbc8d0b81	-0.0172174
214	0xbd1914d2	-0.03737337
215	0x3ca7ffcf	0.020507721
216	0xbdb29d64	-0.08721426
217	0xbd499177	-0.04921099
218	0x3d76c545	0.060246725
219	0x3c876457	0.016527338
220	0x3db9c7a9	0.09071285
221	0xbd285219	-0.04109392
222	0x3d66f70e	0.056387953
223	0x3dd27a94	0.10277286
224	0x3d4cd380	0.05000639
225	0xbd58a910	-0.052895606
226	0x3d4ae04d	0.049530316
227	0xbc7799d9	-0.015112364
228	0xbcfb17b0	-0.030650944
229	0x3ce13814	0.02749256
230	0x3cf0191d	0.02930885
231	0x3cbeca3f	0.023289798
232	0x3c08a01d	0.008338955
233	0x3ca20391	0.019777091
234	0x3dc57092	0.09640612
235	0x3dc5a9f0	0.09651554
236	0x3ab1595d	0.0013530661
237	0xbc65b07e	-0.01401913
238	0xbda4494b	-0.08021792
239	0x3d862065	0.065491475
240	0x3dcd7262	0.100315824
241	0xbd2fba97	-0.042902555
242	0x3cf9b56d	0.030482018
243	0xbc8b92f7	-0.017037852
244	0x3d8a8aa2	0.06764723
245	0x3e077f62	0.13232186
246	0x3d4764d6	0.04868015
247	0x3c98d196	0.018654626
248	0x3d327adc	0.0435742
249	0x3d968239	0.07349057
250	0x3dcc0f7c	0.09963891
251	0x3dd9e5eb	0.106395565
252	0x386b5c27	5.611419e-05
253	0x3ce35f29	0.027755337
254	0xbe233891	-0.15939547
255	0x3d1237b7	0.035697665

gnn.init_context.attentive_gru.gru.weight_hh f4 [48, 16]
0	0xbc4d9734	-0.012548257
1	0x3c5fa94a	0.0136512015
2	0x3e10caa0	0.14139795
3	0xbcf6da9c	-0.030133538
4	0xbce0ec1c	-0.027456336
5	0x3e240212	0.16016415
6	0xbcde03b4	-0.027101375
7	0xbbbe8f53	-0.0058154254
8	0x3cb8942e	0.022531595
9	0xbb6685ef	-0.0035175045
10	0xbba05c96	-0.0048938496
11	0xbcd96667	-0.026538087
12	0xbe590100	-0.21191788
13	0x3d67d15d	0.05659615
14	0xbe5b2d0d	-0.21403904
15	0x3e1ee8f4	0.15518552
16	0xbe86236e	-0.26198906
17	0x3e097d27	0.13426648
18	0xbc2c0e21	-0.0105014155
19	0xbd141ec0	-0.036162138
20	0x3e151b11	0.14561106
21	0xbeb111a1	-0.34583762
22	0x3ce7dc43	0.028303271
23	0xbd02a638	-0.0318968
24	0xbdb7a2ff	-0.08966636
25	0x3e3883ed	0.18019076
26	0xbd328bc0	-0.043590307
27	0x3e2d6a48	0.16935074
28	0xbe817b36	-0.25289315
29	0xbeca3908	-0.39496636
30	0xbc022168	-0.007942535
31	0x3e368413	0.1782382
32	0x3e3332fa	0.17499915
33	0x3de6392f	0.11241376
34	0x3d273d37	0.040829863
35	0x3d6df49c	0.058094606
36	0xbdae8911	-0.08522237
37	0xbbc37ad4	-0.00596557
38	0x3e2d5ed8	0.16930711
39	0x3d028ef5	0.031874616
40	0x3ce1a0c3	0.027542477
41	0xbcfcccf6	-0.030859452
42	0xbc9a4c09	-0.018835085
43	0x3e6ff3f4	0.23432904
44	0x3e69bb6f	0.22825406
45	0x3da0b43b	0.07846876
46	0x3de2c711	0.11073125
47	0x3c171c65	0.009223078
48	0xbd2dbece	-0.042418294
49	0x3e3f65dc	0.186912
50	0x3d17c67e	0.03705453
51	0x3e08f498	0.13374555
52	0xbcf7fbd0	-0.03027144
53	0xbd84739f	-0.064673655
54	0x3dd794fc	0.105264634
55	0x3cb2ad25	0.021811077
56	0xbccb95ea	-0.024851758
57	0x3dd1ff30	0.10253751
58	0x3cfc1e77	0.030776246
59	0x3d2f8feb	0.04286186
60	0x3debc3c4	0.11511949
61	0x3d1a6cc9	0.0377014
62	0x3e3292d0	0.17438817
63	0xbd5fb814	-0.05461891
64	0x3db62e02	0.08895494
65	0x3c88bdc7	0.016692055
66	0x3beda9bf	0.0072529013
67	0xbd590349	-0.05298165
68	0xbbacd8f1	-0.005274885
69	0x3dd43da9	0.10363323
70	0x3d48bfb0	0.049010932
71	0x3b2041b9	0.0024453236
72	0x3ca341c9	0.01992883
73	0xbd00c7e2	-0.031440623
74	0x3b9e8b17	0.004838358
75	0x3c570586	0.0131238755
76	0x3bd729ef	0.006566278
77	0x3e4f3bda	0.20237675
78	0x3e825a4a	0.2545951
79	0x3d2abf8d	0.041686583
80	0xbc7f6e8d	-0.015590322
81	0x3dc0c811	0.0941316
82	0x3d4fca96	0.05073031
83	0x3cfde597	0.030993266
84	0x3dcc47f9	0.09974665
85	0x3c2701c6	0.010193294
86	0x3dcb238b	0.09918889
87	0xbd22eb33	-0.039775085
88	0xbcab144d	-0.020883704
89	0x3dc61c8c	0.09673414
90	0xbba151a6	-0.0049230633
91	0x3e63032d	0.2216918
92	0x3cabfee0	0.020995557
93	0x3db9d5ac	0.09073958
94	0x3dbb6ebe	0.09151982
95	0x3e0710cb	0.1319
96	0x3d7d45b3	0.06183405
97	0x3e93a0d7	0.2883365
98	0x3ab26d58	0.0013612909
99	0x3b4e345b	0.0031464312
100	0x3d5da25a	0.05410991
101	0xbd7959ab	-0.06087653
102	0xbd5594bc	-0.052143797
103	0xbc696d06	-0.014247185
104	0xbc2a00c1	-0.010376156
105	0x3d03a5bf	0.03214049
106	0xbd1b38a3	-0.03789581
107	0xbe5f8ccc	-0.21831053
108	0xbd0b3f6b	-0.033996027
109	0x3e91b0e0	0.28455257
110	0xbd26cc20	-0.040722013
111	0xbe1bbaf0	-0.1520803
112	0x3d697252	0.05699379
113	0x3d661867	0.056175616
114	0x3d01871a	0.031622984
115	0x3d820da7	0.0635026
116	0x3da0374b	0.07823046
117	0xbcf14389	-0.029451149
118	0x3c1e6c0d	0.009669316
119	0x3c8b3731	0.01699409
120	0xbc8e716d	-0.01738807
121	0x3cf09a99	0.029370593
122	0xbaecb00a	-0.0018057835
123	0x3dc47a66	0.09593658
124	0xbbcd2077	-0.0062599736
125	0x3d7c1261	0.061540965
126	0xbca39317	-0.019967599
127	0x3d6af88f	0.05736595
128	0xbd4a3293	-0.049364638
129	0x3dbf5fce	0.09344445
130	0x3dae7e5b	0.08520194
131	0x3e23c568	0.15993273
132	0x3ccf6974	0.025318839
133	0x3e9d74bc	0.30753124
134	0x3e075203	0.13214879
135	0x3d82c063	0.06384351
136	0x3d0d78a2	0.034538873
137	0x3d4ed185	0.050492782
138	0x3cf9d0a6	0.030495
139	0x3e3d9ffb	0.18518059
140	0x3e77d2a8	0.24201453
141	0xbe14946c	-0.14509743
142	0x3dded5d8	0.10880631
143	0x3df352d0	0.118810296
144	0x3d23e770	0.040015638
145	0x3c13249f	0.008980899
146	0x3c99528a	0.018716116
147	0x3d0e5162	0.03474558
148	0xbd3f8cb0	-0.04676503
149	0x3c7d81db	0.0154728545
150	0xbd5c84f0	-0.053837717
151	0x3d195c21	0.037441377
152	0xbc0d5dbc	-0.008628305
153	0xbd53deb5	-0.05172606
154	0x3c221264	0.00989208
155	0xbdc0121a	-0.093784526
156	0xbc09d261	-0.008411975
157	0x3d2854a0	0.04109633
158	0xbd7b0a08	-0.061288863
159	0xbd9b435e	-0.07581209
160	0xb9dcacc4	-0.0004209039
161	0xbaa2c21a	-0.0012417466
162	0xbb9d5ce2	-0.0048023323
163	0xbce6e3f8	-0.028184876
164	0x3c9e85f0	0.019350976
165	0xbdff9e36	-0.12481348
166	0xb9ee0496	-0.00045398314
167	0xbb1c3290	-0.0023833849
168	0x3a6a8ab1	0.0008947058
169	0x3b3ab3dd	0.0028488555
170	0xbcd7b750	-0.026332527
171	0xbca7dea1	-0.0204919
172	0xbd29276d	-0.041297365
173	0x3bf026e4	0.007328855
174	0x3d2531ba	0.040330626
175	0xbd703ca5	-0.058651585
176	0x3dc7073d	0.097181775
177	0x3dd9ad7b	0.10628792
178	0x3c9cc760	0.019138038
179	0x3dc75d13	0.097345494
180	0x3d9f45e1	0.07777
181	0x3d815dc0	0.063167095
182	0x3e15de1b	0.14635508
183	0x3d87a527	0.06623297
184	0x3cf2a4b5	0.029619554
185	0x3d3ff790	0.046866953
186	0x3c9302e6	0.017945718
187	0x3e03e952	0.12881973
188	0x3db71eda	0.08941431
189	0x3d96300a	0.073333815
190	0x3de767f8	0.11299127
191	0x3db45f8b	0.08807286
192	0x3d4e36df	0.050345298
193	0xbdacc51f	-0.08436035
194	0xbdc02b30	-0.09383237
195	0xbe801311	-0.25014547
196	0x3ddd315f	0.108004324
197	0x3ddada86	0.10686211
198	0xbe0db278	-0.13837612
199	0xbcd62ab6	-0.026143413
200	0x3e5568e6	0.20840797
201	0xbdeb18da	-0.114793494
202	0xbd06681f	-0.03281414
203	0xbeae7f6b	-0.34081587
204	0xbdcba8f6	-0.09944336
205	0xbcb46fc9	-0.02202596
206	0xbddf68cb	-0.109086595
207	0xbe0959d2	-0.1341317
208	0x3d8590f2	0.06521787
209	0x3e1869ba	0.14884081
210	0x3d9535bb	0.07285639
211	0xbc2c0b02	-0.010500671
212	0x3e14ac9e	0.14518973
213	0x3e15cf39	0.1462983
214	0x3de478c5	0.111558475
215	0x3d2bda6d	0.041956354
216	0x3c5dbda1	0.013533981
217	0x3c8539a4	0.016262837
218	0x3b717f4b	0.0036849554
219	0x3e11e2f1	0.14246728
220	0x3d175ef1	0.036955778
221	0x3e368b41	0.17826559
222	0x3e1d3b8a	0.15354744
223	0x3e06fd3d	0.1318254
224	0x3cc4041c	0.02392774
225	0xbd3e3f0a	-0.046446837
226	0xbca4890f	-0.020084886
227	0x3cf7e438	0.03026019
228	0xbbe13c50	-0.006873645
229	0x3d97051d	0.07374022
230	0xbd932376	-0.07184498
231	0x3c0a3b30	0.008436963
232	0x3c2cca2a	0.010546247
233	0xbd1a1c42	-0.037624605
234	0xbc140578	-0.009034507
235	0xbd74b223	-0.059740197
236	0x3c93d87d	0.018047566
237	0xbc5bc144	-0.013412777
238	0xbd749e77	-0.059721436
239	0xbd6a3a8a	-0.057184733
240	0x3a905528	0.0011011707
241	0xbdd8fd29	-0.105951615
242	0xbdaacad8	-0.083394706
243	0xbdcca5f0	-0.099925876
244	0x3e4d8a58	0.20072305
245	0x3cd78fe8	0.026313737
246	0x3cded9a9	0.027203398
247	0x3bcc32ea	0.0062316554
248	0x3c2ea674	0.010659803
249	0x3c7ac734	0.015306283
250	0x3c9737fc	0.018459313
251	0x3e0b90a0	0.13629389
252	0xbb54818f	-0.0032425856
253	0x3d8a03ee	0.06739031
254	0x3e027c9c	0.12742847
255	0x3dfc9031	0.1233219

gnn.init_context.attentive_gru.gru.bias_ih f4 [48]
0	0x3d02b95f	0.031915065
1	0xbd59c819	-0.053169344
2	0x3ddebc7d	0.10875795
3	0x3ad927de	0.0016567667
4	0x3e2eb175	0.17059882
5	0x3e5f5602	0.21810153
6	0x3c419b9d	0.011816886
7	0x3d56a7ba	0.05240605
8	0x3e9521dc	0.29127395
9	0xbd4e6226	-0.05038657
10	0xbd3fdaa1	-0.04683936
11	0x3e54ea73	0.2079256
12	0xbe124dba	-0.14287463
13	0x3ea9f6a1	0.33195975
14	0xbd56bba7	-0.052425053
15	0x3ded0e7f	0.115750305
16	0xbdeb46f3	-0.11488142
17	0xbe90f07b	-0.28308472
18	0xbd0c961e	-0.03432285
19	0xbe9d2f7b	-0.30700287
20	0x3d23588c	0.039879367
21	0x3d23d3a0	0.039996743
22	0x3e316659	0.17324199
23	0x3e048c55	0.12944157
24	0xbdb0c2e3	-0.08630922
25	0x3e0a86b8	0.13527954
26	0x3e58bd7d	0.21166034
27	0xbe52e7c0	-0.20596218
28	0xbe52c8ce	-0.20584413
29	0xbb7d6394	-0.003866409
30	0x3e9635a6	0.29337806
31	0xbe1422de	-0.14466426
32	0x3e460867	0.19339143
33	0x3bd36cf9	0.0064521995
34	0x3e417bba	0.18894854
35	0x3dc2e883	0.09517004
36	0xbe6d6686	-0.23183641
37	0x3ea3833c	0.3193606
38	0x3db47ef8	0.0881328
39	0xbe86b2d1	-0.263083
40	0xbd6cf034	-0.057846263
41	0x3cbff3b3	0.023431635
42	0xbe1b5e18	-0.15172613
43	0xbee4799d	-0.44624034
44	0x3db3f601	0.08787156
45	0xbe931fff	-0.2873535
46	0x3e4a1805	0.19735725
47	0x3e3cb3f4	0.18428022

gnn.init_context.attentive_gru.gru.bias_hh f4 [48]
0	0xbc949579	-0.01813768
1	0xbd28fbcd	-0.04125576
2	0x3e06d0f6	0.1316565
3	0xbc78a9d4	-0.015177209
4	0x3e2f5295	0.17121346
5	0x3e248ac1	0.16068555
6	0xbc6102c5	-0.01373357
7	0x3d636722	0.055518277
8	0x3e8dda9e	0.27705854
9	0xbd204313	-0.039126467
10	0xbd3fd135	-0.046830375
11	0x3e54ea6e	0.20792553
12	0x3d896b36	0.06709902
13	0x3ea53d2a	0.32273227
14	0xbd36cd9c	-0.044629678
15	0x3e604e44	0.21904856
16	0x3d42bc6d	0.047542978
17	0xbed87934	-0.4227997
18	0xbe5cec27	-0.2157446
19	0xbe0ab17b	-0.13544266
20	0xbd975e15	-0.073909916
21	0xbd186076	-0.037201367
22	0x3e9c15a6	0.30485266
23	0x3b9ffe84	0.0048826355
24	0xbdaf0003	-0.08544924
25	0x3c7106be	0.01471108
26	0x3e49d1e3	0.19708972
27	0xbdf6b527	-0.12046271
28	0xbcd24b13	-0.025670564
29	0xbc93536b	-0.017984113
30	0x3ed11ad4	0.4084078
31	0xbe19902b	-0.14996402
32	0x3d0fe3f8	0.035129517
33	0xbc65c3e7	-0.014023758
34	0x3e022a24	0.12711388
35	0xbb09359b	-0.0020936492
36	0xbdeb2329	-0.11481316
37	0x3bab435e	0.0052265367
38	0x3deb64e1	0.114938505
39	0x3d452f8e	0.048141055
40	0xbe8dff98	-0.27734065
41	0xbd9e7733	-0.07737579
42	0xbe62b79f	-0.22140358
43	0xbe6dbe24	-0.23217064
44	0x3e1adddc	0.15123695
45	0xbe8cb01d	-0.27478114
46	0x3dc1f149	0.094698496
47	0x3e378d0c	0.17924899

readout.readouts.0.compute_logits.0.weight f4 [1, 32]
0	0x3d39c61c	0.045354947
1	0x3c84f500	0.016230106
2	0x3c3a203c	0.011360224
3	0x3d277f11	0.040892664
4	0x3d6874fe	0.056752197
5	0x3d570481	0.05249453
6	0x3d4bb521	0.049733285
7	0x3d841f88	0.064513266
8	0x3c71b939	0.014753633
9	0x3d569624	0.05238928
10	0xb9823a78	-0.00024839095
11	0x3b85bf5d	0.00408165
12	0x3dadd65b	0.08488151
13	0xbb0540c8	-0.0020332802
14	0x3d838994	0.06422725
15	0x3d8a6372	0.06757249
16	0xbdf98d1f	-0.1218512
17	0x3e44ac8c	0.19206446
18	0x3e5a051a	0.21291009
19	0x3ec2fa28	0.3808148
20	0x3c0065ef	0.007836803
21	0xbe9e9d61	-0.30979446
22	0xbe0c5a73	-0.13706379
23	0xbe69b93d	-0.22824569
24	0x3edad867	0.42743227
25	0x3d6fef61	0.0585779
26	0xbe788fad	-0.24273558
27	0x3f1bb6cb	0.60825795
28	0x3f0e61e4	0.5561812
29	0x3ea23982	0.316845
30	0xbd7bcf49	-0.06147698
31	0xbf105cc0	-0.56391525

readout.readouts.0.project_nodes.1.weight f4 [16, 16]
0	0x3e27f43a	0.16401759
1	0x3e8003e9	0.25002983
2	0x3dd9c9e3	0.1063421
3	0x3df2c0ac	0.118531555
4	0x3e9e5307	0.3092272
5	0xbd68c79d	-0.05683099
6	0x3d986f59	0.07443113
7	0xbdc4312f	-0.095796935
8	0x3e69a980	0.22818565
9	0x3e0ce0ae	0.13757583
10	0x3c91eef1	0.017814131
11	0x3e543f1f	0.20727204
12	0xbcc03b15	-0.023465673
13	0xbe5a212e	-0.2130172
14	0x3e0d8294	0.13819343
15	0x3dc49668	0.09599
16	0xbda365e5	-0.07978419
17	0x3e8fdd36	0.28098458
18	0x3db43bfe	0.08800505
19	0x3eaf5a7f	0.3424873
20	0x3e59c8c7	0.21267997
21	0xbe0ac1ef	-0.13550542
22	0xbe1e0292	-0.15430668
23	0xbd830032	-0.06396522
24	0x3db9d8d1	0.090745576
25	0xbc322e58	-0.010875307
26	0xbda132f6	-0.07871048
27	0xbe405116	-0.18780932
28	0xbe9fef51	-0.3123727
29	0xbdc084c0	-0.0940032
30	0x3e1043d1	0.1408837
31	0xbd5b719a	-0.053575136
32	0xbc540e58	-0.012942873
33	0xbe05a053	-0.1304944
34	0xbdc75e72	-0.09734811
35	0xbe72afd9	-0.23699893
36	0xbdef92e6	-0.116979405
37	0xbe17b07b	-0.14813416
38	0x3d56a8a6	0.05240693
39	0xbde86f6b	-0.11349376
40	0xbac23647	-0.0014817201
41	0x3e5a35ca	0.21309581
42	0x3c6375df	0.013883083
43	0x3b8cdd1a	0.0042988183
44	0x3e22fb8b	0.15916269
45	0x3e0548d9	0.1301607
46	0x3e42b5a3	0.19014601
47	0x3cf109a6	0.029423546
48	0xbe6fd5e5	-0.23421438
49	0xbd43c708	-0.047797233
50	0x3d2de8ec	0.04245846
51	0x3d2947d2	0.04132826
52	0xbdf60a8d	-0.12013731
53	0xbe2427ec	-0.16030854
54	0xbd7d352f	-0.061818298
55	0xbd563b8f	-0.052302893
56	0xbd037506	-0.032094024
57	0xbc198129	-0.009369173
58	0xbd13481f	-0.035957452
59	0xbdfb53d8	-0.12271851
60	0xbd83cac7	-0.06435161
61	0xbd57b45e	-0.052662246
62	0xbcebf784	-0.028804548
63	0xbe4ed1ee	-0.2019727
64	0x3e3b0440	0.1826334
65	0xbdf6e653	-0.120556496
66	0xbe710aed	-0.23539324
67	0xbde37149	-0.11105592
68	0x3e3136d5	0.17306073
69	0x3d51a1f5	0.051179845
70	0x3cb28fc9	0.021797078
71	0xbd4ac1ce	-0.049501233
72	0xbd837ea2	-0.06420638
73	0xbd4bb47b	-0.049732666
74	0xbcc9f02b	-0.024650654
75	0xbce940e0	-0.028473318
76	0xbe10e0a8	-0.141482
77	0xbe0e8353	-0.13917284
78	0x3e056bf7	0.13029467
79	0x3e0b7231	0.1361778
80	0xbdea95e7	-0.11454373
81	0xbc397ce1	-0.011321277
82	0xbd4a3084	-0.049362674
83	0xbdb710bb	-0.08938738
84	0x3e5a5835	0.21322711
85	0xbe14c72a	-0.145291
86	0xbd8a1cfb	-0.06743809
87	0xbd02ed59	-0.031964634
88	0xbc2f6a41	-0.010706485
89	0x3db4b2b2	0.08823146
90	0x3b21d3bb	0.0024692852
91	0xbd86d4d4	-0.065835625
92	0x3ddf5b0b	0.10906037
93	0xbd3ef176	-0.046616994
94	0x3e31e3cc	0.17372054
95	0x3db80021	0.089843996
96	0xbe305ec2	-0.17223647
97	0x3d099ff2	0.0335998
98	0xbddba831	-0.10725439
99	0x3da5f830	0.08103979
100	0x3e42ee53	0.19036226
101	0xbe35e24b	-0.17762105
102	0xbe3f9152	-0.18707779
103	0xbccb93fe	-0.024850842
104	0xbdc12809	-0.09431464
105	0xbdbf28bf	-0.093339436
106	0xbd97f6c2	-0.07420112
107	0xbe14b08e	-0.14520475
108	0xbe286fdf	-0.16448925
109	0xbdf9fd59	-0.12206525
110	0x3d56e552	0.05246479
111	0x3d23a9a5	0.039956708
112	0xbe4a6690	-0.19765687
113	0xbf3dd36e	-0.7415074
114	0xbeb9e77d	-0.36309424
115	0xbf685258	-0.90750647
116	0xbe45ad3d	-0.19304366
117	0x3ae22122	0.0017252306
118	0x3e4fdd4b	0.2029926
119	0x3d6512da	0.05592618
120	0xbee6bfc6	-0.45068187
121	0x3db9c3c8	0.090705454
122	0x3bcce43c	0.0062527936
123	0xbde9d691	-0.114178784
124	0x3f4be095	0.7963956
125	0x3f442f64	0.7663481
126	0x3e42cdc5	0.19023807
127	0x3c704611	0.014665143
128	0xbe973b59	-0.29537466
129	0xbd1f57af	-0.03890198
130	0x3e108562	0.14113382
131	0xbd950945	-0.07277159
132	0xbe9e9bd3	-0.3097826
133	0x3d08b490	0.033375323
134	0x3dc4380a	0.09581001
135	0x3d9c3f14	0.07629219
136	0x3b49bf9d	0.0030784376
137	0xbdba26a1	-0.09089399
138	0x3d12cfc3	0.03584267
139	0x3c8aa624	0.016924925
140	0x3e5df8a7	0.21676885
141	0x3c9cf8e0	0.019161642
142	0xbba9efcd	-0.005186057
143	0xbe3c48ed	-0.18387194
144	0xbea6334b	-0.32461008
145	0xbdc537d5	-0.0962979
146	0x3d54d661	0.05196226
147	0x3d0fca7b	0.03510521
148	0xbe6d2c65	-0.23161466
149	0xbe7e1be0	-0.24815321
150	0xbd704732	-0.058661647
151	0x3c18b937	0.009321502
152	0xbb24c6a6	-0.0025142818
153	0xbe322d3c	-0.17400068
154	0xbbb05614	-0.005381355
155	0xbd3393c6	-0.0438421
156	0x3d6ab237	0.057298865
157	0xbd83a8ee	-0.06428705
158	0xbe1fcaf9	-0.15604772
159	0xbea6f63b	-0.32609734
160	0x3da29275	0.07938091
161	0x3e0e95e3	0.13924365
162	0x3dc082c5	0.09399942
163	0x3c0f501b	0.008747126
164	0x3d73ee98	0.059553713
165	0xbbff06f7	-0.0077828127
166	0x3e84aa30	0.25911093
167	0x3c82893f	0.015934585
168	0x3e55a8a4	0.20865113
169	0x3d272a44	0.040811792
170	0x3db58bde	0.08864568
171	0x3e83311c	0.25623405
172	0x3e499caa	0.19688669
173	0x3e025f99	0.1273178
174	0xbcd935e1	-0.02651495
175	0x3e562bd8	0.20915163
176	0xbe38dc9f	-0.1805291
177	0x3cee112e	0.029060926
178	0x3d9ba26d	0.0759934
179	0x3ddfa984	0.109210044
180	0xbcac9520	-0.021067202
181	0xbe8c40f1	-0.27393296
182	0xbe09f644	-0.13472849
183	0x3d2692aa	0.040667213
184	0xbca87538	-0.020563707
185	0xbe2d3372	-0.16914156
186	0xbd1edc24	-0.03878416
187	0xbdb1ec86	-0.086876914
188	0xbca51f74	-0.0201566
189	0xbd10e947	-0.03537872
190	0x3dca585e	0.09880136
191	0xbe44af7c	-0.19207567
192	0xbe8afa3a	-0.27144033
193	0xbd0e5834	-0.034752086
194	0x3df14819	0.1178133
195	0x3e01904c	0.12652701
196	0xbebb093e	-0.3653049
197	0xbe3e4c4b	-0.18583791
198	0x3cfc2494	0.03077916
199	0x3d3f112c	0.046647236
200	0x3cdb04f4	0.02673576
201	0xbe38bad7	-0.18040024
202	0x3bf9d256	0.007623951
203	0x3d3095e9	0.043111715
204	0x3c21a1a2	0.009865196
205	0x3b7ab108	0.0038252492
206	0xbdd76f48	-0.10519272
207	0xbc0ae863	-0.008478257
208	0x3ea51bb9	0.32247713
209	0x3ed5520d	0.41664162
210	0x3e5cef31	0.2157562
211	0x3f0448e6	0.51673734
212	0x3e95b165	0.29236904
213	0xbd99a600	-0.07502365
214	0xbe3d00d5	-0.18457349
215	0xbd3de2db	-0.046358924
216	0x3e8429b3	0.25813064
217	0x3d8529d0	0.06502116
218	0x3d1b6575	0.037938554
219	0x3e249324	0.16071755
220	0xbef03751	-0.46917203
221	0xbe4ab6b3	-0.19796257
222	0xba366988	-0.00069584744
223	0x3e14f06a	0.14544836
224	0xbe02ab47	-0.1276065
225	0xbdcdd000	-0.100494385
226	0xbda5bf97	-0.080931835
227	0xbd2ebaae	-0.0426585
228	0x3d4303ba	0.047610976
229	0x3e169124	0.14703804
230	0xbe795193	-0.24347524
231	0xbe0e4b77	-0.13895975
232	0xbdf74072	-0.12072839
233	0xbd558234	-0.052126125
234	0xbd43e6d1	-0.047827546
235	0xbe44242f	-0.19154428
236	0xbda9a17e	-0.08282755
237	0xbdda1f85	-0.10650543
238	0xbdbeee35	-0.09322778
239	0x3c82230a	0.015885849
240	0x3ee71518	0.4513328
241	0x3ec637bc	0.38714397
242	0x3e24f866	0.16110381
243	0x3ee83a62	0.45357043
244	0x3ed40353	0.41408786
245	0x3e7a6b6c	0.2445504
246	0x3dedb022	0.1160586
247	0x3e48ccf1	0.19609429
248	0x3e7a62cc	0.2445175
249	0x3e492879	0.19644345
250	0x3d54b2f7	0.051928487
251	0x3e9296d9	0.28630713
252	0xbeb51212	-0.3536535
253	0xbe63edb5	-0.22258647
254	0x3ea60716	0.3242728
255	0x3edc50c0	0.43030357

readout.readouts.0.project_nodes.1.bias f4 [16]
0	0x3e2e2085	0.17004593
1	0xb982ac8e	-0.00024924095
2	0x3dd0fdea	0.1020468
3	0xbe8061da	-0.25074655
4	0xbdbfce70	-0.09365547
5	0xbe3c0c1e	-0.18363997
6	0xbd7c8cb1	-0.06165761
7	0x3dba9d13	0.09111991
8	0xbd4e3540	-0.050343752
9	0xbe0e0643	-0.13869576
10	0x3e9d8499	0.30765226
11	0xbe24be9a	-0.16088334
12	0xbcb5f39d	-0.02221089
13	0x3e16e167	0.14734422
14	0xbe4a0242	-0.19727424
15	0x3ef109f1	0.47077897
