1-GNNs/result/6108_AR_NURA_AFP_0920/saved_model/AttentiveFP_bst_2.pth (torch, 34842 bytes, 19 tensors)

gnn.init_context.project_node.0.weight f4 [16, 74]
0	0xbd2d19ee	-0.042261057
1	0x3ab30c7f	0.001366034
2	0xbc501db8	-0.012702398
3	0xbb4122c8	-0.0029470194
4	0x3d104f6f	0.035232004
5	0x000877f5	7.77716e-40
6	0xb93f2559	-0.00018229093
7	0xbbb3a6da	-0.0054825367
8	0xbcb0c7c6	-0.021579634
9	0x00027177	2.24375e-40
10	0x8002b1d6	-2.47467e-40
11	0x000068bb	3.757e-41
12	0x000042b7	2.3933e-41
13	0x8002c7a0	-2.55283e-40
14	0x000b7665	1.052662e-39
15	0xbbc3f405	-0.005980017
16	0x0000f230	8.688e-41
17	0x00007a91	4.3969e-41
18	0x80032ac7	-2.90852e-40
19	0x00012c1e	1.07662e-40
20	0x8006126d	-5.57623e-40
21	0x0002dc9f	2.62815e-40
22	0x0001ece2	1.76813e-40
23	0x80061b93	-5.60905e-40
24	0x80021e42	-1.94525e-40
25	0x00029efa	2.40701e-40
26	0x80005198	-2.927e-41
27	0x80048573	-4.15215e-40
28	0x80029456	-2.36884e-40
29	0x00025ab6	2.16212e-40
30	0x8000f75c	-8.8736e-41
31	0x8004128c	-3.73995e-40
32	0x80024174	-2.07151e-40
33	0x8001dadc	-1.70347e-40
34	0x8003a914	-3.3616e-40
35	0x8008818c	-7.81157e-40
36	0x0000f556	8.801e-41
37	0x800077fa	-4.304e-41
38	0x8002fa5c	-2.73483e-40
39	0x0000cc4f	7.3292e-41
40	0x0004fad4	4.57322e-40
41	0x8001c1d2	-1.61365e-40
42	0x0002c572	2.54501e-40
43	0x00017245	1.32828e-40
44	0x3d0291bc	0.031877264
45	0xbcf5a9ca	-0.029988188
46	0xbc45d319	-0.012074255
47	0xbca5305d	-0.020164663
48	0x0000dc20	7.8966e-41
49	0x00018a0c	1.41357e-40
50	0x0002a8f3	2.44279e-40
51	0x80000c25	-4.357e-42
52	0x000126f1	1.05805e-40
53	0x00023a0d	2.04496e-40
54	0xbaa8235a	-0.0012827918
55	0x3d1b2d7b	0.03788517
56	0xb91748a6	-0.00014427546
57	0x3c9f1fe0	0.019424379
58	0x8002db5d	-2.62364e-40
59	0x8002a005	-2.41075e-40
60	0x80032ff6	-2.92712e-40
61	0xbc7a18dd	-0.015264717
62	0x398b80ad	0.00026608017
63	0x3c718c4e	0.014742924
64	0xbb759fb2	-0.003747922
65	0xbb3c8e6c	-0.0028771413
66	0x00002c6a	1.5933e-41
67	0x80011148	-9.8035e-41
68	0x3c24e337	0.010063938
69	0xba449c14	-0.0007500064
70	0xbd755726	-0.059897564
71	0xb9dc4cb3	-0.00042018815
72	0xbd86f616	-0.06589906
73	0x000092d3	5.267e-41
74	0xbd4cb379	-0.049975846
75	0x3bbc7536	0.0057512773
76	0xbcab4086	-0.02090479
77	0xbb1b2beb	-0.00236773
78	0xb82a1b9b	-4.0556868e-05
79	0x8001704b	-1.32119e-40
80	0xb87728a0	-5.8927224e-05
81	0xb9f01d02	-0.0004579798
82	0xb9e94d85	-0.0004449898
83	0x8000e808	-8.3237e-41
84	0x0001bf86	1.60541e-40
85	0x80026c06	-2.22423e-40
86	0x8003b200	-3.39361e-40
87	0x0002bfc9	2.5247e-40
88	0x00006585	3.6418e-41
89	0x3a183063	0.000580555
90	0x00078b85	6.92899e-40
91	0x80001c8d	-1.0242e-41
92	0x000279ea	2.27406e-40
93	0x80017f58	-1.37518e-40
94	0x8001b982	-1.58383e-40
95	0x80010ae6	-9.5745e-41
96	0x0003bfba	3.44285e-40
97	0x00010ddc	9.6807e-41
98	0x8003e775	-3.58538e-40
99	0x80033326	-2.93855e-40
100	0x0001c20b	1.61445e-40
101	0x00005524	3.0543e-41
102	0x0001a65e	1.51517e-40
103	0x800cb198	-1.165735e-39
104	0x800059d2	-3.2221e-41
105	0x0000599d	3.2147e-41
106	0x0004bbae	4.34669e-40
107	0x00036838	3.12893e-40
108	0x000294d8	2.37066e-40
109	0x8001f8cc	-1.81087e-40
110	0x800063b4	-3.5767e-41
111	0x80033356	-2.93922e-40
112	0x0003bbb4	3.42842e-40
113	0x0001c637	1.62942e-40
114	0x00037d7d	3.20523e-40
115	0x000071a0	4.0761e-41
116	0x000138ba	1.12185e-40
117	0x80019076	-1.43658e-40
118	0xbd047ca4	-0.03234543
119	0xbd1b28eb	-0.03788082
120	0xbc11a964	-0.0088904835
121	0x3950358f	0.00019856378
122	0x800a27b2	-9.32595e-40
123	0x80036523	-3.11788e-40
124	0x00007f18	4.5593e-41
125	0x8000daf5	-7.8547e-41
126	0x800142d8	-1.15815e-40
127	0x00065151	5.80184e-40
128	0xbd21332a	-0.039355434
129	0xbd0ae609	-0.033910785
130	0xbb601777	-0.0034193674
131	0x3b715226	0.0036822646
132	0x0000736c	4.1406e-41
133	0x0001e5a8	1.7422e-40
134	0x80019b05	-1.47446e-40
135	0x3c5555c9	0.013020941
136	0xb5c46e61	-1.4635262e-06
137	0xbbfb3aa9	-0.007666905
138	0xbd342e26	-0.043989323
139	0xbc6bb203	-0.014385703
140	0x0002555b	2.14291e-40
141	0x80032983	-2.90398e-40
142	0xbd2f6ccc	-0.042828366
143	0xbd1ed919	-0.03878126
144	0xbd0b913d	-0.034074057
145	0xbb608d0d	-0.003426376
146	0x3ba35205	0.0049841427
147	0x800151c5	-1.21169e-40
148	0x3da46e75	0.080288805
149	0xbf84c700	-1.037323
150	0xbaf89d1d	-0.0018967722
151	0xbe8aec49	-0.27133396
152	0x3e926512	0.28592736
153	0x0000e5b4	8.2402e-41
154	0x3c71ed0c	0.014765989
155	0x3f56b798	0.8387389
156	0xbe0a9f3c	-0.13537306
157	0x80030928	-2.78791e-40
158	0x0006172a	5.59323e-40
159	0x800295d6	-2.37422e-40
160	0x80029aa4	-2.39146e-40
161	0x00039ef6	3.32531e-40
162	0x8003cdd7	-3.49348e-40
163	0xbe269d33	-0.16270904
164	0x800aacf3	-9.80397e-40
165	0x0003f46d	3.6319e-40
166	0x800159de	-1.24074e-40
167	0x00025119	2.12763e-40
168	0x00017320	1.33135e-40
169	0x000b651b	1.04646e-39
170	0x800073b6	-4.1509e-41
171	0x8004af9f	-4.30343e-40
172	0x8002b75b	-2.49447e-40
173	0x800194e4	-1.45247e-40
174	0x0007b5be	7.08045e-40
175	0x00017f64	1.37535e-40
176	0x80003f9d	-2.282e-41
177	0x8006232a	-5.63627e-40
178	0x00025c51	2.16788e-40
179	0x0003573f	3.06804e-40
180	0x8001afe8	-1.54939e-40
181	0x8002a9d8	-2.446e-40
182	0x8003ea83	-3.59633e-40
183	0x8009a4c1	-8.85622e-40
184	0x8001ede5	-1.77176e-40
185	0x00011ab0	1.01409e-40
186	0x80045459	-3.976e-40
187	0x8002b06b	-2.46958e-40
188	0x80030ddd	-2.8048e-40
189	0x000126d0	1.05759e-40
190	0x800069cb	-3.7951e-41
191	0x0001320f	1.09793e-40
192	0x3d2c60bb	0.042084437
193	0x3d72013d	0.059083212
194	0x3e0d335c	0.13789123
195	0x3e1acf19	0.15118064
196	0x800196d4	-1.45942e-40
197	0x000037c1	2.0001e-41
198	0x0000b2c1	6.4125e-41
199	0x000309e8	2.7906e-40
200	0x80015913	-1.2379e-40
201	0x0004184b	3.76057e-40
202	0x3eae411c	0.3403405
203	0xbe8a7aab	-0.27046713
204	0xbb35e7db	-0.0027756605
205	0x3dcb5364	0.09928015
206	0x8001124c	-9.8399e-41
207	0x8003c0f7	-3.44729e-40
208	0x00030f79	2.81057e-40
209	0xbdc594d1	-0.09647525
210	0x3a7b8582	0.00095947844
211	0xbee52fef	-0.44763133
212	0x3cc92a8c	0.02455642
213	0x3e0d90c1	0.1382475
214	0x0005286d	4.7368e-40
215	0x00052aac	4.74485e-40
216	0x3db24de5	0.087062635
217	0x3e63049c	0.22169727
218	0xbe893268	-0.2679627
219	0x3e0e41c3	0.13892274
220	0x3d4ae551	0.0495351
221	0x00032f15	2.92396e-40
222	0xbdcdf6bc	-0.100568265
223	0x3f501c2b	0.8129298
224	0x3ec5add4	0.38609183
225	0xbef8f7a0	-0.48626423
226	0x3f60aea4	0.8776648
227	0x0006c8fb	6.23111e-40
228	0xbea8d656	-0.32976025
229	0xbf24b6ed	-0.6434162
230	0xbe82bb0a	-0.25533324
231	0x00018c31	1.42127e-40
232	0x8003d213	-3.50867e-40
233	0x80031318	-2.82356e-40
234	0x8000bff9	-6.8867e-41
235	0x80020569	-1.85612e-40
236	0x0001f73b	1.80525e-40
237	0x3d9fdfc9	0.078063555
238	0x80024602	-2.08785e-40
239	0x0001486c	1.17816e-40
240	0x8002b022	-2.46856e-40
241	0x8000396c	-2.0599e-41
242	0x80031979	-2.84644e-40
243	0x8001650d	-1.28086e-40
244	0x8000b1b4	-6.3748e-41
245	0x80052526	-4.72504e-40
246	0x00038289	3.22334e-40
247	0x0000842d	4.7416e-41
248	0x00021691	1.91766e-40
249	0x80029243	-2.3614e-40
250	0x00030ab6	2.79349e-40
251	0x0001d602	1.68607e-40
252	0x0001e763	1.74841e-40
253	0x80037b93	-3.19837e-40
254	0x8001c197	-1.61282e-40
255	0x80029a39	-2.38996e-40

gnn.init_context.project_node.0.bias f4 [16]
0	0xbc458ffb	-0.012058253
1	0xbdcac640	-0.099010944
2	0x3e17f918	0.14841115
3	0x3d2f6161	0.042817477
4	0xbda2d29d	-0.079503275
5	0x3e01fb50	0.12693524
6	0x3d9aa8f7	0.07551759
7	0xbdfa0e38	-0.12209743
8	0x3d260b4c	0.040538117
9	0x3e293e18	0.16527593
10	0xbd1bd89e	-0.03804838
11	0x3e1bbe33	0.15209274
12	0x3e141ce0	0.1446414
13	0x3a36c19f	0.0006971601
14	0xbde62048	-0.11236626
15	0xbdfc7850	-0.12327635

gnn.init_context.project_edge1.0.weight f4 [16, 87]
0	0x3e09c29b	0.13453142
1	0xbbcd9f6e	-0.006275109
2	0x3e602ade	0.21891353
3	0xbe6e6bde	-0.23283336
4	0xbe9741c1	-0.29542354
5	0x80012e1c	-1.08376e-40
6	0x3e4cec47	0.20012008
7	0x3ec61b97	0.38692924
8	0x3dbf0e89	0.09328944
9	0x8001a00e	-1.49252e-40
10	0x80085af0	-7.67306e-40
11	0x00016f8b	1.3185e-40
12	0x00030b7e	2.79629e-40
13	0x8002b9bb	-2.50299e-40
14	0x0000f939	8.9404e-41
15	0xbd9d47c7	-0.07679706
16	0x0002a0d8	2.41371e-40
17	0x8001911e	-1.43894e-40
18	0x80064bcb	-5.78202e-40
19	0x8001aac7	-1.53099e-40
20	0x0000b8cb	6.6291e-41
21	0x00045ee5	4.01384e-40
22	0x8004b288	-4.31387e-40
23	0x00012cce	1.07908e-40
24	0x8000d659	-7.6893e-41
25	0x00011072	9.7735e-41
26	0x00023f44	2.06366e-40
27	0x00027115	2.24237e-40
28	0x8002e310	-2.65126e-40
29	0x000166c0	1.28695e-40
30	0x80022397	-1.96438e-40
31	0x8000a7fc	-6.0261e-41
32	0x000048f4	2.617e-41
33	0x00050260	4.6003e-40
34	0x0004f64d	4.55698e-40
35	0x00018851	1.40737e-40
36	0x00025299	2.13301e-40
37	0x00088c7f	7.85084e-40
38	0x00016c2b	1.30639e-40
39	0x80019780	-1.46183e-40
40	0x8002e944	-2.67351e-40
41	0x00029aa5	2.39147e-40
42	0x8006a0f6	-6.08755e-40
43	0x00004fd7	2.8641e-41
44	0x3e0ceb10	0.13761544
45	0x3e8c769e	0.27434248
46	0xbd0aa9b0	-0.033853233
47	0xbe5a690a	-0.21329132
48	0x80031703	-2.83762e-40
49	0x0000c41b	7.035e-41
50	0x8001972e	-1.46069e-40
51	0x00021d46	1.94172e-40
52	0x00013761	1.11702e-40
53	0x80032667	-2.89283e-40
54	0xbe08b4d9	-0.13350238
55	0xbe26b44e	-0.16279718
56	0x3ea60d42	0.3243199
57	0x3e94e1d8	0.29078555
58	0x8001d9d5	-1.69979e-40
59	0x8003204e	-2.87095e-40
60	0x0002ae08	2.46102e-40
61	0x3e75d8f0	0.24008536
62	0x3ab0c078	0.0013485095
63	0x3e4e964d	0.20174523
64	0xbd01c247	-0.031679418
65	0xbcab8537	-0.020937545
66	0x00032c49	2.91393e-40
67	0x80028d95	-2.34461e-40
68	0xbec9a0fe	-0.3938064
69	0xbe3b58d3	-0.18295603
70	0xbe0a0ff3	-0.13482647
71	0x3ecc0ecc	0.3985504
72	0x3e81deb8	0.25365233
73	0x000393c7	3.28519e-40
74	0x3dae156e	0.08500181
75	0x3ef7f54c	0.48429334
76	0xbed50ed0	-0.41612864
77	0xbd232017	-0.039825525
78	0xbd94e66f	-0.07270514
79	0xbeb218bb	-0.34784493
80	0x3ce72a19	0.028218316
81	0x00031639	2.83478e-40
82	0x800d1754	-1.20223e-39
83	0x8002cb0c	-2.5651e-40
84	0x80057a8c	-5.03139e-40
85	0x0004cd4f	4.40993e-40
86	0x3e83319e	0.25623792
87	0x3e53e162	0.20691445
88	0xbe5ed55d	-0.21761079
89	0xbef4e107	-0.47827932
90	0xbd4ca897	-0.049965467
91	0xbdc8ba4f	-0.098011605
92	0x8004e431	-4.49202e-40
93	0xbd7699e0	-0.06020534
94	0x3e79b2a3	0.24384551
95	0xbd20d641	-0.03926683
96	0x80034d3e	-3.03216e-40
97	0x0000d33d	7.5778e-41
98	0x8003670e	-3.12476e-40
99	0x80011750	-1.00198e-40
100	0x800192e1	-1.44526e-40
101	0x000217da	1.92227e-40
102	0xbd0b1e85	-0.033964653
103	0x8002afac	-2.4669e-40
104	0x000881fa	7.81311e-40
105	0x80008382	-4.7176e-41
106	0x0002d3a4	2.59593e-40
107	0x80006a47	-3.8125e-41
108	0x00017219	1.32766e-40
109	0x00024698	2.08995e-40
110	0x0003c562	3.46314e-40
111	0x8002336d	-2.02119e-40
112	0x800206d6	-1.86123e-40
113	0x0005b968	5.25689e-40
114	0x8000887e	-4.8964e-41
115	0x00005315	2.9804e-41
116	0x00067289	5.921e-40
117	0x8003710d	-3.16061e-40
118	0x0004f229	4.54213e-40
119	0x0000ad90	6.2262e-41
120	0x0002b5a0	2.48826e-40
121	0x00032b29	2.9099e-40
122	0x00022d22	1.99862e-40
123	0x8001fd96	-1.82805e-40
124	0x8001a404	-1.50673e-40
125	0x80063a9c	-5.72038e-40
126	0x000070a9	4.0415e-41
127	0x00014cba	1.1936e-40
128	0x000315e7	2.83364e-40
129	0x00033f98	2.9832e-40
130	0x800300e8	-2.75832e-40
131	0x3dedda6f	0.116139285
132	0xbd536005	-0.051605243
133	0x3e629784	0.22128111
134	0xbec0ef28	-0.37682462
135	0x0005423a	4.82935e-40
136	0x00007666	4.2473e-41
137	0x800723dd	-6.55714e-40
138	0x00039e3d	3.32272e-40
139	0x80022b10	-1.99119e-40
140	0x0004062a	3.69553e-40
141	0xbda58020	-0.080810785
142	0xbeadb2ce	-0.3392548
143	0x3e98890b	0.29792055
144	0x3ed41436	0.4142167
145	0x0002f0c1	2.70037e-40
146	0x0009bf19	8.95072e-40
147	0x00003610	1.9394e-41
148	0xbcc01a99	-0.023450183
149	0x3853bedd	5.0484075e-05
150	0x3ea4b4de	0.3216924
151	0x3c863112	0.01638082
152	0xbe0c1cc3	-0.13682847
153	0x0000ae75	6.2583e-41
154	0x800106d1	-9.4281e-41
155	0x3ee0ee70	0.43931913
156	0xbd6ca1c5	-0.057771463
157	0xbeaa868d	-0.3330578
158	0x3e7770b3	0.24164085
159	0x3eb05dc5	0.3444654
160	0x0002a5ee	2.43195e-40
161	0xbd962a34	-0.07332268
162	0x3f1a476d	0.6026524
163	0x3e9950ed	0.29944554
164	0xbd8e0faa	-0.069365814
165	0xbf4abf44	-0.791981
166	0x3eb7b09d	0.35876933
167	0xbd325c38	-0.043544978
168	0x80090d10	-8.31205e-40
169	0x8000ae75	-6.2583e-41
170	0x80015548	-1.22429e-40
171	0x80059c56	-5.1526e-40
172	0x8003dbaf	-3.54314e-40
173	0xbe055e26	-0.13024196
174	0x3bcf95d0	0.0063349977
175	0x3a11084c	0.00055325474
176	0xbaa8b1de	-0.0012870391
177	0x38795b02	5.9450984e-05
178	0x39a85ab5	0.0003211104
179	0x8006fef8	-6.42479e-40
180	0x35f5b646	1.8306971e-06
181	0x37d67b0b	2.5568084e-05
182	0x37ac0672	2.0507e-05
183	0x80066fc4	-5.91107e-40
184	0x8000b1b7	-6.3752e-41
185	0x0000bb85	6.727e-41
186	0x0004a771	4.27409e-40
187	0x00022328	1.96283e-40
188	0x000158b7	1.2366e-40
189	0x37736ab3	1.45087715e-05
190	0x8002e6cb	-2.66464e-40
191	0x0002519e	2.1295e-40
192	0x00038d29	3.26145e-40
193	0x800075ae	-4.2216e-41
194	0x8000f102	-8.6457e-41
195	0x00001360	6.95e-42
196	0x80008af2	-4.9844e-41
197	0x8000e703	-8.2871e-41
198	0x00049221	4.19763e-40
199	0x00016992	1.29707e-40
200	0x8002a326	-2.42198e-40
201	0x00004234	2.3749e-41
202	0x00033a44	2.96408e-40
203	0x80039893	-3.3024e-40
204	0x00062a6d	5.66232e-40
205	0x8002353c	-2.02768e-40
206	0x80034ec8	-3.03768e-40
207	0x0004c3bf	4.37562e-40
208	0x0004b1f9	4.31187e-40
209	0x00002582	1.3455e-41
210	0x800241ff	-2.07346e-40
211	0x0002f04b	2.69872e-40
212	0x80004c44	-2.7359e-41
213	0x800358be	-3.07341e-40
214	0x80051470	-4.66509e-40
215	0x0007c32f	7.12867e-40
216	0x00039201	3.27883e-40
217	0x00064d8e	5.78834e-40
218	0x3b1653a3	0.0022938035
219	0x3a7be063	0.00096083264
220	0xba6ee7d4	-0.00091135246
221	0x3992ce8b	0.00028001177
222	0x0001fbf4	1.82219e-40
223	0x00019d51	1.4827e-40
224	0x80032c0c	-2.91308e-40
225	0x80024dbf	-2.11561e-40
226	0x000441fe	3.91016e-40
227	0x00038e5d	3.26577e-40
228	0xbb1899a5	-0.0023284939
229	0xbb9d1412	-0.0047936523
230	0x390e8a55	0.00013593708
231	0x38e12656	0.00010735977
232	0x00040977	3.70737e-40
233	0x80040f08	-3.72734e-40
234	0x00027918	2.27111e-40
235	0xb688f455	-4.08156e-06
236	0xb417b037	-1.4127077e-07
237	0xb88b3cdc	-6.6393724e-05
238	0xbb8817e6	-0.0041532395
239	0xb9f4e1af	-0.00046707454
240	0x8000c17a	-6.9406e-41
241	0x80030735	-2.78092e-40
242	0x3a679607	0.00088343065
243	0xbc0a8237	-0.008453897
244	0xba393f3f	-0.00070666143
245	0x390e7c92	0.00013588581
246	0x38e87d6a	0.00011085982
247	0x80082df1	-7.51165e-40
248	0x3c257b0b	0.0101001365
249	0x3a739782	0.0009292291
250	0xb8663736	-5.4887692e-05
251	0x3930d53c	0.00016864104
252	0x3a148722	0.00056658883
253	0x39cd61a3	0.00039173392
254	0xbca68ee7	-0.020331813
255	0x00031ec6	2.86546e-40

gnn.init_context.project_edge1.0.bias f4 [16]
0	0x3dd8312b	0.10556253
1	0x3d9f2b57	0.07771938
2	0xbd203c1c	-0.039119825
3	0x3d95b3d1	0.07309688
4	0xbb8da5e9	-0.0043227565
5	0xbe2af47c	-0.16694826
6	0xbe1fd9d5	-0.1561044
7	0xbc6b72fb	-0.014370675
8	0x3e496423	0.19667105
9	0x3e02d7c2	0.12777618
10	0xbd77f78a	-0.060538806
11	0xbdb5774e	-0.08860646
12	0xbd4ecd56	-0.050488792
13	0xbdd4a663	-0.10383298
14	0xbd7b8866	-0.061409377
15	0x3c9ad2d1	0.018899353

gnn.init_context.project_edge2.1.weight f4 [1, 32]
0	0xbd0004cd	-0.03125458
1	0x3c446f1f	0.011989384
2	0xbb32a3fa	-0.0027258382
3	0x3d976621	0.073925264
4	0x3c3ad4af	0.011403247
5	0xbc832b5d	-0.016011888
6	0x3d937d94	0.072016865
7	0xbc7b95b4	-0.015355516
8	0x3eaaa595	0.33329454
9	0xbc2ab888	-0.010419972
10	0x3c9a9e79	0.018874394
11	0x3d965003	0.0733948
12	0x3c7160ae	0.014732523
13	0x3d10b663	0.035330188
14	0x3dfe5738	0.124189794
15	0x3e2d26a1	0.16909267
16	0xbed55490	-0.4166608
17	0x3dacdc76	0.08440487
18	0xba0b2e54	-0.00053093326
19	0xbe099df7	-0.13439165
20	0x38c67b74	9.464371e-05
21	0x3ef930d3	0.48670062
22	0x3f25e3fe	0.64801013
23	0x3c2b9b5f	0.010474055
24	0xbf1d85d2	-0.6153232
25	0xbf47a94b	-0.77992696
26	0x3e9babf1	0.30404618
27	0x3ee90e8c	0.4551891
28	0xbc2933cc	-0.010327291
29	0xba71bef6	-0.0009221876
30	0x3e8ca1c1	0.27467158
31	0x3eb03fd1	0.34423688

gnn.init_context.attentive_gru.edge_transform.1.weight f4 [16, 16]
0	0x3ef411cd	0.4766983
1	0x3f4b101b	0.7932145
2	0x3a0d8e2a	0.0005399907
3	0x3f4ab5a9	0.7918344
4	0x387542df	5.847483e-05
5	0x3f0b391b	0.5438401
6	0x3ea70d8a	0.32627517
7	0x3c61674d	0.013757539
8	0xbe190d2c	-0.14946431
9	0x3e7f73ed	0.24946566
10	0x3eb2d814	0.3493048
11	0x3f50fdb0	0.81637096
12	0x3d206662	0.03916014
13	0x3d62054b	0.05518083
14	0x3eb19f1f	0.34691712
15	0xbee379f4	-0.4442898
16	0xbe557e13	-0.20848875
17	0xbe79bab7	-0.24387632
18	0xbad0f0f5	-0.0015940951
19	0xbec54426	-0.38528556
20	0x387454b7	5.825303e-05
21	0x3e9c3ad3	0.3051363
22	0x3e706af8	0.23478305
23	0xbb3d87f5	-0.0028920148
24	0xbe233175	-0.15936835
25	0xbdf6c8ef	-0.12050044
26	0x3e40da1d	0.18833204
27	0x3e17afa9	0.14813103
28	0xbc6cf8a4	-0.014463577
29	0x3c53dadf	0.012930601
30	0x3e120ba7	0.14262258
31	0xbd718c10	-0.058971465
32	0xbc0f0039	-0.00872808
33	0x3e293040	0.16522312
34	0x399c0552	0.00029758603
35	0xba01b48a	-0.0004947862
36	0x3883deb0	6.2880456e-05
37	0x3e05eea6	0.13079318
38	0x3efaf3ae	0.49014038
39	0x3b07ef07	0.0020741837
40	0x3de48d6b	0.11159786
41	0xbecf5d31	-0.40500787
42	0x3e2a9186	0.16657075
43	0x3d92e202	0.07172014
44	0xbb9865f8	-0.0046508275
45	0x3ca9d4b8	0.020731315
46	0x3ec180e9	0.37793663
47	0xbe9881ee	-0.29786628
48	0x3ebece67	0.37266847
49	0x3e805eeb	0.25072417
50	0x3aa798aa	0.0012786586
51	0x3ef7e02a	0.4841321
52	0xb80ba890	-3.329717e-05
53	0x3e43d4f1	0.191242
54	0x3d7d3032	0.06181354
55	0x3986ae17	0.0002568818
56	0x3de290ac	0.1106275
57	0xbe988f32	-0.2979675
58	0x3db9064c	0.09034404
59	0x3ea653c7	0.32485792
60	0x3afc8d34	0.0019268156
61	0x3c90c095	0.017669955
62	0x3e0bded0	0.13659215
63	0xbed581f4	-0.4170071
64	0xbef370c6	-0.47546977
65	0xbf3009b4	-0.68764806
66	0x39e2885e	0.0004320768
67	0xbf1931f3	-0.5984184
68	0x39401034	0.00018316583
69	0x3e2fcde2	0.17168382
70	0x3e4874e9	0.19575848
71	0xbb0deabc	-0.0021654805
72	0xbdbb0765	-0.0913227
73	0x3bf79038	0.007555034
74	0x3ca29d16	0.019850295
75	0xbe5aa450	-0.21351743
76	0xbc1f196f	-0.009710654
77	0xb73cfe79	-1.1264922e-05
78	0x3bddcb1b	0.006768597
79	0x3e936ac1	0.28792384
80	0xbc4983c6	-0.012299484
81	0x3dd389e6	0.103290364
82	0xb890a33d	-6.8968606e-05
83	0xbcd9304b	-0.026512286
84	0x380c812c	3.34989e-05
85	0x3e362520	0.177876
86	0x3ec63ece	0.3871979
87	0x3bb243fa	0.0054402323
88	0xbe67be26	-0.2263113
89	0xbea81a28	-0.32832456
90	0x3df7bf32	0.120970145
91	0x3df7ea0f	0.1210519
92	0x39d411d8	0.00040449086
93	0x3bcff07a	0.0063458057
94	0x3ddf7df3	0.10912695
95	0xbe1c2df1	-0.152519
96	0xbecb5313	-0.39711818
97	0xbebd369f	-0.36955735
98	0xba7f5363	-0.00097399036
99	0xbef0b377	-0.4701192
100	0x38c37b28	9.321264e-05
101	0x3ed2ce96	0.41173238
102	0x3e90b2d4	0.28261435
103	0xbcb19957	-0.021679563
104	0xbea31174	-0.31849253
105	0xbe1f02ea	-0.15528455
106	0x3e4ad1d4	0.19806606
107	0x3d9d1bcb	0.07671317
108	0xbcdb04b6	-0.026735645
109	0x3bfec460	0.0077748746
110	0x3e8da29e	0.2766313
111	0x3ea7da97	0.32783958
112	0x3de3d83f	0.1112523
113	0x3e35b8ec	0.17746323
114	0x3a141eb3	0.00056503265
115	0x3e400405	0.18751533
116	0x368628ad	3.9982465e-06
117	0x3e103140	0.14081287
118	0x3cd0580a	0.025432605
119	0x3b93705c	0.0044994783
120	0x3c61dcca	0.01378555
121	0xbee83aaa	-0.45357257
122	0x3e6ccf9c	0.23126072
123	0x3e10ce09	0.14141096
124	0x3a67e124	0.0008845499
125	0x3c2e0853	0.010622102
126	0x3e78411c	0.24243587
127	0xbe8e5d75	-0.27805677
128	0x3d736a1e	0.059427373
129	0x3e2c309b	0.16815417
130	0x3a00eaf5	0.0004917824
131	0x3d92ae7e	0.07162188
132	0x3623c4b5	2.4403391e-06
133	0x3eda626c	0.42653215
134	0x3e4a2f1e	0.19744536
135	0xbc47d817	-0.012197516
136	0x3d056e26	0.03257575
137	0xbe2ad6fd	-0.16683574
138	0x3e3f8813	0.18704252
139	0x3eb15c11	0.34640554
140	0x3b215574	0.0024617584
141	0x3c22f21a	0.009945417
142	0x3e3b38e6	0.18283424
143	0xbd9e267c	-0.07722184
144	0xbe942114	-0.28931487
145	0x3eb715cc	0.35758817
146	0xba6750dc	-0.00088239997
147	0xbdc66f30	-0.09689176
148	0x38c3070f	9.299639e-05
149	0x3edd4d8b	0.43223223
150	0x3ec594b7	0.38590023
151	0x3be7a62e	0.0070693707
152	0xbe745a16	-0.2386249
153	0x3d801771	0.06254471
154	0x3ed8258d	0.4221615
155	0x3ea7ceff	0.32775113
156	0x3ae41abc	0.0017402987
157	0x3d3e3c69	0.04644433
158	0x3eb7caf2	0.35897022
159	0xbf2709ca	-0.6524931
160	0xbecee4d3	-0.40408954
161	0xbefe60fd	-0.4968337
162	0x3a5683c1	0.0008183085
163	0xbf153603	-0.5828554
164	0x398bb80a	0.00026649266
165	0x3dd07292	0.101781026
166	0x3ce839dc	0.028347902
167	0x3bb8c7cd	0.0056390525
168	0xbe4f73a1	-0.20258953
169	0x3eb5e58b	0.3552669
170	0x3d732d22	0.059369214
171	0xbdb2aabc	-0.08723971
172	0xbbe0af20	-0.006856814
173	0x3c300360	0.010742992
174	0xbe17cb6f	-0.14823698
175	0x3c8cc5f0	0.017184228
176	0xbe57d810	-0.21078515
177	0xbe177b39	-0.147931
178	0x3a59f136	0.00083138363
179	0xbe75601f	-0.23962449
180	0x382d2121	4.1277268e-05
181	0xbe2645b0	-0.16237521
182	0xbe592b21	-0.21207859
183	0xba07f535	-0.000518638
184	0xbe0d2e8d	-0.13787289
185	0x3eb2fd42	0.34958845
186	0xbd5189c1	-0.051156763
187	0x3cea4340	0.02859652
188	0x3adbeaea	0.0016778384
189	0x3b09d353	0.00210305
190	0xbe11ecbb	-0.14250462
191	0x3e40fcfc	0.18846506
192	0xbd56ff05	-0.0524893
193	0x3a482296	0.0007634548
194	0xb97cbe8b	-0.00024103576
195	0xbdad8ca7	-0.08474093
196	0xb7a38f11	-1.9497735e-05
197	0x3dca55bd	0.098796345
198	0xbe0d6d0e	-0.13811132
199	0x3b158ab6	0.0022818274
200	0xbe2f8c92	-0.17143467
201	0x3d0aacc9	0.033856187
202	0xbe279251	-0.16364409
203	0x3e0e992a	0.13925615
204	0xbb298e67	-0.0025872232
205	0x3ae83f68	0.0017719092
206	0xbe0b04b5	-0.13576014
207	0x3eeff15a	0.46863824
208	0x3d1a42da	0.03766141
209	0xbe88a808	-0.26690698
210	0xba992483	-0.0011683855
211	0xbdb27136	-0.087129995
212	0xb855a752	-5.0938987e-05
213	0xbedc2f71	-0.43004945
214	0xbeee0b6d	-0.46493092
215	0xbba8c98a	-0.0051509785
216	0x3e94971d	0.2902154
217	0x3e509c72	0.20372179
218	0xbef15c8a	-0.47140914
219	0xbe72bd0b	-0.23704927
220	0x3b8acdfc	0.004235981
221	0xbd352d14	-0.044232443
222	0xbe8128ea	-0.25226527
223	0x3f13217f	0.57472986
224	0x3ded75d5	0.1159474
225	0x3ea82b97	0.32845756
226	0x395c254b	0.00020994728
227	0x3e5c6635	0.21523364
228	0x38453a7a	4.702292e-05
229	0xbe124b66	-0.14286575
230	0xbdad3426	-0.08457212
231	0x3a21a458	0.0006166152
232	0xbda85452	-0.08219208
233	0x3f317d95	0.6933225
234	0xbe853412	-0.2601629
235	0x3efca3ab	0.4934362
236	0x3cf263a6	0.029588532
237	0x3c04f607	0.008115298
238	0xbebff9db	-0.37495312
239	0xbdcf52c0	-0.10123205
240	0xbcc47e77	-0.023986084
241	0x3d13507d	0.03596543
242	0xb9725c1c	-0.00023113232
243	0x3e04f5c6	0.1298438
244	0xb964404d	-0.00021767728
245	0xbebb7b40	-0.3661747
246	0xbeb6d57e	-0.35709757
247	0xbbfd6647	-0.0077331397
248	0x3ea5c46d	0.32376423
249	0xbd26b0e7	-0.04069605
250	0xbe8c1e16	-0.27366704
251	0xbe752238	-0.23938835
252	0x3b01b5dd	0.0019792237
253	0xbd0a3182	-0.03373862
254	0xbeaa9b47	-0.33321592
255	0x3ece8aee	0.4034037

gnn.init_context.attentive_gru.edge_transform.1.bias f4 [16]
0	0xbe9d480e	-0.30719036
1	0xbc5f71ce	-0.013637973
2	0xbd774012	-0.060363837
3	0x3da1ac15	0.0789415
4	0x3cff5cb3	0.031172132
5	0xbc864436	-0.016389947
6	0xbdac20ca	-0.084046915
7	0xbd410d3f	-0.047131773
8	0xbd83c50e	-0.064340696
9	0xbe80d033	-0.25158843
10	0x3d96d56a	0.07364924
11	0xbdea9249	-0.11453683
12	0xbcd18f53	-0.025581038
13	0xbcd7fa4c	-0.026364468
14	0xbe04c09e	-0.12964103
15	0x3e61faa4	0.22068268

gnn.init_context.attentive_gru.gru.weight_ih f4 [48, 16]
0	0x3a393976	0.0007065752
1	0x394294aa	0.00018556663
2	0x3a18020e	0.0005798646
3	0x39c2573f	0.00037067567
4	0xb9fce75f	-0.0004823757
5	0x39b353a6	0.00034203863
6	0x39ea9402	0.00044742232
7	0x3a327b41	0.00068085274
8	0x39a8fc91	0.00032231634
9	0x3a2f3364	0.0006683378
10	0xb9a6de0e	-0.0003182743
11	0xb9925669	-0.0002791167
12	0xba28bda1	-0.00064369483
13	0xb9745216	-0.00023300233
14	0xba1d3a1f	-0.00059977354
15	0xb87ee143	-6.076811e-05
16	0xbcb1fc0c	-0.02172663
17	0x3d78b955	0.06072362
18	0x3d4a5ac5	0.04940297
19	0x3b5a7bba	0.0033337907
20	0x3c8d7453	0.017267382
21	0x3d62aa6c	0.05533831
22	0x3d784e60	0.06062162
23	0x3d25ceea	0.04048053
24	0x3d59d510	0.053181708
25	0x3d3d27af	0.046180423
26	0xbcd53591	-0.026026519
27	0xbca434fd	-0.020044798
28	0x3d0609ca	0.03272418
29	0xbd1ad1b8	-0.03779766
30	0xbdb92b2f	-0.0904144
31	0xbcf7c4d6	-0.030245226
32	0xbe32e68e	-0.17470762
33	0x3d519e31	0.051176254
34	0xbd7df1e1	-0.06199825
35	0xbdf1fdf7	-0.11816018
36	0x3da4f482	0.08054449
37	0x3c00bfcd	0.007858229
38	0x3d74ecff	0.05979633
39	0xbd8e2b9a	-0.0694191
40	0xbd393803	-0.045219433
41	0x3c4b94bc	0.012425598
42	0x3dd00939	0.10158009
43	0x3d9388c3	0.072038196
44	0x3c5ad9f9	0.013357633
45	0x3c40f85f	0.011777966
46	0x3ce21ee1	0.027602615
47	0xbd135772	-0.035972066
48	0xbc0b1713	-0.008489388
49	0x3d34ebd4	0.044170216
50	0x3d6d56d2	0.057944126
51	0x3cfdfe20	0.031004965
52	0xbcce4921	-0.025181355
53	0x3ca610eb	0.020271739
54	0xbcd2153f	-0.025644897
55	0x3d4abf4d	0.049498845
56	0x3c4b3bef	0.012404426
57	0x3ddeb919	0.10875148
58	0x3cf827fd	0.030292505
59	0xbce0806f	-0.027404992
60	0xbdf6b947	-0.120470576
61	0xbdeda906	-0.11604504
62	0xbd664239	-0.0562155
63	0xbdd07a0f	-0.10179531
64	0xbe7c52e2	-0.24640992
65	0xbe2c5ff6	-0.16833481
66	0xbe1798e5	-0.14804418
67	0xbde26289	-0.1105395
68	0xbd64967e	-0.055807583
69	0xbe099dab	-0.13439052
70	0xbe1f5b6e	-0.15562221
71	0xbd9a8ee9	-0.07546789
72	0xbe42a512	-0.19008282
73	0xbe787318	-0.24262655
74	0xbd85e1f1	-0.065372355
75	0x3dee2ed0	0.116300225
76	0x3d873b8a	0.06603153
77	0x3ea28c5b	0.31747708
78	0x3d30e12c	0.04318349
79	0x3e6fc32e	0.23414299
80	0x3e15e699	0.14638747
81	0x3de592f7	0.11209672
82	0x3e1f97ea	0.15585294
83	0x3decad1e	0.11556457
84	0x3d72d594	0.059285715
85	0x3e28933a	0.16462412
86	0x3e4eeafa	0.20206824
87	0x3db6b50a	0.08921249
88	0x3d970c1a	0.07375355
89	0x3e049021	0.12945606
90	0x3c408d89	0.011752495
91	0xbe28fd31	-0.16502835
92	0x3cd8f1be	0.02648246
93	0xbe61c412	-0.22047451
94	0xbe637491	-0.22212435
95	0xbe48bbb6	-0.19602856
96	0xbdae65aa	-0.08515485
97	0x3d783717	0.060599413
98	0xbc9b2512	-0.018938575
99	0xbcce14e7	-0.025156451
100	0x3debc73f	0.115126126
101	0xbd147492	-0.036243983
102	0x3d83f1ee	0.06442629
103	0xbd864558	-0.06556195
104	0xbb45313f	-0.0030089167
105	0xbda40235	-0.080082335
106	0x3ddb0f99	0.106963344
107	0xbc8a68d7	-0.016895695
108	0x3cf04c96	0.029333394
109	0x3c955e1a	0.018233348
110	0xbdb670ad	-0.0890821
111	0x3d7d07ac	0.061774895
112	0xbb22adb2	-0.0024822769
113	0x3e107e73	0.14110737
114	0x3e1b4b68	0.15165484
115	0x3dada47b	0.08478638
116	0x3e03ceb9	0.12871827
117	0x3e100faa	0.14068475
118	0x3e16d246	0.1472865
119	0x3e17fd07	0.14842616
120	0x3dcd8c70	0.10036552
121	0x3dd5bae1	0.10436035
122	0xbd2b925f	-0.041887637
123	0xbe1447db	-0.14480536
124	0xbd16f6df	-0.03685653
125	0xbe1f0ac1	-0.15531446
126	0xbe8834f8	-0.26602912
127	0xbdf154cc	-0.11783752
128	0xbb97df07	-0.004634741
129	0x3ca376c0	0.019954085
130	0x3c9f59ab	0.019451937
131	0xbb16d37a	-0.0023014233
132	0x3ccf3ced	0.025297606
133	0x3c995fb6	0.018722396
134	0x3d137c93	0.036007475
135	0xb9ed3dc3	-0.0004525018
136	0x3c255a5e	0.010092346
137	0x3c486f75	0.012233605
138	0x3c9b9b39	0.018994914
139	0xbc6a1a7a	-0.014288539
140	0xbc0c2ee7	-0.008556104
141	0xbd194f69	-0.037429247
142	0xbcd8de15	-0.026473084
143	0xbcfacdaa	-0.030615646
144	0xbe97d695	-0.296559
145	0x3dbfd0e4	0.093660146
146	0xbdfbc2ff	-0.12293052
147	0xbde42e9a	-0.11141701
148	0x3e7b95d0	0.24568868
149	0xbda1870d	-0.07887087
150	0x3e1e86e6	0.15481147
151	0xbe21e3df	-0.15809582
152	0xbda06e0e	-0.07833491
153	0xbe2361fd	-0.15955348
154	0x3e58eb8e	0.21183607
155	0x3d2431e5	0.040086646
156	0x3dbfd36a	0.09366496
157	0x3de1521e	0.11001991
158	0xbc94f80c	-0.018184684
159	0x3d9af633	0.0756649
160	0xbd2a8e5b	-0.041639667
161	0xbc1b15f5	-0.009465684
162	0xbd66ab6f	-0.056315836
163	0xbd6b75d4	-0.057485417
164	0x3d8b039e	0.06787799
165	0xbd5989dd	-0.053109992
166	0xb995af99	-0.00028550325
167	0xbd8c5a90	-0.06853211
168	0xbcf7f0cf	-0.030266194
169	0xbd3d4aa1	-0.04621375
170	0x3dd7f505	0.10544781
171	0x3d759570	0.059956968
172	0x3d35aa98	0.044352144
173	0x3da20637	0.07911342
174	0x3d4c4bf5	0.049877126
175	0x3d856e7c	0.06515214
176	0xbe0b32c7	-0.13593589
177	0x3caedb78	0.021344885
178	0xbd013b7a	-0.031550862
179	0xbcf78e08	-0.030219093
180	0x3cc1de8e	0.023665693
181	0xbd279657	-0.04091486
182	0xbd083063	-0.03324927
183	0xbd3e9693	-0.046530318
184	0xbd12e144	-0.03585936
185	0xbd6dee8e	-0.05808883
186	0x3d6775fb	0.056509
187	0xbbfeecd0	-0.007779695
188	0xbd24b4b7	-0.040211406
189	0x3d2356bb	0.039877634
190	0xbd336400	-0.04379654
191	0x3d1a98e7	0.037743475
192	0x3e0e1953	0.13876848
193	0xbe022956	-0.12711081
194	0x3ddb11dc	0.10696766
195	0x3e81d07c	0.25354373
196	0xbe8397da	-0.2570179
197	0x3c825bdf	0.015912948
198	0xbe3f8951	-0.18704726
199	0x3df2366f	0.11826789
200	0x3cc70191	0.02429274
201	0xbd57f5b2	-0.052724548
202	0xbe5dea3f	-0.21671389
203	0xbe60d2a5	-0.21955355
204	0xbe1196f5	-0.14217742
205	0xbd8ac28d	-0.06775389
206	0xbdab0d74	-0.08352175
207	0x3d6bd75c	0.05757843
208	0xbe099f02	-0.13439563
209	0xba5975eb	-0.0008295464
210	0xbd036613	-0.032079767
211	0xbd58d922	-0.05294145
212	0x3cb86901	0.022511007
213	0xbd1787eb	-0.036994856
214	0xbd43c102	-0.04779149
215	0xbd29b7e0	-0.041435122
216	0xbcf3c9fc	-0.0297594
217	0xbc383bda	-0.0112447385
218	0x3cef1ed8	0.029189512
219	0x3d8f6f45	0.07003645
220	0xbd22365c	-0.039602622
221	0x3cf11a31	0.029431434
222	0x3c785967	0.015158034
223	0x3bcfaa79	0.0063374606
224	0xbb27e07a	-0.0025615976
225	0xbd341e58	-0.04397425
226	0xbd23ac6e	-0.039959364
227	0x3bb0dc8b	0.0053973845
228	0xbd2a8a9c	-0.041636094
229	0xbd5f6455	-0.054539043
230	0xbdaa4820	-0.08314538
231	0xbd37bb9f	-0.044856664
232	0xbd10096e	-0.035165243
233	0xbd6e076d	-0.05811255
234	0x3bcb76c0	0.0062092245
235	0x3c87a96c	0.016560279
236	0xbc591e1e	-0.013251809
237	0x3d84cdf9	0.06484599
238	0x3d82baf0	0.06383312
239	0x3db64be4	0.08901194
240	0x3aa16b5c	0.0012315321
241	0x3bded008	0.0067997016
242	0xbc6a9f31	-0.014320181
243	0xbc4ebae2	-0.0126177985
244	0xbca14b4c	-0.019689225
245	0xbcb87ab5	-0.022519449
246	0xbd0f1d92	-0.03494031
247	0xbd1505a8	-0.036382347
248	0xb7b8c8e5	-2.2028058e-05
249	0xbcab911f	-0.020943223
250	0x3c76e4bf	0.015069186
251	0x3bb06e39	0.0053842333
252	0xbc9f4a37	-0.019444568
253	0x3cdfeb6d	0.02733394
254	0x3d191923	0.037377488
255	0x3d016d9f	0.031598683

gnn.init_context.attentive_gru.gru.weight_hh f4 [48, 16]
0	0x357e135e	9.4650557e-07
1	0xb7b1a7c0	-2.1178159e-05
2	0xb97e4f3a	-0.00024252842
3	0x39f2c861	0.0004630713
4	0xb42d47c3	-1.6137987e-07
5	0xb91e9ddf	-0.00015126866
6	0xb9b4d6a3	-0.00034492192
7	0xb7db85cc	-2.6169138e-05
8	0xb92e3ea6	-0.00016617271
9	0x39dab140	0.00041712262
10	0x35c30198	1.4529096e-06
11	0xb93f9aa8	-0.00018272793
12	0x3a994518	0.0011693565
13	0x361ad275	2.307029e-06
14	0x37196e5f	9.145208e-06
15	0xb8af4c60	-8.358876e-05
16	0x3a8e6d52	0.001086632
17	0x397d4d52	0.00024156764
18	0x3c35a81e	0.011087446
19	0xbde5af3b	-0.11215063
20	0x38abe3f9	8.1963786e-05
21	0x3db05682	0.0861025
22	0x3d6f308e	0.058395915
23	0x3a5cf7f5	0.00084292825
24	0xbca28ec0	-0.01984346
25	0xbda72ed0	-0.08163226
26	0x3900ad14	0.00012271508
27	0xbc072e6b	-0.008250813
28	0x3d17bd5a	0.037045814
29	0xbc2da180	-0.010597587
30	0xbd27503b	-0.040847998
31	0x3ad80eb0	0.0016483869
32	0xbad639c6	-0.0016344122
33	0xbb732b98	-0.0037104841
34	0x3d221d88	0.039578944
35	0xbb686707	-0.00354618
36	0xbb0cf930	-0.0021510832
37	0x3ccb983d	0.024852866
38	0xbd327721	-0.04357064
39	0xbbd39bae	-0.0064577674
40	0xbc6f4715	-0.01460435
41	0x3de4d09d	0.11172602
42	0xb9b2e830	-0.000341238
43	0x3dc9da89	0.098561354
44	0xbc32a06b	-0.010902504
45	0xbdce9185	-0.100863494
46	0x3dccf6c5	0.10008005
47	0xbb87a897	-0.0041399705
48	0xbb85f363	-0.004087852
49	0x39d8c219	0.00041343344
50	0xbd356709	-0.044287715
51	0xbc545da3	-0.012961778
52	0x39004ff5	0.00012236818
53	0xbd7c6836	-0.06162282
54	0x3d40152f	0.046895202
55	0x39ef4d5c	0.0004564327
56	0x3d2af627	0.041738655
57	0x3c9f76bb	0.019465795
58	0xb96a342c	-0.00022335415
59	0x3d4578a8	0.04821077
60	0x3d54a2af	0.05191296
61	0xbcb175ff	-0.02166271
62	0x3e90fcc5	0.28317848
63	0x3a1f5706	0.0006078336
64	0xba3f717d	-0.0007302983
65	0x3bbc9e09	0.005756144
66	0xbdafdf94	-0.08587566
67	0x3da96607	0.08271413
68	0x3ac64f54	0.0015129843
69	0xbddf3eea	-0.10900672
70	0x3cdf1b32	0.027234647
71	0x3c3b9f36	0.011451533
72	0xbd348aa7	-0.04407754
73	0x3e6e6691	0.23281313
74	0x3b3841fe	0.0028115506
75	0x3eae0589	0.33988598
76	0xbd9a7129	-0.07541115
77	0x3db28259	0.08716268
78	0x3e265356	0.16242728
79	0xbbe74609	-0.0070579094
80	0x3c65080f	0.013978972
81	0xbbb01196	-0.00537319
82	0x3e3b979d	0.18319555
83	0xbd74b9a7	-0.059747364
84	0xbaba9646	-0.0014235459
85	0x3e54e503	0.20790486
86	0x3ed8ed61	0.42368606
87	0xbc2d91bb	-0.010593827
88	0xbe8d4fba	-0.2759989
89	0xbe16eba9	-0.14738335
90	0xba416d83	-0.0007378684
91	0xbdc953be	-0.09830426
92	0xbda37ff3	-0.07983389
93	0x3ceec366	0.029145908
94	0x3d9888a9	0.07447941
95	0xbc32a197	-0.010902784
96	0x3bf5f73c	0.0075062793
97	0x3a95aaf3	0.0011418745
98	0x3e274cc0	0.16337872
99	0x3dca42be	0.09876011
100	0x3b01a916	0.001978462
101	0x3d57d8f5	0.05269714
102	0x3d50e958	0.051003784
103	0x3a35a6e2	0.00069294695
104	0xbc80318b	-0.015648624
105	0x3e9e3769	0.3090165
106	0xba54ca8d	-0.00081173406
107	0x3cfc8b1d	0.030828053
108	0x3d30f849	0.043205533
109	0x3ba86cdb	0.0051399297
110	0x3e0d970f	0.13827156
111	0x38a76d83	7.983579e-05
112	0xbc109134	-0.008823682
113	0xbbb68964	-0.0055705775
114	0x3d6e6c18	0.058208555
115	0x3c117015	0.00887682
116	0x3a90332d	0.001100158
117	0x3e6d6ead	0.2318675
118	0x3d499c22	0.049221165
119	0xbbf1b368	-0.007376123
120	0x3e1be650	0.15224576
121	0xbdfeaa42	-0.12434818
122	0xbb109a86	-0.002206476
123	0xbe54ad0e	-0.2076914
124	0x3e2462cf	0.16053317
125	0xbcce1471	-0.025156232
126	0xbceb872c	-0.028750978
127	0xbc0bac10	-0.00852491
128	0xbaad82f0	-0.0013237875
129	0x3a582dbe	0.0008246562
130	0xbdc7da12	-0.097583905
131	0x3d026bd3	0.03184111
132	0x39a6f58f	0.00031844943
133	0x3da08f56	0.07839839
134	0xbd726382	-0.05917693
135	0x3a81d056	0.0009904008
136	0xbd2f7f57	-0.04284605
137	0x3d91ea6c	0.071247905
138	0xb858967c	-5.1638563e-05
139	0x3e0118ca	0.12607113
140	0x3c9c42b3	0.019074773
141	0x3d860d0d	0.06545458
142	0x3ddfa887	0.10920816
143	0xb9bed377	-0.00036397178
144	0x3ba1cdce	0.004937864
145	0x3b54a17c	0.0032444885
146	0x3d74b2b2	0.05974073
147	0x3e79ea9b	0.24405901
148	0x3b1f087c	0.0024266532
149	0x3e0aca43	0.13553719
150	0x3e09ce6e	0.13457653
151	0x3c05b618	0.00816109
152	0x3df67806	0.120346114
153	0x3e97f64e	0.29680103
154	0x39b78791	0.00035005485
155	0x3ea839a5	0.3285648
156	0x3a2a2a52	0.00064912916
157	0xbc57387e	-0.013136027
158	0x3e84fe21	0.25975135
159	0x3a4f67a1	0.0007911865
160	0x3ce6fd2f	0.0281969
161	0xbaa716ed	-0.0012747921
162	0x3e061536	0.13094029
163	0x3e2371bf	0.1596136
164	0xba06e6b8	-0.0005146074
165	0x3e2377b8	0.15963638
166	0x3e26fde3	0.16307788
167	0xbb31407a	-0.0027046488
168	0x3df9bf25	0.12194661
169	0x3dd4f2ed	0.10397897
170	0xb9b6a02c	-0.00034833082
171	0x3e0f00c1	0.13965131
172	0xbd2838aa	-0.041069664
173	0x3d248378	0.04016444
174	0x3e1e387a	0.15451232
175	0xbc09a3f5	-0.008400907
176	0xbb49d4d9	-0.0030797033
177	0x3ba77aad	0.0051110596
178	0x3e58c335	0.21168216
179	0x3d40bef2	0.0470571
180	0x3a8bc813	0.0010664485
181	0x3cc29bb1	0.02375588
182	0x3db9857d	0.09058664
183	0x3c13b6ac	0.00901572
184	0xbca9f2c8	-0.02074565
185	0x3e945ba3	0.28976163
186	0x39caaa70	0.00038655428
187	0xbc02d618	-0.007985614
188	0xbcf5e9a6	-0.030018639
189	0xbbb43267	-0.0054991725
190	0xbd9a917f	-0.075472824
191	0x3b903b23	0.004401581
192	0xbbf69e19	-0.007526171
193	0xba095360	-0.0005238559
194	0xbd010e95	-0.031508047
195	0x3e022214	0.12708312
196	0xba835e42	-0.0010022598
197	0x3ddb1fb9	0.1069941
198	0xbc8cb0be	-0.017174121
199	0x3b85ec3f	0.0040870006
200	0xbd84dc15	-0.0648729
201	0x3d308223	0.043092858
202	0x3947c05c	0.00019049778
203	0x3dd25319	0.10269756
204	0x3d2c30d0	0.04203874
205	0x3e90b405	0.28262344
206	0x3e8a390c	0.26996648
207	0xbc952319	-0.018205212
208	0x3bfad964	0.0076553095
209	0xbab0f6d2	-0.0013501293
210	0x3d8f5cbb	0.07000109
211	0x3dbbdd9a	0.091731265
212	0xba498eec	-0.00076888385
213	0xbc8ca961	-0.01717061
214	0x3dad988c	0.08476362
215	0xbb3f68eb	-0.0029206823
216	0xbdab6b82	-0.08370115
217	0x3ba53f44	0.0050429422
218	0xb99ce086	-0.00029921922
219	0x3ceddfed	0.02903744
220	0xbd5a28b9	-0.053261492
221	0x3dc82e32	0.09774436
222	0x3e1ab94c	0.15109748
223	0xbb7512df	-0.0037395281
224	0x3b8afa1c	0.004241241
225	0xbb0338d3	-0.0020022884
226	0x3dc1d4ad	0.09464393
227	0x3dad9089	0.084748335
228	0xb92d456d	-0.00016524429
229	0x3dc71a75	0.09721843
230	0x3d58aad8	0.052897304
231	0xbb7a5a8e	-0.0038200947
232	0x3d8737ae	0.06602417
233	0x3e258aca	0.16166225
234	0x3a8d96b6	0.0010802362
235	0x3dc8ae6c	0.09798893
236	0x3cacd3f6	0.021097165
237	0x3a7e271c	0.0009695159
238	0xbcc4d88b	-0.024029037
239	0x3abe83fb	0.0014535183
240	0x3ac25784	0.0014827107
241	0xb7e55aff	-2.73413e-05
242	0x3d872307	0.06598478
243	0x3d8248ca	0.0636154
244	0x393a6d3b	0.00017779034
245	0x3dfe5bc5	0.124198474
246	0x3cbe8f65	0.023261735
247	0x39e68582	0.0004396849
248	0x3dc67cc9	0.0969177
249	0x3d51bd55	0.05120595
250	0x37cd5d9a	2.4481491e-05
251	0x3dd79cb5	0.10527936
252	0x3c81f6b8	0.015864715
253	0x358ecdd0	1.0639724e-06
254	0x3c48bc72	0.01225196
255	0x3a6797ab	0.0008834551

gnn.init_context.attentive_gru.gru.bias_ih f4 [48]
0	0x3c0e5341	0.008686841
1	0xbd32c670	-0.043646276
2	0xbde45042	-0.111481205
3	0xbd0071e5	-0.03135862
4	0x3d1d371c	0.038382635
5	0x3c90e15c	0.017685585
6	0x3e88f3fa	0.2674864
7	0x3d3eb938	0.046563357
8	0x3d645dfa	0.055753686
9	0x3e32f276	0.17475304
10	0x3ddad691	0.106854565
11	0x3d8dd0cc	0.069245905
12	0x3e216780	0.15762138
13	0xbc01c654	-0.00792082
14	0x3e3a2b20	0.18180513
15	0x3d9c7a80	0.076405525
16	0x39fac9f7	0.0004783419
17	0x3c36c4d9	0.011155331
18	0x3d83575a	0.06413145
19	0x3ef9e196	0.4880492
20	0xbe38823e	-0.18018433
21	0x3d0687fb	0.032844525
22	0x3e3e8acd	0.18607636
23	0x3e72a1e0	0.23694563
24	0x3e102a42	0.1407862
25	0x3db8737d	0.09006403
26	0xbc615832	-0.013753938
27	0xbd9b31e6	-0.07577877
28	0x3e2c5ca6	0.16832218
29	0x3e431722	0.19051793
30	0xbe0482d4	-0.12940532
31	0xbdf467e6	-0.119338796
32	0x3cb7efd2	0.022453222
33	0xbe32fd9d	-0.17479558
34	0x3e212415	0.1573642
35	0xbe2cf0f5	-0.16888793
36	0x3d5a6828	0.053321987
37	0xbdd477fe	-0.10374449
38	0x3de384db	0.111093245
39	0xbe420c16	-0.18949923
40	0xbd39596a	-0.045251288
41	0x3dd6572c	0.104658455
42	0xbe85b8ef	-0.26117656
43	0xbcc0da74	-0.023541667
44	0x3c5d22e6	0.01349709
45	0xbe7f0c92	-0.24907139
46	0xbeced174	-0.40394175
47	0x3e13b97a	0.14426222

gnn.init_context.attentive_gru.gru.bias_hh f4 [48]
0	0x3c0c6d6b	0.008571009
1	0xbd366886	-0.044533275
2	0xbc4efe58	-0.012633882
3	0xbd3faec7	-0.04679754
4	0x3d1ef8c8	0.038811475
5	0x3dd700d2	0.10498203
6	0x3e775e67	0.24157105
7	0x3d3eaab0	0.0465495
8	0x3cae1ff1	0.021255465
9	0x3e45e83c	0.19326872
10	0x3ddb2980	0.10701275
11	0x3dfb0928	0.12257606
12	0x3e9d357d	0.3070487
13	0x3cd32d92	0.025778566
14	0x3e3a2b38	0.18180549
15	0x3d7a9c72	0.061184354
16	0x39fadc2b	0.00047847754
17	0x3d321e8f	0.043486174
18	0xbd9f34a5	-0.07773713
19	0x3ef1c334	0.4721924
20	0xbe03ed9b	-0.12883608
21	0x3e9aba81	0.30220416
22	0x3e5d692d	0.21622153
23	0x3e72a225	0.23694666
24	0xbc81d287	-0.015847458
25	0x3e98e707	0.2986376
26	0xbcd038f0	-0.025417775
27	0xbd8d6069	-0.069031544
28	0xbe11e789	-0.1424848
29	0x3e8a2f29	0.26989105
30	0xbd9bc781	-0.07606412
31	0xbdf0d4a2	-0.117593065
32	0xbdb080b7	-0.086183004
33	0xbb9f5894	-0.0048628543
34	0xbe350929	-0.17679276
35	0xbdd68b6d	-0.10475812
36	0xbe0abbe6	-0.1354824
37	0x3e4bffe0	0.19921827
38	0xbdf2c9c0	-0.11854887
39	0xbe2bbc81	-0.16771127
40	0x3ce60ef7	0.028083308
41	0x3e6939ef	0.22776006
42	0xbda0bb77	-0.07848256
43	0xbdc60372	-0.09668626
44	0x3e3260c0	0.1741972
45	0xbc7b83f0	-0.015351281
46	0xbe8390cd	-0.25696412
47	0xbe249a92	-0.16074589

readout.readouts.0.compute_logits.0.weight f4 [1, 32]
0	0x2f2a66bc	1.5497909e-10
1	0x3d740272	0.059572645
2	0x3ebb94b3	0.36636886
3	0xbde0c9ae	-0.10975967
4	0xbec13b2c	-0.37740457
5	0xbf242ffa	-0.64135706
6	0xbe8f1713	-0.27947292
7	0x3e511373	0.20417576
8	0x3ed4ecb6	0.41586846
9	0xbe098385	-0.13429077
10	0xbe1040a4	-0.14087158
11	0x3f16705e	0.5876521
12	0x3e2f418c	0.17114848
13	0x3e03bc65	0.12864836
14	0xbe2a6aad	-0.16642256
15	0xbd0c079e	-0.03418695
16	0xb531eea2	-6.6284895e-07
17	0x3bf972c2	0.007612557
18	0xbf685bbe	-0.9076499
19	0xbe1dd6f9	-0.15414037
20	0xbd67c827	-0.056587365
21	0x3f4e157d	0.8050154
22	0x3ec50346	0.3847906
23	0xbd5fbe20	-0.054624677
24	0x3f801f81	1.0009614
25	0x3e8ce5e7	0.27519152
26	0x3dedf40a	0.116188124
27	0x3f32748d	0.6970909
28	0xbfd33904	-1.6501775
29	0xbf014476	-0.5049509
30	0x3f87e9c8	1.0618219
31	0x3d8b9379	0.068152376

readout.readouts.0.project_nodes.1.weight f4 [16, 16]
0	0xb3bfdd04	-8.934333e-08
1	0x3caf1365	0.021371553
2	0xbd939dd8	-0.07207841
3	0xbe6366cd	-0.22207184
4	0xbd14427d	-0.03619622
5	0xbe58e551	-0.21181227
6	0xbe592f00	-0.21209335
7	0x3c29b35f	0.010357707
8	0xbeb26fce	-0.34850925
9	0x3d155486	0.03645756
10	0xbd67fe49	-0.05663899
11	0x3e7fe7f0	0.24990821
12	0x3e8a6c9b	0.27035984
13	0xbd6a51e0	-0.05720699
14	0x3e828fd3	0.25500354
15	0xbd44aa9d	-0.048014272
16	0x33ed7744	1.1057867e-07
17	0x3ba49b21	0.0050233756
18	0x3e86a1c5	0.26295295
19	0x3dfbf68d	0.12302885
20	0x3e50c150	0.20386243
21	0x3f175f11	0.59129435
22	0x3f0cf77c	0.5506513
23	0x3d178b59	0.036998127
24	0xbe2291fe	-0.15876004
25	0x3c13bd5f	0.009017318
26	0x3e22079a	0.15823212
27	0xbd90674a	-0.07050951
28	0xbedb8b12	-0.4287954
29	0xbea584a6	-0.32327765
30	0xbe2e3285	-0.17011459
31	0x3cb7c9f7	0.022435172
32	0xb3cf84a3	-9.663315e-08
33	0xbbc96aab	-0.006146749
34	0xbe0b4cc9	-0.1360351
35	0xbe0af992	-0.13571766
36	0xbd8c587d	-0.06852815
37	0xbe2bfa08	-0.16794598
38	0xbe5841d7	-0.21118866
39	0xbaa4de3f	-0.0012578442
40	0xbd92464c	-0.07142314
41	0xbdb4c63a	-0.08826871
42	0xbdd2f475	-0.10300533
43	0x3d1e7d71	0.03869385
44	0x3e1baff7	0.15203844
45	0xbcd3fc08	-0.025877014
46	0xbd8d28ed	-0.068925716
47	0xbc829230	-0.015938848
48	0xb3eaa7bc	-1.0926985e-07
49	0x3ab098c6	0.0013473264
50	0xbe95767f	-0.29191968
51	0xbe26f579	-0.16304578
52	0xbe2683c0	-0.16261196
53	0xbd1b943d	-0.037983168
54	0xbe2056e0	-0.1565814
55	0xbc4004fb	-0.011719937
56	0xbe06c115	-0.13159592
57	0xbe8a629c	-0.27028358
58	0x3d01dd80	0.03170538
59	0xbd68dcd9	-0.05685124
60	0x3b515df0	0.003194686
61	0xbe15976a	-0.14608541
62	0x3db412a6	0.087926194
63	0xbd685f54	-0.056731537
64	0x3231d35c	1.03508135e-08
65	0xbc0773f0	-0.008267388
66	0x3e2921d3	0.16516809
67	0xbe38a999	-0.18033446
68	0xbe00dff6	-0.12585434
69	0x3e2c98e2	0.16855195
70	0x3d079205	0.03309824
71	0xbb7f15b1	-0.0038922841
72	0xbe81afa1	-0.25329307
73	0x3c46e647	0.012139863
74	0x3cebbeb2	0.028777454
75	0x3e0b80ec	0.13623399
76	0x3eb350ce	0.35022587
77	0xbead528c	-0.3385204
78	0xbde5d6c5	-0.11222605
79	0xbd741f02	-0.059599884
80	0x33861638	6.243903e-08
81	0x3ccbdfec	0.024887048
82	0x3d401332	0.046893306
83	0x3d910692	0.07081331
84	0x3e2068bb	0.15664952
85	0xbebc80e7	-0.36817095
86	0xbe3311ec	-0.17487305
87	0xbbb31124	-0.00546469
88	0xbc5e43fe	-0.013566015
89	0xbd95cbaa	-0.073142365
90	0xbdddb0b8	-0.10824722
91	0xbda38ce8	-0.0798586
92	0xbe6f5d75	-0.23375495
93	0x3e3b2271	0.18274857
94	0x3ebb6df3	0.36607322
95	0x3ccb10c7	0.024788273
96	0x342d0235	1.6112683e-07
97	0xbcd609a0	-0.026127636
98	0x3ed91a42	0.42402846
99	0x3e868f14	0.26281035
100	0x3b10f417	0.0022118145
101	0x3f97aea0	1.1850166
102	0x3f674e75	0.9035409
103	0x3c9dc49c	0.01925879
104	0xbd263e62	-0.040586837
105	0xbddcce7d	-0.10781572
106	0x3e962b85	0.29330078
107	0x3e0bcb7e	0.13651845
108	0x3e9efbd3	0.31051502
109	0xbeea26fc	-0.45732868
110	0xbe848557	-0.2588298
111	0xbe09a943	-0.13443474
112	0x3407e65c	1.2656659e-07
113	0x3d224a32	0.03962154
114	0x3e141d0d	0.14464207
115	0x3e695a0f	0.22788261
116	0x3e890c60	0.26767254
117	0xbdd77938	-0.105211675
118	0x3d08fa8b	0.03344206
119	0x3a8fac6f	0.0010961423
120	0xbe059fe6	-0.13049278
121	0xbd938cb9	-0.07204575
122	0xbd81d1e5	-0.06338862
123	0x3bbd5114	0.0057774875
124	0xbe686496	-0.2269462
125	0x3eced933	0.40400085
126	0x3e833e35	0.25633398
127	0x3d812f34	0.063078314
128	0x3385c39f	6.2288784e-08
129	0x3c847c41	0.01617253
130	0x3db445a0	0.088023424
131	0xbc5bf3ec	-0.013424855
132	0x3e10e9a0	0.14151621
133	0xbf0557ab	-0.52086896
134	0xbe1b0658	-0.15139139
135	0xbc0d60a4	-0.008628998
136	0x3e84f62c	0.25969064
137	0x3c81bb0a	0.015836257
138	0xbe659951	-0.22421767
139	0xbe8fd700	-0.2809372
140	0xbe7467c1	-0.23867704
141	0x3ee96544	0.45585072
142	0x3dfebc29	0.124382325
143	0x3d9b1a94	0.07573429
144	0xb5cd7afc	-1.5309483e-06
145	0x3a29e710	0.00064812694
146	0xbd2e1f39	-0.042510245
147	0xbda08cf7	-0.07839387
148	0xbd91d2b3	-0.07120266
149	0xbe8f94bc	-0.28043163
150	0xbeba9674	-0.36442912
151	0xbb17f5ca	-0.0023187273
152	0xbe9459d2	-0.28974777
153	0x3ca1bd9a	0.01974373
154	0xbdbf4eeb	-0.09341224
155	0x3e153a86	0.14573106
156	0x3ec4b925	0.38422504
157	0xbe1d8a14	-0.15384704
158	0x3e2e7983	0.1703854
159	0xbd816e50	-0.063198686
160	0x32af6bae	2.0421648e-08
161	0x3c997c00	0.018735886
162	0xbe0fc0d0	-0.14038396
163	0x3d2ceddb	0.042219024
164	0x3dcda41f	0.10041069
165	0xbf0ad469	-0.5423036
166	0xbe9b00cb	-0.30274042
167	0xbccbfdeb	-0.024901351
168	0x3e4d259a	0.20033875
169	0x3dba49e7	0.09096127
170	0xbe7bed57	-0.24602257
171	0xbe4976ef	-0.19674276
172	0xbe268371	-0.16261078
173	0x3f1c6ed6	0.6110662
174	0x3e3d2655	0.18471654
175	0x3dd58fab	0.10427793
176	0xb5a93ace	-1.2608596e-06
177	0x3bec8f71	0.007219248
178	0xbea52ce6	-0.32260817
179	0xbe1218f7	-0.14267336
180	0x3d028d60	0.031873107
181	0xbf1cab50	-0.611989
182	0xbf3930b6	-0.7233995
183	0xbcd3100c	-0.025764488
184	0x3e940dea	0.28916866
185	0x3e1573cd	0.14594956
186	0xbeade3f4	-0.33962977
187	0x3d5d601f	0.054046746
188	0x3d533fcc	0.051574513
189	0x3efd0008	0.49414086
190	0xbd0bf25a	-0.03416667
191	0x3da48f19	0.08035106
192	0xb30c6f91	-3.269776e-08
193	0x3c00269a	0.007821703
194	0xbed2ec19	-0.41195753
195	0x3c88b21c	0.016686492
196	0x3c45a65b	0.012063588
197	0xbe2c9f94	-0.16857749
198	0xbebdb4e8	-0.37052083
199	0xbb102e1a	-0.0022000135
200	0xbe289410	-0.16462731
201	0x3dfaacee	0.12240015
202	0xbe1fd317	-0.15607868
203	0x3d62f5f1	0.05541033
204	0xbe71ba9c	-0.23606342
205	0x3eb12862	0.34601122
206	0xbdeb4cf7	-0.11489289
207	0x3d8634ae	0.065530166
208	0xb3a68b52	-7.7553196e-08
209	0x3bd5fba1	0.0065302406
210	0xbecd10cf	-0.40051886
211	0xbe0408ba	-0.12893954
212	0xbbbba826	-0.005726832
213	0xbe5f4f83	-0.21807675
214	0xbe9fdbc0	-0.31222343
215	0xbb8485f2	-0.004044288
216	0xbe3fa2cc	-0.18714446
217	0x3daa1cb8	0.08306259
218	0xbe0ee730	-0.13955379
219	0x3d0169ac	0.031594917
220	0x3c418cfe	0.0118134
221	0x3e2f33b7	0.17109571
222	0x3e1ae36c	0.15125817
223	0x3c020ca1	0.007937581
224	0x3492abb0	2.7319538e-07
225	0x3d13d176	0.03608843
226	0x3ddb0992	0.10695185
227	0x3e25aa7c	0.16178316
228	0x3eb4524a	0.35219032
229	0xbceeeff3	-0.029167151
230	0x3cb91186	0.022591364
231	0x3ce387de	0.027774747
232	0x3d103735	0.0352089
233	0x3e63ce5e	0.22246692
234	0xbd93d29e	-0.072179064
235	0xbe1f3334	-0.15546876
236	0xbe557c5d	-0.20848222
237	0x3e9274da	0.28604776
238	0x3ea170ba	0.31531316
239	0x3d94fd58	0.07274884
240	0x34caf474	3.7803295e-07
241	0x3d1057f9	0.035240147
242	0x3ea3e870	0.32013273
243	0x3eb47aa6	0.35249823
244	0x3e99d089	0.30041912
245	0x3e030a78	0.12796962
246	0x3dd48d52	0.10378517
247	0xbb69d3a0	-0.0035679117
248	0x3d217d96	0.03942641
249	0x3e9a2964	0.30109704
250	0x3d930301	0.07178307
251	0xbe12e1dc	-0.14343971
252	0x3e1fbb4b	0.1559879
253	0x3e90951f	0.2823877
254	0x3e90b32b	0.28261694
255	0x3ca98aa1	0.020695986

readout.readouts.0.project_nodes.1.bias f4 [16]
0	0xbe4f99e8	-0.20273554
1	0x3e8b8a74	0.2725407
2	0xbeab22af	-0.334249
3	0xbe932a42	-0.28743178
4	0xbc0bbf25	-0.008529459
5	0x3e79faf8	0.24412143
6	0x3cd98fd8	0.026557848
7	0x3ecb6426	0.39724845
8	0x3e9f6f34	0.3113953
9	0xbe6e4b10	-0.23270822
10	0x3e5396f6	0.20663056
11	0x3ded4125	0.11584691
12	0xbe99ea2a	-0.30061466
13	0xbeb0e07a	-0.34546262
14	0x3ec79b69	0.38985756
15	0x3ee67094	0.45007765
