1-GNNs/result/6108_AR_NURA_GCN_0920/23/model.pth (torch, 283866 bytes, 16 tensors)

gnn.gnn_layers.0.graph_conv.weight f4 [74, 128]
0	0xbaebac9a	-0.0017980516
1	0xafa998f7	-3.084961e-10
2	0xbed03957	-0.40668747
3	0xbc1eb85d	-0.00968751
4	0xaf65b472	-2.0891536e-10
5	0x3f8312d1	1.0240117
6	0xb6a1d3b3	-4.822819e-06
7	0xbdc11460	-0.09427714
8	0xbd55fbf6	-0.05224224
9	0xbdbe6d6d	-0.09298215
10	0xbdbed60a	-0.093181685
11	0xbc1d7762	-0.009610983
12	0xbe6c97b5	-0.23104747
13	0xa4b16f27	-7.694981e-17
14	0x9e242266	-8.689201e-21
15	0xb9f67859	-0.00047010442
16	0xb70a5aae	-8.246554e-06
17	0xbe01519c	-0.12628788
18	0xb1915217	-4.229388e-09
19	0xbb9da8d2	-0.0048113847
20	0xbf9494bb	-1.1607889
21	0xb7494964	-1.1997621e-05
22	0xba39a4d7	-0.0007081753
23	0xbaaf5517	-0.0013376799
24	0xa4c3efd9	-8.497409e-17
25	0xbb9a917d	-0.0047170506
26	0xbb294003	-0.0025825507
27	0xb9ff5897	-0.00048703395
28	0xb9c6c96c	-0.00037915574
29	0xbb620bdb	-0.003449193
30	0xb87199b5	-5.760203e-05
31	0xb899be5b	-7.331065e-05
32	0xb8211836	-3.840794e-05
33	0xb951000e	-0.00019931814
34	0xbf874f82	-1.0571139
35	0xb8eba508	-0.00011236413
36	0xb8bcc30a	-9.0008674e-05
37	0x3690f888	4.3204673e-06
38	0xb7800d3c	-1.5264952e-05
39	0xbb07f536	-0.0020745522
40	0x39e7b6e8	0.0004419603
41	0xbb459556	-0.0030148826
42	0xbcb14829	-0.021640854
43	0x3c297d0b	0.010344754
44	0xb2117ce1	-8.468505e-09
45	0xbb9fb638	-0.004874017
46	0xbd3d5e28	-0.046232373
47	0xb8f5e0c4	-0.00011724376
48	0xbdf41617	-0.11918276
49	0xbdb1a127	-0.086733155
50	0xb88a96e9	-6.608462e-05
51	0xab866bad	-9.551159e-13
52	0xbac50481	-0.001503125
53	0xbbab413a	-0.0052262815
54	0xba97cb1e	-0.0011580919
55	0xbc0870cd	-0.008327675
56	0xb728b212	-1.0055041e-05
57	0xbd89a780	-0.06721401
58	0xbad3a453	-0.0016146995
59	0xbe334482	-0.17506602
60	0xb5cda100	-1.5320547e-06
61	0xbe65abc8	-0.2242881
62	0xb5f38cdc	-1.8145906e-06
63	0xb8d327f8	-0.00010068709
64	0xb5a31a05	-1.2152019e-06
65	0x3e898bcc	0.2686447
66	0xb9c96cf1	-0.00038418875
67	0xb9279ff0	-0.00015985942
68	0xbaa889c5	-0.0012858441
69	0xb5109a86	-5.386904e-07
70	0xbf1c2935	-0.61000377
71	0xbbbd3d31	-0.005775117
72	0xb243b418	-1.13914425e-08
73	0xb7e5b0f8	-2.7381335e-05
74	0xab9d8725	-1.1193031e-12
75	0xb30a3f70	-3.2188325e-08
76	0xbd288a16	-0.041147314
77	0xbd206fec	-0.039169237
78	0xbd75cda8	-0.060010582
79	0xbbaeda17	-0.005336057
80	0xb794cd27	-1.7738506e-05
81	0xbf5203e7	-0.82037205
82	0xbe52adfe	-0.20574185
83	0xbf48e951	-0.7848101
84	0xbb6ab530	-0.0035813563
85	0xbc54110f	-0.01294352
86	0xbd912c9d	-0.070885874
87	0xbcfde997	-0.030995173
88	0xb800f6c4	-3.0747397e-05
89	0x39235cc6	0.00015579452
90	0xb5364e48	-6.79142e-07
91	0x3fb16580	1.38591
92	0xbe8ce150	-0.2751565
93	0xbca6eb4c	-0.02037587
94	0xbd780a27	-0.060556557
95	0xb9cc08de	-0.0003891652
96	0xb8f33675	-0.00011597286
97	0xb65a2d22	-3.2510802e-06
98	0xb989cbbb	-0.00026282467
99	0x3e85a696	0.26103657
100	0xb823058c	-3.8867394e-05
101	0xb5832686	-9.771472e-07
102	0xba4e7f77	-0.000787727
103	0xbb182ec6	-0.0023221239
104	0x384cf2d1	4.886353e-05
105	0xb3abdc49	-8.002878e-08
106	0xbb98a1ac	-0.0046579447
107	0xbed5c9be	-0.4175548
108	0xb4197586	-1.429199e-07
109	0xb73bbb72	-1.1189712e-05
110	0xb04a22a6	-7.353641e-10
111	0xbf4c96db	-0.7991769
112	0xbb3a8446	-0.0028460189
113	0xbd84daca	-0.06487043
114	0xbb46aa4f	-0.0030313914
115	0xb8ad8458	-8.273934e-05
116	0xbcb46277	-0.022019608
117	0xb8023dc9	-3.1051957e-05
118	0xbfe9ca6a	-1.8264897
119	0xb50e747f	-5.3068646e-07
120	0xba08166d	-0.000519133
121	0xbb89dd9d	-0.0042073266
122	0xb4f99ad2	-4.649251e-07
123	0xba1bc0e8	-0.0005941526
124	0xbda90558	-0.08252972
125	0xba5f4e10	-0.0008518407
126	0xb6836615	-3.915988e-06
127	0xbbeb4db7	-0.007180895
128	0x39d07c7e	0.00039765605
129	0x9a7ac079	-5.1854266e-23
130	0x3e81f917	0.25385353
131	0xbb70b866	-0.0036731004
132	0xafcbb0bc	-3.7051062e-10
133	0xbf9b15b4	-1.2115998
134	0x35aeb52c	1.3016738e-06
135	0x3ed8c11e	0.42334837
136	0x39e2cd6f	0.0004325914
137	0xb9fd90bb	-0.00048363753
138	0xbbc154fd	-0.005900024
139	0xbaaa085a	-0.001297246
140	0x3ce89757	0.028392477
141	0x0000069a	2.368e-42
142	0x9d108a04	-1.9129594e-21
143	0x38c16d93	9.223367e-05
144	0xb6035c26	-1.9574159e-06
145	0xbf584228	-0.84475946
146	0xb1610ec5	-3.2750205e-09
147	0xbbfea790	-0.00777144
148	0x3a15a63a	0.00057086686
149	0xb6082411	-2.0286573e-06
150	0xb911ecad	-0.00013916446
151	0xb31fb6e5	-3.7186414e-08
152	0x000026f2	1.3971e-41
153	0xbc0cd45e	-0.008595554
154	0xb69c2dd5	-4.654498e-06
155	0xbaae7882	-0.0013311061
156	0xb999eb74	-0.0002935786
157	0x3d0d7742	0.03453756
158	0x39aedb80	0.00033351406
159	0x355de4a6	8.2661643e-07
160	0xb8ac90a9	-8.228544e-05
161	0x379c81d0	1.8657098e-05
162	0xbf22e411	-0.6362925
163	0xb99e76f6	-0.0003022474
164	0xb6e60888	-6.8555273e-06
165	0xb83a7a8c	-4.4459986e-05
166	0xb650e327	-3.1126635e-06
167	0x386b1af5	5.605347e-05
168	0xba8bc4b9	-0.0010663486
169	0xb9bb05fc	-0.00035671878
170	0xba4932c7	-0.0007675108
171	0x3c59833f	0.01327592
172	0x9e80156c	-1.3561387e-20
173	0x39ad3365	0.00033035423
174	0x3b496e24	0.0030735815
175	0x371eaf5a	9.458361e-06
176	0x39081c80	0.00012980588
177	0x3b7779af	0.0037761738
178	0xb76e45ed	-1.4202186e-05
179	0xa99da521	-7.000846e-14
180	0xbacbbbc6	-0.0015543632
181	0x38105d31	3.4419067e-05
182	0xb49a2df6	-2.8718176e-07
183	0xbbfc5104	-0.0077000875
184	0x3437c8a2	1.7116193e-07
185	0xbd45cca2	-0.048290856
186	0x3b12920f	0.002236489
187	0x3e0a235d	0.13490053
188	0xb6623f81	-3.3713588e-06
189	0x3d6be7c3	0.057594072
190	0x35028f5d	4.8637395e-07
191	0xb221693d	-9.395362e-09
192	0x2572e982	2.106927e-16
193	0xbe7293cd	-0.23689194
194	0x37a4a5a1	1.962745e-05
195	0xb78ebf10	-1.701669e-05
196	0x3ab3461d	0.0013677512
197	0xb41987f6	-1.4298698e-07
198	0x3a222c1e	0.00061863835
199	0x39cc6306	0.0003898369
200	0xb24559e2	-1.1487346e-08
201	0x37db68c2	2.6155616e-05
202	0x00013d2f	1.13784e-40
203	0x31c74bc2	5.800275e-09
204	0xb82b60e6	-4.085982e-05
205	0xba3bfedc	-0.0007171461
206	0x3b569cb1	0.0032747204
207	0xbbe71d47	-0.0070530507
208	0xb7d13b5f	-2.4942388e-05
209	0xbe017a80	-0.12644386
210	0x3d3d2b6c	0.04618399
211	0x3e144875	0.14480765
212	0x3a147e1d	0.00056645443
213	0x3c888f6e	0.016669955
214	0xbe1e48f3	-0.15457515
215	0xbbb46ec6	-0.0055063693
216	0xb7dd66cf	-2.6393127e-05
217	0xb94300ba	-0.0001859692
218	0xb521ee0a	-6.0323566e-07
219	0xbf8d752a	-1.1051381
220	0x3b922b9e	0.004460766
221	0xbb6b2722	-0.003588148
222	0xbcba729c	-0.022759728
223	0x3910947a	0.00013788222
224	0xb73804fa	-1.0968413e-05
225	0x37d6b7b2	2.5596328e-05
226	0x34109cd3	1.3468097e-07
227	0x3f4da825	0.80334693
228	0xb93bbc6f	-0.00017903907
229	0xb56b4151	-8.763937e-07
230	0x352d9d10	6.467608e-07
231	0xba1783fe	-0.0005779861
232	0x38af373a	8.354937e-05
233	0x311879d6	2.2188167e-09
234	0xbbd772c4	-0.0065749604
235	0xbd8603e1	-0.065437086
236	0xb2a10af5	-1.874785e-08
237	0xb695ced9	-4.4646263e-06
238	0xae06af9e	-3.0624052e-11
239	0x3f5b55f0	0.85678005
240	0x2ceb853a	6.693893e-12
241	0xbc4e90f9	-0.012607806
242	0xb8fa813e	-0.00011945002
243	0xba2384dd	-0.0006237755
244	0xbaa96ee5	-0.0012926726
245	0x371c5b2a	9.31955e-06
246	0xbfac9daf	-1.3485621
247	0x35ad3e34	1.2907608e-06
248	0xb7570380	-1.28158135e-05
249	0x3ab473de	0.0013767441
250	0xb4fa0cfc	-4.6575576e-07
251	0x37807c11	1.5316562e-05
252	0x385973f5	5.1844825e-05
253	0xb7ba63ab	-2.221934e-05
254	0xb69e23fa	-4.712955e-06
255	0xbb995242	-0.0046789953

gnn.gnn_layers.0.graph_conv.bias f4 [128]
0	0x39e942b7	0.0004449093
1	0x1ba35178	2.7018736e-22
2	0x3f034539	0.512775
3	0xbbe5b652	-0.0070102597
4	0xafbcb439	-3.4325057e-10
5	0xbd642f7c	-0.055709347
6	0xb6cc2ab6	-6.084646e-06
7	0xbe0aef87	-0.13567935
8	0x3c0c3e7b	0.008559818
9	0x3d0fcc33	0.03510685
10	0xbbff955d	-0.007799788
11	0xbc1ac5ec	-0.009446602
12	0xbd0ff8c0	-0.035149336
13	0x0000125d	6.588e-42
14	0x9dada97d	-4.5967965e-21
15	0x39239916	0.0001560192
16	0x35803325	9.551628e-07
17	0xbe8c15fc	-0.27360523
18	0x3189f757	4.015344e-09
19	0xb8032e54	-3.127598e-05
20	0xbee56c79	-0.4480932
21	0x33cb3318	9.462218e-08
22	0xb91d38b0	-0.00014993805
23	0x33a35524	7.605766e-08
24	0x800001e0	-6.73e-43
25	0xbbd31034	-0.0064411405
26	0x3744c160	1.1727534e-05
27	0xbb1b288b	-0.0023675289
28	0x3963972b	0.00021704721
29	0x3ca13416	0.019678157
30	0xb9672582	-0.0002204385
31	0xb555fafb	-7.971391e-07
32	0xb8f192b1	-0.00011519099
33	0x3801ed05	3.097674e-05
34	0xbf3fec37	-0.7496981
35	0xb9ce5f82	-0.0003936254
36	0xb52f1213	-6.521888e-07
37	0xb88020a7	-6.1095976e-05
38	0xb6cbf298	-6.078113e-06
39	0x386a6b96	5.5890145e-05
40	0xbb911079	-0.0044270125
41	0xba3e7b1a	-0.00072662684
42	0xbbb501f3	-0.005523914
43	0x3c93f47a	0.018060911
44	0x9c89b20f	-9.111927e-22
45	0x38a3bdad	7.8077755e-05
46	0xba37142c	-0.0006983902
47	0x387bc549	6.00268e-05
48	0x3bc17cbd	0.0059047625
49	0xb9cbbaa1	-0.00038858227
50	0x35b82ed6	1.3722699e-06
51	0xb0018059	-4.711232e-10
52	0xb974cc7d	-0.00023345831
53	0x3b138ac6	0.0022513135
54	0xb9d544dd	-0.00040677833
55	0xbc1a4fad	-0.00941841
56	0xb55744b3	-8.019371e-07
57	0xbdaaa0d9	-0.083314605
58	0xbb450d35	-0.0030067686
59	0x3d7dadd3	0.06193335
60	0xb5ecde47	-1.7648061e-06
61	0x3de7e132	0.113222495
62	0x35fc460f	1.8795853e-06
63	0x37867278	1.6027348e-05
64	0xac42a0a0	-2.7658223e-12
65	0xbe55269c	-0.2081551
66	0x3785bfc7	1.5944139e-05
67	0x38675687	5.5155277e-05
68	0xb9ff988d	-0.0004875105
69	0x3496d441	2.8094112e-07
70	0xbe33f7d9	-0.17575015
71	0x3adf48c2	0.0017035233
72	0xb20fff88	-8.381797e-09
73	0xb889da27	-6.573303e-05
74	0x0a503e18	1.0026514e-32
75	0x32147754	8.641866e-09
76	0xb9a5f92e	-0.00031656906
77	0x3bb1007a	0.005401668
78	0x3c85a4b6	0.016313892
79	0xbc2e4808	-0.010637291
80	0xb9810933	-0.0002461165
81	0xbef1823e	-0.4716968
82	0xbdbdf8e2	-0.09275986
83	0xbef95eed	-0.48705235
84	0xba4ffde8	-0.00079342583
85	0x3b0c78aa	0.0021434226
86	0xbdc7ca23	-0.097553514
87	0xbc9543fa	-0.01822089
88	0xb90e2bd2	-0.000135585
89	0xb94c223f	-0.00019467714
90	0xb579de03	-9.30828e-07
91	0x3db9cde7	0.09072476
92	0x3b8b822e	0.004257462
93	0xbbc802d0	-0.006103851
94	0x3d10e649	0.035375867
95	0x39468b82	0.00018934722
96	0xb8a7dcb1	-8.0042875e-05
97	0xb3d9d9d3	-1.0144472e-07
98	0x34ccb892	3.8132254e-07
99	0xbedc7198	-0.43055415
100	0xb8b6a387	-8.7088956e-05
101	0xb58944af	-1.0227285e-06
102	0xb68206e3	-3.8751036e-06
103	0x38e82f2e	0.0001107141
104	0x38a570dc	7.888835e-05
105	0x336b59bf	5.4796825e-08
106	0xbaf471b2	-0.0018649606
107	0xbe2c3855	-0.16818364
108	0xb3a0475a	-7.4635594e-08
109	0x36adedd9	5.183491e-06
110	0x2dd5a207	2.4287251e-11
111	0x3dc8357c	0.09775826
112	0xacf03d18	-6.827993e-12
113	0xbba5252c	-0.0050398316
114	0xb8e212dd	-0.00010780033
115	0xb9e96e17	-0.00044523246
116	0xbac5e93b	-0.0015099415
117	0xb73befb4	-1.1201879e-05
118	0xbf9e63d3	-1.2374214
119	0x353de720	7.074432e-07
120	0xbbc8f499	-0.006132674
121	0xba4b57cc	-0.0007756918
122	0xb349cf16	-4.6987303e-08
123	0x392ddc10	0.00016580545
124	0x37a50f8b	1.967677e-05
125	0xb9cfe784	-0.0003965461
126	0x364058e8	2.866198e-06
127	0x3b94f808	0.004546169

gnn.gnn_layers.0.res_connection.weight f4 [128, 74]
0	0x3a2163e9	0.00061565504
1	0x3a18a153	0.0005822379
2	0xba935668	-0.0011240961
3	0x37f89f6a	2.9638137e-05
4	0x37d581d4	2.5452035e-05
5	0x287c62cb	1.4010232e-14
6	0xb8987042	-7.2688345e-05
7	0xb964080b	-0.0002174677
8	0xb6371534	-2.7281467e-06
9	0x3289ea67	1.6055493e-08
10	0x19532369	1.0915595e-23
11	0xb9a985d7	-0.0003233391
12	0xb87c2621	-6.0116992e-05
13	0xbbd6229d	-0.006534888
14	0xada414d6	-1.8653894e-11
15	0xb7caf307	-2.4193445e-05
16	0x2b2fb1b5	6.241911e-13
17	0x8005f49e	-5.4693e-40
18	0x1d03b6df	1.7432248e-21
19	0x333bde98	4.3741778e-08
20	0x98532047	-2.7287407e-24
21	0x1ade809f	9.2024847e-23
22	0x992f5c39	-9.065912e-24
23	0x268a7a8c	9.60889e-16
24	0x865b696a	-4.1266768e-35
25	0xaf0329ed	-1.1929276e-10
26	0xb49bfe2d	-2.9055937e-07
27	0x000b7357	1.051567e-39
28	0xa5d599a3	-3.7053718e-16
29	0xba3409e6	-0.000686793
30	0x8d9f9ee6	-9.837385e-31
31	0x18b7d1c3	4.7516196e-24
32	0xb32aa884	-3.9734473e-08
33	0x37cb0db4	2.4205867e-05
34	0x3737600e	1.09300145e-05
35	0x9c0ce705	-4.66207e-22
36	0x969a11cc	-2.4891273e-25
37	0xaa40f056	-1.7136409e-13
38	0x20fcb223	4.2808342e-19
39	0x9d1639ea	-1.9882276e-21
40	0xbb3d1b4e	-0.0028855386
41	0xb220d25a	-9.361054e-09
42	0x20f0b8ae	4.0779792e-19
43	0x1c7a5649	8.282958e-22
44	0xbae5c70c	-0.0017530634
45	0x3b1eb74e	0.0024218145
46	0xba8d30a7	-0.0010771946
47	0xb89104ca	-6.915031e-05
48	0x2af7f362	4.4044895e-13
49	0xaf8c034d	-2.5468197e-10
50	0x1ae410dd	9.4325834e-23
51	0x37c6bae4	2.3690467e-05
52	0x3c9d6ec5	0.019217858
53	0xb5b4999c	-1.3455751e-06
54	0xba810856	-0.0009844403
55	0x3abdd627	0.0014483378
56	0x39d2c803	0.00040203342
57	0xb993e06c	-0.00028205232
58	0xad6f7cf5	-1.3613323e-11
59	0x80028dc5	-2.34528e-40
60	0xb6bb7c48	-5.5875025e-06
61	0xb99c44ee	-0.00029805995
62	0xb8633932	-5.4174285e-05
63	0xba3d73d8	-0.000722704
64	0x3a5db177	0.0008456925
65	0xba30dd0f	-0.00067468075
66	0x298def0b	6.303125e-14
67	0x3ad27593	0.0016056768
68	0x3a9d6b3f	0.0012010111
69	0xba8460b6	-0.0010099623
70	0x3abfa86a	0.0014622335
71	0x39d2cde9	0.00040207736
72	0xb993e2aa	-0.00028206903
73	0x9f564b33	-4.5378466e-20
74	0xbe6c37d7	-0.23068176
75	0x3c9743e8	0.018464997
76	0xbceb6027	-0.028732372
77	0x3de53983	0.1119261
78	0x3d40b661	0.04704893
79	0xa00ca96e	-1.1914521e-19
80	0xbd4686ba	-0.04846833
81	0x3d5f21f8	0.054475754
82	0x3c607d1f	0.013701706
83	0xb49dffec	-2.9429737e-07
84	0x3ac554a5	0.0015055133
85	0x9f71d688	-5.121119e-20
86	0xa188271e	-9.226073e-19
87	0x98fd156d	-6.54206e-24
88	0x3636d83c	2.7245978e-06
89	0xbc109a1c	-0.008825805
90	0xb67be79b	-3.7536727e-06
91	0x3a437808	0.0007456546
92	0xa212ac8a	-1.9878031e-18
93	0x33b04cd9	8.209617e-08
94	0x1cb70d5e	1.211338e-21
95	0xa2468cbf	-2.6908514e-18
96	0x314a7eeb	2.9467013e-09
97	0x82c96246	-2.9590702e-37
98	0x8002bd1f	-2.51515e-40
99	0xb7bad1fa	-2.2270706e-05
100	0x9bcf4be4	-3.429432e-22
101	0x3c2e863e	0.010652123
102	0x00137f37	1.79051e-39
103	0x2388bedf	1.4825987e-17
104	0x1a514cf7	4.328236e-23
105	0x3303f9e1	3.0728078e-08
106	0xb0351425	-6.5876044e-10
107	0x2a4d6cc8	1.8245399e-13
108	0x3623ed12	2.4426886e-06
109	0xa829b2c5	-9.420149e-15
110	0x3283eddd	1.5358575e-08
111	0xa8660e5e	-1.277068e-14
112	0xab881e50	-9.671795e-13
113	0x17a2435c	1.0486009e-24
114	0xb0cfd10a	-1.5120645e-09
115	0x8003babf	-3.42498e-40
116	0xbbe545af	-0.0069968323
117	0xbb1e12d6	-0.0024120114
118	0xbcfbb0ec	-0.030724011
119	0xbde2bca4	-0.110711366
120	0xbe94e5e6	-0.2908165
121	0xbb3f59fa	-0.0029197917
122	0xaf97805a	-2.755794e-10
123	0x3694c778	4.433965e-06
124	0xb7f10b5f	-2.8734734e-05
125	0x236b8ad0	1.276877e-17
126	0x978a8433	-8.951413e-25
127	0xa4f2679a	-1.0512628e-16
128	0xbea4e1b9	-0.32203463
129	0xbe4669ab	-0.19376247
130	0x3ba0633a	0.004894641
131	0x3c9babdb	0.019002846
132	0x2b0d82f9	5.0275024e-13
133	0xb98979d1	-0.00026221437
134	0xb28ebde4	-1.6617328e-08
135	0xba967b9c	-0.001148093
136	0x3942d418	0.00018580293
137	0x3c81eb05	0.015859136
138	0xbe423174	-0.18964177
139	0xbe5e42ca	-0.21705166
140	0x2b653a15	8.143775e-13
141	0x38bc78c7	8.987035e-05
142	0xbe1a128f	-0.15046142
143	0xbe9e612c	-0.3093351
144	0xbe58fa27	-0.21189176
145	0x3ba06a11	0.0048954566
146	0x3c9bab79	0.019002663
147	0x976e8825	-7.7073786e-25
148	0xae908e5d	-6.5736507e-11
149	0xac8c54f6	-3.988472e-12
150	0x2d12e6cb	8.3503855e-12
151	0xab4f2352	-7.359019e-13
152	0x00007f1f	4.5602e-41
153	0x1f1a4fb4	3.2676697e-20
154	0x0222b967	1.1955088e-37
155	0x00008bbc	5.0127e-41
156	0x800089ab	-4.9386e-41
157	0x33c6ffb9	9.266609e-08
158	0x36165a34	2.2404247e-06
159	0xba45017f	-0.00075151765
160	0x2a262317	1.4755936e-13
161	0x38cc1c23	9.732719e-05
162	0x0022b6b2	3.187946e-39
163	0x00011b27	1.01576e-40
164	0x2d912d3b	1.6504678e-11
165	0x80066e5d	-5.90604e-40
166	0x234d8d58	1.1143003e-17
167	0xae9f702c	-7.2504086e-11
168	0x214c5a4b	6.923739e-19
169	0x27fb41f6	6.973801e-15
170	0x26519f0d	7.2726995e-16
171	0xae4d98fe	-4.6747488e-11
172	0x2520d0f3	1.3948583e-16
173	0x29ac7922	7.6593476e-14
174	0x00067fa3	5.968e-40
175	0x19be6282	1.9685327e-23
176	0x2724116e	2.276902e-15
177	0x00074982	6.69218e-40
178	0xac7943e1	-3.5422709e-12
179	0x041c15c0	1.8347699e-36
180	0x29a169d5	7.168195e-14
181	0x1d6e8002	3.1565216e-21
182	0x2dff466d	2.9021419e-11
183	0xb776c462	-1.4708467e-05
184	0x399c12cb	0.0002976864
185	0xb019bacb	-5.5926525e-10
186	0x1b34753e	1.4927134e-22
187	0xab8a5ab2	-9.830663e-13
188	0x8003bbbc	-3.42853e-40
189	0x313add55	2.7192375e-09
190	0x004462dd	6.280279e-39
191	0x2ad228c6	3.7331786e-13
192	0x2ab72f43	3.2540125e-13
193	0xac1cbf56	-2.2275146e-12
194	0xac0a0b44	-1.9617233e-12
195	0xa993fede	-6.572324e-14
196	0x9b883d2d	-2.2538847e-22
197	0x3911f7e8	0.0001392063
198	0x36751543	3.652022e-06
199	0xb11b1694	-2.2568303e-09
200	0x1dcb19e6	5.376043e-21
201	0x00000c3e	4.392e-42
202	0xae068a8b	-3.0591123e-11
203	0x3212a2d3	8.53534e-09
204	0x84af9dac	-4.12871e-36
205	0x00000371	1.235e-42
206	0x361b008a	2.3097114e-06
207	0xb20d28e0	-8.216574e-09
208	0x37b4584a	2.1498785e-05
209	0x2ddab315	2.4863259e-11
210	0x2c4fe4dc	2.9543512e-12
211	0x8158493b	-3.9725475e-38
212	0xb65b15f0	-3.2646312e-06
213	0xabd54017	-1.5152349e-12
214	0x1f033cd2	2.779064e-20
215	0x3b6651fa	0.0035144077
216	0xacf8aae0	-7.067555e-12
217	0xadfa602a	-2.8464415e-11
218	0x320b3b36	8.104328e-09
219	0x84af9838	-4.1282093e-36
220	0x800030c6	-1.7497e-41
221	0x2a8abce1	2.4644785e-13
222	0xbe8dcf14	-0.2769705
223	0xbda1798f	-0.078845136
224	0xbc68ecc2	-0.014216604
225	0xbde1502b	-0.11001619
226	0x3bb8f9e9	0.005645026
227	0x18a2c860	4.2078346e-24
228	0x3c91acf6	0.01778267
229	0xbccdfd28	-0.025145128
230	0x3c102d3f	0.00879985
231	0xad0d4913	-8.031148e-12
232	0x3a5ae874	0.0008350678
233	0x991e30ba	-8.178249e-24
234	0x3034c3d0	6.5761885e-10
235	0xb5c0815d	-1.4342764e-06
236	0x23bdea73	2.0590714e-17
237	0xbc5686b3	-0.013093638
238	0x3a82ab18	0.0009969203
239	0x2b60f045	7.991423e-13
240	0xba1bf7a7	-0.0005949684
241	0x9ff50dd1	-1.03784393e-19
242	0x396549ac	0.00021866587
243	0xb441c17c	-1.8044915e-07
244	0x3c9311ac	0.017952763
245	0xbb0d9ace	-0.0021607163
246	0x2acc0745	3.6242724e-13
247	0x2317c0fd	8.226593e-18
248	0xb77a0ad6	-1.4903684e-05
249	0xb5cc7c51	-1.5235365e-06
250	0xadf3fe44	-2.7738818e-11
251	0xa4723f56	-5.2529033e-17
252	0x3403b527	1.2266229e-07
253	0x0002e07b	2.642e-40
254	0x9fdda7c6	-9.38747e-20
255	0xb1e37c61	-6.6207098e-09

gnn.gnn_layers.0.res_connection.bias f4 [128]
0	0xb94b9250	-0.00019414094
1	0xbe9eedeb	-0.31040892
2	0xb6dbde82	-6.552612e-06
3	0xbe9136bc	-0.28362072
4	0xb50f8670	-5.3467284e-07
5	0xbe63ac76	-0.22233757
6	0xb8130470	-3.5051664e-05
7	0x3f00e903	0.5035555
8	0xbdbf5498	-0.09342307
9	0xbdda1476	-0.10648434
10	0xbb181aaf	-0.0023209264
11	0xbb17d31e	-0.0023166607
12	0xbe1d0f5f	-0.15337895
13	0xbd373b2c	-0.044734165
14	0x9fa6667a	-7.047327e-20
15	0xb8316057	-4.2289812e-05
16	0xb98de7f7	-0.00027066443
17	0x3da45946	0.0802484
18	0xb028f83b	-6.14708e-10
19	0xbcaa07fe	-0.020755764
20	0xbe71fdfe	-0.23632047
21	0xb975453d	-0.00023390814
22	0xbb2eabc4	-0.0026652673
23	0xba42746b	-0.00074178603
24	0x3e67bc24	0.22630364
25	0xbc9f86c6	-0.019473445
26	0xbd216a1a	-0.039407827
27	0xbf16e9a1	-0.5895024
28	0xbbda3f47	-0.0066603753
29	0xbf49ce6e	-0.7883061
30	0xbc5b90a6	-0.013401186
31	0xb8b40c2e	-8.5853375e-05
32	0xbb85b398	-0.004080247
33	0xb7a7c7a9	-2.0000925e-05
34	0xbe09baf1	-0.13450219
35	0xb99ee6d7	-0.00030308097
36	0xbac04857	-0.0014669996
37	0xbacf01d0	-0.0015793387
38	0xb5c25827	-1.4479782e-06
39	0xbbb5209e	-0.00552757
40	0xbd0fd041	-0.035110716
41	0xbbf79b28	-0.007556338
42	0xbb8af76b	-0.0042409203
43	0xbc64950e	-0.013951553
44	0xb0ef2bd2	-1.7401993e-09
45	0xbd6a6735	-0.057227332
46	0xbe176769	-0.14785542
47	0xba072740	-0.000515569
48	0xbdb148f1	-0.086564906
49	0xbdfc469a	-0.12318154
50	0xba312c7f	-0.00067586446
51	0xb0d230ee	-1.5293418e-09
52	0xbca9aa36	-0.020711046
53	0xbb869267	-0.004106808
54	0xbb8c26a3	-0.004277067
55	0xbd19e3ac	-0.03757064
56	0xb95fe5cf	-0.00021352548
57	0xbc3b9e5a	-0.011451328
58	0xbbb484dc	-0.005509002
59	0x3bc0b2ad	0.005880675
60	0xb674edcf	-3.6497256e-06
61	0xbe3c21d2	-0.18372276
62	0xb5d63196	-1.5958674e-06
63	0xbc5b00cc	-0.013366889
64	0xb19141b7	-4.2275263e-09
65	0xb2af1e20	-2.038638e-08
66	0xbb2f1b07	-0.002671899
67	0xb9aea3c6	-0.00033309887
68	0xbcea707d	-0.028618092
69	0xb63158b4	-2.6426687e-06
70	0xbe4bc98f	-0.19901107
71	0xbcb3c57d	-0.021944756
72	0xae6709f6	-5.2532166e-11
73	0x39ff4320	0.00048687402
74	0xac236036	-2.32171e-12
75	0xb23c4ff8	-1.0961223e-08
76	0xbd3c21b6	-0.045930587
77	0xbdabc4fe	-0.08387183
78	0xbe370f23	-0.17876868
79	0xbe104e42	-0.14092353
80	0xbc4d4352	-0.012528257
81	0xbfa63434	-1.2984681
82	0xbeefceb3	-0.46837386
83	0x3e8e38ce	0.27777714
84	0xbafd2cd8	-0.0019315733
85	0xbdc6eada	-0.09712763
86	0x3bdb376a	0.0066899555
87	0x3c65a5fc	0.014016625
88	0xbd74bf81	-0.059752945
89	0xbb320385	-0.0027162742
90	0xb583e582	-9.827056e-07
91	0xbd04aa4c	-0.03238897
92	0xbd53413e	-0.05157589
93	0xbdb279f5	-0.08714668
94	0xbd03b132	-0.03215141
95	0xbb398c6f	-0.0028312465
96	0xb985039d	-0.0002537043
97	0xb9dcb315	-0.00042095096
98	0xba442a7d	-0.0007483138
99	0xba68a6b5	-0.0008874939
100	0x38fe5cd3	0.00012128954
101	0xb628031c	-2.503576e-06
102	0xbc4a0b93	-0.012331861
103	0xbc8a1adc	-0.01685851
104	0xb6640674	-3.3978404e-06
105	0xb6111ec8	-2.16246e-06
106	0xbcc7afa1	-0.024375739
107	0xbeb955cd	-0.36198273
108	0xb8f7c6b6	-0.000118148906
109	0xb9127451	-0.00013966976
110	0xaecc27a8	-9.28389e-11
111	0x3c6f78a5	0.014616166
112	0xb95d51b8	-0.00021106645
113	0xbe06abe1	-0.13151504
114	0xb89358f5	-7.026076e-05
115	0xbb886b06	-0.004163149
116	0xbd753b38	-0.05987093
117	0xb4580785	-2.0119303e-07
118	0xbe768557	-0.24074303
119	0xb58e0e3c	-1.0583967e-06
120	0xbd407fe2	-0.04699696
121	0xbbba21d0	-0.0056803003
122	0xb692769c	-4.364947e-06
123	0xb8896b12	-6.5526125e-05
124	0xbd0a6b82	-0.033793934
125	0xb9d41cd1	-0.0004045726
126	0xb789add2	-1.6412614e-05
127	0xbb922fb5	-0.0044612535

gnn.gnn_layers.1.graph_conv.weight f4 [128, 128]
0	0xb3ac0188	-8.009653e-08
1	0x385d3041	5.2735446e-05
2	0xb30d3c24	-3.288382e-08
3	0xae03b5ec	-2.994753e-11
4	0xaf98f016	-2.781923e-10
5	0x375f2f46	1.33028425e-05
6	0xb456ebd4	-2.0016097e-07
7	0x37fde545	3.0266712e-05
8	0x0106f87b	2.479019e-38
9	0x370ad07f	8.273985e-06
10	0x3a3d1bb6	0.0007213907
11	0xac837790	-3.736518e-12
12	0xb9d0a24c	-0.00039793772
13	0xbaa9b0d8	-0.001294638
14	0xa89de676	-1.7530448e-14
15	0x2b51d4dd	7.4547123e-13
16	0xb92bfa2c	-0.00016401027
17	0xb9a4302d	-0.0003131641
18	0xb093f1f0	-1.076442e-09
19	0x35b4d0e9	1.3471846e-06
20	0xba11db1e	-0.0005563962
21	0x338167e4	6.025928e-08
22	0xb9905953	-0.00027532372
23	0xb1834453	-3.8203694e-09
24	0xb3c50d79	-9.175978e-08
25	0xb6b66422	-5.4356797e-06
26	0x3a0fb98c	0.0005482666
27	0x2f95c9fd	2.7246463e-10
28	0x394d9792	0.00019606788
29	0xab8430c7	-9.392703e-13
30	0xb50ff0bf	-5.3621983e-07
31	0xb8f61791	-0.00011734584
32	0x39925c60	0.00027916115
33	0x3952a9a3	0.00020090355
34	0x38f98e42	0.00011899743
35	0xb6d31fd6	-6.291996e-06
36	0x37b97008	2.2105887e-05
37	0x375d9cd9	1.3209145e-05
38	0x3b28ff6d	0.0025787011
39	0xb99f9642	-0.00030438794
40	0xb9bed1c9	-0.00036395926
41	0xb87c1f14	-6.0110426e-05
42	0xb8677a2f	-5.5188484e-05
43	0x36a28035	4.8429015e-06
44	0x382334ef	3.8911527e-05
45	0x36be6a63	5.6748263e-06
46	0xb7fd89eb	-3.0224173e-05
47	0x391f168b	0.0001517182
48	0x3a405dd9	0.0007338203
49	0xb785d449	-1.5953688e-05
50	0xb668b61d	-3.4676698e-06
51	0xb8fe714d	-0.00012132768
52	0xb815f636	-3.575367e-05
53	0xba891b63	-0.0010460432
54	0x39b0b400	0.00033703446
55	0x397d3c95	0.00024150529
56	0x38aa3a52	8.117095e-05
57	0x0000ac0c	6.1719e-41
58	0x38328253	4.255988e-05
59	0xb5df01a0	-1.6615268e-06
60	0xb5a1f162	-1.2065686e-06
61	0xb82c46d3	-4.1073956e-05
62	0xb7befc1b	-2.276716e-05
63	0x3814662a	3.5381097e-05
64	0x38a9bcb8	8.0936996e-05
65	0xb2a25e29	-1.8902101e-08
66	0x382d15be	4.1266663e-05
67	0x3a07d39a	0.00051813724
68	0x3ab04ba5	0.0013450278
69	0xba4c1809	-0.0007785564
70	0x2ff74aa2	4.4982068e-10
71	0x37ea22d9	2.7911201e-05
72	0xb722ee6f	-9.711467e-06
73	0x37b0fa58	2.109741e-05
74	0x34d72f8b	4.0081463e-07
75	0xb700d538	-7.679038e-06
76	0xb75216c9	-1.25222805e-05
77	0xb5fdd921	-1.8913162e-06
78	0x0db5de8c	1.1208562e-30
79	0x334b5403	4.734103e-08
80	0xba8d0d31	-0.0010761378
81	0x384d98af	4.9018006e-05
82	0x9e1db1b9	-8.348263e-21
83	0xb2405728	-1.1195688e-08
84	0x364021fd	2.8630013e-06
85	0xb4e34a5e	-4.2336154e-07
86	0x2e0eaa60	3.2438385e-11
87	0xb7080888	-8.108218e-06
88	0xb04c7cf8	-7.439236e-10
89	0x32164e28	8.74892e-09
90	0x31eda7e5	6.916695e-09
91	0xb62417c8	-2.4451747e-06
92	0x3714b3e6	8.863373e-06
93	0x3a1d2cc2	0.0005995744
94	0xb3ef4395	-1.1141598e-07
95	0x2e502d21	4.7333807e-11
96	0xb8c20381	-9.2512935e-05
97	0xb68b6504	-4.1542826e-06
98	0x36b9fff4	5.5432265e-06
99	0xb7bb5bed	-2.2334943e-05
100	0xb5d9e822	-1.623532e-06
101	0xb84342f4	-4.6553978e-05
102	0x39a02240	0.00030543096
103	0x387d22fa	6.0352475e-05
104	0x388dccd7	6.761558e-05
105	0x36fe8736	7.5855305e-06
106	0x13da01cc	5.503271e-27
107	0x9d89a794	-3.643687e-21
108	0xb7e80485	-2.765866e-05
109	0xad79517f	-1.4172107e-11
110	0xb3e7cb64	-1.0793772e-07
111	0xb71daa6e	-9.3976105e-06
112	0x36a278f8	4.842059e-06
113	0x39d592e8	0.0004073598
114	0x24860c8a	5.813448e-17
115	0xb9eef2ef	-0.00045575897
116	0x3a7da82c	0.00096762436
117	0x39ad9bbe	0.00033113168
118	0x8000aedf	-6.2732e-41
119	0x399ed96e	0.00030298106
120	0xba42ca91	-0.00074306974
121	0x9d8ace2c	-3.6741473e-21
122	0x39883562	0.00025979715
123	0xba958204	-0.0011406546
124	0xb03edfbc	-6.9439543e-10
125	0x99c11106	-1.9962608e-23
126	0xb8a39fd8	-7.802219e-05
127	0x34a1a240	3.010664e-07
128	0xb69bf43e	-4.6477935e-06
129	0x3e044d06	0.12920007
130	0x33d56b97	9.938156e-08
131	0xb8005cfd	-3.060418e-05
132	0x35b482cb	1.3449111e-06
133	0x3b857cd6	0.0040737195
134	0xb9087bf7	-0.00013016151
135	0x3d092ff3	0.033492994
136	0x005fa09f	8.781992e-39
137	0xbabcb201	-0.0014396311
138	0xbd0460c9	-0.032318864
139	0xaf52f6f7	-1.9187128e-10
140	0x3e5ec0bc	0.2175321
141	0xbc7fdf68	-0.015617229
142	0xa584fddf	-2.307038e-16
143	0x3332b2e7	4.1606565e-08
144	0x3bb58691	0.005539723
145	0xbce77ea5	-0.028258631
146	0xb72e2072	-1.0378762e-05
147	0x37eca5ff	2.821069e-05
148	0xb90a67ca	-0.0001319937
149	0x2ff51271	4.4578344e-10
150	0x3e23ee66	0.1600891
151	0x372a3ceb	1.0146973e-05
152	0xb7858ee5	-1.5921376e-05
153	0xb96e4959	-0.00022724773
154	0xbd069b9f	-0.032863256
155	0x351d78cd	5.8662846e-07
156	0xbc867dc9	-0.0164174
157	0xafad03ac	-3.1471126e-10
158	0x3986fadf	0.00025745385
159	0x3c833f80	0.01602149
160	0x3b943c01	0.0045237546
161	0xbbbbf61f	-0.005736127
162	0xb812dcc8	-3.501473e-05
163	0xbab82349	-0.0014048602
164	0xba6f0590	-0.00091179553
165	0xb9f26954	-0.00046236312
166	0xbd2ec7dc	-0.04267107
167	0xb9b028a5	-0.00033599618
168	0x3a242c14	0.00062626717
169	0x37ab240f	2.040158e-05
170	0x3e28c583	0.16481595
171	0x3696f592	4.4989365e-06
172	0x3bbb8623	0.0057227775
173	0x39b67841	0.0003480334
174	0xba39310b	-0.0007064498
175	0x3973693d	0.0002321349
176	0x3e3133c5	0.17304905
177	0xb543474c	-7.274691e-07
178	0x39af0bf8	0.00033387518
179	0x3941cbfa	0.00018481901
180	0xbc420de7	-0.011844135
181	0xbd587600	-0.05284691
182	0xbdba6d49	-0.09102876
183	0xb972fc7a	-0.00023172973
184	0xbc0e2c9a	-0.008677626
185	0xad665f6c	-1.3095174e-11
186	0xbaa9b8f3	-0.0012948796
187	0x3bff8210	0.007797487
188	0x3cbee3d1	0.02330199
189	0xbabf4bed	-0.0014594771
190	0x3c4e9a5d	0.012610045
191	0xb83f4110	-4.5598543e-05
192	0xbb0161e4	-0.0019742185
193	0x359499fa	1.1071672e-06
194	0xb8a8c8bf	-8.048256e-05
195	0x3d1f192d	0.03884237
196	0xbd2edf8d	-0.042693663
197	0x3c022898	0.007944249
198	0x322dca29	1.0115891e-08
199	0xb917001e	-0.00014400526
200	0x3cc3c1be	0.023896094
201	0xb6558479	-3.1816583e-06
202	0x3296ba29	1.7546954e-08
203	0xba05d9b0	-0.00051059853
204	0x388d90fd	6.75041e-05
205	0xb7aec795	-2.0835354e-05
206	0x03844d91	7.776071e-37
207	0xb2b95954	-2.1577456e-08
208	0xbcdabc26	-0.026701044
209	0xbdb88632	-0.09009971
210	0x26cb2866	1.4096905e-15
211	0xb035df9d	-6.616519e-10
212	0x3a14af9b	0.0005671919
213	0xb30e7534	-3.3168547e-08
214	0xb1178d5e	-2.205375e-09
215	0x39936653	0.00028114262
216	0xb8119fd7	-3.4719556e-05
217	0x3524ac87	6.134582e-07
218	0xb19c6b5f	-4.5524042e-09
219	0x2eaf3b55	7.968618e-11
220	0xb926c776	-0.00015905299
221	0xbbf25d52	-0.0073963786
222	0x38508174	4.9711627e-05
223	0xb760e0b8	-1.3403762e-05
224	0xbb848246	-0.00404385
225	0xb635d4c8	-2.7094957e-06
226	0xb693e176	-4.4071885e-06
227	0x3af3f8a5	0.001861353
228	0xb6c18686	-5.767509e-06
229	0x38195453	3.6556576e-05
230	0xbb8d4c86	-0.004312101
231	0xb93d5631	-0.00018056553
232	0xbbde8cc5	-0.0067916834
233	0xb9c172aa	-0.0003689726
234	0x98ea76e3	-6.0607627e-24
235	0x1874101d	3.1544396e-24
236	0x3a3fa7f9	0.00073111017
237	0x3271c3ec	1.4072594e-08
238	0xb7388a75	-1.0999492e-05
239	0xb8b9e537	-8.864182e-05
240	0x38440dc9	4.674288e-05
241	0x3d4e1da5	0.05032124
242	0x24bed5e9	8.276174e-17
243	0xbc108c1e	-0.008822469
244	0xbd5cc52f	-0.053898986
245	0xbd385581	-0.045003418
246	0xae607461	-5.103507e-11
247	0x3b525a35	0.0032097225
248	0x3ced0231	0.028931709
249	0x13d26866	5.3114398e-27
250	0x3cf7d43d	0.03025257
251	0xbeabdf57	-0.33568832
252	0xb19cccc6	-4.5634776e-09
253	0x972ee60c	-5.651279e-25
254	0x393f5698	0.00018247438
255	0x397d83f6	0.0002417712

gnn.gnn_layers.1.graph_conv.bias f4 [128]
0	0xb792a906	-1.7483264e-05
1	0xbdc29317	-0.095007114
2	0x3583404b	9.778972e-07
3	0x390807c8	0.0001297287
4	0x38f413b5	0.000116384974
5	0xbc97fec3	-0.018554097
6	0xbaa9bc9b	-0.0012949886
7	0x3e85307a	0.26013547
8	0x04c7831e	4.6905087e-36
9	0xbaf31f3b	-0.0018548736
10	0xbd4095aa	-0.04701773
11	0xb412eee4	-1.3684217e-07
12	0x3e8c4a3b	0.27400383
13	0xbf0e0fa5	-0.5549262
14	0x2a3c9297	1.6748613e-13
15	0xb2a3b535	-1.90581e-08
16	0xbd255122	-0.040360577
17	0xbd10f4fc	-0.035389885
18	0x3645923b	2.9440405e-06
19	0xb98ed4e5	-0.0002724297
20	0xbc297c51	-0.010344581
21	0xb4ab6498	-3.1924424e-07
22	0x3e2095f2	0.156822
23	0xba091def	-0.00052305957
24	0xb7898bf4	-1.6396843e-05
25	0x39d71cb7	0.0004102939
26	0x3e5fc218	0.21851385
27	0x36a264ac	4.839696e-06
28	0x3d8da43a	0.06916089
29	0xb11b0f61	-2.256421e-09
30	0xba2b06f4	-0.00065241684
31	0x3c63a5c3	0.013894501
32	0x3d8839d7	0.06651657
33	0xbb5106d9	-0.003189495
34	0xbbc17c59	-0.005904716
35	0xba930111	-0.0011215528
36	0x39cf2ee8	0.00039517065
37	0x39a86911	0.00032121738
38	0xbe007779	-0.12545575
39	0xbd967168	-0.07345849
40	0xbce43ace	-0.027860072
41	0xbc23020c	-0.0099492185
42	0xbe31edd4	-0.1737588
43	0x3ad97cf1	0.0016593022
44	0xbd641e1a	-0.05569277
45	0xbc96307c	-0.018333666
46	0x389d8607	7.511308e-05
47	0xbc86de88	-0.016463533
48	0x3e21aac5	0.157878
49	0x3c3b8bf3	0.011446941
50	0x3b8cd2ca	0.004297589
51	0xbc89dab5	-0.01682792
52	0x3bc22d35	0.0059257993
53	0xbef5537d	-0.4791526
54	0xbdd20949	-0.10255677
55	0xbbb9a369	-0.005665232
56	0x3dbb9679	0.0915956
57	0x31e454e5	6.6453247e-09
58	0x3cca0eab	0.024665197
59	0x3bf4bc08	0.007468704
60	0x3e31b24f	0.17353176
61	0x3d4bc5d8	0.049749225
62	0xbeb19dd8	-0.34690738
63	0x3c12c774	0.008958686
64	0x3c34ffed	0.011047346
65	0x3962511a	0.00021583252
66	0xbafd0adb	-0.0019305603
67	0xbcdf38b4	-0.027248718
68	0x3d27cec1	0.04096866
69	0xbdcd1da3	-0.100154184
70	0xb7f3f8c8	-2.9083705e-05
71	0xbbbe0e62	-0.0058000544
72	0x3d9887d3	0.074477814
73	0xbb9c109d	-0.0047627226
74	0x3846ca83	4.7395482e-05
75	0x3b9e37b3	0.004828417
76	0xbbdaf59e	-0.006682112
77	0xb9c07f96	-0.00036716153
78	0x22075658	1.8341622e-18
79	0xb8b53e65	-8.6423745e-05
80	0xbeea3d2e	-0.457498
81	0xbdc037c8	-0.093856394
82	0x2746245e	2.7497735e-15
83	0xb9aacbd8	-0.00032576802
84	0xbb1f798c	-0.0024333922
85	0x37560e89	1.2758778e-05
86	0x328ae372	1.6168745e-08
87	0xbc386f15	-0.011256953
88	0xbbbf5135	-0.005838538
89	0xb7fab3bc	-2.9886018e-05
90	0x34f06c34	4.4782212e-07
91	0xbbfb2786	-0.0076646237
92	0xb9b6f3b3	-0.00034895315
93	0x3c08c750	0.008348301
94	0xb97b7610	-0.00023981207
95	0xb7ca6560	-2.4127483e-05
96	0x3d1284b0	0.035771072
97	0xb9f20436	-0.00046160974
98	0xbbf2ae33	-0.00740602
99	0xbb0d9dd8	-0.0021608975
100	0xb8aa2133	-8.1124155e-05
101	0xbc632ad2	-0.01386519
102	0x3d05718f	0.032579
103	0xba753bdb	-0.00093549275
104	0x3b90677a	0.0044068666
105	0x39750b4f	0.00023369234
106	0x26995866	1.0640468e-15
107	0x1f8253ba	5.5195656e-20
108	0xbb97ab0b	-0.004628544
109	0x3572abda	9.04021e-07
110	0xb8f39c72	-0.00011616283
111	0xbb80144e	-0.0039086705
112	0x3b870744	0.004120739
113	0x3cdcca28	0.026951864
114	0x28aa111e	1.8881215e-14
115	0xbf0058a0	-0.5013523
116	0x3d9170a3	0.07101562
117	0x3d711ed9	0.05886731
118	0xae29e895	-3.8632725e-11
119	0x3b1ab891	0.0023608545
120	0xbd457ff2	-0.04821772
121	0x2747a156	2.7704258e-15
122	0x3e130ad9	0.14359607
123	0xbe843d02	-0.25827795
124	0xb6cb512a	-6.05932e-06
125	0x1eac9c8f	1.827596e-20
126	0xbe1e28b6	-0.15445217
127	0xbb2b50b2	-0.0026140627

gnn.gnn_layers.1.res_connection.weight f4 [128, 128]
0	0x3307c04e	3.1607037e-08
1	0xb7acf914	-2.0619984e-05
2	0xb85fc1ec	-5.3347947e-05
3	0xb7b20e7e	-2.1226002e-05
4	0xae9a5a28	-7.019124e-11
5	0x390591a8	0.0001273813
6	0xb0a1ee25	-1.1781977e-09
7	0xb8f90eff	-0.000118760385
8	0xb64667dc	-2.9564753e-06
9	0x349f5df6	2.9684423e-07
10	0xb67943d0	-3.7143363e-06
11	0xb3033568	-3.0549387e-08
12	0x371e4e48	9.43576e-06
13	0x345549e3	1.986405e-07
14	0x9770a9c6	-7.7762467e-25
15	0xb1ab892f	-4.992351e-09
16	0xb160b8fb	-3.270144e-09
17	0xb8314204	-4.226157e-05
18	0xaae8d9a2	-4.1362492e-13
19	0x3585e00e	9.974481e-07
20	0xb6dac7df	-6.5201743e-06
21	0x332a60d0	3.966926e-08
22	0x320afbc5	8.089903e-09
23	0x3226b1b8	9.70288e-09
24	0xb7eff03f	-2.8602894e-05
25	0xb4dd743f	-4.1249038e-07
26	0x358bf30b	1.0427042e-06
27	0xb76d68c4	-1.41506935e-05
28	0xb4dae950	-4.0775421e-07
29	0xb8096c5c	-3.2764263e-05
30	0xb4df5f4d	-4.1606327e-07
31	0xb2060f0d	-7.803249e-09
32	0xb5024634	-4.8530933e-07
33	0xb04d24d9	-7.463093e-10
34	0x386bfb2f	5.62623e-05
35	0xb36ca09a	-5.5094098e-08
36	0x32a4073e	1.9095406e-08
37	0x33a83038	7.8318806e-08
38	0xafd985e2	-3.95672e-10
39	0xb307ca13	-3.1615922e-08
40	0x359f322a	1.1861023e-06
41	0xb5266eb2	-6.20009e-07
42	0x352b4db1	6.381552e-07
43	0x368f7309	4.275124e-06
44	0xa4918e08	-6.3124336e-17
45	0x372deb9f	1.0366463e-05
46	0x371c45c5	9.314569e-06
47	0xb3353ea9	-4.2199336e-08
48	0xb6d219d3	-6.261494e-06
49	0x37a1a77d	1.9270688e-05
50	0xb2ed8bb0	-2.7653954e-08
51	0x2b248fde	5.846416e-13
52	0xb41654de	-1.4000713e-07
53	0xb46be71c	-2.1970158e-07
54	0xb4748374	-2.2772093e-07
55	0xb5f0ace9	-1.7931717e-06
56	0xb2d32c5d	-2.4583807e-08
57	0xb6f14fcc	-7.1916493e-06
58	0xb0d73bb7	-1.5660281e-09
59	0x374a6c21	1.2065314e-05
60	0xaf6c1f79	-2.1475256e-10
61	0x33ed2354	1.1042599e-07
62	0xafcd1c53	-3.7309408e-10
63	0xb424e06a	-1.5355332e-07
64	0xab3ddc03	-6.7451616e-13
65	0xb88e36f8	-6.7813264e-05
66	0xb608b3bd	-2.03702e-06
67	0xb23e89d7	-1.1090797e-08
68	0xb59c7383	-1.1656524e-06
69	0xae881570	-6.188372e-11
70	0x35d5ff38	1.5944015e-06
71	0x359d9575	1.1740909e-06
72	0x2a189410	1.3551681e-13
73	0xb3a74b68	-7.79026e-08
74	0x24a5a71d	7.1840444e-17
75	0x2a80d670	2.2886163e-13
76	0xb6b16f18	-5.287944e-06
77	0x3590ace7	1.0779157e-06
78	0x3571d11c	9.008379e-07
79	0x36a048c5	4.776843e-06
80	0xb4dec502	-4.1494064e-07
81	0x38052a14	3.174886e-05
82	0x37a660c0	1.9833795e-05
83	0xb73abbd9	-1.1130201e-05
84	0x328fe72f	1.6752521e-08
85	0x37ebfb41	2.8131182e-05
86	0xb668276e	-3.4593645e-06
87	0x3708f1d5	8.162538e-06
88	0x356a2404	8.72242e-07
89	0x32fe5a5e	2.9610586e-08
90	0xaebb48ab	-8.516684e-11
91	0xb8279b4f	-3.9960545e-05
92	0xb58a51cd	-1.0305608e-06
93	0xb557c412	-8.037906e-07
94	0xb6bfd4d9	-5.7170223e-06
95	0xb4ecd480	-4.411304e-07
96	0xb133a8b6	-2.614383e-09
97	0xb2485c14	-1.1662468e-08
98	0xb3a93075	-7.87849e-08
99	0x37a2ed0e	1.9422292e-05
100	0x32406d6c	1.12007505e-08
101	0x2f3b0f48	1.701298e-10
102	0xb4e6add5	-4.2967318e-07
103	0xb692e260	-4.3774926e-06
104	0x325603a5	1.2457268e-08
105	0xaf95c89f	-2.7245492e-10
106	0x331f38cc	3.707173e-08
107	0xb7031eb7	-7.81536e-06
108	0xb06c3474	-8.593084e-10
109	0x321c7cc2	9.108762e-09
110	0x288ce166	1.5640873e-14
111	0xb7fb2b0e	-2.994158e-05
112	0x329ce4ae	1.8264782e-08
113	0xb6550e24	-3.1747704e-06
114	0x321ceb48	9.133892e-09
115	0x34416c6e	1.8013972e-07
116	0xb627e778	-2.5019672e-06
117	0xb0aba76a	-1.248947e-09
118	0xb93a226e	-0.00017751168
119	0x2fde33c0	4.0418335e-10
120	0xb58d57e4	-1.0530898e-06
121	0xb4d93581	-4.045833e-07
122	0xaea46ee9	-7.477558e-11
123	0xb0e84f8c	-1.690283e-09
124	0x33b3f51c	8.379922e-08
125	0x311b1745	2.2568696e-09
126	0xb117aa69	-2.207026e-09
127	0xb4c9e006	-3.7602166e-07
128	0xb9517666	-0.000199759
129	0x3b05c5e2	0.0020412137
130	0x3e0dd47e	0.1385059
131	0xb8b1c347	-8.476391e-05
132	0xb4290cc6	-1.5743998e-07
133	0xbcf0ab6a	-0.029378612
134	0xb4187f38	-1.4202385e-07
135	0xbc80a424	-0.015703268
136	0xbc3fcc81	-0.011706472
137	0x3c9889a0	0.018620312
138	0xbc94bc8f	-0.018156318
139	0xb98589b4	-0.00025470334
140	0x3cfe555e	0.031046566
141	0xbb6f8c7b	-0.0036552239
142	0x9b9f5bfd	-2.636379e-22
143	0xb6a48c43	-4.9039095e-06
144	0xb4bd3a32	-3.5246336e-07
145	0xbdd66c8c	-0.104699224
146	0x2f5bde29	1.9996861e-10
147	0xb80efa6a	-3.4088655e-05
148	0x3aa394a8	0.0012480216
149	0x38d58541	0.00010181452
150	0x39206bb3	0.0001529891
151	0xb56b9257	-8.7757275e-07
152	0xbdf17983	-0.11790755
153	0x3a81ef05	0.0009913152
154	0xb8709ec4	-5.736832e-05
155	0xbe2a9eff	-0.16662215
156	0xb925ddaf	-0.0001581821
157	0xbcf6a08a	-0.030105848
158	0xb8de3c54	-0.00010597022
159	0xb6441ff6	-2.922488e-06
160	0x38521899	5.009081e-05
161	0x34827fc1	2.430734e-07
162	0x386eb2ca	5.6910132e-05
163	0x376a3856	1.3960604e-05
164	0x3253e8df	1.2334765e-08
165	0x36f13dc4	7.18955e-06
166	0xb4fd17f9	-4.7142365e-07
167	0xba15a94b	-0.00057091255
168	0x39cb7efd	0.0003881379
169	0xb87c2936	-6.0119863e-05
170	0xb932c991	-0.00017050492
171	0xbadda7c3	-0.0016910959
172	0x2aaf7d4e	3.1173192e-13
173	0xba34dc15	-0.000689925
174	0xb943cea7	-0.00018673633
175	0xb880185d	-6.108054e-05
176	0xba8b0abc	-0.0010608057
177	0x3b031615	0.0020002176
178	0xb706e17f	-8.039525e-06
179	0xb13ffb93	-2.7937161e-09
180	0x3ad26a71	0.001605345
181	0xb954d7e7	-0.00020298325
182	0xb99be02d	-0.00029730928
183	0xbb9dd83b	-0.0048170364
184	0xb0f0d454	-1.7522646e-09
185	0xbc2e3ad3	-0.010634142
186	0xb9b373b8	-0.00034227758
187	0xbcf96f20	-0.030448496
188	0x32b554f0	2.1109798e-08
189	0xbc2c9cfb	-0.010535474
190	0xb3bfc044	-8.9291035e-08
191	0x3addbb42	0.0016916769
192	0xae4537f9	-4.4842328e-11
193	0xbe0ce2be	-0.1375837
194	0xbb95fd0e	-0.0045772856
195	0xb8912d0a	-6.922528e-05
196	0x39df30e4	0.000425703
197	0xb4c97849	-3.7526686e-07
198	0xbc42f145	-0.011898343
199	0xbb0931f7	-0.0020934322
200	0x2a1eef21	1.4116184e-13
201	0xba06f4c1	-0.00051481655
202	0xa886caf8	-1.4965012e-14
203	0x2e79884b	5.6737098e-11
204	0xbb493a5a	-0.0030704946
205	0xbaba2889	-0.0014202754
206	0x3c87cfc0	0.016578555
207	0x3c958c23	0.018255299
208	0x38872773	6.4446496e-05
209	0xbd123bff	-0.035701748
210	0xbc0a65a0	-0.008447081
211	0xbe482e8f	-0.1954901
212	0x3806c629	3.213264e-05
213	0x3965ea75	0.00021926484
214	0xbc906fee	-0.017631497
215	0xbca483eb	-0.020082435
216	0xbbc0326e	-0.0058653867
217	0xb53128db	-6.599709e-07
218	0x333411a2	4.1925553e-08
219	0x3cdc1b5c	0.026868515
220	0xb98b6338	-0.0002658607
221	0xbc54b1db	-0.012981857
222	0x3b70e3a6	0.0036756783
223	0xba5583e4	-0.00081449584
224	0xb7559744	-1.2731009e-05
225	0xb4edbcb7	-4.4281998e-07
226	0x39dd227a	0.00042178092
227	0xbe7ff9aa	-0.24997583
228	0xb81c7aee	-3.7307786e-05
229	0xb4bf96de	-3.5686293e-07
230	0x39b4984e	0.0003444575
231	0xb916b504	-0.00014372548
232	0xb8bfc9e5	-9.1451955e-05
233	0x2f74a13b	2.2248951e-10
234	0xb9d80a28	-0.00041206297
235	0xb9502d7b	-0.00019853369
236	0xb5a23463	-1.2085187e-06
237	0x356a6052	8.731196e-07
238	0xad136c05	-8.379968e-12
239	0x3da6fc0d	0.081535436
240	0x380b9852	3.3282042e-05
241	0x37c2b89a	2.3212564e-05
242	0xb67dd583	-3.7824218e-06
243	0xb9402c30	-0.00018327008
244	0x3944e0c8	0.00018775754
245	0x31a3d528	4.7681574e-09
246	0xbed0d75b	-0.40789303
247	0xb5d178e5	-1.5606898e-06
248	0x389664b5	7.1713155e-05
249	0xbb6a4321	-0.0035745578
250	0xb389efb9	-6.423165e-08
251	0x36f526a4	7.3060673e-06
252	0xb8a08aba	-7.6552344e-05
253	0xb4272e8d	-1.5570022e-07
254	0xb6935316	-4.390614e-06
255	0xba02db7a	-0.0004991811

gnn.gnn_layers.1.res_connection.bias f4 [128]
0	0xb84dfe3b	-4.911258e-05
1	0xbe8afb97	-0.27145073
2	0xb7d5a14c	-2.5466688e-05
3	0xb9e00ed1	-0.00042735648
4	0x3c7600b1	0.015014813
5	0xbbc8ca0b	-0.006127601
6	0x3af2558f	0.0018488633
7	0x3d74c57f	0.05975866
8	0x3afaebf4	0.0019143806
9	0xbd32b957	-0.043633785
10	0xbc15d2b3	-0.009144473
11	0x3d557451	0.05211288
12	0x3d06f5e9	0.032949362
13	0xbe970b82	-0.29500967
14	0xbd7ec449	-0.06219891
15	0xb3c074c0	-8.9619334e-08
16	0xbdbc43bd	-0.091926076
17	0xbaf6555a	-0.0018793747
18	0x37d6510e	2.5548532e-05
19	0x3a3a9a7e	0.0007118358
20	0x3d7f7036	0.062362872
21	0xb873f21b	-5.8161193e-05
22	0x3c76c257	0.015060983
23	0xba27d77b	-0.00064026535
24	0x3a001455	0.0004885842
25	0xbe085056	-0.13311896
26	0x3e32f00a	0.1747438
27	0xb8ad0bae	-8.251458e-05
28	0xbca52450	-0.020158917
29	0xbbd49cc1	-0.006488413
30	0xbc3290c6	-0.0108987745
31	0xbd1069c6	-0.035257123
32	0x3d98ea31	0.074665435
33	0xbc83ff5d	-0.016112978
34	0xbc01e16b	-0.007927279
35	0x3c8f9528	0.017527178
36	0xb883489e	-6.260093e-05
37	0xbc716590	-0.014733687
38	0xbdb1468d	-0.086560346
39	0xbcbdf5f8	-0.023188576
40	0x3b9b5c16	0.004741202
41	0xbd010cb3	-0.03150625
42	0x3ea0d44d	0.31411973
43	0x3b411646	0.002946274
44	0xbd1511b4	-0.036393836
45	0xbaaba06a	-0.0013094072
46	0xba67b9c9	-0.0008839635
47	0xbae118e4	-0.0017173556
48	0x3db8ae3e	0.09017609
49	0x3c2c19ac	0.0105041675
50	0xb9ce1a26	-0.00039310864
51	0x3d3b2f98	0.045699686
52	0xbc8e9030	-0.017402738
53	0xbeb90428	-0.36135983
54	0x3e587f24	0.2114225
55	0xbd632a5e	-0.055460326
56	0xbc933c7b	-0.017973175
57	0xb9ad279a	-0.00033026637
58	0xbc4e9325	-0.012608324
59	0x3b1cdd0d	0.0023935467
60	0x3d85171f	0.064985506
61	0x3beb9159	0.0071889577
62	0xbe357547	-0.17720519
63	0xba3e6714	-0.00072632846
64	0xbc30a207	-0.010780818
65	0xb9e2207a	-0.00043130276
66	0x3e86c692	0.26323372
67	0x3d0236ee	0.031790666
68	0x3ddfb00d	0.10922251
69	0xbdcc93db	-0.09989139
70	0x3e1f1782	0.15536311
71	0xbd083737	-0.033255782
72	0xbd90fb7d	-0.070792176
73	0x3bdc774f	0.00672809
74	0x3803ffff	3.147125e-05
75	0xbcdfd236	-0.027321916
76	0x3b8c34d9	0.004278761
77	0xba82ad64	-0.0009969887
78	0xbe306193	-0.17224722
79	0xbe2030ea	-0.15643659
80	0xbec2e8b5	-0.38068166
81	0x3ad4c760	0.0016233735
82	0xb665302b	-3.4151697e-06
83	0xbab1fd5e	-0.0013579538
84	0x3b920262	0.0044558505
85	0x3b94220a	0.0045206593
86	0xb65c5e48	-3.2837434e-06
87	0xbb938052	-0.004501381
88	0xbd88f68a	-0.066876486
89	0xba73045b	-0.00092703634
90	0xb76882fa	-1.3858773e-05
91	0xbea36fe8	-0.31921315
92	0x3d20bd2d	0.039242912
93	0x3cc77bb9	0.024350988
94	0xbb0a4c8e	-0.002110276
95	0xbb57b5e6	-0.0032914816
96	0x3d7f5981	0.062341217
97	0x3d7d5820	0.06185162
98	0xbe97ea42	-0.29670912
99	0xbbc0e26a	-0.0058863657
100	0x39cd6752	0.00039177627
101	0xbb6b29e5	-0.0035883125
102	0xbcafd969	-0.021465974
103	0x3d2bc2c7	0.0419338
104	0x3dcb268c	0.099194616
105	0xba8002de	-0.000976648
106	0x2b4197ad	6.8777866e-13
107	0x3d07f2ca	0.033190526
108	0xba8a7135	-0.0010562303
109	0x365f4e4d	3.3275167e-06
110	0xbcab6c68	-0.020925716
111	0xbc2820c6	-0.01026172
112	0xbbae1962	-0.0053130845
113	0x3c5f264f	0.013619973
114	0x25eeec1d	4.1446415e-16
115	0xbe637266	-0.22211608
116	0x38d9aa29	0.00010379061
117	0xbc71fe9f	-0.014770179
118	0xbb83b032	-0.004018807
119	0x3dc15b3e	0.09441231
120	0x3c1c0856	0.009523472
121	0xbeb784b1	-0.35843423
122	0x3d25aa2a	0.040445484
123	0x3d883440	0.06650591
124	0x35946de0	1.1058837e-06
125	0x3ae48adb	0.0017436402
126	0xbe8c2882	-0.27374655
127	0xbc790780	-0.015199542

readout.weight_and_sum.atom_weighting.0.weight f4 [1, 128]
0	0xb9447333	-0.00018734932
1	0xbe685c05	-0.22691353
2	0xb82871ef	-4.016043e-05
3	0xbcf1519c	-0.02945786
4	0xbc92a7c6	-0.017902266
5	0xbc8ef7a4	-0.017452069
6	0xbbe06a42	-0.0068486044
7	0xbc26ca98	-0.010180138
8	0xbc172d59	-0.00922712
9	0xbc83b7f8	-0.016078934
10	0xbd604528	-0.054753453
11	0xbea7c6f0	-0.32768965
12	0xbec74856	-0.38922375
13	0xbe81a057	-0.25317642
14	0xba791408	-0.0009501581
15	0xb0989001	-1.1100384e-09
16	0xbe5312d3	-0.2061265
17	0xbb6b0249	-0.0035859516
18	0xb5cfdef9	-1.5487595e-06
19	0xba587534	-0.0008257211
20	0xbbb8e4b6	-0.005642499
21	0xb985c732	-0.0002551615
22	0xbec6dd26	-0.38840598
23	0xbb417264	-0.0029517645
24	0xb966ed2d	-0.00022022864
25	0xbf605db2	-0.8764297
26	0xbf69f7c7	-0.91393703
27	0xb9e74f0b	-0.00044118645
28	0xbe43242d	-0.19056769
29	0xbd4d34d4	-0.05009921
30	0xbd4e8edd	-0.050429214
31	0xba680f14	-0.00088523445
32	0xbe033ebb	-0.12816899
33	0xbbafddb1	-0.005367004
34	0xbad57580	-0.0016285628
35	0xbc50d90e	-0.012747062
36	0xb9b260c0	-0.0003402289
37	0xbcbcef93	-0.023063457
38	0xbe7c6c97	-0.24650799
39	0x3d6445b9	0.055730555
40	0xbd7ea195	-0.062165815
41	0xbe893fb7	-0.26806423
42	0xbe945c72	-0.2897678
43	0xbc72ac2b	-0.014811556
44	0xbd5db577	-0.054128136
45	0xbd219034	-0.039444163
46	0xb9eb8621	-0.00044922627
47	0xbbcb376d	-0.0062016756
48	0xbe369271	-0.178293
49	0xbe415911	-0.18881632
50	0x3a22e81d	0.0006214397
51	0xbe5100a4	-0.204104
52	0xba9e1b74	-0.0012062625
53	0xbede271d	-0.43389216
54	0xbdf6f5b6	-0.120585844
55	0xbd579402	-0.052631386
56	0xbd492899	-0.049110983
57	0xbc250f42	-0.0100744385
58	0xbb9a9d45	-0.004718455
59	0xb906c537	-0.00012852704
60	0xbc0c2908	-0.0085547045
61	0xbc1a25e4	-0.009408448
62	0xbeadde5d	-0.33958712
63	0xbb8d938c	-0.0043205675
64	0xbd88a1a2	-0.06671454
65	0xb8ee827e	-0.000113730304
66	0xbdf9d406	-0.121986434
67	0xbebe77eb	-0.37200865
68	0xbec1c93b	-0.3784884
69	0xbe6587e3	-0.22415118
70	0xbf4c8f47	-0.79906124
71	0x3b6906d0	0.003555704
72	0xbda3b046	-0.07992606
73	0xbccacfe2	-0.02475733
74	0xb8272ddc	-3.9858613e-05
75	0xbd27c9f1	-0.04096407
76	0x3a180bdd	0.00058001076
77	0xba6decd0	-0.00090761203
78	0xbe0a8329	-0.13526596
79	0xbe8b1c5d	-0.27170077
80	0xbf0dd151	-0.55397516
81	0x3daa4a00	0.08314896
82	0x340af519	1.2941418e-07
83	0xbc541638	-0.0129447505
84	0xbb9a3345	-0.004705819
85	0xbc70a257	-0.014687142
86	0xb5c313a6	-1.4534351e-06
87	0xbc4ad729	-0.0123804
88	0xbd1a6bf5	-0.037700612
89	0xba9f419c	-0.001215029
90	0xb7cda59c	-2.4515022e-05
91	0xbb81f29c	-0.003965689
92	0xbb88455e	-0.00415866
93	0xbcb901de	-0.022583898
94	0xbc798a35	-0.015230705
95	0xbe89e88e	-0.26935238
96	0xbe276b8b	-0.16349618
97	0xbe29fa42	-0.16599372
98	0xbd37308e	-0.04472404
99	0xbe7d38c9	-0.24728693
100	0xbac126a3	-0.0014736246
101	0xbd77626c	-0.060396597
102	0xbe326932	-0.17422941
103	0xbda7676b	-0.08174022
104	0xbe3a93ac	-0.18220395
105	0xbb9f9e8a	-0.0048711943
106	0x29d296cb	9.352032e-14
107	0xbca426ee	-0.020038094
108	0xb7e07d18	-2.6761132e-05
109	0xb89dd87e	-7.526668e-05
110	0xbeac6140	-0.33667946
111	0xbc75871b	-0.014985825
112	0xbb9d2f0d	-0.0047968687
113	0xbd0096e6	-0.031393908
114	0xa9f280a0	-1.0769272e-13
115	0xbf015c8a	-0.5053183
116	0xbdacff34	-0.08447114
117	0xbcecdb1d	-0.028913075
118	0xbd4ef126	-0.050522946
119	0xbe007025	-0.1254278
120	0xbc84ac5c	-0.016195469
121	0xbe86a16c	-0.2629503
122	0xbdf54df9	-0.11977763
123	0xbbe9c989	-0.0071346206
124	0xb83d2b58	-4.510148e-05
125	0xba5fe364	-0.0008540659
126	0xbd897057	-0.0671088
127	0xbc2e25a4	-0.010629091
