1-GNNs/result/6108_AR_NURA_MPNN_0920/saved_model/MPNN_bst_5.pth (torch, 437614 bytes, 26 tensors)

gnn.project_node_feats.0.weight f4 [32, 74]
-0.0060556685 0.09523567 0.029905159 0.027499117 0.01116645 -4.6584308e-12 -0.00020954743 0.02452838
-0.017059438 -0.0003157085 -3.7810227e-11 -5.0532436e-09 -4.830051e-06 -5.031047e-09 -1.0084147e-08 0.00019095377
1.1043544e-06 4.577867e-08 1.1794514e-11 -7.174784e-10 4.5846157e-11 1.8281693e-12 9.593931e-08 1.2010506e-10
-1.6729371e-11 -1.5542277e-12 8.725614e-06 -8.826976e-09 1.3265881e-07 -2.0768816e-12 4.1252882e-10 -5.749067e-09
2.4560424e-07 -2.2624708e-11 -9.586208e-09 3.7098594e-06 -0.00021813522 -2.7241862e-11 0.00021968747 -1.3280962e-12
9.618017e-07 4.785403e-07 -1.8082122e-08 5.3347545e-11 0.62127084 0.051302236 -0.036759038 -0.36006084
1.4461771e-11 9.4528616e-07 -1.0377818e-11 -1.3349803e-13 8.323051e-08 0.00011508882 -0.16588566 -0.29677024
0.5101598 0.20073141 -1.719598e-05 2.9206294e-06 -3.0982827e-11 -0.009889615 0.00013191685 -0.018884754
-0.12728968 0.40619624 2.2525777e-10 3.3844323e-08 -0.05841981 -0.15633881 -0.29679692 0.5111957
0.20073168 2.0393052e-05 -0.028633902 -0.01605783 -7.677151e-05 -1.5976828e-05 5.351358e-06 7.419633e-11
1.4788836e-09 0.0037643139 -2.8471408e-20 5.9722083e-06 0.00049187883 -5.809998e-07 3.2545215e-09 -4.94294e-08
6.753236e-10 -1.136265e-28 2.232953e-10 -1.5865312e-09 -1.4511864e-10 6.6063783e-13 1.0139242e-10 7.080593e-09
-5.4575913e-09 -3.3755678e-13 -3.654448e-12 -0.0004393197 -0.0001769414 1.5179537e-12 -1.4976774e-06 1.5906612e-07
-2.761019e-06 8.280651e-09 6.612355e-06 5.9202725e-06 -4.0293482e-08 -3.32463e-07 7.0116595e-14 8.498539e-05
-7.198825e-11 -5.0743924e-06 -0.00020177847 -4.150443e-12 -3.7819823e-13 9.2552845e-09 -0.003183412 -0.07862776
0.00044158887 0.00023344909 -1.10173e-09 -5.787367e-08 2.5793848e-11 6.239391e-08 -1.07492316e-13 -3.8493945e-07
-0.058368392 0.006651601 -0.0007731015 -7.8773574e-08 1.3673385e-09 3.2527176e-05 -5.754601e-08 1.6198499e-20
2.424e-41 9.040398e-12 -0.03894843 -0.0022275008 -1.898316e-10 -6.443962e-11 0.0015470644 -0.057790574
0.00610673 -0.0007731015 -7.8773574e-08 9.097936e-06 -0.00827895 0.00141645 -0.0030573828 -4.9608804e-17
-1.029232e-20 -4.0975718e-07 1.7044e-41 -7.1226185e-07 -5.0628567e-33 5.5206165e-05 -2.1578426e-13 1.0790564e-05
1.0350029e-12 -2.829511e-10 -6.5324707e-07 -4.431e-42 1.7493969e-05 -1.8807823e-10 -7.881175e-12 1.5720466e-06
2.6769967e-06 2.7751103e-05 7.1649207e-09 9.6707746e-11 5.8145844e-07 5.178784e-07 2.8851387e-12 2.1909196e-08
1.07515255e-11 -7.8265266e-08 -6.2793886e-05 -3.4734993e-09 -3.4682491e-12 -7.1313565e-08 -6.41306e-10 5.494753e-10
-3.518219e-13 -4.3625223e-06 -1.6852665e-12 -2.192747e-09 -1.8592123e-11 3.903318e-11 -3.074117e-12 -6.139807e-05
0.010039405 -0.0020939787 5.59825e-12 -4.263e-42 -2.67719e-06 -2.8035322e-06 -1.9791503e-07 2.714227e-12
6.749538e-09 7.836046e-12 -0.0020404784 -0.003950044 -8.851654e-05 -8.753932e-05 3.296235e-07 6.62408e-05
-1.799957e-09 -6.0785904e-21 6.3433e-41 -3.363194e-08 -0.0025157738 -0.006591923 5.8232385e-05 7.662627e-12
6.052134e-07 -0.002139013 -0.003631671 -8.851654e-05 -8.754456e-05 -1.2896988e-10 -0.3903031 0.23802233
0.18559013 -0.13654977 -0.14700992 -1.5050676e-10 1.0873201e-08 0.21798384 -0.03334527 -9.964797e-13
5.751372e-12 0.00016884884 -0.00013980115 -1.6831782e-09 -8.914981e-12 0.013931592 -1.866685e-09 -2.794067e-12
2.8569697e-05 7.814531e-14 -0.00049498986 -4.139836e-10 -4.42931e-13 -2.8470288e-06 1.0800547e-10 7.2124124e-07
4.507915e-11 1.2627147e-13 1.6165616e-12 1.6770513e-10 3.0944297e-12 -1.0235463e-12 -1.2000211e-07 -6.529005e-09
00000000: a16e c6bb eb0a c33d aafb f43c d445 e13c
00000010: 7cf3 363c 6ae7 a3ac f6b9 5bb9 beef c83c
00000020: 3cc0 8bbc ad85 a5b9 884a 26ae cda0 adb1
00000030: d211 a2b6 8fdd acb1 8c3e 2db2 c33a 4839
00000040: 5439 9435 2e9e 4433 c57d 4f2d 0e38 45b0
00000050: 2fa2 492e 5fa5 002c 3207 ce33 920e 042f
00000060: 3227 93ad f4bc daab 3a64 1237 73a5 17b2
00000070: fa70 0e34 c625 12ac 45ca e22f 5489 c5b1
00000080: 97db 8334 5002 c7ad 97b0 24b2 e6f6 7836
00000090: 3abb 64b9 389f efad e85b 6639 b5e9 baab
000000a0: 4117 8135 0a75 0035 0253 9bb2 ff9f 6a2e
000000b0: 9b0b 1f3f 4b22 523d a590 16bd e559 b8be
000000c0: 076a 7e2d 92bf 7d35 8a91 36ad 304e 16aa
000000d0: 75bc b233 d75b f138 eedd 29be 45f2 97be
000000e0: d599 023f 898c 4d3e 1640 90b7 0800 4436
000000f0: 9043 08ae 0d08 22bc 2953 0a39 33b4 9abc
00000100: 3a58 02be f4f8 cf3e 6dac 772f 3a5c 1133
00000110: 9c49 6fbd 4817 20be c4f5 97be b9dd 023f
00000120: 9b8c 4d3e bf11 ab37 a591 eabc b68b 83bc
00000130: 6400 a1b8 fa05 86b7 d18f b336 d228 a32e
00000140: 9741 cb30 b5b2 763b d273 069f e164 c836
00000150: 6ef1 003a 01f6 1bb5 26a6 5f31 334c 54b3
00000160: aca1 3930 e809 1091 0a84 752f 1b0d dab0
00000170: 448f 1faf f9f3 392b dcf6 de2e 8e49 f331
00000180: 7b85 bbb1 0f07 beaa 5794 80ac 7e54 e6b9
00000190: 5889 39b9 0ca2 d52b ce03 c9b5 c3cb 2a34
000001a0: f249 39b6 b042 0e32 b2df dd36 c1a6 c636
000001b0: 270f 2db3 5e7d b2b4 77e3 9d29 2f3a b238
000001c0: c84d 9eae b344 aab6 7f94 53b9 de07 92ac
000001d0: 1ce8 d4aa 2c01 1f32 caa0 50bb 9707 a1bd
000001e0: 0e85 e739 03ca 7439 ae6b 97b0 c690 78b3
000001f0: 95e2 e22d 6afd 8533 1a0d f2a9 ada9 ceb4
00000200: b213 6fbd acf5 d93b f7a9 4aba 3b2a a9b3
00000210: f2ec bb30 ca6d 0838 8228 77b3 91fd 981e
00000220: 9243 0000 550a 1f2d 6488 1fbd 43fb 11bb
00000230: d8b8 50af 48b4 8dae dec6 ca3a cfb5 6cbd
00000240: f71a c83b f7a9 4aba 3b2a a9b3 56a3 1837
00000250: 6fa4 07bc 2da8 b93a 5f5e 48bb bdc7 64a4
00000260: 9b6a 429e 99fc dbb4 832f 0000 4332 3fb5
00000270: 874d d289 2b8d 6738 94f3 72aa 1f09 3537
00000280: e9a9 912b d48d 9baf cc5a 2fb5 5a0c 0080
00000290: 03c0 9237 51cb 4eaf a8a5 0aad 1cff d235
000002a0: 74a6 3336 0acb e837 4f2f f631 9fa9 d42e
000002b0: 8515 1c35 5504 0b35 0a06 4b2c d532 bc32
000002c0: 9124 3d2d c912 a8b3 36b0 83b8 72b2 6eb1
000002d0: 6c0e 74ac 0c25 99b3 e647 30b0 e309 1730
000002e0: e10e c6aa c861 92b6 202e edab 37af 16b1
000002f0: bd89 a3ad 74ab 2b2e 5e52 58ac d6c2 80b8
00000300: 517c 243c 223b 09bb 8ef8 c42c e20b 0080
00000310: c6a9 33b6 5124 3cb6 7882 54b4 2bff 3e2c
00000320: 90e9 e731 6ada 092d 8cb9 05bb 5f6f 81bb
00000330: f5a1 b9b8 5195 b7b8 1cf7 b034 c2ea 8a38
00000340: 5b62 f7b0 85a4 e59d d3b0 0000 b672 10b3
00000350: aedf 24bb 0f01 d8bb 8c3e 7438 67cd 062d
00000360: f375 2235 af2e 0cbb 5401 6ebb f5a1 b9b8
00000370: 2198 b7b8 cbcd 0daf cfd5 c7be 20bc 733e
00000380: 570b 3e3e b4d3 0bbe c589 16be e37b 25af
00000390: d8cc 3a32 2837 5f3e 0d95 08bd f73d 8cab
000003a0: c15b ca2c 040d 3139 9697 12b9 9155 e7b0
000003b0: 81d5 1cad 5541 643c 1247 00b1 709d 44ac
000003c0: f5a8 ef37 b4f7 af29 35c2 01ba 0397 e3af
000003d0: 1659 f9aa 950f 3fb6 ad81 ed2e 529b 4135
000003e0: 9c42 462e 462b 0e2a c582 e32b cc64 382f
000003f0: 4ac0 592c 240d 90ab eed9 00b4 bc55 e0b1

gnn.project_node_feats.0.bias f4 [32]
0.14722173 -0.054968365 -0.01415545 0.0070423903 -0.05183791 0.07230398 -6.880545e-17 0.11520232
-0.09393749 -0.032458894 0.05531729 -0.005911917 -0.0039801807 -2.2838073e-11 0.21223933 -0.0020998807
0.19206133 -2.0727415e-24 -0.0012819053 0.17350063 -0.06507302 0.20148093 -0.00078397343 -0.005808202
-1.636143e-14 -0.10212973 -5.87461e-09 0.10780786 0.080236994 0.057084892 -0.1150707 -0.018495992
00000000: 4bc1 163e 8226 61bd 43ec 67bc dac3 e63b
00000010: fd53 54bd 1c14 943d 92a7 9ea4 32ef eb3d
00000020: 4c62 c0bd 9ef3 04bd 6294 623d c1b8 c1bb
00000030: 2d6c 82bb c5e2 c8ad 4455 593e 279e 09bb
00000040: baab 443e e05e 2098 9b05 a8ba 26aa 313e
00000050: 0145 85bd 0451 4e3e 9183 4dba bb52 bebb
00000060: e45e 93a8 6429 d1bd 9ed9 c9b1 5eca dc3d
00000070: 4b53 a43d d9d1 693d 30aa ebbd e884 97bc

gnn.gnn_layer.bias f4 [32]
-0.1991219 -0.0763957 -0.34275958 -0.33444577 0.32778862 -0.17716774 -0.0066793524 -0.033615336
-0.0005437606 -0.23097065 -0.09341715 0.0024797376 -0.09954926 -0.0018163403 -0.00204987 -0.013376958
-0.26288477 -0.09764173 0.021437628 -0.06807885 -0.07523836 -0.07115684 -0.08196958 -0.13240296
-0.117348425 -0.13561524 -0.18210557 -0.0028212706 -0.05181647 -0.09848481 -0.25649047 -0.12587145
00000000: 9de6 4bbe 5975 9cbd 2f7e afbe 7a3c abbe
00000010: e9d3 a73e 766b 35be 78de dabb 3cb0 09bd
00000020: 288b 0eba 9283 6cbe 7e51 bfbd 1883 223b
00000030: 7ce0 cbbd 4412 eeba 1d57 06bb 072b 5bbc
00000040: d598 86be 63f8 c7bd f79d af3c ed6c 8bbd
00000050: 9216 9abd adba 91bd abdf a7bd a494 07be
00000060: 5f54 f0bd b9de 0abe e279 3abe 11e5 38bb
00000070: 823d 54bd 67b2 c9bd b852 83be 72e4 00be

gnn.gnn_layer.edge_func.0.weight f4 [64, 13]
-1.5046522e-18 1.1456e-41 -4.337e-42 -2.6726632e-25 -7.6123986e-23 -1.6251685e-20 -2.4496381e-14 5.9375134e-06
4.3793066e-11 2.1328871e-07 2.677793e-07 7.5565686e-11 5.148e-42 -3.53e-42 2.6755624e-29 6.261e-42
1.0996e-41 -8.359e-42 -7.766e-42 -3.0470267e-24 9.088655e-08 -7.228961e-05 -3.9283355e-12 -0.00013104969
1.2699096e-09 -2.9688415e-21 -3.3129838e-06 -7.160313e-11 4.10587e-19 -7.09304e-18 -9.070221e-06 -4.8360698e-17
-0.00025868544 -1.0764486e-08 -5.9325794e-11 -1.0707149e-12 -5.00632e-13 0.00010737162 -8.129254e-09 1.1354515e-33
9.099e-42 3.9e-42 -8.17e-43 6.749e-42 -8.422e-42 -2.1710671e-28 2.3911656e-12 3.7009688e-08
-2.5576236e-11 9.14169e-09 1.8801372e-10 7.05e-43 -8.78018e-07 5.106646e-10 3.92e-42 -4.3765303e-06
-0.0002488343 -2.3839717e-05 -0.00047952065 9.440054e-13 -1.1953909e-10 9.072418e-07 -2.7221148e-07 1.1092229e-05
-0.004945136 -2.4642922e-15 -6.475e-42 -1.2019e-41 -1.1582182e-25 -5.0121475e-18 -2.3646409e-14 -6.546386e-10
-6.608885e-13 -2.7693491e-13 -6.126787e-10 -6.2600336e-10 5.329498e-09 -5.9950065e-23 -0.0014839049 5.2569646e-21
-0.0005013734 -0.001438436 -0.014158277 -0.0035454377 -0.017846223 5.4787583e-06 -6.012712e-08 4.177223e-12
2.9945788e-06 7.498237e-10 -0.00044590127 1.0305e-41 -1.5404e-41 1.7979e-41 5.825e-42 1.0225e-41
-5.056e-42 9.792e-42 -1.2838015e-05 3.3874438e-11 0.00013184192 -1.9771673e-12 5.3923115e-09 3.26e-42
-2.5145613e-10 -1.4459472e-36 -2.059e-42 -3.866883e-13 -1.9730649e-10 -3.290831e-08 -3.1894174e-07 -2.7394594e-11
-1.7012173e-11 -5.6943268e-08 -1.111542e-08 4.5450874e-05 -0.00030701645 -4.0122396e-20 3.334e-42 8.8966414e-23
-5.939523e-08 9.709722e-08 -7.597781e-08 -6.281989e-07 5.658342e-11 9.7655575e-06 -2.2381306e-05 -4.4169386e-08
1.6811406e-08 3.2580403e-23 5.011072e-06 -0.0002889741 -0.0001382101 -4.7939495e-05 -0.00034833522 -2.7762377e-05
-0.0001096001 -7.3635056e-05 -1.6913686e-10 2.2363874e-08 -1.4455477e-06 -3.9463086e-09 -1.2301932e-05 -0.018432446
-0.0001810554 0.009742322 -0.05126508 -0.046448845 -0.058240976 -0.038260728 5.0902282e-11 4.919972e-09
4.4331455e-07 3.242944e-05 -6.455816e-08 0.0051868777 0.68837965 -0.00033826113 0.25103807 -0.092469394
0.54717064 -1.3910555 0.47510484 3.088731e-11 3.390499e-05 -7.508977e-09 0.000117475895 -0.0005301949
-0.3015039 -1.3302172e-15 1.117674e-37 -4.47e-42 -1.1763569e-13 -2.234732e-11 -4.5808387e-12 -8.7011365e-10
-4.469865e-05 -1.682325e-11 7.73521e-09 4.7790873e-13 5.833056e-12 -9.362e-42 -6.663e-42 1.9e-43
-7.137e-42 -1.31e-42 2.402e-42 -5.32e-42 -4.648e-42 -1.2634155e-10 1.1851616e-06 5.4627693e-05
7.375e-07 0.00056896236 8.34e-42 -0.013262405 0.0036138839 0.00010243121 -0.00901811 -0.006758157
-0.020190297 -0.01772905 3.2646064e-08 -2.3073918e-08 1.824195e-05 -1.8014698e-07 -6.837314e-11 0.0007158248
-0.00016556885 -1.4745187e-12 4.54e-42 -2.441904e-37 -3.234822e-10 -5.3186173e-05 -0.0008110826 1.2478247e-07
-2.968807e-10 1.9120778e-11 8.6748963e-07 9.300011e-07 -7.5679935e-05 -0.036112726 -3.6936246e-05 -7.1196365e-38
-0.0029380291 -0.05589987 -0.010653566 -0.030419555 -8.107869e-12 7.652243e-06 1.81297e-08 -2.406562e-10
-8.891489e-06 -0.043537598 -2.587e-42 5.361e-42 -1.1372e-41 9.029e-42 -1.0777e-41 -7.165e-42
5.12e-42 6.7261516e-09 7.2344804e-08 -4.047381e-06 -1.0220297e-08 -2.0154822e-11 -6.534e-42 -0.0071630036
0.09010078 -1.13157185e-10 -0.003479179 -0.05090951 0.0013458427 -0.027962316 1.0377334e-08 -2.2116848e-12
00000000: 270c dea1 ef1f 0000 170c 0080 0a6e a596
00000010: 770e b89a 2a7e 999e cfa4 dca8 da3a c736
00000020: 9c9a 402e 5b04 6534 4fc3 8f34 b32b a62e
00000030: 5a0e 0000 d709 0080 c9aa 0710 7411 0000
00000040: a71e 0000 4d17 0080 a615 0080 95c0 6b98
00000050: 692d c333 309a 97b8 4d37 8aac 626a 09b9
00000060: f988 ae30 bf51 609d a154 5eb6 fb74 9dae
00000070: 275e f220 efd7 02a3 4d2c 18b7 3c06 5fa4
00000080: 2ca0 87b9 b6ee 38b2 7475 82ae 92b0 96ab
00000090: 56ea 0cab b32c e138 d6a8 0bb2 c4a8 bc08
000000a0: 5d19 0000 df0a 0000 4702 0080 d012 0000
000000b0: 7a17 0080 949b 8991 6943 282c 95f4 1e33
000000c0: 90f8 e0ad 940d 1d32 28b9 4e2f f701 0000
000000d0: f0b0 6bb5 d45e 0c30 ed0a 0000 1cda 92b6
000000e0: f975 82b9 67fb c7b7 2c68 fbb9 61db 842b
000000f0: 436f 03af 2f89 7335 7624 92b4 c318 3a37
00000100: cf0a a2bb 2b92 31a7 0d12 0080 8121 0080
00000110: 6661 0f96 65ea b8a2 e8fc d4a8 19f2 33b0
00000120: 0906 3aab 87e6 9baa 6e69 28b0 1213 2cb0
00000130: c31e b731 4bf3 909a 967f c2ba 3e9a c61d
00000140: 996e 03ba e789 bcba 1ef8 67bc 935a 68bb
00000150: 3e32 92bc 2dd6 b736 3c1f 81b3 14f9 922c
00000160: 79f6 4836 271c 4e30 dbc7 e9b9 ba1c 0000
00000170: f12a 0080 1e32 0000 3d10 0000 811c 0000
00000180: 180e 0080 4c1b 0000 db62 57b7 3afb 142e
00000190: 0c3f 0a39 7b21 0bac 4647 b931 1609 0000
000001a0: 4e3d 8aaf e203 f683 bd05 0080 a8af d9aa
000001b0: d7f0 58af 1257 0db3 053b abb4 24f7 f0ad
000001c0: 02a4 95ad c991 74b3 22f6 3eb2 81a2 3e38
000001d0: 0df7 a0b9 0079 3d9f 4b09 0000 8b1b d71a
000001e0: bf19 7fb3 c383 d033 3e29 a3b3 80a1 28b5
000001f0: 44db 782e c0d6 2337 7dbf bbb7 c1b4 3db3
00000200: ac68 9032 968c 1d1a c824 a836 7281 97b9
00000210: 7eec 10b9 a412 49b8 c3a0 b6b9 40e3 e8b7
00000220: 1bd9 e5b8 856c 9ab8 cbf7 39af ae1a c032
00000230: a404 c2b5 1998 87b1 6564 4eb7 a4ff 96bc
00000240: b0d9 3db9 439e 1f3c 55fb 51bd 2541 3ebd
00000250: 178e 6ebd 48b7 1cbd e0de 5f2e 880c a931
00000260: b000 ee34 d904 0838 39a3 8ab3 aff6 a93b
00000270: a639 303f a458 b1b9 1088 803e 9860 bdbd
00000280: 6013 0c3f 1b0e b2bf f140 f33e 05d8 072e
00000290: 3535 0e38 d500 01b2 645d f638 c7fc 0aba
000002a0: b85e 9abe 5ab4 bfa6 4121 1802 760c 0080
000002b0: 2e72 04aa b191 c4ad 872c a1ac ce2c 6fb0
000002c0: cf7a 3bb8 97fa 93ad d0e3 0432 f484 062b
000002d0: 7f3b cd2c 191a 0080 9312 0080 8800 0000
000002e0: e513 0080 a703 0080 b206 0000 d40e 0080
000002f0: f50c 0080 fce9 0aaf d811 9f35 0a20 6538
00000300: 9df8 4535 6b26 153a 4017 0000 8f4a 59bc
00000310: e9d6 6c3b 56d0 d638 b2c0 13bc 8873 ddbb
00000320: 1f66 a5bc 833c 91bc ba36 0c33 1534 c6b2
00000330: 4a06 9937 6d6e 41b4 a85a 96ae 30a6 3b3a
00000340: 8d9c 2db9 2385 cfab a80c 0000 f82f a682
00000350: 13d6 b1af 3814 5fb8 d59e 54ba f2fb 0534
00000360: 3e36 a3af 2a30 a82d 6fdd 6835 30a5 7935
00000370: 5bb6 9eb8 f0ea 13bd feeb 1ab8 a0d0 c181
00000380: f38b 40bb 43f7 64bd 4b8c 2ebc 6e32 f9bc
00000390: 99a2 0ead 2262 0037 a2bb 9b32 594d 84af
000003a0: a82c 15b7 7b54 32bd 3607 0080 f20e 0000
000003b0: b31f 0080 2b19 0000 0b1e 0080 f913 0080
000003c0: 460e 0000 db1b e731 fa5b 9b33 bdce 87b6
000003d0: 5795 2fb2 a048 b1ad 3712 0080 a1b7 eabb
000003e0: c286 b83d d5d5 f8ae f002 64bb 7e86 50bd
000003f0: fd66 b03a 3a11 e5bc ff47 3232 2ca2 1bac

gnn.gnn_layer.edge_func.0.bias f4 [64]
-3.7888486e-13 -3.428097e-14 -0.0017094446 -5.0889694e-21 -0.01498529 -1.7827394e-07 -0.028167393 -8.597286e-27
-0.0039784387 -9.686165e-05 -7.918865e-05 -0.025136724 0.2123937 -1.9976867e-09 -5.9391294e-32 -0.017816715
-0.0055702813 -0.056131046 -3.96445e-31 -0.042802088 -0.018122047 -3.9096518e-05 -1.0973686e-12 -1.2909794e-05
-9.497393e-06 -0.01756573 -4.6236706e-05 -1.0994561e-18 -4.238172e-08 0.061867714 -2.8959354e-11 -0.006963886
-1.7824243e-08 -0.043089353 -2.1545304e-06 -0.0002534058 -4.025676e-06 -0.029817516 -0.011641306 -0.09496935
0.13570838 -0.0030739452 -0.0807122 -2.5887276e-08 -1.4302149e-06 -1.498925e-13 -0.0038214084 -2.6912444e-16
-0.017957516 -7.16376e-10 -1.3256742e-16 -9.396346e-16 -1.3733372e-05 0.028532645 -0.018264843 -5.5657142e-21
-0.0071819006 -0.004972693 -0.0074603125 -0.0017322449 -0.0072303023 -1.712884e-11 -0.00050468434 -0.04244515
00000000: 104b d5aa 4463 1aa9 710f e0ba 7e41 c09d
00000010: dd84 75bc 916b 3fb4 4ebf e6bc 6b49 2a94
00000020: 905d 82bb 3422 cbb8 1512 a6b8 88eb cdbc
00000030: bc7d 593e ad47 09b1 4930 9a8b 5cf4 91bc
00000040: e886 b6bb abe9 65bd 5da7 008d 3e51 2fbd
00000050: b074 94bc 91fb 23b8 df70 9aab 2597 58b7
00000060: fe56 1fb7 01e6 8fbc 49ee 41b8 4740 a2a1
00000070: 3207 36b3 0069 7d3d abba fead 4f31 e4bb
00000080: ed1b 99b2 767e 30bd 8d96 10b6 8ddb 84b9
00000090: 4b14 87b6 dd43 f4bc 2dbb 3ebc 4a7f c2bd
000000a0: 23f7 0a3e 3e74 49bb 704c a5bd b95e deb2
000000b0: cff5 bfb5 92c3 28aa 9870 7abb c223 9ba5
000000c0: a41b 93bc 7bea 44b0 ffd6 18a5 666a 87a6
000000d0: 6268 66b7 4bbd e93c 27a0 95bc 4944 d29d
000000e0: 2656 ebbb f9f1 a2bb a375 f4bb 7e0c e3ba
000000f0: 2cec ecbb b8aa 96ad cb4c 04ba f7da 2dbd

gnn.gnn_layer.edge_func.2.weight f4 [1024, 64]
-6.3784e-41 1.24406e-40 3.543436e-07 1.684e-42 -5.2675e-41 -1.485383e-08 -3.4681288e-35 -7.17e-43
-5.647e-42 -7.935476e-30 -9.0521644e-07 4.6397755e-19 -0.06449964 3.9004e-41 -1.3872768e-14 0.0004183861
-1.8443621e-24 -4.685255e-38 2.605259e-10 -0.00055625365 -2.395e-41 -9.1484e-41 1.9800443e-15 9.158012e-06
-3.578252e-14 5.747e-42 5.238e-41 -5.7714e-41 -5.074e-42 -0.05421296 5.0492e-41 -2.3573576e-38
1.22769e-40 3.3316e-41 -9.635058e-37 7.982e-42 1.6765e-41 -1.3762e-41 -1.37e-41 -1.6937784e-05
-0.08570466 1.922e-41 0.01539591 1.0703e-41 1.4065e-41 -3.0233e-41 1.2539745e-32 -2.8761688e-13
-2.7536e-41 1.6158762e-21 1.034e-41 1.8652527e-12 1.9543e-41 -0.044396814 -6.2331e-41 -1.1627728e-10
-6.589e-41 -2.3674e-41 -4.4578742e-17 2.277e-41 1.36017e-40 1.2045792e-08 1.9687945e-05 -3.955653e-05
1.4318828e-14 -4.191261e-07 9.737233e-14 -8.086762e-15 3.0192e-41 5.0710586e-08 1.9129229e-35 -5.0252e-41
-1.188e-41 7.263787e-29 1.8267201e-05 -3.323875e-17 -0.019396275 2.2942e-41 1.4812866e-05 -0.00013072614
1.9564455e-21 4.0864374e-38 -6.6529475e-09 9.1482114e-05 -3.1026e-41 3.4008e-41 -2.07834e-40 -4.0446e-41
4.7997e-41 6.034e-42 4.0049e-41 -4.0063e-41 -2.9366848e-22 -0.009604147 -7.54293e-09 1.2994661e-37
-3.7991505e-14 -1.3127e-41 1.17338e-40 -4.4008e-41 3.530747e-08 -3.2144e-41 -3.5042e-41 1.2286904e-06
-0.034233615 -2.2101e-41 0.003608415 -8.8234816e-35 -6.3173e-41 -7.851882e-17 -8.2692464e-33 1.1722286e-11
-4.4333e-41 2.7022872e-12 -1.02972e-40 -3.1673563e-11 2.458e-41 -0.016331844 -2.6731e-41 1.004905e-05
1.1926e-41 -3.3236e-41 -5.574959e-16 8.235e-42 -1.5833e-41 -2.4222868e-06 -9.457e-42 1.0842238e-08
1.2683e-41 1.7411e-41 1.6908964e-16 1.1185e-41 -1.1988e-41 1.1894e-41 2.8348997e-14 -1.5676e-41
3.474e-42 1.2114266e-26 8.406595e-05 0.009587752 -0.011631358 -9.407e-42 1.0861e-41 0.0021341334
1.1098294e-16 2.849985e-06 3.276e-42 -0.0004008451 -5.6412557e-13 -2.598e-42 1.1966e-41 2.11e-42
-2.5255e-40 -1.4800465e-30 -1.07e-41 1.0131e-41 1.2742e-41 0.00967643 -9.459e-42 2.3371464e-14
-4.327e-42 -1.447698e-17 -3.863e-42 -2.713e-42 1.81e-42 2.2234279e-13 -2.0811564e-20 0.00014322698
-0.011185661 1.1975979e-31 0.05660942 -1.3595e-41 6.54e-42 -5.451e-42 -2.0105533e-31 -3.236e-42
1.2107443e-16 -3.425e-42 -2.032e-41 1.2278e-41 -5.297e-42 0.059545476 -1.0692e-41 1.7572e-41
4.6757472e-15 1.447146e-12 -2.6106858e-14 1.599e-42 7.214391e-18 -6.4076255e-15 -9.7259e-41 0.00013122184
-7.539e-42 -1.3492e-41 4.8192658e-17 -2.546e-42 5.373e-42 1.637e-42 3.5933674e-25 -1.8133e-41
7.026e-42 8.045558e-27 -0.00017246761 0.00022161074 -0.4939045 2.042e-42 1.5437e-41 0.004921104
-6.520738e-17 -2.76205e-07 2.5244e-41 7.299668e-05 1.3024727e-10 -9.35e-43 -1.1514e-41 -1.0866e-41
-5.86982e-40 -1.14354325e-11 -1.038e-41 -1.6425e-41 -2.703e-42 -0.19338574 7.763e-42 -1.7931306e-16
1.1346e-41 -8.746025e-14 -1.0738e-41 5.99e-42 1.0657e-41 2.8847563e-07 -9.9752286e-27 -0.0062457435
-0.6299193 -2.0533327e-21 0.03850627 3.296e-42 1.8597e-41 8.213e-42 -5.143994e-20 1.482e-41
1.2394551e-09 9.427e-42 1.532e-41 1.1208e-41 4.05e-43 -0.12208324 -7.063e-42 2.871e-42
4.220647e-39 -9.552952e-17 4.5645985e-14 5.6e-43 3.0877606e-22 1.5754858e-15 5.633e-42 -0.00014313609
00000000: ceb1 0080 cb5a 0100 9d3c be34 b204 0000
00000010: d692 0080 d62f 7fb2 b965 3886 0002 0080
00000020: be0f 0080 59f3 208f 00fe 72b5 27f1 0821
00000030: 6318 84bd ba6c 0000 dae8 79a8 d55a db39
00000040: 5bb3 0e98 ec16 7f81 c339 8f2f 8dd1 11ba
00000050: c342 0080 05ff 0080 5fad 0e27 5da5 1937
00000060: 7026 21a9 0510 0000 0492 0000 e2a0 0080
00000070: 250e 0080 690e 5ebd c08c 0000 c558 0081
00000080: 3b56 0100 df5c 0000 99ee a383 4016 0000
00000090: bc2e 0000 5d26 0080 3126 0080 9d15 8eb7
000000a0: ed85 afbd 9435 0000 203f 7c3c d61d 0000
000000b0: 3527 0000 4754 0080 5c38 820a f6e9 a1aa
000000c0: c24c 0080 2f2f f41c d31c 0000 6841 032c
000000d0: 7a36 0000 6fd9 35bd c1ad 0080 4ab2 ffae
000000e0: adb7 0080 fe41 0080 4a95 4da4 793f 0000
000000f0: 297b 0100 f4f1 4e32 8a27 a537 80e9 25b8
00000100: f8f8 8028 4104 e1b4 5443 db29 9bad 11a8
00000110: 2a54 0000 e1cc 5933 b76a cb05 158c 0080
00000120: 1e21 0080 ac28 b810 843c 9937 6449 19a4
00000130: f0e4 9ebc f43f 0000 c684 7837 8813 09b9
00000140: 29d3 131d a07c 5e01 f297 e4b1 16da bf38
00000150: 7d56 0080 cd5e 0000 5b43 0280 bf70 0080
00000160: cc85 0000 d210 0000 a46f 0000 ae6f 0080
00000170: ff82 b19b b65a 1dbc 2896 01b2 c9df 3002
00000180: 3919 2ba9 9824 0080 1747 0100 ad7a 0080
00000190: f9a4 1733 9b59 0080 af61 0080 7be9 a435
000001a0: 8c38 0cbd 9c3d 0080 287b 6c3b 8191 ea86
000001b0: 1ab0 0080 550d b5a4 dbbe 2b8a 7c38 4e2d
000001c0: 957b 0080 1428 3e2c 0b1f 0180 434d 0bae
000001d0: 8544 0000 5cca 85bc 844a 0080 5798 2837
000001e0: 3f21 0000 a65c 0080 f0af 20a6 f516 0000
000001f0: 232c 0080 928e 22b6 5d1a 0080 ab44 3a32
00000200: 5b23 0000 8930 0000 74f2 4225 2e1f 0000
00000210: 6b21 0080 2821 0000 5658 ff28 b32b 0080
00000220: af09 0000 a0f2 6f14 904c b038 f215 1d3c
00000230: 7491 3ebc 391a 0080 471e 0000 d1dc 0b3b
00000240: c4e8 ff24 5f42 3f36 2209 0000 8528 d2b9
00000250: 88c9 1eab 3e07 0080 5b21 0000 e205 0000
00000260: 02c0 0280 ba26 f08d d41d 0080 3e1c 0000
00000270: 8523 0000 e489 1e3c 5e1a 0080 ed82 d228
00000280: 100c 0080 cd86 85a3 c50a 0080 9007 0080
00000290: 0c05 0000 f255 7a2a 468f c49e 332f 1639
000002a0: 1044 37bc 0475 1b0c 47df 673d e625 0080
000002b0: 3b12 0000 320f 0080 0c7e 828c 0509 0080
000002c0: dd96 0b25 8c09 0080 a538 0080 3a22 0000
000002d0: c40e 0080 f5e5 733d ce1d 0080 fc30 0000
000002e0: 2876 a827 eeaa cb2b 5126 eba8 7504 0000
000002f0: 0015 0523 eadb e6a7 1e0f 0180 9898 0939
00000300: 0415 0080 9c25 0080 d93f 5e24 1907 0080
00000310: fa0e 0000 9004 0000 2e6b de16 8c32 0080
00000320: 9613 0000 d35b 1f14 6cd8 34b9 2e60 6839
00000330: 0de1 fcbe b105 0000 082b 0000 3641 a13b
00000340: a55b 96a4 5349 94b4 5f46 0000 cb15 9938
00000350: 5935 0f2f 9b02 0080 1920 0080 4a1e 0080
00000360: 4464 0680 9c2c 49ad ef1c 0080 c92d 0080
00000370: 8907 0080 e906 46be a415 0000 e0bb 4ea5
00000380: a11f 0000 67f1 c4a9 ef1d 0080 b310 0000
00000390: b51d 0000 cadf 9a34 6b94 4594 18a9 ccbb
000003a0: 6442 21bf 3b25 1b9d c0b8 1d3d 3009 0000
000003b0: d733 0000 e516 0000 12eb 729f 5029 0000
000003c0: 7359 aa30 471a 0000 b52a 0000 3e1f 0000
000003d0: 2101 0000 c706 fabd b013 0080 0108 0000
000003e0: 72f5 2d00 ad46 dca4 3d92 4d29 9001 0000
000003f0: c8a4 ba1b 2b0d e326 b40f 0000 cd16 16b9

gnn.gnn_layer.edge_func.2.bias f4 [1024]
-0.08485845 -0.05257856 -0.20397376 -0.903499 -0.09755591 -0.17020015 -0.0030167862 -0.0192765
-0.00029275558 0.012129294 -0.029554939 0.1953922 -0.15751913 -0.0018367291 -0.0013980286 -0.012443066
-0.4545255 -0.03645747 -0.13343953 -0.017898008 -0.019410526 -0.0017164404 -0.06412935 -0.008520226
-0.06523557 -0.062662944 -0.045177337 -0.0010650816 -0.08465233 -0.052874807 0.10602683 -0.25755206
-0.08342861 0.010728682 0.1278325 0.1301896 0.034826323 -0.076023534 -0.0017291998 0.0037284428
6.617735e-05 0.024826732 -0.035329137 0.039139174 -0.09372431 -0.0003978525 0.00076049415 0.0007990787
0.109333396 0.007107096 0.063394345 0.0149228675 0.0066530304 0.00015549573 -0.016041568 0.001529035
-0.012559307 0.0036155845 -0.044234216 -7.176625e-05 0.09217299 -0.014877539 0.03385231 -0.1951497
0.022933915 -0.0041081873 0.092178926 -0.0054339054 -0.10798541 0.10197194 0.0002912942 0.0032380186
1.7506158e-05 0.053395133 0.0069496543 0.014441431 -0.0069685522 0.00025975492 -0.0003070694 0.0013202082
0.027996141 0.004814934 -0.07940325 0.0039920495 0.00794735 -0.0031340425 0.034221843 0.019215586
-0.028164828 0.027769288 -0.0005458449 0.00024983785 0.0046509015 -0.006698111 -0.08258428 0.019619625
-0.15035142 -0.029302778 -0.3791064 -0.2770004 0.09187848 -0.064213075 -0.0056978385 -0.032127764
-0.00045138708 -0.20381546 -0.06860636 -0.07197387 -0.03623609 -0.0021583203 -0.004100513 -0.007435405
-0.34469256 -0.052207924 0.07828198 -0.06810826 -0.08315938 -0.06271485 0.023549527 -0.12444752
-0.12560228 -0.11515397 -0.08742763 -0.0028526546 0.0068674376 0.022052275 -0.23830743 -0.21141222
-0.017367097 0.02447134 0.17594068 0.12519795 0.030066935 0.044199113 0.0005847842 0.0064291274
5.3925687e-05 0.05427327 -0.020998541 -0.032717157 -0.032907188 6.0970382e-05 0.00095330615 0.0010665907
0.07897832 0.015213158 0.018655926 0.007969998 0.0032015932 0.005420113 0.0029629408 0.020633671
-0.07454712 0.017182395 -0.025698533 0.00073822925 -0.04316928 0.034304995 0.026144432 -0.015264824
-0.17575793 -0.047663063 0.28933996 -0.14958252 -0.13985103 0.5286197 -0.009335498 -0.039947625
-0.0016276845 -0.22161 -0.10137457 -0.34692308 -0.3532456 -0.0051939953 -0.008604137 -0.021195747
-0.429277 -0.090489775 -0.17794731 -0.07267723 -0.11131561 -0.06975333 -0.05523782 -0.11222761
-0.19717216 -0.10887622 -0.14547281 -0.004980812 -0.13399015 -0.012807464 -0.09553499 -0.24522696
0.011844949 -0.0019315982 -0.0024562906 0.03669149 0.037634037 -0.023102779 0.00012680171 0.0035395802
-5.6458634e-06 -0.0025643378 -0.009465541 0.014333751 0.032672815 -0.00082910905 -4.05081e-05 -0.00026763327
0.02138744 0.003536692 -0.0014281055 -0.00031375684 -0.007172375 0.0011091899 -0.007510599 -0.004973958
-0.0100689465 -0.0006413684 -0.019439714 -0.0001068213 -0.019965965 0.003741362 0.0067068464 0.006754505
-0.0012432283 0.009994196 -0.3924694 -0.5614008 -0.13768369 0.29664302 -0.0007330429 0.00703878
0.000113928516 0.06123191 0.06538203 0.6172664 -0.082529366 -0.00040043646 0.0018534344 0.005295161
-0.16336066 0.016931046 0.04310889 0.016036851 0.058454875 0.02015972 0.062839046 0.036226943
0.031673472 -0.01021294 0.091815874 5.444137e-05 -0.059870906 0.020670496 -0.25021788 -0.1802855
00000000: 44ca adbd 9e5c 57bd 7fde 50be b64b 67bf
00000010: 65cb c7bd f348 2ebe 46b5 45bb c0e9 9dbc
00000020: fd7c 99b9 f2b9 463c 331d f2bc e514 483e
00000030: b24c 21be 67be f0ba 0e3e b7ba 00de 4bbc
00000040: 91b7 e8be 6e54 15bd 5fa4 08be d89e 92bc
00000050: d302 9fbc 2ffa e0ba 4056 83bd 6b98 0bbc
00000060: 3a9a 85bd 6e55 80bd df0b 39bd 359a 8bba
00000070: 335e adbd 4193 58bd 9824 d93d dddd 83be
00000080: 9edc aabd 5bc7 2f3c 86e6 023e 6c50 053e
00000090: 0ca6 0e3d 3ab2 9bbd 51a6 e2ba e458 743b
000000a0: b2c8 8a38 6e61 cb3c 49b5 10bd 6650 203d
000000b0: 88f2 bfbd dc96 d0b9 e65b 473a 4479 513a
000000c0: 30ea df3d a4e2 e83b e5d4 813d 0b7f 743c
000000d0: aa01 da3b 910c 2339 9b69 83bc e769 c83a
000000e0: 8dc5 4dbc 71f3 6c3b f02e 35bd 3681 96b8
000000f0: 31c5 bc3d ecc0 73bc b8a8 0a3d 53d5 47be
00000100: e8df bb3c f99d 86bb 4ec8 bc3d e70e b2bb
00000110: 7427 ddbd aad6 d03d d9b8 9839 f034 543b
00000120: 30da 9237 dbb4 5a3d edb9 e33b c09b 6c3c
00000130: 7458 e4bb b72f 8839 28fe a0b9 d60a ad3a
00000140: 2a58 e53c 98c6 9d3b 2c9e a2bd bdcf 823b
00000150: 9a35 023c 8264 4dbb 342c 0c3d 016a 9d3c
00000160: edb9 e6bc 6b7c e33c 0817 0fba abfc 8239
00000170: 9766 983b d47b dbbb f221 a9bd 56b9 a03c
00000180: b9f5 19be 610c f0bc 3c1a c2be ffd2 8dbe
00000190: c92a bc3d 2582 83bd efb4 babb 6798 03bd
000001a0: 26a8 ecb9 00b5 50be 7e81 8cbd 0967 93bd
000001b0: 4b6c 14bd 9b72 0dbb 995d 86bb b3a4 f3bb
000001c0: 8b7b b0be fad7 55bd 4d52 a03d 587c 8bbd
000001d0: 774f aabd a570 80bd f0ea c03c 57de febd
000001e0: e29d 00be d8d5 ebbd 420d b3bd 9af3 3abb
000001f0: 3e08 e13b f9a6 b43c dd06 74be 727c 58be
00000200: 7145 8ebc 1f78 c83c cb29 343e e433 003e
00000210: ef4e f63c 210a 353d 344c 193a 6eab d23b
00000220: 442e 6238 a64d 5e3d 2205 acbc 6d02 06bd
00000230: b0c9 06bd 73ba 7f38 4be7 793a d8cc 8b3a
00000240: 63bf a13d 9c40 793c 50d4 983c 9894 023c
00000250: d2d1 513b 349b b13b e62d 423b f207 a93c
00000260: 29ac 98bd 18c2 8c3c bb85 d2bc ba85 413a
00000270: 45d2 30bd 6583 0c3d d92c d63c 5019 7abc
00000280: e3f9 33be 583a 43bd 5e24 943e 292c 19be
00000290: 1c35 0fbe 9f53 073f ebf3 18bc 1fa0 23bd
000002a0: 0758 d5ba bbed 62be 789d cfbd e79f b1be
000002b0: 9bdc b4be 6432 aabb 5ef8 0cbc b4a2 adbc
000002c0: 32ca dbbe b452 b9bd d237 36be cdd7 94bd
000002d0: 70f9 e3bd d5da 8ebd 0d41 62bd 97d7 e5bd
000002e0: 80e7 49be 7ffa debd d3f6 14be 1436 a3bb
000002f0: b734 09be 66d6 51bc d9a7 c3bd c71c 7bbe
00000300: 5111 423c ae2d fdba b8f9 20bb d149 163d
00000310: 2626 1a3d 0a42 bdbc 13f6 0439 4df8 673b
00000320: 9971 bdb6 730e 28bb 5b15 1bbc 1cd8 6a3c
00000330: eed3 053d 9158 59ba 3ee7 29b8 2151 8cb9
00000340: b634 af3c d8c7 673b 452f bbba bb7f a4b9
00000350: 3e06 ebbb 3d62 913a 791b f6bb 95fc a2bb
00000360: 39f8 24bc 8121 28ba 0940 9fbc 4005 e0b8
00000370: aa8f a3bc a331 753b 1bc5 db3b e554 dd3b
00000380: d2f3 a2ba b2be 233c c0f1 c8be f6b7 0fbf
00000390: f4fc 0cbe 98e1 973e ad29 40ba 91a5 e63b
000003a0: e8ec ee38 50ce 7a3d 04e7 853d 2c05 1e3f
000003b0: 2805 a9bd acf1 d1b9 f0ee f23a 0883 ad3b
000003c0: 0448 27be fab2 8a3c f392 303d b75f 833c
000003d0: 616e 6f3d ff25 a53c c2b1 803d b462 143d
000003e0: 0bbc 013d 2d54 27bc f609 bc3d fa57 6438
000003f0: 323b 75bd 2c55 a93c 8f1c 80be c39c 38be

gnn.gru.weight_ih_l0 f4 [96, 32]
0.007931743 0.00038950273 -0.09272592 -0.041053113 -0.078898355 -0.031752937 -0.00019904005 -0.000117281415
-5.8341758e-08 -0.03190418 -0.0011228861 0.00074641797 -0.0032581566 -0.0002620161 7.937206e-05 1.4746143e-05
0.03057652 -0.00018077157 0.030076995 -0.0013532301 -0.010516415 3.8710145e-06 0.0013888152 -0.0044153775
-0.00498814 -0.0040611555 -0.022328619 4.7586447e-05 0.0028916276 -0.002530659 -0.08516413 0.060856014
0.00045817354 -0.00062354276 -0.03204314 -0.018732177 -0.02778796 0.0013079998 -1.4232797e-05 -3.779225e-05
8.279934e-08 0.00072608277 0.0003121949 -0.02330393 -0.014358301 6.658503e-05 0.00015517572 -1.0014967e-05
0.0054734373 -1.0546175e-06 -0.0075414157 -0.0001553261 0.0035066735 -3.762632e-07 -0.0016510417 -0.00046585058
-0.0038384723 -0.0003862127 -0.0067342315 -1.8016683e-06 -0.0021548648 -0.0017455509 -0.021618167 -0.01716496
-0.0010266363 -0.002831105 -0.055110384 -0.05273817 -0.027031219 -0.04739362 -2.324312e-05 -0.00044911983
2.7023782e-06 -0.0014933532 0.00071777607 -0.016572129 -0.0019552095 2.3834873e-05 -9.033452e-05 -2.854604e-05
-0.012162005 0.00028010263 -0.021827184 -0.001666857 -0.0016620571 -2.8149834e-05 -0.00080692436 0.0007126922
-0.000560009 -0.00038166554 -0.00043003465 -2.47576e-05 -0.00466177 -0.0037600787 -0.008658552 -0.038460597
-0.0058415346 2.2332977e-06 -0.05935236 -0.011994507 0.009790635 -0.09873884 1.8251676e-05 -6.835549e-06
-2.5199958e-08 -0.00040158397 0.0008889394 -0.045517273 -0.009700033 2.4654899e-05 0.000108078086 6.8161916e-07
0.009570425 -3.3821656e-05 -0.07208741 0.00029674513 0.001958974 -3.89549e-07 0.0036401232 -2.7616483e-05
0.0007273839 0.00017789612 0.010897125 5.035282e-07 -0.000879651 0.0008040921 0.09863366 -0.013246676
0.00022226223 0.0017602792 0.00041972005 0.0040038954 -0.0022612242 0.0029972917 7.0797028e-06 4.505255e-05
-2.0383003e-07 -0.00030671427 -0.0002517538 -0.014968697 -0.0008991852 7.4445534e-06 -0.00018049187 3.0225794e-06
0.0055324053 1.3548459e-05 -0.0008662646 0.0008160024 -0.00051646156 -6.4834194e-07 0.00024819977 -0.00011099076
0.0010991296 0.00016293536 0.0021510352 5.5227347e-06 0.004591383 -4.4894565e-05 -0.00051337335 -0.004241911
-0.010367661 -0.0013153095 -0.0135827875 0.089076445 -0.0026800241 -0.023284828 -2.6415795e-05 -2.3586346e-05
2.911833e-07 0.005476289 0.0024043866 0.13717805 0.19406572 -0.00035808855 0.0010572324 -1.4038288e-05
0.00599727 7.136283e-06 0.07747426 -0.00038325903 0.014187841 9.580663e-05 -0.0011505978 0.005331341
0.027635267 0.0034982506 -0.032893017 -1.0424462e-05 -0.0039811637 -0.0022843746 0.018678976 0.08412426
0.000968951 1.768359e-05 -0.022671826 -0.020462878 -0.0074150087 -0.020230489 -1.2178963e-05 5.9772997e-06
-3.3594355e-07 0.0001352239 -8.983072e-05 -0.009446535 -0.00030733418 -4.7763002e-05 3.945735e-05 2.7017195e-06
-0.0072242897 0.00015920991 -0.00031074174 9.835397e-05 -0.00011746687 8.7952986e-07 -0.00048527954 0.00013484994
0.0010184292 3.376227e-05 -0.0015326963 4.267149e-06 0.00094967097 0.00030942375 -0.003574561 -0.007205504
0.002796152 0.001445907 -0.052005094 0.0022213846 -0.036901124 -0.113797225 8.0976984e-05 0.00021478528
2.696232e-07 -2.4932819e-05 0.004196198 -0.030240355 -0.027621819 1.6563501e-05 -0.0004920113 -3.3807953e-06
0.007065739 -1.4930438e-05 -0.033572268 -1.6860938e-06 0.0009068435 5.4211178e-08 0.0006237566 -0.00015191235
0.0021888472 0.0002730069 0.039211474 8.009962e-06 0.009969182 0.00035056224 0.013888353 -0.05787625
00000000: 24f4 013c 2c36 cc39 16e7 bdbd 4f27 28bd
00000010: 7695 a1bd 5e0f 02bd 68b5 50b9 fbf4 f5b8
00000020: 7193 7ab3 f5ad 02bd ce2d 93ba 43ab 433a
00000030: cc86 55bb 355f 89b9 8d74 a638 3466 7737
00000040: 9c7b fa3c 808d 3db9 0864 f63c de5e b1ba
00000050: 0b4d 2cbc c3e3 8136 e808 b63a dfae 90bb
00000060: 8d73 a3bb 7113 85bb 82ea b6bc 8f97 4738
00000070: 7681 3d3b 6ad9 25bb 886a aebd 2844 793d
00000080: 0337 f039 3f75 23ba ab3f 03bd 3974 99bc
00000090: 93a3 e3bc 3171 ab3a 66c9 6eb7 1f83 1eb8
000000a0: 6bcf b133 9756 3e3a 17ae a339 e2e7 bebc
000000b0: 143f 6bbc 91a3 8b38 aab6 2239 f505 28b7
000000c0: 855a b33b 628c 8db5 fb1d f7bb 08df 22b9
000000d0: 38d0 653b 3801 cab4 c467 d8ba 683d f4b9
000000e0: e18e 7bbb 977c cab9 d4aa dcbb dad0 f1b5
000000f0: a238 0dbb f8ca e4ba 9518 b1bc 889d 8cbc
00000100: 3390 86ba 0f8a 39bb 6dbb 61bd fb03 58bd
00000110: 9370 ddbc d01f 42bd 38fa c2b7 d877 ebb9
00000120: 815a 3536 9ebc c3ba 2329 3c3a 46c2 87bc
00000130: f922 00bb 00f1 c737 fa71 bdb8 2776 efb7
00000140: 2543 47bc bdda 9239 ecce b2bc 717a daba
00000150: 62d9 d9ba 4f23 ecb7 c787 53ba f7d3 3a3a
00000160: 91cd 12ba 481a c8b9 4676 e1b9 8bae cfb7
00000170: c3c1 98bb a76b 76bb 99dc 0dbc dc88 1dbd
00000180: 586a bfbb c3df 1536 761b 73bd 9c84 44bc
00000190: e668 203c 9737 cabd 2d1b 9937 eb5c e5b6
000001a0: 4b77 d8b2 b08b d2b9 b707 693a 5270 3abd
000001b0: e3ec 1ebc fed1 ce37 fba7 e238 83f8 3635
000001c0: 46cd 1c3c badb 0db8 90a2 93bd 7594 9b39
000001d0: 2162 003b 3523 d1b4 228f 6e3b f2a9 e7b7
000001e0: e8ad 3e3a a089 3a39 db89 323c 322a 0735
000001f0: 6198 66ba b5c9 523a 7200 ca3d 9608 59bc
00000200: 100f 6939 2bb9 e63a df0d dc39 1c33 833b
00000210: 0c31 14bb 366e 443b 2f8e ed36 cff6 3c38
00000220: 5fdc 5ab4 7ece a0b9 d3fd 83b9 443f 75bc
00000230: 4cb7 6bba 3acc f936 6b42 3db9 85d7 4a36
00000240: 2e49 b53b 304e 6337 0916 63ba fee8 553a
00000250: 2663 07ba b809 2eb5 cf20 8239 b6c3 e8b8
00000260: ab10 903a a1d9 2a39 62f8 0c3b ee4f b936
00000270: 5073 963b 2c4d 3cb8 e793 06ba bbff 8abb
00000280: 1fdd 29bc 7766 acba 578a 5ebc b66d b63d
00000290: 58a3 2fbb d3bf bebc 7d97 ddb7 4bdb c5b7
000002a0: ee53 9c34 7172 b33b ea92 1d3b 6778 0c3e
000002b0: 2ab9 463e d5bd bbb9 d592 8a3a fd85 6bb7
000002c0: bf84 c43b 3474 ef36 d3aa 9e3d 28f0 c8b9
000002d0: 1e74 683c cbeb c838 a8cf 96ba 88b2 ae3b
000002e0: 5b63 e23c e842 653b d4ba 06bd b9e4 2eb7
000002f0: 6c74 82bb 72b5 15bb a704 993c 5749 ac3d
00000300: 3301 7e3a 3857 9437 44ba b9bc c4a1 a7bc
00000310: 9af9 f2bb 69ba a5bc 3f54 4cb7 9d90 c836
00000320: bb5b b4b4 e4ca 0d39 8063 bcb8 a4c5 1abc
00000330: b221 a1b9 2255 48b8 027f 2538 304f 3536
00000340: bcb9 ecbb 96f1 2639 0deb a2b9 6343 ce38
00000350: 8c58 f6b8 d518 6c35 1e6d feb9 8166 0d39
00000360: d07c 853a f69b 0d38 c1e4 c8ba 882e 8f36
00000370: 57f3 783a 273a a239 2f43 6abb 261c ecbb
00000380: a53f 373b 9784 bd3a 4b03 55bd a694 113b
00000390: a225 17bd 850e e9bd 30d2 a938 fc37 6139
000003a0: bbc0 9034 d226 d1b7 4380 893b 9fba f7bc
000003b0: 2747 e2bc d9f1 8a37 52fa 00ba 9fe1 62b6
000003c0: b787 e73b be7d 7ab7 1383 09bd be4d e2b5
000003d0: 3db9 6d3a d2d5 6833 9983 233a a94a 1fb9
000003e0: c372 0f3b 5e22 8f39 369c 203d 8662 0637
000003f0: c855 233c abcb b739 f98b 633c a60f 6dbd

gnn.gru.weight_hh_l0 f4 [96, 32]
0.015040326 0.008625337 0.00028131536 -0.03510392 0.004729782 0.07106806 0.010265844 -0.029630573
0.0145109 0.000521869 -0.046882782 -0.018830083 0.008517423 -0.013768148 0.035955932 0.0013069106
-0.08338142 -0.009185139 -0.0021750226 0.06600018 -0.03872889 -0.10383026 -0.009840924 -0.0030447536
-0.016794791 -0.04204176 0.00028677535 -0.0124715045 -0.016010594 -0.030914327 -0.010190561 -0.021310937
0.0011474919 0.010502562 0.003369775 -0.021329816 0.006480499 -0.01312403 0.0024116943 -0.008013392
0.010748292 -0.0013193977 -0.009548777 -0.006042679 0.012451559 0.010989927 0.012414789 0.0006899144
0.007935441 -0.0065271505 -0.0021818215 0.011412143 0.00032187413 -0.0063960436 -0.0071959672 -0.0043411357
-0.016101824 0.00028680734 -0.0013014077 -0.025097365 -0.019870816 0.0042908154 -0.0109184375 -0.0059180316
0.0045287944 0.00049488404 0.007774968 -0.015985351 -0.0035394656 -0.01159849 -0.0016983235 0.0029813766
-0.0075760554 0.0005667401 -0.0038291917 0.004611478 -0.002171556 -0.014096916 -0.012056959 -0.00088553183
-0.0010493542 -0.0014896943 -0.0006485854 -0.0085387975 0.007683711 -0.008066007 0.0005294678 -0.0012620867
-0.0010893159 -0.0069135246 -0.0005205234 -0.0132423695 -0.0086577125 -0.01677902 -0.0015332823 0.0046830564
0.0034510107 -0.00066854403 0.0010559116 -0.008047254 -7.165646e-05 -0.047412526 -0.0021392244 0.0011323241
0.00276539 -6.621433e-05 0.03406395 0.0012928839 0.01023025 0.0028705993 0.0023321898 -0.00020458491
0.03212463 -0.00030721442 -0.0012984129 -0.0138087375 0.008241062 0.025396135 0.0007476873 -0.0005060165
-0.0011908129 0.015064747 3.1555076e-06 -0.0038155308 -0.009349571 -0.00030741707 0.0013485658 0.004659783
-0.0039314376 0.0040417355 -0.00193762 -0.003985778 0.00438986 -0.002025385 -0.00032827206 -0.011802507
-0.0092672305 -0.00052658014 -0.0043245982 -0.0059368233 0.0019547394 0.004026868 0.010997035 9.122618e-07
0.007160831 0.0003888471 7.395692e-05 0.010297114 0.0015091226 -0.0028879968 0.00032445864 -0.00035169622
-0.003034537 0.0011337597 0.00025091728 -0.016108708 -0.013376111 0.0036574008 -0.0045976676 -0.0013023104
0.00326446 -0.02741289 -0.012335879 -0.00041686464 -0.027948748 -0.04933987 -0.0056363586 0.018476047
0.009784813 0.010831412 -0.01464362 -0.0024627915 0.041236605 -0.045818646 0.030782709 -0.013572412
0.105667755 0.00513558 0.0022666636 -0.0133902095 -0.0009121726 0.057541285 -0.0009345299 -0.00016727333
0.030555764 -0.017701467 -0.0043797344 0.055606257 0.044750303 -0.020238865 0.027824026 -0.018016271
9.2335285e-05 -0.0024637638 -0.0043388614 -0.0010332526 -0.0016461494 -0.010777249 -0.0005043923 0.004400576
-0.001910004 -0.0003222007 -0.0049870578 0.0009946632 0.0017987004 -0.0030820922 -0.012474995 0.00033195206
0.0011382088 -0.00044200377 -0.00029244059 -0.009643289 0.0020985128 -0.004164392 -0.0006110836 -0.00034823644
0.0009565487 0.00010382158 -0.0005781188 0.0017973904 0.0018726592 -0.005516606 0.0017558723 -0.0022130695
-0.019407209 -0.0052997028 -0.0064412993 -0.003940971 -0.002665458 -0.038551226 0.0008910475 -0.009278128
-0.0030831667 0.0013869331 -0.013043079 -0.004936193 0.009410943 0.033258155 -0.058685444 -0.0017179039
-0.008632337 -0.0020224608 0.00030415534 -0.030391388 -0.009132625 -0.009373852 4.769988e-05 0.00073624414
0.014347662 0.006941605 0.00019806527 -0.008479652 0.0046887584 -0.023111101 0.005152048 -0.011941513
00000000: b36b 763c 4951 0d3c 827d 9339 21c9 0fbd
00000010: 4afc 9a3b 228c 913d 1232 283c d1bb f2bc
00000020: 20bf 6d3c 09ce 083a 2908 40bd 8c41 9abc
00000030: a98c 0b3c cc93 61bc 8746 133d a54c ab3a
00000040: e1c3 aabd 447d 16bc d38a 0ebb 1a2b 873d
00000050: 2fa2 1ebd f6a4 d4bd d43b 21bc 7d8a 47bb
00000060: 3b95 89bc fb33 2cbd 565a 9639 4855 4cbc
00000070: a628 83bc 0b40 fdbc 50f6 26bc 4694 aebc
00000080: 7067 963a f012 2c3c 71d7 5c3b debb aebc
00000090: 5e5a d43b 2c06 57bc 840d 1e3b 9a4a 03bc
000000a0: 9b19 303c a4ef acba 7972 1cbc aa01 c6bb
000000b0: a001 4c3c 180f 343c 6667 4b3c 5fdb 343a
000000c0: a703 023c b5e1 d5bb e4fc 0ebb fff9 3a3c
000000d0: 37c1 a839 e795 d1bb 26cc ebbb 1640 8ebb
000000e0: f9e7 83bc a15e 9639 ff93 aaba fd98 cdbc
000000f0: 1fc8 a2bc f899 8c3b 3fe3 32bc 0cec c1bb
00000100: 4866 943b 1bbb 013a 29c5 fe3b b6f3 82bc
00000110: 61f6 67bb 9807 3ebc 489a deba 3363 433b
00000120: 8f40 f8bb 4991 143a 2df3 7abb e21b 973b
00000130: aa50 0ebb c0f6 66bc 8d8a 45bc 0923 68ba
00000140: 7c8a 89ba d941 c3ba d405 2aba 50e6 0bbc
00000150: a4c7 fb3b 4927 04bc fccb 0a3a 9a6c a5ba
00000160: 60c7 8eba d98a e2bb bc73 08ba 86f6 58bc
00000170: 14d9 0dbc 2874 89bc 6bf8 c8ba 5374 993b
00000180: 5a2a 623b 3b41 2fba 8466 8a3a a1d8 03bc
00000190: 4546 96b8 a333 42bd 3b32 0cbb 7e6a 943a
000001a0: 8c3b 353b 8cdc 8ab8 a486 0b3d fc75 a93a
000001b0: c79c 273c aa20 3c3b a7d7 183b d885 56b9
000001c0: 1e95 033d 9f11 a1b9 822f aaba 0b3e 62bc
000001d0: 8505 073c 8e0b d03c 7200 443a 31a6 04ba
000001e0: 0d15 9cba 21d2 763c 35c3 5336 fc0d 7abb
000001f0: f12e 19bc d22c a1b9 5cc2 b03a 18b1 983b
00000200: 4ad3 80bb 8970 843b bdf7 fdba 219b 82bb
00000210: d1d8 8f3b 52bc 04bb ee1b acb9 4d5f 41bc
00000220: 95d5 17bc 320a 0aba 5cb5 8dbb af89 c2bb
00000230: 161b 003b d1f3 833b e82c 343c 27e2 7435
00000240: 67a5 ea3b 2dde cb39 5219 9b38 3ab5 283c
00000250: c0cd c53a 8c44 3dbb 1a1c aa39 de63 b8b9
00000260: 15df 46bb aa9a 943a 8c8d 8339 69f6 83bc
00000270: 7a27 5bbc 01b1 6f3b 08a8 96bb 49b2 aaba
00000280: 8df0 553b ff90 e0bc 6d1c 4abc a08e dab9
00000290: c6f4 e4bc 9b18 4abd 34b1 b8bb 145b 973c
000002a0: 7b50 203c 3c76 313c cbeb 6fbc c966 21bb
000002b0: b7e7 283d 55ac 3bbd 052c fc3c d25e 5ebc
000002c0: 5668 d83d 5e48 a83b 4e8c 143b 9c62 5bbc
000002d0: de1e 6fba 69b0 6b3d 3dfb 74ba 1866 2fb9
000002e0: 1550 fa3c ab02 91bc e083 8fbb 63c3 633d
000002f0: 184c 373d facb a5bc 36ef e33c dc96 93bc
00000300: 21a4 c138 1977 21bb 022d 8ebb 346e 87ba
00000310: 9cc3 d7ba 0f93 30bc 3239 04ba b532 903b
00000320: 1959 faba 0ced a8b9 796a a3bb 5c5f 823a
00000330: 5fc2 eb3a edfc 49bb ec63 4cbc da09 ae39
00000340: f32f 953a bebc e7b9 b652 99b9 e3fe 1dbc
00000350: 3487 093b 7475 88bb 2031 20ba 8193 b6b9
00000360: e6c0 7a3a c9ba d938 e58c 17ba 6a96 eb3a
00000370: 0474 f53a a5c4 b4bb 4c25 e63a 2509 11bb
00000380: defb 9ebc 21a9 adbb 8911 d3bb 4323 81bb
00000390: f7ae 2ebb e4e7 1dbd 2f95 693a 4a03 18bc
000003a0: f40e 4abb c1c9 b53a a3b2 55bc cabf a1bb
000003b0: 5b30 1a3c b439 083d 2660 70bd 4a2b e1ba
000003c0: a56e 0dbc 438b 04bb 0a77 9f39 5cf7 f8bc
000003d0: 01a1 15bc c994 19bc 5b11 4838 8200 413a
000003e0: 7512 6b3c 6776 e33b beaf 4f39 3dee 0abc
000003f0: 28a4 993b 7e53 bdbc 83d2 a83b 56a6 43bc

gnn.gru.bias_ih_l0 f4 [96]
-0.01967747 -0.022150572 -0.030406324 -0.017561898 -0.009021572 -0.02701359 -0.013851867 -0.07648452
-0.020645907 -0.0034981319 0.15974948 -0.058103874 -0.041113216 -0.03332833 0.064001 -0.009509582
-0.03650883 -0.02257456 -0.00750744 0.19680369 -0.05960563 -0.028527824 -0.013015684 -0.006385451
-0.022752231 -0.04258708 -0.0065731853 -0.022388197 0.043165322 -0.030225556 -0.012905984 -0.041430242
-0.081037164 0.05724487 0.06804659 -0.08676943 0.095665395 -0.07765218 0.061677653 0.25592357
-0.05057094 0.04539147 -0.3841132 0.1449834 0.045212798 0.03735417 -0.17840315 0.06420294
-0.08418375 0.10443978 0.09537679 -0.5238089 -0.0017173145 0.029270055 0.067094624 0.060338475
-0.048931744 0.044583295 0.086361006 0.14897215 -0.08586626 -0.0062319404 0.0955754 0.031157406
0.02223872 -0.19548495 0.093600824 -0.07310635 -0.08607599 -0.17001975 0.010204832 0.07146319
-0.23231031 -0.0022821233 -0.069832526 0.12400577 -0.30661327 -0.015264514 -0.039253607 0.03257019
0.18003863 -0.0028430796 -0.004960892 -0.004903739 0.021487376 0.3690178 -0.010621354 -0.013723875
0.34844026 0.10883308 0.014977519 -0.10161127 0.20838809 0.2844669 0.11358886 0.16897915
00000000: a532 a1bc 1e75 b5bc af16 f9bc f8dd 8fbc
00000010: 37cf 13bc 9b4b ddbc f1f2 62bc eba3 9cbd
00000020: 9b21 a9bc ea40 65bb 5e95 233e 54fe 6dbd
00000030: 5566 28bd 4983 08bd f512 833d 14ce 1bbc
00000040: 488a 15bd 49ee b8bc f900 f6bb e886 493e
00000050: 0825 74bd 2fb3 e9bc bc3f 55bc 0c3d d1bb
00000060: e362 babc ca6f 2ebd e063 d7bb 7467 b7bc
00000070: 1fce 303d 969b f7bc 9f73 53bc c2b2 29bd
00000080: d0f6 a5bd 9979 6a3d 035c 8b3d 2cb4 b1bd
00000090: 38ec c33d 1b08 9fbd b5a1 7c3d 6a08 833e
000000a0: 7923 4fbd 68ec 393d 7caa c4be 8776 143e
000000b0: 0e31 393d b000 193d 51af 36be d57c 833d
000000c0: 8868 acbd 86e4 d53d e854 c33d 5718 06bf
000000d0: 8317 e1ba c1c7 ef3c e868 893d 7a25 773d
000000e0: a76c 48bd f99c 363d 0ade b03d 288c 183e
000000f0: a6da afbd 4e35 ccbb 09bd c33d d13d ff3c
00000100: fa2d b63c 352d 48be cab1 bf3d c8b8 95bd
00000110: 9c48 b0bd a819 2ebe 2b32 273c 4b5b 923d
00000120: c1e2 6dbe ad8f 15bb 5b04 8fbd bdf6 fd3d
00000130: 6afc 9cbe 0318 7abc 64c8 20bd 5268 053d
00000140: 0c5c 383e f652 3abb fa8e a2bb 8baf a0bb
00000150: 4b06 b03c e7ef bc3e 3005 2ebc 1bda 60bc
00000160: c366 b23e e1e3 de3d 4564 753c 9219 d0bd
00000170: b063 553e a5a5 913e 47a1 e83d df08 2d3e

gnn.gru.bias_hh_l0 f4 [96]
-0.01967747 -0.022150572 -0.030406324 -0.017561898 -0.009021572 -0.02701359 -0.013851867 -0.07648452
-0.020645907 -0.0034981319 0.15974948 -0.058103874 -0.041113216 -0.03332833 0.064001 -0.009509582
-0.03650883 -0.02257456 -0.00750744 0.19680369 -0.05960563 -0.028527824 -0.013015684 -0.006385451
-0.022752231 -0.04258708 -0.0065731853 -0.022388197 0.043165322 -0.030225556 -0.012905984 -0.041430242
-0.0810372 0.05724487 0.06804659 -0.08677527 0.095665395 -0.07765218 0.061677653 0.2559252
-0.05057094 0.045391478 -0.3841132 0.1449834 0.04521279 0.03735417 -0.16993053 0.06420294
-0.08418901 0.10443978 0.09537679 -0.4954097 -0.0017173145 0.029267073 0.067094624 0.060338475
-0.048931744 0.044583295 0.086361006 0.1489727 -0.08586619 -0.0062311147 0.0955754 0.031157406
-0.02246895 -0.054704472 0.029999172 -0.016262108 -0.025827525 -0.03222897 0.006122226 0.011735121
-0.10487847 -0.010316675 -7.960184e-05 0.03285126 -0.09277688 0.014359775 0.0063971845 0.029627085
0.023676064 -0.002125665 -0.003941286 0.09885605 -0.008878463 0.14531368 -0.008051927 0.00077358197
0.12271279 0.028219284 0.016908059 -0.0066844476 0.17262156 0.08547651 0.05132168 0.06407238
00000000: a532 a1bc 1e75 b5bc af16 f9bc f8dd 8fbc
00000010: 37cf 13bc 9b4b ddbc f1f2 62bc eba3 9cbd
00000020: 9b21 a9bc ea40 65bb 5e95 233e 54fe 6dbd
00000030: 5566 28bd 4983 08bd f512 833d 14ce 1bbc
00000040: 488a 15bd 49ee b8bc f900 f6bb e886 493e
00000050: 0825 74bd 2fb3 e9bc bc3f 55bc 0c3d d1bb
00000060: e362 babc ca6f 2ebd e063 d7bb 7467 b7bc
00000070: 1fce 303d 969b f7bc 9f73 53bc c2b2 29bd
00000080: d5f6 a5bd 9979 6a3d 035c 8b3d 3cb7 b1bd
00000090: 38ec c33d 1b08 9fbd b5a1 7c3d a108 833e
000000a0: 7923 4fbd 6aec 393d 7caa c4be 8776 143e
000000b0: 0c31 393d b000 193d 4502 2ebe d57c 833d
000000c0: 4a6b acbd 86e4 d53d e854 c33d 57a6 fdbe
000000d0: 8317 e1ba 80c1 ef3c e868 893d 7a25 773d
000000e0: a76c 48bd f99c 363d 0ade b03d 4d8c 183e
000000f0: 9dda afbd 612e ccbb 09bd c33d d13d ff3c
00000100: ce10 b8bc cc11 60bd d3c0 f53c 1d38 85bc
00000110: 3f94 d3bc 8602 04bd f49c c83b aa44 403c
00000120: 86ca d6bd 4507 29bc eaef a6b8 0b8f 063d
00000130: ce01 bebd 4345 6b3c 799f d13b 80b4 f23c
00000140: 4ef4 c13c be4e 0bbb e725 81bb 0a75 ca3d
00000150: f976 11bc 1ccd 143e 3bec 03bc 35ca 4a3a
00000160: d850 fb3d 212c e73c c582 8a3c 3609 dbbb
00000170: b5c3 303e 4f0e af3d af36 523d 6138 833d
