1-GNNs/result/6108_AR_NURA_MPNN_0920/saved_model/MPNN_bst_2.pth (torch, 437614 bytes, 26 tensors)

gnn.project_node_feats.0.weight f4 [32, 74]
-0.69615686 0.089378275 -0.59385526 0.8310306 -0.20429601 -1.01944946e-10 0.326395 0.47759205
-0.0049854997 1.1478792e-05 7.3366496e-10 -2.8409648e-13 -1.1904591e-06 -9.076729e-09 2.4396841e-14 -0.047851697
8.934187e-06 1.7844153e-05 4.0460077e-17 -1.584879e-12 1.1010581e-13 1.4943683e-12 -2.3999877e-16 -6.276749e-18
-2.1391352e-05 4.7022246e-07 -7.316764e-14 -3.1650305e-10 7.3034757e-22 -5.8278542e-06 -6.289756e-09 -2.040421e-12
4.111992e-10 3.939784e-12 -1.2655295e-11 5.22672e-10 -1.187141e-06 -0.000472172 -6.3910005e-10 -4.1074333e-07
5.0463374e-17 2.5633478e-09 6.1041032e-06 -6.626352e-12 0.26688063 -0.27484292 0.21210349 -0.12036003
1.0829052e-06 3.4500107e-13 1.0843701e-09 4.0412078e-17 2.0940446e-11 4.123273e-14 0.1511358 -0.11494013
0.08885928 -0.09114176 -4.6060626e-09 -3.142336e-10 0.00020443692 -0.06924172 0.00050204265 -0.047182422
-0.541517 0.5839523 1.554775e-08 2.6325556e-11 -0.00272761 0.16915601 -0.1152904 0.088858895
-0.09114177 3.482104e-09 -0.39791542 1.0728552 -0.30946726 -0.13592958 7.85e-43 2.7591054e-09
-0.010746432 5.69e-42 -1.3618e-41 1.492834e-09 7.9954876e-10 3.0882985e-10 1.4859927e-13 -3.88813e-17
1.0998722e-08 -1.4041e-41 9.320644e-09 3.3562217e-15 1.6437791e-12 -2.215768e-06 0.000107313 3.1434645e-08
6.078955e-10 -4.9968965e-17 2.378235e-09 1.5544692e-13 -2.6742136e-05 -1.0909511e-11 1.2904497e-06 -4.9281255e-13
2.9876856e-12 7.6635806e-05 1.831051e-19 1.387607e-15 5.883782e-09 1.3831423e-09 1.491715e-09 3.6188612e-07
1.080725e-09 4.8475635e-14 -6.569275e-08 1.1423622e-07 5.3228726e-16 1.5743852e-07 -0.25044724 -0.5257158
0.5791408 0.023435364 5.4767588e-05 -1.3114603e-06 1.8756556e-07 3.557644e-10 2.565969e-07 -2.6577092e-09
0.10015725 0.14788696 -0.084678836 3.9444e-41 -5.9066844e-07 -2.1837037e-11 -3.098735e-09 0.43701345
7.872664e-12 -0.07402257 0.2588526 -0.4441094 3.0235187e-13 2.822992e-13 0.31317025 0.14608072
0.021448873 -0.084678836 2.1579e-41 -1.1341074e-16 -8.3751795e-05 -1.3632771e-10 7.874332e-05 -4.7576334e-09
-9.073651e-37 -0.00011028171 8.8482433e-13 3.66292e-35 1.6639e-41 -1.0974009e-06 3.0277697e-08 2.0862967e-10
-2.8945242e-15 -1.6097837e-11 8.293923e-10 -1.8922e-41 4.1232374e-07 -2.1491645e-17 4.315121e-06 -0.0005945599
-1.0628007e-07 2.8757084e-14 1.5032754e-06 5.1824277e-06 0.0002192757 -1.3225552e-06 -1.6151276e-08 -1.6166395e-06
5.7146804e-07 -4.3118328e-10 -3.6417082e-06 8.774878e-09 2.8069135e-08 1.6077054e-12 2.4607556e-14 9.97491e-10
-6.5218703e-12 -4.536284e-05 2.3298583e-12 1.1505928e-07 7.950136e-09 -1.6403309e-10 -1.0935149e-07 -0.0005889965
0.00011882846 -8.647431e-06 -2.3651605e-08 1.06376305e-07 3.461493e-23 -2.3454599e-05 -7.50401e-12 9.777918e-10
-5.7492958e-08 -1.7071695e-10 -0.00053473347 -3.1955033e-06 -6.242194e-11 -1.7875592e-13 1.9505754e-13 1.77945e-07
1.3554486e-05 1.116e-41 2.7384e-41 1.0592e-41 -5.450804e-05 -0.00016953633 -5.135933e-12 -6.553234e-11
-2.3490509e-06 -0.00052321184 -3.7065968e-06 -6.242161e-11 -1.7875824e-13 -2.8501445e-05 0.0018284337 -8.6482705e-06
-5.148231e-14 1.022e-42 4.344e-42 -1.246428e-12 -5.143e-42 -1.8365e-41 -1.5727e-41 -1.7306638e-12
0.00038447775 -1.0148883e-14 1.0327884e-08 -3.1704521e-06 -8.282514e-06 4.0028e-41 -1.193047e-06 6.0335885e-15
-1.7049916e-12 -2.112026e-11 -6.5532864e-09 1.6175127e-05 -1.9131462e-13 6.934804e-18 2.0889711e-10 3.3224226e-06
1.9328114e-10 2.8139642e-15 -1.1900787e-13 4.931143e-10 8.676087e-11 -3.8114688e-13 4.2292887e-14 -1.6512904e-09
00000000: 5637 32bf f50b b73d e606 18bf 6cbe 543f
00000010: f932 51be e72d e0ae 3f1d a73e f286 f43e
00000020: 675d a3bb 0995 4037 15ab 4930 9eee 9faa
00000030: ddc7 9fb5 e0ef 1bb2 49bf db28 2400 44bd
00000040: 0ae4 1537 07b0 9537 d496 3a24 490d dfab
00000050: aeef f729 4b50 d22b 9159 8aa5 3892 e7a2
00000060: 9471 b3b7 e272 fc34 46c2 a4a9 d8ff adaf
00000070: e8bb 5c1c e38c c3b6 471d d8b1 f594 0fac
00000080: 250f e22f 6b9e 8a2c 62a2 5ead c6ab 0f30
00000090: db55 9fb5 da8d f7b9 abac 2fb0 2284 dcb4
000000a0: a3b8 6824 e426 3031 d9d1 cc36 df24 e9ac
000000b0: 94a4 883e 36b8 8cbe a831 593e 527f f6bd
000000c0: 5758 9135 e537 c22a e208 9530 295e 3a24
000000d0: b131 b82d 1ab2 3929 58c3 1a3e bb65 ebbd
000000e0: dbfb b53d 88a8 babd 5b43 9eb1 73c0 acaf
000000f0: 1e5e 5639 9ace 8dbd 839b 033a 5b42 41bd
00000100: dca0 0abf e67d 153f dd8d 8532 e28f e72d
00000110: b4c1 32bb 3c37 2d3e 601d ecbd a7fb b53d
00000120: 89a8 babd d249 6f31 92bb cbbe 5253 893f
00000130: 7e72 9ebe 2031 0bbe 3002 0000 b29a 3d31
00000140: cd11 30bc dd0f 0000 f625 0080 6d2c cd30
00000150: 3ec7 5b30 f0c7 a92f d34e 272a f04e 33a4
00000160: e4f4 3c32 2427 0080 a020 2032 5dd7 7127
00000170: 6257 e72b 9bb2 14b6 3a0d e138 c202 0733
00000180: d818 2730 f170 66a4 5a6e 2331 8604 2f2a
00000190: 4d54 e0b7 12ec 3fad 8433 ad35 e3b6 0aab
000001a0: 5c3d 522c 89b7 a038 1f2c 5820 aaf9 c726
000001b0: 4b2a ca31 fe18 be30 0e05 cd30 4049 c234
000001c0: a188 9430 9a50 5a29 f912 8db3 0752 f533
000001d0: de6b 1926 5f0c 2934 9f3a 80be 5095 06bf
000001e0: 9242 143f 85fb bf3c 40b6 6538 6f05 b0b5
000001f0: a165 4934 6395 c32f 69c2 8934 eaa2 36b1
00000200: 3f1f cd3d ae6f 173e 196c adbd f46d 0000
00000210: 6d8e 1eb5 a314 c0ad 86f1 54b1 3ac0 df3e
00000220: 547f 0a2d 2599 97bd 5488 843e 4f62 e3be
00000230: 7f35 aa2a 9aeb 9e2a da57 a03e 2f96 153e
00000240: 8cb5 af3c 196c adbd 273c 0000 f1c0 02a5
00000250: e7a3 afb8 d7e4 15af ff22 a538 9678 a3b1
00000260: 5361 9a83 0b47 e7b8 500e 792b 15c1 4206
00000270: 622e 0000 684a 93b5 ae0a 0233 0864 652f
00000280: 8c92 50a7 1b99 8dad 4bfb 6330 bf34 0080
00000290: 585d dd34 b639 c6a3 9bca 9036 3ddc 1bba
000002a0: 163c e4b3 a982 0129 26c4 c935 b7e4 ad36
000002b0: 5fed 6539 a782 b1b5 08bd 8ab2 4ffb d8b5
000002c0: fc66 1935 a70b edaf 1264 74b6 52c0 1632
000002d0: ae1c f132 b143 e22b 29a5 dd28 1818 8930
000002e0: c977 e5ac fb43 3eb8 fff2 232c 8216 f733
000002f0: 1195 0832 365b 34af 9ed4 eab3 e366 1aba
00000300: 8b33 f938 6f14 11b7 6e2a cbb2 fe70 e433
00000310: 3563 271a 5ec0 c4b7 0e03 04ad fe62 8630
00000320: 2dee 76b3 8db4 3baf 5b2d 0cba 5472 56b6
00000330: 6e44 89ae e342 49aa 829d 5b2a 2611 3f34
00000340: 1368 6337 1c1f 0000 564c 0000 871d 0000
00000350: 909f 64b8 90c5 31b9 5fb4 b4ac 6e1b 90ae
00000360: 63a4 1db6 2728 09ba d9be 78b6 3e44 89ae
00000370: 8e43 49aa 6316 efb7 0ea8 ef3a 0a18 11b7
00000380: 10db 67a9 d902 0000 1c0c 0000 4d6b afab
00000390: 560e 0080 3233 0080 d72b 0080 bc91 f3ab
000003a0: bb93 c939 76d3 36a8 846e 3132 f4c3 54b6
000003b0: 20f5 0ab7 956f 0000 c820 a0b5 0862 d927
000003c0: ccf4 efab 99c6 b9ad 512b e1b1 d2af 8737
000003d0: af66 57aa 5fd9 ff22 4faf 652f c9f6 5e36
000003e0: ce83 542f 7ac4 4a27 affd 05aa d68b 0730
000003f0: 07ca be2e 0e91 d6aa 6178 3e29 9ef3 e2b0

gnn.project_node_feats.0.bias f4 [32]
-0.03845512 0.027870353 -0.0025071488 -0.008959384 -3.4414613e-06 -1.7492445e-07 -0.010476439 0.040112562
0.089567915 0.107776105 -4.777073e-07 0.14812218 0.12445414 0.16742256 -0.008175095 -2.6019765e-14
0.07853112 0.26426288 0.10284011 -0.04049764 -0.04169822 -0.0021102577 0.061985973 0.09986871
0.04298833 -0.04748212 0.10486834 0.12003007 -0.06417 -0.030594727 0.055565245 0.031306833
00000000: 1e83 1dbd 5e50 e43c fa4e 24bb 61ca 12bc
00000010: dbf3 66b6 ded2 3bb4 5fa5 2bbc 124d 243d
00000020: 626f b73d b8b9 dc3d cc3b 00b5 57ad 173e
00000030: d0e1 fe3d d270 2b3e d5f0 05bc 7e5d eaa8
00000040: edd4 a03d 774d 873e d69d d23d dae0 25bd
00000050: c1cb 2abd 404c 0abb 01e5 7d3d f787 cc3d
00000060: 8814 303d 9d7c 42bd 36c5 d63d 53d2 f53d
00000070: 906b 83bd cba1 fabc 6298 633d 983b 003d

gnn.gnn_layer.bias f4 [32]
-0.13498953 -0.03353106 -0.03735212 -0.110334724 -0.05462891 -0.17197002 0.005225964 -0.027015714
-0.016082225 0.02457859 -0.07236361 -0.030253844 -0.03185302 -0.038930196 -0.037145324 -0.030023243
-0.0006309899 -0.04559873 -0.25011683 -0.1331463 -0.25046462 0.068903275 -0.014253305 -0.016644185
-0.008342025 -0.01270061 -0.058563888 -0.07297564 -0.26795986 -0.025092706 -0.0010094803 -0.06049281
00000000: b23a 0abe dd57 09bd 89fe 18bd 2cf7 e1bd
00000010: 90c2 5fbd e918 30be 903e ab3b 0f50 ddbc
00000020: dfbe 83bc 0a59 c93c 5f33 94bd e9d6 f7bc
00000030: 5078 02bd 4575 1fbd b225 18bd 4ef3 f5bc
00000040: 0469 25ba bcc5 3abd 500f 80be 8157 08be
00000050: e63c 80be 291d 8d3d b286 69bc 6359 88bc
00000060: fdac 08bc 3816 50bc b0e0 6fbd 4174 95bd
00000070: 0932 89be 388f cdbc 8a50 84ba 4fc7 77bd

gnn.gnn_layer.edge_func.0.weight f4 [64, 13]
-0.00016804403 1.0930368e-17 4.7908775e-18 -0.00057635456 -0.0093392525 -0.014910599 -0.022613337 6.4217687e-18
3.8835794e-13 -1.183144e-21 1.249177e-06 2.1599427e-38 -1.01578935e-05 -9.757e-42 1.094e-41 -6.627e-42
-1.0539386e-06 -3.305538e-07 -2.3612552e-06 -7.8930753e-07 5.6105464e-06 2.9275322e-08 3.3045734e-27 3.5417293e-17
3.974226e-09 1.0454e-41 -3.473263e-05 4.076025e-07 1.3915299e-07 1.7873095e-06 -0.00080097193 -6.534274e-06
-0.0016917911 -8.8952763e-23 -3.3663488e-18 -2.2869847e-07 -5.0241e-10 -9.493146e-05 7.5378143e-06 -0.02591347
-4.5180786e-06 4.2687413e-11 -0.008303821 -0.02956915 -0.036148265 -0.04189058 3.186671e-05 3.2304148e-13
1.4991052e-08 -5.8391876e-08 -3.385986e-05 -0.028710674 0.0058150357 -0.00092436024 -6.6995963e-18 -0.0058733216
-0.016644238 -0.007650955 -0.028448587 4.9001843e-05 -9.336263e-30 -2.0844218e-06 1.4695718e-10 -6.2333545e-12
-0.009247047 -7.7604867e-25 3.098e-42 1.117e-41 -3.187353e-26 -1.303559e-16 -8.5258886e-19 -2.3857874e-14
1.2279985e-07 1.7564705e-16 -1.292487e-06 1.0812956e-10 5.8670175e-13 -2.4627857e-24 1.0186601e-06 -1.507642e-18
-1.849132e-39 -2.19e-43 -4.610572e-07 -3.4075577e-12 4.3529155e-05 7.118624e-19 1.0719324e-15 -2.7814461e-15
-1.3367369e-06 1.2569091e-06 1.2006159e-37 5.3277915e-28 -1.2743e-41 2.129e-42 -1.3129e-41 8.378e-42
-8.391e-42 -4.825665e-27 -1.3302501e-10 1.027608e-10 -1.0448192e-08 -8.365076e-07 -2.7054067e-21 4.912e-42
-0.14980899 -0.22591223 0.42143816 -0.16422667 0.0023446977 0.5791094 -0.24408625 3.3701902e-17
4.2034778e-16 -2.9264642e-12 -3.6732797e-21 1.3688542e-27 0.6386558 -0.06204471 -0.009841255 -7.75697e-18
-0.013094891 -0.03239837 -0.01805082 -0.08823223 2.6472838e-07 1.10396426e-13 -0.00038763863 -4.6921537e-07
-8.4882487e-07 -0.053096432 -4.071166e-24 -2.5317959e-26 6.360879e-27 -8.30863e-07 -1.3805791e-06 -2.4325293e-06
-3.562819e-06 4.4474147e-11 0.000119580334 -7.483873e-19 5.517045e-25 -3.4129824e-14 1.624861e-25 3.7578975e-11
-1.0857e-41 1.572e-42 -8.0331594e-16 -6.650041e-11 -5.007563e-12 -3.8155502e-08 1.8748948e-28 -9.082125e-07
5.0117133e-12 1.5685103e-13 -8.695477e-08 -2.1973157e-16 -0.13184032 -0.3410932 0.0804538 0.24939477
0.25211275 0.2179447 -0.032704264 -7.199786e-06 2.1831261e-20 1.4578463e-06 -9.834551e-10 -9.849853e-07
-8.748865e-06 8.508597e-05 -1.957162e-14 3.1753124e-13 -1.7336872e-05 0.00036269584 0.00020322333 -0.0013355544
-2.978367e-10 -8.869074e-14 -0.00047731822 4.68683e-14 1.457082e-16 -4.2418126e-17 -2.8249867e-35 4.187e-42
-5.897e-42 -9.654e-42 9.153e-42 6.431957e-39 -9.8122094e-26 -4.692312e-10 1.5215372e-06 1.1316612e-12
6.3609756e-11 -1.228593e-07 -7.865e-42 0.00033255896 -2.9481535e-07 5.183956e-12 -0.00048167966 -0.0020129108
-0.0068655997 -0.009307976 -1.7219961e-17 0.00015030631 8.6460304e-11 6.142416e-13 2.1515253e-23 -0.0056580734
-6.6086796e-11 -1.1442e-41 -1.5781e-41 -3.300323e-06 -6.543844e-06 -6.0706175e-06 -2.9841794e-05 -0.00019412112
2.885129e-05 -4.2656388e-23 -4.898366e-14 -2.4172445e-05 -3.393e-42 -0.020613212 -7.111704e-05 -6.984e-42
0.001344466 4.9812406e-05 0.011352838 -0.0189774 6.945658e-34 -3.307409e-05 -4.90289e-10 -9.971733e-13
6.7864442e-12 -0.0028594267 -3.5203787e-38 -1.082e-41 -4.501e-42 4.152e-42 6.499e-42 -7.741e-42
1.4703138e-35 5.255077e-10 1.8267764e-12 7.8709234e-10 1.3935083e-08 -3.1080285e-19 8.036376e-21 -0.00057976693
2.9138831e-05 1.61696e-40 -4.596129e-06 -0.0013783515 0.00032889424 6.0823102e-05 -3.4064835e-09 1.3625669e-12
00000000: fa34 30b9 34a1 4923 8fc0 b022 8016 17ba
00000010: aa03 19bc 964b 74bc 9b3f b9bc e4eb ec22
00000020: 47a0 da2a abca b29c 65a9 a735 6a32 eb00
00000030: d26b 2ab7 331b 0080 7f1e 0000 7912 0080
00000040: 0e75 8db5 f876 b1b4 0e76 1eb6 cde0 53b5
00000050: 3a42 bc36 1d79 fb32 5be8 8213 5c55 2324
00000060: a98d 8831 241d 0000 e1ad 11b8 76d4 da34
00000070: 156a 1534 7de3 ef35 51f8 51ba fc40 dbb6
00000080: 17bf ddba 1813 d79a 8864 78a2 2890 75b4
00000090: f619 0ab0 f115 c7b8 55ed fc36 7c48 d4bc
000000a0: 009a 97b6 c1bd 3b2e c00c 08bc 013b f2bc
000000b0: 3410 14bd 7595 2bbd 9fa8 0538 2fdb b52a
000000c0: acc5 8032 8cca 7ab3 bf04 0eb8 a632 ebbc
000000d0: 0e8c be3b c450 72ba e62b f7a2 fe74 c0bb
000000e0: 7f59 88bc ddb4 fabb 030d e9bc 5487 4d38
000000f0: a65c 3d8f 18e2 0bb6 c594 212f 1151 dbac
00000100: ed80 17bc e92c 7097 a308 0000 231f 0000
00000110: 80d4 1d95 454a 16a5 cba3 7ba1 83e4 d6a8
00000120: f7da 0334 dc81 4a25 8479 adb5 88c7 ed2e
00000130: 5124 252b 7f8c 3e98 e5b8 8835 1b7d dea1
00000140: a122 1480 9c00 0080 3887 f7b4 1ac9 6fac
00000150: 1393 3638 cd1a 5221 537b 9a26 a06c 48a7
00000160: ee69 b3b5 11b3 a835 5c6b 2302 2ed8 2812
00000170: 8623 0080 ef05 0000 9924 0080 5b17 0000
00000180: 6417 0080 0f2a bf93 3643 12af 30f9 e12e
00000190: a27f 33b2 5d8c 60b5 2d6a 4c9d b10d 0000
000001a0: 8767 19be 8955 67be bec6 d73e 092b 28be
000001b0: 80a9 193b 8340 143f bff1 79be 2f6c 1b24
000001c0: 6250 f225 7eee 4dac c8c5 8a9d 53e7 d812
000001d0: f27e 233f 9822 7ebd 373d 21bc 4117 0fa3
000001e0: f48b 56bc 27b4 04bd 50df 93bc 19b3 b4bd
000001f0: fe1f 8e34 3597 f829 fa3b cbb9 78e8 fbb4
00000200: cdda 63b5 a57b 59bd e07e 9d98 a7bc fa94
00000210: fafa fb13 7808 5fb5 564c b9b5 893e 23b6
00000220: c418 6fb6 7099 432e 34c7 fa38 8ce2 5ca1
00000230: 89be 2a17 02b5 19a9 e725 4916 2a46 252e
00000240: 441e 0080 6204 0000 418a 67a6 673c 92ae
00000250: 1e30 b0ac 6be0 23b3 d1ab 6d11 e3cb 73b5
00000260: 8055 b02c 3b99 302a e4bb bab3 5055 7da5
00000270: 2601 07be c5a3 aebe f6c4 a43d 5861 7f3e
00000280: ec14 813e e52c 5f3e e8f4 05bd b195 f1b6
00000290: c030 ce1e 38ab c335 402a 87b0 d633 84b5
000002a0: 17c8 12b7 2f70 b238 1549 b0a8 13c1 b22a
000002b0: a66e 91b7 3628 be39 5918 5539 c50d afba
000002c0: cabc a3af bbb6 c7a9 9140 fab9 7913 5329
000002d0: 78fd 2725 7c9e 43a4 ba33 1686 ac0b 0000
000002e0: 7010 0080 e91a 0080 8419 0000 ae09 4600
000002f0: 44f0 f295 36fb 00b0 9f37 cc35 6444 9f2b
00000300: 1ce1 8b2e 4feb 03b4 ed15 0080 4f5b ae39
00000310: 1d47 9eb4 ed64 b62c f389 fcb9 0aeb 03bb
00000320: d3f8 e0bb 7b80 18bc 7cd3 9ea3 8b9b 1d39
00000330: d320 be2e c6e4 2c2b 3015 d019 5c67 b9bb
00000340: 8f53 91ae e51f 0080 fe2b 0080 1e7b 5db6
00000350: 3193 dbb6 35b2 cbb6 c454 fab7 fe8c 4bb9
00000360: ac05 f237 0d46 4e9a 519a 5ca9 eec5 cab7
00000370: 7509 0080 0add a8bc ac24 95b8 7813 0080
00000380: cb38 b03a aaed 5038 4101 3a3c 7e76 9bbc
00000390: 20cf 6608 09b9 0ab8 05c5 06b0 f456 8cab
000003a0: dbc6 ee2c 3865 3bbb ebaa 3f81 291e 0080
000003b0: 8c0c 0080 930b 0000 1e12 0000 9415 0080
000003c0: c059 9c05 5173 1030 478c 002c b35a 5830
000003d0: 2567 6f32 3377 b7a0 88cd 171e 80fb 17ba
000003e0: 2a6f f437 bec2 0100 7338 9ab6 cda9 b4ba
000003f0: 706f ac39 4f1c 7f38 7e17 6ab1 a5c3 bf2b

gnn.gnn_layer.edge_func.0.bias f4 [64]
-0.029313216 -9.925615e-07 -0.008268621 -0.04614772 -0.035227053 -7.1339373e-10 -7.251987e-05 -1.8970111e-27
0.36725268 -0.10418075 -5.505262e-06 -2.243767e-06 -0.13642347 -0.0010777251 -9.168313e-22 -0.022578297
-4.552389e-05 -0.028400883 -1.6076419e-18 -0.003141495 0.019707955 -0.006929433 0.30851015 -1.4099665e-07
-2.0659876e-16 -8.265286e-09 -0.00047593613 -0.03293342 -0.02923084 0.24933584 0.26700926 -5.489193e-18
-7.5594316e-18 -7.696556e-05 -0.00010237252 -0.025534188 -9.506744e-05 -0.020051058 -5.702592e-10 -0.014267958
-0.03414399 -5.3222504e-07 -1.4900066e-20 -0.000107429616 0.1671471 -1.012973e-10 -0.096599855 -4.8747036e-19
-1.8484343e-18 -9.417307e-08 -1.5695535e-10 -0.0005937583 -0.0020836766 -1.7906231e-07 -0.020314611 -0.047937904
-2.5117184e-20 0.0011611443 -0.0017116187 -2.2244673e-19 -1.6778423e-16 -3.9314538e-11 -2.8044133e-13 -9.8915244e-11
00000000: 4522 f0bc 2738 85b5 1c79 07bc 6405 3dbd
00000010: 3e4a 10bd 9f18 44b0 cf15 98b8 f54b 1693
00000020: 8b08 bc3e b85c d5bd d7b9 b8b6 a093 16b6
00000030: 98b2 0bbe 7442 8dba 318c 8a9c 1ff6 b8bc
00000040: e8f0 3eb8 f8a8 e8bc fe3e eda1 8ae1 4dbb
00000050: 9472 a13c 4c10 e3bb 0bf5 9d3e dd64 17b4
00000060: 3131 6ea5 1dff 0db2 1187 f9b9 32e5 06bd
00000070: 8475 efbc e551 7f3e 70b5 883e f683 caa2
00000080: 6872 0ba3 9268 a1b8 d4b0 d6b8 132d d1bc
00000090: f15e c7b8 1e42 a4bc 6cc0 1cb0 27c4 69bc
000000a0: 92da 0bbd 3ade 0eb5 26ba 8c9e d64b e1b8
000000b0: 9c28 2b3e 4fc1 deae 25d6 c5bd 38e0 0fa1
000000c0: f063 08a2 313c cab3 0193 2caf 72a6 1bba
000000d0: 4b8e 08bb 4644 40b4 d46a a6bc 895a 44bd
000000e0: a039 ed9e 8a31 983a 6558 e0ba 334f 83a0
000000f0: 2a71 41a5 3ce8 2cae dbdf 9daa 5584 d9ae

gnn.gnn_layer.edge_func.2.weight f4 [1024, 64]
4.8557673e-18 2.9171e-41 5.3175023e-07 -3.135588e-17 1.7645428e-27 1.876e-41 1.0634e-41 1.3496e-41
-0.09374605 -3.2625484e-32 1.2604488e-26 1.3081e-41 0.0004531007 6.268e-42 6.48e-42 1.988e-42
-1.459e-42 -5.748e-42 -1.436e-42 3.1192672e-35 -0.08429924 9.469e-42 -0.11597111 -2.4116e-41
2.459e-42 -1.199732e-10 -3.774e-42 1.1704341e-36 -9.575e-42 -0.058172442 -0.12114286 -2.279e-41
1.4805e-41 3.886e-42 3.1138e-41 -1.0482e-41 -3.43e-42 4.934e-42 -3.559e-42 0.00791811
-2.6794384e-35 4.3555975e-12 -1.1027e-41 4.92e-42 -0.150438 7.573e-42 3.9288296e-13 2.0179e-41
1.7299e-41 -8.799e-42 2.6273e-41 -4.8634043e-16 5.825077e-05 4.6454e-41 -1.198e-42 8.1597256e-24
3.7813e-41 -0.00018801783 -3.507914e-31 -5.922e-42 3.8249261e-34 3.36e-43 1.2323e-41 1.3445e-41
3.2077134e-19 -1.765e-41 -1.8454262e-08 2.4545e-41 -6.8637706e-29 -6.935741e-18 1.9353e-41 -6.6548e-41
-0.0016895434 -1.6230798e-36 -2.5429398e-30 7.30033e-06 -8.68839e-06 1.4588e-41 -4.3594e-41 -6.5502e-41
3.7415e-41 2.7988e-41 -1.9869e-41 1.6353431e-34 -0.0010554048 5.9542285e-13 -0.0083463965 -2.0309e-41
-1.221511e-16 5.517926e-13 1.0227147e-07 3.8588e-41 -3.5139e-41 -0.0010433978 -0.0084038265 -0.00035450756
4.8044547e-20 4.4816e-41 -6.5319e-41 1.918e-41 -7.913e-42 1.6049e-41 2.064e-41 -5.6528057e-05
1.5126e-41 1.6045898e-13 -4.4239e-41 6.1472e-41 -0.006122437 2.6029e-41 -1.1504403e-13 9.2893e-41
-4.3948463e-11 3.2088e-41 2.5641989e-17 -7.008825e-17 1.6669679e-06 7.1835448e-06 3.5024e-41 -7.574882e-25
1.9539279e-07 1.9432439e-07 7.904754e-33 -1.5577e-41 -6.9241274e-36 -1.8878e-41 2.671797e-23 2.2195e-41
3.5343277e-19 -6.28022e-26 -2.3745677e-08 3.7531e-41 -1.8715408e-28 8.98049e-40 -3.829e-41 6.244e-41
-0.00031110202 -1.0310037e-37 -2.8504545e-27 9.578002e-13 -3.574429e-06 5.828e-41 1.2117e-40 2.455e-41
-2.476846e-09 6.3745e-41 -3.3382e-41 5.6257e-41 -4.1436244e-05 2.082843e-08 -9.8133816e-05 4.67228e-40
-2.8656944e-18 -7.1751293e-07 1.229e-42 -6.57e-42 6.12e-43 -0.00012559672 -9.756034e-05 -4.866192e-13
-1.76872e-40 -6.8530337e-09 -5.7235e-41 -9.5552e-41 1.9992492e-06 -9.382896e-12 1.06279e-40 -9.434146e-05
1.9706e-41 4.9570504e-13 5.2738e-41 -1.7927e-41 -0.0005711127 -2.2614e-41 8.629056e-14 1.2907735e-20
4.1903564e-05 -6.1176e-41 9.647e-42 3.908992e-19 8.588736e-08 -6.8208802e-12 -3.455225e-08 -1.7886934e-24
-5.2188143e-09 -2.0062805e-07 4.64952e-40 -1.12461e-40 -7.520332e-12 -4.69e-42 2.0653032e-07 2.068916e-09
2.0229136e-18 -1.3955291e-15 1.0658246e-08 5.2543e-41 -7.345771e-10 -2.84726e-11 -1.9037e-41 3.1284e-41
-0.0036092328 3.3691096e-05 1.8733e-41 1.2765409e-08 -6.7600063e-06 2.9195e-41 -2.9937e-41 -5.6641484e-12
-1.6279682e-18 -8.6117e-41 -7.351e-42 -3.5624e-41 -8.941576e-05 1.4200051e-06 -0.019597983 -6.8594e-41
1.6436433e-13 1.4330735e-13 -5.9237584e-07 -2.808548e-15 3.5810222e-12 -0.0017548752 -0.020241644 -2.2147442e-12
-2.349152e-12 1.7271e-41 5.7635425e-22 4.9281e-41 -2.6658322e-08 -3.4752023e-07 -3.1767e-41 2.4655028e-05
1.66533e-40 4.189268e-16 -2.3667e-41 5.7912517e-19 -0.011599118 -3.678e-41 -5.4495725e-13 2.8549e-41
1.3015171e-10 4.0446e-41 1.2947132e-06 -4.5802906e-17 -6.712446e-06 2.468151e-11 2.7004e-41 -2.7876449e-25
1.4077468e-13 4.2784808e-07 -4.27458e-24 2.637e-41 -3.0214386e-29 -4.632e-41 -5.22115e-12 -5.048102e-20
00000000: 6d25 b322 5151 0000 99bd 0e35 7d9a 10a4
00000010: 2ecd 0b13 4c34 0000 a51d 0000 9f25 0000
00000020: eefd bfbd b566 298b 59a8 7914 7724 0000
00000030: 268e ed39 7911 0000 1012 0000 8b05 0000
00000040: 1104 0080 0610 0080 0104 0080 44d9 2506
00000050: 14a5 acbd 651a 0000 4382 edbd 3a43 0080
00000060: db06 0000 74e9 03af 850a 0080 9823 c703
00000070: b11a 0080 3a46 6ebd bf19 f8bd 873f 0080
00000080: 4529 0000 d50a 0000 cd56 0000 381d 0080
00000090: 9009 0080 c10d 0000 ec09 0080 f6ba 013c
000000a0: a076 0e86 bc3f 992c bd1e 0080 b70d 0000
000000b0: 6b0c 1abe 1c15 0000 672c dd2a 4038 0000
000000c0: 3930 0000 8718 0080 3d49 0000 972d 0ca6
000000d0: 4a52 7438 7f81 0000 5703 0080 01d5 1d19
000000e0: 6869 0000 a726 45b9 38ad e38c 8210 0080
000000f0: bf35 fe07 f000 0000 5a22 0000 7b25 0000
00000100: 9859 bd20 3331 0080 5a85 9eb2 6c44 0000
00000110: 6b04 ae90 39e2 ffa2 f335 0000 82b9 0080
00000120: ab73 ddba 8c13 0a84 cb4e 4e8e 5bf5 f436
00000130: 5ac4 11b7 aa28 0000 8679 0080 98b6 0080
00000140: 4c68 0000 054e 0000 6337 0080 d85f 5907
00000150: 8255 8aba bd98 272b 53bf 08bc 9d38 0080
00000160: a4d4 0ca5 d950 1b2b 56a0 db33 916b 0000
00000170: f461 0080 9fc2 88ba 34b0 09bc 33dd b9b9
00000180: 4be2 621f ee7c 0000 15b6 0080 7735 0000
00000190: 0f16 0080 bd2c 0000 8939 0000 8a18 6db8
000001a0: 2a2a 0000 27a9 342a 527b 0080 5cab 0000
000001b0: b99e c8bb 8f48 0000 2f87 01aa f302 0100
000001c0: 9249 41ae 7359 0000 6f81 ec23 cd9c a1a4
000001d0: 95bc df35 2e0a f136 a261 0000 666e 6a97
000001e0: 29cd 5134 7ba7 5034 e22c 240a 6c2b 0080
000001f0: 8942 1385 a034 0080 3f33 011a df3d 0000
00000200: 40a1 d020 a07d 9b95 4cf9 cbb2 9f68 0000
00000210: f93e 6d91 65c7 0900 bd6a 0080 0fae 0000
00000220: 681b a3b9 3c55 0c82 16d6 6193 64cc 862b
00000230: 39e0 6fb6 76a2 0000 c651 0100 6f44 0000
00000240: 2335 2ab1 b2b1 0000 0e5d 0080 d29c 0000
00000250: d4cb 2db8 34ea b232 31cd cdb8 7116 0500
00000260: 7073 53a2 1d9b 40b5 6d03 0000 5112 0080
00000270: b501 0000 9db2 03b9 4f99 ccb8 9cf8 08ab
00000280: 0ced 0180 ec77 ebb1 8c9f 0080 5c0a 0180
00000290: d72a 0636 cf10 25ad 4328 0100 30d9 c5b8
000002a0: ef36 0000 5087 0b2b 0393 0000 f931 0080
000002b0: b9b6 15ba 0a3f 0080 1f4f c229 fad1 731e
000002c0: 9cc1 2f38 89aa 0080 e41a 0000 04bf e620
000002d0: 1371 b833 07fd efac 9a66 14b3 b964 0a98
000002e0: 2d51 b3b1 386c 57b4 1910 0500 7f39 0180
000002f0: 904c 04ad 130d 0080 9fc2 5d34 c12c 0e31
00000300: c243 1522 f01d c9a6 761b 3732 7892 0000
00000310: 45eb 49b0 9872 faad 1135 0080 3557 0000
00000320: e188 6cbb 8a4f 0d38 3834 0000 dd4e 5b32
00000330: 03d4 e2b6 6251 0000 7453 0080 1d4a c7ac
00000340: e63e f0a1 0ff0 0080 7e14 0080 4e63 0080
00000350: b884 bbb8 0197 be35 f38b a0bc 36bf 0080
00000360: cb0e 392a 8859 212a c203 1fb5 9160 4aa7
00000370: f6fd 7b2c d703 e6ba ced1 a5bc 49d9 1bac
00000380: 8f4e 25ac 2530 0000 4031 2e1c 6089 0000
00000390: 45fe e4b2 d192 bab4 8e58 0080 45d2 ce37
000003a0: 3ad0 0100 af7e f125 f941 0080 76ed 2a21
000003b0: 3a0a 3ebc 8766 0080 4f64 19ab 954f 0000
000003c0: 731a 0f2f bf70 0000 02c6 ad35 873a 53a4
000003d0: 793b e1b6 d219 d92d 474b 0000 ff8b ac96
000003e0: 8a7f 1e2a feb2 e534 645d a598 8249 0000
000003f0: 8434 1990 1f81 0080 f0b3 b7ac cf63 6e9f

gnn.gnn_layer.edge_func.2.bias f4 [1024]
-0.22796923 -0.011822965 -0.00038254188 -0.032339916 -0.0023286592 -0.029847652 -0.007803712 -0.0014582373
-0.0014240731 0.34238634 -0.04520417 -0.0033850484 -0.00036822184 -0.0050389706 0.0032780333 -0.007174694
-1.6276142e-11 -0.0021335052 0.17576525 0.04952256 0.44912973 -0.075627185 0.0030396702 -0.0152093135
-0.010199877 -0.001717544 -0.04044839 -0.5009956 -0.43785015 -0.013902703 -2.025001e-05 -0.0024647973
-0.24175201 -0.012993222 -0.0038975112 -0.012684557 -0.011622333 0.12798598 -0.015047922 -0.003883191
-0.007650189 0.062030274 -0.085446954 -0.009515509 -0.0014737768 -0.0016363286 -0.022170182 -0.008146754
-3.0801598e-08 -0.010740157 -0.48157176 0.14192566 -0.17160447 -0.29842457 -0.04963789 -0.023160454
-0.006116641 -0.0007865272 -0.037468128 0.258273 0.12616082 -0.025008807 -0.00012357709 -0.022945123
-0.032883648 0.00021766491 -9.7926335e-05 -0.00083519035 0.005804189 -0.0028128945 0.0030716397 4.5801524e-05
1.0219133e-05 0.022954464 0.0037458055 3.5755068e-06 2.6899115e-05 -0.0017492629 -0.015378897 -0.00023375778
2.4419303e-21 -0.0014722069 0.015880905 -0.008074816 -0.04589316 -0.011391579 -0.004484974 -0.0040592975
-8.974172e-05 -2.7683293e-05 0.0034314736 -0.0024570613 -0.024829468 0.007336995 -1.5859739e-06 -0.00018875777
-0.059180398 0.0024191986 0.0010890465 -0.0037882118 -0.0013831293 0.0718646 -0.022699809 0.00037586378
0.0003798416 -0.0005418578 0.07043824 0.0005206479 0.0003589247 0.0054172534 -0.021872776 0.007891668
1.5847126e-11 -0.0051816967 -0.117867015 0.09325236 0.014886795 0.01936532 -0.004348616 -0.013995615
-0.0042943805 0.002584207 0.008675513 -0.0076895757 0.10173603 0.0069773598 -0.00012810642 0.005683086
0.038538143 -0.0004913318 0.00070198084 0.00092161715 -0.009190753 0.0075196372 -0.004632357 0.0003037037
-0.00069368444 -0.029102681 -0.026270162 1.1033744e-05 -0.00027308162 0.0046663308 0.025284708 0.00021587504
-3.414135e-21 0.005478089 0.019897414 0.008248999 0.010498296 -0.012723411 0.0061805435 0.012601939
0.0007613027 -0.000117925396 -0.008033861 -0.025996266 0.0066654533 -0.0038719985 -2.264142e-05 -0.0010601466
-0.011958432 0.00066465745 4.5930003e-05 0.0008908815 0.0003157921 -0.017997464 0.0015018098 -0.00013407569
0.00032827156 -0.008339205 0.017976468 -4.8646816e-06 9.884279e-05 0.0018304546 0.00018515348 0.0012283663
5.9151633e-21 -0.0010496272 -0.023293152 0.0044831405 0.020919945 0.033905372 -0.0015273357 -0.0038667596
0.0012837992 0.00010317198 0.00077259133 -0.002778449 0.0110254 -0.003096433 8.698902e-06 -0.00066638424
-0.10478043 0.0017710783 0.0016229291 0.004971306 0.00513098 0.024828402 -0.012192354 0.00010976757
0.001909834 -0.18800107 0.06908649 0.0005385204 0.0011296227 0.007813737 -0.014367114 0.0048145293
4.7442825e-08 0.004264267 -0.110166915 0.0790397 -0.034023345 0.0761835 0.0018743171 -0.0034641717
0.0011593975 0.0020327442 0.013206836 -0.002536042 0.067294784 -0.006532114 -0.00013944184 0.010085312
-0.25296578 -0.03026606 -0.0075077447 -0.05362107 -0.020291988 -0.16015919 -0.0010620388 -0.003382744
-0.007221142 0.0343804 -0.05396831 -0.0053559723 -0.003150329 -0.044020567 -0.029745063 -0.011155928
-7.9461815e-06 -0.021201162 0.20779955 0.06786626 -0.056196023 -0.052171964 -0.0047366135 -0.025123686
-0.0035576988 -0.002170576 -0.024186393 0.27966315 0.095086195 -0.022651715 -0.00022274078 -0.017282808
00000000: c470 69be 1cb5 41bc e78f c8b9 dc76 04bd
00000010: 6b9c 18bb 1083 f4bc 48b6 ffbb 5322 bfba
00000020: f7a7 baba 434d af3e 0228 39bd b0d7 5dbb
00000030: e60d c1b9 f31d a5bb 46d4 563b b219 ebbb
00000040: 9d2a 8fad 47d2 0bbb cefb 333e 2bd8 4a3d
00000050: 55f4 e53e 6de2 9abd 3435 473b 7c30 79bc
00000060: 631d 27bc 371f e1ba 36ad 25bd 3f41 00bf
00000070: e52d e0be 2ac8 63bc 91de a9b7 7088 21bb
00000080: d78d 77be 86e1 54bc 636d 7fbb e3d2 4fbc
00000090: 996b 3ebc c20e 033e 8f8b 76bc 227d 7ebb
000000a0: 70ae fabb 7513 7e3d d0fe aebd f0e6 1bbc
000000b0: be2b c1ba 147a d6ba 3e9e b5bc f679 05bc
000000c0: b74a 04b3 7cf7 2fbc 9390 f6be f654 113e
000000d0: 15b9 2fbe 1bcb 98be 1a51 4bbd feba bdbc
000000e0: 1b6e c8bb f22e 4eba 2e78 19bd 5c3c 843e
000000f0: 4d30 013e 45df ccbc 7994 01b9 69f7 bbbc
00000100: 01b1 06bd fb3c 6439 cd5d cdb8 adf0 5aba
00000110: 1131 be3b 8a58 38bb 904d 493b 031b 4038
00000120: d872 2b37 000b bc3c 307c 753b bdf2 6f36
00000130: 69a5 e137 8647 e5ba c5f7 7bbc e01c 75b9
00000140: cd81 381d 11f7 c0ba ac18 823c 3c4c 04bc
00000150: 77fa 3bbd bfa3 3abc b0f6 92bb db03 85bb
00000160: b833 bcb8 6b39 e8b7 93e2 603b a606 21bb
00000170: 2b67 cbbc 2d6b f03b a6dd d4b5 47ed 45b9
00000180: 2567 72bd 6b8b 1e3b 56be 8e3a a643 78bb
00000190: 1e4a b5ba bf2d 933d f3f4 b9bc 950f c539
000001a0: 7a25 c739 760b 0eba ed41 903d 177c 083a
000001b0: 0f2e bc39 3783 b13b 892e b3bc 0e4c 013c
000001c0: 8e64 8b2d 39cb a9bb 4364 f1bd 18fb be3d
000001d0: bee7 733c 05a4 9e3c d67e 8ebb dd4d 65bc
000001e0: e0b7 8cbb cd5b 293b bd23 0e3c d6f8 fbbb
000001f0: fb5a d03d 56a2 e43b 4e54 06b9 2e39 ba3b
00000200: 2cda 1d3d b8cc 00ba 2305 383a ae98 713a
00000210: d094 16bc 4a67 f63b 07cb 97bb 6c3a 9f39
00000220: 60d8 35ba bf68 eebc 8634 d7bc 921d 3937
00000230: 652c 8fb9 05e8 983b e021 cf3c 845c 6239
00000240: 7dfb 809d 8b81 b33b e7ff a23c cf26 073c
00000250: 0b01 2c3c db75 50bc 2886 ca3b 5d78 4e3c
00000260: 2992 473a b74e f7b8 75a0 03bc 1ff6 d4bc
00000270: e069 da3b 5bc1 7dbb 14ee bdb7 9ef4 8aba
00000280: 4ded 43bc 683c 2e3a f7a4 4038 0c8a 693a
00000290: e690 a539 6b6f 93bc 60d8 c43a ab96 0cb9
000002a0: dd1b ac39 29a1 08bc 6343 933c 4c3b a3b6
000002b0: d249 cf38 ddeb ef3a c225 4239 2201 a13a
000002c0: f377 df1d a593 89ba 48d1 bebc 4fe7 923b
000002d0: 4e60 ab3c 5ce0 0a3d e230 c8ba 7669 7dbb
000002e0: 2745 a83a 095e d838 ba87 4a3a a416 36bb
000002f0: e1a3 343c 86ed 4abb 80f1 1137 4ab0 2eba
00000300: 1f97 d6bd 8723 e83a 77b8 d43a 56e6 a23b
00000310: c821 a83b ef64 cb3c 70c2 47bc 0433 e638
00000320: 6553 fa3a 5a83 40be 387d 8d3d 7e2b 0d3a
00000330: d90f 943a 3005 003c 0b64 6bbc 33c3 9d3b
00000340: f0c3 4b33 44bb 8b3b 319f e1bd 91df a13d
00000350: 105c 0bbd 1806 9c3d a5ab f53a 2807 63bb
00000360: edf6 973a ca37 053b 7c61 583c b933 26bb
00000370: d9d1 893d 580b d6bb 2237 12b9 dd3c 253c
00000380: bb84 81be 87f0 f7bc 8703 f6bb c4a1 5bbd
00000390: 623b a6bc c500 24be 1c34 8bba 07b1 5dbb
000003a0: 549f ecbb 76d2 0c3d e00d 5dbd 2781 afbb
000003b0: c075 4ebb e94e 34bd ebab f3bc 5ac7 36bc
000003c0: 9750 05b7 0fae adbc 68c9 543e 77fd 8a3d
000003d0: cd2d 66bd 45b2 55bd 9835 9bbb 30d0 cdbc
000003e0: 4828 69bb 3940 0ebb 8b22 c6bc 0230 8f3e
000003f0: 8dbc c23d 1790 b9bc 868f 69b9 ad94 8dbc

gnn.gru.weight_ih_l0 f4 [96, 32]
-0.0053434665 0.0015848035 -2.4479098e-06 -0.00011337496 0.0011442718 -0.0067045284 -0.016704276 -6.808391e-06
0.00011926583 -0.021485709 0.009912208 1.3129343e-05 -2.453581e-08 0.0012078554 -0.0032610742 -1.8930923e-05
-4.990872e-22 -0.0007586254 0.013363169 0.010172107 0.021586737 -0.03867076 0.012203245 0.0036143505
0.0057337615 6.661742e-06 -0.0007080504 -0.018333055 -0.01433162 0.0050748102 -2.8513006e-05 -0.00016664651
-0.004335788 0.00059704925 -3.3364108e-06 -0.000156707 0.0003262416 -0.013828273 -0.010004397 -5.5716664e-06
-0.00021974494 -0.019813066 0.0044312584 8.426812e-06 3.2180117e-07 0.0016131314 0.0020339293 -2.4059062e-05
-1.5380112e-22 0.00082222396 -0.008807392 0.004625079 0.01858395 -0.0011066395 -0.032305468 0.0028073862
-0.0039359797 -3.287218e-07 0.00045624736 0.0012628138 -0.005038992 0.007884735 -1.597905e-05 -4.8337362e-05
0.0036294998 -0.00011930861 -2.9130997e-06 -1.0235763e-05 5.2416508e-05 0.0015628419 0.0031668912 3.37796e-06
-1.5696702e-05 -0.01951513 -0.00018839889 -3.958097e-07 -5.4048463e-08 0.00020152982 0.00093502033 2.2082641e-07
-6.099836e-23 5.6247805e-05 -0.0031034069 0.0026467403 -0.012168302 -0.002101631 0.00038758566 -0.0014717637
9.33329e-05 -8.802035e-08 8.698221e-05 -0.018039126 0.0043288986 -0.00026666312 -1.5801388e-06 5.9416866e-06
0.008709668 2.7688653e-05 -4.179859e-06 -1.678105e-05 0.00016757449 -0.0029562106 -0.011184975 -1.4286921e-06
-1.1762808e-05 0.028524196 0.0013623113 -1.401092e-06 2.197167e-07 -0.00011005342 -0.0024842808 9.838757e-06
-3.4849868e-23 -9.054969e-06 0.016342625 0.025560727 -0.017498216 0.025780052 -0.0030348583 -0.00059455744
-0.00012995071 7.498877e-08 7.31085e-06 -0.006922375 -0.007773468 0.00068342587 4.657796e-06 0.00013669708
-0.009593954 2.6116476e-07 9.091794e-07 3.9812345e-05 3.5269262e-05 -0.0062560695 -0.006705241 -2.8669064e-07
-1.3067126e-06 -0.031028055 -0.00012223539 1.0880206e-06 1.1184515e-06 -0.00018432699 -0.0007042443 7.14199e-07
-3.9421033e-23 1.30034e-05 -0.01538322 -0.0069384254 -0.029221926 -0.0044885934 -0.0033786278 -0.0008393863
-1.5826183e-07 5.1179875e-08 2.0534844e-05 -0.023227574 -0.018808527 5.7079124e-05 -1.003001e-05 -2.7764567e-05
0.0009419195 -8.288106e-05 -9.560163e-07 1.9866675e-05 -0.00011843853 -0.0015466419 -0.00070826703 -4.4773146e-06
1.1359193e-05 -0.0053703315 0.00014768797 -7.496936e-07 -9.542237e-07 -0.000416699 0.00081065344 2.7712653e-07
-9.6540457e-23 3.241606e-05 0.001978581 0.006517506 0.000734067 0.0012901948 -0.0021308076 -0.001031614
2.1352005e-05 -9.835103e-08 -1.1141353e-05 -0.0085232295 0.0040427046 -0.0005019989 -1.0569294e-06 8.978026e-07
0.003485569 -0.00044129204 -9.3325497e-07 -1.6774399e-06 -4.3852648e-05 0.0036621597 -0.0042673135 -7.828764e-06
5.890458e-06 -0.010503851 0.0010723026 2.4089707e-06 2.8515245e-07 0.00035144557 6.488882e-07 -1.8725092e-05
-1.798228e-22 -0.0006093722 -0.0071501443 0.0024311044 -0.027983667 -0.014198468 -0.0040742164 -0.00042661713
0.00018736754 1.8255691e-06 5.2246774e-05 -0.03619787 0.0052880165 0.00053859974 1.2819446e-05 3.7456416e-06
-0.012699271 -8.127247e-05 1.2603315e-06 -0.00085955067 -9.199828e-05 -0.021338798 -0.02823415 4.1314493e-06
-0.0005713226 0.01120513 0.027874328 4.823108e-07 2.522899e-07 -0.0016601228 -0.027282113 6.142866e-06
-5.968169e-23 -0.00046606828 -0.011802675 -0.0049926746 -0.024340456 -0.02179127 0.0062073204 -0.017580321
-0.0007066627 -5.3757105e-07 0.0005209771 0.012735844 -0.15665196 -0.008880778 -3.20017e-05 5.4131306e-05
00000000: 3f18 afbb 2eb9 cf3a c546 24b6 b8c3 edb8
00000010: 64fb 953a a9b1 dbbb 68d7 88bc a273 e4b6
00000020: 5b1e fa38 cc02 b0bc d066 223c 1946 5c37
00000030: d1c2 d2b2 e750 9e3a bfb7 55bb d9cd 9eb7
00000040: 00d7 169c 7dde 46ba 31f1 5a3c e9a8 263c
00000050: abd6 b03c 3b65 1ebd 1ff0 473c bdde 6c3b
00000060: 47e2 bb3b ee87 df36 759c 39ba 342f 96bc
00000070: 2ccf 6abc 984a a63b 372f efb7 d5bd 2eb9
00000080: 3a13 8ebb 4c83 1c3a 1ae7 5fb6 b751 24b9
00000090: 680b ab39 fb8f 62bc 7be9 23bc 40f4 bab6
000000a0: 556b 66b9 034f a2bc 1734 913b e260 0d37
000000b0: 04c4 ac34 b56f d33a ac4b 053b 71d2 c9b7
000000c0: 24ef 399b 848a 573a e14c 10bc fa8d 973b
000000d0: 5e3d 983c a90c 91ba bd52 04bd 20fc 373b
000000e0: 64f9 80bb 2e7b b0b4 7c34 ef39 0085 a53a
000000f0: 211e a5bb fa2e 013c c00a 86b7 d9bd 4ab8
00000100: e7dc 6d3b 5235 fab8 ac7e 43b6 44ba 2bb7
00000110: ccd9 5b38 46d8 cc3a 9e8b 4f3b e9b0 6236
00000120: 69ac 83b7 32de 9fbc f18c 45b9 ac7f d4b4
00000130: ea22 68b3 c051 5339 271c 753a 4d1c 6d34
00000140: 287c 939a 9feb 6b38 8762 4bbb ef74 2d3b
00000150: 8f5d 47bc 84bb 09bb de34 cb39 32e8 c0ba
00000160: b8bb c338 b305 bdb3 386a b638 cac6 93bc
00000170: 6fd9 8d3b ebce 8bb9 2815 d4b5 b35e c736
00000180: ffb2 0e3c ee44 e837 b740 8cb6 08c5 8cb7
00000190: efb6 2f39 fcbc 41bb 2f41 37bc 7dc1 bfb5
000001a0: e058 45b7 93ab e93c 958f b23a 280d bcb5
000001b0: 44eb 6b34 7bcc e6b8 51cf 22bb 2411 2537
000001c0: 0c86 289a ccea 17b7 f8e0 853c bb64 d13c
000001d0: 6b58 8fbc b030 d33c 79e4 46bb 13dc 1bba
000001e0: 6143 08b9 8309 a133 b94f f536 17d5 e2bb
000001f0: 93b8 febb ef27 333a 2a4a 9c36 5856 0f39
00000200: f62f 1dbc 3636 8c34 550e 7435 2efc 2638
00000210: 15ee 1338 b7ff ccbb a3b7 dbbb 76ea 99b4
00000220: 4e62 afb5 8c2e febc 502c 00b9 1a08 9235
00000230: b31d 9635 e647 41b9 099d 38ba 62b7 3f35
00000240: e0a0 3e9a 2e29 5a37 e709 7cbc bb5b e3bb
00000250: d262 efbc 0d15 93bb f86b 5dbb 430a 5cba
00000260: aeee 29b4 ded0 5b33 3e42 ac37 c147 bebc
00000270: 5714 9abc 3e68 6f38 9146 28b7 f4e7 e8b7
00000280: 26eb 763a 6ed0 adb8 7850 80b5 5ca7 a637
00000290: 3462 f8b8 b1b8 caba ffaa 39ba d73b 96b6
000002a0: 5d93 3e37 9bf9 afbb b0dc 1a39 8d3e 49b5
000002b0: e012 80b5 6578 dab9 0882 543a fbc7 9434
000002c0: a66b e99a 7bf6 0738 15ab 013b ce90 d53b
000002d0: 676e 403a c11b a93a 05a5 0bbb 3937 87ba
000002e0: 151d b337 0d35 d3b3 bfeb 3ab7 04a5 0bbc
000002f0: aa78 843b 9398 03ba d1db 8db5 8600 7135
00000300: 256e 643b 375d e7b9 cb84 7ab5 6524 e1b5
00000310: 6cee 37b8 d800 703b d2d4 8bbb 4958 03b7
00000320: a6a6 c536 5818 2cbc 818c 8c3a cda9 2136
00000330: 0e17 9934 3a42 b839 422f 2e35 d413 9db7
00000340: 7664 599b 47be 1fba c24b eabb 2a53 1f3b
00000350: 013e e5bc b1a0 68bc 0181 85bb 95ab dfb9
00000360: 1778 4439 1406 f535 8c23 5b38 3844 14bd
00000370: 1947 ad3b d130 0d3a 1a13 5737 a25d 7b36
00000380: 9a10 50bc d370 aab8 a928 a935 7853 61ba
00000390: 33ef c0b8 b4ce aebc 4e4b e7bc e1a0 8a36
000003a0: d0c4 15ba b995 373c b458 e43c 2578 0135
000003b0: 7672 8734 7a98 d9ba bd7e dfbc d11e ce36
000003c0: 2d4d 909a a05a f4b9 0260 41bc 9799 a3bb
000003d0: a365 c7bc 9b83 b2bc c766 cb3b 9b04 90bc
000003e0: 553f 39ba 9a4d 10b5 2e92 083a 00aa 503c
000003f0: 5f69 20be af80 11bc 9039 06b8 0c0b 6338

gnn.gru.weight_hh_l0 f4 [96, 32]
0.0062811105 -0.0037778388 0.007045905 0.002751017 -0.016350579 0.0013597504 -0.009794575 -0.014473115
0.007018786 -0.010817893 -0.008537816 -0.028152801 -0.0003463803 -0.0028098624 -0.013705941 0.0021768317
0.0019623598 -0.007155291 -0.001803758 0.004464939 -0.00898798 -0.011193431 -0.024978857 -0.012197165
-0.0065782913 0.004380813 0.009289234 -0.0035492594 -0.0029553534 0.0010031566 -0.0023125326 -0.029395808
-0.013906126 0.0046868236 -0.014825242 -0.0020934937 0.023976503 0.0039141565 0.0056430427 -0.0035923193
0.011058803 0.00074233836 0.015360488 -0.010433423 -0.010727791 -0.011664291 0.005474267 -0.025070436
-0.0037929262 -0.005815266 -0.0014807899 0.015016291 -0.013035922 0.014764722 0.00559748 0.0043508066
0.011823241 -0.018671121 0.01032142 0.009968435 -0.019274242 0.0022105842 0.004873985 -0.00048144555
0.0029774078 0.0013246023 0.00014918776 -0.0005069987 -0.0011027674 0.00016092461 -0.0003571035 0.0010935847
-0.0027370306 0.0014979949 5.3987893e-05 0.0017792085 -0.0015425443 -0.0019695505 0.0003568483 -0.00060558115
0.0015207748 0.0007703506 0.002399044 0.0004202035 0.0020085126 -0.00092293107 0.00034550688 0.0011133357
0.0013722563 0.0009794474 0.0018516209 0.003717198 -0.00011528977 8.184337e-05 0.0017669647 0.0044954726
-0.005116093 0.028418908 -0.004297481 0.0030817837 0.011550125 -0.00043981159 0.004830938 -0.0039089904
0.005185821 0.012549332 -0.008099205 0.011830535 0.013294355 0.011352576 -0.008323501 -0.012877218
0.012071502 0.029799517 0.0007327303 0.01322337 -0.01234576 0.005162227 0.012539178 0.013198672
0.015959779 -0.007884864 -0.0014501676 -6.0035843e-05 -0.012279481 0.0016052461 -0.013689757 -0.008670575
0.00026374654 -0.0010463307 -0.0021078584 -0.006041947 0.0068946537 -0.0057420456 -0.000994472 0.002006776
-0.0039062179 0.00018216147 0.000689429 -0.0025266937 -0.00096951023 -0.0046134754 0.0006812218 -0.0013827313
0.00011551389 -0.0073865117 0.0005809184 0.0012042177 -0.0064260107 0.0105890315 0.004068581 -0.00082318846
0.006208773 -0.0011888444 0.00046997797 0.0023140877 0.00070961245 -0.0017518916 9.908636e-05 0.006735605
-0.0036478124 -0.0042197825 -0.0015528856 -0.003224861 0.0072175753 -0.0021826404 0.0021754792 -0.002530979
0.001065193 -0.0040652426 0.00040203423 -0.003929448 -0.00024336959 -0.005494042 0.006878737 -0.0013506337
-0.0041823327 -0.0037194544 0.0043196287 0.0016979694 0.0053408137 0.008766409 0.0004312087 -0.0038704062
0.0012675382 -0.0022965965 0.0040175454 0.0011616652 -2.9117482e-05 -0.0008041639 0.004424282 0.0046738293
0.0006401258 0.007558418 -4.661715e-05 -0.0012181009 0.0026799028 -0.0012821702 0.0021853244 -0.003022635
0.0057076206 0.0021334125 -0.003915148 0.0006428306 0.0027324664 -0.001770971 0.0023974655 -0.0018636361
0.0018595601 0.010357337 0.0005487783 0.0011971025 0.0023952797 0.0050426605 0.00030338927 0.00030084339
0.0033400068 -0.0007968474 0.0006673649 -0.0032832955 -0.00062336 5.6835535e-05 -0.000558344 -8.7789245e-05
-0.006337254 0.0015045122 -0.0016721606 0.0085553145 0.006825374 -0.0023944972 0.0034744255 -0.014928531
0.009330043 0.00091614685 -0.023876254 0.008438999 0.01993722 3.6600257e-05 0.0038706602 -0.0027072928
-0.0011225106 -0.0064809513 -0.00960474 0.0049417843 0.010133788 0.006095309 0.008337727 0.017299488
0.0038107976 -0.00827872 -0.0055408236 0.0042788656 0.0001727044 -0.0017661895 -0.00042901034 0.002486312
00000000: c6d1 cd3b 9e95 77bb 56e1 e63b 684a 343b
00000010: a6f1 85bc a739 b23a 6d79 20bc a520 6dbc
00000020: d8fd e53b 883d 31bc 32e2 0bbc b4a0 e6bc
00000030: 609a b5b9 ab25 38bb e28e 60bc 2da9 0e3b
00000040: ef9a 003b ee76 eabb 136c ecba 9f4e 923b
00000050: 5242 13bc a764 37bc 76a0 ccbc 9ed6 47bc
00000060: b58e d7bb ec8c 8f3b df31 183c b19a 68bb
00000070: 9aae 41bb 5a7c 833a dc8d 17bb 7acf f0bc
00000080: 85d6 63bc ed93 993b 92e5 72bc ff32 09bb
00000090: 5f6a c43c 5342 803b 46e9 b83b 1e6d 6bbb
000000a0: fb2f 353c 7c99 423a 8eaa 7b3c f3f0 2abc
000000b0: 9ec3 2fbc 951b 3fbc 7b61 b33b 8460 cdbc
000000c0: be92 78bb fd8d bebb 1017 c2ba e406 763c
000000d0: 9f94 55bc bce7 713c 116b b73b 3691 8e3b
000000e0: 44b6 413c 2ef4 98bc 2c1b 293c a652 233c
000000f0: 04e5 9dbc 73df 103b f3b5 9f3b 876a fcb9
00000100: 9d20 433b 479e ad3a 496f 1c39 1be8 04ba
00000110: bc8a 90ba dfbd 2839 9f39 bbb9 9d56 8f3a
00000120: c15f 33bb 5e58 c43a 0f71 6238 5534 e93a
00000130: 332f caba 9313 01bb 5e17 bb39 ddbf 1eba
00000140: bc54 c73a 5bf1 493a 4839 1d3b c24e dc39
00000150: 40a1 033b dbf0 71ba 2625 b539 59ed 913a
00000160: 48dd b33a cd60 803a 16b2 f23a 3c9c 733b
00000170: b9c7 f1b8 53a3 ab38 7f99 e73a c24e 933b
00000180: e6a4 a7bb c5ce e83c e2d1 8cbb c0f7 493b
00000190: bc3c 3d3c 8396 e6b9 d84c 9e3b fd16 80bb
000001a0: d2ed a93b b79b 4d3c 87b2 04bc dcd4 413c
000001b0: 91d0 593c 2800 3a3c 4b5f 08bc f8fa 52bc
000001c0: 8dc7 453c 1e1e f43c b314 403a d5a6 583c
000001d0: df45 4abc e627 a93b 2071 4d3c 3e3f 583c
000001e0: 15be 823c 842f 01bc 8d13 beba ffce 7bb8
000001f0: e02f 49bc 1f67 d23a 014b 60bc 070f 0ebc
00000200: 7647 8a39 0825 89ba ff23 0abb 86fb c5bb
00000210: 8cec e13b c527 bcbb f158 82ba 1d84 033b
00000220: 76ff 7fbb 9902 3f39 ccba 343a e396 25bb
00000230: bb26 7eba a32c 97bb 0594 323a c33c b5ba
00000240: 0c40 f238 8d0a f2bb c648 183a d7d6 9d3a
00000250: 4991 d2bb 9e7d 2d3c bb51 853b 3ecb 57ba
00000260: f672 cb3b 00d3 9bba 6067 f639 f3a7 173b
00000270: 4905 3a3a ba9f e5ba 96cc cf38 5ab6 dc3b
00000280: 2310 6fbb 1a46 8abb 328a cbba 3158 53bb
00000290: 6981 ec3b a10a 0fbb 7c92 0e3b c8de 25bb
000002a0: f29d 8b3a ba35 85bb 1fc8 d239 99c2 80bb
000002b0: 0731 7fb9 5d07 b4bb 0767 e13b bf07 b1ba
000002c0: f30b 89bb 17c2 73bb ac8b 8d3b 668e de3a
000002d0: fe01 af3b fca0 0f3c da13 e239 a4a6 7dbb
000002e0: 8623 a63a 7f82 16bb 9da5 833b 0443 983a
000002f0: 5141 f4b7 87ce 52ba 91f9 903b ec26 993b
00000300: 1ece 273a 9bac f73b c986 43b8 afa8 9fba
00000310: 4fa1 2f3b 7e0e a8ba a937 0f3b 6617 46bb
00000320: fe06 bb3b b9d0 0b3b a44a 80bb a283 283a
00000330: 2e13 333b ed1f e8ba cc1e 1d3b 4045 f4ba
00000340: 7cbc f33a d2b1 293c e3db 0f3a 18e8 9c3a
00000350: 20fa 1c3b e73c a53b 3810 9f39 84ba 9d39
00000360: 04e4 5a3b 86e3 50ba 1af2 2e3a 8f2c 57bb
00000370: fb68 23ba b162 6e38 d55d 12ba 7e1b b8b8
00000380: bda8 cfbb 0d33 c53a 662c dbba 972b 0c3c
00000390: 63a7 df3b ffec 1cbb 30b3 633b cc96 74bc
000003a0: 09dd 183c 9329 703a 2298 c3bc ba43 0a3c
000003b0: 6153 a33c 3a83 1938 e7aa 7d3b d66c 31bb
000003c0: 3521 93ba 295e d4bb 335d 1dbc b1ee a13b
000003d0: 3008 263c 28bb c73b f69a 083c a8b7 8d3c
000003e0: 93be 793b 78a3 07bc cc8f b5bb ba35 8c3b
000003f0: fc17 3539 7c7f e7ba cbec e0b9 65f1 223b

gnn.gru.bias_ih_l0 f4 [96]
-0.020657368 -0.006145196 -0.0031234827 0.0070228917 -0.0136945555 -0.0029927923 -0.010386161 0.012730122
0.014377282 0.0029438972 0.07020709 -0.004516474 0.051540706 -0.0004285269 -0.033456456 -0.001139058
-0.014677363 -0.015271899 -0.012637343 -0.001973142 -0.0121835405 0.00020051384 -0.026630728 -0.021118212
-0.017266743 -0.0034011272 -0.008698465 -0.030902212 -0.0037267364 -0.002057723 -0.022958457 0.024773173
0.14300612 -0.030498046 0.0426302 0.008190733 0.0574258 0.025018897 0.013609271 -0.052396487
-0.097688965 -0.19298086 -0.08533077 0.030242208 -0.06471255 0.030029032 0.045872018 0.044313494
-0.00029279143 0.07948666 -0.22998591 0.0413614 -0.015007264 0.012336936 -0.09068837 -0.19914055
-0.07338696 0.035566505 -0.20504542 -0.044140723 0.05264947 0.036416396 -0.063098304 -0.15005115
0.023831643 -0.08970008 -0.002077185 0.034201182 -0.024269976 0.009304155 0.100404344 -0.24894285
-0.116246685 0.039557986 -0.19519939 0.036091607 0.20310932 -0.08985214 0.055397376 0.01741496
0.009174648 -0.045738503 0.080115974 0.044702485 0.042749412 -0.017863553 -0.038683917 -0.03173311
-0.04925863 0.047884908 -0.09406635 -0.17197724 -0.09716477 0.00047161544 0.124107845 0.24557759
00000000: a439 a9bc a45d c9bb 58b3 4cbb 4920 e63b
00000010: 215f 60bc b922 44bb b72a 2abc 0092 503c
00000020: b18e 6b3c 66ee 403b bcc8 8f3d eefe 93bb
00000030: 591c 533d e8ab e0b9 a309 09bd 724c 95ba
00000040: 5379 70bc fd36 7abc dc0c 4fbc d44f 01bb
00000050: 799d 47bc 0641 5239 af28 dabc 1a00 adbc
00000060: fc72 8dbc 72e5 5ebb 0284 0ebc a326 fdbc
00000070: 433c 74bb ddda 06bb 6013 bcbc 1cf1 ca3c
00000080: 3270 123e 0ad7 f9bc 019d 2e3d 6d32 063c
00000090: 5137 6b3d 6ef4 cc3c 6bf9 5e3c b39d 56bd
000000a0: 2711 c8bd c69c 45be e6c1 aebd 82be f73c
000000b0: 0388 84bd 72ff f53c 4ce4 3b3d 1182 353d
000000c0: cd81 99b9 e7c9 a23d 6d81 6bbe 926a 293d
000000d0: 07e1 75bc dc20 4a3c d3ba b9bd 80eb 4bbe
000000e0: e74b 96bd 2fae 113d 6df7 51be e7cc 34bd
000000f0: f8a6 573d 5c29 153d af39 81bd 02a7 19be
00000100: 943a c33c adb4 b7bd 6221 08bb 8a16 0c3d
00000110: d4d1 c6bc 7470 183c cba0 cd3d e0ea 7ebe
00000120: be12 eebd 8e07 223d 59e2 47be cbd4 133d
00000130: e4fb 4f3e 6604 b8bd 5ce8 623d d1a9 8e3c
00000140: 4351 163c 4c58 3bbd d813 a43d f419 373d
00000150: 021a 2f3d 9656 92bc 0773 1ebd 94fa 01bd
00000160: 6bc3 49bd f722 443d dca5 c0bd cd1a 30be
00000170: 53fe c6bd 2743 f739 412c fe3d b178 7b3e

gnn.gru.bias_hh_l0 f4 [96]
-0.020657368 -0.006145196 -0.0031234827 0.0070228917 -0.013694555 -0.002992793 -0.010386161 0.012730122
0.014377282 0.0029438972 0.07020709 -0.004516474 0.051540706 -0.0004285269 -0.033456456 -0.0011390577
-0.014677363 -0.015271899 -0.012637343 -0.001973142 -0.0121835405 0.0002005168 -0.026630728 -0.021118212
-0.017266743 -0.0034011262 -0.008698465 -0.030902212 -0.0037267364 -0.0020577225 -0.022958457 0.024773173
0.143007 -0.030498054 0.0426302 0.008190744 0.0574258 0.025018897 0.013609305 -0.05239485
-0.09768831 -0.19298418 -0.08533077 0.030559119 -0.06473952 0.02375493 0.045872066 0.044313494
-0.00028392774 0.07951711 -0.26148465 0.0413614 -0.015007275 0.012336936 -0.0904802 -0.19913499
-0.07338595 0.03556625 -0.19562167 -0.044140723 0.05264947 0.036416396 -0.054237075 -0.15005085
0.008007931 -0.047101628 0.0038891647 0.010081877 -0.016318988 0.00090597087 0.03879777 -0.08745548
-0.11673676 0.038445298 -0.0734902 0.004468556 0.11974219 -0.023376977 0.021088963 0.018469926
-0.0029882577 0.022246437 0.0072513903 0.007864386 0.025734326 -0.012397585 -0.04250451 0.021195868
0.077450804 0.036904264 -0.030568162 -0.09942851 -0.0440727 0.00092133187 0.032471023 0.12068875
00000000: a439 a9bc a45d c9bb 58b3 4cbb 4920 e63b
00000010: 205f 60bc bc22 44bb b72a 2abc 0092 503c
00000020: b18e 6b3c 66ee 403b bcc8 8f3d eefe 93bb
00000030: 591c 533d e8ab e0b9 a309 09bd 6f4c 95ba
00000040: 5379 70bc fd36 7abc dc0c 4fbc d44f 01bb
00000050: 799d 47bc d241 5239 af28 dabc 1a00 adbc
00000060: fc72 8dbc 6ee5 5ebb 0284 0ebc a326 fdbc
00000070: 433c 74bb dbda 06bb 6013 bcbc 1cf1 ca3c
00000080: 6d70 123e 0ed7 f9bc 019d 2e3d 7832 063c
00000090: 5137 6b3d 6ef4 cc3c 90f9 5e3c fb9b 56bd
000000a0: cf10 c8bd a59d 45be e6c1 aebd 1e57 fa3c
000000b0: 2796 84bd b399 c23c 59e4 3b3d 1182 353d
000000c0: 23dc 94b9 ded9 a23d 51e1 85be 926a 293d
000000d0: 13e1 75bc dc20 4a3c af4d b9bd 0bea 4bbe
000000e0: 5f4b 96bd ebad 113d 0c51 48be e7cc 34bd
000000f0: f8a6 573d 5c29 153d b227 5ebd eea6 19be
00000100: b233 033c a3ed 40bd 5be1 7e3b 752e 253c
00000110: 66af 85bc ad7e 6d3a 69ea 1e3d dc1b b3bd
00000120: af13 efbd d178 1d3d 0882 96bd f76c 923b
00000130: 653b f53d 1381 bfbc c3c2 ac3c 3e4e 973c
00000140: a5d6 43bb 293e b63c 129d ed3b a0d9 003c
00000150: cbd0 d23c 3e1f 4bbc 3619 2ebd f5a2 ad3c
00000160: 879e 9e3d ed28 173d 156a fabc 2da1 cbbd
00000170: 9385 34bd 8985 713a 5600 053d aa2b f73d
